Assets/results/traffic_1522/TrafficLightBrain/checkpoint.pt (torch, 163061 bytes, 26 tensors)

discrete_act_size_vector f4 [1, 4]
000000 00 00 00 40 00 00 00 40 00 00 00 40 00 00 00 40
       2.0 2.0 2.0 2.0

network_body.observation_encoder.processors.0.normalizer.running_mean f4 [11]
000000 e0 c7 65 40 ac 27 59 40 58 8a 5f 40 b6 91 6d 40
       3.5903244 3.3930464 3.4928188 3.7120185
000010 ac e3 84 40 51 cd 75 40 d4 87 c6 3e 45 45 ce 3e
       4.152792 3.8406565 0.38775504 0.40287223
000020 c5 fa d0 3e 1f 14 c8 3e 00 00 00 00
       0.40816322 0.3907785 0.0

network_body.observation_encoder.processors.0.normalizer.running_variance f4 [11]
000000 a9 b7 fc 45 f2 04 c8 45 76 1d f7 45 1f e9 09 46
       8086.9575 6400.618 7907.6826 8826.28
000010 9c f4 a9 46 ff 1a 89 46 74 8a 9d 43 6f a2 9f 43
       21754.305 17549.498 315.08167 319.269
000020 c0 4b a0 43 d5 fb 9d 43 00 00 80 3f
       320.5918 315.96744 1.0

network_body.processors.0.normalizer.running_mean f4 [11]
000000 e0 c7 65 40 ac 27 59 40 58 8a 5f 40 b6 91 6d 40
       3.5903244 3.3930464 3.4928188 3.7120185
000010 ac e3 84 40 51 cd 75 40 d4 87 c6 3e 45 45 ce 3e
       4.152792 3.8406565 0.38775504 0.40287223
000020 c5 fa d0 3e 1f 14 c8 3e 00 00 00 00
       0.40816322 0.3907785 0.0

network_body.processors.0.normalizer.running_variance f4 [11]
000000 a9 b7 fc 45 f2 04 c8 45 76 1d f7 45 1f e9 09 46
       8086.9575 6400.618 7907.6826 8826.28
000010 9c f4 a9 46 ff 1a 89 46 74 8a 9d 43 6f a2 9f 43
       21754.305 17549.498 315.08167 319.269
000020 c0 4b a0 43 d5 fb 9d 43 00 00 80 3f
       320.5918 315.96744 1.0

network_body._body_endoder.seq_layers.0.weight f4 [128, 11]
000000 38 c5 ad 3e 76 bc 65 3e d3 10 d1 be fc 3c 7c 3e
       0.33939528 0.22435173 -0.40833148 0.24632639
000010 2c c8 a2 be e0 e4 0d be 3f 21 8e 3d 76 50 0f 3b
       -0.31793344 -0.1385684 0.06939935 0.0021868027
000020 22 47 f6 3d 82 b8 a1 3d 7d c5 bc be 00 f8 8c be
       0.12025286 0.0789652 -0.36869422 -0.2753296
000030 50 dd 39 3c f5 92 ce 3e b2 ef 03 bf 25 ea 47 3e
       0.011344269 0.40346494 -0.5153762 0.19522913
000040 54 f9 52 be 72 99 15 3e 0e ee 18 3e 8c ab 91 be
       -0.20602924 0.14609316 0.1493456 -0.28451192
000050 e7 f1 04 3d 85 d6 aa be 9b 0f b8 be a4 9c 70 3e
       0.03245726 -0.3336679 -0.35949406 0.23497254
000060 7e a0 ed bd df 66 f3 3e 9b 95 40 3c f8 9c 65 3d
       -0.11602877 0.47539422 0.011754419 0.0560579
000070 0f 87 b6 be e8 75 ff 3e 73 ce b9 3d c9 91 00 3f
       -0.35649917 0.49894643 0.0907258 0.5022245
000080 d0 59 8e 3e 27 bc 1a bb 2d 31 9c bd a9 65 fb bd
       0.27802896 -0.0023610683 -0.07626567 -0.122752495
000090 cc 4b 9f be 7c 12 a4 be a9 87 2e be 19 56 bf bd
       -0.31112516 -0.32045352 -0.17043938 -0.09342594
0000a0 5c f4 98 be 5c 74 e4 be e2 4f 1e 3e 37 ec 8b 3d
       -0.2987393 -0.44620025 0.1546016 0.06832164
0000b0 fe 70 73 3e bd cc f1 bd e6 40 c0 3d 9f 80 e1 be
       0.23773572 -0.11806629 0.093873784 -0.44043443
0000c0 1b 2d aa be 86 84 6e be 6f 3a f7 be 0e 6d 4c be
       -0.33237538 -0.23292741 -0.4828677 -0.19963476
0000d0 8e 2f 65 be 04 bb 5b bd 40 38 3e be 7b ee 22 be
       -0.22381422 -0.05364515 -0.18576145 -0.15911286
0000e0 43 6a b9 bd 83 b4 fd bd 84 68 7c 3e 1f 50 81 bd
       -0.09053471 -0.123879455 0.24649245 -0.0631411
0000f0 f9 92 0e 3f 61 59 c4 be 21 ea 84 bd d7 2d 64 3d
       0.5569301 -0.3834944 -0.06489969 0.05570778
000100 7a c2 fe 3e d7 e1 e8 bd 81 5f b0 3d 45 64 97 bb
       0.4975775 -0.113712005 0.08611966 -0.0046201074
000110 7e 8f 7d 3e 79 8f 90 3e b3 f9 8b 3e ac 4d de 3d
       0.24761769 0.2823446 0.27338943 0.108546585
000120 d1 51 64 be 94 dc cc 3e b6 22 a1 bd 05 ef 0f be
       -0.22296835 0.40012038 -0.07867949 -0.14056022
000130 92 3e 10 3d 2a 0f 58 3e bb 09 8f be 30 3d 84 3e
       0.03521592 0.21099535 -0.2793711 0.25827932
000140 1c b0 45 3d 8d 65 fa 3c 7b 9d d8 be be a7 26 3e
       0.048263654 0.030566001 -0.42307648 0.16274926
000150 b6 57 47 be ed 15 cf bd 77 7d 75 bd a5 e0 5d be
       -0.19467053 -0.10111604 -0.059934106 -0.21667726
000160 69 ac 09 3e df 22 ab bd 78 81 ea 3e 09 89 ee bd
       0.13444676 -0.083562605 0.45801902 -0.11647231
000170 5c 83 f1 bd 59 11 6a bd cc 8c 00 be 89 09 34 3e
       -0.11792633 -0.05714545 -0.1255371 0.17581762
000180 c6 ab c2 3e 94 fe 49 bc 11 c2 b6 3d 06 f4 6d 3e
       0.38021678 -0.012328763 0.08923734 0.23237619
000190 a6 21 d7 3e 1d e5 56 be 97 32 9b 3e 31 15 a2 3e
       0.4201786 -0.20985837 0.30312034 0.31656793
0001a0 bc b6 9d 3e bc a8 23 bd 63 d0 d1 be 22 48 20 be
       0.30803478 -0.03995584 -0.409793 -0.15652516
0001b0 fd 7e 18 bc 46 43 f0 be ae ed e7 be 41 6d 9a be
       -0.00930762 -0.46926326 -0.45298523 -0.3016148
0001c0 d0 9b 9b be 71 2e 32 bd dd 12 97 be f0 95 8f bc
       -0.30392313 -0.04350132 -0.2950658 -0.01752755
0001d0 c6 ba 5a 3d 8d 26 03 3d fd b1 d8 be 4d 8a bb 3d
       0.053400777 0.032019187 -0.42323294 0.09157238
0001e0 cc 84 cf 3d 3a 3c 99 3e 0f 4e f1 be 81 db 43 be
       0.10132751 0.29928762 -0.47129866 -0.19126703
0001f0 11 95 4e be 50 da c6 bc fc c0 04 be ed bc c6 3c
       -0.20174052 -0.024274021 -0.12964243 0.024260009
000200 4d 26 4e 3f ba 20 cf be 09 fd b5 3c 66 98 ff bd
       0.8052719 -0.40454656 0.022215383 -0.124802396
000210 4e e7 32 3d 40 af 34 bf 3e 9a fc 3c 1c 48 6e be
       0.04367762 -0.7057991 0.030835267 -0.23269695
000220 6e 6f d7 bc 0b 32 9e 3c 2e 83 e6 bd 0f fa f2 bd
       -0.026298251 0.019310972 -0.11255489 -0.11864101
000230 eb e7 a4 be e3 f6 3f be c5 1a b5 bd 45 16 b7 bd
       -0.3220819 -0.18746524 -0.088429965 -0.089397945
000240 78 c2 67 be be a6 e8 bd 83 4d bf 3e 4c af d7 3e
       -0.22632778 -0.113599285 0.37363824 0.42125928
000250 3f 79 5e be b6 80 ca bd dc 29 d4 bd 14 d7 81 3d
       -0.21725939 -0.09887831 -0.103595465 0.06339851
000260 17 24 f4 3e 8c 30 02 be 8a eb 0e be 49 f7 d4 3e
       0.47683784 -0.12713832 -0.13957039 0.41594914
000270 01 e9 64 bc 19 39 1b be 1e 01 a4 3e 71 23 5f 3e
       -0.013971568 -0.151585 0.32032102 0.21790864
000280 b7 6f 00 3f 2d f7 d2 3e 63 82 a2 be 8c 21 d1 be
       0.50170463 0.41204205 -0.31740102 -0.40845907
000290 5a bc 20 3e 16 a2 88 be bb 23 02 be 6d f2 de be
       0.1569685 -0.26686162 -0.12708943 -0.4354433
0002a0 fd 0d 88 3e 49 6b 5d 3e e4 dd 67 3e 7f 4f 78 3e
       0.26573172 0.21622957 0.22643238 0.24249075
0002b0 68 3a d6 be 8d de 1e be ed fe 2b 3e 7c 78 f7 3d
       -0.41841435 -0.15514584 0.16796465 0.120835274
0002c0 30 34 17 be 8f bf 86 3d 2e 28 56 3e cb 77 f9 bc
       -0.14766002 0.06579506 0.20913765 -0.03045263
0002d0 4d 83 df 3e 62 83 ae be fd 52 b1 3e b9 82 03 be
       0.43654862 -0.34084612 0.34633628 -0.12842835
0002e0 55 e7 b8 3d 9d d5 b2 3e 08 d5 9c 3d 83 ce 8d 3e
       0.09028498 0.349286 0.0765782 0.27696618
0002f0 06 40 ec be a6 ce bf 3d 51 4a 39 bd 8f 7b bd be
       -0.46142596 0.09365587 -0.04523689 -0.3700833
000300 9f fe 97 be 47 72 14 bf db 4f 52 be 39 7b 88 3e
       -0.29686448 -0.57986873 -0.20538275 0.2665651
000310 d0 81 63 3e eb c1 28 3e a2 ca c3 be 08 a9 81 be
       0.22217488 0.16480224 -0.38240534 -0.25324273
000320 02 0a 28 be b6 e8 ab be f6 65 d4 3e 4b 41 b3 bd
       -0.16410068 -0.33575982 0.4148404 -0.08752688
000330 e6 d4 3e bd a5 14 c1 3e 0d a5 88 be 41 fc 80 bd
       -0.046589755 0.37711063 -0.26688424 -0.062981136
000340 27 39 e5 bd 9f 44 20 bb c0 68 1e bf f4 12 4a 3e
       -0.111925416 -0.0024454964 -0.61878586 0.19733793
000350 5d 8e 95 be 54 c4 dd 3c 6e 84 80 3e 08 6f 03 3f
       -0.29210177 0.027071156 0.25101036 0.51341295
000360 7e 55 a6 3c e1 0f a4 3d 4d 33 c9 bd db ab a9 3e
       0.020304438 0.08010841 -0.09824238 0.33138928
000370 53 c5 90 3e bb af cf be 91 9b da 3d 7f f2 a9 3e
       0.28275546 -0.4056376 0.10674203 0.33192822
000380 94 0f e0 bd 99 98 08 3e ee 3a 6e 3d db 39 e6 3e
       -0.10940471 0.13339461 0.05816167 0.44966015
000390 c7 06 a6 3e 5f 78 6b 3e d6 aa 14 be ec 06 84 3d
       0.32427046 0.22995137 -0.14518294 0.06446633
0003a0 72 85 40 be 86 66 3a 3e c0 f7 88 3e d8 f7 84 3e
       -0.18800905 0.18203172 0.26751518 0.2597034
0003b0 c5 a3 a8 be 99 a3 9c be 67 a5 9b 3e 56 30 e0 bd
       -0.32937446 -0.30593565 0.3039963 -0.10946719
0003c0 de b8 db bd 9b 54 89 be d6 e8 95 bc 4a d8 c7 be
       -0.1072862 -0.2682236 -0.018299501 -0.39032203
0003d0 b7 18 cf 3d 15 ac b2 be e6 f6 92 be ab 2f 65 be
       0.10112136 -0.34896913 -0.28703994 -0.22381465
0003e0 e8 91 cf 3d fb 69 36 bf c5 75 56 bf 87 fc 70 3e
       0.10135251 -0.71255463 -0.8377345 0.23533832
0003f0 21 fe 23 3e 89 e9 c2 bd 7d 4b 20 be b5 e9 3c be
       0.16014911 -0.095171995 -0.15653796 -0.18448527

network_body._body_endoder.seq_layers.0.bias f4 [128]
000000 00 00 00 00 00 00 00 00 00 00 00 00 00 00 00 00
       0.0 0.0 0.0 0.0
000010 00 00 00 00 00 00 00 00 00 00 00 00 00 00 00 00
       0.0 0.0 0.0 0.0
000020 00 00 00 00 00 00 00 00 00 00 00 00 00 00 00 00
       0.0 0.0 0.0 0.0
000030 00 00 00 00 00 00 00 00 00 00 00 00 00 00 00 00
       0.0 0.0 0.0 0.0
000040 00 00 00 00 00 00 00 00 00 00 00 00 00 00 00 00
       0.0 0.0 0.0 0.0
000050 00 00 00 00 00 00 00 00 00 00 00 00 00 00 00 00
       0.0 0.0 0.0 0.0
000060 00 00 00 00 00 00 00 00 00 00 00 00 00 00 00 00
       0.0 0.0 0.0 0.0
000070 00 00 00 00 00 00 00 00 00 00 00 00 00 00 00 00
       0.0 0.0 0.0 0.0
000080 00 00 00 00 00 00 00 00 00 00 00 00 00 00 00 00
       0.0 0.0 0.0 0.0
000090 00 00 00 00 00 00 00 00 00 00 00 00 00 00 00 00
       0.0 0.0 0.0 0.0
0000a0 00 00 00 00 00 00 00 00 00 00 00 00 00 00 00 00
       0.0 0.0 0.0 0.0
0000b0 00 00 00 00 00 00 00 00 00 00 00 00 00 00 00 00
       0.0 0.0 0.0 0.0
0000c0 00 00 00 00 00 00 00 00 00 00 00 00 00 00 00 00
       0.0 0.0 0.0 0.0
0000d0 00 00 00 00 00 00 00 00 00 00 00 00 00 00 00 00
       0.0 0.0 0.0 0.0
0000e0 00 00 00 00 00 00 00 00 00 00 00 00 00 00 00 00
       0.0 0.0 0.0 0.0
0000f0 00 00 00 00 00 00 00 00 00 00 00 00 00 00 00 00
       0.0 0.0 0.0 0.0
000100 00 00 00 00 00 00 00 00 00 00 00 00 00 00 00 00
       0.0 0.0 0.0 0.0
000110 00 00 00 00 00 00 00 00 00 00 00 00 00 00 00 00
       0.0 0.0 0.0 0.0
000120 00 00 00 00 00 00 00 00 00 00 00 00 00 00 00 00
       0.0 0.0 0.0 0.0
000130 00 00 00 00 00 00 00 00 00 00 00 00 00 00 00 00
       0.0 0.0 0.0 0.0
000140 00 00 00 00 00 00 00 00 00 00 00 00 00 00 00 00
       0.0 0.0 0.0 0.0
000150 00 00 00 00 00 00 00 00 00 00 00 00 00 00 00 00
       0.0 0.0 0.0 0.0
000160 00 00 00 00 00 00 00 00 00 00 00 00 00 00 00 00
       0.0 0.0 0.0 0.0
000170 00 00 00 00 00 00 00 00 00 00 00 00 00 00 00 00
       0.0 0.0 0.0 0.0
000180 00 00 00 00 00 00 00 00 00 00 00 00 00 00 00 00
       0.0 0.0 0.0 0.0
000190 00 00 00 00 00 00 00 00 00 00 00 00 00 00 00 00
       0.0 0.0 0.0 0.0
0001a0 00 00 00 00 00 00 00 00 00 00 00 00 00 00 00 00
       0.0 0.0 0.0 0.0
0001b0 00 00 00 00 00 00 00 00 00 00 00 00 00 00 00 00
       0.0 0.0 0.0 0.0
0001c0 00 00 00 00 00 00 00 00 00 00 00 00 00 00 00 00
       0.0 0.0 0.0 0.0
0001d0 00 00 00 00 00 00 00 00 00 00 00 00 00 00 00 00
       0.0 0.0 0.0 0.0
0001e0 00 00 00 00 00 00 00 00 00 00 00 00 00 00 00 00
       0.0 0.0 0.0 0.0
0001f0 00 00 00 00 00 00 00 00 00 00 00 00 00 00 00 00
       0.0 0.0 0.0 0.0

network_body._body_endoder.seq_layers.2.weight f4 [128, 128]
000000 31 4c 34 bc 92 b0 0c be 2a 6a 40 3e 52 5a a6 bd
       -0.011004494 -0.13739231 0.18790498 -0.08122696
000010 cd ec 00 3e 27 78 01 be 4f d4 25 3d e8 05 15 3d
       0.12590332 -0.1264349 0.040485676 0.036382586
000020 1b f4 d7 3b a1 23 9e bd d8 95 01 3d 5d 3f 88 3d
       0.006590379 -0.077216394 0.031637043 0.066527106
000030 5b 4a 86 3d cd cc 36 bc 2f fa a9 bd 1b 1b 7e 3d
       0.06557151 -0.011157227 -0.08299672 0.06203757
000040 64 84 0b be 73 12 1f 3d d4 d6 a4 3d 99 4c 04 3e
       -0.13624722 0.038835954 0.08048788 0.12919845
000050 f4 94 33 3d 30 65 9f bc 59 37 91 3d 01 0f a4 3d
       0.043843225 -0.01945743 0.07090635 0.08010674
000060 57 a3 ac 3d fc 5f 2d bc c3 8d 41 bc be 49 d8 3c
       0.08429592 -0.0105819665 -0.011813584 0.02640235
000070 73 97 ad 3d 99 23 d7 bd 74 8a c8 3d 45 94 c9 bd
       0.08476152 -0.105048366 0.09792033 -0.09842733
000080 29 ae 18 bd 7d 9c 81 bc 87 f3 e8 3d e8 6b 06 3e
       -0.037275467 -0.01582169 0.11374574 0.131271
000090 25 e8 f3 3c 69 0c bc bd 74 35 1d 3e 86 05 ec bd
       0.029773781 -0.091820545 0.15352422 -0.11524491
0000a0 43 f1 de 3d da 66 4a 3d 51 e9 d6 3c 49 e4 0b 3d
       0.10885861 0.049414493 0.0262343 0.034153257
0000b0 88 83 a8 bd 29 09 bc bd 49 a9 6d 3b 4a 41 f1 bc
       -0.082282126 -0.09181435 0.0036264232 -0.029450078
0000c0 80 3a a4 bd 9b b4 01 3d 27 b4 81 bc bf 76 b8 bd
       -0.080189705 0.03166638 -0.015832974 -0.09007024
0000d0 9f 65 06 bd 68 89 21 3d 2a 5f 89 3d 59 ed bd ba
       -0.032811757 0.03943768 0.06707604 -0.0014490291
0000e0 73 70 70 3b 79 72 14 3e c6 5f 5f 3d d0 07 ba 3d
       0.0036688119 0.14496793 0.054534696 0.09083521
0000f0 6b 01 5b bd 11 72 b3 3b a6 05 2d 3c d9 b1 bb bd
       -0.05346815 0.0054762443 0.010560429 -0.09164781
000100 6b cc 1d be 9f 18 5d bd 0b 67 8f 3d 39 36 ed bc
       -0.1541001 -0.05397856 0.07002076 -0.02895652
000110 62 e8 c4 bc ff 68 0c 3d 32 d8 bb 3d 28 97 60 3d
       -0.02403659 0.03427982 0.09172095 0.054831654
000120 cf 24 9e bd d3 0e aa bd a6 bd 18 3d 26 a6 a4 bd
       -0.077218644 -0.08303609 0.037290238 -0.08039503
000130 a6 27 52 3d e8 ca 00 3d 40 cf 4f bb 56 7f 1a 3d
       0.051307343 0.031443506 -0.0031709224 0.037719093
000140 1e ae d2 3d 42 8d 00 3e 14 9f fa 3d 57 e5 9b 3d
       0.102871165 0.12553886 0.12237373 0.076121025
000150 ea f5 ca 3b 3e bb 5b 3d 44 cb dd 3d 88 20 48 bd
       0.006193866 0.053645365 0.108297855 -0.04885915
000160 19 91 ce bd 2b 1d 35 bd 1e d2 f8 bd f1 51 79 3d
       -0.10086269 -0.04421727 -0.12149452 0.06086916
000170 1e 00 2e 3d 2b 6a 43 3e 65 bb 37 3e ba 98 08 bd
       0.04248058 0.19083469 0.17942579 -0.033348776
000180 5e d9 47 3d ec 50 bc bd a5 2f 47 3d 76 90 53 bc
       0.048791282 -0.09195122 0.04862942 -0.01291286
000190 30 41 3e be 43 7a 82 3c 0d 3b 59 3d b5 70 2a b8
       -0.18579555 0.01592744 0.05303483 -4.0636125e-05
0001a0 7a 27 18 bd 83 0d 12 3e 82 b8 d2 bb 93 ea a9 bd
       -0.037147023 0.14262967 -0.0064306865 -0.082966946
0001b0 4d 67 91 3c b7 62 91 3d 5d 43 b5 3c 14 74 2c 3d
       0.017749453 0.070989065 0.022126848 0.04210289
0001c0 06 3e 0a 3c a1 ad 4b 3d bc 7f 6c 3d 5f 0f 1b bd
       0.008437639 0.049726132 0.057739004 -0.037856456
0001d0 8f 26 30 3d c1 16 64 3d 4f 3c 04 be e5 c0 1b bc
       0.043005522 0.055685762 -0.12913631 -0.009506439
0001e0 38 93 1c be d5 48 cb 3d e9 c4 d2 bc 2d cb 5e bd
       -0.15290534 0.09926001 -0.02572866 -0.054392982
0001f0 46 87 c7 bb aa 8d 1a 3d 51 e5 73 3c de bb 07 be
       -0.006089124 0.037732758 0.014886216 -0.1325526
000200 f5 e5 15 3d 02 e0 0e 3d e9 78 5d 3c 16 ef 98 3d
       0.036596257 0.0348816 0.013517597 0.07467477
000210 d9 8c a3 bd 70 b3 15 3e d2 92 56 3b f0 da 71 3d
       -0.07985849 0.14619231 0.003274132 0.059046686
000220 ea f2 ac bd 9d f6 6d 3d 20 33 fd 3c 7e d9 26 3e
       -0.0844477 0.058096517 0.030908167 0.16293904
000230 8c 06 00 be fd 86 e7 3c ae 08 aa bd 5e 41 8b bd
       -0.12502497 0.02826261 -0.08302437 -0.06799577
000240 ff a8 55 3e 9e 74 3a bd 94 a2 48 bd f0 60 10 3e
       0.20865248 -0.04552137 -0.04898317 0.14099479
000250 15 d1 1c bb 43 1f d1 3d 89 65 97 bd f9 b4 0c 3e
       -0.0023928334 0.10211041 -0.07392413 0.1374091
000260 15 02 9d 3c 55 89 b1 ba d6 5e 4a 3d c1 3d 45 3d
       0.019166032 -0.0013544956 0.04940685 0.048154596
000270 17 4f a5 3d dc 2f 91 bd 69 49 24 3e 7a d7 ed 3d
       0.08071726 -0.070892066 0.16043629 0.116133645
000280 53 ea b3 bc ad f6 73 3d c4 11 1c bd 0f 31 11 bd
       -0.02196232 0.05956142 -0.03810288 -0.035447177
000290 a6 e5 37 3e 3c 9f db bc 3f 96 a8 bd aa 50 db bd
       0.17958698 -0.026809327 -0.08231782 -0.10708745
0002a0 5f 2e 0b be a5 8e 27 bd d6 e2 cc bd 0e e2 8f bd
       -0.13591908 -0.04090752 -0.10004203 -0.070255384
0002b0 66 1b fb 3d 8b 14 6c 3e 81 45 54 3d f2 4d b1 bd
       0.12261085 0.23054712 0.051824097 -0.08657445
0002c0 3f 6d 04 3d 6e 00 12 3e 36 9a f4 bb 64 fd 3d 3e
       0.032330748 0.14257976 -0.0074646724 0.18553692
0002d0 e0 ab a0 3d 3f 73 7d 3d 67 bb 80 3d bc a1 4a 3d
       0.078452826 0.061877485 0.06285744 0.04947065
0002e0 d1 79 51 3d 60 a6 d1 3b 4e 13 3d bd 5b 7b 0f 3e
       0.051141564 0.0063980073 -0.04616099 0.140119
0002f0 76 e9 6c bc cb 40 07 3d 50 a6 e2 3d e9 3f 7a 3d
       -0.014459958 0.033020776 0.11066878 0.061096106
000300 7b a1 3a bd 4b 08 2e b9 f5 f7 b6 bd 94 ec 60 bd
       -0.045564156 -0.00016597022 -0.08934013 -0.05491312
000310 a7 a1 3e bb 84 8c 67 3e 84 7b 10 3e 0b 12 00 3e
       -0.0029088052 0.22612196 0.14109617 0.12506883
000320 28 d2 b7 3c d4 8d 7b bc 68 f3 85 3a 8d 5a 9a 3d
       0.022439077 -0.015353639 0.0010219635 0.075368024
000330 94 e8 08 be 46 78 e1 bd 3a 77 fd bc 19 c2 03 bb
       -0.13369972 -0.110092685 -0.03094064 -0.0020104705
000340 92 74 3e bd f1 5d 72 bd cc d2 55 bd 5f 27 6f bd
       -0.04649789 -0.05917162 -0.052202985 -0.058387157
000350 c9 7e 5a bd c8 07 ac bd 0a 2c f1 3d 53 6d 10 be
       -0.053343568 -0.08399922 0.11775978 -0.14104204
000360 88 32 4a bd 26 8c c9 3c 57 e4 8e 3c 17 c4 2a be
       -0.049364597 0.02460296 0.017442865 -0.16676365
000370 ce ef bd bd 38 97 68 3d 4d 03 33 3e 90 55 89 3d
       -0.09274255 0.05678484 0.17481728 0.06705773
000380 4c 7d 25 3d 16 a3 8a bd 16 70 0a 3e 9f 33 9c bd
       0.040402696 -0.067693874 0.1351932 -0.076270334
000390 d6 00 e7 3d b4 2d 2c be 10 d6 8f 3d 7c b8 b8 bc
       0.11279456 -0.1681431 0.07023251 -0.022548907
0003a0 d2 fd 1e 3d d2 95 88 3e 94 73 91 3b aa e9 58 3c
       0.03881628 0.26676804 0.004438827 0.013239304
0003b0 4b e5 9c 3d 77 53 ad 3d 16 02 e9 bd b4 ee 3b 3d
       0.07660922 0.08463185 -0.11377351 0.045881942
0003c0 62 8e ce bd c3 2c 6b 3d f8 1f 3c 3d de ca 0d bd
       -0.10085751 0.057415735 0.045928925 -0.034617297
0003d0 1b d3 1f 3d c5 9f d1 3d d8 09 b4 3d 83 88 6c 3d
       0.039019685 0.10235552 0.0879094 0.057747375
0003e0 0b f6 c4 bc 1f dd df 3d c0 2d 56 be 93 32 eb bc
       -0.024043104 0.109308474 -0.2091589 -0.02871064
0003f0 75 e5 be 3d cf 99 65 bc 04 99 90 3d ea 4f 9d bd
       0.09321109 -0.014013722 0.070604354 -0.07681258

network_body._body_endoder.seq_layers.2.bias f4 [128]
000000 00 00 00 00 00 00 00 00 00 00 00 00 00 00 00 00
       0.0 0.0 0.0 0.0
000010 00 00 00 00 00 00 00 00 00 00 00 00 00 00 00 00
       0.0 0.0 0.0 0.0
000020 00 00 00 00 00 00 00 00 00 00 00 00 00 00 00 00
       0.0 0.0 0.0 0.0
000030 00 00 00 00 00 00 00 00 00 00 00 00 00 00 00 00
       0.0 0.0 0.0 0.0
000040 00 00 00 00 00 00 00 00 00 00 00 00 00 00 00 00
       0.0 0.0 0.0 0.0
000050 00 00 00 00 00 00 00 00 00 00 00 00 00 00 00 00
       0.0 0.0 0.0 0.0
000060 00 00 00 00 00 00 00 00 00 00 00 00 00 00 00 00
       0.0 0.0 0.0 0.0
000070 00 00 00 00 00 00 00 00 00 00 00 00 00 00 00 00
       0.0 0.0 0.0 0.0
000080 00 00 00 00 00 00 00 00 00 00 00 00 00 00 00 00
       0.0 0.0 0.0 0.0
000090 00 00 00 00 00 00 00 00 00 00 00 00 00 00 00 00
       0.0 0.0 0.0 0.0
0000a0 00 00 00 00 00 00 00 00 00 00 00 00 00 00 00 00
       0.0 0.0 0.0 0.0
0000b0 00 00 00 00 00 00 00 00 00 00 00 00 00 00 00 00
       0.0 0.0 0.0 0.0
0000c0 00 00 00 00 00 00 00 00 00 00 00 00 00 00 00 00
       0.0 0.0 0.0 0.0
0000d0 00 00 00 00 00 00 00 00 00 00 00 00 00 00 00 00
       0.0 0.0 0.0 0.0
0000e0 00 00 00 00 00 00 00 00 00 00 00 00 00 00 00 00
       0.0 0.0 0.0 0.0
0000f0 00 00 00 00 00 00 00 00 00 00 00 00 00 00 00 00
       0.0 0.0 0.0 0.0
000100 00 00 00 00 00 00 00 00 00 00 00 00 00 00 00 00
       0.0 0.0 0.0 0.0
000110 00 00 00 00 00 00 00 00 00 00 00 00 00 00 00 00
       0.0 0.0 0.0 0.0
000120 00 00 00 00 00 00 00 00 00 00 00 00 00 00 00 00
       0.0 0.0 0.0 0.0
000130 00 00 00 00 00 00 00 00 00 00 00 00 00 00 00 00
       0.0 0.0 0.0 0.0
000140 00 00 00 00 00 00 00 00 00 00 00 00 00 00 00 00
       0.0 0.0 0.0 0.0
000150 00 00 00 00 00 00 00 00 00 00 00 00 00 00 00 00
       0.0 0.0 0.0 0.0
000160 00 00 00 00 00 00 00 00 00 00 00 00 00 00 00 00
       0.0 0.0 0.0 0.0
000170 00 00 00 00 00 00 00 00 00 00 00 00 00 00 00 00
       0.0 0.0 0.0 0.0
000180 00 00 00 00 00 00 00 00 00 00 00 00 00 00 00 00
       0.0 0.0 0.0 0.0
000190 00 00 00 00 00 00 00 00 00 00 00 00 00 00 00 00
       0.0 0.0 0.0 0.0
0001a0 00 00 00 00 00 00 00 00 00 00 00 00 00 00 00 00
       0.0 0.0 0.0 0.0
0001b0 00 00 00 00 00 00 00 00 00 00 00 00 00 00 00 00
       0.0 0.0 0.0 0.0
0001c0 00 00 00 00 00 00 00 00 00 00 00 00 00 00 00 00
       0.0 0.0 0.0 0.0
0001d0 00 00 00 00 00 00 00 00 00 00 00 00 00 00 00 00
       0.0 0.0 0.0 0.0
0001e0 00 00 00 00 00 00 00 00 00 00 00 00 00 00 00 00
       0.0 0.0 0.0 0.0
0001f0 00 00 00 00 00 00 00 00 00 00 00 00 00 00 00 00
       0.0 0.0 0.0 0.0

action_model._discrete_distribution.branches.0.weight f4 [2, 128]
000000 7d d8 5d bc c0 bd 84 bb 98 ad c4 ba c3 c0 8c bb
       -0.013540384 -0.0040509403 -0.0015005348 -0.00429544
000010 88 c4 b6 ba d6 a4 15 bb dd 7d 97 3c 7a 7a d1 3a
       -0.0013944069 -0.0022833846 0.018492633 0.0015981935
000020 cb 85 d9 3b 2b 8d a9 ba a7 7f 19 bc 4d 80 6c 3c
       0.006638264 -0.0012935748 -0.009368814 0.014434886
000030 03 c8 a1 3b 17 22 2c bb e2 fa 8c 3b e0 65 5e 3b
       0.0049371733 -0.0026265436 0.0043023685 0.0033935234
000040 ed a8 1e 3a 25 95 c3 bb 09 0f c1 bb 93 38 22 bc
       0.00060523936 -0.005968707 -0.005891685 -0.009901184
000050 77 64 0a 3b 98 12 62 bc 3d 6e b4 bb f1 bb 13 3c
       0.002111701 -0.013798378 -0.0055063055 0.009016977
000060 e2 b1 1e 3b ab 6e c3 3b 6f a6 82 3b 15 45 c8 bb
       0.0024214913 0.0059641204 0.0039871256 -0.006111751
000070 61 96 27 3c cf ad a2 3b 3f fe 44 3b ce 57 45 ba
       0.010228724 0.0049645673 0.003005877 -0.00075280375
000080 93 ea 15 bb 0a 94 ec 3b ad b3 71 bc cb 5c f3 ba
       -0.0022875413 0.007219796 -0.014752311 -0.0018567083
000090 0b 7c bd 39 72 54 0e b9 59 da 3e bc c3 61 4b 3c
       0.00036141308 -0.00013573634 -0.011648738 0.012413445
0000a0 05 83 eb 3a 17 4c e9 bb 3f 40 d5 bb 7a c6 fb 3b
       0.0017968124 -0.0071196663 -0.006507903 0.0076835724
0000b0 42 1f 12 3c 64 58 a1 3b c6 46 4b 3b 19 64 bf 3b
       0.008918585 0.004923867 0.0031017526 0.00584079
0000c0 bf 64 b6 bb 6a b2 0d bc 3b de 3b 3c f1 65 a0 3c
       -0.005566209 -0.008648494 0.011466558 0.01957986
0000d0 80 a5 7b 3b 0f 11 09 3b d5 ec d3 ba 31 0f 83 3a
       0.0038398206 0.0020914709 -0.0016168604 0.0009999034
0000e0 58 52 d3 bb c5 4a 3f 3b 6b 86 62 3a 7c fe 0a 3b
       -0.006449025 0.0029188853 0.00086412457 0.0021208813
0000f0 bb 23 19 bc 57 85 98 bb 2b 28 b8 3b 3a aa 18 3b
       -0.009346898 -0.004654567 0.005620023 0.0023294822
000100 7d 1a e4 ba d7 3a f9 ba 7b 84 81 3c d7 3b 40 3c
       -0.0017402914 -0.0019014728 0.015810242 0.011733017
000110 85 b9 07 bc 43 26 d3 3a 03 ea 13 3c 20 59 f6 3b
       -0.008283977 0.0016109425 0.009027961 0.0075179487
000120 13 2f 1b bc b7 a0 f1 3b 3f d8 18 3b 6f 1f 05 bc
       -0.009471673 0.007373895 0.0023322252 -0.00812517
000130 cc ce b9 ba 94 ae a0 3b 96 89 a7 bb b3 f8 06 3a
       -0.001417601 0.004903624 -0.005112837 0.00051487534
000140 9e 75 43 ba 80 e1 1f 3c 0f a2 7a 3b bf 02 0f 3c
       -0.0007456186 0.009758353 0.0038243567 0.008728682
000150 ea 2b 9d bb 4b 81 0d 3c 93 c7 4a 3c 8f 3c cd ba
       -0.0047964947 0.008636783 0.012376684 -0.0015658307
000160 65 fc f7 bb 8d 42 ee 3b 97 b8 8e 3b d5 6b 47 bb
       -0.0075679296 0.007271117 0.004355501 -0.0030429263
000170 ef 5b 9f 3b 95 ae 76 bc 1b 82 f1 b9 6b 36 da ba
       0.0048632543 -0.015056272 -0.00046064038 -0.0016648298
000180 e5 48 51 bb b7 43 09 3c 9b db 19 3c b5 4e 9a bc
       -0.0031934318 0.008377961 0.009390737 -0.018836359
000190 4f 4b ff 39 8a 48 59 ba be 9d 37 bc bb 1e e9 3b
       0.000486935 -0.0008288702 -0.011207042 0.007114259
0001a0 ba 73 04 bb 2e da 08 3a f9 32 23 3b 74 8c 24 3c
       -0.002021058 0.00052204996 0.0024902208 0.010043252
0001b0 0e 91 3a 3b 1e 97 48 3b 82 33 33 bc ea 0c 60 3c
       0.0028467807 0.003060765 -0.010937573 0.013674954
0001c0 d5 d8 34 bb af 2d 3a bc ed 3b 53 39 7d 54 fe ba
       -0.0027595062 -0.011363431 0.00020144852 -0.0019403842
0001d0 e7 99 db ba b6 87 bb bb 63 e4 0d bc 62 6c 9f bb
       -0.001675424 -0.005722965 -0.008660409 -0.004865215
0001e0 1b 03 11 bc d1 c8 02 3a 84 15 1d 3b 6f 5d 36 ba
       -0.008850838 0.00049890304 0.0023969123 -0.0006956672
0001f0 58 c4 77 3b 79 89 b9 3b c2 04 14 bc 19 6b ac bb
       0.003780624 0.00566214 -0.0090343375 -0.0052617905
000200 53 6c 12 3c ca c6 e5 bb a7 c5 9a bc ed 59 f2 bb
       0.008936959 -0.007012223 -0.018893076 -0.007395974
000210 05 e1 5d 3c 77 2e 18 3b 5d 03 26 bc 89 e4 0b bc
       0.013542418 0.0023221055 -0.010132638 -0.008538374
000220 ef c7 1d 3c 37 6d bc 3a 6b ba 77 3c eb 5e 88 bc
       0.009630187 0.001437581 0.015120129 -0.016646823
000230 c6 e3 9a bc fe 51 46 bb f7 04 8f bc 10 25 3e b9
       -0.018907439 -0.0030261273 -0.017458422 -0.00018133619
000240 5d b8 6c bc 89 75 b4 bc 3f 2f 9b 3b cd 49 ce bb
       -0.0144482525 -0.022028701 0.004735857 -0.006295419
000250 95 e8 98 3c 0b c7 e0 3b a7 1a af 3a b4 83 b4 38
       0.018665591 0.0068596653 0.0013359383 8.6076005e-05
000260 23 40 cd 3b bf c3 b1 b9 61 80 83 bc 09 d4 96 bb
       0.006263749 -0.00033905913 -0.016052427 -0.0046029133
000270 3b 74 38 bb 29 b4 24 bc c1 05 bb 3c 64 9b 21 3c
       -0.002814545 -0.010052719 0.022829892 0.009863708
000280 c0 ee 6c bc 0d 21 1e 3b 8f 2a 34 bc 95 ba 1d 3b
       -0.014461219 0.0024128587 -0.010996475 0.002406751
000290 02 e6 48 bb 2b 66 08 3c d6 93 9e 3c d6 bc 33 3c
       -0.0030654673 0.00832514 0.019357603 0.010970315
0002a0 d3 6c a3 3b 37 0b b2 3b 7b 4d fd bb 7f 55 3d bc
       0.004987338 0.005433466 -0.0077301837 -0.011556028
0002b0 4f cf 8b 3b f5 13 96 3c 77 46 b5 3b 73 ee aa 3c
       0.0042666565 0.018320063 0.0055320817 0.020865655
0002c0 98 bf a7 3b 8f ec bc 3b ce 9f a1 bb 8b 06 21 bc
       0.0051192753 0.0057655047 -0.0049323803 -0.00982822
0002d0 c7 b2 a6 bb cf 05 83 bc 05 02 ba bb 3a 59 6d bc
       -0.00508723 -0.01599398 -0.0056765103 -0.014486605
0002e0 68 4d 51 bb 97 b8 69 3a 39 4a 83 3b 3b d0 71 3c
       -0.0031937007 0.00089157507 0.0040066508 0.014759119
0002f0 3a 4d 1b 3c 3d cc a5 ba 4a 7f 1e 3b 6d 0e 02 3c
       0.0094788615 -0.0012649369 0.0024184757 0.00793801
000300 c0 03 80 3b 2b 70 8d bb e3 02 f1 ba 76 68 97 bc
       0.003906697 -0.00431635 -0.0018387701 -0.018482428
000310 07 c1 e4 3b 13 36 f2 3b db d8 00 3c 3a ea e3 3a
       0.0069810185 0.0073917 0.007864202 0.001738853
000320 39 a5 38 bc cf dd dd 3b f7 8a a6 bb af 6c a0 3b
       -0.011269861 0.0067708264 -0.005082484 0.0048957686
000330 85 08 48 bb 4d 35 79 3c f5 56 53 ba ef 14 cf bb
       -0.0030522656 0.015210462 -0.0008061969 -0.006319634
000340 22 ec b8 bb b0 9a d3 ba 1f ff ff 3b 38 dc 8f bc
       -0.0056433836 -0.0016144123 0.007812395 -0.017561063
000350 df 85 f7 ba 93 6c 58 bc d6 dc 22 bb 23 da ab 3c
       -0.0018884501 -0.01320948 -0.0024850867 0.02097804
000360 33 f2 90 3c 6f a5 42 3c 65 35 32 bc c7 8d 60 3b
       0.017693615 0.011880263 -0.010876988 0.0034264193
000370 b5 b6 5d bb 9e 25 3b 3a 90 e0 9d bc 1d 98 24 3c
       -0.0033830826 0.0007139089 -0.019272119 0.010046032
000380 88 d4 cc ba ec ff 80 3b d2 bc 9b 3b 58 4a 8e bc
       -0.0015627304 0.0039367583 0.0047527337 -0.017369434
000390 d6 e6 0f bc d3 70 8f 39 27 5c 07 3c 5a 81 f7 ba
       -0.008783063 0.00027359146 0.008261717 -0.0018883154
0003a0 c3 5e a1 b9 68 e1 a3 ba fb ce 79 bb 33 ef f5 bb
       -0.00030778916 -0.0012503089 -0.0038117755 -0.0075053214
0003b0 2b 9a 85 3b e4 47 95 3b 26 f4 b5 bb 81 61 a9 3b
       0.004077216 0.004555689 -0.0055527864 0.005169094
0003c0 14 1d 3b 3c aa fe d1 3b 4b 54 9e 3a da 70 1f 3c
       0.011420507 0.006408532 0.0012079565 0.009731496
0003d0 15 c5 da 3b cd f0 6d 3b 77 84 25 bc 33 9a 4e 3b
       0.006676326 0.0036306859 -0.010102383 0.0031525015
0003e0 32 50 fd 3a 4f 5c 9c 3c 3d 25 8a 3a a8 9c 9f bc
       0.0019326268 0.019086985 0.0010539662 -0.01948388
0003f0 17 fd 9a bc a3 29 15 3c 10 c9 f2 bb a1 62 a9 bb
       -0.01891951 0.009104165 -0.0074092224 -0.005169228

action_model._discrete_distribution.branches.0.bias f4 [2]
000000 00 00 00 00 00 00 00 00
       0.0 0.0

action_model._discrete_distribution.branches.1.weight f4 [2, 128]
000000 2c 52 05 bc 61 61 07 bc 84 93 13 bc 4b 8e df 3a
       -0.008137267 -0.008262963 -0.009007338 0.0017055956
000010 59 8c 17 3c a5 3a 64 3a 6d 80 1c bc 93 c8 6a 3c
       0.00924977 0.00087062485 -0.0095521035 0.014330047
000020 1f 11 86 3c 7c 6c 92 3b bd 6c 7a bb aa 92 4a bc
       0.016365586 0.0044684988 -0.0038211786 -0.012364069
000030 30 ec 32 bb 45 fa 12 3b 73 8c ea bb ab 36 18 bc
       -0.0027301423 0.0022427004 -0.007157856 -0.009290378
000040 f9 e4 b9 ba 13 70 be 3a b0 b8 3b 3c 55 ba 8d 3b
       -0.0014182619 0.001452925 0.011457607 0.004325191
000050 83 ab d4 3b 31 2f 3f 3c 3e 39 9b bb 14 25 35 3c
       0.0064901724 0.011668966 -0.0047370484 0.011056203
000060 68 b0 b4 3b 00 61 fd ba 75 29 4c bc 36 f5 13 bb
       0.0055141933 -0.0019331276 -0.012461056 -0.0022576577
000070 c9 21 46 bc 2f 67 93 bb 4d a8 4b bb d8 27 1b bc
       -0.012093016 -0.0044983844 -0.0031075657 -0.009469949
000080 f3 60 ea 3a 87 56 79 bc e2 4d cf ba 43 b4 58 3b
       0.0017881676 -0.015218384 -0.0015816058 0.0033066429
000090 73 01 f0 3b 37 fa 4e 3b 82 75 68 bc 72 72 d6 bb
       0.0073243915 0.0031582245 -0.014188172 -0.0065444047
0000a0 d2 5b 82 3b 7f b2 c2 3b ad f7 36 3c 0f 2f d2 bb
       0.003978231 0.0059416885 0.011167449 -0.006414301
0000b0 f9 6a 15 bc c5 47 e6 3b bb c6 4e 3c 0f bc bc 3b
       -0.009119743 0.0070275986 0.012620623 0.005759723
0000c0 28 fa b5 bb 35 97 5e bc 14 10 a5 bb fb 09 04 3b
       -0.0055535026 -0.013585855 -0.005037317 0.002014755
0000d0 77 08 fd bb f3 6d ee bb a5 26 b3 3b 3a 57 16 bc
       -0.0077219564 -0.0072762906 0.0054672533 -0.00917607
0000e0 61 e2 a7 3b e2 6c 44 39 b2 bc dc 3b 71 4d ac 3b
       0.005123422 0.00018732579 0.0067363614 0.005258255
0000f0 48 6d d0 3b c0 12 1c 3c 7c 66 08 3c 47 99 6b bb
       0.0063606836 0.009525955 0.008325215 -0.0035949515
000100 a4 a2 04 bc 33 5a ae bc 77 41 92 bb f5 e2 64 3c
       -0.008095417 -0.021283245 -0.0044633704 0.013970126
000110 6a 4a 10 3b 27 a7 2a bc 9b fa aa 3b 0d 21 22 bc
       0.002201701 -0.010415829 0.005217863 -0.009895575
000120 b7 4d f8 3b 81 ef c2 3c 32 15 d1 3b b9 08 00 3c
       0.0075776237 0.023795845 0.0063807005 0.00781458
000130 e7 1e 91 3c 4b 3e 6a 3b 5e c1 cb bb ef 14 b8 bb
       0.01771493 0.0035742696 -0.0062181195 -0.00561773
000140 48 ec 21 bc c2 8f 1d bc 49 5c 2b bb 53 3b f8 3b
       -0.009882994 -0.009616794 -0.0026147536 0.0075754314
000150 72 13 6f 3c 45 57 ee 3b f1 4a b0 b9 24 22 aa 3c
       0.0145920385 0.007273587 -0.00033625172 0.020768233
000160 ef 87 3c 3b c3 4c 5f 3b 36 af c3 3b ad 94 52 3b
       0.0028767546 0.0034072853 0.0059718145 0.0032132075
000170 12 fc 9c bb 00 f8 4d 3c 55 1b d0 bb be 6d 92 bc
       -0.0047907913 0.012571335 -0.0063509145 -0.017874595
000180 4f b5 37 3a 43 b2 50 bb 2a 1e 06 bc 2e c5 b4 bb
       0.0007007913 -0.0031844534 -0.008185903 -0.0055166697
000190 56 68 98 3c e7 6e 81 3b 00 8a e6 ba ae d8 1a 3c
       0.018604439 0.003949988 -0.0017588735 0.0094510745
0001a0 30 c0 f4 3b a7 cb 4d bb cf 3a 22 3c 98 c9 04 3c
       0.0074691996 -0.0031401904 0.009901716 0.008104704
0001b0 41 7a 04 bc 51 2b a5 3b 18 f4 22 bc d8 b9 26 3c
       -0.008085788 0.005040564 -0.009945892 0.010176145
0001c0 68 4a 07 3b a3 95 55 3b df ea 1a 3c f3 e8 e2 bb
       0.0020643715 0.003259041 0.009455412 -0.0069247424
0001d0 b7 74 49 bb bb 68 8f bb 07 92 56 bc 95 fe 94 bc
       -0.0030739733 -0.0043764985 -0.013096339 -0.0181878
0001e0 a8 58 b0 3a 07 79 5e 3c e9 cd 4a 3a 92 68 71 3b
       0.0013454156 0.01357866 0.00077363715 0.003683601
0001f0 ba cb f2 bb 64 7e 2f bb fa de f5 bc 77 e6 22 ba
       -0.00740954 -0.0026778216 -0.03001355 -0.00062141515
000200 db a8 26 3b 08 36 c9 3b c7 ad f2 ba 54 d1 8a 3b
       0.0025430236 0.006140474 -0.0018514924 0.0042363796
000210 ef da e3 bb d2 66 bd b9 1b 6c 33 b9 cf 2a b8 3a
       -0.006953589 -0.00036125496 -0.00017111043 0.0014050844
000220 ca a0 af 3c f2 a4 6e 3c d4 a2 1f 3c 03 93 d3 3b
       0.021438975 0.014565693 0.009743411 0.006456734
000230 7b 6f 92 3b 8f 39 ef 3a 80 e9 9a bb cf 8c d8 3b
       0.004468856 0.0018251407 -0.0047275424 0.0066085826
000240 f0 55 9b 3b 29 38 14 3c b8 a7 bd bc 6a 73 9b 3b
       0.004740469 0.009046593 -0.023151264 0.004743983
000250 23 51 81 3a 3b 4c 00 3c 15 4f 94 3a 42 85 4f 3b
       0.00098661 0.007830675 0.0011315072 0.0031665121
000260 53 84 02 bc 48 0f 68 ba 43 b3 54 bb d5 d9 e9 bb
       -0.007966119 -0.0008852375 -0.003245548 -0.0071365633
000270 7a 00 64 3c fb d5 d2 bb 1d 0e 54 bb 50 d1 f1 bb
       0.013916129 -0.0064342 -0.0032357045 -0.0073796883
000280 a2 59 3d ba 1d 13 0a bc 53 9a b0 3b bd c9 6d ba
       -0.0007223134 -0.0084274085 0.0053894906 -0.0009070894
000290 87 f6 71 3c c7 5f 8b 39 0b 14 4c bb 6b 9a 09 3c
       0.014768249 0.00026583506 -0.0031139876 0.0083986325
0002a0 17 83 4d bc 18 ed 19 bc ad ae e7 bb 63 bb 23 bb
       -0.012543461 -0.009394906 -0.0070703835 -0.0024983517
0002b0 1a 39 d1 3b a4 82 37 3b 9a 77 5f 39 68 f2 05 bb
       0.006384981 0.0028001452 0.00021311492 -0.0020438675
0002c0 a2 c7 d6 ba 33 4a 64 ba 2d 79 e6 bb c2 e5 4a bb
       -0.00163864 -0.00087085663 -0.0070334882 -0.00309597
0002d0 45 7f 98 3b 96 3a 33 3c b5 59 4c bc 1a 46 29 ba
       0.0046538436 0.010939261 -0.01247256 -0.00064572843
0002e0 bd e7 1e 3c 77 61 56 3a 65 37 a2 ba 3b 3c 27 bb
       0.009698805 0.00081779755 -0.0012376128 -0.0025518078
0002f0 dc d9 3b bc af 44 81 3c 99 d4 85 bc ee 83 ac 3b
       -0.011465516 0.015779821 -0.016336726 0.0052647507
000300 a0 22 50 3c 79 03 97 3b 89 0b 20 bb 11 4a 8c bb
       0.012703568 0.0046085683 -0.0024420938 -0.0042812903
000310 1d d2 06 3b 1f 28 27 3b d3 cc 76 ba 4b 1c 98 3b
       0.0020572015 0.0025506092 -0.00094146765 0.0046420447
000320 37 2f 5d 3c 6a cf ec bb 7f e3 62 bc 7f 4b f9 bb
       0.013500026 -0.007226874 -0.013848185 -0.007607877
000330 ba 7b 3b 3a 4e f3 86 3c ae f5 22 bc a0 c3 56 3c
       0.00071519206 0.016473439 -0.00994627 0.013108164
000340 37 2c 47 bb 23 e7 01 bb 91 e8 26 3c 97 b6 79 3b
       -0.0030391344 -0.0019821606 0.010187284 0.0038103217
000350 da 19 8f 3b 9c 5c 08 bc 45 4f 56 ba a4 7f a1 bc
       0.0043670954 -0.008322861 -0.0008175264 -0.019714184
000360 35 0e 42 3c 0e 81 87 3b 37 6d 7a bb 95 5c 5e 3b
       0.0118442075 0.0041352576 -0.003821207 0.0033929695
000370 d8 68 55 ba 7c 2f 92 3c 1a ca 9b 3b 47 c7 45 3b
       -0.0008140928 0.017844908 0.004754317 0.0030178593
000380 a1 a6 26 bc d7 a7 1e bb 39 17 c2 3b d3 4a ae 3b
       -0.010171563 -0.0024208927 0.0059231785 0.0053189783
000390 bf df c8 bb 04 f8 18 3b ce bb 09 3b bb 97 0a bc
       -0.0061301882 0.0023341188 0.0021016481 -0.008459027
0003a0 43 b9 87 3b 7c 63 9a bc 8b 9e 37 bb 77 e6 e8 ba
       0.004141958 -0.018846266 -0.0028018083 -0.0017768879
0003b0 5f ae 58 3b 3b 25 65 3c 7a dd c3 3b 02 4f 6e 3b
       0.0033062918 0.013985927 0.00597733 0.003636301
0003c0 92 d6 24 bc bd 5e 4b bc fd c8 58 3c 37 ec 3a bb
       -0.010060923 -0.012412724 0.013231513 -0.0028522143
0003d0 b6 10 c9 3b 8e 33 94 3c d9 d4 a0 3c be ed 3b 3b
       0.0061360253 0.01809099 0.019632744 0.002867564
0003e0 aa 42 e0 ba f1 ef 36 3c fb 3d c2 3b 65 19 f7 3b
       -0.0017109711 0.011165605 0.005927799 0.007540869
0003f0 18 ee 69 3c 92 a4 ce bb db 8c 71 bc 88 2e ee bb
       0.014277957 -0.0063062394 -0.014743055 -0.0072687306

action_model._discrete_distribution.branches.1.bias f4 [2]
000000 00 00 00 00 00 00 00 00
       0.0 0.0

action_model._discrete_distribution.branches.2.weight f4 [2, 128]
000000 13 65 7e bb 13 25 45 3c 2d 3e ac bb 3f d9 bb 3b
       -0.003881757 0.012032765 -0.0052564354 0.005732685
000010 27 91 e9 ba e7 4a 21 bc b6 bc 15 3b 45 c4 63 3a
       -0.0017819748 -0.009844518 0.0022848076 0.0008688609
000020 80 61 4e 3c c2 e5 f7 3a 65 04 b7 ba d9 d8 94 bc
       0.012596488 0.0018913078 -0.0013963102 -0.018169807
000030 7f 31 dd 3b 67 be 58 3c 07 fb 75 3c da d6 02 3b
       0.006750285 0.013228989 0.015013463 0.0019964487
000040 60 89 a7 3b 59 58 26 bc 8d 9b 99 ba 94 8a 1a 3c
       0.005112812 -0.0101529 -0.0011719331 0.009432454
000050 7b 0c b2 ba f0 e2 7c bb a3 e6 0d 3c 90 69 2d 3b
       -0.0013584042 -0.0038587414 0.008660945 0.0026460625
000060 3f d6 c2 ba b5 47 c8 ba 02 b2 d2 3a 92 f1 bf bc
       -0.0014864876 -0.001528016 0.0016074779 -0.02343062
000070 07 05 45 ba 55 ef 8b 3b e5 7d b0 bb f3 fe ff 3a
       -0.0007515703 0.004270474 -0.0053861015 0.0019530937
000080 fb b6 53 3c 13 db 1c bc f3 83 c3 3c cc 6d 9d bb
       0.012922044 -0.009573716 0.02386663 -0.0048043486
000090 6f 2e 85 bb 24 cb 0a 3c 2a 2c 0d 3c 19 71 05 bc
       -0.004064373 0.008471284 0.008616487 -0.00814464
0000a0 2a 43 ca bb 00 85 09 bc 5d 9f dd bb e3 2f de ba
       -0.0061725574 -0.008393526 -0.0067633823 -0.0016951527
0000b0 7d 12 d5 3b fb fe bb bb c8 d6 d3 3a 9f cc c3 bb
       0.006502448 -0.005737183 0.0016162032 -0.0059753205
0000c0 3c 27 3f bc 8b 52 35 ba a1 8c 22 3a 48 45 df 3b
       -0.011667069 -0.0006916902 0.0006200765 0.006813679
0000d0 5a ff d9 3b 3a 61 76 3a aa e2 06 bc f5 00 f1 bb
       0.0066527547 0.0009398643 -0.008232752 -0.0073548504
0000e0 43 0e 7c bc 1c d8 07 3a 3f 70 1c bc 81 16 07 bc
       -0.01538426 0.0005182044 -0.009548246 -0.008245111
0000f0 17 35 80 3c 78 10 a6 3b 65 ca 3b b9 05 53 6a 3b
       0.015650315 0.005067881 -0.00017909108 0.003575505
000100 7b 86 ef 3b 63 9b 33 3c ab 73 5b 3b 62 c5 dc bb
       0.0073097325 0.01096234 0.0033485692 -0.006737397
000110 4b fc 17 3b 01 28 42 3b 16 5a 9f 3c 94 29 81 3b
       0.002319115 0.0029625895 0.019452136 0.003941724
000120 6b 5a 6a bb 0c 02 00 b7 10 03 ab 3b 9b 31 62 3b
       -0.003575946 -7.629871e-06 0.005218871 0.003451443
000130 3f 4f 10 3c 29 9c b6 ba 39 77 c5 bb 8d 79 bb 3b
       0.008807956 -0.0013932037 -0.0060261753 0.005721277
000140 eb 7d d7 3b 9f 52 ad 3b 8a ed 31 3c ec 17 21 3c
       0.00657629 0.00528939 0.010859856 0.009832364
000150 9b a1 e0 ba 9d 1f 20 3c 38 06 3d 3c e7 6a 83 3b
       -0.0017138006 0.009773162 0.011537127 0.0040105465
000160 f5 d3 71 3b 6d 49 6c bc 07 eb c5 b9 b5 55 90 bb
       0.0036900018 -0.014421803 -0.00037749877 -0.0044047483
000170 44 d5 03 bb 83 74 54 3c 9d 06 07 3c c4 c1 47 3b
       -0.002011613 0.012967232 0.008241323 0.0030480484
000180 ed b4 1c bc 17 3c 9f bb 1a e9 73 3c 67 2f 6a bb
       -0.00956462 -0.004859458 0.014887119 -0.003573382
000190 7e fa 13 38 98 88 d3 3b 69 d1 05 3a d1 b0 49 bc
       3.528082e-05 0.006455492 0.0005104752 -0.012310223
0001a0 db 91 8b bc c1 68 c1 3a 4e f3 a8 bb 35 6a c4 3b
       -0.017037323 0.001475595 -0.0051559573 0.005994106
0001b0 c7 5a 0b 3c 9f 88 4f bc be 99 43 3c 17 3d 43 bb
       0.00850553 -0.01266685 0.01193851 -0.002979105
0001c0 9b fc 23 bc 94 eb 87 bc 6b 50 59 3a e3 08 9f 3b
       -0.010008956 -0.016591825 0.0008289876 0.0048533543
0001d0 29 38 b6 3c cb c6 0f 3b 15 c9 d4 bb b3 50 8c bc
       0.022243576 0.0021938558 -0.0064936974 -0.017128324
0001e0 9d ed e9 b9 7a 53 a9 bb 2f 27 72 ba 71 ae 96 3c
       -0.0004461826 -0.005167422 -0.0009237406 0.018393727
0001f0 d0 ae 04 3b c1 db 2b 3c 18 f4 d0 3a 04 c8 a9 ba
       0.0020245798 0.010489405 0.0015941886 -0.0012953286
000200 e1 75 25 3c b5 c0 58 bb ba ce cf bb f5 ec b5 3b
       0.010098905 -0.0033073847 -0.0063417824 0.005551929
000210 7d 82 7a 3b 53 10 3b bb 53 77 1a 3c c5 f1 c8 3a
       0.003822475 -0.0028543666 0.009427863 0.0015330842
000220 07 4c 0d bc 92 ca 1f bb 3a 4a ec 38 ca 32 52 3b
       -0.008624083 -0.0024382216 0.00011267183 0.003207373
000230 01 7d c0 bb 0b 69 f4 3b 7f 1a 08 3b 3c 78 c0 3b
       -0.0058742766 0.007458811 0.0020767746 0.005873708
000240 a8 b3 ac 3b c2 ce 02 bc db 85 03 3c 53 53 0f bc
       0.00527044 -0.007983865 0.008027519 -0.008747893
000250 8e 4a bc 3b 32 8c 76 ba 4b 85 f1 bb 91 50 84 bc
       0.0057461923 -0.0009405046 -0.007370626 -0.016151698
000260 07 4a 24 bc e9 c1 a6 bb 18 6e bd 3b 4b a7 47 bc
       -0.010027415 -0.005089034 0.0057809465 -0.012185882
000270 ab 0e 22 3c 13 8c d5 3b 29 cd 0d bc 39 c8 29 3c
       0.009891192 0.0065169423 -0.008654871 0.010362678
000280 e8 b4 72 3b b9 59 4a bc c7 bb a7 bb fb 98 26 bc
       0.0037034098 -0.012350493 -0.0051188204 -0.010168309
000290 3e d6 af bc db 5e c7 3b 9c 03 ca 3c c1 8c b4 3b
       -0.021464463 0.0060843057 0.024659924 0.0055099432
0002a0 97 a2 1d bc 29 18 4a 3c 97 2b 0b 3c 8b c5 06 bb
       -0.009621284 0.012334862 0.008494279 -0.0020564522
0002b0 60 1d 72 3c 3f 7b 4e bc 7f 7a 8d 3c e8 ed 23 3c
       0.014777511 -0.012602626 0.017270325 0.010005452
0002c0 a7 5a f2 3b c5 fd 72 bb fc 5a 48 3c 75 b9 76 3b
       0.0073960605 -0.0037077528 0.012228724 0.0037647162
0002d0 db 7a 57 bc f2 66 7f bb b3 89 e2 ba 40 0a ef bb
       -0.01315185 -0.0038971272 -0.0017283469 -0.007294923
0002e0 eb 43 77 3c 67 40 b2 bb 53 e3 84 3a d7 97 7f 3a
       0.0150918765 -0.0054398063 0.0010138549 0.0009750104
0002f0 dc f4 8c 3b 9e 59 1c 3b 80 7a 25 bc 88 f6 fa bb
       0.0043016504 0.0023857127 -0.010100007 -0.0076587833
000300 0b c3 fb 3b 8b c2 32 3c 23 48 ec bb 1b f1 fa bb
       0.007683163 0.0109106405 -0.007210748 -0.0076581365
000310 03 31 8e bb 5a 9f a9 bb bd 96 89 3b ca a1 6e 3b
       -0.0043393387 -0.005176467 0.0041988776 0.0036412352
000320 af 3e 09 bb 3d 4c 74 39 95 3b 5d bb b3 33 0d bc
       -0.0020941903 0.00023298054 -0.0033757437 -0.008618283
000330 20 2c 6e 3c d5 32 62 bb 24 2e 98 3a 8a 76 86 3c
       0.014536887 -0.0034515162 0.0011610431 0.016413946
000340 92 66 67 ba 34 57 11 3c 9b dc 7f 3b 5b 0e 84 bb
       -0.0008827235 0.0088708885 0.0039041403 -0.0040300316
000350 f3 2f 0b bc 9b 0c 70 3b e0 9d 51 bc 5b 40 2a bb
       -0.008495319 0.0036628607 -0.012793988 -0.00259783
000360 d2 90 02 3c ab f6 ff 3b da 2e bf bb 14 54 35 3c
       0.007969098 0.0078113875 -0.0058344426 0.011067409
000370 83 f2 ba bb 37 8c 5e bc d8 55 c3 3b bb e1 9e bb
       -0.005705179 -0.0135832345 0.005961161 -0.0048486865
000380 dd fb f6 3b fb d8 cb bb c5 ab 53 bc e8 a4 f4 3a
       0.0075373487 -0.0062209344 -0.012919371 0.0018664869
000390 33 5c 09 bc bd 6b f8 bb 53 a9 66 3b 0b ef f3 bb
       -0.008383798 -0.007581203 0.003519614 -0.0074442676
0003a0 32 f0 d3 3a 00 78 f2 bb d5 d8 fb bb 3a 86 6e 3b
       0.0016169606 -0.007399559 -0.0076857605 0.0036395923
0003b0 6b 7a f0 bb 8a 87 78 bb 58 2d 52 3c 90 dc 00 bc
       -0.007338812 -0.0037922584 0.012828194 -0.007865086
0003c0 81 95 95 ba 37 3e a6 bb 6f 42 08 bb 1a 9a 29 bc
       -0.0011412353 -0.0050733346 -0.002079155 -0.010351682
0003d0 e2 7c 5c ba bb 41 33 3c b2 15 d2 bb b1 1a 98 bc
       -0.0008410943 0.010940964 -0.0064112777 -0.018567415
0003e0 6b b0 57 3c f1 ce 29 3b 35 d7 fe 39 d5 9f 35 3c
       0.01316462 0.00259107 0.00048606997 0.01108547
0003f0 83 f4 26 3c 73 5d 63 bc f6 5e 8f bb 0c 8a 31 3c
       0.010190132 -0.0138772605 -0.004375334 0.010836136

action_model._discrete_distribution.branches.2.bias f4 [2]
000000 00 00 00 00 00 00 00 00
       0.0 0.0

action_model._discrete_distribution.branches.3.weight f4 [2, 128]
000000 a2 8b 5c 3c b6 59 35 bb 78 40 1b 3c d5 ea a2 bc
       0.013461025 -0.002767188 0.00947582 -0.019887367
000010 64 e2 3d bb c5 79 44 3b fe fd c0 bb 81 de 9f 3c
       -0.002897405 0.0029979807 -0.005889653 0.019515278
000020 60 eb f6 bb db ef 7b bb ff 9b e0 3a b5 06 a2 bc
       -0.007535383 -0.0038442526 0.0017136334 -0.019778589
000030 cf 4a 20 3c f1 99 0c 3c ed 96 f6 3b 4c 81 35 3c
       0.009783461 0.008581624 0.007525316 0.01107819
000040 18 db ca 3b a7 16 30 3b 1f 64 5d bc fc 0c 00 bc
       0.006190669 0.002686897 -0.01351264 -0.007815596
000050 03 f5 c6 3b 90 c1 0f bc 94 fb 08 bc 6c 58 0e 3c
       0.006071688 -0.008774176 -0.008360762 0.008688074
000060 84 b8 08 bc 5f 3a ae bb 9a bb 48 bb c9 fb 01 3c
       -0.008344773 -0.005317017 -0.0030629397 0.007933565
000070 a5 cd eb ba ea a1 58 3b 68 0c 74 bc 02 93 92 bc
       -0.0017990364 0.0033055493 -0.014895536 -0.017892364
000080 11 94 96 bc dd 0f 7d 3b bd 83 0d ba 63 14 13 3c
       -0.01838115 0.0038614192 -0.00053983537 0.008977029
000090 04 97 16 3c 9d 87 cb bb 21 e5 cb 38 2b 3f dc b9
       0.009191278 -0.0062112347 9.722473e-05 -0.00042008734
0000a0 6b 86 b9 3b 48 9b e7 bb 4a d3 1f bb 7b 22 da 3b
       0.005661776 -0.0070680715 -0.0024387413 0.0066569424
0000b0 d3 7c 04 3c 77 6e 80 39 7d 68 f7 3b 93 66 9d b9
       0.008086401 0.00024496365 0.007550298 -0.00030021797
0000c0 e4 08 1b bb a5 1e 82 ba 67 4d ac bc 5f 48 23 3c
       -0.0023656422 -0.0009927346 -0.021033002 0.009965985
0000d0 a3 69 3e bb e7 53 ae 3b 1c 61 9e 3b 92 19 db bb
       -0.0029054664 0.0053200605 0.0048333537 -0.006686398
0000e0 2a 59 7d bc 91 24 b4 bb a8 b8 4f bc 19 a6 1c 3c
       -0.015463153 -0.005497523 -0.012678303 0.009561085
0000f0 cd 3e 3a bc c6 36 a8 ba 82 83 5e 3b 9b d8 0b 3c
       -0.011367512 -0.0012833707 0.0033952896 0.0085355295
000100 d0 09 a1 bc 15 35 8c ba 39 48 14 3c cd 49 d1 3b
       -0.019658 -0.0010696972 0.009050422 0.0063869716
000110 df 46 29 3a 19 ca b9 3c 87 df 06 bc 35 de e7 bb
       0.0006457399 0.022679375 -0.008232004 -0.0070760497
000120 44 ad 26 bb 3b 5f fa 3a ef 93 75 3a 88 39 aa bb
       -0.0025432864 0.0019101867 0.0009368052 -0.0051948465
000130 37 d0 f0 3b da 51 fd 3b 28 8b de 3b 3f 0d 4c 3a
       0.00734904 0.0077307047 0.006791491 0.0007783956
000140 93 7b 9b 3b 88 48 6d bc eb 61 08 bb 9f 28 d8 3b
       0.004744956 -0.014482625 -0.0020810317 0.0065966393
000150 36 0d 0e bc 40 0a ea 3a cb 73 df 3b 97 ef 0e bc
       -0.008670142 0.0017855838 0.0068192235 -0.008724115
000160 d7 ba 0b 3c f3 ca ec ba db 19 ea bb a8 56 2f bc
       0.008528433 -0.0018065855 -0.0071441955 -0.010701813
000170 b7 9d bb 3b 7b 10 c2 bb bf ce 97 3a fb 39 68 bc
       0.005725588 -0.005922375 0.0011582001 -0.01417398
000180 07 a5 31 bc 33 30 e9 3b 87 05 90 bb bf 0f 99 3b
       -0.010842568 0.0071163415 -0.00439519 0.0046710665
000190 47 b0 34 3a aa b2 e2 bb af f5 14 3c db 69 8b bb
       0.00068927224 -0.006918271 0.009091779 -0.0042545623
0001a0 21 f6 29 bc 2e be a7 3b 7b b7 92 3a 34 d9 18 bb
       -0.010373623 0.0051191067 0.0011193597 -0.0023322823
0001b0 c0 be e8 bc c7 74 6c 39 8b fc fb bb f2 e5 e3 bb
       -0.02841127 0.00022550217 -0.0076900176 -0.006954902
0001c0 e3 9d ca ba 5e 00 31 bc cf 1d b4 bb 6b 5e 0c 3b
       -0.0015458431 -0.01080331 -0.0054967175 0.0021418582
0001d0 0f dc 3f 3c 5d 71 7b bb 29 f8 38 3b 6b 3e 14 3b
       0.011710181 -0.003836713 0.0028224087 0.0022620212
0001e0 08 b7 fe 3b aa ae 92 3b c1 df 36 bc ad f9 13 ba
       0.007773284 0.004476388 -0.0111617455 -0.00056448096
0001f0 10 84 8b ba 6b 84 91 bc 85 54 51 37 53 c8 05 3c
       -0.0010644216 -0.017763337 1.24770495e-05 0.008165437
000200 dd 8a 71 bc d7 e8 9c bc 6f 9a 06 3b 75 64 88 bc
       -0.01474258 -0.019153995 0.0020538827 -0.016649464
000210 e8 56 60 bc ca 8f 32 3c 12 9f ec 3b b0 e3 52 bb
       -0.013692595 0.01089854 0.007221111 -0.003217917
000220 89 a9 88 bb 57 41 09 3b a2 72 fc bb 0b ed 90 bb
       -0.004170601 0.0020943487 -0.007704095 -0.004422789
000230 98 0e 32 3c 74 41 2f bb 29 9c 9f 3b 77 2c 27 3b
       0.010867737 -0.0026741894 0.0048709107 0.002550868
000240 30 b8 d7 bb b2 a2 5a 3b b4 d8 c3 bb 26 e3 33 3b
       -0.006583236 0.0033361134 -0.0059767608 0.0027448623
000250 da 3a cd 3b db 9d 67 3c 4f 2c 8c bb 6b 46 c2 3a
       0.006263119 0.014136757 -0.004277743 0.0014822012
000260 35 01 8b bb 17 87 4e 3b b3 86 33 39 55 b7 1e 3c
       -0.0042420872 0.0031513625 0.0001712095 0.009687264
000270 0f 23 06 3c 80 6f e7 bb 30 1b ce 3c 40 57 da 3b
       0.00818707 -0.0070628524 0.025159448 0.006663233
000280 c5 dc 12 3c 13 7f 52 3a 75 47 72 bb 3c 1f 98 3b
       0.008963768 0.00080298 -0.0036968861 0.0046423953
000290 d3 6e c9 3b ba 14 56 bc b7 bf ea bb 73 79 3b bc
       0.0061472445 -0.013066465 -0.0071639675 -0.01144253
0002a0 0a 9b 72 bc 49 13 c3 bb c5 6e ba 3b 4d 63 c9 3a
       -0.014807472 -0.0059532267 0.0056894743 0.0015364677
0002b0 e9 48 89 bb 53 dc b2 3b 7c 74 8f 3b e2 79 7e bb
       -0.0041896 0.0054583936 0.0043778997 -0.0038829972
0002c0 9b aa 5d 3a 40 4f 1e bc 0d fe f3 3b 7c 99 0b 3c
       0.0008455903 -0.009662449 0.0074460567 0.00852048
0002d0 96 1b ca 3b 68 ac 9e bb 78 4a 01 3c 4f 7d 89 3c
       0.0061678393 -0.00484233 0.00789129 0.016783385
0002e0 52 c6 b3 3b 25 f5 62 bb ab 62 61 b7 0d cd 7f 3c
       0.005486288 -0.003463098 -1.3434018e-05 0.015612853
0002f0 74 b3 10 bc 67 fa 77 b9 77 74 da bb cb 6b c4 ba
       -0.008831847 -0.00023649038 -0.0066667157 -0.0014985738
000300 1a 25 9c bc ba 6a 60 bb 90 53 58 3b 3d c8 74 bb
       -0.01906066 -0.0034243301 0.0033008792 -0.0037350797
000310 33 f3 cb ba c5 2f 4a bc cb 47 86 39 bd 58 fb bb
       -0.001556015 -0.012340491 0.00025611962 -0.0076704905
000320 b7 ce 31 3c 5f bc 91 bc 9f b9 ea 39 30 4a 26 3b
       0.010852507 -0.017790018 0.00044770256 0.002537381
000330 2c 74 26 ba fb 67 5b 3b d0 6c 55 3c 22 a4 cf bb
       -0.00063497084 0.0033478725 0.013026431 -0.006336705
000340 ff 9c 67 3c 18 25 09 bb 80 67 41 3c eb 9e 8b 3c
       0.014136552 -0.002092665 0.0118044615 0.017043551
000350 b8 3f 8c 36 dd 29 48 3c 55 e9 a9 ba f7 85 0e 3b
       4.179743e-06 0.012217012 -0.0012963215 0.002174733
000360 33 97 2a ba 04 06 28 3b 6d 02 dc 3b 63 d7 f3 ba
       -0.0006507516 0.0025638351 0.0067141564 -0.0018603619
000370 42 0f 49 3b b2 a2 99 3a ab ea 67 bc 6c 5c 31 3b
       0.003067926 0.0011721461 -0.01415507 0.0027063144
000380 04 81 3f bc e4 e3 a4 bb 75 a0 15 bc da 72 13 bc
       -0.011688475 -0.0050320495 -0.009132494 -0.008999551
000390 ed 38 54 3a 47 24 b7 3b 57 f3 ca ba 75 b0 d6 bb
       0.0008095641 0.0055890414 -0.0015483898 -0.006551797
0003a0 67 2a 1e 3c 9d b7 8f 3b ef 18 75 3b 12 44 38 bb
       0.009653664 0.004385902 0.0037398895 -0.0028116745
0003b0 24 ac 96 bc a2 68 41 bc db 1e d6 3a af 92 11 3b
       -0.01839263 -0.011804732 0.00163361 0.0022212674
0003c0 24 e1 31 bc 3b bf d9 bb 94 fd a8 3c 1f 00 0c 3a
       -0.0108569 -0.006645111 0.020628728 0.0005340594
0003d0 cb f0 da 3b 42 76 ad bb bb 07 ac 3c 7c 6a bd bc
       0.006681537 -0.0052936384 0.02099978 -0.023122065
0003e0 38 9a 58 bc e2 2e a4 bb da ec 2b ba b2 88 9a ba
       -0.013220362 -0.0050104717 -0.0006558426 -0.0011790006
0003f0 3d 6d 11 bb a4 55 ca 3a 40 d3 59 ba 40 92 25 3c
       -0.0022190355 0.00154369 -0.0008309372 0.0101056695

action_model._discrete_distribution.branches.3.bias f4 [2]
000000 00 00 00 00 00 00 00 00
       0.0 0.0

network_body.observation_encoder.processors.0.normalizer.running_mean f4 [11]
000000 e0 c7 65 40 ac 27 59 40 58 8a 5f 40 b6 91 6d 40
       3.5903244 3.3930464 3.4928188 3.7120185
000010 ac e3 84 40 51 cd 75 40 d4 87 c6 3e 45 45 ce 3e
       4.152792 3.8406565 0.38775504 0.40287223
000020 c5 fa d0 3e 1f 14 c8 3e 00 00 00 00
       0.40816322 0.3907785 0.0

network_body.observation_encoder.processors.0.normalizer.running_variance f4 [11]
000000 a9 b7 fc 45 f2 04 c8 45 76 1d f7 45 1f e9 09 46
       8086.9575 6400.618 7907.6826 8826.28
000010 9c f4 a9 46 ff 1a 89 46 74 8a 9d 43 6f a2 9f 43
       21754.305 17549.498 315.08167 319.269
000020 c0 4b a0 43 d5 fb 9d 43 00 00 80 3f
       320.5918 315.96744 1.0
