Assets/results/day21941/TrafficLightBrain/TrafficLightBrain-209970.onnx (onnx, 386520 bytes, 13 tensors)

discrete_act_size_vector f4 [1, 4]
00000000: 0000 0040 0000 0040 0000 0040 0000 0040
2.0 2.0 2.0 2.0

network_body._body_endoder.seq_layers.0.weight f4 [256, 100]
00000000: becd 013e 849f 90bc ef45 0fbc 2a52 533c
00000010: 50bc c2bc 1e91 8bbd 6896 27be 8def 5b3e
00000020: fe2b 363d e5da 3bbe 4f29 d13b 133f 2cbe
00000030: 3579 bf3d 33d6 a1bd b4b6 d73c ccb2 0f3d
00000040: 0979 563e dcac 553c bea7 cf3c e9a5 d0bb
00000050: 3a11 70ba 0e4e 8cbd 09cd 273d cb9b 3dbc
00000060: 6b62 1a3e 3df0 01bc 7989 bd3c 8f34 4f3d
00000070: 722c 75bc 92d3 033e dc2a adbb b819 3b3d
00000080: fc4b 3abe f57a cabd a979 853d 0a27 9abd
00000090: 628f a83c 148c c73b e5c7 74bd ddea 5dbd
000000a0: 10f0 733d 4b60 593c 7277 933c 886a 66bc
000000b0: 6de7 d6bd 78b7 eb3d c25f 39be 6007 f73c
000000c0: cef4 3c3a 63dd 8bbd 5a54 d03a bf5f 8abd
000000d0: 3358 37bb 4dd0 9b3a 84cc 1abe 0795 babd
000000e0: a370 a93b 9f54 ec3d 5b62 fdbb c35d 863e
000000f0: 374a 4a3d 7b31 d23c fb41 253e d50a 793c
00000100: 3675 b83e 379d 0c3e 821e 483e 9779 18be
00000110: be8f 333e 8eba 213e dfd3 2dbd 9594 663e
00000120: 32fe cf3d dfe0 4a3d e8a9 79bd 4be7 80bd
00000130: a90a 12bd b5d9 4fbd 2722 263c 7576 a13d
00000140: bd3c dd3c 683c cdbd 6728 10bd b53e 22be
00000150: 273b b1bd 8c06 263c 934c 1abd c23c 693d
00000160: 326c 0a3d 0835 a33d 939c 31bc e93c 1abe
00000170: afda 433e 3c39 8abd 7773 943d 2f1d 9c3c
00000180: e5b7 febd 57fa 0b3d 7224 173c 7767 103e
00000190: 313c de3d 040e 5a3d 8321 a2bc aa15 f6bb
000001a0: 1ed4 dcbd 0581 793e 4ffe 223d ffae 47be
000001b0: 2f46 14be 7198 423e e67c 29be 811f 463e
000001c0: 2a47 1cbe 2cc9 073e b222 89bd ffb6 9bbd
000001d0: 16ae 5e3d 1104 643d aef9 f6bd 1191 713c
000001e0: ea0f 223e c9d1 49bd 8d2d 29bd 8f36 72bd
000001f0: 69be 953d 873a 50bd d943 0d3d 472e b4bd
00000200: 5627 0b3d 1b3a 4fbd c30d 12be 479c 1bbd
00000210: 433e 093b 4b75 5cbd 2b17 09be a497 3abd
00000220: 1e2f 023d 0842 dcbd 5acc b13d 374f 5ebc
00000230: a8ce 1a3e 93bc f4bc c9d1 1e3d 3f23 cfbd
00000240: 03af aabd 602c 783d 00c1 56bd 3876 433d
00000250: 7e91 32bd 4b95 923d e84b 19be 7874 013d
00000260: 0ca2 c33c 44e4 0dbe b0b2 31bd fffa 26be
00000270: db6f ba3c c642 953b 75b8 85bd 4d6a f7bc
00000280: 076c 123d 179a 853d 11fa 173d 4a86 aebd
00000290: c744 793c fd78 89bd 57d7 253d 3bd8 e1bc
000002a0: 1f82 83bd 47e8 05be e76b 133d cd53 b4bc
000002b0: 98be 3bbd a336 aa3c 3820 21be c5b6 67be
000002c0: f719 b63c 13e9 77bb c4fc 99bd 2778 57be
000002d0: aa53 663d ca2d 2cbd 3fb5 f8bd bf7c 2abb
000002e0: e3c9 133e 0d6c edbd 50dc ee3d 5b3c 0bbc
000002f0: a265 813d 0a13 fc3c 1779 17be 4b31 19bd
00000300: ad71 fe3d 1d4d 03be d12c 003e 0441 3b3d
00000310: 2b3c 0dbe a0da 26bd 8ba4 363d f50e 84bd
00000320: f28c 7a3a 149f 4abe 944b 29bd 293b 043d
00000330: 438e ae3d 7003 a7bc bffb 86bd e2a1 acba
00000340: faa1 fb3b a386 dfbd f7bc d8bd 94dd cabd
00000350: b96a 56be 5e59 8dbb 3132 7c3d 298f 8b3d
00000360: 7c62 0e37 5cb4 c6bd a545 623e fab7 083d
00000370: 9b67 3cbc 5f3a ed3c 7bca 2b3e 103e 3dbe
00000380: b8d7 ebbd bfbd 6a3d 94e9 8f3d a838 dd3d
00000390: 9077 f7bc 4b10 26bd 502d 303d a96a 3fbe
000003a0: 121c 79bd 253d b53d b7cd 93bc 8608 09be
000003b0: ff7d 073e de89 043d e77c 0ebd f8fb 963d
000003c0: 9bae 053d 4732 53be ea70 f73c b328 db3d
000003d0: ca23 1dbe 3350 16be c640 823c 305d 50be
000003e0: 90e9 4d3e f21e d2bd 142e aebd 4f21 d8bc
000003f0: 407e 57be 9b75 23bd 3518 5a3d ef4f 23be
0.1267614 -0.017654188 -0.008744701 0.012898007 -0.023771435 -0.06814788 -0.16365969 0.214781
0.044475548 -0.1834522 0.006383098 -0.16820936 0.0934929 -0.079021834 0.026332237 0.035082623
0.20944609 0.013041701 0.02534854 -0.0063674343 -0.00091578404 -0.06850825 0.04096702 -0.0115727885
0.15076606 -0.007930812 0.023136841 0.050587233 -0.01496421 0.12873676 -0.0052846503 0.045678824
-0.18193048 -0.098867334 0.065173455 -0.07526977 0.020576183 0.0060896967 -0.059760947 -0.05417906
0.059555113 0.013267587 0.018001292 -0.014063485 -0.1049336 0.11509603 -0.18102935 0.030154884
0.00072081096 -0.068293355 0.0015894279 -0.06756543 -0.0027976155 0.001188764 -0.15117079 -0.09110456
0.005170898 0.11539578 -0.007732672 0.2624341 0.049387183 0.02565836 0.16138451 0.015200336
0.36026925 0.13731848 0.19542888 -0.14890133 0.17535302 0.15793821 -0.042438384 0.22517617
0.10155906 0.04953086 -0.06095305 -0.06294116 -0.035654698 -0.05074473 0.0101399785 0.07883922
0.027006501 -0.10021287 -0.03519478 -0.15844233 -0.086538605 0.010133397 -0.037670683 0.05694271
0.03379459 0.07969099 -0.010840553 -0.15062298 0.1912639 -0.06749198 0.07248586 0.019056885
-0.12437419 0.03417429 0.009224998 0.14101969 0.10851324 0.053236023 -0.01979137 -0.007509907
-0.10782646 0.24365623 0.03979331 -0.1950035 -0.14479898 0.19003464 -0.16551551 0.19347955
-0.15261522 0.13260335 -0.06696071 -0.07603263 0.05436524 0.05566794 -0.12059341 0.014744059
0.15826383 -0.049272332 -0.041303206 -0.059134062 0.073117085 -0.050837066 0.034488533 -0.08797889
0.03397306 -0.050592523 -0.14263062 -0.037990835 0.0020941652 -0.053822797 -0.13387744 -0.045554772
0.031783216 -0.10754782 0.08681555 -0.013568691 0.15117896 -0.029875075 0.038774285 -0.101141445
-0.08334162 0.060589194 -0.052430153 0.047720164 -0.043595783 0.071573816 -0.14970362 0.031605214
0.02388098 -0.13856608 -0.0433833 -0.16306685 0.022758415 0.004555079 -0.06529323 -0.030202055
0.035747554 0.06523531 0.037103716 -0.08521707 0.015214152 -0.0671253 0.040488567 -0.027568927
-0.06421303 -0.13076888 0.035991576 -0.022012616 -0.04583606 0.020778006 -0.15734947 -0.22628315
0.022229178 -0.0037828132 -0.07518914 -0.21041928 0.056232132 -0.042035855 -0.12143945 -0.0026014296
0.14432482 -0.11592875 0.11663115 -0.008498277 0.06318213 0.030770797 -0.14792286 -0.037400525
0.12424026 -0.12822385 0.12517096 0.0457163 -0.13792484 -0.04073584 0.044590514 -0.06448165
0.00095577457 -0.19787246 -0.041331843 0.032282982 0.08523228 -0.020387381 -0.065909855 -0.0013170803
0.007679221 -0.10914352 -0.10582917 -0.09905544 -0.20939149 -0.004313632 0.061571304 0.06814415
8.48679e-06 -0.097023696 0.2209688 0.03337858 -0.011499311 0.028958498 0.16776459 -0.18480706
-0.115157545 0.057309862 0.07026973 0.10801822 -0.030208379 -0.040542882 0.043011963 -0.18693031
-0.060817786 0.08849553 -0.018042428 -0.13382158 0.13231657 0.032358043 -0.034787085 0.07372278
0.03263722 -0.20624648 0.030205209 0.10701122 -0.15345684 -0.14679031 0.015900027 -0.20348048
0.20108628 -0.102598086 -0.085048825 -0.02638307 -0.21044254 -0.03990708 0.053245742 -0.15948461

network_body._body_endoder.seq_layers.0.bias f4 [256]
00000000: 0eef e5bc 3cb7 063d 9b8d adbd 1372 24bd
00000010: 3e41 6abd 34ba 06bd f89e ccbb 5bf7 d3bd
00000020: a5ad 17bd 02ec 373d f072 16bd 4990 aebd
00000030: 87ee a53c 51db eb3c b197 67bd 5cbb 9bbd
00000040: da60 9bbc 08b9 a1bd 2c74 db3c 4f03 54bd
00000050: e836 5bbd 599e bc3d f381 a6bd 40cc 81bd
00000060: e168 90bb 6620 923a 2f5e a13c ca0e 86bd
00000070: c12e 243d f610 17bc 0068 85bd d4a5 35bd
00000080: ea22 95bc 1ca0 213d 1e39 0abd e546 8ebd
00000090: 117c 84bd daf4 49bd 7089 ecbd 3498 4c3d
000000a0: 64ec 86bc f880 673d ea37 103d efb0 4d3d
000000b0: ca2c c83d 3e51 58bd 6bbb 053e 3ab4 c63c
000000c0: 2af5 4bbd 903b 7b3d 7426 26bd 5dd8 1e3d
000000d0: 0f99 5ebd afb2 70bd 5240 ea3d f732 7f3d
000000e0: f31c 603d 5f56 303d ff57 7ebc 4899 4fbd
000000f0: ddcc 05bd 724e 82bc dd58 2a3d 7105 acbd
00000100: 48c5 853d 807d 79bc 2f7e f53c a43a 533c
00000110: a5c9 48bd 64b3 a3bd 114a 54bd dd42 b7bd
00000120: b50e 82bd 2944 b93d 6eaa 55bd 0c0a 90bd
00000130: 3cf7 a0bd 8b2f a0bd 5ade 983d 4d25 82bc
00000140: ecce 08bd ef80 5d3d cf6d b23d fbe6 1abc
00000150: 04a1 6bbc b68a 7837 1fb1 28bd c16d b0bd
00000160: 0956 2ebd 2d37 96bd e57a cebc fb4d 6b3d
00000170: 35b0 24bd 473c 03bd fad9 a83c f600 c1bd
00000180: f16a a73d b9ef 22bc 6312 4dbd 8fb4 c5bd
00000190: 3c11 bbbd bebb a1bd d197 a13c 90e0 cfbd
000001a0: 2e44 59bd d41e 5dbd ebdb 06bd de28 c4bd
000001b0: cabb 9a3c 4c08 0a3d f29f 3dbd 97c1 683d
000001c0: a5e4 b5bd 7582 aabd 12fc 383d 14c3 03bd
000001d0: 6a2a 95bd 9267 a1ba eb66 743d 7b37 3bbd
000001e0: dbef 88bd 30c0 63bd 2bf0 53bd 6738 21bd
000001f0: 1c9b b23d 7f3b 02bd 38ae b3bd 19c2 70bd
00000200: 688e 5e3a fed2 f4bb 4bd3 bebd 22e8 843d
00000210: a410 b6bc 7ae4 2fbd f18d 693d 9cf2 80bd
00000220: 61fb 0d3d 6190 00bd f130 8cbd 658c 53bd
00000230: 56e7 ce3b 0d1f 3bbd 5c08 a1bd 7b2e 82bd
00000240: 8e3c afbd 3a9b 83bd d457 2fbc 9900 cfbd
00000250: d526 44bc 1796 aabd 93a4 e73c 5a86 22bd
00000260: 3bda 293d bca1 2dbd be8c 12bd d001 19bc
00000270: 13aa df3c 9b09 86bc a467 59bd 6a46 513d
00000280: 33be a73c 6824 64bd c144 4bbd 247e 773d
00000290: 986e 60bd 7fe6 833d f164 93bd 957a 563d
000002a0: 374f b53c 3591 96bd 63e1 54bd 0a23 95bd
000002b0: e09a 47bc 6b7d 50bd ae0a 89bd 37ef 82bc
000002c0: 3bad b43c 38ff 86bd 3944 913d 39c3 37bd
000002d0: 0df4 3ebd 2c5d 83bd 0c3f 01bd 9569 e7bc
000002e0: 0828 bbbd f649 9e3d 1ef3 60bd b5d0 a3ba
000002f0: f4e7 3b3d bf4b 8cbd 5555 82bd 8f9e dfbd
00000300: 5e43 bcbd 902d b43c c429 81bd b098 21bd
00000310: b58b 883d 5d15 a0bd 9c93 7f3d ba78 b03d
00000320: 5c1a 88bd d479 e9bd 4728 f0bd a8e8 78bd
00000330: 69df 96bd 8363 cd3c e60e e63c 05a7 a6bd
00000340: 2e6a 833d a1c3 983d 218f d7bd 92a0 8fbb
00000350: 3966 8b3d ff6d 96bd cc8d 843c b553 0d3c
00000360: c24d fd3c 7060 78bd c809 a63c 2683 5c3d
00000370: 6bd9 753d 2978 41bd 2fc5 59bd 53b5 acbd
00000380: 591b 973d 6d39 233c dceb 7abc d3c2 c8bc
00000390: a193 34bd 2e3e 5ebd dfb9 c6bd e263 193d
000003a0: 9176 80bd 1fb7 2a3d 3981 a1bd be6a 80bd
000003b0: cefa 4cbd e5f7 263d 462c 06bc b289 2d3d
000003c0: 957f 4dbd ee28 ab3d bd8c f9bd 2cd8 50bd
000003d0: 4180 2c3d eaa9 b0bd 861d 99bd 7d02 fbbc
000003e0: 32bc 38bd eed7 8c3c 3656 8cbd 644f 6c3d
000003f0: cec9 61bd 7b1d 81bd 788d b4bd 42b0 28bd
-0.028068092 0.03288959 -0.08474275 -0.040147852 -0.057191126 -0.03289242 -0.0062445365 -0.10349914
-0.037030835 0.04490281 -0.036730707 -0.08523614 0.02025534 0.028791102 -0.05654115 -0.07604095
-0.01896708 -0.0789662 0.026788794 -0.051760968 -0.05351916 0.0920989 -0.081302546 -0.06337786
-0.004407034 0.0011148572 0.01969823 -0.065457895 0.04008365 -0.009220352 -0.06513977 -0.0443476
-0.018205125 0.039459333 -0.033745877 -0.06947116 -0.06468976 -0.049305774 -0.115496516 0.04994984
-0.016470142 0.05651948 0.035209574 0.050217565 0.09774168 -0.052811854 0.13059776 0.02425586
-0.049794354 0.0613361 -0.040564016 0.03878056 -0.054345187 -0.058764156 0.114380494 0.062304463
0.054715108 0.04305112 -0.01552391 -0.05068329 -0.032666076 -0.015906546 0.041588653 -0.08399475
0.06531769 -0.015227675 0.029967396 0.012892399 -0.04902043 -0.079932004 -0.051828448 -0.089483
-0.063504614 0.09046204 -0.052164488 -0.07033166 -0.07859656 -0.07821568 0.07464285 -0.015886927
-0.03340046 0.05407804 0.087123506 -0.009454484 -0.014381651 1.4814248e-05 -0.04118454 -0.08614684
-0.04256252 -0.07334743 -0.025205085 0.057447415 -0.040207107 -0.032039907 0.020611752 -0.094240114
0.08174694 -0.00994485 -0.050066363 -0.096535794 -0.091341466 -0.07897137 0.019725712 -0.10150254
-0.053043537 -0.053984478 -0.032924574 -0.09578107 0.018888373 0.03369932 -0.046295114 0.056825247
-0.08881501 -0.08325664 0.045162268 -0.032168463 -0.072834805 -0.0012314192 0.059668463 -0.045707207
-0.06686374 -0.055603206 -0.051742714 -0.03936043 0.08720991 -0.03179502 -0.08773464 -0.058778856
0.0008489848 -0.0074714413 -0.09317645 0.06489588 -0.022224732 -0.0429425 0.05702013 -0.06296274
0.03466356 -0.03138769 -0.06845272 -0.051647563 0.0063141985 -0.04568391 -0.078629225 -0.06356522
-0.08556472 -0.064260915 -0.010702092 -0.10107536 -0.011972149 -0.083294086 0.028276717 -0.03967891
0.041467886 -0.04239057 -0.035778753 -0.009338811 0.027302777 -0.016362002 -0.053077355 0.051092543
0.020476436 -0.055698782 -0.049626116 0.06042303 -0.05479297 0.06440448 -0.071969874 0.052362997
0.0221325 -0.07351915 -0.051972758 -0.07282074 -0.012182921 -0.050900858 -0.0669149 -0.015983207
0.022055259 -0.06591648 0.070930906 -0.044863913 -0.046619464 -0.064142555 -0.031554267 -0.028248588
-0.09138495 0.07728951 -0.054919355 -0.0012498113 0.045875505 -0.06850385 -0.06363932 -0.109189145
-0.09192537 0.021994382 -0.06306794 -0.039452255 0.06667272 -0.07816575 0.06239663 0.08616777
-0.06645653 -0.1140019 -0.11726432 -0.060768753 -0.07366831 0.025071865 0.028083276 -0.08137325
0.064167365 0.07459188 -0.105253465 -0.004383155 0.06806607 -0.07345199 0.016180895 0.008625914
0.030920867 -0.060638845 0.020268336 0.05383601 0.0600218 -0.047233734 -0.053166565 -0.08433022
0.07378263 0.009962422 -0.015315022 -0.024506962 -0.044086102 -0.054258518 -0.09703421 0.03744877
-0.06272615 0.041678544 -0.078859754 -0.062703595 -0.050043873 0.040763754 -0.008189267 0.042367645
-0.0501705 0.08357416 -0.12185047 -0.050987408 0.0421145 -0.086261585 -0.07476334 -0.030640835
-0.045101352 0.017192807 -0.06852381 0.0576929 -0.055124097 -0.06304451 -0.088160455 -0.041183718

network_body._body_endoder.seq_layers.2.weight f4 [256, 256]
00000000: 61d4 0f3d f0fe 0fbd 8676 bfbd 1989 8ebc
00000010: cde1 6fbd 860a a13b 1e51 803c 86fb 22bd
00000020: 2e79 ccbd 7057 493c 94f9 1dbe 66ec 35bd
00000030: 42bd 45bc 9e9e b1bc 9c6c 71bd 0281 82be
00000040: 4bbd f13d 84b1 e13b 4c58 b4bb 5a26 2a3d
00000050: 4e7e 8d3b 2b21 4dbd 1b70 b1bc d1db a7bc
00000060: 447e 06be 50c9 e3bc 5308 e7bc 220a 1bbe
00000070: a461 a2bd 3fe8 9b3d 662b a2bd e0a6 53bb
00000080: a656 643b 804c d8bd 1134 5abd 4426 11be
00000090: 0940 8ebb 60f4 4dbd d201 38bd 0ad1 af3c
000000a0: 5d9d cfbd bdcd a83b ef74 b9bc cd60 88bd
000000b0: aa03 cb3c c7ec 29be 8a34 4a3d 5a0f 003d
000000c0: b3c8 bb3d 68d6 c63d 907d a9bd f665 183d
000000d0: b019 963c 5ca7 13bd 3e08 2a3d 9891 18bd
000000e0: 1992 983d 508d ac3c c5d0 4fbc 3e55 983d
000000f0: e03d a93d 5f1b cabd 8244 983d b41d 45be
00000100: 0d55 f53b c608 f6bd 5dfb 89bc c9c0 3bbc
00000110: 6979 b5bc 0df7 88bc cd4c 0ab8 daf1 8bbd
00000120: f413 2cbd 50b2 cf3d 3e8c b7bb 7d82 693c
00000130: 598c 27bd fdc0 9abc 4ec9 643c 5134 6cbd
00000140: 9d69 b23d ca7f 09bd 3656 843d 006a 39be
00000150: dd64 71bd e241 9a3c 39f7 19bc 4611 7e3d
00000160: 412f 12bc bb01 8bbd 09f9 de3c 7fc8 393d
00000170: b6fb a3bd 89ec 26bc e796 893d 41ad fcbd
00000180: a188 a33d 5b03 9a3c 31f0 b8bd 77be d0bd
00000190: a593 34be 5678 933b 1ce8 233d be66 85bd
000001a0: 48c9 5d3c 9a29 43bd 9520 873c fab1 26be
000001b0: 0477 9dbb 56b2 1fbd 4cbd a9bd 9fd9 ab3c
000001c0: fb9a dabd ba6a 2ebe 37c1 243d 2bb3 a4bd
000001d0: 3bbc 90bc 3c94 163d 8782 5d3b 7b0a 1cbc
000001e0: a470 a9bd 24f2 963d 702d 173e 2cba 183c
000001f0: 4c5d 913d 7f02 cdbd 8adb 7cbd 2b53 a4bd
00000200: 8ce6 f0bb 516f a6bd d685 7cbe f6fc ce3d
00000210: 79c1 2dbd c9b5 6a3d e5f8 e23c 5b99 9bbc
00000220: 0e39 e6bd 0f16 01be 7745 83bd 6c53 90be
00000230: 42c7 5fbc 7a47 00bd 0df7 02be 4736 3c3d
00000240: d802 f9bd c985 a3bd 242f 86ba c664 efbd
00000250: 249d e43b c542 82bb 86e6 dfbd 3443 b83c
00000260: ed48 b2bc 4e99 b3bd 33d7 763c 6876 cfbc
00000270: c16c 15be 1cee 7b3b ab0f 143d 1754 2fbd
00000280: d5d8 593c 4545 d23c 56cd 9e3d e622 17bd
00000290: 1820 51bd e4a4 de3d 4d58 fc3c 5609 c1bd
000002a0: 2469 d73d 8fae 82bd 9d32 833d 059e c9bc
000002b0: 78e9 a03d c0be 10be 8f9b 43be 92f8 1ebd
000002c0: a64e 023d be17 c5bd c393 443d 71a5 0e3e
000002d0: 157d 02be 4fc6 0e3c 3eaf 353d a102 7abc
000002e0: 9de1 e2bd 77d4 36bd 6449 21bd 85e6 24bd
000002f0: cb50 8cbc 9485 f0bc 5ac0 62be c63b 8dbc
00000300: 2ffa b1bd f432 773d cb62 0bbd ea73 18bc
00000310: b83d 6fbd 5697 b9bd 9011 65bd 9e6a 14ba
00000320: 3a18 d23c 580b 46bd b6b0 a8bd d080 a03d
00000330: dbad c7bd e613 b53d d18b 14bd 4330 62bd
00000340: 061f 633d 5ec9 2b3d 3900 e7bd 1db8 3bbd
00000350: 65bf e5bc 4cf3 abbc efb5 d1bd a637 ae3a
00000360: 7bb9 97bd 49fd d4bd 5ece c83c e20d 0abc
00000370: 103b 65bd 4ce9 623d 546b 5cbd 641d 9fbd
00000380: 1adc a03d d4ae 243d b550 053e 639e 12bd
00000390: 0c8f af3c cf7e 6dbd e5e4 07be 4c48 e63d
000003a0: 540b d8b9 54e6 56bc c347 8ebb 4618 503d
000003b0: ae47 f93b bedf 463d 7f6b ccbd 9ae5 5d3d
000003c0: 38cf 86bd 6102 5c3d cc74 d9bc 2dd9 e2bb
000003d0: 0023 cdbb 2f6d 81bd 461a 2a3b 17ec c4bd
000003e0: d87d 99bd 05d9 efbc 8876 ffbd e007 973d
000003f0: 9a11 f4bd 2e20 09bd 0376 36be 163a 22bd
0.03511465 -0.035155237 -0.093487784 -0.017399358 -0.05856495 0.0049145846 0.01566368 -0.039790653
-0.09984051 0.012288913 -0.15427238 -0.0444149 -0.012069048 -0.02168208 -0.05894147 -0.2548905
0.11803683 0.0068876166 -0.00550369 0.04154048 0.004318035 -0.05008046 -0.021659901 -0.020490559
-0.13134104 -0.027805954 -0.028202211 -0.15140584 -0.0792878 0.07612657 -0.07918434 -0.003229551
0.0034841686 -0.10561466 -0.05327231 -0.14174753 -0.0043411297 -0.050281882 -0.04492361 0.021461982
-0.101374365 0.005151479 -0.022638766 -0.06659088 0.02478202 -0.1659423 0.04936651 0.03126464
0.0916914 0.097088635 -0.08275902 0.037206613 0.018322796 -0.03604828 0.041511767 -0.037248224
0.07449741 0.021063477 -0.012684052 0.07438134 0.08263755 -0.09868502 0.07434942 -0.19249612
0.0074869455 -0.12013392 -0.016843492 -0.011459538 -0.02215262 -0.016719365 -3.297329e-05 -0.06833239
-0.042011216 0.10141432 -0.005601435 0.014252302 -0.04090533 -0.018890852 0.01396401 -0.05766708
0.087115504 -0.033569135 0.06461756 -0.18106842 -0.05893408 0.018830243 -0.009397321 0.062028192
-0.008922399 -0.067874394 0.027218359 0.045357224 -0.080069944 -0.01018823 0.067182355 -0.12337733
0.07985044 0.018800428 -0.09030188 -0.10192578 -0.17634447 0.004500429 0.04001628 -0.06513737
0.013536759 -0.047647096 0.016495029 -0.1627883 -0.0048054475 -0.038988434 -0.08288059 0.020977793
-0.106740914 -0.170329 0.040223327 -0.08041986 -0.01766788 0.03676246 0.0033799724 -0.009523983
-0.082734376 0.073704034 0.14763427 0.009321731 0.07097873 -0.10010242 -0.061732806 -0.080236755
-0.007351702 -0.08126701 -0.2466043 0.10106842 -0.042420838 0.05730227 0.027706573 -0.018994024
-0.11241351 -0.12606071 -0.06409734 -0.28188646 -0.013658347 -0.031318165 -0.12789555 0.0459502
-0.121587455 -0.07984502 -0.0010237438 -0.11689143 0.0069767404 -0.0039752447 -0.10932641 0.022492982
-0.02176329 -0.08769475 0.015065956 -0.025325015 -0.14592268 0.0038441485 0.036147755 -0.042804804
0.013296326 0.025667796 0.077540085 -0.036898516 -0.051055998 0.10871294 0.030803824 -0.09425609
0.10518101 -0.06380951 0.06406138 -0.024611482 0.07857031 -0.14135265 -0.1910231 -0.038811274
0.031813286 -0.09623669 0.04799248 0.13930298 -0.12743028 0.008714273 0.044356577 -0.015259416
-0.110781886 -0.044636216 -0.03937663 -0.040258903 -0.017128369 -0.02936057 -0.22143689 -0.017240416
-0.08690297 0.060351327 -0.034029763 -0.00930498 -0.05840847 -0.09062068 -0.055924952 -0.0005661639
0.025646318 -0.048350662 -0.0823683 0.07837069 -0.09749957 0.08841686 -0.03626615 -0.055221807
0.055449508 0.041940086 -0.11279339 -0.04582988 -0.028045366 -0.020990036 -0.10239779 0.0013291731
-0.074084245 -0.10399873 0.024512466 -0.0084261615 -0.05596453 0.05539827 -0.053813294 -0.07769278
0.07854481 0.04020579 0.13019069 -0.03579558 0.021430515 -0.057982262 -0.1327091 0.11244258
-0.0004120717 -0.013116438 -0.0043420508 0.0508044 0.007607422 0.04855322 -0.09981441 0.054174043
-0.065824926 0.053713206 -0.02654495 -0.006922862 -0.006260276 -0.06319653 0.0025955602 -0.09615343
-0.07494706 -0.029278288 -0.1247378 0.07374549 -0.1191742 -0.033477955 -0.17818455 -0.039606176

network_body._body_endoder.seq_layers.2.bias f4 [256]
00000000: 89b2 943d e88d bbbc 1aef 29bc 68b6 1f3d
00000010: 8922 403d 0fa8 00bd a402 4abc f10f 26bc
00000020: cb52 5e3d f124 9e3d 0423 c13b d025 493d
00000030: 94ae ae3d 7abd 4a3c 7781 12bc 8f10 4e3d
00000040: 9e43 4a3d 1bfe 96bc 5ca0 e2bb f861 8b3d
00000050: c063 1c3d 4fb9 d63c 55a3 9fbc 070b 67bc
00000060: 86bd 2e3d 1a74 30bd 5765 77bc d94f 903d
00000070: b21d 773d 8820 febc a52f 443d 5c01 443d
00000080: ea92 513d c87e 713d 7d51 91bc 7dbf f6bc
00000090: aad1 9f3d 772f 153d 9762 0ebd f266 663c
000000a0: 8bab 07bc 5156 aa3d 8057 353b 6823 293d
000000b0: f9e7 4d3c 621d 963d f08d 8dbb 6a1f 43bc
000000c0: afe2 a7bb 8eeb 16bc bf65 293d a69b 31bc
000000d0: 5e4c a33d aec6 e0bb 8464 51bc 808c 913d
000000e0: f418 763c 8459 243d 2ade ad3c 927f 623d
000000f0: 0033 c33c 25d1 a63d 9229 88bc 479a febb
00000100: 51ce 803c 3498 b33d 15da 3e3d 54ec 07bb
00000110: 4a09 1e3d 19d9 893d 502f ce3d e2b2 50bb
00000120: 6aae 9e3d 4205 27bd 1499 b13c 3cda da3c
00000130: 9f17 c0bc 7777 55bc f4a9 3d3d 1773 e9ba
00000140: 98a2 9f3d 244c 123d a3e4 58bc db2c fc3b
00000150: 877e aa3d 4fa1 bf3d 10ee 82bc d9bf 483d
00000160: fe61 413d ba01 653d 20e8 ab3b 273e 333c
00000170: c196 42bc a9f8 10bc 5e2d 1cbc 762b acbc
00000180: 6fd7 a23d 3757 2dbc d3a0 763c 7b7f 9dbc
00000190: 502a b1bc 561f a7bc fac7 233d 135a 08bc
000001a0: 096c ea3c 53f0 2abc a690 39bc ea17 dc39
000001b0: 8cf9 a63c 368c babb 97ae 47bc 7271 9fbc
000001c0: 21ff 07bd ff82 97bb f9fb 153d aef8 2b3d
000001d0: f9a7 bdbc dbbb b93b 375a 3f3d 7d46 813d
000001e0: 26e4 98bc d7f0 c3bc 5c08 00bd 982e 583d
000001f0: bf04 cf3d b35e c6bb e299 fa3c 3d64 8fbc
00000200: 90b9 e03d d52c b33d d4d8 1f3d 3cfd cf3c
00000210: 6503 e9bb f6e3 f7bc 3f5a 4cbb 4709 6a3d
00000220: 12da 82bc b955 6bbc 742b f2bb 8932 d53a
00000230: 2bfa 51bc 8959 d4bb b320 bd3c ecc8 86bc
00000240: 46a7 5e3d 9b49 6c3b bc54 bbbc ae6a d9ba
00000250: 2fe7 f93c c5cd 113d 53f1 31bc b219 ce3d
00000260: 62b7 a03d 73a8 763d 0e40 253d c417 03bd
00000270: f112 903b 62a6 85bc 9c06 0f3d 4749 4fbc
00000280: 46bf d23c fd4f 103c c8a3 103b 587b 09bd
00000290: 4dce 873c 009f 7c3d 6288 6c3c 05a9 993d
000002a0: 7875 c23b 4e4b 113d 4225 433d fe1b a6bb
000002b0: bb50 63bc 2a6c 8bbb cb38 9d3d ee88 4f3d
000002c0: f10e 34bc a5cd eb3c ed33 7fbb 73b5 ac3d
000002d0: b66f 323d c231 2ebc bce0 a03d 4b9b 48bc
000002e0: 4e7b 1f3d 40db 77bb d14d a1bc 8a1b 6a3c
000002f0: 52a6 10bc 0731 de3d bc8a ce3c 1555 c13d
00000300: bd06 903d 4e84 1c3b eb86 a0bc 80cb 10bc
00000310: 3671 883d 8a41 e13b 7618 12bd 0a4d d33c
00000320: 94e2 583d e1cc ba3d 24d3 583d 7340 363d
00000330: bd19 213d 27d5 74bc 910b e8bc 6d7c 0e3d
00000340: bcd0 dc3b 354a c23d 2b9d a43c 1022 ba3d
00000350: a7cb ef3c ffaf ae3d 9d87 bf3d 609f 3c3d
00000360: 1fd2 4e3d 0049 41bb e10b 453c 6594 40bc
00000370: 8bc7 363d 6f7c d03b 5222 5f3c ecb2 f9bc
00000380: a639 8c3d eea1 8d3d 2c24 c33d def5 4abc
00000390: cd03 1b3d 657a 913d df28 f6bb 3585 433d
000003a0: e84e dcbc 9d4f debc 15ea 09bd eaa8 9d3d
000003b0: e168 e73a 2ebc 4c3d b78b 4ebc d356 88bc
000003c0: b9c0 3c3d 46eb b73d 20ef 753d d63f 103d
000003d0: c525 8bbc a683 1c3d 89c4 033c 0352 1d3d
000003e0: 6a90 1cbd 8b08 febc 7c76 183d 3b6a bc3d
000003f0: ecb9 d93b fa53 fbbb ced5 8e3c cc87 dabb
0.072606154 -0.022894815 -0.010371948 0.038992316 0.046907935 -0.031410273 -0.012329731 -0.010135637
0.054278176 0.0772189 0.0058940668 0.049108326 0.08529392 0.012374276 -0.008942 0.05030876
0.04938089 -0.018431714 -0.006916089 0.068057954 0.038181067 0.026211409 -0.019487062 -0.01410175
0.042661212 -0.043079473 -0.015099845 0.0704648 0.060331054 -0.031021371 0.047897 0.04785286
0.0511655 0.0589588 -0.017739052 -0.030120606 0.07803662 0.03642222 -0.03476199 0.01406263
-0.008280645 0.08317245 0.0027670562 0.04129353 0.012567514 0.07329823 -0.004319899 -0.011909345
-0.0051234583 -0.009211434 0.0413568 -0.010840332 0.0797355 -0.006859622 -0.012780312 0.071068764
0.015020598 0.04012443 0.0212241 0.05529744 0.02382803 0.0814536 -0.016621385 -0.007769856
0.01572338 0.08769265 0.046594698 -0.0020740228 0.038583077 0.06730861 0.10067618 -0.0031844904
0.077481106 -0.0407765 0.021679439 0.02671539 -0.023448763 -0.013028971 0.046304658 -0.0017810789
0.07794684 0.035717145 -0.013238105 0.007695777 0.083249144 0.09356939 -0.015982658 0.049011085
0.047212593 0.05590985 0.0052461773 0.010940111 -0.011876763 -0.008848348 -0.009532301 -0.021016818
0.07951247 -0.010579876 0.015052992 -0.019225826 -0.021626621 -0.020400684 0.039985634 -0.008322257
0.028615968 -0.010433274 -0.011325991 0.00041979487 0.020382665 -0.005692984 -0.012187622 -0.019463275
-0.033202294 -0.0046237702 0.036617253 0.041985206 -0.023151385 0.005668146 0.046716895 0.06312273
-0.018663477 -0.023918552 -0.031257972 0.05277881 0.10108327 -0.0060537695 0.030590955 -0.017503852
0.10972893 0.087487854 0.039025143 0.025389306 -0.0071110004 -0.030260067 -0.003118172 0.057137754
-0.015973125 -0.0143637 -0.007390434 0.0016265671 -0.012815992 -0.0064804 0.023086881 -0.016453229
0.054358743 0.0036054614 -0.022867553 -0.0016587579 0.030505745 0.035596628 -0.010860759 0.10063495
0.078474775 0.06021924 0.04034429 -0.032005087 0.0043967892 -0.01631469 0.034918413 -0.012651748
0.025725972 0.008808133 0.0022070277 -0.033564895 0.016577864 0.06167507 0.014436813 0.07502941
0.0059344135 0.035472207 0.047642954 -0.005069255 -0.013874228 -0.0042548375 0.07676848 0.050667696
-0.01098989 0.028784582 -0.0038940862 0.08433046 0.043563567 -0.01063198 0.07855365 -0.012244056
0.038935952 -0.0037819892 -0.019690426 0.014288792 -0.008828716 0.10849195 0.025212638 0.09440056
0.07032535 0.002388257 -0.019595584 -0.008837581 0.06662218 0.006874268 -0.03566786 0.025793571
0.052950457 0.09121109 0.052935734 0.044495057 0.039331187 -0.014943398 -0.028325828 0.03478663
0.0067387503 0.0948681 0.020094475 0.09088528 0.029271914 0.08529662 0.09352038 0.04605043
0.050493356 -0.0029492974 0.012026758 -0.01175413 0.044623893 0.00636249 0.013619022 -0.030480824
0.06846933 0.06915651 0.095283836 -0.012387721 0.03784542 0.07103423 -0.0075121964 0.047734458
-0.026893094 -0.027137572 -0.033670504 0.076982334 0.0017655158 0.04998415 -0.012606553 -0.016642964
0.046082232 0.08980422 0.0600425 0.03521713 -0.016985783 0.038211487 0.008042463 0.03840829
-0.03822366 -0.031009933 0.03722237 0.09199949 0.006644478 -0.007669923 0.017435934 -0.0066690203

action_model._discrete_distribution.branches.0.weight f4 [2, 256]
00000000: 1f46 333d 2439 37bc ce8c 453c 0e54 383d
00000010: 5e0e ac3c f82d 26bc 0f0d 8a3b ea51 51bb
00000020: efd0 993c f005 833d da10 533b aa25 193d
00000030: 5ef7 8a3d c880 a03c 311f 54bc 7461 083d
00000040: c322 0d3d f221 c8bb 689f 393b 4127 313d
00000050: c75f 05bc 5712 cb3c 0eeb 8bbb 1064 1e3c
00000060: 4608 063d 20ae 2ebd c8cf 9d3b f2b9 923d
00000070: 5fd3 4b3d c0c0 35bc f82a 1f3d b50f 103d
00000080: 3a18 243d c48c 163d 1284 cdbb d1ee 3cbd
00000090: bceb 353d 2382 3e3d 48a2 c4bc bedb 44bb
000000a0: 58fc 7bba d5e0 4e3d 388a 0b3c 7df8 333d
000000b0: 6100 243b 4f89 853d d9ec 723b b3dd 4dbc
000000c0: bf68 243c c974 d03a abb8 0f3d 17f9 803b
000000d0: 29ea 393d 381e ad3b 60ea 783c 53cb 503d
000000e0: a912 a53c 17db 273d 67e8 903c 019b 843d
000000f0: 7c01 593c 231f 3a3d be02 dfba 63d0 19ba
00000100: 07e7 d73b 2b27 813d d911 183d 6019 6b3c
00000110: 0b50 073d 7ce3 ec3c 48d2 873d e473 c53b
00000120: 978d 313d 4ae5 bcbc 5b81 733c e5c8 223d
00000130: d066 f2bb bc67 acbb 202b 703d 8683 013c
00000140: 4842 2c3d 6a1a aa3c 7887 7dbb bfbf 743b
00000150: 2bcd 203d 3f60 783d 6bf7 90bc 0ef8 2f3d
00000160: 86ca 213d 162c 533d dfb2 3abc ddab 4739
00000170: b69e 733b 0ef5 4b3b d2f9 643c ec17 06bc
00000180: 5f8a 993d 69c1 903b b4c0 503c b9e4 a23b
00000190: e789 58bb 3122 f6bb 58f7 bb3c 980f a0ba
000001a0: 7e3b 1a3d 47b1 de3b d124 973b c920 d2bb
000001b0: cf53 433a aff1 343c 7279 1c3c d730 1c3b
000001c0: cf3a babc afb6 303c 7e0e 0c3d 421a 483d
000001d0: 0fcf 303b 729a 263a 462a 313d 31f1 033d
000001e0: 5cd4 8a3b 7e97 07bd 8ff0 aebc f39b e03c
000001f0: fae6 a33d a9ec 053b 1ef4 193d 29e4 34ba
00000200: 56d3 893d db94 213d 55f5 f83c e20c c73c
00000210: 0474 4d3c d8bd 40bd 86b4 6c3c 8c8b 6d3d
00000220: 5fc7 7c3b 49ea 8f3b 0795 b43b 1c22 febb
00000230: 8574 523a be9c 983a 9e71 0a3c 2523 e3bb
00000240: 18e4 0d3d b977 3a3b 021e 873a 8686 f2ba
00000250: 64bb fc3c a4ad b43c 0005 3ebb aceb ac3d
00000260: e705 173d 462a 803d 52ae 433d 7564 20bd
00000270: 08dc 783c cf83 30bc 6f9c 083d 9da3 3a3c
00000280: 0fb5 da3c 07a4 df3c fbaa 1d3b 225f 15bd
00000290: 5cbb 793c e3b9 453c 4c15 713c 633c 6e3d
000002a0: 12a1 27bc e660 203c 3ad3 f23c 3e48 6abb
000002b0: a3e1 de3b 1808 15bb 77fe f63c b7e2 4a3d
000002c0: 1e58 37bb c8a8 a03c cc3a a33b 4811 933d
000002d0: a8b3 b13c ea14 8e3b 7940 953d d9b0 80bc
000002e0: 5e7e 143d fbaa 033c 55a0 0fbc eca0 e83a
000002f0: 8a7d 11bb d3a3 bd3d 72c4 bb3c b7d4 9a3d
00000300: e42f 353d 9158 8b3a 41c4 123b 9a92 2b3a
00000310: 3f2c 783d 63a7 9a3c 8c8d a9bc e134 4a38
00000320: a47f 233d 5181 6b3d 9263 a43c 33a4 173d
00000330: 3c26 513d 9355 33bb 346c 8fbc b58a f03c
00000340: 8dcc 853a 0917 8c3d 88f7 4e3c 8de3 4a3d
00000350: 1883 fb3c c8f1 6e3d 731f 943d f67f f63c
00000360: 57e9 353d 89d9 cd3b 8f24 143c 121d a83b
00000370: 99da e73c 56cd 733c ebb4 083c 4572 1abd
00000380: 50f0 0e3d 4a72 123d 9112 853d 75c7 4a3b
00000390: 557f 863c 3c38 4f3d 8a46 953b 35fa fd3c
000003a0: 3a33 27bc 4fe1 76bc dd0c d8bc 26b5 233d
000003b0: 3e9c e63c 340f c33c 7653 47ba 2428 94bb
000003c0: 55bc fb3c cbd6 b13d ee38 343d edb5 c73c
000003d0: fb29 443a 7827 2a3d 1d60 3f3c 38a6 833c
000003e0: 7e9f a2bc 5584 78bc 7fe6 0e3d a29b 563d
000003f0: de87 123c 60b6 86ba 094b 03bb a931 4c3c
0.043768045 -0.011183057 0.012057496 0.045002036 0.021002945 -0.010142796 0.0042129825 -0.0031939694
0.018776385 0.06397617 0.003220609 0.037389435 0.06785463 0.019592658 -0.01294689 0.033296064
0.03445698 -0.006107562 0.0028323773 0.043250326 -0.008140511 0.024789019 -0.004269964 0.009667411
0.032722734 -0.042646527 0.004816029 0.071643725 0.049762126 -0.011093318 0.038859338 0.03517123
0.040062167 0.03675534 -0.0062718475 -0.04612619 0.044414267 0.046510827 -0.024003163 -0.0030038203
-0.0009612492 0.050507385 0.008516841 0.04393815 0.002502464 0.0652033 0.0037067442 -0.012565064
0.010034739 0.0015903945 0.035088222 0.003935944 0.04538933 0.0052831434 0.015192598 0.050975155
0.0201505 0.040980425 0.017688943 0.06474877 0.013244983 0.04543985 -0.0017014367 -0.0005867539
0.00658882 0.06306299 0.037126396 0.014349312 0.03303532 0.028917067 0.06631905 0.006025778
0.04334792 -0.023058552 0.014862384 0.03974237 -0.00739751 -0.0052613895 0.058634877 0.007904893
0.0420554 0.020764548 -0.0038685482 0.0037345735 0.039258163 0.060638662 -0.017696103 0.042961173
0.039499782 0.051555716 -0.011395185 0.00019042143 0.0037173457 0.0031121406 0.013975577 -0.008184414
0.07497095 0.0044175875 0.0127412565 0.0049711135 -0.003304118 -0.0075114 0.022945091 -0.0012211679
0.037654392 0.0067960354 0.004612543 -0.0064125997 0.0007451148 0.01104395 0.009550439 0.0023832822
-0.02273312 0.010785743 0.03419351 0.048853166 0.0026978885 0.00063554116 0.043253206 0.03221244
0.004236741 -0.03310346 -0.021354942 0.027418112 0.0800304 0.002043525 0.037586324 -0.00069004536
0.06729762 0.0394486 0.03039042 0.024298135 0.012539867 -0.04705605 0.014447337 0.05799441
0.0038570983 0.0043919426 0.0055109295 -0.007755531 0.0008028227 0.0011643392 0.00844994 -0.00693168
0.034641355 0.0028452708 0.0010308626 -0.0018503226 0.030851074 0.022055455 -0.002899468 0.08443388
0.036870863 0.06258063 0.047773667 -0.039158303 0.015189178 -0.010773613 0.03335231 0.0113915475
0.026697664 0.027299894 0.002405821 -0.03646768 0.015242424 0.012068245 0.01471455 0.058163058
-0.010231273 0.009788727 0.029641736 -0.0035748626 0.0068018003 -0.002274042 0.030150635 0.04953262
-0.0027976106 0.019611731 0.0049813744 0.071810305 0.021692112 0.0043359892 0.07287688 -0.015709328
0.036253326 0.00803637 -0.0087662535 0.0017748154 -0.0022200071 0.092597626 0.02292082 0.075601034
0.044235125 0.0010631253 0.0022394808 0.00065449777 0.06058907 0.018878644 -0.020697378 4.82098e-05
0.03991665 0.057496373 0.02006701 0.037021827 0.051061854 -0.0027364239 -0.01750765 0.029363016
0.0010208056 0.06840331 0.012632258 0.049533416 0.030702159 0.05833605 0.07232561 0.030090313
0.044411983 0.0062820357 0.009041919 0.0051304186 0.028302478 0.014880499 0.008343915 -0.037706632
0.03489715 0.035753526 0.06497682 0.003094164 0.016418139 0.05059074 0.004555528 0.031003097
-0.010205084 -0.015068366 -0.026373321 0.03996768 0.028150674 0.02381096 -0.0007603684 -0.0045213867
0.030729452 0.08683547 0.043999605 0.024378741 0.0007483062 0.041541547 0.01168063 0.01607047
-0.019851442 -0.015168269 0.034887787 0.052394517 0.008943526 -0.0010277741 -0.0020033738 0.012463012

action_model._discrete_distribution.branches.0.bias f4 [2]
00000000: f482 bb3c ed82 bbbc
0.022889592 -0.022889579

action_model._discrete_distribution.branches.1.weight f4 [2, 256]
00000000: 7f75 113d ed15 9abc e6e5 0bbc cc10 fc3c
00000010: 541d b73c 2cc2 2dbc dbec 5db9 7308 f43b
00000020: 9104 a93c c9b2 3e3d e14f 313c 6528 243d
00000030: 5bab 8a3d 0b81 9fbb 8b62 cebb c753 193d
00000040: 6cfc 5a3d 7d44 6bbb b038 7ab9 fc08 513d
00000050: d4f1 b53c 91a8 fa3c 0cb7 92bc c2a0 18bc
00000060: cde1 df3c 1a07 0cbd 81e0 f6bb 1d82 6d3d
00000070: 389e 373d 1489 cd3b 9174 273d 55f2 093d
00000080: 7528 463d 214f 253d 5f3e 693a dfe4 30bd
00000090: 3f77 5d3d 3a20 ed3c 3d37 f3bb f601 8d3b
000000a0: f3e1 723b dec9 4a3d c178 7f3c 56cd d13c
000000b0: 7ea3 033b 453a bb3b f81b dabb 2394 27bc
000000c0: bc61 803b ceca f13b 3c69 033c d372 59bc
000000d0: 85b2 813d c7a4 363c 9382 95bb 04f0 823d
000000e0: 7f65 a93c 8fc9 2e3d 1f8a 3d3c 8870 fb3c
000000f0: 9622 573c 5b46 7e3d 71bb 95bb 7619 da3b
00000100: 54b4 d13b 6db2 703d 6c94 303d 6982 32bc
00000110: 745b f83c 172b c03c 9f3b 763d fc89 ebbc
00000120: 5897 203d 63d5 98bc 03df 3c3c 6e83 023d
00000130: 167e aebc 80ac 9339 22bc 2b3d 5e89 083c
00000140: 1945 2c3d f480 aa3c 0305 8cbc 704f d63b
00000150: 7a55 d33c f18f 553d bcc6 263b ecc1 db3c
00000160: b008 f03c 533c 573c 1495 d83b 3e3e 163c
00000170: 4a34 b93a 4b2e bcbb 4977 ee3b 5e07 ad3a
00000180: 48e5 223d 3a4c dd3b 38da b73c d6ab 35bc
00000190: 6896 babb 9255 a13b 0949 903b 7740 9dbb
000001a0: 0f2c ec3c ddd3 0e3a 3e5a e7bb d0cd 8cbc
000001b0: 039d 983c 75f1 ed3b a9a3 32bc 60f1 94bb
000001c0: 9c54 abbc 77bc 083c 0c0b b83c 9f76 243d
000001d0: 8a03 613b b220 b83c 0699 cf3c 0f83 2a3d
000001e0: 12e5 5dbb 14a4 86bc d0f6 9dbc ecae ed3c
000001f0: 8b62 813d bccc 2b3c c0d4 fd3c f438 a7bb
00000200: c776 703d 9b76 6d3d d249 923c 97a1 8a3c
00000210: 1acf 12bc 9796 4cbd 31e3 673b c76f 2c3d
00000220: 2797 db3b 93c1 dfbb 7635 c53b 136e 0cbc
00000230: 0149 b1bc 8b7b b3bb 2b48 b13b 5417 17bc
00000240: da18 0d3d 66ab 323c ece5 d838 84ee 953a
00000250: 3d07 7f3c d32e 913c 22ba 5abc 2070 443d
00000260: 3181 0f3d a96b 543d 22b8 dc3c 41d7 dcbc
00000270: 2039 8cbb 8dbd a7bc 7802 ed3b fe76 c3bb
00000280: 73a3 703c f31d 543c 575c 60bc 8bfc d2bc
00000290: a1af 703c 411a 043d 8bfa d13b c312 263d
000002a0: d3f8 4e3b b900 e83c fe27 9f3c beea 5c3a
000002b0: 7e1d 7fbb 60fd 83bb 48f2 2f3d ffb6 e73c
000002c0: 34a0 d4ba c0b8 02ba 7f9c 1f3b fc0a 6c3d
000002d0: 66a7 443c c193 ef3a 9e42 5e3d 86a3 0abc
000002e0: 664a 243c a483 133b 6d82 783a ece9 033c
000002f0: 04b6 4b3b 7705 8e3d 1d61 d7ba 0a72 0f3d
00000300: 2ba1 dc3c 99f6 3dbc 32dc d5bb 0e77 aebb
00000310: 16b3 5f3d 300c 133c 5957 71bc 6fe2 693c
00000320: 1662 233d 6220 f03c 9e72 b83c 1b81 083d
00000330: 76eb 173d d0d0 66ba fc1d 0abb b75c da3c
00000340: 7347 7f3c eb3b 9a3d c1dc 843c f058 853d
00000350: eeb3 a33c 5c91 783d cf41 973d 79d2 103d
00000360: 09f1 103d 4a59 413b 645e 49bc a526 afbc
00000370: 4124 923c eb73 3d3c d920 e4ba 8936 bdbc
00000380: 29a6 433d 7538 483d 1e95 983d 5743 e8bb
00000390: 39e9 c23c 7218 0d3d 23bd 1dbc 31ca 233d
000003a0: 0c35 42bc aa4f 42bc c711 b0bc d568 403d
000003b0: 955d a439 c8b9 853c 958e d9bb dd65 00bb
000003c0: d43f df3c fc35 503d a387 ea3c 9572 b53c
000003d0: b689 41bc 1575 183d 59f9 363c bcfc f43c
000003e0: 98e7 74bc 991c 44bb 295b 7e3c 8789 7d3d
000003f0: 15b6 65b9 4508 023c 5e03 c13b b14e 35bc
0.035512444 -0.018809283 -0.008538699 0.030769728 0.022352852 -0.010605376 -0.00021164438 0.0074472963
0.02063206 0.04655722 0.010822267 0.040077586 0.06770965 -0.004867678 -0.0062983683 0.037433412
0.053463385 -0.0035898976 -0.00023862976 0.05103396 0.02221004 0.030597957 -0.01790955 -0.009315671
0.02732935 -0.03418646 -0.007534087 0.057985414 0.044828624 0.0062724445 0.04088265 0.03367837
0.048378427 0.040358666 0.00088975386 -0.04318702 0.0540688 0.02894603 -0.0074223564 0.0043032123
0.0037060946 0.04950892 0.015592755 0.025610607 0.0020086463 0.0057137334 -0.006656166 -0.01022819
0.003917901 0.0073789125 0.008020695 -0.013272005 0.06332878 0.011147684 -0.004562685 0.063934356
0.02067828 0.04267269 0.011568575 0.030693308 0.0131308045 0.062078815 -0.004569464 0.006655867
0.0063996706 0.05876391 0.043110296 -0.01089535 0.030317046 0.023458047 0.060115453 -0.02875232
0.039206833 -0.018656438 0.0115277795 0.031863622 -0.021300357 0.00028166547 0.041927464 0.008333532
0.042058084 0.020813443 -0.017092234 0.0065402314 0.025797594 0.052139226 0.0025448045 0.026825868
0.029301018 0.013136941 0.0066095684 0.009170113 0.0014129963 -0.0057428232 0.0072774035 0.0013201048
0.03976944 0.0067534717 0.022442922 -0.011088332 -0.0056941994 0.004923531 0.0044032377 -0.0047989446
0.028829603 0.000544844 -0.0070603183 -0.017187983 0.018629557 0.00726145 -0.010903277 -0.0045453757
-0.020914368 0.008345715 0.022466205 0.04015219 0.0034334385 0.022476528 0.025341522 0.041628893
-0.003385846 -0.01643566 -0.019282728 0.029014073 0.06317624 0.010485824 0.030985236 -0.005103225
0.058707025 0.05797444 0.017857466 0.016922755 -0.00896051 -0.0499483 0.003538322 0.042098787
0.0067013684 -0.0068284958 0.006018336 -0.008571166 -0.021641256 -0.005477374 0.0054102144 -0.00922187
0.03444753 0.010905122 0.00010342509 0.0011438881 0.015565691 0.017722523 -0.013350042 0.047958493
0.035035316 0.051860485 0.02694327 -0.02695811 -0.004279271 -0.020476127 0.0072329603 -0.0059651127
0.014687407 0.012946594 -0.013693891 -0.025755187 0.014690311 0.0322516 0.006408041 0.040545236
0.0031581416 0.028320657 0.01942825 0.00084273133 -0.003892749 -0.0040280074 0.042955667 0.028285502
-0.0016222061 -0.00049866363 0.0024354754 0.057627663 0.0120028015 0.0018278287 0.05426275 -0.008461839
0.010027504 0.0022508884 0.0009479884 0.008051377 0.0031083832 0.06934636 -0.001643214 0.035020865
0.02693232 -0.011594438 -0.0065264935 -0.005324251 0.05461415 0.008975074 -0.014730298 0.014275177
0.039888464 0.029312316 0.022515591 0.03332625 0.037089787 -0.0008804919 -0.0021075 0.026655538
0.015581 0.0753096 0.016218545 0.06511104 0.019983258 0.0606855 0.07385599 0.035356972
0.03538612 0.0029502683 -0.012290571 -0.021380732 0.017839553 0.0115632815 -0.0017404809 -0.023097293
0.047765885 0.048881967 0.07450317 -0.0070881057 0.02379285 0.03444714 -0.009627613 0.039987747
-0.011853468 -0.011859814 -0.021492852 0.046974976 0.00031350242 0.016323939 -0.0066393116 -0.0019591965
0.027252115 0.050832734 0.02862913 0.022149364 -0.011812618 0.037221033 0.011167848 0.02990567
-0.014947794 -0.0029924272 0.015524664 0.061898734 -0.00021906973 0.007936542 0.005890294 -0.011066125

action_model._discrete_distribution.branches.1.bias f4 [2]
00000000: d205 b73c d305 b7bc
0.022341643 -0.022341644

action_model._discrete_distribution.branches.2.weight f4 [2, 256]
00000000: d6a0 79bc 74a1 cbbb 7694 8b3c 3777 3abc
00000010: 0561 70bc 92ef 913b 8d20 ed3b 2ed3 67bb
00000020: e529 22bc 1ac8 94bc ee99 673a 110b 35bc
00000030: ad8c a6bc 97b4 efbb c088 0cbb 10fc 37bd
00000040: d1aa b53a 4d62 013a f0a7 c23c a043 2bbc
00000050: 28c7 6ebc 65b3 dabc 9c3b e63b 0447 683c
00000060: 7841 f6bc 56bf 593c 8d54 293c 434a 81bc
00000070: adef bfbc af6e 70bb d841 31bd c807 0ebd
00000080: c028 28bd dd70 46bc 7e8e df3b be7e 7a3b
00000090: 9067 ddbb c30a 91bc aa19 363c 9380 fd3b
000000a0: 49ce ab3c ae2a 0fbc 047a 27bc 1865 05bd
000000b0: ea84 0ebb 30a2 debb 9f5d 213d 3ec0 db3c
000000c0: 9ef1 10bb 4db7 94bb 7be9 d2bc a3e0 993c
000000d0: 9f2c 9dbc 11d5 863b 4be5 4d3c ce8a 0abc
000000e0: cdd4 92bc b4b8 e3bc 024e a9bc 830b 39bd
000000f0: 04cb 85ba aec9 d53a 4614 273b 4d49 1c3c
00000100: 1448 1ebc 1b84 04bc 61b0 c3bc e6c9 b73b
00000110: 38d9 1abd e2b4 e2bc 0bdf f1bb 24f8 54ba
00000120: aa77 9ebc f3f0 0ebc 480e c1bb 5e38 cbbc
00000130: f38e 9a3b ba82 643c f1e1 c9bc e04b 24bb
00000140: 3ab9 dabc 47db d1bb 779c 3b3c b998 ebbb
00000150: 1795 72bb 0145 e3ba d362 933b 158b 08bd
00000160: 8793 07bd 8302 62bc 0cd7 d2bb 5f8f 70bc
00000170: 805a 463c b04d 0b3c 4710 043c 3d3c 55ba
00000180: 4ef6 54bc d647 8a3c 3bcc 293b 3d93 403b
00000190: a235 993c ab28 823c dac6 97bb dfee 513c
000001a0: 5390 90bb 5bf9 993a 5700 0e3b 228a 113d
000001b0: 0c79 21bb 40cf 343b ecd7 b43c 1b69 ca3b
000001c0: cc1c ec3c 099f 2f3b 6d62 1bbd 639f b6bc
000001d0: b58c 503c 243f 0b3b f14a 52bc a279 8abb
000001e0: 8bda 213c cb6d e33b 1697 e93a 1257 05bd
000001f0: fa6d 85bc ffb4 0c3c da3f 66bc 908d 0d3c
00000200: 9ef4 32bc 3ce2 b638 1a36 73bc cbce ec3a
00000210: f6f3 b13c b08d 4f3c fd15 873c 4fa6 c5bc
00000220: 6c58 9a3b 36c7 093c d98e 833b 67a8 ed3c
00000230: f82c 003c 21d9 b93b e506 40bc c625 0d3c
00000240: 7a47 1cbc 1aab a939 37ea bc3b 1ec1 feb9
00000250: 3df7 b4bc 4a44 edbc becd 243c aa47 da3b
00000260: c394 91bc 8aac abbc adec 2dbd fba0 473c
00000270: b728 963c 8481 3b3c 8a78 cabc f09b 243c
00000280: 5d90 d8bc 7e81 d53a c8a0 58bc c0a0 9a3b
00000290: 5cfd a93b a4ac 17bc 4109 61bc 4da9 abbb
000002a0: 4243 af3b ae59 1fbc d546 0ebd 8e9b a03c
000002b0: 0146 8e3c 0cc5 c83c 9c71 8bbc e563 b4bc
000002c0: ccca 183c f2c4 faba b5be c6b9 6afb 02bc
000002d0: a610 69bc 90c5 f139 28c8 3fbd 02cd 263b
000002e0: 3d28 913a 6dad af3b c4e6 0c3c 1f86 29bc
000002f0: d9ee e03b ccb2 b9bc 90d5 f63b 399a 36bc
00000300: c813 83bb ebc4 39bc 6b75 2e3b 6344 843b
00000310: cdd9 01bd 1902 feba d352 043b f40e a3bb
00000320: 8d36 d0bc 18fa 81bc a071 f4bb f5de babc
00000330: bac6 4dbd 0ec3 8e3b 711d 703c 9cbe debc
00000340: 35b6 83bb 583d 08bb 4bf6 5e3b 05d2 26bc
00000350: a9c1 2ebd 1e1b 38bc 6df1 3dbc 4f28 08bd
00000360: d6a3 11bd 457e 7a3c 91d2 203c 1f7b 083c
00000370: acaa cfbb 0dc6 113c a101 f1bb 609a c4b9
00000380: 374f 55bc 4b16 ecbc cb8f 9abc 584a 113c
00000390: 2110 2bbc 4c5f bdbc 0cfc 063d c176 eebc
000003a0: 22b5 963a 3762 4a3c 5ce4 4aba 6277 8dbc
000003b0: 0def 0c3c 4562 05bc a0e5 4b3b c9a6 d83b
000003c0: 8417 f7bc 7895 c1bc baf2 81bb 0277 1abc
000003d0: 08ab eebb 57a3 c0bc 77d4 6d3c e35a 94bc
000003e0: d886 89ba 454d b03a 6c78 adbc e735 aabc
000003f0: 03a4 68bc e278 30bc 4669 adba 8b2a 93bb
-0.0152361 -0.006214315 0.017038565 -0.011380962 -0.014671569 0.004453608 0.0072365464 -0.0035373676
-0.009897684 -0.018161822 0.0008834888 -0.011050002 -0.020330751 -0.007315229 -0.0021443814 -0.04491812
0.0013860111 0.00049356074 0.02376172 -0.010453135 -0.01457385 -0.02669687 0.007026149 0.014177088
-0.030060515 0.013290247 0.0103351 -0.015782481 -0.023429716 -0.0036687066 -0.043275684 -0.03467539
-0.041054487 -0.01211187 0.0068224063 0.0038222517 -0.0067567304 -0.017705327 0.011114517 0.0077362745
0.020972388 -0.008738203 -0.010221962 -0.032567114 -0.0021746703 -0.0067942366 0.039395925 0.026825067
-0.0022116671 -0.0045384527 -0.025746098 0.018783873 -0.019186316 0.004114755 0.012566875 -0.008455945
-0.017923737 -0.027798034 -0.02066708 -0.045176994 -0.0010207598 0.0016310716 0.0025494262 0.009538961
-0.009660739 -0.008088137 -0.023887815 0.005608785 -0.037804812 -0.027674142 -0.007381325 -0.0008124134
-0.01934417 -0.008724439 -0.005891595 -0.024807151 0.004716748 0.013947183 -0.02464387 -0.002506964
-0.026699651 -0.0064043137 0.011450878 -0.007189837 -0.0037015134 -0.001733929 0.0044978647 -0.033335764
-0.033099677 -0.013794544 -0.006434327 -0.01468262 0.012106538 0.008502409 0.008060521 -0.00081342814
-0.012998177 0.016879957 0.0025909084 0.0029384636 0.018702332 0.015888533 -0.0046318593 0.012813299
-0.004411736 0.0011747287 0.0021667683 0.035532124 -0.00246388 0.002758935 0.022075616 0.0061770803
0.028822325 0.0026797673 -0.037935663 -0.022292798 0.01272886 0.0021247352 -0.01283525 -0.0042259255
0.009878765 0.0069405786 0.0017821516 -0.03255374 -0.016287792 0.008588075 -0.014053309 0.008639708
-0.010922579 8.720576e-05 -0.014844442 0.0018067 0.021722775 0.012668058 0.016489977 -0.024127154
0.0047102477 0.008409312 0.0040148315 0.029010965 0.007823221 0.0056716357 -0.011720394 0.008614963
-0.009538526 0.00032361672 0.0057652253 -0.0004859054 -0.022090549 -0.028963227 0.010058818 0.006661375
-0.01777113 -0.020956296 -0.04246204 0.012184377 0.018329961 0.011444453 -0.02471568 0.010046944
-0.026436025 0.0016289202 -0.013221927 0.00471887 0.0051876735 -0.009257469 -0.013735116 -0.005238688
0.005348594 -0.009725971 -0.03473552 0.019605424 0.017367365 0.024508022 -0.017021947 -0.02202029
0.009325694 -0.0019132181 -0.0003790759 -0.007994512 -0.014225161 0.00046114298 -0.046821743 0.0025451784
0.0011074614 0.00536125 0.008599941 -0.010346918 0.0068644104 -0.022668265 0.007532783 -0.011145168
-0.004000161 -0.011338453 0.002662028 0.0040364726 -0.03170185 -0.0019379287 0.0020190969 -0.004976148
-0.025416637 -0.015866324 -0.007459834 -0.022811392 -0.05023835 0.0043567484 0.014655457 -0.027190499
-0.0040195235 -0.0020788517 0.0034021314 -0.0101819085 -0.042665157 -0.011236934 -0.011593205 -0.033241566
-0.035556637 0.015288894 0.009815828 0.008330136 -0.0063374843 0.008897317 -0.0073549305 -0.00037499052
-0.013019375 -0.028819224 -0.018867394 0.008867823 -0.010440857 -0.02311673 0.032955214 -0.02910936
0.0011498074 0.012352518 -0.00077397167 -0.01726884 0.008601916 -0.008141105 0.003111221 0.006611679
-0.03016258 -0.023630843 -0.003965703 -0.009427788 -0.007283572 -0.023515387 0.014515988 -0.018109744
-0.0010492457 0.0013450762 -0.021175586 -0.020777656 -0.01419926 -0.010771008 -0.0013230226 -0.0044911555

action_model._discrete_distribution.branches.2.bias f4 [2]
00000000: c94a 663a 974a 66ba
0.00087849476 -0.00087849185
