Assets/results/day21941/TrafficLightBrain/TrafficLightBrain-204987.onnx (onnx, 386520 bytes, 13 tensors)

discrete_act_size_vector f4 [1, 4]
000000 00 00 00 40 00 00 00 40 00 00 00 40 00 00 00 40
       2.0 2.0 2.0 2.0

network_body._body_endoder.seq_layers.0.weight f4 [256, 100]
000000 b1 7c 01 3e 0a 80 8e bc a1 7a cd bb 24 8f 6b 3c
       0.12645222 -0.017395038 -0.006270722 0.014377389
000010 4f e3 b5 bc cb 04 8b bd 9f 03 27 be 13 a3 5a 3e
       -0.022203116 -0.067880236 -0.16309975 0.2135127
000020 7b 4c 33 3d 8d a9 3b be 9d 5d e2 3b 34 0e 32 be
       0.04377411 -0.18326397 0.006908132 -0.1738823
000030 ee 47 bf 3d 28 0c 9c bd 41 82 a6 3c 74 0c 3d 3d
       0.093398914 -0.07619506 0.020325782 0.046154454
000040 bb 1e 51 3e d8 2b df 3b e6 50 b3 3c 05 cb 7e 3c
       0.20421879 0.0068106465 0.021889161 0.015551333
000050 3a 11 70 ba 0e 4e 8c bd 09 cd 27 3d cb 9b 3d bc
       -0.00091578404 -0.06850825 0.04096702 -0.0115727885
000060 6b 62 1a 3e 3d f0 01 bc 79 89 bd 3c 8f 34 4f 3d
       0.15076606 -0.007930812 0.023136841 0.050587233
000070 72 2c 75 bc 92 d3 03 3e dc 2a ad bb b8 19 3b 3d
       -0.01496421 0.12873676 -0.0052846503 0.045678824
000080 fc 4b 3a be f5 7a ca bd a9 79 85 3d 0a 27 9a bd
       -0.18193048 -0.098867334 0.065173455 -0.07526977
000090 62 8f a8 3c 14 8c c7 3b e5 c7 74 bd dd ea 5d bd
       0.020576183 0.0060896967 -0.059760947 -0.05417906
0000a0 10 f0 73 3d 4b 60 59 3c 72 77 93 3c 88 6a 66 bc
       0.059555113 0.013267587 0.018001292 -0.014063485
0000b0 6d e7 d6 bd 78 b7 eb 3d c2 5f 39 be 60 07 f7 3c
       -0.1049336 0.11509603 -0.18102935 0.030154884
0000c0 ce f4 3c 3a 63 dd 8b bd 5a 54 d0 3a bf 5f 8a bd
       0.00072081096 -0.068293355 0.0015894279 -0.06756543
0000d0 33 58 37 bb 4d d0 9b 3a 84 cc 1a be 07 95 ba bd
       -0.0027976155 0.001188764 -0.15117079 -0.09110456
0000e0 a3 70 a9 3b 9f 54 ec 3d 5b 62 fd bb c3 5d 86 3e
       0.005170898 0.11539578 -0.007732672 0.2624341
0000f0 37 4a 4a 3d 7b 31 d2 3c fb 41 25 3e d5 0a 79 3c
       0.049387183 0.02565836 0.16138451 0.015200336
000100 36 75 b8 3e 37 9d 0c 3e 82 1e 48 3e 97 79 18 be
       0.36026925 0.13731848 0.19542888 -0.14890133
000110 be 8f 33 3e 8e ba 21 3e df d3 2d bd 95 94 66 3e
       0.17535302 0.15793821 -0.042438384 0.22517617
000120 32 fe cf 3d df e0 4a 3d e8 a9 79 bd 4b e7 80 bd
       0.10155906 0.04953086 -0.06095305 -0.06294116
000130 a9 0a 12 bd b5 d9 4f bd 27 22 26 3c 75 76 a1 3d
       -0.035654698 -0.05074473 0.0101399785 0.07883922
000140 bd 3c dd 3c 68 3c cd bd 67 28 10 bd b5 3e 22 be
       0.027006501 -0.10021287 -0.03519478 -0.15844233
000150 27 3b b1 bd 8c 06 26 3c 93 4c 1a bd c2 3c 69 3d
       -0.086538605 0.010133397 -0.037670683 0.05694271
000160 32 6c 0a 3d 08 35 a3 3d 93 9c 31 bc e9 3c 1a be
       0.03379459 0.07969099 -0.010840553 -0.15062298
000170 af da 43 3e 3c 39 8a bd 77 73 94 3d 2f 1d 9c 3c
       0.1912639 -0.06749198 0.07248586 0.019056885
000180 e5 b7 fe bd 57 fa 0b 3d 72 24 17 3c 77 67 10 3e
       -0.12437419 0.03417429 0.009224998 0.14101969
000190 b3 d5 e0 3d 0b 0a 5d 3d 60 8d af bc ff d0 f9 bb
       0.1097826 0.053964656 -0.021429718 -0.007623791
0001a0 4c 8d e2 bd fb e9 79 3e fb d8 24 3d 23 0c 40 be
       -0.110621065 0.24405663 0.04024599 -0.1875463
0001b0 b5 2a 0d be 0e 86 43 3e 7f e6 28 be b7 6f 52 3e
       -0.13785823 0.19094107 -0.16494177 0.20550428
0001c0 77 29 1c be 15 d5 00 3e 4a 08 7c bd 57 31 a0 bd
       -0.15250193 0.12581284 -0.061531343 -0.07821911
0001d0 26 bc 84 3d 0f 60 8b 3d 6f b0 e4 bd c0 f4 68 bb
       0.06481199 0.06805431 -0.111664645 -0.0035546273
0001e0 ea 0f 22 3e c9 d1 49 bd 8d 2d 29 bd 8f 36 72 bd
       0.15826383 -0.049272332 -0.041303206 -0.059134062
0001f0 69 be 95 3d 87 3a 50 bd d9 43 0d 3d 47 2e b4 bd
       0.073117085 -0.050837066 0.034488533 -0.08797889
000200 56 27 0b 3d 1b 3a 4f bd c3 0d 12 be 47 9c 1b bd
       0.03397306 -0.050592523 -0.14263062 -0.037990835
000210 43 3e 09 3b 4b 75 5c bd 2b 17 09 be a4 97 3a bd
       0.0020941652 -0.053822797 -0.13387744 -0.045554772
000220 1e 2f 02 3d 08 42 dc bd 5a cc b1 3d 37 4f 5e bc
       0.031783216 -0.10754782 0.08681555 -0.013568691
000230 a8 ce 1a 3e 93 bc f4 bc c9 d1 1e 3d 3f 23 cf bd
       0.15117896 -0.029875075 0.038774285 -0.101141445
000240 03 af aa bd 60 2c 78 3d 00 c1 56 bd 38 76 43 3d
       -0.08334162 0.060589194 -0.052430153 0.047720164
000250 7e 91 32 bd 4b 95 92 3d e8 4b 19 be 78 74 01 3d
       -0.043595783 0.071573816 -0.14970362 0.031605214
000260 0c a2 c3 3c 44 e4 0d be b0 b2 31 bd ff fa 26 be
       0.02388098 -0.13856608 -0.0433833 -0.16306685
000270 db 6f ba 3c c6 42 95 3b 75 b8 85 bd 4d 6a f7 bc
       0.022758415 0.004555079 -0.06529323 -0.030202055
000280 07 6c 12 3d 17 9a 85 3d 11 fa 17 3d 4a 86 ae bd
       0.035747554 0.06523531 0.037103716 -0.08521707
000290 c7 44 79 3c fd 78 89 bd 57 d7 25 3d 3b d8 e1 bc
       0.015214152 -0.0671253 0.040488567 -0.027568927
0002a0 1f 82 83 bd 47 e8 05 be e7 6b 13 3d cd 53 b4 bc
       -0.06421303 -0.13076888 0.035991576 -0.022012616
0002b0 98 be 3b bd a3 36 aa 3c 38 20 21 be c5 b6 67 be
       -0.04583606 0.020778006 -0.15734947 -0.22628315
0002c0 f7 19 b6 3c 13 e9 77 bb c4 fc 99 bd 27 78 57 be
       0.022229178 -0.0037828132 -0.07518914 -0.21041928
0002d0 aa 53 66 3d ca 2d 2c bd 3f b5 f8 bd bf 7c 2a bb
       0.056232132 -0.042035855 -0.12143945 -0.0026014296
0002e0 e3 c9 13 3e 0d 6c ed bd 50 dc ee 3d 5b 3c 0b bc
       0.14432482 -0.11592875 0.11663115 -0.008498277
0002f0 a2 65 81 3d 0a 13 fc 3c 17 79 17 be 4b 31 19 bd
       0.06318213 0.030770797 -0.14792286 -0.037400525
000300 ad 71 fe 3d 1d 4d 03 be d1 2c 00 3e 04 41 3b 3d
       0.12424026 -0.12822385 0.12517096 0.0457163
000310 2b 3c 0d be a0 da 26 bd 8b a4 36 3d f5 0e 84 bd
       -0.13792484 -0.04073584 0.044590514 -0.06448165
000320 30 31 2b 3b 99 a3 49 be 80 a4 2a bd 26 87 01 3d
       0.0026121847 -0.19691314 -0.041660786 0.03162303
000330 11 b4 ad 3d 3b d6 a3 bc f5 0b 85 bd 2f 45 77 3a
       0.084816106 -0.019999614 -0.06496421 0.00094326114
000340 e0 63 26 3c 5c 9d dd bd 22 7e d7 bd 13 c8 b5 bd
       0.010155648 -0.108210295 -0.10522105 -0.08876052
000350 78 55 56 be b9 a4 b4 bb da b1 67 3d db 43 91 3d
       -0.20931041 -0.0055128005 0.056566097 0.070930205
000360 0d 18 6e 3c 77 52 9e bd 42 6b 66 3e 68 9e 7e 3c
       0.014532101 -0.07730573 0.22501853 0.015540697
000370 9b 67 3c bc 5f 3a ed 3c 7b ca 2b 3e 10 3e 3d be
       -0.011499311 0.028958498 0.16776459 -0.18480706
000380 b8 d7 eb bd bf bd 6a 3d 94 e9 8f 3d a8 38 dd 3d
       -0.115157545 0.057309862 0.07026973 0.10801822
000390 90 77 f7 bc 4b 10 26 bd 50 2d 30 3d a9 6a 3f be
       -0.030208379 -0.040542882 0.043011963 -0.18693031
0003a0 12 1c 79 bd 25 3d b5 3d b7 cd 93 bc 86 08 09 be
       -0.060817786 0.08849553 -0.018042428 -0.13382158
0003b0 ff 7d 07 3e de 89 04 3d e7 7c 0e bd f8 fb 96 3d
       0.13231657 0.032358043 -0.034787085 0.07372278
0003c0 9b ae 05 3d 47 32 53 be ea 70 f7 3c b3 28 db 3d
       0.03263722 -0.20624648 0.030205209 0.10701122
0003d0 ca 23 1d be 33 50 16 be c6 40 82 3c 30 5d 50 be
       -0.15345684 -0.14679031 0.015900027 -0.20348048
0003e0 90 e9 4d 3e f2 1e d2 bd 14 2e ae bd 4f 21 d8 bc
       0.20108628 -0.102598086 -0.085048825 -0.02638307
0003f0 40 7e 57 be 9b 75 23 bd 35 18 5a 3d ef 4f 23 be
       -0.21044254 -0.03990708 0.053245742 -0.15948461

network_body._body_endoder.seq_layers.0.bias f4 [256]
000000 b4 e8 e3 bc 39 ff 08 3d b7 e7 ad bd 9a 44 23 bd
       -0.027820922 0.033446524 -0.08491462 -0.039860345
000010 6b 71 6a bd e5 17 06 bd e4 20 da bb 40 af d4 bd
       -0.05723707 -0.03273763 -0.006656753 -0.10384989
000020 89 32 18 bd 25 6e 30 3d a5 99 17 bd 07 89 ad bd
       -0.03715757 0.043073792 -0.03701176 -0.084734015
000030 13 85 ae 3c 5e 03 ed 3c 97 ba 63 bd f8 40 9c bd
       0.02130369 0.02893227 -0.055597868 -0.07629579
000040 ee c3 90 bc 13 f1 9f bd bd a5 e0 3c 0c 2e 53 bd
       -0.017671552 -0.07809653 0.02742278 -0.051557586
000050 3a 73 59 bd fb f4 bc 3d 06 d2 a5 bd 72 4e 82 bd
       -0.053088404 0.09226414 -0.080966994 -0.063626185
000060 2f 93 99 bb d1 bd 41 3a 00 a9 a3 3c 4d e9 86 bd
       -0.004686735 0.00073906506 0.019978046 -0.06587467
000070 8c 0c 23 3d 82 4d 20 bc df aa 86 bd 2f 5b 3a bd
       0.039806888 -0.009784104 -0.0657556 -0.045497116
000080 96 c1 96 bc 62 6b 23 3d 9a 9d 0b bd 87 2b 8c bd
       -0.018402856 0.03989733 -0.034085847 -0.0684424
000090 47 47 84 bd f3 36 4b bd 79 95 ec bd 18 38 4d 3d
       -0.064589076 -0.04961295 -0.11551947 0.050102323
0000a0 c9 10 86 bc af bd 6e 3d f9 8d 0d 3d 94 79 4d 3d
       -0.016365426 0.058286365 0.034559224 0.050164774
0000b0 d9 e9 c8 3d 0d c3 58 bd 92 b1 05 3e bc 4f bf 3c
       0.09810228 -0.05292039 0.13056019 0.02335345
0000c0 37 d6 4c bd 5b 51 7e 3d 21 2c 25 bd 62 fc 21 3d
       -0.05000898 0.062089305 -0.040325288 0.03954733
0000d0 49 02 5f bd 29 5c 71 bd 2f 1c ea 3d 56 5a 80 3d
       -0.05444554 -0.05892578 0.11431157 0.0626723
0000e0 be 61 62 3d c7 5f 32 3d b2 d4 86 bc c6 da 50 bd
       0.055268995 0.04354837 -0.016458843 -0.05098989
0000f0 fb 46 06 bd 06 39 85 bc 81 05 2d 3d 03 21 ad bd
       -0.032782536 -0.016262542 0.042241577 -0.08453562
000100 c2 3b 84 3d e4 ce 7c bc 8d fe f4 3c 36 30 60 3c
       0.064567104 -0.015430186 0.029906536 0.013683369
000110 65 3a 45 bd 29 f1 a3 bd 9e 30 52 bd fc a7 b7 bd
       -0.048151392 -0.08004982 -0.051315896 -0.08967587
000120 91 91 82 bd 4c 03 b9 3d 2b f3 55 bd ca 5a 90 bd
       -0.06375421 0.09033832 -0.052233856 -0.07048567
000130 96 29 a1 bd dd c2 a0 bd 0f 0d 99 3d f1 e3 83 bc
       -0.0786926 -0.07849667 0.07473194 -0.016099902
000140 bc 4a 08 bd 67 84 5e 3d c0 8b b3 3d bd cc 22 bc
       -0.033274397 0.054325487 0.087668896 -0.009936509
000150 32 26 56 bc 6c 85 18 3a 7d 28 28 bd ef fa b0 bd
       -0.01307063 0.0005818221 -0.041054238 -0.08641612
000160 6a 20 2f bd a9 97 96 bd 89 f4 cf bc 69 d0 6b 3d
       -0.04275552 -0.07353146 -0.025385158 0.057571802
000170 7b 4f 24 bd ec 13 04 bd 89 bf a9 3c 8e ac c1 bd
       -0.04011486 -0.03224556 0.020721214 -0.0945674
000180 55 0f a8 3d 8f 17 25 bc b2 08 50 bd ec 43 c6 bd
       0.08206049 -0.010076418 -0.050789542 -0.09680924
000190 a9 9e bb bd 81 ee a1 bd 57 ba 9f 3c 6c e0 d0 bd
       -0.091611214 -0.07906819 0.019498033 -0.10199055
0001a0 31 55 5a bd cd 90 5d bd 2b 70 07 bd a5 d8 c4 bd
       -0.0533039 -0.05409317 -0.033065956 -0.09611634
0001b0 9b 11 a5 3c 9d ee 0a 3d 4d 4e 3d bd 49 ca 69 3d
       0.020149997 0.033918966 -0.04621725 0.05707768
0001c0 89 9d b6 bd ad f9 aa bd ab 80 3b 3d ca 94 02 bd
       -0.08916766 -0.08348403 0.045777004 -0.031880178
0001d0 5d e1 93 bd 61 98 d5 ba d1 8f 73 3d f7 1b 39 bd
       -0.07220719 -0.0016296023 0.059463326 -0.045192685
0001e0 b7 67 89 bd 9e c6 64 bd 13 f4 52 bd ed 43 21 bd
       -0.06709235 -0.05585348 -0.0515023 -0.03937142
0001f0 0d 2b b2 3d 05 d0 03 bd c0 26 b4 bd 3b 34 73 bd
       0.086996175 -0.032180805 -0.087964535 -0.059375983
000200 f7 41 af 39 a8 d2 db bb 0b 84 bf bd b1 19 85 3d
       0.0003342775 -0.006708462 -0.09351357 0.06499041
000210 c7 4b af bc c2 30 32 bd 2b fd 6c 3d cd d7 7c bd
       -0.021398438 -0.04350353 0.057858627 -0.06172924
000220 3b b3 0e 3d d6 4b 01 bd 99 ac 8c bd 73 8d 55 bd
       0.034838896 -0.031566463 -0.06868858 -0.05213685
000230 0d 82 cf 3b 5a 12 39 bd f3 6d a1 bd 33 30 83 bd
       0.006332642 -0.045183517 -0.07882299 -0.06405678
000240 43 1f b0 bd 43 3e 84 bd 76 83 30 bc 1d 7f cf bd
       -0.08599713 -0.06457188 -0.01077353 -0.10131667
000250 16 fc 48 bc 5e cb aa bd e5 ba e4 3c 48 12 23 bd
       -0.012267133 -0.083395705 0.02792115 -0.039812356
000260 0c 9b 29 3d df e7 2e bd b3 17 11 bd 8b f6 ec bb
       0.04140763 -0.0427016 -0.035422992 -0.0072315386
000270 b9 e2 e8 3c e3 f2 8f bc 75 31 5a bd d9 40 4d 3d
       0.028428422 -0.017571872 -0.053269822 0.05011067
000280 c5 f2 b0 3c 66 25 62 bd 91 f4 4b bd 69 5a 76 3d
       0.021600137 -0.055211447 -0.049793784 0.060144816
000290 40 53 62 bd ac 6b 85 3d ec 10 94 bd 5b 5c 58 3d
       -0.055255175 0.065146774 -0.0722979 0.052822452
0002a0 1f 92 bb 3c f4 d0 96 bd d0 00 56 bd f0 74 93 bd
       0.022896824 -0.073640734 -0.05224687 -0.072000384
0002b0 09 d2 4a bc 51 63 52 bd 9e 2e 8a bd 24 5c 84 bc
       -0.012379178 -0.051364247 -0.06747173 -0.016157217
0002c0 00 85 b6 3c 66 ac 87 bd eb 3a 92 3d 8c 17 39 bd
       0.022280216 -0.06624679 0.07140144 -0.04518847
0002d0 30 51 41 bd cc 09 83 bd d3 57 02 bd 53 f1 e5 bc
       -0.047196567 -0.06398353 -0.031822037 -0.028069174
0002e0 55 6c ba bd dc 28 9d 3d fd 77 61 bd 0d c6 b3 ba
       -0.09102694 0.07673809 -0.05504607 -0.001371564
0002f0 24 fc 3a 3d 6c a7 8b bd 8d 8e 82 bd e4 41 e0 bd
       0.045650616 -0.068190426 -0.06374846 -0.10950068
000300 2c 82 bc bd 43 f0 bc 3c de 73 81 bd 0b 9a 21 bd
       -0.09204516 0.023063784 -0.06320928 -0.039453547
000310 8d 49 88 3d fa ba a0 bd aa 9d 80 3d f1 b8 b0 3d
       0.06654654 -0.07848163 0.06280072 0.08629025
000320 5d 75 8b bd 1a 22 ea bd 1e 35 f1 bd 48 93 78 bd
       -0.06809495 -0.114322856 -0.117777094 -0.060687333
000330 ea 80 97 bd ad 97 d0 3c ac 02 ea 3c ac d0 a6 bd
       -0.07397635 0.02546295 0.028565727 -0.0814527
000340 b0 e1 83 3d 59 1b 99 3d e6 16 d8 bd e6 72 7b bb
       0.06439531 0.07475919 -0.105512425 -0.0038368045
000350 ed 56 8b 3d ce cd 96 bd af 8e 82 3c e1 2f 0e 3c
       0.06803689 -0.07363473 0.015937177 0.008678407
000360 27 25 00 3d b1 e7 79 bd 86 fb a7 3c 43 50 58 3d
       0.03128543 -0.061011974 0.020505678 0.05281092
000370 63 b3 76 3d 32 15 41 bd be a0 5a bd 66 73 ad bd
       0.06022967 -0.047139354 -0.053375952 -0.08469276
000380 ed 98 97 3d 65 9b 20 3c 10 11 7f bc db cc c4 bc
       0.07402215 0.009802674 -0.015568033 -0.024023464
000390 aa 94 34 bd 9e c7 5d bd 67 32 c7 bd 0c 8b 1b 3d
       -0.04408709 -0.054145448 -0.0972641 0.037974402
0003a0 e2 b7 80 bd b0 3b 2a 3d 20 45 a2 bd 23 1c 80 bd
       -0.06285073 0.04156083 -0.07923341 -0.06255367
0003b0 3d 92 4d bd 77 7e 26 3d 80 c0 09 bc d4 2b 2f 3d
       -0.05018829 0.04064795 -0.008407712 0.042766407
0003c0 a6 eb 4d bd 9e 7e ac 3d 1e ea f9 bd 09 a5 50 bd
       -0.05027356 0.08422588 -0.122028574 -0.05093864
0003d0 f8 b3 2c 3d d9 a1 b0 bd ac 62 99 bd 32 54 fb bc
       0.04216382 -0.0862462 -0.07489523 -0.030679796
0003e0 ea 05 39 bd b9 dd 94 3c 67 54 8c bd d7 f7 6f 3d
       -0.045171656 0.018172132 -0.06852036 0.058585968
0003f0 48 0c 64 bd 5a e7 80 bd 59 86 b5 bd ec e0 28 bd
       -0.055675775 -0.06294127 -0.088635154 -0.041230127

network_body._body_endoder.seq_layers.2.weight f4 [256, 256]
000000 f8 ab 19 3d 2f e2 07 bd 4d c3 bf bd 67 dc 9f bc
       0.037517518 -0.03317469 -0.093634225 -0.019514276
000010 8d db 6f bd c2 6b 93 3b 36 c2 90 3c 7f 76 23 bd
       -0.05855899 0.0044989297 0.017670732 -0.03990793
000020 d8 f0 cd bd c2 9e de 3b 3f 53 1e be cd ea 2d bd
       -0.10055703 0.0067938277 -0.15461443 -0.04246025
000030 9f df 29 bc d7 4f b4 bc b9 d7 71 bd ef d3 82 be
       -0.010368257 -0.022010727 -0.05904362 -0.25552318
000040 8d 52 f7 3d a0 70 02 3c 7f e4 a1 bb 06 b1 27 3d
       0.12076292 0.007961422 -0.004940569 0.040940307
000050 de f2 70 3b d8 42 4e bd 72 a2 b9 bc 35 bf a7 bc
       0.0036765854 -0.050356716 -0.022660468 -0.020476917
000060 3a e6 06 be d2 e6 f6 bc 8c 8e e2 bc d9 60 1a be
       -0.13173762 -0.03013936 -0.027655862 -0.15076007
000070 7f e1 a5 bd 20 65 90 3d 19 a6 9f bd 0a 08 45 bb
       -0.080996506 0.07050538 -0.077953525 -0.0030064606
000080 6c f3 c0 3b 5f 58 d5 bd d6 d1 5b bd 09 91 13 be
       0.005888393 -0.10417246 -0.053666912 -0.14410795
000090 19 f0 b9 bb e0 61 48 bd 0d 0b 38 bd ff 49 b8 3c
       -0.005674374 -0.048921466 -0.044932414 0.022496222
0000a0 0b b4 d2 bd c2 8d f3 3b 92 8e df bc 04 2f 89 bd
       -0.10288247 0.0074326703 -0.027289663 -0.06698421
0000b0 ea c1 d7 3c 8c 31 2a be 38 4f 46 3d 0a 43 f4 3c
       0.026337583 -0.16620463 0.048415393 0.029817123
0000c0 36 15 bd 3d 0c ac ca 3d 9d 91 ac bd ae 7a 1e 3d
       0.09232561 0.098960966 -0.08426211 0.038691215
0000d0 8f 97 96 3c 72 26 15 bd 67 9a 25 3d 98 09 14 bd
       0.018382816 -0.036413617 0.040430453 -0.03614196
0000e0 bc c2 9a 3d 42 d8 b9 3c 42 d6 cc bb e5 b5 99 3d
       0.07556674 0.022686128 -0.0062511275 0.07505397
0000f0 6d 42 a9 3d 32 4b c8 bd b8 db 9f 3d 5b 61 44 be
       0.08264623 -0.09779967 0.0780558 -0.19177763
000100 af bb 1b 3b c7 3a f6 bd 03 f7 83 bc 94 6c 2a bc
       0.0023762991 -0.1202293 -0.016108995 -0.010401864
000110 0d 84 ae bc 68 2d 8a bc 8b b3 22 bb 32 73 8d bd
       -0.021303201 -0.016867355 -0.0024826254 -0.069067374
000120 fb 8a 30 bd 31 84 cd 3d 54 b8 c1 bb 75 2e 6b 3c
       -0.043101292 0.10034979 -0.005911866 0.014354338
000130 37 5f 2a bd 43 2d 9f bc 5d cf 66 3c 59 32 68 bd
       -0.04159471 -0.019430762 0.014087525 -0.05668864
000140 96 2c b6 3d 26 cb 0a bd 86 6c 8b 3d bf 42 37 be
       0.08895223 -0.033885144 0.068078086 -0.17896555
000150 c8 dc 6a bd c0 76 a4 3c b3 97 ff bb f9 02 7a 3d
       -0.05733946 0.020076156 -0.0078000664 0.06103799
000160 17 e1 13 bc c7 81 8c bd 6a 8e e4 3c 38 b1 39 3d
       -0.009025834 -0.068606906 0.02789994 0.045335025
000170 99 96 a5 bd b7 29 2d bc 48 74 87 3d 9d bb fc bd
       -0.08085365 -0.010569028 0.06613976 -0.12340472
000180 85 46 a6 3d be 85 a5 3c 12 e4 b0 bd e2 81 d2 bd
       0.08118919 0.020205375 -0.08637251 -0.102786794
000190 1b 18 35 be ea 4e 84 3b 9c f8 21 3d c3 f4 83 bd
       -0.17684977 0.0040377276 0.039543733 -0.06443169
0001a0 26 6d 67 3c 41 b8 44 bd 7f 26 89 3c fe f2 26 be
       0.014125144 -0.04802728 0.01674199 -0.16303632
0001b0 fe 76 3a bb 22 40 1c bd 45 2f ae bd de fb b8 3c
       -0.0028452273 -0.0381471 -0.0850511 0.022581037
0001c0 22 d9 da bd 75 29 2e be 36 b0 34 3d eb 6e a7 bd
       -0.10685946 -0.17008002 0.04411336 -0.08175453
0001d0 ba c0 a5 bc 7e d3 13 3d 90 26 6f 3a ce 9b 1c bc
       -0.0202335 0.036090367 0.0009122873 -0.009558631
0001e0 f4 df a8 bd 7d 36 97 3d cd a2 16 3e c0 59 1c 3c
       -0.08245841 0.0738344 0.14710541 0.009542882
0001f0 8b 24 8d 3d 3d f7 ca bd 63 32 7e bd 1b ed 9e bd
       0.06891736 -0.09910438 -0.06205977 -0.07760068
000200 19 fb 07 bc f7 c5 a4 bd ca 96 7c be b9 94 cc 3d
       -0.008299612 -0.08045571 -0.24666896 0.09989304
000210 0a d2 25 bd a1 4e 6a 3d 88 0a fa 3c d4 d7 ca bc
       -0.040483512 0.057203893 0.0305226 -0.024761118
000220 a4 ad ee bd b8 15 00 be 71 b4 83 bd 76 09 90 be
       -0.11654213 -0.12508285 -0.06430901 -0.28132218
000230 b8 70 7d bc da 2b fe bc 71 81 03 be d9 dd 3e 3d
       -0.015468769 -0.03102677 -0.12842347 0.04659829
000240 ad 55 f8 bd c0 ab a4 bd dc 7a 70 b9 0a 6d ef bd
       -0.12125716 -0.08040571 -0.00022933952 -0.116907194
000250 1a 3d 09 3c 4d 06 8f bb 7c a9 df bd c7 dc c0 3c
       0.008376384 -0.004364765 -0.109209985 0.023542775
000260 61 dc ad bc c0 4e b1 bd 04 d9 83 3c 6e ef a4 bc
       -0.021223249 -0.086575985 0.016094692 -0.0201337
000270 e9 96 13 be 30 8e c3 3a 09 f9 0f 3d a2 88 53 bd
       -0.14413036 0.0014919695 0.035149608 -0.051643975
000280 43 4c 88 3c ab 93 b7 3c 0d 88 9e 3d 65 ba 1f bd
       0.016637927 0.02240928 0.077407934 -0.03899612
000290 7f 5c 4e bd 48 56 e3 3d 34 1c fc 3c 26 0a bd bd
       -0.05038118 0.11100441 0.030775167 -0.09230451
0002a0 a1 a5 da 3d c9 5f 81 bd d3 6e 87 3d 72 ea d7 bc
       0.106761225 -0.06317098 0.06612935 -0.02635691
0002b0 ee ad a4 3d 73 f5 0f be 6a a8 42 be 56 97 1d bd
       0.08040987 -0.14058475 -0.19009557 -0.038474403
0002c0 f8 df 02 3d 21 06 c5 bd 96 38 4e 3d fd dd 0f 3e
       0.031951874 -0.096203096 0.050346933 0.14049526
0002d0 38 69 01 be 5b c9 25 3c 1e 83 3a 3d 4a cd a1 bc
       -0.12637794 0.010118808 0.0455352 -0.01975121
0002e0 7e e8 e3 bd 51 2a 47 bd ab eb 24 bd a8 9c 1f bd
       -0.11128329 -0.04862434 -0.040263813 -0.03896776
0002f0 e9 8b a0 bc 65 67 f4 bc f9 02 63 be f7 4e 90 bc
       -0.019597964 -0.029834459 -0.22169103 -0.017615778
000300 4c 0b b2 bd 89 2b 79 3d 7b 98 0d bd b1 db 10 bc
       -0.08693561 0.060832534 -0.034569245 -0.008841441
000310 ea bf 73 bd 18 90 b9 bd 56 81 5f bd 7d 5b 20 3a
       -0.059509195 -0.09060687 -0.054566704 0.00061171484
000320 26 2e da 3c 82 04 47 bd d8 fc a7 bd a8 d4 9e 3d
       0.026633333 -0.048588283 -0.08202523 0.07755405
000330 79 9e c7 bd 39 c1 b8 3d 60 6d 0d bd 0f 46 64 bd
       -0.09747023 0.09021229 -0.034528136 -0.055730876
000340 91 38 65 3d b5 7a 31 3d ce 01 e8 bd 4a 52 42 bd
       0.05596215 0.043329913 -0.11328469 -0.04744176
000350 5a 66 e7 bc 97 c9 ae bc 57 a1 d3 bd 6d 86 1c 3b
       -0.028247047 -0.02133636 -0.103335075 0.0023883835
000360 53 c9 96 bd a8 b5 ce bd d7 ce b5 3c 9e 79 22 bc
       -0.07362618 -0.10093242 0.022193355 -0.009916691
000370 ab f7 61 bd 0e 1c 69 3d 75 c4 5c bd 8c 20 9e bd
       -0.055167835 0.05691152 -0.053898294 -0.077210516
000380 da 07 a1 3d e9 af 28 3d 72 d5 06 3e 25 3c 16 bd
       0.07862826 0.041183386 0.1316736 -0.036678452
000390 d8 b0 ac 3c ce 24 71 bd a1 d4 07 be 0f 2a e9 3d
       0.02108042 -0.05887299 -0.13264705 0.11384975
0003a0 58 20 60 ba e5 5a 67 bc 62 ee 9e bb f5 f6 4e 3d
       -0.00085497415 -0.014120792 -0.004850195 0.050528485
0003b0 b2 3f e5 3b 01 3d 4b 3d 30 e4 c8 bd a3 4a 62 3d
       0.0069961185 0.049618725 -0.09809148 0.05524696
0003c0 b4 07 88 bd 06 62 64 3d 37 87 e3 bc 10 d8 d1 bb
       -0.06642094 0.055757545 -0.027774436 -0.0064039305
0003d0 ec e6 d2 bb 2d af 81 bd c6 9f 7b 3b 34 63 c3 bd
       -0.0064362194 -0.0633224 0.0038394793 -0.09540406
0003e0 52 0d 9c bd 3f 3b e2 bc da 23 00 be f9 05 a2 3d
       -0.07619728 -0.027616141 -0.12513676 0.079112954
0003f0 40 0a f2 bd 6d f8 09 bd 0d 4e 36 be dc 6d 25 bd
       -0.11818361 -0.033684183 -0.17803212 -0.040387973

network_body._body_endoder.seq_layers.2.bias f4 [256]
000000 32 99 95 3d e7 2d c2 bc 6f 4e 2b bc 04 1b 21 3d
       0.0730461 -0.023703529 -0.010455712 0.039332405
000010 a0 5e 3e 3d fc d4 00 bd 73 36 46 bc 3c 52 29 bc
       0.04647696 -0.031453118 -0.012097943 -0.010334548
000020 12 ca 5f 3d bb f8 9d 3d 4b d6 c5 3b de c1 4a 3d
       0.05463607 0.07713457 0.0060375086 0.049501292
000030 db 37 af 3d ee f3 51 3c 70 87 14 bc 66 22 4f 3d
       0.085555755 0.012814505 -0.009065494 0.050569914
000040 00 15 4b 3d 9e 67 97 bc 01 71 ee bb 09 ed 8b 3d
       0.049580574 -0.018482026 -0.0072766547 0.0683232
000050 f6 d2 1d 3d ac f1 dc 3c ac 77 a3 bc 19 aa 6d bc
       0.038531266 0.026970707 -0.019954525 -0.0145058865
000060 94 b1 2d 3d 0c 35 32 bd f6 8d 7a bc 06 87 90 3d
       0.04240568 -0.04350762 -0.015292635 0.07057004
000070 57 92 78 3d de 69 fd bc 86 06 44 3d 7e 31 45 3d
       0.060686436 -0.03093427 0.047857784 0.048142903
000080 84 fd 51 3d ce 09 73 3d 2a 3e 8f bc 40 64 fa bc
       0.051267162 0.059335522 -0.017485697 -0.030565381
000090 70 5b a0 3d 3a 80 15 3d 9d da 11 bd 70 e9 68 3c
       0.0782994 0.03649924 -0.035608876 0.014215812
0000a0 f1 6e 0f bc 94 07 ab 3d 1c 5e 5b 3b 92 6a 2c 3d
       -0.008754478 0.08351055 0.0033472842 0.04209382
0000b0 de 2b 4c 3c c5 6a 96 3d 1c 50 97 bb 73 30 48 bc
       0.012461631 0.073445834 -0.004617704 -0.012218582
0000c0 ec 6c a3 bb 50 1c 18 bc ed cb 2a 3d 5b 46 31 bc
       -0.0049873497 -0.009284094 0.041698385 -0.010819997
0000d0 93 c8 a3 3d d5 8a e4 bb f2 91 55 bc 29 1d 92 3d
       0.07997241 -0.006974558 -0.013035284 0.07134468
0000e0 cb 89 79 3c e4 8f 25 3d f4 80 b0 3c 1b d8 62 3d
       0.015230606 0.040420428 0.021545865 0.055381875
0000f0 7d 86 c6 3c af 52 a7 3d 81 32 8c bc a2 4b 05 bc
       0.02423405 0.081700675 -0.017113926 -0.008135708
000100 9a eb 7d 3c 72 07 b4 3d ea 71 40 3d 99 e9 e5 ba
       0.015498066 0.087904826 0.046983637 -0.0017540931
000110 00 eb 20 3d bc 9c 89 3d f9 6a ce 3d 4c 7f 56 bb
       0.039286613 0.06719348 0.10078997 -0.0032729683
000120 f0 ac 9f 3d e2 88 29 bd e9 28 b1 3c 3d 77 de 3c
       0.07796657 -0.041390307 0.021625953 0.027156467
000130 00 db c1 bc 5f cc 60 bc bc 10 3d 3d 5f 3b dc ba
       -0.023663998 -0.013720601 0.046158537 -0.0016802362
000140 6f 84 9f 3d e5 bf 13 3d 89 69 60 bc 8c 5b fe 3b
       0.077889316 0.036071677 -0.013697037 0.007762378
000150 79 fc a9 3d 84 2b c0 3d 9c 19 82 bc 3e c7 4a 3d
       0.083001085 0.093833 -0.015881352 0.04950642
000160 b7 78 42 3d 99 1a 66 3d 3f 0b b9 3b 14 98 37 3c
       0.047478404 0.05617771 0.0056470926 0.011205692
000170 e0 95 46 bc 27 8e 13 bc eb 9f 1a bc be ba ae bc
       -0.012120694 -0.00900606 -0.0094375415 -0.02132928
000180 79 27 a3 3d af 98 31 bc b1 da 79 3c 49 8f 9f bc
       0.07966513 -0.010839625 0.015249894 -0.019477503
000190 de 03 b4 bc fa ad a9 bc 77 c4 25 3d b1 b6 0a bc
       -0.0219745 -0.020712841 0.040470567 -0.008466409
0001a0 11 91 ee 3c 47 57 34 bc 22 13 47 bc c5 aa 00 39
       0.029121907 -0.011007137 -0.012150558 0.00012270648
0001b0 bf ec a6 3c eb f8 b4 bb df d9 4b bc 2e a5 a2 bc
       0.020376561 -0.0055228374 -0.012442081 -0.019854154
0001c0 90 82 09 bd 13 0f a0 bb 38 a6 17 3d 71 9b 2d 3d
       -0.03357178 -0.0048846095 0.037023753 0.04238457
0001d0 27 3c c1 bc c5 fc b9 3b 50 25 42 3d 1e 39 82 3d
       -0.023588253 0.0056758844 0.047398865 0.063585505
0001e0 b8 f1 99 bc 10 f0 c8 bc 5f 3b 02 bd 0f 99 57 3d
       -0.018792018 -0.024528533 -0.031794902 0.052636202
0001f0 14 88 cf 3d e9 c5 cc bb 1b 86 fa 3c 61 04 91 bc
       0.10133377 -0.0062491787 0.030581525 -0.017702283
000200 5f ec e0 3d 7d 92 b3 3d 4e 8f 1e 3d a0 d9 d4 3c
       0.10982584 0.08768175 0.038710885 0.025982678
000210 c3 53 f1 bb f4 a7 fb bc c7 84 53 bb ee a2 6a 3d
       -0.0073647215 -0.030719735 -0.0032275186 0.057284288
000220 41 f8 84 bc a9 10 6e bc 8e 99 fc bb 35 3b af 3a
       -0.016231658 -0.014530339 -0.007708735 0.0013369086
000230 9d 21 4b bc c0 94 db bb c6 52 b6 3c a8 2e 86 bc
       -0.012398151 -0.006701082 0.022256266 -0.01637967
000240 64 f3 5d 3d ad e8 87 3b df 85 ba bc db 50 f6 ba
       0.054187194 0.00414761 -0.022768913 -0.0018792407
000250 1f 92 fa 3c d2 c0 0e 3d 89 b9 37 bc 91 08 ce 3d
       0.030587254 0.034851857 -0.011213669 0.10060228
000260 2e bf a0 3d 9a 53 77 3d 35 73 24 3d b9 1f 05 bd
       0.07848965 0.060382463 0.040148932 -0.032500956
000270 f2 0d 88 3b 0a 05 86 bc ab 33 0c 3d 39 fc 4f bc
       0.004152053 -0.016359825 0.034228962 -0.012694412
000280 ab 09 d6 3c 49 d0 13 3c a7 5f fd 3a 10 ff 0b bd
       0.026127657 0.009021827 0.0019330875 -0.034178793
000290 47 0f 88 3c ae 0d 7c 3d ce 34 6f 3c 76 e9 99 3d
       0.016608847 0.061536483 0.014599992 0.07515232
0002a0 29 71 c2 3b fb 8f 12 3d 09 05 45 3d c0 0d b3 bb
       0.0059339 0.03578184 0.048100505 -0.0054642856
0002b0 a0 36 69 bc 9b e3 94 bb 4f d9 9d 3d e1 ca 4e 3d
       -0.014234215 -0.0045437342 0.07707464 0.05048645
0002c0 e2 4c 38 bc 5e cb ed 3c 4c e8 76 bb 95 11 ad 3d
       -0.011248799 0.029027637 -0.003767508 0.08450619
0002d0 21 e3 34 3d 44 d6 27 bc 50 5f a1 3d ec 16 43 bc
       0.04416192 -0.010243956 0.078795075 -0.0119073205
0002e0 6a 6d 1e 3d 9e 1f 6e bb c4 4d a4 bc 64 6c 75 3c
       0.038678564 -0.0036334763 -0.020056613 0.014979456
0002f0 94 8c 11 bc ad be de 3d 3c e8 ce 3c 74 8a c1 3d
       -0.008883614 0.10876212 0.025257222 0.09450236
000300 88 bf 90 3d 61 7d 2f 3b 13 53 a3 bc 36 f0 11 bc
       0.07067782 0.0026777613 -0.019937074 -0.008907368
000310 89 67 89 3d 68 f8 e2 3b b1 e7 12 bd f0 8e d6 3c
       0.06709201 0.006926585 -0.03586549 0.026191205
000320 bb f9 58 3d 48 3f bb 3d 49 ab 58 3d cb 8f 37 3d
       0.052972537 0.09142929 0.052897725 0.044814866
000330 a4 95 20 3d e0 8e 7e bc 67 c7 ea bc 32 ef 0f 3d
       0.03920521 -0.015536994 -0.028659536 0.035140224
000340 7e d0 df 3b e5 aa c2 3d d1 8b a7 3c 28 a2 ba 3d
       0.006830274 0.09505252 0.020452412 0.0911296
000350 21 52 ed 3c 85 23 af 3d 01 e7 bf 3d 65 b8 3e 3d
       0.028969826 0.08551697 0.093702324 0.04656257
000360 d7 7c 4e 3d d3 69 5a bb 70 87 3e 3c 20 35 41 bc
       0.050412025 -0.0033327236 0.0116289705 -0.011792451
000370 9c bb 37 3d 53 ff d2 3b 02 2f 5e 3c 1d fb fd bc
       0.044856653 0.0064391284 0.013561012 -0.03100353
000380 70 c9 8c 3d 6a 9f 8d 3d 91 a9 c3 3d 4b bd 4f bc
       0.06874359 0.069151714 0.095538266 -0.012679408
000390 4e c2 1c 3d a3 39 92 3d 2e 61 01 bc 5e 6b 44 3d
       0.03827124 0.071398996 -0.007896705 0.047953956
0003a0 93 d3 da bc 6d 8c e0 bc a9 b8 0c bd 0e 39 9e 3d
       -0.026712215 -0.02741071 -0.034355793 0.07725726
0003b0 76 c7 c8 3a ab 8d 4c 3d 30 d5 51 bc fa 56 89 bc
       0.0015318233 0.049939793 -0.0128071755 -0.016765106
0003c0 47 2d 3d 3d c8 38 b8 3d 5d ba 77 3d ce 0b 12 3d
       0.046185758 0.08995205 0.060480464 0.03565579
0003d0 b4 34 8c bc de 90 1c 3d 88 f2 01 3c b7 b4 1d 3d
       -0.017114975 0.038224094 0.007931359 0.03850242
0003e0 05 c0 1f bd c5 57 00 bd 30 87 16 3d 4b eb bc 3d
       -0.039001483 -0.031333704 0.03675002 0.09224566
0003f0 b6 61 d9 3b 12 06 fa bb 33 3d 90 3c a3 6b d2 bb
       0.0066339625 -0.007630118 0.017607307 -0.0064215227

action_model._discrete_distribution.branches.0.weight f4 [2, 256]
000000 29 88 32 3d 4d c0 35 bc 73 bb 45 3c 38 d5 37 3d
       0.043586884 -0.011093211 0.012068617 0.044881076
000010 c7 dd aa 3c e1 9b 25 bc f0 2a 8a 3b c0 a3 50 bb
       0.020857705 -0.010107965 0.0042165443 -0.0031835884
000020 70 8a 98 3c 44 9f 82 3d 0b 9f 52 3b 00 78 18 3d
       0.0186207 0.06378034 0.0032138254 0.037223816
000030 15 bc 8a 3d 44 f2 9f 3c 34 0a 54 bc 8f ba 07 3d
       0.06774155 0.019524701 -0.012941886 0.0331369
000040 c0 e8 0c 3d da ce c7 bb c9 00 3a 3b e0 e0 30 3d
       0.034401655 -0.0060976567 0.0028381816 0.043183208
000050 cb 4d 06 bc c0 64 ca 3c d7 d4 89 bb 7b 79 1e 3c
       -0.008197258 0.024706244 -0.0042062807 0.009672518
000060 47 7f 05 3d db fd 2d bd b2 20 9e 3b 84 68 92 3d
       0.032592084 -0.042478424 0.004825675 0.07148841
000070 80 19 4b 3d 4d 6c 35 bc 14 5b 1e 3d d9 4c 0f 3d
       0.049584866 -0.011073184 0.038661078 0.034985397
000080 e9 5b 23 3d e6 29 16 3d 57 2f cd bb cc 41 3c bd
       0.039882574 0.03666105 -0.006261747 -0.045961186
000090 f7 82 35 3d fc c8 3d 3d 6e dc c3 bc b0 28 44 bb
       0.04431435 0.04633425 -0.02390882 -0.0029931478
0000a0 51 9b 76 ba 62 22 4e 3d e7 83 0b 3c 98 4b 33 3d
       -0.0009407299 0.05032576 0.008515335 0.043773264
0000b0 77 36 24 3b 3d 4d 85 3d 01 ba 73 3b 27 84 4d bc
       0.0025056878 0.06508873 0.0037189724 -0.012543715
0000c0 18 63 24 3c f3 99 d2 3a bd 36 0f 3d 92 d8 81 3b
       0.010033391 0.0016067609 0.034964312 0.003962585
0000d0 b8 83 39 3d c8 54 ad 3b 44 2d 79 3c cd 7b 50 3d
       0.045291632 0.0052896477 0.015208546 0.050899316
0000e0 b3 ab a4 3c c9 5d 27 3d 04 f1 8f 3c 33 36 84 3d
       0.020101404 0.040860925 0.01757098 0.0645565
0000f0 e6 20 57 3c 4a a5 39 3d 11 84 dd ba a3 d8 17 ba
       0.013130402 0.045323648 -0.0016900321 -0.0005792474
000100 73 f0 d6 3b cb cb 80 3d 4d cf 17 3d 8b 5d 6b 3c
       0.0065594255 0.062888704 0.03706293 0.014365564
000110 01 b2 06 3d ee f0 ea 3c 83 90 87 3d 7a 41 c6 3b
       0.0328846 0.028679337 0.0661936 0.006050286
000120 07 a9 30 3d 53 31 bc bc 04 64 72 3c 8f 82 22 3d
       0.043129947 -0.022972738 0.014794353 0.03967529
000130 11 d7 ef bb 73 01 ac bb 1b 9c 6f 3d 12 82 01 3c
       -0.007319339 -0.005249196 0.058498483 0.007904546
000140 72 6c 2b 3d 82 b3 a9 3c 86 6d 7b bb 22 66 73 3b
       0.04185147 0.020715479 -0.0038364842 0.0037139733
000150 7c 1b 20 3d f1 a8 77 3d 8f c5 90 bc ce 49 2f 3d
       0.03908871 0.06046385 -0.017672328 0.042794995
000160 6e 11 21 3d 77 b6 52 3d 02 1f 3b bc 5f f9 19 39
       0.039323263 0.051443543 -0.011420967 0.00014684115
000170 a0 58 74 3b 5b 2d 4e 3b 8c 02 65 3c 07 69 05 bc
       0.003728427 0.003146014 0.013977658 -0.008142716
000180 ee 51 99 3d 9e 32 91 3b f1 96 4f 3c 42 5b a3 3b
       0.0748633 0.004431083 0.012670265 0.004985244
000190 2b bd 55 bb 26 c1 f5 bb ef be ba 3c 42 0d 9f ba
       -0.0032613974 -0.0074998317 0.022796122 -0.0012134688
0001a0 f3 fd 19 3d d8 d0 de 3b db 5e 97 3b 6d 9a d1 bb
       0.0375957 0.0067997985 0.004619462 -0.006396583
0001b0 59 ce 3c 3a fc f8 34 3c 02 9b 1c 3c f2 c9 1e 3b
       0.0007202379 0.011045691 0.009558441 0.0024229256
0001c0 87 23 b9 bc 65 c8 30 3c 01 8e 0b 3d 9d b3 47 3d
       -0.022599949 0.010789965 0.034070972 0.048755277
0001d0 bc 0f 32 3b 01 f5 25 3a 58 9c 30 3d d2 4e 03 3d
       0.0027170023 0.0006330759 0.04311785 0.03205759
0001e0 56 21 8b 3b 21 07 07 bd 85 5a ae bc f7 e8 de 3c
       0.0042459173 -0.032965783 -0.021283397 0.027210696
0001f0 d0 7c a3 3d a2 24 06 3b 95 5d 19 3d 9b ae 30 ba
       0.079827905 0.0020468612 0.037442762 -0.00067398854
000200 6a 98 89 3d fc 2f 21 3d 40 90 f7 3c d1 a6 c6 3c
       0.06718524 0.039352402 0.030220151 0.024249466
000210 f1 b6 4d 3c 01 14 40 bd 99 ba 6c 3c 3f cd 6c 3d
       0.012555824 -0.046894077 0.014448785 0.057812925
000220 6a de 7c 3b a4 1a 90 3b 60 9b b4 3b a8 fb fd bb
       0.0038584718 0.004397707 0.005511686 -0.007750947
000230 82 6f 59 3a c6 90 98 3a 6d 80 09 3c 34 7a e1 bb
       0.0008294509 0.0011639826 0.0083924355 -0.006881023
000240 07 32 0d 3d c2 48 36 3b e7 da 87 3a eb e4 f1 ba
       0.034471538 0.0027814363 0.0010364921 -0.0018455064
000250 ab a6 fb 3c 26 9e b3 3c 97 32 3d bb e5 b1 ac 3d
       0.030719122 0.021925997 -0.0028869265 0.08432368
000260 de 20 16 3d 1b 93 7f 3d 35 01 43 3d c3 cc 1f bd
       0.03665244 0.06239615 0.047608573 -0.039013635
000270 37 db 78 3c 7f d1 2f bc 87 fe 07 3d 01 c8 3a 3c
       0.015188984 -0.0107311 0.03320172 0.011400224
000280 ac b2 d9 3c c2 48 df 3c ea b7 19 3b 94 d9 14 bd
       0.026574455 0.027256373 0.0023455569 -0.03634031
000290 3d d9 78 3c 66 8f 43 3c 73 d4 70 3c ba a9 6d 3d
       0.015188512 0.011936044 0.014699089 0.058023192
0002a0 8b 81 27 bc a8 7f 1e 3c 67 4b f1 3c 4d 0d 6a bb
       -0.010223757 0.00967399 0.0294549 -0.0035713494
0002b0 2c a4 df 3b 67 8e 14 bb 1b 44 f5 3c 4f 2a 4a 3d
       0.0068249907 -0.0022667886 0.029939702 0.049356755
0002c0 3f 74 36 bb be c9 9f 3c 0a a7 a3 3b 6e c7 92 3d
       -0.0027840284 0.019505378 0.004994278 0.071669444
0002d0 85 59 b0 3c d0 75 8e 3b 9a cc 94 3d f6 52 80 bc
       0.021527061 0.0043475404 0.07265587 -0.015664559
0002e0 41 e7 13 3d 0a a6 03 3c 0b 5f 0f bc c6 3c e0 3a
       0.036109213 0.008035192 -0.008750687 0.0017107956
0002f0 e7 2d 11 bb 41 3d bd 3d 3c 14 bb 3c a3 84 9a 3d
       -0.0022152604 0.09240199 0.022836797 0.0754483
000300 db 75 34 3d dd b6 8d 3a 89 89 15 3b d6 fa 2b 3a
       0.04405771 0.0010811944 0.0022817573 0.000656051
000310 d5 62 77 3d 12 94 9a 3c 7e 98 a8 bc b6 44 28 b6
       0.060396988 0.018869434 -0.020580526 -2.5073946e-06
000320 0c c7 22 3d d4 a4 6a 3d 97 d6 a2 3c fd 3d 17 3d
       0.039740607 0.0572861 0.019877715 0.03692435
000330 1c 65 50 3d 68 80 32 bb 59 d0 8e bc 57 f6 ef 3c
       0.050877675 -0.002723718 -0.017433332 0.029292269
000340 0b 7e 84 3a e8 d2 8b 3d 20 a5 4c 3c d8 73 4a 3d
       0.0010108365 0.068273365 0.012490541 0.049426883
000350 de 9b fa 3c 8f 94 6e 3d 28 c0 93 3d 5a e0 f4 3c
       0.030591901 0.058247145 0.07214385 0.029892135
000360 f7 1c 35 3d d7 00 ce 3b 46 0d 14 3c 75 c0 a8 3b
       0.044217076 0.006286721 0.009036368 0.005149896
000370 72 42 e7 3c f3 94 73 3c 24 57 08 3c 3a de 19 bd
       0.028229926 0.014867055 0.008321557 -0.037565447
000380 e8 3e 0e 3d 14 b6 11 3d 64 b6 84 3d 31 1d 4b 3b
       0.03472796 0.035574034 0.06480101 0.0030992741
000390 e2 3d 85 3c c0 5b 4e 3d bc 76 95 3b 65 9e fc 3c
       0.01626486 0.05038047 0.0045612734 0.030837247
0003a0 f0 95 26 bc c4 3b 76 bc 91 fe d6 bc 9c f6 22 3d
       -0.010167584 -0.015028898 -0.026244434 0.039785966
0003b0 1e b3 e6 3c 9d 87 c1 3c 95 d3 3c ba 42 be 93 bb
       0.028161582 0.023624236 -0.0007203159 -0.0045087645
0003c0 08 6d fa 3c 2c 8f b1 3d 96 a4 33 3d 5e 71 c7 3c
       0.030569568 0.08669886 0.043858133 0.02434605
0003d0 60 ae 50 3a 66 9a 29 3d 67 2b 3f 3c 57 e1 82 3c
       0.0007960554 0.04140701 0.011668063 0.015976591
0003e0 65 f4 a1 bc fc af 77 bc d6 31 0e 3d de 16 56 3d
       -0.019769857 -0.015117642 0.034715496 0.0522679
0003f0 5f 23 11 3c 6d 4c 86 ba a6 32 04 bb fe 5d 4c 3c
       0.008858531 -0.0010246165 -0.002017179 0.012473581

action_model._discrete_distribution.branches.0.bias f4 [2]
000000 51 5f ba 3c 4a 5f ba bc
       0.022750529 -0.022750515

action_model._discrete_distribution.branches.1.weight f4 [2, 256]
000000 76 a2 12 3d e0 d1 9a bc d6 cd 0b bc 13 ed fc 3c
       0.035799466 -0.018898904 -0.008532962 0.030874765
000010 16 ea b7 3c 56 b7 2f bc 3d 5f 68 b9 ed a3 f3 3b
       0.022450488 -0.010724863 -0.00022160723 0.007435313
000020 20 44 aa 3c 21 41 3f 3d 84 d3 30 3c 26 cc 24 3d
       0.020784438 0.04669297 0.010792617 0.040233754
000030 8b 18 8b 3d 9f a2 9e bb 92 b6 ce bb 56 cc 19 3d
       0.067917906 -0.0048411633 -0.006308385 0.037548386
000040 bd 90 5b 3d 43 1a 6c bb bf 71 6d b9 fb ad 51 3d
       0.05360483 -0.0036026395 -0.00022644455 0.05119131
000050 5b 7d b6 3c bb 4e fb 3c 20 e2 92 bc e4 9f 18 bc
       0.022276571 0.03067719 -0.01793009 -0.009315465
000060 99 09 e0 3c f8 88 0c bd f2 c7 f6 bb de 00 6e 3d
       0.027348327 -0.03431031 -0.0075311596 0.058106296
000070 a6 1c 38 3d a4 c3 cc 3b a5 cb 27 3d 3e aa 0a 3d
       0.044949196 0.006248908 0.040965695 0.03385376
000080 bd b6 46 3d 59 05 26 3d 58 1a 66 3a a5 7b 31 bd
       0.048514117 0.040532444 0.0008777729 -0.043330807
000090 30 45 5e 3d 0f da ed 3c 56 44 f5 bb 21 c2 8e 3b
       0.0542652 0.029034643 -0.007484953 0.004356638
0000a0 d9 e3 73 3b 72 9a 4b 3d b8 99 7f 3c 7f 39 d3 3c
       0.0037214665 0.049707837 0.015600614 0.025784252
0000b0 e6 7c 05 3b 18 45 c0 3b 2e c4 d8 bb e8 cf 27 bc
       0.0020368635 0.0058676116 -0.0066151833 -0.01024244
0000c0 8e 77 80 3b c8 e9 f0 3b d4 1d 05 3c af b3 59 bc
       0.003920502 0.0073520876 0.008124787 -0.013287469
0000d0 c8 02 82 3d 7a 6e 36 3c c9 f7 94 bb e5 4f 83 3d
       0.06348187 0.011134738 -0.00454614 0.06411723
0000e0 91 ab a9 3c e9 58 2f 3d 05 63 3f 3c 4e 5c fc 3c
       0.020711692 0.0428094 0.011681323 0.030805733
0000f0 e5 2b 59 3c 81 12 7f 3d d8 e9 95 bb f9 6f da 3b
       0.013255094 0.062273506 -0.0045749955 0.00666618
000100 e6 c0 d1 3b 0d 85 71 3d 79 27 31 3d 2d 21 32 bc
       0.006401169 0.058964778 0.043250535 -0.010872168
000110 6d 6e f9 3c 50 ef c1 3c 5c f0 76 3d 13 96 eb bc
       0.030448163 0.023673683 0.06028782 -0.028758084
000120 14 58 21 3d 24 96 99 bc 01 81 3d 3c 9f eb 02 3d
       0.03939064 -0.01874835 0.011566401 0.031962987
000130 4c 97 ae bc ec da 8c 39 4b 29 2c 3d 30 54 08 3c
       -0.021312378 0.0002686599 0.042031568 0.008320853
000140 24 f9 2c 3d 7d 6d ab 3c 3b 14 8c bc fb 95 d6 3b
       0.042229787 0.020926232 -0.01709949 0.006548641
000150 45 16 d4 3c 92 93 56 3d 0e 4e 24 3b 5a f9 dc 3c
       0.025889525 0.052386828 0.0025070938 0.026974369
000160 44 6b f1 3c 48 22 59 3c dc bd d8 3b 40 ac 16 3c
       0.029470094 0.013252802 0.00661443 0.009196341
000170 4d c9 b9 3a c9 9d bc bb 7b 7a ee 3b 2c 4c a6 3a
       0.0014174372 -0.005756114 0.0072777844 0.0012687496
000180 55 59 23 3d 24 f0 dd 3b 45 2a b8 3c fd de 35 bc
       0.039880116 0.0067730118 0.022481093 -0.011100528
000190 b4 00 bc bb 3a 94 a1 3b 45 e0 94 3b b5 12 9d bb
       -0.0057373885 0.004931 0.0045433366 -0.00479349
0001a0 fa d0 ec 3c 0a 78 0d 3a 1d 7a e7 bb 28 bf 8c bc
       0.028908242 0.00053966104 -0.0070641176 -0.017180994
0001b0 22 a4 98 3c ff 93 ed 3b f3 5b 32 bc ad a1 95 bb
       0.018632952 0.0072503085 -0.01088618 -0.0045663924
0001c0 48 e4 ab bc 61 aa 08 3c ed cb b8 3c 48 02 25 3d
       -0.020982876 0.008341403 0.022558177 0.04028538
0001d0 cd 13 61 3b 9b 01 b8 3c 35 2b d1 3c 39 5f 2b 3d
       0.0034344078 0.022461703 0.025533298 0.04183886
0001e0 3a 6c 5e bb 3a a1 87 bc 3c 89 9e bc c7 14 ef 3c
       -0.003393902 -0.016556371 -0.019352548 0.029184712
0001f0 0f de 81 3d 3f c2 2b 3c a7 ca fe 3c 5f 85 a6 bb
       0.063411824 0.010483324 0.031102492 -0.005081817
000200 38 2d 71 3d 07 37 6e 3d b8 d4 92 3c 43 c7 8b 3c
       0.058881015 0.058157947 0.017923698 0.017062789
000210 37 0f 13 bc 7d 13 4d bd 23 5f 68 3b 22 37 2d 3d
       -0.0089757955 -0.050067414 0.0035457097 0.042288907
000220 b7 9b db 3b 50 9e df bb 3b 26 c5 3b a4 5d 0c bc
       0.0067019123 -0.0068242922 0.0060165203 -0.008567248
000230 5c ba b1 bc b5 bf b3 bb db 8a b0 3b 57 61 17 bc
       -0.021695308 -0.0054854997 0.0053876466 -0.009239516
000240 cf 62 0d 3d db 8f 34 3c e9 8d d7 38 ed 2c 95 3a
       0.03451806 0.011020626 0.00010278432 0.0011381187
000250 8f 48 80 3c ec c2 91 3c 5a af 5a bc f8 0c 45 3d
       0.015659599 0.017793141 -0.013347471 0.04810807
000260 f5 35 10 3d 02 33 55 3d 07 8b dd 3c 06 e6 dd bc
       0.035207707 0.052050598 0.027043832 -0.027087223
000270 11 85 8b bb 81 ae a7 bc 78 f7 f2 3b 54 52 c3 bb
       -0.004257806 -0.020468952 0.0074147545 -0.005960742
000280 fb 1d 71 3c 8b 31 55 3c e6 99 5f bc 5f 37 d4 bc
       0.014716621 0.0130123 -0.013647532 -0.02590531
000290 d6 03 71 3c ca 81 04 3d eb 1e d6 3b c2 8a 26 3d
       0.014710387 0.03235034 0.0065344474 0.040659674
0002a0 ce 66 50 3b 53 61 e8 3c da 42 a1 3c 68 12 5e 3a
       0.0031799558 0.02836672 0.019685198 0.00084713707
0002b0 a1 65 7d bb 14 d6 83 bb e0 d6 30 3d d7 ce e8 3c
       -0.0038665312 -0.004023323 0.04317367 0.028418941
0002c0 8d ce d2 ba ed 6e c5 b9 2f c1 1d 3b 62 cd 6c 3d
       -0.0016083285 -0.00037657414 0.0024071445 0.057813056
0002d0 94 02 48 3c 4a 55 f2 3a ff bb 5e 3d 43 90 0b bc
       0.012207646 0.0018488553 0.054378506 -0.008518281
0002e0 f4 cd 25 3c 01 90 13 3b cc f7 76 3a e9 77 04 3c
       0.010119904 0.0022516253 0.000942108 0.008085229
0002f0 e3 cc 4b 3b 1e 7e 8e 3d 98 43 c5 ba 81 20 10 3d
       0.0031097464 0.06957649 -0.0015050052 0.03518725
000300 f6 95 de 3c 59 35 3e bc e7 b8 d5 bb 5a 87 ae bb
       0.027171116 -0.011609399 -0.006522286 -0.0053261938
000310 4e 4a 60 3d a3 63 13 3c 93 2f 72 bc ce 0f 6a 3c
       0.054758362 0.008995923 -0.01478185 0.014285995
000320 c3 d9 23 3d 69 ec f1 3c 55 51 b9 3c 5a d2 08 3d
       0.040002596 0.029531674 0.02262179 0.033403732
000330 db 5f 18 3d 92 ed 66 ba 05 a8 0c bb 31 a5 da 3c
       0.03720079 -0.00088092044 -0.0021462452 0.026690098
000340 6a 20 7f 3c 13 a8 9a 3d 36 4a 85 3c 11 c3 85 3d
       0.015571693 0.07551589 0.016270738 0.065313466
000350 ed 16 a4 3c ee 47 79 3d b2 b3 97 3d 46 59 11 3d
       0.020030463 0.060859613 0.07407321 0.03548553
000360 ec 4a 11 3d f2 8b 41 3b 86 e3 49 bc a6 3b af bc
       0.03547184 0.0029532877 -0.012322312 -0.021390747
000370 f7 46 92 3c 33 e3 3d 3c 94 c3 e1 ba 5b 25 be bc
       0.017856104 0.011589813 -0.0017224425 -0.023211172
000380 b6 3f 44 3d ee c8 48 3d 6b 0d 99 3d 49 20 e8 bb
       0.047912322 0.049019746 0.074732624 -0.007083927
000390 02 ca c3 3c 06 b8 0d 3d c7 a0 1d bc 6f 15 24 3d
       0.023900036 0.034599327 -0.009620852 0.040059503
0003a0 41 97 42 bc d6 5a 42 bc 2f 37 b1 bc d0 45 41 3d
       -0.011876882 -0.011862477 -0.021632759 0.04718572
0003b0 03 08 ae 39 66 b1 86 3c e4 35 da bb 10 e0 00 bb
       0.00033193835 0.016442012 -0.0066592563 -0.0019664802
0003c0 60 fa df 3c 40 f7 50 3d 99 9b ec 3c c5 f8 b6 3c
       0.027341068 0.051017046 0.028882788 0.02233542
0003d0 d9 f2 41 bc d7 9b 18 3d 50 01 38 3c 96 87 f5 3c
       -0.011837685 0.037257995 0.011230782 0.029971879
0003e0 9a 6e 76 bc 17 e2 48 bb b0 7e 7f 3c 9a 6b 7e 3d
       -0.015041018 -0.0030652338 0.0155941695 0.062114336
0003f0 e3 a0 0c b9 78 16 02 3c 7d 13 c1 3b d5 68 35 bc
       -0.00013411375 0.007939927 0.0058922158 -0.011072357

action_model._discrete_distribution.branches.1.bias f4 [2]
000000 7a 31 b8 3c 7a 31 b8 bc
       0.02248453 -0.02248453
