Assets/results/traffic-controlv2/TrafficLightBrain/TrafficLightBrain-253.onnx (onnx, 88715 bytes, 11 tensors)

discrete_act_size_vector f4 [1, 4]
2.0 2.0 2.0 2.0
00000000: 0000 0040 0000 0040 0000 0040 0000 0040

network_body.observation_encoder.processors.0.normalizer.running_mean f4 [11]
267.2362 197.40158 251.689 220.46849 11.417503 5.2315364 0.4488189 0.52755904
0.53937006 0.5 0.0
00000000: 3c9e 8543 ce66 4543 62b0 7b43 ef77 5c43
00000010: 18ae 3641 bf68 a740 97cb e53e 1c0e 073f
00000020: 2814 0a3f 0000 003f 0000 0000

network_body._body_endoder.seq_layers.0.weight f4 [128, 11]
-0.11284607 0.17279144 0.17925279 -0.09169859 0.09527551 0.3748361 -0.18786615 -0.29828328
-0.5885554 -0.18583903 0.25025296 0.33297348 -0.017059583 0.38075632 0.6217854 0.3746267
0.14987198 0.15542464 -0.55815774 0.5002639 0.12196609 0.541198 -0.25149837 -0.45172846
-0.20559573 0.30919233 0.03054773 -0.09961949 0.025270324 -0.41117597 0.13599971 0.43169713
-0.6916096 -0.37484553 -0.06345969 0.08166141 0.28872666 -0.45034868 0.53259176 0.04506907
0.45859373 0.8628821 -0.10960055 0.39289674 -0.5098194 0.1768421 -0.10219642 0.39376467
0.6114405 0.38149413 0.10880602 0.0020799278 -0.022197135 -0.35933536 -0.034901343 0.10286461
0.14423092 -0.2603776 0.09617658 -0.057566468 -0.27721086 0.12472711 -0.6672885 0.8283712
0.41574225 -0.061035927 -0.06841393 0.104635485 0.25790146 -0.121142596 0.35018462 0.20643282
-0.23065516 -0.20288606 -0.19044252 -0.4265186 -0.17813367 0.66788924 0.124089256 -0.12388537
0.2670033 0.10976975 0.23866287 0.12611161 0.01830614 -0.2777553 0.2848507 0.039086204
0.16581437 0.23669451 -0.4795632 -0.2455056 0.1978134 0.19980694 -0.0035267526 -0.22721803
0.20252314 -0.3453655 0.14244255 0.26972625 -0.5013593 -0.03961036 0.64259917 0.45522985
-0.3804427 0.22551511 -0.17800018 0.16575213 0.3657201 -0.15664585 0.05127929 -0.2711325
0.019980272 -0.11785344 0.095920816 -0.1396558 0.37795946 0.24125609 0.13020962 0.001437852
-0.59144753 -0.02454253 -0.436304 -0.14933215 0.058330964 0.21530415 0.10952595 -0.09325023
0.17875126 0.30488482 0.22469606 -0.24674655 -0.4474948 -0.4618429 0.0589094 -0.43042538
0.4328398 0.4360739 0.2245386 0.014126805 -0.2034703 0.25241926 -0.124129206 -0.11377643
0.30888426 -0.19547825 0.26390237 -0.41244557 -0.20163114 0.17603251 0.10986288 0.16264857
0.06967792 -0.2185515 -0.101208255 0.59422433 0.26475334 0.28391203 0.3989831 0.4516952
0.59907985 0.04963805 0.68174493 0.24679036 -0.28860724 -0.40419066 0.11411203 0.17082512
0.48392963 0.21565737 0.09389228 -0.036595203 -0.31371617 0.17136535 0.16512808 0.03631351
0.27037898 0.2183154 -0.1624522 -0.10702009 -0.18795758 -0.3670746 -0.16283047 -0.33206674
-0.10043544 0.57546663 0.68163115 -0.22624381 0.11767846 -0.16470763 -0.1024227 -0.14809875
-0.33713904 0.4153014 -0.19034883 0.1754599 -0.5285227 -0.039916843 -0.34025925 0.34107357
-0.20773251 -0.40684596 -0.12938164 0.24905649 0.06317008 -0.023515543 0.2219619 -0.36066237
0.33266324 -0.67477137 0.14070147 -0.24237764 0.29801303 -0.2699751 -0.18299757 -0.26874524
0.0751623 -0.109677404 -0.38685083 -0.42821476 0.41572493 -0.030723112 0.1438904 -0.0731345
0.15000299 0.0045990543 0.22525702 -0.007515898 0.036146052 -0.0001654551 0.25553268 0.36790162
0.17154193 -0.33675438 -0.4993693 0.3595693 -0.29899636 0.23699638 0.33132523 0.1465362
-0.0043995585 -0.046436395 0.011894658 -0.036905594 0.13667782 -0.13106872 -0.16003048 -0.13102925
-0.091178216 -0.25261036 -0.24228089 0.37140566 -0.13134745 -0.43286633 -0.11755782 0.2188845
00000000: d71b e7bd 3df0 303e 0b8e 373e 78cc bbbd
00000010: ce1f c33d 84ea bf3e fc5f 40be 96b8 98be
00000020: 91ab 16bf 964c 3ebe 2821 803e 807b aa3e
00000030: 8ac0 8bbc 7ef2 c23e 542d 1f3f 12cf bf3e
00000040: 0a78 193e a327 1f3e 6de3 0ebf 4c11 003f
00000050: 5bc9 f93d f48b 0a3f 65c4 80be f448 e7be
00000060: b087 52be 754e 9e3e 3c3f fa3c 4e05 ccbd
00000070: b603 cf3c a885 d2be 8243 0b3e 6807 dd3e
00000080: 540d 31bf c1eb bfbe 27f7 81bd 193e a73d
00000090: fbd3 933e 1a94 e6be ef57 083f 589a 383d
000000a0: cccc ea3e d7e5 5c3f 4176 e0bd c329 c93e
000000b0: 8683 02bf 1816 353e 5b4c d1bd 869b c93e
000000c0: 5d87 1c3f 3353 c33e b1d5 de3d 664f 083b
000000d0: c4d6 b5bc cefa b7be b6f4 0ebd aeaa d23d
000000e0: 45b1 133e 3650 85be 3af8 c43d d1ca 6bbd
000000f0: 95ee 8dbe ed70 ff3d 6bd3 2abf 2310 543f
00000100: 2bdc d43e cf00 7abd 9a1c 8cbd 214b d63d
00000110: a90b 843e 9c19 f8bd 664b b33e 2063 533e
00000120: de30 6cbe 5dc1 4fbe 5d03 43be a560 dabe
00000130: ac68 36be cafa 2a3f 8222 fe3d 9db7 fdbd
00000140: a8b4 883e f6ce e03d 0a64 743e 6723 013e
00000150: c2f6 953c f135 8ebe f3d7 913e db18 203d
00000160: 3ecb 293e 0c60 723e 4f89 f5be d265 7bbe
00000170: 998f 4a3e 319a 4c3e 1721 67bb d8ab 68be
00000180: 3a62 4f3e bfd3 b0be 76dc 113e 8f19 8a3e
00000190: 1559 00bf 793e 22bd 6181 243f e313 e93e
000001a0: 63c9 c2be 6fed 663e ae45 36be edba 293e
000001b0: aa3f bb3e c567 20be 3c0a 523d e1d1 8abe
000001c0: abad a33c 255d f1bd 2272 c43d ee01 0fbe
000001d0: e783 c13e d60b 773e ac55 053e 4f76 bc3a
000001e0: 1b69 17bf 6a0d c9bc 3d63 dfbe 87ea 18be
000001f0: 73ec 6e3d b178 5c3e 244f e03d faf9 bebd
00000200: 920a 373e dd19 9c3e b916 663e 21ab 7cbe
00000210: 0a1e e5be ac76 ecbe fc4a 713d b760 dcbe
00000220: 2e9d dd3e 1445 df3e 72ed 653e 1d74 673c
00000230: 855a 50be 193d 813e 7437 febd 9e03 e9bd
00000240: 1426 9e3e 732b 48be 361e 873e 112c d3be
00000250: 6578 4ebe de41 343e caff e03d 598d 263e
00000260: 4cb3 8e3d f7cb 5fbe 4646 cfbd 161f 183f
00000270: c08d 873e eb5c 913e 8347 cc3e 9844 e73e
00000280: 4c5d 193f 4551 4b3d d686 2e3f 9db6 7c3e
00000290: 54c4 93be 14f2 cebe 91b3 e93d c8ec 2e3e
000002a0: a0c5 f73e 49d5 5c3e 984a c03d dae4 15bd
000002b0: 689f a0be 667a 2f3e 5617 293e 7abd 143d
000002c0: 1d6f 8a3e 128e 5f3e df59 26be 592d dbbd
000002d0: f477 40be 34f1 bbbe 08bd 26be a704 aabe
000002e0: 19b1 cdbd c851 133f 617f 2e3f 75ac 67be
000002f0: 6801 f13d 1ea9 28be fec2 d1bd 33a7 17be
00000300: 7d9d acbe 63a2 d43e ceea 42be c3ab 333e
00000310: 434d 07bf d87f 23bd 7636 aebe 32a1 ae3e
00000320: d5b7 54be 1d4e d0be 9f7c 04be aa08 7f3e
00000330: 515f 813d aba3 c0bc fb49 633e bda8 b8be
00000340: d652 aa3e d1bd 2cbf 0c14 103e d831 78be
00000350: 2a95 983e 2d3a 8abe b763 3bbe fa98 89be
00000360: b1ee 993d 8c9e e0bd 5011 c6be f73e dbbe
00000370: e6d9 d43e 09af fbbc 0158 133e 8ac7 95bd
00000380: 629a 193e aab3 963b c7a9 663e ec47 f6bb
00000390: e20d 143d 047e 2db9 2ed5 823e 9a5d bc3e
000003a0: b0a8 2f3e 126b acbe 55ad ffbe 7819 b83e
000003b0: 0d16 99be 2eaf 723e 76a3 a93e 960d 163e
000003c0: 2c2a 90bb 1734 3ebd d0e1 423c 522a 17bd
000003d0: 45f5 0b3e e136 06be 08df 23be 882c 06be
000003e0: a5bb babd 2556 81be 7b18 78be e228 be3e
000003f0: f27f 06be a8a0 ddbe 28c2 f0bd 4223 603e

network_body._body_endoder.seq_layers.0.bias f4 [128]
0.0 0.0 0.0 0.0 0.0 0.0 0.0 0.0
0.0 0.0 0.0 0.0 0.0 0.0 0.0 0.0
0.0 0.0 0.0 0.0 0.0 0.0 0.0 0.0
0.0 0.0 0.0 0.0 0.0 0.0 0.0 0.0
0.0 0.0 0.0 0.0 0.0 0.0 0.0 0.0
0.0 0.0 0.0 0.0 0.0 0.0 0.0 0.0
0.0 0.0 0.0 0.0 0.0 0.0 0.0 0.0
0.0 0.0 0.0 0.0 0.0 0.0 0.0 0.0
0.0 0.0 0.0 0.0 0.0 0.0 0.0 0.0
0.0 0.0 0.0 0.0 0.0 0.0 0.0 0.0
0.0 0.0 0.0 0.0 0.0 0.0 0.0 0.0
0.0 0.0 0.0 0.0 0.0 0.0 0.0 0.0
0.0 0.0 0.0 0.0 0.0 0.0 0.0 0.0
0.0 0.0 0.0 0.0 0.0 0.0 0.0 0.0
0.0 0.0 0.0 0.0 0.0 0.0 0.0 0.0
0.0 0.0 0.0 0.0 0.0 0.0 0.0 0.0
00000000: 0000 0000 0000 0000 0000 0000 0000 0000
00000010: 0000 0000 0000 0000 0000 0000 0000 0000
00000020: 0000 0000 0000 0000 0000 0000 0000 0000
00000030: 0000 0000 0000 0000 0000 0000 0000 0000
00000040: 0000 0000 0000 0000 0000 0000 0000 0000
00000050: 0000 0000 0000 0000 0000 0000 0000 0000
00000060: 0000 0000 0000 0000 0000 0000 0000 0000
00000070: 0000 0000 0000 0000 0000 0000 0000 0000
00000080: 0000 0000 0000 0000 0000 0000 0000 0000
00000090: 0000 0000 0000 0000 0000 0000 0000 0000
000000a0: 0000 0000 0000 0000 0000 0000 0000 0000
000000b0: 0000 0000 0000 0000 0000 0000 0000 0000
000000c0: 0000 0000 0000 0000 0000 0000 0000 0000
000000d0: 0000 0000 0000 0000 0000 0000 0000 0000
000000e0: 0000 0000 0000 0000 0000 0000 0000 0000
000000f0: 0000 0000 0000 0000 0000 0000 0000 0000
00000100: 0000 0000 0000 0000 0000 0000 0000 0000
00000110: 0000 0000 0000 0000 0000 0000 0000 0000
00000120: 0000 0000 0000 0000 0000 0000 0000 0000
00000130: 0000 0000 0000 0000 0000 0000 0000 0000
00000140: 0000 0000 0000 0000 0000 0000 0000 0000
00000150: 0000 0000 0000 0000 0000 0000 0000 0000
00000160: 0000 0000 0000 0000 0000 0000 0000 0000
00000170: 0000 0000 0000 0000 0000 0000 0000 0000
00000180: 0000 0000 0000 0000 0000 0000 0000 0000
00000190: 0000 0000 0000 0000 0000 0000 0000 0000
000001a0: 0000 0000 0000 0000 0000 0000 0000 0000
000001b0: 0000 0000 0000 0000 0000 0000 0000 0000
000001c0: 0000 0000 0000 0000 0000 0000 0000 0000
000001d0: 0000 0000 0000 0000 0000 0000 0000 0000
000001e0: 0000 0000 0000 0000 0000 0000 0000 0000
000001f0: 0000 0000 0000 0000 0000 0000 0000 0000

network_body._body_endoder.seq_layers.2.weight f4 [128, 128]
-0.06126327 0.042504225 0.16530892 0.009883495 0.15502572 -0.006702452 -0.10731147 0.03704366
-0.050078336 -0.030628791 -0.16696136 0.05775607 0.088879496 0.14775047 -0.036170255 -0.12231924
-0.049154 -0.120440416 -0.0086892685 -0.01794706 -0.16090138 -0.013212867 0.106353156 0.04970679
0.06948702 0.11331077 -0.03543672 -0.01182893 0.025719244 -0.09410745 -0.024657046 0.012539374
0.052936804 0.0137341665 -0.109653704 -0.12536529 -0.0602819 -0.05359171 -0.040212438 0.06893722
0.0011608526 0.11484426 -0.029717123 0.050358295 0.01266848 -0.11112889 0.038925882 0.123220176
0.017242236 -0.06294815 -0.08248655 0.0564686 -0.06302075 -0.053507134 -0.061014075 0.06195525
-0.018621426 0.07951823 -0.07501821 -0.0091394875 0.0017375866 0.11305197 0.07493033 0.12470038
-0.07934661 -0.026214918 0.012341152 -0.114840865 0.10379388 0.017238565 0.026572028 -0.011077491
-0.09714608 0.052304707 0.10284695 -0.062426753 0.10548166 -0.028766185 -0.21824013 0.0077937725
-0.07415661 -0.038189337 -0.027491936 -0.055304524 -0.046780724 -0.1794969 -0.0634945 -0.18523131
-0.04917764 0.0069565466 0.09941101 0.1004969 -0.052956413 0.032686528 -0.048456762 -0.085316405
0.01878455 -0.023764731 -0.0695643 0.0022900288 0.060880817 0.07396707 0.14646731 0.0921942
0.17366031 0.22645392 -0.009360768 -0.04142695 0.04171775 -0.10906557 -0.058179557 0.062234025
-0.01055715 -0.123879604 -0.12951136 -0.049904827 0.08210914 -0.11137447 0.10699055 0.04048423
-0.08568736 0.22102831 -0.017031781 0.037020955 -0.08240184 -0.017720116 -0.16304125 0.1427728
-0.05804091 0.07774202 -0.067830995 -0.14965872 0.098855704 -0.16567673 -0.015532871 -0.09997733
0.09544276 -0.085042514 -0.14530702 -0.09234923 0.053234883 -0.10608431 -0.027490582 -0.03751418
0.09214465 0.020863652 -0.08851511 -0.047492553 0.038241345 0.020660331 0.04721549 -0.00028637072
-0.0097881965 -0.053355556 0.13141227 0.06645799 0.007081919 -0.0011649012 0.08029299 -0.11138063
-0.1129588 0.008794668 -0.0065032896 -0.030746 0.029179743 0.12946208 -0.13323627 0.028134596
-0.07049577 -0.10199547 0.04616179 -0.2161116 -0.05052862 -0.09299057 0.044891782 0.08920872
-0.045708656 0.0009373227 0.010884797 0.018981168 0.04450804 -0.10992965 0.16638309 -0.14961737
0.110103 -0.25442567 0.10392222 -0.06411285 -0.034605227 0.11007589 0.020340245 -0.07722242
-0.104828484 0.015249962 0.13717051 0.07923441 -0.008354772 -0.027726507 0.12920997 -0.06874285
-0.05368119 -0.07570443 -0.09149262 -0.025438607 -0.0026281083 0.102711245 -0.008809768 0.110387154
0.014722085 -0.014391245 -0.06300201 0.05655226 0.07504975 0.0870952 0.022773433 0.052767884
0.0613502 -0.090206705 -0.03894208 0.2018406 -0.13482724 0.013726211 0.106013924 0.07460293
0.11546406 -0.07169716 0.089339264 -0.10560762 -0.08732191 -0.091679014 0.016614683 -0.09062586
0.0028528296 -0.01600053 -0.023145959 -0.059051655 -0.004447281 -0.044094212 0.04585427 0.1898333
-0.1073749 -0.08016879 -0.051823992 0.1340169 0.008687861 0.08938946 -0.031898044 -0.13322365
0.03629867 0.0120517025 0.013484971 0.06631399 0.08042422 -0.05799554 0.16598825 -0.025775652
00000000: 32ef 7abd e918 2e3d be46 293e 62ee 213c
00000010: 10bf 1e3e 3ea0 dbbb 1ec6 dbbd 18bb 173d
00000020: f11e 4dbd 3be9 fabc ebf7 2abe a191 6c3d
00000030: 7406 b63d e64b 173e 4327 14bd 8282 fabd
00000040: b455 49bd 77a9 f6bd 6f5d 0ebc b605 93bc
00000050: 55c3 24be c87a 58bc afcf d93d 5999 4b3d
00000060: 364f 8e3d 7a0f e83d 1826 11bd 21ce 41bc
00000070: 2ab1 d23c 68bb c0bd 93fd c9bc f271 4d3c
00000080: 43d4 583d 4505 613c 1f92 e0bd c25f 00be
00000090: 27ea 76bd fb82 5bbd ccb5 24bd f52e 8d3d
000000a0: c027 983a 7833 eb3d 5371 f3bc 8044 4e3d
000000b0: 758f 4f3c 8b97 e3bd bf70 1f3d dc5a fc3d
000000c0: 973f 8d3c f6ea 80bd b5ee a8bd 9e4b 673d
000000d0: 0611 81bd 4c2a 5bbd e5e9 79bd cac4 7d3d
000000e0: f68b 98bc 74da a23d 26a3 99bd cabd 15bc
000000f0: bbbf e33a cb87 e73d 1375 993d ea62 ff3d
00000100: 7a80 a2bd abc0 d6bc 8b32 4a3c b031 ebbd
00000110: e391 d43d e437 8d3c 95ad d93c 5d7e 35bc
00000120: 86f4 c6bd 763d 563d 6ca1 d23d 32b3 7fbd
00000130: c506 d83d 10a7 ebbc 577a 5fbe e762 ff3b
00000140: 6cdf 97bd 6c6c 1cbd c536 e1bc ff86 62bd
00000150: 259d 3fbd 09ce 37be 6809 82bd 47ad 3dbe
00000160: 7e6e 49bd bef3 e33b 0098 cb3d 52d1 cd3d
00000170: d3e8 58bd 4fe2 053d 997a 46bd 5eba aebd
00000180: 0ee2 993c 41ae c2bc ba77 8ebd 4f14 163b
00000190: 2a5e 793d 0c7c 973d 87fb 153e 50d0 bc3d
000001a0: 02d4 313e 89e3 673e e85d 19bc 4eaf 29bd
000001b0: 3be0 2a3d c55d dfbd b04d 6ebd 1be9 7e3d
000001c0: e5f7 2cbc 97b4 fdbd a09e 04be 0169 4cbd
000001d0: d628 a83d 4c18 e4bd dd1d db3d cbd2 253d
000001e0: db7c afbd 3f55 623e 3c86 8bbc 49a3 173d
000001f0: 4cc2 a8bd c729 91bc 49f4 26be 0833 123e
00000200: 4ebc 6dbd 3537 9f3d faea 8abd 2340 19be
00000210: dc74 ca3d 29a7 29be 957d 7ebc eac0 ccbd
00000220: 7e77 c33d c52a aebd 5dcb 14be 9821 bdbd
00000230: d20c 5a3d bb42 d9bd ee33 e1bc 78a8 19bd
00000240: 56b6 bc3d 40ea aa3c 6947 b5bd 8d87 42bd
00000250: f5a2 1c3d db3f a93c 0865 413d 0724 96b9
00000260: ac5e 20bc 5b8b 5abd f090 063e 201b 883d
00000270: 710f e83b 99af 98ba a770 a43d 871b e4bd
00000280: f156 e7bd 8317 103c 8c19 d5bb 09df fbbc
00000290: 5b0a ef3c b591 043e 176f 08be 867a e63c
000002a0: 1660 90bd 00e3 d0bd 2514 3d3d 5c4c 5dbe
000002b0: 19f7 4ebd d771 bebd 72e0 373d 10b3 b63d
000002c0: 0039 3bbd a9b6 753a 2656 323c 657e 9b3c
000002d0: 104e 363d cc22 e1bd 5460 2a3e 4c35 19be
000002e0: af7d e13d 1544 82be 2cd5 d43d 994d 83bd
000002f0: 36be 0dbd 786f e13d 96a0 a63c ca26 9ebd
00000300: 51b0 d6bd fada 793c 6d76 0c3e a645 a23d
00000310: 74e2 08bc b322 e3bc 9e4f 043e 0dc9 8cbd
00000320: cfe0 5bbd ed0a 9bbd 7c60 bbbd a064 d0bc
00000330: 573c 2cbb 465a d23d d856 10bc a912 e23d
00000340: e634 713c 42c9 6bbc 3307 81bd 58a3 673d
00000350: afb3 993d f85e b23d 5a8f ba3c 2323 583d
00000360: 594a 7b3d 4bbe b8bd bb81 1fbd 4daf 4e3e
00000370: 2710 0abe e7e3 603c d41d d93d 6cc9 983d
00000380: 6c78 ec3d f6d5 92bd 81f7 b63d cf48 d8bd
00000390: d4d5 b2bd 35c2 bbbd 841b 883c 0d9a b9bd
000003a0: 8af6 3a3b 8b13 83bc 989c bdbc 26e0 71bd
000003b0: 7fba 91bb 229c 34bd b0d1 3b3d a963 423e
000003c0: 5fe7 dbbd 892f a4bd 6545 54bd ba3b 093e
000003d0: 8857 0e3c d211 b73d 86a7 02bd c86b 08be
000003e0: eaad 143d 8174 453c 11f0 5c3c a1cf 873d
000003f0: 74b5 a43d bb8c 6dbd d3f8 293e 7627 d3bc

action_model._discrete_distribution.branches.0.weight f4 [2, 128]
0.003300062 0.003052681 0.0025990326 0.004376273 0.0049080853 0.011077762 0.00044209557 0.005602054
-0.011663525 0.011362844 0.011982091 -0.0066017616 -0.015525575 -0.009403808 -0.008691283 -0.0072017475
-0.001347848 0.0040234863 0.005964438 0.008171442 -0.022138612 -0.0002620273 -0.0006780499 0.0031975463
-0.017047353 -0.007474436 -0.003161876 0.003421142 -0.0034916946 -0.015143218 -0.000972792 -0.0020034823
-0.0120664155 0.0049333232 0.004798669 -0.006138431 -0.0016679751 -0.0029490606 0.0015615863 0.0012900786
-0.012149328 0.013028088 0.0015298374 -0.0031524908 -0.015782002 -0.01892159 0.0061861644 -0.010789646
0.0022533573 -0.002854284 -0.005200574 0.003027558 0.009662231 0.00078171346 0.0020798466 0.016705878
-0.009469851 0.0053620194 -0.0007591183 0.025036896 0.0047645853 -0.0037606861 0.0056129512 0.012434318
0.0045668148 0.0018204566 0.0014471674 -0.0025525051 -0.0053458256 -0.009799114 0.0020607512 -0.0021540201
-0.003342228 -0.009163947 -0.0017032791 -0.01501022 0.014779925 0.009956239 -0.0024076512 0.0074214423
0.01663453 0.0006709674 0.014497285 0.008973118 0.0071266936 -0.0071236375 0.004723269 -0.007179136
0.0077099325 0.014451086 0.007747739 0.00140045 -0.0076889955 0.018826056 -0.016418392 0.019097857
0.00587418 -0.019240404 -0.006944885 -0.008234594 -0.00010822575 0.0042865635 -0.009904373 0.013950961
0.006527298 0.019048668 0.0105597405 0.0078284135 -0.007808413 0.0073218863 0.008933119 0.0076431716
-0.0021789626 -0.011539342 -0.0009394767 -0.013005875 0.003850771 0.0034300275 0.0025021718 -0.0063263937
0.005905167 0.0058361823 -0.006001632 -0.023247698 0.0049262573 0.0010458035 -0.01406709 0.0064366907
0.00876446 -0.005073953 0.0034101948 0.015219919 0.003830182 -0.0078696245 -0.0022428834 -0.015180625
-0.0079298755 -0.0022694564 -0.0012407721 -0.006223766 -0.018573679 0.0051370594 -0.011397361 -0.012906456
-0.00081847183 0.017569683 0.00901316 0.0049330867 0.008033037 -0.0117097935 0.002001717 -0.0009387385
0.0065718205 0.0038180575 0.0045598396 0.014666343 0.0022000882 0.013081858 0.0037315157 -0.0020231977
-0.0004423664 0.0017688787 0.022550514 -0.016565662 0.011153809 -0.012138668 0.0062608393 0.0062333276
0.002198599 0.0044938657 0.004977118 -0.0026171913 0.0004599758 0.003727542 -0.0066475975 0.0073228995
0.0069889883 0.010447455 0.017191032 -0.015028569 -0.024578013 -0.010007469 0.0123165585 0.009425236
0.006331204 0.009073645 -0.010672236 0.004179035 -0.012748867 -0.0102511635 -0.006616119 0.00038208943
0.013250857 -0.014485902 -0.0039090845 -0.0016625386 -0.016096277 0.01656118 0.008610955 0.0057119452
-0.00095091027 0.0051345564 0.0031059321 0.011960923 0.00023800023 -0.017713068 0.00514422 -0.011124367
-0.0029421942 -0.009876124 0.015358155 -0.006944219 0.0073183016 0.007855692 0.005587366 0.016369155
0.0056731156 0.00679574 -0.0087919915 0.0076986114 -0.00509576 0.005222212 -0.0037462637 -0.00094529113
0.011515631 0.00953583 -0.0018086076 0.002509231 0.0028243891 -0.0043563456 0.0020729816 -0.0054368763
0.01578235 0.004710942 0.011890781 -0.0050815204 -0.012168519 -0.001644113 -0.007807735 0.0033578777
0.0011798161 0.021537842 -0.012025784 0.0014788528 0.010366572 -0.003625875 -0.0049838717 0.013138823
0.0020346462 -0.0037126062 0.0059810486 0.00639292 -0.0015161376 -0.0053228093 -0.00045216663 -0.013475105
00000000: da45 583b 7d0f 483b 8854 2a3b d766 8f3b
00000010: 01d4 a03b 807f 353c 10c9 e739 6f91 b73b
00000020: 5f18 3fbc 392b 3a3c 8850 443c 9753 d8bb
00000030: fb5e 7ebc 6e12 1abc e265 0ebc a3fc ebbb
00000040: 46aa b0ba 73d7 833b 5571 c33b 83e1 053c
00000050: 095c b5bc b560 89b9 29bf 31ba ed8d 513b
00000060: e4a6 8bbc 1dec f4bb 7a37 4fbb 3d35 603b
00000070: ead4 64bb 431b 78bc f702 7fba db4c 03bb
00000080: 37b2 45bc b7a7 a13b 273e 9d3b e424 c9bb
00000090: f59f daba 0745 41bb 24ae cc3a db17 a93a
000000a0: fa0d 47bc c373 553c d384 c83a 059a 4ebb
000000b0: 4249 81bc 7301 9bbc 4fb5 ca3b 0ec7 30bc
000000c0: 10ad 133b f00e 3bbb 9469 aabb ff69 463b
000000d0: 564e 1e3c e7eb 4c3a 094e 083b c4da 883c
000000e0: 6f27 1bbc e1b3 af3b 91ff 46ba 2d1a cd3c
000000f0: 3d20 9c3b d875 76bb d9ec b73b 4fb9 4b3c
00000100: 38a5 953b 639c ee3a e1ae bd3a ee47 27bb
00000110: 092c afbb 778c 20bc ab0d 073b 762a 0dbb
00000120: 4809 5bbb 6124 16bc 9040 dfba 6ded 75bc
00000130: 8027 723c 7e1f 233c afc9 1dbb 922f f33b
00000140: 2345 883c dce3 2f3a 0586 6d3c fc03 133c
00000150: 0a87 e93b 676d e9bb a7c5 9a3b f53e ebbb
00000160: 9aa3 fc3b 3fc4 6c3c bfe0 fd3b 4e8f b73a
00000170: f8f3 fbbb 1a39 9a3c dd7f 86bc 1c73 9c3c
00000180: 317c c03b 0d9e 9dbc eb91 e3bb 64ea 06bc
00000190: 42f7 e2b8 4d76 8c3b f445 22bc 9292 643c
000001a0: f2e2 d53b f40b 9c3c c302 2d3c bf42 003c
000001b0: b7dd ffbb 6fec ef3b 375c 123c 9273 fa3b
000001c0: edcc 0ebb 820f 3dbc 3747 76ba 9816 55bc
000001d0: 385d 7c3b 50ca 603b 7afb 233b a34d cfbb
000001e0: 2280 c13b 723d bf3b 57a9 c4bb f571 bebc
000001f0: 716c a13b 5813 893a a779 66bc e0ea d23b
00000200: cf98 0f3c 6743 a6bb 937d 5f3b f85c 793c
00000210: ca03 7b3b 99ef 00bc 57fd 12bb 28b8 78bc
00000220: 4fec 01bc 29bb 14bb 67a1 a2ba bcf0 cbbb
00000230: d427 98bc c754 a83b ffbb 3abc 9a75 53bc
00000240: b78e 56ba 4cee 8f3c efab 133c bba5 a13b
00000250: 009d 033c 6fda 3fbc 3d2f 033b ad15 76ba
00000260: 6d58 d73b 6038 7a3b b56a 953b 1a4b 703c
00000270: 5b2f 103b 4a55 563c 728c 743b a097 04bb
00000280: 6aed e7b9 b8d9 e73a dbbb b83c b6b4 87bc
00000290: 77be 363c 44e1 46bc ba27 cd3b f140 cc3b
000002a0: 5f16 103b 4741 933b 1817 a33b 2f85 2bbb
000002b0: e828 f139 c749 743b 17d4 d9bb eff4 ef3b
000002c0: e203 e53b cd2b 2b3c 35d4 8c3c 633a 76bc
000002d0: d457 c9bc 5ef6 23bc 64cb 493c 4e6c 1a3c
000002e0: fd75 cf3b a0a9 143c 9ada 2ebc 49f0 883b
000002f0: a0e0 50bc 7ff4 27bc 07cc d8bb 2d53 c839
00000300: 1f1a 593c 4756 6dbc c717 80bb 8ae9 d9ba
00000310: 57dc 83bc 50ab 873c f714 0d3c 452b bb3b
00000320: 8246 79ba c83f a83b e58c 4b3b bff7 433c
00000330: b38f 7939 ff1a 91bc d890 a83b fa42 36bc
00000340: d4d1 40bb 77cf 21bc c5a0 7b3c 558c e3bb
00000350: 5dce ef3b 29b5 003c 3916 b73b 9b18 863c
00000360: 8be5 b93b cdae de3b 490c 10bc a244 fc3b
00000370: 55fa a6bb 171f ab3b e083 75bb 6acd 77ba
00000380: 0fac 3c3c 2b3c 1c3c cd0e edba e971 243b
00000390: 6319 393b adbf 8ebb dcda 073b d327 b2bb
000003a0: fd49 813c 3f5e 9a3b 8dd1 423c e282 a6bb
000003b0: 785e 47bc 477f d7ba 07d8 ffbb d70f 5c3b
000003c0: 0fa4 9a3a 2170 b03c cb07 45bc 11d6 c13a
000003d0: 8ed8 293c 17a0 6dbb bf4f a3bb 3844 573c
000003e0: b357 053b 324f 73bb acfc c33b b37b d13b
000003f0: 23b9 c6ba f66a aebb c710 edb9 b0c6 5cbc

action_model._discrete_distribution.branches.0.bias f4 [2]
0.0 0.0
00000000: 0000 0000 0000 0000

action_model._discrete_distribution.branches.1.weight f4 [2, 128]
0.0053509227 -0.009367347 -0.0031734917 0.01870567 -0.00016898189 -0.0010468329 -0.007795495 0.0043708603
0.0007683621 0.012638167 -0.0009406307 -4.6548e-05 -0.015074282 0.0018279903 0.0037245385 0.010488949
0.012801281 0.0073392703 -0.010592458 -0.0030056515 0.004778344 0.0008278465 -0.008294853 0.020006595
-0.004310714 -0.0092083 -0.01044777 -0.012734937 0.0055656447 0.005444392 -0.0009765021 0.013537483
0.0016595785 0.013080621 -0.0009870995 -0.012944671 -0.010693775 0.008038647 0.013363115 -0.02005116
0.0034101245 -0.0031481038 -0.012284334 0.0046112547 0.00032008658 -0.005737401 -0.00417433 -0.016081138
-0.00030796765 0.0060505318 0.002139329 -0.0018567486 -0.015207577 -0.008538107 -0.00874491 0.00064358744
0.022694752 -0.023464013 0.0060353433 -0.008570902 0.0122058755 0.001512469 -0.0030298873 -0.010668714
-0.0049640895 -0.010565439 0.012907812 0.011775811 0.004677724 -0.0023226943 0.009506187 0.01653856
0.006122595 -0.0002492717 -0.0076036914 0.0138174025 -0.012298575 0.0075832657 -0.0224025 -0.0019604645
-0.0036347618 -0.0011564227 0.0013958308 -0.010347514 -0.007544279 -0.009753274 0.013252891 0.00057598884
0.0006491021 0.0050843903 0.0031100933 -0.008872273 0.0005740692 -0.0014729328 0.010907925 -0.0076838033
-0.0016652104 0.00049060694 0.0003006739 -0.0011792358 -0.004801271 -0.0047697895 -0.0026438932 0.009069915
7.238947e-05 -0.0078124735 -0.008028024 -0.0014275184 0.0032972954 0.0036470962 0.0065216906 0.010919414
-0.010825017 -0.0020277828 0.0022673465 -0.0050642933 0.011746208 -0.0063702674 -0.0046220873 -0.0048388126
0.003229605 -0.019514875 0.018034285 0.009899306 0.015446953 -0.014763072 -0.012328009 0.0034760726
-0.0034126458 -0.0061072893 0.019330943 0.003918795 -0.005266308 -0.0062609385 0.00020712505 -0.013654689
-0.008675447 0.0031234352 -0.016725948 -0.013687478 -0.01596337 0.013471191 -0.008297173 -0.003948353
-0.0012277671 0.012578758 0.007874521 -0.0007975382 -0.0042899153 -0.006134795 0.0006180673 -0.0035053727
0.009946194 0.005987973 -0.0070415162 0.0048504225 0.0036187414 0.0094253225 0.019910982 0.008843011
0.003238703 0.014115505 0.0016668966 -0.011219754 -0.0006551054 -0.007419174 -0.013633813 -0.0002993356
-0.014023502 -0.0029267804 0.009125744 0.0019478252 0.013013738 0.0013505807 0.011448384 -0.00032739804
-0.008412979 0.0022561124 -0.008339332 -0.015420082 0.017032374 -0.014595208 0.002149468 -0.0023169753
0.000821623 -0.008083171 0.006405493 -0.0008900083 -0.004678049 -0.007149869 0.004486068 -0.0026204074
0.002093179 0.0134533765 -0.007986652 -0.0008556611 0.012176704 -0.0019201847 -0.0097707845 -0.003434098
-0.0009017223 0.011625612 -0.00076739566 -0.0041169785 -0.0025041539 -0.0009816624 0.005929622 0.0053397287
0.003858404 5.0062994e-05 -0.0014539028 -0.0140213175 -0.0089805955 0.0047966507 0.013991937 -0.0054500713
-0.0018338315 3.504775e-05 -0.0045383773 0.0074448115 0.004476452 0.0035183416 -0.0022821575 0.0026046007
0.011405372 -0.0067541683 -0.008387278 -0.0027847523 -0.017480722 -0.0026270973 0.0048386524 0.012470732
0.009202621 0.004065758 0.0054414333 -0.0070200562 -0.00426992 -0.000940407 -0.015246728 0.0016118918
-0.0017895334 0.005288632 0.005684816 0.007910799 -0.003656592 -0.007940917 -0.0083897775 -0.007195464
0.0004322448 -0.0060611176 -0.00040817817 0.0043634227 -0.010828829 0.009784075 0.007955107 0.015371995
00000000: cb56 af3b 8079 19bc 5bfa 4fbb a23c 993c
00000010: bb30 31b9 e235 89ba 5a71 ffbb 6f39 8f3b
00000020: e86b 493a 5010 4f3c a894 76ba 893c 43b8
00000030: 1ffa 76bc 2d99 ef3a 6317 743b d7d9 2b3c
00000040: 77bc 513c 437e f03b fd8b 2dbc 77fa 44bb
00000050: a893 9c3b d703 593a 23e7 07bc dfe4 a33c
00000060: e440 8dbb 69de 16bc 202d 2bbc 32a6 50bc
00000070: 0360 b63b df66 b23b f2fb 7fba 52cc 5d3c
00000080: 3786 d93a 1a50 563c 9061 81ba e315 54bc
00000090: f134 2fbc 87b4 033c f7f0 5a3c 5542 a4bc
000000a0: 657c 5f3b 6b50 4ebb 3b44 49bc 021a 973b
000000b0: 4bd1 a739 cf00 bcbb d1c8 88bb 97bc 83bc
000000c0: b876 a1b9 8a43 c63b fc33 0c3b 255e f3ba
000000d0: 3329 79bc 6be3 0bbc d046 0fbc 6cb6 283a
000000e0: 58ea b93c 9a37 c0bc 21c4 c53b f86c 0cbc
000000f0: 27fb 473c 0a3e c63a 1391 46bb d4cb 2ebc
00000100: cda9 a2bb aa1a 2dbc 4a7b 533c 55ef 403c
00000110: 9847 993b 5838 18bb d7bf 1b3c e07b 873c
00000120: 0da0 c83b aeb0 82b9 6328 f9bb 6362 623c
00000130: f67f 49bc 0b7d f83b 7385 b7bc 237b 00bb
00000140: 2f35 6ebb 1b93 97ba 4ff4 b63a 9f88 29bc
00000150: 0036 f7bb 32cc 1fbc a722 593c f5fd 163a
00000160: 8128 2a3a f59a a63b b5d2 4b3b 035d 11bc
00000170: 227d 163a 6c0f c1ba 27b7 323c 6ac8 fbbb
00000180: 3043 daba 139c 003a c5a3 9d39 9690 9aba
00000190: fb53 9dbb e54b 9cbb 2b45 2dbb fb99 143c
000001a0: cdcf 9738 c7ff ffbb f987 03bc 921b bbba
000001b0: 7017 583b 1f04 6f3b e8b3 d53b 58e7 323c
000001c0: 695b 31bc 8de4 04bb c397 143b 5ff2 a5bb
000001d0: 2b73 403c adbd d0bb e174 97bb e78e 9ebb
000001e0: c8a7 533b a9dd 9fbc a3bc 933c b330 223c
000001f0: 3715 7d3c d0e0 71bc 6bfb 49bc d2ce 633b
00000200: b2a6 5fbb a81f c8bb ed5b 9e3c 3c69 803b
00000210: fe90 acbb 8f28 cdbb b52f 5939 ebb7 5fbc
00000220: 7623 0ebc 8cb2 4c3b db04 89bc 7241 60bc
00000230: 9dc5 82bc 45b6 5c3c def0 07bc 3061 81bb
00000240: 07ed a0ba 2317 4e3c 2304 013c e211 51ba
00000250: 6b92 8cbb 6406 c9bb cb05 223a 65ba 65bb
00000260: 5cf5 223c c236 c43b 85bc e6bb 4bf0 9e3b
00000270: 6828 6d3b ab6c 1a3c 5b1c a33c 47e2 103c
00000280: 6b40 543b b844 673c c57b da3a 0fd3 37bc
00000290: 61bb 2bba 8b1c f3bb 5b60 5fbc 25f0 9cb9
000002a0: d5c2 65bc 3acf 3fbb 2584 153c 2b4e ff3a
000002b0: 9337 553c f805 b13a 0192 3b3c 9fa6 abb9
000002c0: 97d6 09bc 49db 133b b2a1 08bc 83a4 7cbc
000002d0: 7a87 8b3c bd20 6fbc 17de 0c3b 65d8 17bb
000002e0: 3062 573a 476f 04bc 2be5 d13b 724f 69ba
000002f0: 524a 99bb 7349 eabb deff 923b 24bb 2bbb
00000300: b72d 093b 8d6b 5c3c 72da 02bc 724e 60ba
00000310: cc80 473c b5ae fbba a415 20bc 9b0e 61bb
00000320: 8f61 6cba 5a79 3e3c 0d2b 49ba b8e7 86bb
00000330: bb1c 24bb 20ab 80ba 464d c23b e4f8 ae3b
00000340: 47dd 7c3b bbfa 5138 e290 beba abb9 65bc
00000350: 5923 13bc 392d 9d3b 703e 653c 8396 b2bb
00000360: 2d5d f0ba 3c00 1338 abb6 94bb 9bf3 f33b
00000370: 33af 923b fa93 663b 4090 15bb f3b1 2a3b
00000380: 99dd 3a3c 1252 ddbb cb6a 09bc 6480 36bb
00000390: bb33 8fbc 612b 2cbb 8f8d 9e3b 0b52 4c3c
000003a0: 97c6 163c 0d3a 853b 0d4e b23b 8008 e6bb
000003b0: afea 8bbb a585 76ba 6acd 79bc 1d46 d33a
000003c0: c78e eaba 434c ad3b b147 ba3b 4c9c 013c
000003d0: 6fa3 6fbb 9f1a 02bc 4775 09bc edc7 ebbb
000003e0: ea9e e239 579c c6bb bf00 d6b9 0bfb 8e3b
000003f0: 676b 31bc 634d 203c 2356 023c d2da 7b3c

action_model._discrete_distribution.branches.2.weight f4 [2, 128]
-0.007101137 -0.000464719 0.0047152727 0.0055146283 0.00014449836 -0.0060128896 0.0030447356 0.009672749
0.003260227 -0.009620922 -0.0084078405 0.004958686 -0.003956068 0.020332186 0.0016328294 -0.005337897
-0.011041991 -0.01526701 -0.0086116055 0.002420789 -0.012424413 0.0033572358 0.007995806 -0.0038647824
0.0020583551 -0.02698276 -0.013504702 0.0061010667 -0.0012966343 0.005751408 -0.00091546914 -0.006662709
-0.0017820463 0.0008428978 -0.0014517903 0.004886807 -0.0010696127 -0.013031306 0.0067987777 -0.0028879333
0.019081278 -0.0028130615 -0.009922557 0.0037714427 0.009388268 0.0037856547 -0.008454319 0.0062890886
-0.0007748075 -0.005200691 -0.009117033 0.009641318 0.00040548822 -0.007853433 -0.005477881 0.0057315263
0.0008362943 0.0029772443 -0.004022473 0.011326409 0.0058230585 -0.017328054 -0.0054722386 0.01147331
-0.014540906 0.0061448687 -0.008031336 -0.011540526 0.0029954936 0.0044696364 -0.010838885 0.0038818773
-0.005747955 0.00395764 0.0033062883 -0.0036592768 0.009620755 -0.0017788837 0.011022634 0.005665657
0.0024031147 2.3572147e-05 0.0011380338 -0.0056628273 -0.009067361 0.0005971597 0.0041474714 -0.010090526
-0.005125255 0.00038125788 -0.007109977 0.0008484687 -0.014151715 -0.00085514097 -0.0011079072 0.017063685
0.012738024 -0.0056501054 -0.0026897036 0.010201211 0.016295364 -0.009249168 0.0006076547 -0.015515104
-0.0054517356 0.0126523515 0.00077996345 0.0045734067 -0.0060851793 0.016045028 -0.023002228 0.0003725426
0.0035877824 0.001261441 -0.010425097 -0.0039845286 0.005236514 0.00234147 -0.0041520493 0.012417255
0.009728356 -0.010762617 -0.0029858297 -0.0029004721 -0.009923815 -0.0122151915 -0.025358811 0.01379048
-0.0003606522 -0.010919782 0.00078756484 -0.018457202 0.015666932 -0.0061578457 -0.0060722088 0.006152183
0.009793252 -0.009519708 0.0057484573 0.0004599852 -0.0046739313 -0.010563369 0.0030027705 -0.008915098
-0.012146211 -0.007857512 -0.012110873 0.001121452 -0.002005439 -0.002054963 0.00854669 -0.0008621854
0.0018988753 0.0040081567 -0.009271221 0.0030382501 -0.0015622862 -0.00095963385 0.006098687 0.016208617
0.0031053608 -0.00593028 0.0035933636 0.016921695 -0.003129391 -0.003415199 -0.0030113794 -0.0052704676
-0.009388067 -0.0013011646 0.0051231007 0.0051757162 -0.0039008 0.0032736787 0.010899144 0.0024716242
0.0140163945 -0.014262705 0.0033214528 -0.014696151 0.00051161315 -0.0097207455 -0.014033 -0.010766438
-0.014579152 -0.01827489 0.015605708 -0.005203172 0.018082289 0.014688516 -0.0018188388 -0.012957706
-0.005007444 0.0021695753 0.012643282 0.005875075 -0.0021473647 -0.005692068 -0.024254201 -0.002667527
0.015046385 0.0004910912 0.0035036136 0.0044773393 0.01353759 -0.004008233 -0.0020835518 0.0019047462
0.0036802334 0.012889588 -0.018360188 -0.013117 0.0025399325 -0.012415262 0.005927326 -0.004271537
-0.0038366814 -0.0075096483 -0.0021843982 0.0018999273 -0.013900253 -0.003270249 0.013870189 0.0041290442
0.02382344 -0.00020224434 -0.008478929 0.00688826 -0.0012087792 0.0041962154 -0.001311083 0.0017241715
-0.00471228 -0.004553115 0.0073551275 0.008546131 0.01010153 -0.013575554 -0.006328288 0.0034056683
0.017907593 -0.0055332505 -0.00011295064 -0.007144102 0.007629201 0.008369717 -0.011582691 -0.01703113
-0.0052955393 0.010487156 -0.0053161355 0.001966618 0.0037980606 -0.011799476 0.009285807 -0.003553324
00000000: a8b0 e8bb 87a5 f3b9 9382 9a3b 0eb4 b43b
00000010: 7c84 1739 c607 c5bb 308a 473b 737a 1e3c
00000020: 88a9 553b 12a1 1dbc 0ac1 09bc 797c a23b
00000030: e7a1 81bb af8f a63c aa04 d63a 87e9 aebb
00000040: 78e9 34bc 7b22 7abc b117 0dbc 1aa6 1e3b
00000050: c48f 4bbc 1205 5c3b d700 033c 4a48 7dbb
00000060: 78e5 063b f30a ddbc d342 5dbc 75eb c73b
00000070: d4f3 a9ba 4f76 bc3b 18fc 6fba db52 dabb
00000080: 8d93 e9ba eaf5 5c3a 004a beba 8221 a03b
00000090: 3f32 8cba 4281 55bc 48c8 de3b 7b43 3dbb
000000a0: 5750 9c3c 575b 38bb 3892 22bc 4f2a 773b
000000b0: 40d1 193c bf18 783b fc83 0abc b314 ce3b
000000c0: 731c 4bba 8f6a aabb 9c5f 15bc 9ef6 1d3c
000000d0: b597 d439 afab 00bc cc7f b3bb 87cf bb3b
000000e0: c33a 5b3a df1d 433b f3ce 83bb 6792 393c
000000f0: 5bcf be3b 90f3 8dbc 7750 b3bb 8dfa 3b3c
00000100: fb3c 6ebc e55a c93b dd95 03bc 7914 3dbc
00000110: 0b50 443b 0776 923b 9495 31bc 1867 7e3b
00000120: 5759 bcbb 17af 813b 50ae 583b 7ad0 6fbb
00000130: 5fa0 1d3c 6f29 e9ba 4798 343c faa6 b93b
00000140: 937d 1d3b cdbc c537 142a 953a 3d8f b9bb
00000150: 458f 14bc b68a 1c3a 83e7 873b bc52 25bc
00000160: c1f1 a7bb 91e3 c739 cffa e8bb c56b 5e3a
00000170: 98dc 67bc 8a2b 60ba 3237 91ba 24c9 8b3c
00000180: 25b3 503c 8524 b9bb bd45 30bb fb22 273c
00000190: db7d 853c d389 17bc 044b 1f3a 1033 7ebc
000001a0: 79a4 b2bb cf4b 4f3c 7676 4c3a 84dc 953b
000001b0: 2f66 c7bb dd70 833c 2b6f bcbc d251 c339
000001c0: 0021 6b3b f056 a53a 07ce 2abc a690 82bb
000001d0: 1097 ab3b 5973 193b ea0d 88bb be71 4b3c
000001e0: af63 1f3c b055 30bc e9ad 43bb d915 3ebb
000001f0: 7f97 22bc 3a22 48bc 48bd cfbc 77f1 613c
00000200: eb15 bdb9 e3e8 32bc 9574 4e3a 8f33 97bc
00000210: f057 803c c1c7 c9bb 61f9 c6bb 4098 c93b
00000220: e073 203c 8df8 1bbc 8e5d bc3b 2b2a f139
00000230: c727 99bb fb11 2dbc 21ca 443b a210 12bc
00000240: e700 47bc cbbc 00bc af6c 46bc affd 923a
00000250: af6d 03bb 8fac 06bb 6b07 0c3c 4804 62ba
00000260: afe3 f83a db56 833b 52e6 17bc 611d 473b
00000270: a0c5 ccba f08f 7bba 7fd7 c73b efc7 843c
00000280: 4f83 4b3b cb52 c2bb a37e 6b3b 5e9f 8a3c
00000290: 7816 4dbb 88d1 5fbb 905a 45bb e3b3 acbb
000002a0: 68d0 19bc d78b aaba afdf a73b 0e99 a93b
000002b0: 90a4 7fbb 378b 563b 5392 323c f9fa 213b
000002c0: 05a5 653c 1fae 69bc bbac 593b 20c8 70bc
000002d0: c71d 063a c343 1fbc abea 65bc b765 30bc
000002e0: 65dd 6ebc 39b5 95bc 15af 7f3c 5f7f aabb
000002f0: 4f21 943c 1aa8 703c 1a66 eeba 8f4c 54bc
00000300: 7c15 a4bb 6f2f 0e3b c525 4f3c b383 c03b
00000310: cdba 0cbb 8784 babb bfb0 c6bc add1 2ebb
00000320: 1d85 763c 93bc 003a e29c 653b a5b6 923b
00000330: c5cc 5d3c 7f57 83bb 338c 08bb ada8 f93a
00000340: 1230 713b da2e 533c 1b68 96bc b0e8 56bc
00000350: ff74 263b 6269 4bbc 043a c23b 40f8 8bbb
00000360: d570 7bbb 7f13 f6bb 1f28 0fbb fb06 f93a
00000370: e3bd 63bc ad51 56bb ca3f 633c ef4c 873b
00000380: 6029 c33c 8d11 54b9 35eb 0abc eab6 e13b
00000390: e66f 9eba 6880 893b a5d8 abba 98fd e13a
000003a0: 7869 9abb 4c32 95bb 4803 f13b 1205 0c3c
000003b0: e380 253c 006c 5ebc 875d cfbb a231 5f3b
000003c0: f2b2 923c 4550 b5bb eadf ecb8 1219 eabb
000003d0: 60fe f93b 2321 093c 54c5 3dbc de84 8bbc
000003e0: 3486 adbb 52d2 2b3c fa32 aebb 60e2 003b
000003f0: e2e8 783b 9752 41bc 7f23 183c e2de 68bb

action_model._discrete_distribution.branches.3.weight f4 [2, 128]
0.007802018 0.0007688223 -0.00016993513 -0.0015939365 -0.0058998773 -0.0070191766 -0.005272672 0.014375197
0.00067656196 0.01603057 -0.015649313 0.0046586706 0.002323168 -0.00055431476 -0.0051350836 0.009335199
-0.011191195 0.0030503464 0.0094651235 0.0043372936 -0.0133788455 0.012702273 -0.0010188691 0.0012631126
-0.0031769802 0.011088275 -0.006749774 -0.005532854 -0.0031096009 -0.0034812503 0.002858929 -0.0059799952
-0.019968769 0.005528007 -0.0076094866 0.0133222435 -0.0023089214 0.019860318 -0.004849779 0.008267722
0.003070719 0.0014266871 0.007592231 -0.0069920532 0.0005303854 -0.0012635932 -0.02025088 0.0061997967
0.0015221018 -0.0036320407 0.009114467 0.0023802442 -0.0015214899 0.00021473345 0.014828163 0.00026998165
0.0045374036 -0.0017252726 -0.009496631 0.002011472 -0.004012564 0.002295789 0.0007900076 0.004061664
-0.003093739 -0.016902192 -0.008335005 -0.009716599 -0.01270581 -0.015463862 -0.01503346 -0.013048007
-0.0023155205 -0.018184666 0.006050519 0.025549358 -0.000768841 0.007834963 0.0044738273 -0.017509006
0.0005513874 0.005845014 0.00039127097 -0.0024073985 0.021015009 -0.008567213 0.019359464 0.014374902
-0.006817441 -0.001882116 0.028927004 -0.0016318824 -0.00157517 0.004055567 -0.014466113 -0.0060488177
0.0043728976 0.005137772 0.006309729 0.0020392344 0.011755157 0.0058514387 0.00053640717 0.0017454809
0.0021376926 -0.007910458 0.01568654 0.0019497102 0.0012909004 0.011111594 0.010660637 -0.0004186038
0.008487023 -0.0038148162 -0.0052880724 0.0018191318 0.0069156974 0.0014415268 -0.004902107 -0.011123759
-0.00047799185 0.008180236 0.006302295 0.0030816563 0.018561361 -0.001661535 0.013332493 -0.018423112
0.0020705939 -0.008620105 -0.023111388 -0.023075886 -0.006897951 -0.0024114335 -0.0011787364 -0.012254324
-0.009302987 -0.0077845016 0.005136116 -0.009149942 0.015927065 0.003559074 0.0073513538 -0.003988478
-0.0052294875 0.0035159586 -0.012494028 -0.009338025 -0.022575742 -0.013160884 0.016752042 0.0015235151
0.00047258777 -0.008985845 -0.0070177466 -0.009931437 0.008930015 -0.0055225063 0.004302366 0.0060474845
-0.006169927 -0.002508818 0.02162831 -0.0006626826 -0.0048243185 -0.0024652714 0.007035075 -0.0012039514
-0.012798269 -0.013040264 0.0032878947 0.014174441 0.004529556 0.0043426896 0.0071687424 -0.011051673
0.015620035 0.01885443 -0.0025833608 -0.018319875 -0.014734024 0.029355085 0.015614106 -0.014219207
-0.005984319 -0.0029410585 -0.00019108172 0.0014305761 0.0016721291 -0.008689056 -0.0022516956 0.0024787805
0.0021153304 0.020702537 0.0010687925 -0.009718449 -0.010675676 -0.0014615738 0.0027616646 -0.008502473
0.0035913035 -0.0026570882 -0.0017762926 -0.0014047646 -0.0038346902 0.004654372 -0.004133765 0.0054823994
-0.010224401 -0.00063427095 0.02493265 0.0077236295 0.0062618996 0.009930751 -0.0030108115 0.0032455025
0.0075216712 -0.000885641 0.0008471114 -0.00830328 -0.005107394 -0.0016153529 -0.0006352511 -0.004512138
-0.00800969 -0.012747626 0.0056165755 -0.01046066 -0.0012049234 3.9805553e-05 0.0007378399 0.013074947
-0.0010644699 0.00051531725 -0.003860309 0.0021023783 0.003310274 0.014150845 -0.005196498 0.0034960085
0.015492903 0.0148289595 0.0037720713 0.00064249843 0.017181655 0.0089040445 -0.005209607 -0.013266015
-0.0011501054 -2.407418e-05 0.0015526627 0.014173388 0.012536967 -0.0061113536 0.0040300502 -0.007763818
00000000: 12a8 ff3b cb8a 493a 9d30 32b9 a2eb d0ba
00000010: c253 c1bb 1f01 e6bb 61c6 acbb f285 6b3c
00000020: 4e5b 313a 8b52 833c fd32 80bc c3a7 983b
00000030: 4b40 183b 6f4f 11ba 3444 a8bb aaf2 183c
00000040: 465b 37bc 52e8 473b 9b13 1b3c db1f 8e3b
00000050: f232 5bbc 321d 503c 938b 85ba 078f a53a
00000060: e234 50bb 99ab 353c 352d ddbb f14c b5bb
00000070: 72ca 4bbb b025 64bb df5c 3b3b d6f3 c3bb
00000080: 8b95 a3bc 4924 b53b 0059 f9bb 8a45 5a3c
00000090: 4651 17bb 1bb2 a23c e5ea 9ebb 5775 073c
000000a0: 1e3e 493b adff ba3a 40c8 f83b 981d e5bb
000000b0: 9009 0b3a 279f a5ba 2ce5 a5bc aa27 cb3b
000000c0: 4381 c73a 8807 6ebb d854 153c dffd 1b3b
000000d0: bb6c c7ba 122a 6139 d3f1 723c 538c 8d39
000000e0: 80ae 943b 8b22 e2ba c297 1bbc e6d2 033b
000000f0: d47b 83bb f374 163b 8318 4f3a b517 853b
00000100: 54c0 4abb 7776 8abc 8b8f 08bc 5f32 1fbc
00000110: 082c 50bc 235c 7dbc e74e 76bc 4fc7 55bc
00000120: fdbf 17bb 02f8 94bc 6f43 c63b e34c d13c
00000130: 0c8c 49ba 375e 003c 2f99 923b 0c6f 8fbc
00000140: fb8a 103a 8887 bf3b 8023 cd39 72c5 1dbb
00000150: ab27 ac3c 7f5d 0cbc bd97 9e3c b584 6b3c
00000160: d764 dfbb 55b1 f6ba 53f8 ec3c e3e4 d5ba
00000170: ef75 ceba 90e4 843b 4703 6dbc 2935 c6bb
00000180: 864a 8f3b c15a a83b d8c1 ce3b ada4 053b
00000190: b498 403c 6dbd bf3b ad9d 0c3a 9fc8 e43a
000001a0: 8818 0c3b de9a 01bc 0f81 803c 6b8d ff3a
000001b0: 6e33 a93a 670d 363c f4a9 2e3c 0d78 dbb9
000001c0: 280d 0b3c ff01 7abb 9147 adbb ef6f ee3a
000001d0: 139d e23b 9df1 bc3a dba1 a0bb 6d40 36bc
000001e0: fb9a fab9 6606 063c 7b83 ce3b 9df5 493b
000001f0: ff0d 983c ddc7 d9ba 8770 5a3c 11ec 96bc
00000200: cdb2 073b 573b 0dbc 1854 bdbc a409 bdbc
00000210: 3508 e2bb 2409 1ebb d57f 9aba 5cc6 48bc
00000220: 8e6b 18bc 2215 ffbb dd4c a83b a3e9 15bc
00000230: 7a79 823c 5a3f 693b a0e3 f03b c7b1 82bb
00000240: 1f5c abbb ff6b 663b c0b3 4cbc 84fe 18bc
00000250: c3f0 b8bc c0a0 57bc 943b 893c afb0 c73a
00000260: a8c5 f739 5e39 13bc 20f5 e5bb 77b7 22bc
00000270: 334f 123c 24f6 b4bb ddfa 8c3b fa29 c63b
00000280: 192d cabb fb6a 24bb db2d b13c e0b7 2dba
00000290: 5115 9ebb 6490 21bb 7d86 e63b e8cd 9dba
000002a0: d5af 51bc d5a6 55bc b879 573b ea3b 683c
000002b0: ab6c 943b 1f4d 8e3b c5e7 ea3b 1412 35bc
000002c0: 2deb 7f3c 9b74 9a3c 9a4d 29bb 9013 96bc
000002d0: fa66 71bc 137a f03c 4fd2 7f3c adf7 68bc
000002e0: 1b18 c4bb c6be 40bb 1c5d 48b9 2b82 bb3a
000002f0: 582b db3a 8b5c 0ebc 2f91 13bb 0973 223b
00000300: 5ba1 0a3b 5e98 a93c ba16 8c3a 213a 1fbc
00000310: 08e9 2ebc 4792 bfba 0bfd 343b f54d 0bbc
00000320: 135c 6b3b 8b22 2ebb 7dd2 e8ba 1420 b8ba
00000330: 6d4f 7bbb b483 983b 8974 87bb b3a5 b33b
00000340: 3f84 27bc 3445 26ba 8f3f cc3c 8016 fd3b
00000350: 9f30 cd3b 97b4 223c 0951 45bb 7fb2 543b
00000360: 5a78 f63b 5d2a 68ba af10 5e3a 7b0a 08bc
00000370: ed5b a7bb 40ba d3ba fb86 26ba 8fda 93bb
00000380: 133b 03bc 6bdb 50bc 400b b83b 3063 2bbc
00000390: 85ee 9dba e3f4 2638 996b 413a 4d38 563c
000003a0: af85 8bba 5b16 073a 3dfd 7cbb 0ec8 093b
000003b0: 2ff1 583b f2d8 673c 6247 aabb 4a1d 653b
000003c0: f2d5 7d3c 2af5 723c db34 773b 576d 283a
000003d0: 8bc0 8c3c 45e2 113c 5ab5 aabb b359 59bc
000003e0: 22bf 96ba e8f2 c9b7 b782 cb3a 7f37 683c
000003f0: da67 4d3c c041 c8bb 830e 843b a067 febb

onnx::Div_100 f4 [11]
149.34593 122.76202 132.9582 121.57678 4.369468 1.6586763 0.5013157 0.50316745
0.5023813 0.5039216 0.06274558
00000000: 8f58 1543 2786 f542 4df5 0443 5027 f342
00000010: afd2 8b40 814f d43f 3a56 003f 95cf 003f
00000020: 109c 003f 0201 013f c180 803d
