Assets/results/traffic-controlv2/TrafficLightBrain/TrafficLightBrain-46.onnx (onnx, 88715 bytes, 11 tensors)

discrete_act_size_vector f4 [1, 4]
2.0 2.0 2.0 2.0
00000000: 0000 0040 0000 0040 0000 0040 0000 0040

network_body.observation_encoder.processors.0.normalizer.running_mean f4 [11]
30.723404 46.106384 42.468086 54.212765 10.780092 5.218789 0.5531915 0.38297874
0.36170214 0.5106383 0.0
00000000: 88c9 f541 f06c 3842 52df 2942 dfd9 5842
00000010: 427b 2c41 5200 a740 f59d 0d3f ca15 c43e
00000020: 0631 b93e 31b9 023f 0000 0000

network_body._body_endoder.seq_layers.0.weight f4 [128, 11]
-0.002294001 -0.20593175 -0.60300833 -0.1653635 -0.31009403 0.5419072 0.45745835 -0.3681688
0.06650241 0.36266348 -0.32213768 -0.2119425 -0.12912251 0.014345282 0.30817437 0.20320258
0.2618146 0.50740314 0.0151714645 0.045716867 0.41237253 -0.22711644 0.23109943 -0.08889957
0.5874761 -0.06386684 -0.28527376 -0.13752227 0.3222252 0.020865055 0.07869609 -0.51508313
0.25481704 0.6285169 -0.03510159 -0.4693208 0.3189178 0.107769884 0.17040175 -0.55918074
0.22088231 0.050900117 0.2543998 -0.32853743 -0.023267334 0.68012464 0.09038769 0.011622782
-0.30118206 -0.31205937 -0.85356116 -0.3489318 -0.22502904 0.35500252 0.6888316 0.08030721
-0.06626296 0.25465488 0.056112964 -0.42247114 0.008215466 0.057616834 0.34511256 0.1384559
0.20990369 -0.09075414 0.1621221 0.15527645 -0.24953604 -0.2258599 0.27813566 0.36409503
-0.07752944 0.30947572 -0.22984521 -0.14673246 -0.13661109 -0.36398566 -0.19674325 0.3446102
-0.098767124 0.3606592 0.26736736 0.035430975 -0.25819367 0.23994619 0.06017581 -0.336829
-0.046229884 0.28973314 0.30582845 0.020128896 0.15766303 -0.34790176 0.55479693 -0.33913553
-0.30245993 -0.3841975 0.41248697 0.07304633 0.1348324 -0.40745997 -0.16890916 0.20245728
-0.2758249 0.26275697 0.10261549 0.08337455 -0.2805936 0.089745976 -0.17433764 0.09952928
0.4308157 0.15743439 -0.12903064 0.29600793 0.025259852 -0.17128725 0.18351881 0.48280418
0.045773696 0.41586345 -0.22306131 0.144996 0.28761354 0.20951559 -0.004961338 -0.17650539
0.08527664 0.08491753 -0.0056569255 -0.45567504 0.021943653 0.48125714 -0.113860846 0.4518944
0.2793091 0.047099706 0.85972875 -0.101865105 -0.46764535 -0.19475453 0.35893133 -0.50332594
0.324802 0.21142955 0.09457611 -0.09466574 -0.15858865 -0.034474216 0.20003551 -0.26761287
0.0071105445 0.024946798 -0.07253096 -0.35321525 0.989916 -0.1690103 0.35507563 0.30713484
0.20282586 -0.25778893 -0.20238027 -0.3604685 -0.23045392 -0.080473825 -0.65415937 0.48095393
0.3599877 0.15537803 -0.22547375 0.13853134 0.4496172 -0.11083522 -0.0032645618 -0.64263994
-0.14171037 0.9177538 0.17113927 0.1899754 -0.04825706 0.39170468 -0.3601932 -0.42595407
0.22316846 0.2718949 -0.16258535 -0.090775385 0.5445495 0.049599573 0.068770416 -0.5860066
-0.36842883 0.21631296 -0.16368175 0.6957093 0.023883658 -0.07162453 0.24292159 -0.33010274
0.011585085 -0.13033797 0.36640292 -0.1496781 -0.57253695 0.30477998 0.59526896 0.23554467
0.3049965 0.5327026 -0.26287976 -0.1704354 0.14430353 0.65198773 0.25799447 0.17366095
-0.38103747 0.26892835 -0.638426 -0.4012375 0.34650323 -0.0750022 0.3446281 -0.3879922
-0.29459947 -0.130418 -0.12422933 -0.32681045 0.419599 0.28099468 -0.030310266 -0.22245403
-0.32304564 0.30853868 -0.5387746 0.39948925 0.2544051 -0.04804788 -0.7448291 0.140237
0.3439382 -0.11377491 0.31868848 -0.35561445 -0.26861677 0.00861819 0.6824283 -0.18251091
0.038538467 0.14754531 0.41484103 -0.8126055 0.13011807 0.23135681 -0.16184509 -0.5169542
00000000: f356 16bb c6df 52be c15e 1abf 0d55 29be
00000010: a5c4 9ebe 6eba 0a3f fb37 ea3e 9f80 bcbe
00000020: 6a32 883d 07af b93e 3bef a4be 7407 59be
00000030: b138 04be 7908 6b3c 08c9 9d3e 5614 503e
00000040: 900c 863e 2ce5 013f bc91 783c 9c41 3b3d
00000050: 7e22 d33e 3691 68be 54a5 6c3e fa10 b6bd
00000060: d564 163f 9ecc 82bd 670f 92be a3d2 0cbe
00000070: b4fa a43e 31ed aa3c 6a2b a13d 7ddc 03bf
00000080: 6177 823e 7ce6 203f afc6 0fbd d14a f0be
00000090: 3249 a33e 75b6 dc3d cc7d 2e3e 7826 0fbf
000000a0: f92e 623e a47c 503d b140 823e 0f36 a8be
000000b0: 239b bebc a61c 2e3f 2e1d b93d 7b6d 3e3c
000000c0: 8934 9abe 3fc6 9fbe fc82 5abf 30a7 b2be
000000d0: 036e 66be e4c2 b53e 4557 303f 1b78 a43d
000000e0: e0b4 87bd 2062 823e b5d6 653d 234e d8be
000000f0: 299a 063c a1ff 6b3d 98b2 b03e 62c7 0d3e
00000100: fef0 563e 4edd b9bd 5603 263e ca00 1f3e
00000110: 6086 7fbe d147 67be cc67 8e3e aa6a ba3e
00000120: c1c7 9ebd 9a73 9e3e 8b5c 6bbe 0941 16be
00000130: c7e3 0bbe 545c babe 1077 49be c070 b03e
00000140: 6b46 cabd 53a8 b83e 60e4 883e 1220 113d
00000150: f631 84be 74b4 753e e97a 763d da74 acbe
00000160: 8c5b 3dbd e757 943e 8c95 9c3e 5be5 a43c
00000170: 6b72 213e 2e20 b2be 2c07 0e3f 2ca3 adbe
00000180: 07dc 9abe 89b5 c4be 7e31 d33e 5099 953d
00000190: 8111 0a3e 989e d0be 86f6 2cbe f650 4f3e
000001a0: ec38 8dbe 1588 863e 1228 d23d 47c0 aa3d
000001b0: f7a9 8fbe bdcc b73d 9185 32be 02d6 cb3d
000001c0: e093 dc3e 7b36 213e 9c20 04be 5a8e 973e
000001d0: c0ed ce3c ed65 2fbe 5bec 3b3e 1c32 f73e
000001e0: 337d 3b3d 0eec d43e 2f6a 64be d579 143e
000001f0: 1542 933e 418b 563e b892 a2bb d4bd 34be
00000200: 85a5 ae3d 3ee9 ad3d bb5d b9bb 3d4e e9be
00000210: 2dc3 b33c 5667 f63e e02f e9bd b45e e73e
00000220: 9a01 8f3e 9feb 403d 2f17 5c3f a79e d0bd
00000230: 366f efbe bb6d 47be d9c5 b73e f8d9 00bf
00000240: 734c a63e fd80 583e 1fb1 c13d 1de0 c1bd
00000250: 1065 22be d634 0dbd 1cd6 4c3e 8e04 89be
00000260: 92ff e83b 3a5d cc3c 1d8b 94bd a1d8 b4be
00000270: 236b 7d3f 0911 2dbe 79cc b53e c740 9d3e
00000280: 95b1 4f3e e9fc 83be c63c 4fbe 548f b8be
00000290: 1dfc 6bbe 76cf a4bd fd76 27bf 983f f63e
000002a0: 4f50 b83e 6b1b 1f3e 97e2 66be 29db 0d3e
000002b0: 3a34 e63e 93fd e2bd 42f2 55bb 0d84 24bf
000002c0: 861c 11be eaf1 6a3f 223f 2f3e e988 423e
000002d0: 32a9 45bd 848d c83e 3e6b b8be a716 dabe
000002e0: 4686 643e cf35 8b3e c67c 26be 72e8 b9bd
000002f0: 9967 0b3f ec28 4b3d 81d7 8c3d 8704 16bf
00000300: b4a2 bcbe 2581 5d3e 309c 27be 011a 323f
00000310: a9a7 c33c e2af 92bd 70c0 783e 3a03 a9be
00000320: 5ecf 3d3c 5177 05be 2a99 bb3e 3745 19be
00000330: c891 12bf 1f0c 9c3e 8c63 183f 9f32 713e
00000340: 8028 9c3e 335f 083f 2d98 86be 9e86 2ebe
00000350: 4ec4 133e abe8 263f da17 843e 2dd4 313e
00000360: 5817 c3be fab0 893e e36f 23bf 006f cdbe
00000370: df68 b13e c19a 99bd 1873 b03e eaa6 c6be
00000380: bed5 96be 4c8c 05be f26b febd b353 a7be
00000390: aed5 d63e 89de 8f3e 3c4d f8bc fdca 63be
000003a0: 3d66 a5be c8f8 9d3e 22ed 09bf db89 cc3e
000003b0: 6341 823e dbcd 44bd 1fad 3ebf 4a9a 0f3e
000003c0: ab18 b03e d202 e9bd 232b a33e 1913 b6be
000003d0: 2388 89be 4f33 0d3c 9fb3 2e3f 24e4 3abe
000003e0: 83da 1d3d 1e16 173e 0b66 d43e ea06 50bf
000003f0: ac3d 053e cde8 6c3e b8ba 25be 1c57 04bf

network_body._body_endoder.seq_layers.0.bias f4 [128]
0.0 0.0 0.0 0.0 0.0 0.0 0.0 0.0
0.0 0.0 0.0 0.0 0.0 0.0 0.0 0.0
0.0 0.0 0.0 0.0 0.0 0.0 0.0 0.0
0.0 0.0 0.0 0.0 0.0 0.0 0.0 0.0
0.0 0.0 0.0 0.0 0.0 0.0 0.0 0.0
0.0 0.0 0.0 0.0 0.0 0.0 0.0 0.0
0.0 0.0 0.0 0.0 0.0 0.0 0.0 0.0
0.0 0.0 0.0 0.0 0.0 0.0 0.0 0.0
0.0 0.0 0.0 0.0 0.0 0.0 0.0 0.0
0.0 0.0 0.0 0.0 0.0 0.0 0.0 0.0
0.0 0.0 0.0 0.0 0.0 0.0 0.0 0.0
0.0 0.0 0.0 0.0 0.0 0.0 0.0 0.0
0.0 0.0 0.0 0.0 0.0 0.0 0.0 0.0
0.0 0.0 0.0 0.0 0.0 0.0 0.0 0.0
0.0 0.0 0.0 0.0 0.0 0.0 0.0 0.0
0.0 0.0 0.0 0.0 0.0 0.0 0.0 0.0
00000000: 0000 0000 0000 0000 0000 0000 0000 0000
00000010: 0000 0000 0000 0000 0000 0000 0000 0000
00000020: 0000 0000 0000 0000 0000 0000 0000 0000
00000030: 0000 0000 0000 0000 0000 0000 0000 0000
00000040: 0000 0000 0000 0000 0000 0000 0000 0000
00000050: 0000 0000 0000 0000 0000 0000 0000 0000
00000060: 0000 0000 0000 0000 0000 0000 0000 0000
00000070: 0000 0000 0000 0000 0000 0000 0000 0000
00000080: 0000 0000 0000 0000 0000 0000 0000 0000
00000090: 0000 0000 0000 0000 0000 0000 0000 0000
000000a0: 0000 0000 0000 0000 0000 0000 0000 0000
000000b0: 0000 0000 0000 0000 0000 0000 0000 0000
000000c0: 0000 0000 0000 0000 0000 0000 0000 0000
000000d0: 0000 0000 0000 0000 0000 0000 0000 0000
000000e0: 0000 0000 0000 0000 0000 0000 0000 0000
000000f0: 0000 0000 0000 0000 0000 0000 0000 0000
00000100: 0000 0000 0000 0000 0000 0000 0000 0000
00000110: 0000 0000 0000 0000 0000 0000 0000 0000
00000120: 0000 0000 0000 0000 0000 0000 0000 0000
00000130: 0000 0000 0000 0000 0000 0000 0000 0000
00000140: 0000 0000 0000 0000 0000 0000 0000 0000
00000150: 0000 0000 0000 0000 0000 0000 0000 0000
00000160: 0000 0000 0000 0000 0000 0000 0000 0000
00000170: 0000 0000 0000 0000 0000 0000 0000 0000
00000180: 0000 0000 0000 0000 0000 0000 0000 0000
00000190: 0000 0000 0000 0000 0000 0000 0000 0000
000001a0: 0000 0000 0000 0000 0000 0000 0000 0000
000001b0: 0000 0000 0000 0000 0000 0000 0000 0000
000001c0: 0000 0000 0000 0000 0000 0000 0000 0000
000001d0: 0000 0000 0000 0000 0000 0000 0000 0000
000001e0: 0000 0000 0000 0000 0000 0000 0000 0000
000001f0: 0000 0000 0000 0000 0000 0000 0000 0000

network_body._body_endoder.seq_layers.2.weight f4 [128, 128]
-0.15126792 0.09757693 -0.1459759 -0.047487624 -0.0036369443 -8.6356944e-05 0.044699978 -0.00039923095
0.08574023 -0.03393462 -0.00040742202 -0.040422983 -0.021725822 -0.053297475 -0.011873291 -0.0037541382
0.026706861 -0.04306836 0.008672495 0.053207576 -0.053740118 -0.11053715 0.13947834 0.06352197
-0.11451378 0.032342188 -0.050519656 -0.12274018 0.17941567 -0.09425958 -0.094249405 0.04185851
-0.11764104 0.011610505 -0.05622976 0.0074180276 0.05026264 -0.0702085 -0.06882955 0.032094233
0.15255412 0.007879618 -0.11195784 0.11093241 0.07562054 0.018804226 -0.029481407 0.15081611
0.017931888 -0.013989914 -0.02746999 0.06625152 0.09016037 0.121789135 -0.001485988 -0.05504507
0.003601899 -0.103005156 0.016618447 -0.005314302 -0.0051263818 -0.13260272 0.15053149 -0.015788874
0.013492777 0.04067475 -0.023754397 0.2566835 -0.049971823 -0.07566168 0.19252533 0.19942547
0.033990175 0.10382627 0.024583003 -0.042595524 -0.008097433 0.05543709 0.20397551 0.045615934
0.15960924 -0.08344176 0.019900132 -0.14098534 0.13975786 0.09620253 -0.121131495 -0.07286924
-0.027325373 0.064309455 -0.08795044 0.20168474 0.018631345 -0.035974264 -0.114783034 0.027445452
-0.01455253 0.0721798 -0.008030693 -0.03681912 0.08818688 0.050858796 -0.015159484 0.04659841
0.016150521 -0.046332993 0.008112453 0.0797189 -0.090249375 0.0963566 -0.0014696665 -0.021800937
-0.03382564 0.029814275 0.13780472 0.002614894 0.018307198 -0.11964136 -0.071723014 -0.090707466
-0.0036521538 -0.09699719 0.087505415 -0.0221851 0.02967603 0.4105058 -0.02830361 -0.03702913
0.12158317 -0.16554274 -0.07460378 0.04021852 0.07606163 -0.07304311 -0.105138905 -0.19587716
-0.1391964 -0.028543554 0.08988713 -0.07121232 0.073707916 -0.04690511 -0.044651 -0.007210925
-0.063045256 0.18061551 -0.024227707 0.18749021 -0.07237526 0.113494635 -0.083715595 0.042242214
0.018794041 0.07597201 0.09887931 -0.08680269 0.115842536 0.18220685 -0.08259021 -0.15207611
0.06162166 -0.018654453 0.04162309 -0.08410015 0.081401564 0.024207052 -0.06534345 0.16755211
0.025160983 -0.03849074 0.07379284 -0.023757657 -0.079873346 -0.1673674 -0.003920349 -0.07779556
0.013950953 -0.10609473 0.07984666 0.014402575 -0.08810568 0.1157219 0.023982786 -0.10032733
-0.020660458 -0.048753213 0.07484253 0.001070495 -0.008482066 -0.032223616 -0.09139643 0.02203818
0.16451441 -0.06507155 0.14827865 0.02850905 -0.026305526 0.05815557 0.0065891626 0.005647285
-0.095065765 0.10619873 0.01236965 -0.011074275 0.051976424 0.096787676 0.0075268773 -0.07578673
-0.15941024 0.017518546 0.03237191 0.020842645 0.0070227566 0.022181991 -0.12477761 -0.0052919006
-0.034727715 0.09688231 0.021616856 -0.019170208 -0.09518448 0.12296778 0.052284356 0.06177502
-0.036088914 -0.0022621977 0.062112354 -0.0665386 -0.23924752 -0.11828165 0.042726982 0.06337253
-0.02368002 0.0763127 -0.116339326 -0.1361261 0.08904727 0.015780307 -0.07123218 -0.08701047
0.09562337 -0.019473398 -0.030784488 -0.008461866 0.007889445 0.023833998 -0.16736493 0.073005624
0.2150636 -0.084241286 0.12998529 0.0051660365 0.10006678 0.018406905 0.12193385 0.034339044
00000000: fae5 1abe 6ad6 c73d b57a 15be 6282 42bd
00000010: cd59 6ebb 881a b5b8 5317 373d df4f d1b9
00000020: 9398 af3d 07ff 0abd 429b d5b9 9292 25bd
00000030: 5afa b1bc 744e 5abd 3188 42bc fd07 76bb
00000040: 59c8 da3c 7368 30bd 1517 0e3c 30f0 593d
00000050: 991e 5cbd 4d61 e2bd 69d3 0e3e ce17 823d
00000060: 3386 eabd 3e79 043d b3ed 4ebd 345f fbbd
00000070: beb8 373e 2b0b c1bd d505 c1bd d473 2b3d
00000080: c9ed f0bd fd39 3e3c 2d51 66bd ed12 f33b
00000090: 33e0 4d3d 79c9 8fbd 82f6 8cbd 3e75 033d
000000a0: 2637 1c3e 8319 013c 274a e5bd 8830 e33d
000000b0: f1de 9a3d 520b 9a3c fe82 f1bc 8a6f 1a3e
000000c0: e5e5 923c f435 65bc bf08 e1bc e0ae 873d
000000d0: 00a6 b83d 956c f93d 7cc5 c2ba f076 61bd
000000e0: d60d 6c3b 5ef4 d2bd 6923 883c 9923 aebb
000000f0: 35fb a7bb 02c9 07be ed24 1a3e ab57 81bc
00000100: cf10 5d3c 919a 263d 9598 c2bc 056c 833e
00000110: 41af 4cbd 83f4 9abd 5c25 453e 3136 4c3e
00000120: 4839 0b3d dea2 d43d 4b62 c93c a578 2ebd
00000130: 18ab 04bc 0112 633d f5de 503e c6d7 3a3d
00000140: 9b70 233e 83e3 aabd 9a05 a33c 765e 10be
00000150: af1c 0f3e d505 c53d ca13 f8bd 783c 95bd
00000160: 76d9 dfbc adb4 833d 5c1f b4bd 7286 4e3e
00000170: c3a0 983c c059 13bd 5e13 ebbd 49d5 e03c
00000180: bc6d 6ebc 01d3 933d 2b93 03bc a5cf 16bd
00000190: 539b b43d 5051 503d 7c5f 78bc f9dd 3e3d
000001a0: 194e 843c aac7 3dbd 18ea 043c aa43 a33d
000001b0: aad4 b8bd 9c56 c53d d3a1 c0ba e197 b2bc
000001c0: c18c 0abd 113d f43c ae1c 0d3e a45e 2b3b
000001d0: faf8 953c 8806 f5bd 84e3 92bd d6c4 b9bd
000001e0: f958 6fbb 76a6 c6bd 0a36 b33d 87bd b5bc
000001f0: 251b f33c d12d d23e f9dc e7bc dbab 17bd
00000200: 9900 f93d 0984 29be dec9 98bd 2dbc 243d
00000210: 33c6 9b3d a097 95bd 1153 d7bd 0694 48be
00000220: 8089 0ebe 2cd4 e9bc be16 b83d c4d7 91bd
00000230: 2df4 963d 931f 40bd f8e3 36bd a049 ecbb
00000240: df1d 81bd 46f3 383e 2f79 c6bc 6ffd 3f3e
00000250: 7b39 94bd e06f e83d 1573 abbd 2c06 2d3d
00000260: f6f5 993c 3797 9b3d 3c81 ca3d 9cc5 b1bd
00000270: da3e ed3d 6f94 3a3e 0e25 a9bd d7b9 1bbe
00000280: fe66 7c3d 39d1 98bc f97c 2a3d b33c acbd
00000290: ddb5 a63d de4d c63c c9d2 85bd c892 2b3e
000002a0: 681e ce3c 77a8 1dbd b320 973d 6b9f c2bc
000002b0: a394 a3bd 5c62 2bbe 4576 80bb 4753 9fbd
000002c0: 8a92 643c 3248 d9bd a586 a33d c7f8 6b3c
000002d0: c070 b4bd 9aff ec3d 8c77 c43c 6a78 cdbd
000002e0: 1f40 a9bc 73b1 47bd 0a47 993d da4f 8c3a
000002f0: 5df8 0abc e9fc 03bd 0d2e bbbd 6a89 b43c
00000300: 7776 283e 3c44 85bd 5cd6 173e d08b e93c
00000310: b07e d7bc 8934 6e3d e7e9 d73b dc0c b93b
00000320: d7b1 c2bd b87e d93d 13aa 4a3c e070 35bc
00000330: 3be5 543d 9e38 c63d 06a4 f63b 1336 9bbd
00000340: 703c 23be 0e83 8f3c 6898 043d 32be aa3c
00000350: 271f e63b 02b7 b53c 678b ffbd ae67 adbb
00000360: a63e 0ebd 3c6a c63d d515 b13c d70a 9dbc
00000370: 15f0 c2bd 88d6 fb3d 1f28 563d ce07 7d3d
00000380: f8d1 13bd 6141 14bb 8669 7e3d 6445 88bd
00000390: 4dfd 74be a63d f2bd 7d02 2f3d 75c9 813d
000003a0: 9afc c1bc d549 9c3d 5043 eebd a464 0bbe
000003b0: 6a5e b63d b445 813c 2de2 91bd 8c32 b2bd
000003c0: 2fd6 c33d ad86 9fbc c02f fcbc a3a3 0abc
000003d0: bb42 013c 843f c33c b661 2bbe f983 953d
000003e0: a239 5c3e b286 acbd dd1a 053e db47 a93b
000003f0: d0ef cc3d 14ca 963c 74b8 f93d 19a7 0c3d

action_model._discrete_distribution.branches.0.weight f4 [2, 128]
0.01316725 -0.01212485 -0.007641282 0.01227931 -0.0053575686 0.004674066 0.0045222356 0.013017028
0.0053745024 -0.0143538285 0.01261311 0.0024034155 0.008165293 0.015867168 -0.009360879 0.004637708
0.0065658404 -0.0054802857 -0.017821139 0.002429253 -0.0046702167 -0.015240835 0.0008527389 -0.006940804
-0.0018626594 0.0027357843 -0.0060270927 0.0028573 0.00073984935 -0.011692675 -0.012218999 -0.009670558
-0.0020020434 -0.02184656 -0.0018206034 0.00045391388 -0.0007649741 -0.010965934 -0.003619748 -0.00922222
0.018837776 0.0023710942 -0.0063748593 0.0027044748 0.0034843204 -0.0053346097 0.010345123 0.0008815134
0.0047188397 0.0022290044 -0.012267846 -0.02586991 -0.0011562173 0.0067014545 -0.0015658916 0.007181031
-0.0032599182 0.019417582 -0.007846127 -0.007379456 -0.0060842684 -0.017877147 0.0117091015 -0.007881797
-0.0015033534 0.012417616 -0.007959395 -0.020006195 -0.01151417 -0.0044453377 0.0018835443 -0.014327112
-0.006237695 0.012691279 -0.013225371 -0.003482482 -0.0066367434 0.005438134 0.018969767 0.016475914
-0.0067894715 0.0009747021 -0.0028499214 0.0010355249 -0.010737668 -0.0038728986 0.008204154 0.0088988375
-0.0015496932 0.004208614 0.004741345 -0.005260221 -0.001822366 0.020120267 -0.0069750915 0.0058566397
0.013132768 0.004847906 -0.0032438082 -0.0045711393 -0.0067301467 -0.00451221 0.011357869 -0.008191997
-0.0023732008 0.013169502 0.0034293395 -0.0076482347 0.005168401 0.00417841 -0.009077536 -0.011268269
-0.009292992 0.007544733 0.007706042 0.010672509 0.001290499 0.013942991 0.0050293594 0.0021884015
-0.002170201 0.002593622 -0.001905512 -0.005400641 -0.00037655796 0.00031745882 -0.0082780495 0.009551522
0.0010712295 -0.0025264 0.012748289 -0.0021290442 0.0069031264 -0.0034049598 -0.0013095911 0.00071672973
-0.001255199 -0.009268951 0.005159824 0.00014207266 0.013066043 0.008007268 -0.007961617 -0.00953241
0.0021877666 0.0023371717 0.0023565106 0.005109656 0.007806707 0.0035650455 -0.008301516 -0.00443854
-0.001657816 0.01030005 -0.008108374 0.006392794 -0.0003069451 -0.0066271797 0.0009358208 -0.014200418
0.023418829 -0.011255761 0.006861323 -0.0041495194 -0.0027973955 -0.0076020746 0.005876529 -0.006207694
-0.0076310337 -0.0047463053 0.0054527065 -0.0039772815 -0.0070570135 0.009942642 0.011224153 -0.010995674
-0.011667272 -0.0016610519 -0.012773092 0.009965596 0.00563148 0.011711168 -0.018854717 0.003392859
0.0044117603 0.0043636267 -0.012241089 -0.01346344 0.0019635658 -0.0016658729 0.01918345 0.0044773757
-0.0018516545 -0.009043045 -0.0020992088 0.006049096 -0.00870613 -0.007729072 0.0031722107 0.007677058
-0.018238265 0.0034462835 0.0053251367 -0.0021265305 0.0045215744 -0.0029537266 -0.00046484932 0.010298992
-0.004658658 -0.00083254505 0.014705138 0.00214738 -0.0016522398 0.0029372654 0.0032468352 -0.0061130407
-0.002261441 -0.0056193033 0.013583779 -0.0068801153 0.0056207464 0.0028078684 0.0049478547 0.0014621604
0.0016082745 -0.002138742 0.0026968683 0.0040605436 0.011746417 -0.0038359442 0.0032395662 0.00636569
0.0051559256 0.0130031435 0.010821736 -0.006851744 -0.007002093 0.009568864 0.007209826 -0.0011315295
0.007840424 0.016521286 0.0036843305 -0.00087592815 -0.008613846 0.0009942603 -0.0073519484 -0.0011601786
0.0059927437 -0.0059994627 -0.005148083 0.0026722609 -0.0035804322 -0.007842376 0.011949233 0.00818222
00000000: 73bb 573c 4fa7 46bc b863 fabb 292f 493c
00000010: 8b8e afbb e828 993b 432f 943b 5f45 553c
00000020: 981c b03b 522c 6bbc 38a7 4e3c 9f82 1d3b
00000030: b9c7 053c ddfb 813c 5f5e 19bc eaf7 973b
00000040: 4326 d73b f893 b3bb a3fd 91bc 1a34 1f3b
00000050: 9e08 99bb b2b4 79bc 578a 5f3a af6f e3bb
00000060: 7a24 f4ba d84a 333b eb7e c5bb 8a41 3b3b
00000070: 73f2 413a a292 3fbc 3232 48bc 4371 1ebc
00000080: b734 03bb 8ff7 b2bc 50a1 eeba 4afb ed39
00000090: 8b88 48ba 76aa 33bc 4b39 6dbb cb18 17bc
000000a0: ae51 9a3c 5c64 1b3b 32e4 d0bb 8f3d 313b
000000b0: 3259 643b f3cd aebb 977e 293c 5d15 673a
000000c0: 7fa0 9a3b 7d14 123b 13ff 48bc 22ed d3bc
000000d0: 378c 97ba e097 db3b 9a3e cdba db4e eb3b
000000e0: 5aa4 55bb 9f11 9f3c 0b8d 00bc 5dcf f1bb
000000f0: 8b5e c7bb 1873 92bc 88d7 3f3c a722 01bc
00000100: 2b0c c5ba 4273 4b3c 1f68 02bc 08e4 a3bc
00000110: eea5 3cbc 32aa 91bb 42e1 f63a 43bc 6abc
00000120: 9465 ccbb 15ef 4f3c 3aaf 58bc 5a3a 64bb
00000130: 0a79 d9bb 6032 b23b 7c66 9b3c 7ff8 863c
00000140: 377a debb 2783 7f3a bfc5 3abb 73ba 873a
00000150: 0bed 2fbc 75d0 7dbb b76a 063c 6ecc 113c
00000160: 131f cbba 6ae8 893b 495d 9b3b ef5d acbb
00000170: 75dc eeba 42d3 a43c 4f8f e4bb 0ee9 bf3b
00000180: d22a 573c 2fdb 9e3b 1296 54bb 7fc9 95bb
00000190: 9088 dcbb 29db 93bb 5b16 3a3c ba37 06bc
000001a0: b487 1bbb e5c4 573c c5be 603b 0b9e fabb
000001b0: b15b a93b 0beb 883b f2b9 14bc 8c9e 38bc
000001c0: a241 18bc cf39 f73b f782 fc3b bfdb 2e3c
000001d0: f625 a93a 2571 643c 53cd a43b 496b 0f3b
000001e0: ee39 0ebb c2f9 293b 5fc2 f9ba dcf7 b0bb
000001f0: c16c c5b9 9a70 a639 a8a0 07bc fd7d 1c3c
00000200: 7f68 8c3a f591 25bb 33de 503c 6f87 0bbb
00000210: 9f33 e23b bf25 5fbb 96a6 abba ebe2 3b3a
00000220: 7d85 a4ba ccdc 17bc be13 a93b 57f9 1439
00000230: f512 563c eb30 033c 7171 02bc d32d 1cbc
00000240: a260 0f3b 3c2b 193b b06f 1a3b e76e a73b
00000250: 68cf ff3b 8aa3 693b 1503 08bc 2c71 91bb
00000260: 134b d9ba 8ac1 283c fcd8 04bc a57a d13b
00000270: 79ed a0b9 d028 d9bb df51 753a dfa8 68bc
00000280: d8d8 bf3c 156a 38bc f3d4 e03b b1f8 87bb
00000290: 8254 37bb d31a f9bb e68f c03b e969 cbbb
000002a0: c00d fabb e586 9bbb 9eac b23b db53 82bb
000002b0: 853e e7bb 77e6 223c 83e5 373c 3327 34bc
000002c0: 1628 3fbc a7b7 d9ba 3b46 51bc bd46 233c
000002d0: 4788 b83b 33e0 3f3c 3575 9abc ba5a 5e3b
000002e0: 8790 903b c1fc 8e3b d98e 48bc c395 5cbc
000002f0: 2baf 003b 6b59 daba 9c26 9d3c f3b6 923b
00000300: 37b3 f2ba 4829 14bc e192 09bb 7f37 c63b
00000310: 28a4 0ebc 2844 fdbb dde4 4f3b d58f fb3b
00000320: 6a68 95bc 0bdb 613b 7c7e ae3b 435d 0bbb
00000330: b729 943b 4f93 41bb 05b7 f3b9 1abd 283c
00000340: a8a7 98bb 273f 5aba d2ed 703c 0fbb 0c3b
00000350: f88f d8ba 237f 403b dbc8 543b e74f c8bb
00000360: af34 14bb 2222 b8bb 808e 5e3c 9772 e1bb
00000370: 3d2e b83b 3704 383b 9d21 a23b f6a5 bf3a
00000380: bdcc d23a 232a 0cbb f1bd 303b 4f0e 853b
00000390: 0b74 403c 7764 7bbb e74e 543b 4797 d03b
000003a0: 0af3 a83b 230b 553c a74d 313c 9884 e0bb
000003b0: d071 e5bb b9c6 1c3c 6740 ec3b d44f 94ba
000003c0: 1f75 003c a657 873c cf74 713b 8b9e 65ba
000003d0: 1721 0dbc d751 823a 9de8 f0bb 2211 98ba
000003e0: c75e c43b 2497 c4bb 40b1 a8bb 1921 2f3b
000003f0: afa5 6abb 4f7d 00bc b7c6 433c b80e 063c

action_model._discrete_distribution.branches.0.bias f4 [2]
0.0 0.0
00000000: 0000 0000 0000 0000

action_model._discrete_distribution.branches.1.weight f4 [2, 128]
0.0033354876 -0.007033564 -0.0049767448 -0.009269904 -0.003684908 -0.0007540568 0.0019650483 0.024721585
-0.012014925 -0.002475088 -0.004228786 -0.0066163824 0.0062625515 0.0054383776 -0.007568821 -0.0027331514
-0.017322052 0.0070287385 0.012670681 0.0023893 0.0010591927 0.0054991124 0.013085142 0.001992684
0.010591484 0.0144585585 0.0018193892 -0.0037086573 -0.019098645 0.0028700873 -0.004472399 -0.0018409055
0.0058698556 -0.00037497425 -0.0019239793 0.0038762079 0.0015391696 0.0070816786 0.00013351165 -0.0005146447
2.4906913e-05 -0.0014273382 0.0059632547 0.004169164 -0.008779363 0.0062545436 -0.0042208405 0.0014841082
-0.0037218344 0.0027388928 -0.0034429778 0.006976165 0.0047397967 -0.0005887143 -0.005446128 -0.007724911
0.022981796 0.0035711434 0.006204953 -0.01040712 0.020946644 -0.0023740472 -0.0018070791 0.0018189502
-0.00018909454 0.009333367 -0.011837895 -0.008359763 0.009992816 -0.01085101 -0.016858583 -0.012306831
0.0032178604 -0.0016865898 -0.008136467 -0.0045949537 -0.0050698384 0.010883054 0.010079603 -0.0044399514
-0.008632011 -0.002265424 -0.004720818 -0.009185266 -0.02165106 0.003368364 0.0010132807 -0.00971848
0.007229332 0.014175074 0.0034172684 0.0034108218 0.015026226 0.007820509 0.008507033 0.0038449732
0.0013026398 -0.0030866507 0.010239607 0.009308338 -0.005815467 -0.0038793308 0.0072088838 -0.01077178
0.016493516 -0.014555967 0.0004132134 -0.0121026 0.019843834 -0.0020780168 -0.012655011 0.0056001875
-0.0149141075 -0.017932085 -0.001578682 -0.013262262 0.0015300453 -0.00084746064 0.017335555 -0.0008549645
0.0054980223 0.019275872 -0.012337036 -0.010748546 -0.008063254 -0.017150622 -0.0076001002 0.0024005247
-0.0067968774 -0.009449568 -0.012265344 -1.7795566e-05 -0.002918291 0.002121567 0.006644179 -0.0024501157
-0.012567733 0.013530078 -0.0002668316 -0.0099573685 -0.021993542 -0.007903895 -0.01065968 0.0042103683
-0.00095992594 0.0006626007 0.01253582 -0.0007340932 -0.0011463057 -0.014432713 -0.0043280274 -0.008665238
-0.007475099 -0.0036363632 0.014246392 -0.014356329 0.014951571 0.0015906412 0.01158598 -0.009545605
0.006600088 0.012123215 0.02426443 0.0061135185 0.0047682105 0.00012146196 -0.0033911706 0.004231877
0.007234716 0.0056653004 -0.0065586693 -0.0043351925 0.0024741988 0.00084366614 -0.00729969 -0.006424808
-0.008308098 -0.0012614847 -0.0053862203 -0.007989957 -0.0025419681 0.010587048 0.008532773 0.011210098
0.00483338 0.0028304735 -0.004322443 -0.0010185889 -0.012897866 -0.0038424458 0.015328388 -0.0007678154
-0.010751552 -0.029412255 -0.0073863263 0.002132506 0.0043475446 -0.0086398 -0.012927929 -0.0012705053
-0.0011607903 -0.00082892267 0.0070078517 -0.03262951 -0.008548922 0.00637907 -0.0057526077 -0.0075627947
0.004066938 0.006295161 -0.0039116032 0.010004465 0.014529741 -0.008523314 0.008591368 -0.012286652
-0.009263559 0.005559287 -0.006246229 0.01356329 0.017561203 -0.0044142506 -9.429975e-05 -5.4133183e-05
-0.003505157 0.0040362542 0.004425222 -0.0133916885 0.011954621 -0.0029662058 -3.5834288e-05 0.0055478304
0.010728192 -0.0011149499 -0.0014815077 -0.0032712899 0.0024861274 -0.008081034 -0.010559213 -0.0054922975
0.0071124765 -0.008378758 -0.0035859577 0.003045269 -0.017490117 -0.0060773245 0.007972862 -0.010257482
-0.0077002975 -0.006086899 0.0006486051 0.0019598012 -0.010887071 0.020412358 -0.0052745454 -0.013042602
00000000: 3298 5a3b d079 e6bb f613 a3bb cce0 17bc
00000010: 7f7e 71bb e5ab 45ba 0ac8 003b ec84 ca3c
00000020: 3fda 44bc 1635 22bb a191 8abb 3dce d8bb
00000030: 1736 cd3b 6b34 b23b df03 f8bb ac1e 33bb
00000040: fae6 8dbc 5551 e63b b098 4f3c cd95 1c3b
00000050: 9cd4 8a3a e631 b43b 1063 563c b197 023b
00000060: e787 2d3c 97e3 6c3c 9278 ee3a f20c 73bb
00000070: c374 9cbc 1318 3c3b 348d 92bb 8a4a f1ba
00000080: eb57 c03b 3198 c4b9 082e fcba fa07 7e3b
00000090: f6bd c93a 6d0d e83b 43ff 0b39 39e9 06ba
000000a0: 30ef d037 8615 bbba 6867 c33b 7c9d 883b
000000b0: 51d7 0fbc eaf2 cc3b fa4e 8abb 6886 c23a
000000c0: 05ea 73bb ff7e 333b 95a3 61bb 5098 e43b
000000d0: 4c50 9b3b f353 1aba 6f75 b2bb 4021 fdbb
000000e0: 5244 bc3c d809 6a3b eb52 cb3b a082 2abc
000000f0: 4c98 ab3c e795 1bbb 83db ecba d769 ee3a
00000100: ae47 46b9 fbea 183c bbf3 41bc 63f7 08bc
00000110: e8b8 233c 6fc8 31bc 031b 8abc 97a2 49bc
00000120: bde2 523b 9010 ddba d14e 05bc 4491 96bb
00000130: e320 a6bb d64e 323c eb24 253c 037d 91bb
00000140: 476d 0dbc 8277 14bb 17b1 9abb cc7d 16bc
00000150: 905d b1bc c5bf 5c3b 0fd0 843a 423a 1fbc
00000160: 08e4 ec3b 923e 683c 40f4 5f3b 1888 5f3b
00000170: 8f30 763c 9821 003c 1561 0b3c f2fb 7b3b
00000180: 57bd aa3a 6849 4abb 06c4 273c 0082 183c
00000190: ac8f bebb 5f3c 7ebb 8038 ec3b 1f7c 30bc
000001a0: 691d 873c 277c 6ebc 90a4 d839 fc49 46bc
000001b0: 898f a23c 562f 08bb f756 4fbc c781 b73b
000001c0: 4d5a 74bc 4fe6 92bc c7eb ceba f549 59bc
000001d0: cd8b c83a 1f28 5eba 4b03 8e3c b21f 60ba
000001e0: c128 b43b 6fe8 9d3c 4821 4abc ab1a 30bc
000001f0: bd1b 04bc 767f 8cbc 430a f9bb 1f52 1d3b
00000200: 57b8 debb 5cd2 1abc 95f4 48bc b047 95b7
00000210: cc40 3fbb fd09 0b3b 6ab7 d93b 1f92 20bb
00000220: e5e8 4dbc 43ad 5d3c 88e5 8bb9 3b24 23bc
00000230: cd2b b4bc 577f 01bc f0a5 2ebc 21f7 893b
00000240: 8aa3 7bba 61b2 2d3a 0a63 4d3c 2970 40ba
00000250: a33f 96ba 3077 6cbc 20d2 8dbb a4f8 0dbc
00000260: adf1 f4bb 0d50 6ebb b369 693c cf36 6bbc
00000270: 6ff7 743c 107d d03a 1fd3 3d3c 2b65 1cbc
00000280: 8d45 d83b 73a0 463c 33c6 c63c e953 c83b
00000290: a63e 9c3b 65b9 fe38 673e 5ebb 8fab 8a3b
000002a0: 3211 ed3b fca3 b93b 1bea d6bb 3b0e 8ebb
000002b0: 2b26 223b 7a29 5d3a 3d32 efbb 3287 d2bb
000002c0: b01e 08bc 6758 a5ba e47e b0bb 4fe8 02bc
000002d0: 2697 26bb 4c75 2d3c 0bcd 0b3c 8faa 373c
000002e0: 5561 9e3b 777f 393b 48a3 8dbb 2c82 85ba
000002f0: 9251 53bc 8bd1 7bbb eb23 7b3c 3847 49ba
00000300: 4727 30bc f8f1 f0bc ff08 f2bb 84c1 0b3b
00000310: d975 8e3b f38d 0dbc aacf 53bc 1587 a6ba
00000320: a925 98ba 0f4c 59ba 1fa2 e53b 85a6 05bd
00000330: c710 0cbc 8507 d13b 5f80 bcbb 52d1 f7bb
00000340: f343 853b a347 ce3b e82c 80bb c4e9 233c
00000350: 270e 6e3c 5fa5 0bbc cfc2 0c3c f44d 49bc
00000360: 2fc6 17bc ae2a b63b 2bad ccbb 9038 5e3c
00000370: 83dc 8f3c 6ba5 90bb cbc2 c5b8 100d 63b8
00000380: c7b6 65bb 8e42 843b 7401 913b d068 5bbc
00000390: 51dd 433c ad64 42bb c64c 16b8 93ca b53b
000003a0: 4cc5 2f3c 8323 92ba 262f c2ba 2363 56bb
000003b0: 4cee 223b 5066 04bc 8d00 2dbc bbf8 b3bb
000003c0: c70f e93b 0f47 09bc 6302 6bbb 2393 473b
000003d0: 6f47 8fbc 4b24 c7bb 9ba0 023c ff0e 28bc
000003e0: c752 fcbb 9c74 c7bb 2707 2a3a 0270 003b
000003f0: af5f 32bc d137 a73c 18d6 acbb a3b0 55bc

action_model._discrete_distribution.branches.2.weight f4 [2, 128]
0.0029548523 0.0061272657 0.015161221 0.023889069 0.00475982 0.00017107507 -0.004422198 -0.009665588
0.008133537 0.015324495 -0.008971377 0.0045192777 -0.0096868565 0.003057721 -0.0022579327 0.0013324434
0.0069384873 0.006444575 0.006748248 -1.8975861e-05 -0.005861924 0.009080553 0.010090661 -0.006073185
-0.021625003 0.02039101 -0.0049226317 -0.008438382 0.015391226 -0.015916176 -0.017119667 -0.0026107756
0.0014892604 -0.006941128 0.008632769 -0.0055759237 -0.004170079 0.003407343 0.008364333 0.004263081
-0.004591492 0.008527599 0.00594481 -0.0042495853 -0.010221462 0.0066836686 0.021511585 0.0035192561
-0.0019041374 0.0037956205 -0.0065636123 -0.00079774123 -0.0038844675 -0.0011908038 0.02250392 -0.014201981
0.0030371263 -0.0027900764 0.0192509 -0.018589718 -0.0045590703 0.011545443 -0.008767381 0.009892092
-0.002425011 0.0012078085 -0.004717451 0.011057124 0.0063785845 0.0062442557 -0.010628979 0.0050780177
-0.0029824066 0.007894419 0.0049470854 0.0031166337 0.007075786 0.0062715793 0.0054960777 0.00796713
0.012689561 -0.00829476 -0.003921179 -0.0013435701 -0.016206898 -0.0039032616 0.0065324153 -0.0034635842
-0.0018320064 0.008113145 0.0039963145 0.0118342815 -0.012610571 0.0048595793 -0.014835571 -0.0032678356
-0.0017138015 -0.008438452 0.008518483 -0.0055510597 -0.020942438 -0.008586543 0.009074076 0.003865622
-5.1660645e-05 -0.01010732 0.00515078 -0.005796801 0.011172172 -0.013155817 -0.011226059 0.012797425
0.005822103 0.0037106816 -0.007140881 -0.00045663872 0.008005257 0.0055846283 -0.0099965045 0.006694158
0.0025820811 0.00056724326 -0.0058498564 -0.0078118443 -0.00026151657 0.01353608 0.0017220144 -0.0024158554
0.0044548265 0.005267846 -0.004814918 0.0034768898 -0.0025117442 -0.0017028019 0.00399228 -0.0027165187
0.00095813716 0.009860413 0.002525299 -0.0015894932 -0.0044904123 -0.015292861 -0.01659139 0.016206423
0.006991385 0.001746702 -0.0046970285 -0.004845561 -0.015822152 0.014361647 -0.0066849673 -0.016393924
0.009038555 -0.0023501492 -0.016489765 -0.00087309367 -0.0072195427 0.010741567 -0.0115895895 -0.010765205
-0.00833417 -0.011294333 0.00027807223 0.010668619 -0.0011976085 0.0014795935 -0.004346074 -0.015253739
0.00014222416 0.0046057357 -0.0049100015 -0.008773296 -0.022274664 0.0070769205 0.015447634 0.009271453
-0.0005215436 -0.0076087527 0.0016380731 -0.0053397627 -0.012324434 -0.022552127 0.0054888106 0.009352916
0.01186539 -0.007932468 0.009608488 -0.00926312 0.012632839 -0.004630028 -0.0059015537 -0.0014161225
0.014407563 0.0046414575 0.011187428 -0.0007519535 -0.011953263 -0.0028671876 0.0010069369 -0.0086970525
-0.012371389 -0.008629913 0.0028273554 0.0002255478 0.006037331 -0.0050273086 0.009384381 -0.0015139873
-0.0046379287 0.007262708 0.011313132 -0.004004926 8.762372e-05 0.0063114087 -0.004937957 -0.00982728
-0.006393599 0.016104428 0.0074596065 -0.0046642013 0.004636854 0.01724591 0.0010523403 -0.004592447
-0.0125704575 -0.0027961282 -0.010312893 0.010382194 9.549418e-07 0.0074170954 -0.01422442 -0.015324095
0.01198262 -0.0047491174 -0.0061045415 0.00032944145 -0.016278464 -0.0026847338 0.00952534 -0.013251883
0.010578037 0.0048584347 -0.00041158177 0.002946667 -0.00745741 -0.004838634 0.0055550393 0.0055499035
-0.013168528 -0.0038147455 -0.0065541724 0.004785051 0.00067568495 -0.0054071317 0.00773237 -0.009982657
00000000: 32a6 413b 3bc7 c83b c566 783c 02b3 c33c
00000010: 44f8 9b3b 9d62 3339 16e8 90bb 6a5c 1ebc
00000020: 8742 053c 9713 7b3c affc 12bc 7316 943b
00000030: 9fb5 1ebc 0c64 483b d3f9 13bb 62a5 ae3a
00000040: 405c e33b 032d d33b 6820 dd3b 5a2e 9fb7
00000050: 6215 c0bb 9ac6 143c 4d53 253c 9101 c7bb
00000060: eb26 b1bc 0c0b a73c 074e a1bb 2441 0abc
00000070: 7b2b 7c3c a462 82bc 8b3e 8cbc 8c19 2bbb
00000080: 4933 c33a 6772 e3bb 7570 0d3c 3db6 b6bb
00000090: 28a5 88bb bb4d 5f3b 8e0a 093c 51b1 8b3b
000000a0: 3a74 96bb 58b7 0b3c aecc c23b 1b40 8bbb
000000b0: eb77 27bc ad02 db3b 1039 b03c 52a3 663b
000000c0: 4094 f9ba f2bf 783b 9213 d7bb 821f 51ba
000000d0: 8d92 7ebb bf14 9cba 245a b83c 6daf 68bc
000000e0: 860a 473b b7d9 36bb 10b4 9d3c 7749 98bc
000000f0: 4164 95bb 1929 3d3c 10a5 0fbc 7112 223c
00000100: efec 1ebb 544f 9e3a d994 9abb f028 353c
00000110: 7203 d13b 9d9c cc3b 2b25 2ebc 8065 a63b
00000120: 7b74 43bb 9857 013c 291b a23b 7040 4c3b
00000130: ffdb e73b d281 cd3b 7118 b43b 9188 023c
00000140: e0e7 4f3c bfe6 07bc 3c7d 80bb bb1a b0ba
00000150: 54c4 84bc ddcd 7fbb df0d d63b 4dfd 62bb
00000160: ef1f f0ba ffec 043c 84f3 823b 93e4 413c
00000170: 929c 4ebc 1b3d 9f3b e510 73bc 2f29 56bb
00000180: a3a1 e0ba 6f41 0abc 1b91 0b3c aae5 b5bb
00000190: 7a8f abbc 92ae 0cbc 6fab 143c 6056 7d3b
000001a0: 32ae 58b8 2c99 25bc e0c7 a83b 17f3 bdbb
000001b0: 7c0b 373c 7f8b 57bc 81ed 37bc 4aac 513c
000001c0: 57c7 be3b e82e 733b 0dfe e9bb 0369 efb9
000001d0: 7b28 033c 42ff b63b 61c8 23bc ab5a db3b
000001e0: 2238 293b 0db3 143a 27b0 bfbb 80fa ffbb
000001f0: 291c 89b9 6fc6 5d3c 37b5 e13a 5453 1ebb
00000200: cbf9 913b e59d ac3b 76c6 9dbb 88dc 633b
00000210: 139c 24bb 8d30 dfba acd1 823b 9f07 32bb
00000220: 7f2b 7b3a 928d 213c 7d7f 253b 8b56 d0ba
00000230: 4f24 93bb e88e 7abc abea 87bc 55c3 843c
00000240: fd17 e53b 98f1 e43a 88e9 99bb 83c7 9ebb
00000250: 759d 81bc 1d4d 6b3c 920d dbbb 8d4c 86bc
00000260: 7316 143c f604 1abb 8b15 87bc 53e0 64ba
00000270: ea91 ecbb 66fd 2f3c 43e2 3dbc 8b60 30bc
00000280: 0b8c 08bc de0b 39bc 39ca 9139 6ecb 2e3c
00000290: 13f9 9cba ebee c13a 8369 8ebb d2ea 79bc
000002a0: 0222 1539 b6eb 963b 14e4 a0bb dfbd 0fbc
000002b0: 5b79 b6bc 83e5 e73b 1318 7d3c 4be7 173c
000002c0: 33b8 08ba d852 f9bb 9db4 d63a 2df9 aebb
000002d0: 6cec 49bc 3dbf b8bc 7bdb b33b f93c 193c
000002e0: 0e67 423c 2ff7 01bc eb6c 1d3c 57c4 17bc
000002f0: f8f9 4e3c 7db7 97bb d261 c1bb 309d b9ba
00000300: b30d 6c3c 5e17 983b 794b 373c bf1e 45ba
00000310: 9ed7 43bc 6de7 3bbb 32fb 833a 157e 0ebc
00000320: 5eb1 4abc 7b64 0dbc 274b 393b 0781 6c39
00000330: ced4 c53b 1fbc a4bb f2c0 193c fc70 c6ba
00000340: c4f9 97bb 03fc ed3b b75a 393c c13b 83bb
00000350: a0c2 b738 efcf ce3b 96ce a1bb 9a02 21bc
00000360: 6581 d1bb 6fed 833c b76f f43b 28d6 98bb
00000370: c0f0 973b 4b47 8d3c aeee 893a 3d7c 96bb
00000380: 52f4 4dbc 3f3f 37bb 69f7 28bc 141a 2a3c
00000390: 8d2b 8035 1b0b f33b 8b0d 69bc ea11 7bbc
000003a0: c052 443c 7c9e 9bbb 9b08 c8bb e2b8 ac39
000003b0: 6a5a 85bc 5cf2 2fbb 2c10 1c3c 6d1e 59bc
000003c0: 814f 2d3c 8133 9f3b 92c9 d7b9 de1c 413b
000003d0: 4a5d f4bb 678d 9ebb 0c07 b63b f7db b53b
000003e0: cfc0 57bc cf00 7abb 62c4 d6bb ebcb 9c3b
000003f0: 7320 313a 4f2e b1bb d25f fd3b 4c8e 23bc

action_model._discrete_distribution.branches.3.weight f4 [2, 128]
-0.0035697357 -0.008478237 0.013635607 -0.0025227454 -0.0025450976 -0.008779889 -0.010542207 0.0010264616
0.00033442027 -0.014668487 -0.010509531 0.013157685 -0.010578666 0.0036600255 -0.0062597417 -0.013462721
-0.0026500886 -0.01121953 -0.003621539 -0.00020760638 -0.002204297 -0.012579488 -0.0020236536 -0.0014272355
-0.01226139 0.003855311 -0.015327023 -0.018497018 0.0008252027 0.0025884074 -0.01945357 0.000857345
0.0017834626 -0.006745988 0.0060570464 -0.004371205 -0.0034627672 -0.005633511 -0.014357537 0.010832111
-0.007192337 -0.013812288 0.006249676 -0.009614164 0.0011397052 0.006005642 -0.008449873 0.0011117113
-0.002949795 -0.013601333 -0.0015024784 -0.014152718 0.001160078 -5.78179e-05 2.0304526e-05 -0.007503128
0.01448107 -0.0115483245 -0.008618905 -0.015950978 -0.011986407 -0.009976289 -0.013017828 0.002093364
0.00044967746 0.004209872 -0.014209605 -0.013480082 0.010837142 0.009512729 -0.023520226 -0.00045848312
-0.0068693473 0.0039234697 0.0006688099 0.0052749105 -0.00069026527 0.0028375478 0.0064319945 -0.010337148
0.008677534 0.008220038 0.004313648 0.0071169226 0.0007345564 0.0067194956 0.013770818 -0.00076740136
0.0042404984 -0.006574176 -0.007258614 0.008123782 -0.002715263 -0.0011411401 -0.011030005 -0.010221595
-0.0148843005 0.0018083378 0.010966173 0.00059013563 0.01591803 -0.009668158 0.00059027935 -0.006747294
0.01164148 -0.014593749 0.009083353 -0.005340289 0.0013715414 -0.011396753 0.0055838926 -0.0061027235
-0.0051271897 -0.0050587035 0.004402394 0.0035890422 -0.005483888 -0.0011019014 0.006344261 0.014000717
-0.0005531126 0.005269799 0.00415972 0.007720351 -0.0060461285 0.00498542 0.010411791 0.0022042303
0.007800653 -0.009607577 -0.019892631 0.0032460762 -0.0065150126 0.016897922 0.001420989 0.017708076
0.009028924 0.0054101082 0.0055828337 0.00023886927 0.0005605912 0.0015249265 -0.006816748 -0.0005968411
0.00540936 -0.020136857 -0.006937209 -0.0016255826 0.022081114 -0.015311231 -0.005818474 -0.0014429333
0.009241371 0.0005422583 -0.0013402862 0.010727356 -0.01421187 0.0069180205 0.006576009 -0.012799856
0.012016395 -0.005225742 -0.005658369 -0.0011819314 -0.018974107 0.005921442 0.0053225625 0.0117675
-0.008004135 0.0054836306 -0.00048872846 0.005204816 0.004689425 -0.008356154 -0.008354659 -0.00016567901
-0.019791806 0.027744005 -0.0090466365 0.011640791 -0.006580462 0.004579793 -0.0014752672 0.0057198657
-0.0122185415 0.020453187 0.01722203 -0.0069684335 0.005014164 0.0026260333 0.008651614 0.009918338
-0.005633183 -0.011255121 0.008697455 0.006117631 0.0022655856 0.0031614527 -0.012634237 -0.0021142222
-0.0031707592 -0.0046140617 -0.004370175 0.004679674 0.0064091953 -0.020813568 -0.00937882 -0.011606496
-0.015098223 0.0026367237 0.011971563 0.0004082464 0.003685817 0.001216866 -0.0036359509 0.015981993
-0.00026546314 0.00033135488 -0.00076902146 -0.0029770003 0.0137638375 0.011933757 -0.0052472875 -0.00055774656
0.0006610997 0.005774801 0.0066212416 -0.0041697803 0.017536238 0.003543986 0.0009541749 -0.0028832813
-0.012416794 0.0021328488 0.0040490944 -0.007203184 0.0046581407 0.0005467793 0.00035893524 0.010663094
0.004016216 -0.005134163 -0.016640374 0.007348418 -0.014055868 -0.0029798278 -0.0014907504 -0.012473002
-0.0040980927 0.001764507 -0.0031122502 0.008779624 0.0070727193 -0.0038262166 0.018206982 -0.01786788
00000000: 3af2 69bb 4ee8 0abc e267 5f3c a554 25bb
00000010: a7cb 26bb 86d9 0fbc 39b9 2cbc 568a 863a
00000020: 2155 af39 1854 70bc 2b30 2cbc 5593 573c
00000030: 2452 2dbc 0add 6f3b 851e cdbb bf92 5cbc
00000040: 1cad 2dbb 1fd2 37bc 5857 6dbb eab0 59b9
00000050: f875 10bb 321a 4ebc 469f 04bb 1412 bbba
00000060: ffe3 48bc 63a9 7c3b 321e 7bbc 0f87 97bc
00000070: 6a52 583a 45a2 293b 185d 9fbc 73bf 603a
00000080: 13c3 e93a 730d ddbb 307a c63b 533c 8fbb
00000090: 98ef 62bb 5199 b8bb e03b 6bbc 2b79 313c
000000a0: b2ad ebbb ef4c 62bc 15ca cc3b ba84 1dbc
000000b0: 2962 953a faca c43b 5671 0abc d7b6 913a
000000c0: 5951 41bb 20d8 5ebc cfee c4ba cde0 67bc
000000d0: c20d 983a 7f81 72b8 a353 aa37 cddc f5bb
000000e0: 0342 6d3c 2f35 3dbc 4f36 0dbc a0ab 82bc
000000f0: a362 44bc 9773 23bc ba48 55bc d230 093b
00000100: b0c2 eb39 f7f2 893b 67cf 68bc 90db 5cbc
00000110: 458e 313c 47db 1b3c 7dad c0bc 9060 f0b9
00000120: 4318 e1bb 7390 803b 1353 2f3a 28d9 ac3b
00000130: ebf2 34ba 27f6 393b 7bc3 d23b 245d 29bc
00000140: 372c 0e3c 57ad 063c 8159 8d3b 1335 e93b
00000150: 3f8f 403a 372f dc3b ff9e 613c 6f2b 49ba
00000160: e1f3 8a3b 2f6c d7bb abd9 edbb 9d19 053c
00000170: 8ef2 31bb 4f92 95ba 32b7 34bc 7a78 27bc
00000180: 48dd 73bc bf05 ed3a 77ab 333c 55b3 1a3a
00000190: 8766 823c 3267 1ebc fabc 1a3a 6818 ddbb
000001a0: e8bb 3e3c 9f1a 6fbc 58d2 143c 97fd aebb
000001b0: 4bc5 b33a 72b9 3abc 16f9 b63b 5bf9 c7bb
000001c0: fc01 a8bb 7bc3 a5bb f541 903b 2336 6b3b
000001d0: 30b2 b3bb ad6d 90ba 85e3 cf3b 4363 653c
000001e0: c2fe 10ba 47ae ac3b 434e 883b 00fb fc3b
000001f0: 9a1e c6bb bc5c a33b 3796 2a3c d974 103b
00000200: 9f9c ff3b 1969 1dbc dff5 a2bc 1fbc 543b
00000210: e37b d5bb 836d 8a3c 7b40 ba3a 8710 913c
00000220: 0dee 133c 4747 b13b 34f0 b63b fb78 7a39
00000230: a3f4 123a 0be0 c73a 075f dfbb 5475 1cba
00000240: 0041 b13b 0df6 a4bc 8751 e3bb 8011 d5ba
00000250: 74e3 b43c f5db 7abc e6a8 bebb cf20 bdba
00000260: 1f69 173c 5726 0e3a 8bac afba cbc1 2f3c
00000270: e7d8 68bc 90b0 e23b 907b d73b 7db6 51bc
00000280: 6ae0 443c b33c abbb d769 b9bb 09eb 9aba
00000290: 966f 9bbc a808 c23b e468 ae3b 79cc 403c
000002a0: c723 03bc 07b0 b33b 031e 00ba 298d aa3b
000002b0: c0a9 993b 40e8 08bc fbe1 08bc 1fba 2db9
000002c0: 6d22 a2bc 6547 e33c 5838 14bc 04b9 3e3c
000002d0: eba0 d7bb 1712 963b c15d c1ba b66d bb3b
000002e0: 4730 48bc 718d a73c 3715 8d3c 7557 e4bb
000002f0: db4d a43b 8719 2c3b 80bf 0d3c 8680 223c
00000300: 9096 b8bb 6667 38bc c57f 0e3c 6976 c83b
00000310: 387a 143b 6030 4f3b d5ff 4ebc c38e 0abb
00000320: 83cc 4fbb 8e31 97bb af33 8fbb f357 993b
00000330: 3a04 d23b 3781 aabc 9fa9 19bc 2c29 3ebc
00000340: 8a5e 77bc e2cc 2c3b 6024 443c e709 d639
00000350: bf8d 713b 3f7f 9f3a 2249 6ebb abec 823c
00000360: dc2d 8bb9 b3b9 ad39 2898 49ba c719 43bb
00000370: b881 613c ce85 433c 70f1 abbb bd35 12ba
00000380: a64d 2d3a 8b3a bd3b 00f7 d83b a7a2 88bb
00000390: 28a8 8f3c 3842 683b 9821 7a3a 6ff5 3cbb
000003a0: cf6f 4bbc 44c7 0b3b 44ae 843b b008 ecbb
000003b0: 51a3 983b bd55 0f3a 792f bc39 42b4 2e3c
000003c0: 769a 833b 7b3c a8bb 6551 88bc ffca f03b
000003d0: 954a 66bc 3749 43bb 4865 c3ba 905b 4cbc
000003e0: 4b49 86bb 0847 e73a e5f6 4bbb 69d8 0f3c
000003f0: 45c2 e73b 43c1 7abb cf26 953c a95f 92bc

onnx::Div_100 f4 [11]
23.513874 26.924427 28.670803 37.712482 4.843681 2.372397 0.518119 0.507526
0.50214565 0.52073354 0.145865
00000000: 6a1c bc41 3a65 d741 ce5d e541 95d9 1642
00000010: 6fff 9a40 5ad5 1740 72a3 043f 39ed 013f
00000020: 9e8c 003f cb4e 053f a25d 153e
