Assets/results/traffic-control/TrafficLightBrain/TrafficLightBrain-842.onnx (onnx, 88715 bytes, 11 tensors)

discrete_act_size_vector f4 [1, 4]
0	0x40000000	2.0
1	0x40000000	2.0
2	0x40000000	2.0
3	0x40000000	2.0

network_body.observation_encoder.processors.0.normalizer.running_mean f4 [11]
0	0x420831ce	34.048637
1	0x41d5c2aa	26.72005
2	0x41f5fa88	30.74733
3	0x41c19a93	24.200476
4	0x41a766f0	20.925262
5	0x407807e1	3.875481
6	0x3f01ab95	0.5065244
7	0x3f08f55e	0.534994
8	0x3ef11eac	0.47093713
9	0x3ef4c391	0.47805455
10	0x00000000	0.0

network_body._body_endoder.seq_layers.0.weight f4 [128, 11]
0	0xbce3b866	-0.027797889
1	0xbd2bf3d5	-0.041980583
2	0x3f22dc97	0.63617843
3	0x3ce04dc9	0.02738084
4	0x3e871fcb	0.26391444
5	0x3d4b3bdf	0.049617644
6	0xbd9532f2	-0.07285108
7	0xbcf4dd5f	-0.029890714
8	0x3ef37788	0.47552133
9	0x3e86bf5a	0.26317865
10	0x3e7b8521	0.24562503
11	0x3e497cdb	0.19676535
12	0xbec0d622	-0.3766337
13	0x3ecf58fc	0.40497577
14	0x3efd9d12	0.49533898
15	0xbee1316b	-0.43983015
16	0xbe12e447	-0.14344893
17	0xbcba3540	-0.02273047
18	0xbd9ad6db	-0.07560512
19	0xbef023fd	-0.46902457
20	0xbe572369	-0.21009602
21	0x3f28e75f	0.65978044
22	0x3e86e7fe	0.2634887
23	0xbf4142d6	-0.7549261
24	0x3de6c373	0.11267748
25	0x3e12d1fc	0.14337915
26	0x3d969d2d	0.07354198
27	0xbddac30a	-0.10681732
28	0xbd10861f	-0.035284158
29	0xbe681869	-0.22665562
30	0x3e5d3c25	0.21604975
31	0x3dc1b499	0.094582744
32	0xbc5b8682	-0.013398768
33	0x3e989259	0.29799154
34	0x3e130fee	0.14361545
35	0xbea9afd3	-0.33141956
36	0x3db2a005	0.087219276
37	0x3dafd0c3	0.0858474
38	0xbe360c96	-0.17778239
39	0x3d136c21	0.03599179
40	0x3f1143c9	0.56744057
41	0x3e94b705	0.29045883
42	0xbdc14eb8	-0.094388425
43	0xbeb4a458	-0.35281634
44	0xbeafa761	-0.34307387
45	0xbee9064f	-0.45512626
46	0xbdf9654d	-0.12177525
47	0x3dae96f8	0.08524889
48	0x3ee48889	0.44635418
49	0x3f0367de	0.51330364
50	0x3c34a2dc	0.011025157
51	0xbe8e7647	-0.27824613
52	0x3e89577f	0.26824567
53	0xbec1f9fe	-0.3788604
54	0xbe8a90ff	-0.27063748
55	0xbe854b98	-0.26034236
56	0xbe87d9df	-0.2653341
57	0x3df3ef57	0.11910885
58	0x3e82c510	0.25540972
59	0x3ea65b48	0.32491517
60	0x3d8e5ec4	0.06951669
61	0x3f1c9b6d	0.6117466
62	0xbe51476a	-0.20437399
63	0x3cbe7f7e	0.023254152
64	0xbdd26b28	-0.10274345
65	0x3d71f49d	0.059071172
66	0xbef89f2e	-0.48558944
67	0xbe941bc5	-0.28927436
68	0x3e3988b2	0.18118551
69	0x3e22853b	0.15871136
70	0x3d406ec4	0.046980634
71	0xbe8c4609	-0.27397183
72	0xbef8a893	-0.48566112
73	0xbe3db10e	-0.18524572
74	0xbd3dd9a2	-0.04635013
75	0x3c72ed8a	0.014827142
76	0x3c110af8	0.008852713
77	0xbee6de29	-0.4509137
78	0xbd927443	-0.071510814
79	0x3e1a0a08	0.15042889
80	0x3e872dfe	0.26402277
81	0x3e391082	0.18072703
82	0x3eca927f	0.39564893
83	0x3edbdeb4	0.42943347
84	0x3e8f54ce	0.27994388
85	0xbd95f7c0	-0.07322645
86	0x3e9139db	0.28364453
87	0x3e09d538	0.13460243
88	0xbdd1922e	-0.1023296
89	0x3e02f259	0.12787761
90	0xbe882149	-0.26587895
91	0x3e7d0be2	0.24711564
92	0xbe168bef	-0.14701818
93	0xbe48ef80	-0.19622612
94	0xbec3d7d8	-0.38250613
95	0xbcf1ac4d	-0.029501105
96	0xbe9552e4	-0.29164803
97	0x3ef802f0	0.4843974
98	0xbcf854e5	-0.030313918
99	0x3f0981b7	0.53713554
100	0xbe9490f1	-0.29016832
101	0xbeb5f1b1	-0.35535958
102	0x3eecbffa	0.46240216
103	0x3d8cbc9d	0.06871913
104	0xbd4d0746	-0.050055765
105	0x3d8f1247	0.06985908
106	0x3d86378c	0.065535635
107	0xbe7a12d3	-0.24421243
108	0x3d57cbca	0.052684583
109	0x3d8a4c1a	0.067527965
110	0xbe92d590	-0.2867856
111	0x3e1fb4ed	0.15596361
112	0x3e73c15f	0.23804234
113	0x3dd038e5	0.10167102
114	0x3cdf0511	0.027224096
115	0x3f1f1fc0	0.6215782
116	0xbe89d210	-0.26918077
117	0xbebc9d38	-0.36838698
118	0xbe9969fb	-0.2996367
119	0x3e705ff3	0.23474102
120	0x3eb2b478	0.34903312
121	0x3e622e72	0.2208803
122	0x3f0d4e3c	0.551975
123	0xbe23d9bb	-0.16001026
124	0xbe81f745	-0.25383964
125	0x3f13eafe	0.57780445
126	0x3d85ee4a	0.06539591
127	0xbdc24674	-0.09486094
128	0xbe3564cd	-0.17714234
129	0xbee37e15	-0.4443213
130	0xbf14e087	-0.581551
131	0x3d8c08c9	0.06837613
132	0x3b5e1ffb	0.0033893574
133	0x3ea68a72	0.325275
134	0x3ef409ce	0.4766373
135	0x3ec50337	0.38479015
136	0x3e2f38b0	0.17111468
137	0xbde44a34	-0.111469656
138	0xbd9c67a9	-0.07636959
139	0xbe8b5458	-0.27212787
140	0x3ea20a30	0.31648397
141	0xbdca57f3	-0.09880056
142	0x3d189e7b	0.037260514
143	0xbe74497c	-0.23856157
144	0xbe8cd220	-0.27504063
145	0x3e7d763e	0.24752137
146	0x3e83e141	0.25757793
147	0x3e0c53e7	0.13703881
148	0xbee3ceaa	-0.4449361
149	0xbede4383	-0.43410882
150	0x3e746911	0.23868205
151	0x3cdc79d0	0.026913553
152	0xbd75c035	-0.059997756
153	0x3df15be7	0.11785107
154	0x3e9d43d6	0.30715817
155	0xbe9ab3f9	-0.30215433
156	0xbe4f005f	-0.20214985
157	0x3ebc0ba9	0.36727646
158	0xbd74e8e9	-0.059792433
159	0xbea43673	-0.3207279
160	0x3ea781c9	0.32716206
161	0xbea96526	-0.33084983
162	0xbe165225	-0.14679773
163	0x3e56b3cb	0.20967023
164	0x3e206568	0.15663683
165	0x3d17e82f	0.037086662
166	0x3e0f7701	0.1401024
167	0xbe916838	-0.28399825
168	0x3d3bdb4d	0.04586344
169	0xbe92bc36	-0.2865922
170	0xbe58e21e	-0.21180007
171	0x3e48f4cf	0.19624637
172	0xbf224d50	-0.6339922
173	0x3d9ef8a6	0.0776227
174	0x3e25895c	0.1616568
175	0x3e8ccbac	0.2749914
176	0x3e863dcd	0.26219025
177	0x3d496ee3	0.049178015
178	0xbe7d4e29	-0.24736847
179	0xbed3bc6a	-0.41354686
180	0x3e46fc85	0.19432266
181	0xbe4c4f20	-0.19952059
182	0xbd851774	-0.06498614
183	0xbd490a65	-0.04908218
184	0xbeb0587b	-0.34442505
185	0x3ed7b31f	0.42128846
186	0x3e0cad93	0.13738088
187	0x3e5d7840	0.21627903
188	0xbe0ce33c	-0.13758558
189	0xbdadd7cc	-0.084884256
190	0x3f39f034	0.72632146
191	0xbea79f85	-0.3273889
192	0xbeb6377c	-0.35589206
193	0xbe5e25f9	-0.21694173
194	0x3da337ef	0.07969653
195	0xbc7e7858	-0.015531622
196	0xbe33538c	-0.1751234
197	0x3e695b70	0.22788787
198	0xbc31310b	-0.010814915
199	0xbf21598b	-0.63027257
200	0xbcc59af0	-0.024121732
201	0xbe2846f5	-0.16433318
202	0x3de610ac	0.11233649
203	0x3dd064f0	0.10175502
204	0xbe1e646f	-0.15468
205	0x3d2fba90	0.04290253
206	0x3e97088a	0.29498702
207	0x3e86ff97	0.26366875
208	0x3d628438	0.055301875
209	0xbbb7551b	-0.005594862
210	0x3e579443	0.21052651
211	0x3c5fcbea	0.013659457
212	0x3e5cdb71	0.21568085
213	0x3da6b464	0.081398755
214	0x3c5761f4	0.013145912
215	0x3db507f9	0.08839411
216	0x3d815f29	0.063169785
217	0x3ebf94b7	0.37418148
218	0x3d9e29b2	0.077227965
219	0xbd86bab9	-0.06578583
220	0xbbaccc02	-0.005273343
221	0xbd323773	-0.04350991
222	0x3bd86dba	0.0066048773
223	0x3e871a7b	0.2638739
224	0x3ee8bfab	0.4545873
225	0x3e96e008	0.29467797
226	0xbdb352d4	-0.087560326
227	0xbe933fb4	-0.2875954
228	0xbdeb270f	-0.11482059
229	0xbde47da5	-0.11156777
230	0x3def908b	0.11697491
231	0xbee6b1e5	-0.45057598
232	0xbeceee33	-0.40416107
233	0xb9eda187	-0.0004532451
234	0x3e534f01	0.20635606
235	0xbcf5791a	-0.029964972
236	0xbd7f45c1	-0.062322382
237	0xbd991a58	-0.07475728
238	0x3d83f099	0.06442375
239	0x3e96cd46	0.29453486
240	0xbe891870	-0.26776457
241	0xbe71ee4e	-0.23626062
242	0xbf19db34	-0.601001
243	0x3ed6cfed	0.4195551
244	0x3dfbe70b	0.12299927
245	0x3eb8c4ef	0.36087748
246	0xbd7264c8	-0.059178144
247	0xbce5327f	-0.02797818
248	0xbe3ff909	-0.18747343
249	0x3e183b81	0.14866449
250	0xbbe7c399	-0.0070728776
251	0x3e25e264	0.16199642
252	0xbe939ba7	-0.2882969
253	0xbc3748e4	-0.011186812
254	0xbf28c5e1	-0.6592694
255	0x3e2eca96	0.17069468

network_body._body_endoder.seq_layers.0.bias f4 [128]
0	0x00000000	0.0
1	0x00000000	0.0
2	0x00000000	0.0
3	0x00000000	0.0
4	0x00000000	0.0
5	0x00000000	0.0
6	0x00000000	0.0
7	0x00000000	0.0
8	0x00000000	0.0
9	0x00000000	0.0
10	0x00000000	0.0
11	0x00000000	0.0
12	0x00000000	0.0
13	0x00000000	0.0
14	0x00000000	0.0
15	0x00000000	0.0
16	0x00000000	0.0
17	0x00000000	0.0
18	0x00000000	0.0
19	0x00000000	0.0
20	0x00000000	0.0
21	0x00000000	0.0
22	0x00000000	0.0
23	0x00000000	0.0
24	0x00000000	0.0
25	0x00000000	0.0
26	0x00000000	0.0
27	0x00000000	0.0
28	0x00000000	0.0
29	0x00000000	0.0
30	0x00000000	0.0
31	0x00000000	0.0
32	0x00000000	0.0
33	0x00000000	0.0
34	0x00000000	0.0
35	0x00000000	0.0
36	0x00000000	0.0
37	0x00000000	0.0
38	0x00000000	0.0
39	0x00000000	0.0
40	0x00000000	0.0
41	0x00000000	0.0
42	0x00000000	0.0
43	0x00000000	0.0
44	0x00000000	0.0
45	0x00000000	0.0
46	0x00000000	0.0
47	0x00000000	0.0
48	0x00000000	0.0
49	0x00000000	0.0
50	0x00000000	0.0
51	0x00000000	0.0
52	0x00000000	0.0
53	0x00000000	0.0
54	0x00000000	0.0
55	0x00000000	0.0
56	0x00000000	0.0
57	0x00000000	0.0
58	0x00000000	0.0
59	0x00000000	0.0
60	0x00000000	0.0
61	0x00000000	0.0
62	0x00000000	0.0
63	0x00000000	0.0
64	0x00000000	0.0
65	0x00000000	0.0
66	0x00000000	0.0
67	0x00000000	0.0
68	0x00000000	0.0
69	0x00000000	0.0
70	0x00000000	0.0
71	0x00000000	0.0
72	0x00000000	0.0
73	0x00000000	0.0
74	0x00000000	0.0
75	0x00000000	0.0
76	0x00000000	0.0
77	0x00000000	0.0
78	0x00000000	0.0
79	0x00000000	0.0
80	0x00000000	0.0
81	0x00000000	0.0
82	0x00000000	0.0
83	0x00000000	0.0
84	0x00000000	0.0
85	0x00000000	0.0
86	0x00000000	0.0
87	0x00000000	0.0
88	0x00000000	0.0
89	0x00000000	0.0
90	0x00000000	0.0
91	0x00000000	0.0
92	0x00000000	0.0
93	0x00000000	0.0
94	0x00000000	0.0
95	0x00000000	0.0
96	0x00000000	0.0
97	0x00000000	0.0
98	0x00000000	0.0
99	0x00000000	0.0
100	0x00000000	0.0
101	0x00000000	0.0
102	0x00000000	0.0
103	0x00000000	0.0
104	0x00000000	0.0
105	0x00000000	0.0
106	0x00000000	0.0
107	0x00000000	0.0
108	0x00000000	0.0
109	0x00000000	0.0
110	0x00000000	0.0
111	0x00000000	0.0
112	0x00000000	0.0
113	0x00000000	0.0
114	0x00000000	0.0
115	0x00000000	0.0
116	0x00000000	0.0
117	0x00000000	0.0
118	0x00000000	0.0
119	0x00000000	0.0
120	0x00000000	0.0
121	0x00000000	0.0
122	0x00000000	0.0
123	0x00000000	0.0
124	0x00000000	0.0
125	0x00000000	0.0
126	0x00000000	0.0
127	0x00000000	0.0

network_body._body_endoder.seq_layers.2.weight f4 [128, 128]
0	0x3d470c80	0.048595905
1	0xbdf9bbe3	-0.1219404
2	0xbd8fc8fc	-0.070207566
3	0xbddc7bf5	-0.107658304
4	0xbe1aa4e3	-0.15101962
5	0x3babaa09	0.0052387756
6	0x3d6f7bf8	0.058467835
7	0x3d705417	0.058673944
8	0x3d68d9fb	0.056848507
9	0x3d428b41	0.047496084
10	0xbd4daf57	-0.050216045
11	0xbd6640a6	-0.056213997
12	0xbd89dcf3	-0.06731596
13	0xbdd786d8	-0.10523766
14	0xbe63296f	-0.22183774
15	0x3d0144e2	0.031559832
16	0xbc6716e8	-0.014104582
17	0xbd8e184e	-0.069382295
18	0x3e0eaea9	0.13933815
19	0xbc8d2eb8	-0.017234191
20	0x3e05caf8	0.13065708
21	0x3caac507	0.020845903
22	0x3d818ecc	0.063260645
23	0x3e296388	0.16541874
24	0xbd9d81fa	-0.07690807
25	0x3c9a45d6	0.018832128
26	0xbd13bf2f	-0.036071
27	0x3d77513b	0.0603802
28	0xbc1709ba	-0.009218628
29	0xbd71b428	-0.0590097
30	0xbd98d4a2	-0.074624315
31	0xbd6ba143	-0.057526838
32	0xbd0eddce	-0.0348795
33	0x3cbc4d6b	0.022986135
34	0x3bdc912a	0.006731172
35	0x3cc65d22	0.024214331
36	0x3e9619dc	0.29316604
37	0xbddc9ed5	-0.10772482
38	0xbccda19d	-0.025101477
39	0x3d4dd92f	0.05025595
40	0xbcf21709	-0.029552
41	0x3c6df593	0.0145238815
42	0x3b001414	0.0019543217
43	0x3d044c02	0.03229905
44	0x3d11eecf	0.035628136
45	0xb9210136	-0.00015354608
46	0x3d09a65d	0.033605922
47	0xbd693849	-0.056938443
48	0xbe32a6c3	-0.17446427
49	0x3ca12b75	0.019674042
50	0x3d839760	0.06425357
51	0x3c441455	0.011967738
52	0xbd6054fc	-0.054768547
53	0x3c55685d	0.01302537
54	0x3d9aa44c	0.075508684
55	0x3d4ff3ca	0.050769605
56	0xbd81f0f2	-0.06344785
57	0xbd513655	-0.051077206
58	0x3e044171	0.12915589
59	0xbe01d2d9	-0.12678088
60	0xbd8b1a9b	-0.06792184
61	0xbe16d771	-0.14730622
62	0xbdce8b24	-0.10085133
63	0x3c81ac4f	0.015829233
64	0xbda0c0ef	-0.07849299
65	0x3d472470	0.048618734
66	0xbcc86930	-0.02446422
67	0x3e078b83	0.13236813
68	0xbe24fbec	-0.16111726
69	0xbe4bc092	-0.19897678
70	0x3e0f52f7	0.13996492
71	0xbe970a10	-0.29499865
72	0xbd80ef2e	-0.0629562
73	0x3e5b3f56	0.2141088
74	0xbbec6b99	-0.007214975
75	0xbcbe25d6	-0.023211401
76	0x3e172de5	0.14763601
77	0x3c953c0f	0.018217115
78	0x3e25c219	0.16187324
79	0xbe039586	-0.12850007
80	0x3d111d28	0.035428196
81	0x3ca67fc2	0.020324592
82	0xbd889d4d	-0.06670628
83	0xbe166b8b	-0.14689462
84	0xbd476ed2	-0.04868967
85	0x3daeb381	0.085303314
86	0x38e9c6c7	0.00011147331
87	0x3d177699	0.036978338
88	0x3dc5ef34	0.09664765
89	0xbe45165f	-0.19246815
90	0x3d8e9f48	0.06963974
91	0xbc68f802	-0.014219286
92	0xbd613c6d	-0.054989267
93	0x3d77c970	0.06049484
94	0x3c2c12f1	0.010502563
95	0xbcf82b38	-0.030294046
96	0x3e2190ac	0.15777844
97	0x3cf05ebf	0.029342053
98	0x3d55d7de	0.05220782
99	0x3e34040c	0.17579669
100	0x3d3bdddb	0.045865875
101	0x3cf4161a	0.029795695
102	0x3bc2a570	0.005940132
103	0xbbb2a483	-0.00545174
104	0xbda43945	-0.08018736
105	0x3c15f4a6	0.009152567
106	0x3df89f60	0.12139773
107	0xbd493a83	-0.049128067
108	0xbd1b00ac	-0.037842438
109	0x3d4a5511	0.049397532
110	0x3e0a2c7b	0.1349353
111	0xbd97498d	-0.073870756
112	0xbd99a02f	-0.07501256
113	0x3dc35667	0.09537964
114	0x3e1ded26	0.15422496
115	0x3dd96e12	0.10616697
116	0x3d52d7dd	0.051475395
117	0x3d323e35	0.043516356
118	0x3e0fc076	0.14038262
119	0x3dbb8680	0.09156513
120	0x3dd5b836	0.10435526
121	0xbd25c099	-0.04046688
122	0xbdb35c05	-0.08757786
123	0x3cfead70	0.03108856
124	0x3d8ac3b8	0.06775612
125	0x3d1a593c	0.037682757
126	0x3d82b375	0.06381885
127	0xbcf02962	-0.029316608
128	0x3e103095	0.14081033
129	0x3d9b604b	0.07586726
130	0xbd2ae656	-0.04172357
131	0x3d6e1f0b	0.058135074
132	0x3dfafb62	0.12254979
133	0xbc7bf968	-0.015379287
134	0xbc80cb34	-0.015721895
135	0x3d808fc3	0.0627742
136	0x3dc45a8c	0.09587583
137	0x3d54cafe	0.0519514
138	0xbc7162bf	-0.014733016
139	0xbd1ac782	-0.03778792
140	0xbd82559d	-0.06363986
141	0x3e1af3b5	0.1513203
142	0x3dfc509b	0.12320062
143	0x3ccb0cbf	0.024786351
144	0xbc09fa0a	-0.00842143
145	0x3dc2a2cb	0.095037065
146	0x3d0f5271	0.03499073
147	0x3bf8f3e2	0.0075974325
148	0x3e607ad9	0.21921863
149	0xbd87674a	-0.06611498
150	0x3caa0f5d	0.020759279
151	0xbca2829e	-0.019837674
152	0xbcd4d9b4	-0.025982715
153	0xbd330dd6	-0.043714367
154	0x3cf0c753	0.02939192
155	0x3d590fe3	0.052993666
156	0x3d0f4f9e	0.03498804
157	0x3ccb2cc9	0.024801629
158	0x3d913c40	0.0709157
159	0xbcf81242	-0.030282144
160	0x3d25f897	0.040520277
161	0x3cf42209	0.029801385
162	0xbe050608	-0.12990582
163	0x3d56a69f	0.052404996
164	0xbd6311a1	-0.055436734
165	0x3cdfcde9	0.027319865
166	0x3d626318	0.055270284
167	0xbc8b0516	-0.016970199
168	0x3d5175f0	0.051137865
169	0x3e2488aa	0.16067758
170	0x3d8a33f4	0.067481905
171	0x3dad94c4	0.084756404
172	0xbda947ee	-0.082656726
173	0x3d7b0d90	0.06129223
174	0x3d71607a	0.058929898
175	0xbe38a02d	-0.18029852
176	0x3bd1774f	0.0063923965
177	0xbd75cdda	-0.06001077
178	0xbb29ea68	-0.002592707
179	0xbe1d6469	-0.15370335
180	0xbde1dd0a	-0.11028488
181	0x3d26db8d	0.040736724
182	0x3c3b5af5	0.01143526
183	0xbd2d980b	-0.042381328
184	0x3d2e8c8f	0.042614516
185	0x3cf4ebf1	0.029897662
186	0xbd3b56a5	-0.045736928
187	0xbcb5488d	-0.022129321
188	0x3dcf48ea	0.10121329
189	0x3d88d66c	0.06681523
190	0x3c2a3372	0.010388242
191	0xbce53c15	-0.02798275
192	0xbc435384	-0.011921767
193	0x3e139453	0.1441205
194	0x3d85dc44	0.06536153
195	0xbd00fac4	-0.03148915
196	0x3da5e40d	0.08100138
197	0x3d26b099	0.04069576
198	0xbd86d3f0	-0.065833926
199	0x3d61ffd3	0.055175614
200	0x3d641508	0.05568412
201	0x3d9304a5	0.0717862
202	0xbe0610a4	-0.13092285
203	0x3ddacf8d	0.106841184
204	0x3d2496bc	0.040182814
205	0x3d0936ce	0.03349953
206	0x3dd807e7	0.10548382
207	0x3c628a7f	0.013826965
208	0xbdc04684	-0.0938845
209	0xbdc632e2	-0.09677674
210	0xbde85f58	-0.113463104
211	0xb972d9b3	-0.00023160018
212	0xbd0a6b29	-0.033793602
213	0xbcb38a70	-0.021916598
214	0x3c9b7591	0.018976958
215	0x3ddc23c2	0.10749008
216	0xbcb55e5f	-0.022139726
217	0xbd69db37	-0.057093825
218	0x3e873de9	0.2641442
219	0xbdc43c4e	-0.09581815
220	0xbe2df578	-0.1698817
221	0x3db99c02	0.09062959
222	0xbcf2213f	-0.029556869
223	0x3e2d944c	0.16951102
224	0xbdeae807	-0.11470037
225	0xbd7f29fd	-0.062295903
226	0x3c263c04	0.010146145
227	0x3dc43187	0.09579759
228	0x3e33781f	0.17526291
229	0xbd609473	-0.054829072
230	0xbd107694	-0.035269335
231	0x3d33e89e	0.043923013
232	0x3d5900cb	0.05297927
233	0xbdbcc933	-0.09218063
234	0x3d131787	0.03591111
235	0xbd77c5a0	-0.060491204
236	0x3c8366a1	0.016040148
237	0x3e0e9753	0.13924913
238	0xbd92381f	-0.071396105
239	0xbd4318a0	-0.047630906
240	0xbd66cfe7	-0.056350615
241	0xbb282be0	-0.0025660917
242	0xbd86d535	-0.06583635
243	0x3c213fff	0.009841918
244	0x3e9d1971	0.30683473
245	0x3dcccee4	0.10000399
246	0xbd691a44	-0.056909814
247	0x3db9ae96	0.09066503
248	0x3d4890c2	0.048966177
249	0xbd3b47b9	-0.045722697
250	0xbdb10659	-0.08643789
251	0xbc0012d3	-0.007816988
252	0x3e2c3833	0.16818313
253	0x3cc2d062	0.023781005
254	0x3bb7a16b	0.0056039593
255	0xbd9b2112	-0.07574667

action_model._discrete_distribution.branches.0.weight f4 [2, 128]
0	0x3ba9d14c	0.005182421
1	0x3b979501	0.004625917
2	0xbb9f0a78	-0.004853543
3	0xbc198dab	-0.009372155
4	0xbbe09355	-0.006853501
5	0x3abfe43d	0.0014640164
6	0xbb944397	-0.004524659
7	0x3c79b045	0.01523978
8	0x3bef857a	0.007309613
9	0x3b8233b7	0.00397345
10	0xbbc36e5a	-0.0059640827
11	0x3b028515	0.001991575
12	0x3bb37f13	0.005477795
13	0x3b954204	0.004554989
14	0xbc4cb98f	-0.0124954125
15	0x3b3fd7b9	0.0029272868
16	0xbb90cedd	-0.0044191913
17	0xbb74c86b	-0.0037350904
18	0x3c101399	0.008793735
19	0x3b7f7b08	0.0038983244
20	0x3c1eb29e	0.00968614
21	0xbbe96413	-0.0071225255
22	0x3c12abff	0.00895214
23	0x3c6f2a00	0.014597416
24	0x3b92d1fd	0.004480599
25	0xb9bc45f7	-0.00035910282
26	0x3a20711c	0.000612037
27	0xba9acc66	-0.0011810183
28	0x3c24721f	0.010036974
29	0x38e2c3ea	0.000108130116
30	0x3aff7ddb	0.0019492464
31	0xbc83c223	-0.016083783
32	0x3b16ebfa	0.0023028837
33	0xbb377430	-0.0027992837
34	0xbca194bb	-0.01972424
35	0x3a3c3ef7	0.00071810134
36	0x3a353a0e	0.0006913253
37	0xbc2a8691	-0.01040806
38	0xbb9cd8ef	-0.0047866027
39	0x3a28bb57	0.0006436607
40	0x3c7025ad	0.01465742
41	0xbb64f387	-0.0034935193
42	0xbc0cedc0	-0.008601606
43	0x3b89cf07	0.004205588
44	0x3a8416e3	0.0010077622
45	0xbab89042	-0.0014081078
46	0x3b3ec7e2	0.0029110839
47	0x3c74acff	0.014933824
48	0x3c133a9b	0.008986141
49	0xbccfcee8	-0.025367215
50	0x3ba4f0da	0.0050335946
51	0xbbf5e8c3	-0.007504554
52	0x3b122abf	0.002230331
53	0xb967d342	-0.00022108576
54	0xba358e7c	-0.0006925834
55	0xb989c7fa	-0.0002627967
56	0x3bf7b993	0.007559964
57	0xba8b367a	-0.0010621094
58	0xbc78a032	-0.015174912
59	0xbc9210d2	-0.017830286
60	0xbc67b215	-0.014141579
61	0x3b9694f7	0.0045953947
62	0xbc808012	-0.015686069
63	0xbb61e233	-0.00344671
64	0x3bd3698d	0.0064517916
65	0x3bdc89eb	0.0067303083
66	0xbcb66d8f	-0.022269038
67	0x3bb5d8ab	0.0055495105
68	0x3bd2284d	0.0064134956
69	0xbc729bd2	-0.014807658
70	0xbbb7d475	-0.0056100436
71	0x3bee9973	0.007281476
72	0xbc18004c	-0.0092774145
73	0x3be6814d	0.007034457
74	0x3c149eff	0.009071111
75	0xbc87bcd4	-0.016569532
76	0xbc8abe2f	-0.01693639
77	0xba51094b	-0.0007974102
78	0x3bbb84f4	0.0057226364
79	0x3c4c8bc0	0.012484491
80	0xbc1bb4db	-0.0095035685
81	0xbbb054c7	-0.0053812
82	0xbaec828d	-0.0018044278
83	0x3b5849bd	0.0033002936
84	0xbb30704b	-0.00269224
85	0xbcb86fca	-0.022514243
86	0x3bd5b563	0.006521867
87	0xbbbcb657	-0.0057590413
88	0x3a885df2	0.0010403974
89	0xbb7d4be8	-0.003864998
90	0x3c71d463	0.01476011
91	0xbca1473b	-0.019687286
92	0xbc1e6a05	-0.009668832
93	0x3c56db67	0.013113833
94	0xbba04d19	-0.0048920033
95	0x3bd1fbc8	0.0064081885
96	0x3bc2264d	0.005924976
97	0x3c2c01df	0.010498493
98	0x3c3bffa1	0.011474521
99	0x3b6fecf0	0.0036609732
100	0xbaaba461	-0.0013095253
101	0xbb9f4f2f	-0.0048617343
102	0xbb4e4b8b	-0.0031478133
103	0x3b069614	0.002053623
104	0xbbbf78eb	-0.005843272
105	0xbbaabce7	-0.005210507
106	0xbc2a2177	-0.010383955
107	0x3ad0be35	0.0015925827
108	0x3c2a155d	0.01038107
109	0xbba4e43e	-0.0050320914
110	0xbc86e052	-0.016464386
111	0xbb78c6e7	-0.0037960352
112	0x3bf39725	0.0074337893
113	0x3c55da8a	0.013052592
114	0x3adff3c7	0.0017086201
115	0x3bda5d88	0.006663982
116	0xbad29d2a	-0.0016068567
117	0x3bc8526e	0.006113342
118	0x3c544b52	0.012957411
119	0xbb8ede0b	-0.0043599657
120	0x3af22898	0.0018475233
121	0xba87cf4e	-0.0010361464
122	0xbbf3b757	-0.0074376273
123	0x3c367f37	0.011138729
124	0xbc4d68bb	-0.012537177
125	0x3c14cd26	0.009082114
126	0x3bd88cba	0.006608573
127	0x3c74348f	0.014905109
128	0xbc390579	-0.011292809
129	0xbc953a1c	-0.018216185
130	0xbbb87392	-0.0056290114
131	0x3b680c43	0.00354077
132	0x3adf6ab5	0.0017045351
133	0xbbbd7308	-0.005781535
134	0x3c67af77	0.014140955
135	0xbc29b104	-0.010357145
136	0x3c85773f	0.016292213
137	0xbb9871ca	-0.0046522366
138	0xbaade8e3	-0.0013268258
139	0x3c4baa65	0.012430762
140	0xba70f6ad	-0.0009192031
141	0x3c824ef5	0.01590679
142	0xbba41cdb	-0.0050083227
143	0xba9d39b0	-0.0011995342
144	0x3a7b9b68	0.00095980475
145	0x3c2c7363	0.010525557
146	0x3ba434ec	0.0050111916
147	0x3a54f5f3	0.00081238075
148	0x3c587b4b	0.013212989
149	0xbba2291e	-0.004948749
150	0xbb349728	-0.0027555916
151	0xbb8abb8b	-0.0042337826
152	0x3a2edd66	0.0006670564
153	0xbc927e20	-0.017882407
154	0xba760ba2	-0.00093858887
155	0x3bf69a02	0.0075256834
156	0x3c8e3960	0.017361343
157	0x3ae6f0bb	0.0017619351
158	0xbbcfda43	-0.0063431575
159	0x3ba178e4	0.0049277414
160	0x3bf89700	0.00758636
161	0xbc276580	-0.010217071
162	0x3c0792e1	0.008274765
163	0xbb4f4375	-0.00316259
164	0x3b8d2a86	0.0043080477
165	0x3c981050	0.018562466
166	0xbc62a63b	-0.013833578
167	0xbc283b73	-0.01026808
168	0xbc2cf6bf	-0.010556876
169	0x3cd0bc70	0.025480479
170	0x3a80ca53	0.0009825922
171	0xbbe47f6d	-0.006973198
172	0x3c89e839	0.016834365
173	0xbc7b3333	-0.015332031
174	0x3c599553	0.013280231
175	0x3c6afac5	0.014342015
176	0x3b1a6321	0.002355762
177	0x3bef17e2	0.007296548
178	0x3b3c5a4c	0.0028740345
179	0xbbca57fb	-0.006175039
180	0xbbdc62d5	-0.006725649
181	0xbc1dda9e	-0.009634642
182	0xbc13dcef	-0.009024843
183	0x3cb2d37d	0.021829361
184	0x3b31647f	0.0027067957
185	0x3c3b1bbb	0.011420186
186	0x3c0d9924	0.008642469
187	0x3beba77d	0.007191597
188	0xbbf33480	-0.00742203
189	0x3c2d11ef	0.010563358
190	0x3bfabf72	0.0076522166
191	0x3ab1851b	0.0013543697
192	0x3c238aa6	0.009981787
193	0x3b06e131	0.0020581002
194	0xb8712360	-5.7491823e-05
195	0xbc24ff29	-0.010070601
196	0xbc0d75f0	-0.0086340755
197	0x3c12e753	0.008966285
198	0x3b2c93d7	0.0026333237
199	0xbbf82248	-0.007572446
200	0x3b05d5c7	0.002042161
201	0x3c20db50	0.009817913
202	0xbbcf7eba	-0.0063322457
203	0xbc875c5e	-0.016523536
204	0x3c7542c0	0.014969528
205	0x3aba3422	0.0014206211
206	0x3b3c4d9a	0.0028732778
207	0x3aa7e8b3	0.0012810439
208	0xbbe1a72b	-0.006886383
209	0x3cb26e06	0.021780979
210	0xbc0cb220	-0.00858739
211	0xbba613c3	-0.0050682737
212	0xbbf7825f	-0.0075533832
213	0x3bd2ce77	0.006433304
214	0x3c008556	0.00784429
215	0x3b50481d	0.0031781264
216	0xbb699780	-0.003564328
217	0x3b9803cb	0.004639124
218	0xbb7bb825	-0.003840932
219	0x3af0a4a7	0.0018359617
220	0x3c7498eb	0.014929037
221	0xbc2663a8	-0.010155596
222	0xbae0dc8b	-0.0017155571
223	0x3a8cef79	0.0010752521
224	0x3b008617	0.0019611174
225	0x3ba01453	0.0048852353
226	0xbc66f422	-0.014096292
227	0x3a81b616	0.0009896185
228	0x3be9d733	0.0071362494
229	0xbc15227f	-0.009102463
230	0x3c630efb	0.013858552
231	0x3aa58667	0.0012628556
232	0xbb6acaa7	-0.0035826357
233	0xbb68e105	-0.0035534513
234	0x3c3fa533	0.011697101
235	0xbab6e5e6	-0.0013954013
236	0xbb19dbeb	-0.0023477029
237	0x3b8b9611	0.0042598327
238	0xbbdaea33	-0.0066807508
239	0xbc3bb5d7	-0.011456928
240	0x3bf9df03	0.007625462
241	0xbb884d93	-0.004159638
242	0x3bc55913	0.0060225814
243	0xbbb94f03	-0.005655171
244	0xbbf0fafd	-0.007354139
245	0xbc0c49b2	-0.008562492
246	0x3c767fd7	0.015045128
247	0x3c7479d2	0.014921622
248	0x3c88fc0a	0.016721744
249	0xbb808c49	-0.0039229733
250	0x3bb6042b	0.005554696
251	0xbc512427	-0.012764967
252	0x3afc994d	0.0019271761
253	0x3c271dda	0.010199988
254	0xbc7eceb0	-0.015552208
255	0xbc2007b1	-0.009767459

action_model._discrete_distribution.branches.0.bias f4 [2]
0	0x00000000	0.0
1	0x00000000	0.0

action_model._discrete_distribution.branches.1.weight f4 [2, 128]
0	0x3c951c23	0.018201893
1	0xbc2ddc11	-0.01061155
2	0x3bf8dfef	0.0075950543
3	0xbbcc90e0	-0.0062428564
4	0xbb36cb8c	-0.002789232
5	0x3c7edbc8	0.01555533
6	0x3b4ed5c7	0.0031560527
7	0xbbf226fd	-0.0073899017
8	0x3c293fd7	0.010330162
9	0xbb449f38	-0.0030002128
10	0x3c00de3c	0.007865485
11	0xbc342dc8	-0.010997243
12	0x3c197ce7	0.009368158
13	0x3c43b749	0.011945554
14	0x3bbf7fa2	0.0058440724
15	0xbbdff8a8	-0.006835062
16	0x3c3f6853	0.011682588
17	0xbaafe118	-0.0013418524
18	0x3a6202ef	0.0008621653
19	0x3c29629b	0.010338451
20	0xbc339f27	-0.010963238
21	0xbc4c76dc	-0.01247951
22	0xbb1719f5	-0.0023056243
23	0xbc0a8ed6	-0.008456906
24	0xbb9cd735	-0.004786397
25	0x3b84b588	0.0040499605
26	0xbb03a9d5	-0.0020090241
27	0x3c13663b	0.008996542
28	0xbb66188f	-0.0035109853
29	0xbaf24c6f	-0.0018485914
30	0x3b437f12	0.0029830378
31	0x3b7a966d	0.0038236633
32	0xbc2c5c83	-0.010520103
33	0xb96a5bd0	-0.00022350182
34	0x3bdb6fdb	0.006696684
35	0x39af25f3	0.00033406875
36	0xbb1ebf0c	-0.002422276
37	0xbc20583d	-0.009786663
38	0xbbec0283	-0.007202448
39	0x3bf8d99b	0.0075943
40	0xbba15ae3	-0.0049241646
41	0xbb84d668	-0.0040538795
42	0x3b98b31b	0.004660023
43	0xbb44b366	-0.0030014156
44	0x3b37dcbb	0.002805515
45	0x3c12f779	0.008970135
46	0x3b35bafa	0.0027729855
47	0xba807764	-0.0009801206
48	0xbc4d4ddf	-0.012530773
49	0xbc4e7373	-0.012600767
50	0x3bb657b4	0.0055646542
51	0x3b49c3e7	0.0030786933
52	0xbc30fe8b	-0.010802875
53	0x3ab61a30	0.0013893303
54	0xbbb08136	-0.005386497
55	0x3a3bd5df	0.0007165353
56	0xbc8c6bff	-0.01714134
57	0x3ab80526	0.001403962
58	0xbb18a0c9	-0.0023289195
59	0xbbcac677	-0.0061882096
60	0x3c1c1658	0.009526812
61	0xbbad6109	-0.0052911085
62	0xbc2c01b8	-0.010498457
63	0x3c9881cc	0.01861658
64	0x3b914dc4	0.004434319
65	0x3b9b405a	0.004737896
66	0x3bac51d7	0.0052587795
67	0xbb2e2ca4	-0.00265769
68	0xbbf8e728	-0.0075959153
69	0x3c8889b0	0.016667217
70	0xbc58ead8	-0.013239585
71	0x3904e15a	0.00012672451
72	0xbc714628	-0.014726199
73	0xbb10afc6	-0.0022077425
74	0x3bd889db	0.0066082305
75	0xbc0c8b7f	-0.00857818
76	0xba01de71	-0.0004954106
77	0x3ba0fcc0	0.0049129426
78	0x3ae09afb	0.0017136032
79	0x3bb9c8c2	0.005669684
80	0xbb6fa9bb	-0.0036569673
81	0x3b9ec427	0.0048451605
82	0xbb32e72e	-0.0027298438
83	0xbbae896c	-0.0053264406
84	0xbc33d982	-0.010977151
85	0xbc4a081b	-0.012331034
86	0xbc9203bb	-0.017824044
87	0xba86955c	-0.0010267901
88	0xbb746308	-0.0037290473
89	0x3bc0c93d	0.0058833645
90	0xb8c03082	-9.164309e-05
91	0x3aded7ba	0.0017001547
92	0xbb2d1458	-0.002640983
93	0x3bbddd87	0.0057942304
94	0x3ba3b770	0.0049962327
95	0xbbe29947	-0.0069152447
96	0xbb6aecea	-0.0035846778
97	0xbb7eae9f	-0.0038861407
98	0x3c601c53	0.013678628
99	0x3c10a90c	0.008829366
100	0x3c0927b3	0.008371281
101	0xbb739c45	-0.0037172001
102	0x398a5158	0.00026382017
103	0x3afa52d0	0.0019098166
104	0x3b4dc7a3	0.003139951
105	0xbb903393	-0.0044006794
106	0x3c9168ae	0.01775011
107	0x3c162c2c	0.009165805
108	0xbc3843bd	-0.011246619
109	0xbba44273	-0.005012804
110	0x3c448f2d	0.011997026
111	0x3a680a90	0.00088516716
112	0x3bbb27ab	0.005711516
113	0xbcbef07f	-0.023308037
114	0xbbb87331	-0.0056289663
115	0xbc2824d1	-0.010262684
116	0x3c65b6a5	0.014020597
117	0xbc43ddf7	-0.011954776
118	0x3c1f3e79	0.0097194845
119	0x3b7883c8	0.0037920345
120	0xbbfc55f2	-0.007700675
121	0x3c376420	0.011193305
122	0x3b8b3c36	0.004249121
123	0xba282e32	-0.0006415575
124	0xbc27d673	-0.010244
125	0x3bb631df	0.0055601443
126	0xbca7f474	-0.020502307
127	0xbbb2405a	-0.0054398
128	0xbb127ddd	-0.0022352852
129	0x3c0e452f	0.008683487
130	0xbb0c66ae	-0.0021423507
131	0x3b66c5bf	0.003521308
132	0x3b9144c2	0.0044332454
133	0xbb477dda	-0.0030440004
134	0xbb85fa29	-0.0040886593
135	0x3c149183	0.009067896
136	0x3c4035e8	0.011731602
137	0x3b783db5	0.0037878577
138	0x3b7f38c3	0.0038943745
139	0xbba0592b	-0.004893442
140	0xbaa421a7	-0.0012522236
141	0xbb844149	-0.004036103
142	0xbaf74ed2	-0.0018868095
143	0x3c329ff9	0.010902398
144	0x3c67cf03	0.0141484765
145	0xbb907f08	-0.0044096746
146	0xbb3d0410	-0.0028841533
147	0x3ba3ea80	0.00500232
148	0x3b1cda0b	0.0023933675
149	0x3b95c6fc	0.00457084
150	0x3c339353	0.010960418
151	0x3bc165ec	0.0059020426
152	0xbc3b501b	-0.011432673
153	0x3a6e5cb8	0.00090927957
154	0xbba91e50	-0.0051610842
155	0xbbe28318	-0.0069126002
156	0xbc43e773	-0.011957037
157	0xbc291ad6	-0.01032134
158	0x3a960251	0.0011444782
159	0xba056b27	-0.00050895143
160	0xbb339bdb	-0.002740613
161	0x3c8c2239	0.017106162
162	0xbbe95c47	-0.007121596
163	0x3c2c642c	0.01052193
164	0xbb8b1684	-0.0042446274
165	0xbbc82095	-0.0061073997
166	0x3bea24a3	0.0071454807
167	0xba7c0012	-0.00096130476
168	0x3bde633d	0.0067867325
169	0xbcb42bd1	-0.02199355
170	0x3b0ea7e3	0.0021767549
171	0x3c9f95cf	0.019480614
172	0xbbc41a16	-0.005984555
173	0xbc2f987e	-0.010717509
174	0x3c3ed5db	0.011647667
175	0x3b64ad5a	0.0034893365
176	0x3b80fc44	0.0039363224
177	0x3bb98c56	0.0056624813
178	0xbaaf652e	-0.0013381594
179	0xbc1485fb	-0.009065147
180	0x3b41dd08	0.0029581208
181	0x3b2c8dbe	0.0026329602
182	0xbb58d01f	-0.0033083034
183	0xb93c8b5a	-0.0001798099
184	0x3b9066fc	0.004406808
185	0x3bce16c3	0.0062893345
186	0xbc2142f5	-0.009842624
187	0xb9da7dd8	-0.0004167396
188	0x3a912138	0.0011072522
189	0xbc4c30ef	-0.012462839
190	0x3b60fe37	0.0034331211
191	0xbc0651df	-0.0081982305
192	0x3c8b182b	0.016979298
193	0xbbf9eeca	-0.007627343
194	0x3c4fddd0	0.012687162
195	0xbbd681e3	-0.0065462454
196	0xbb948866	-0.0045328615
197	0xba8b7ee0	-0.001064267
198	0x3c2dcc0d	0.0106077315
199	0x3bb096d4	0.005389074
200	0x3c24073e	0.010011492
201	0x3c16f51a	0.00921371
202	0x3bbf0447	0.0058293673
203	0x3c30f979	0.010801666
204	0xbbce6447	-0.006298575
205	0xbc53c243	-0.012924734
206	0xbbda977b	-0.00667089
207	0x3b9a08af	0.004700742
208	0x3ba2e5a6	0.004971224
209	0x3bb96f21	0.0056589996
210	0x3c1f8e02	0.009738447
211	0x3b0d00a7	0.0021515281
212	0x3b91e4d5	0.0044523277
213	0xbb5ff745	-0.0034174484
214	0xbab88e10	-0.0014080424
215	0xbc0a14b7	-0.00842779
216	0x3c6c0ae7	0.014406896
217	0x3c805563	0.015665716
218	0xbbf914b5	-0.0076013454
219	0xbbd562f3	-0.00651204
220	0x3bcf4bbf	0.0063261683
221	0xbaa1c3c7	-0.0012341671
222	0x3bfaa030	0.0076484904
223	0xbc3148fe	-0.010820625
224	0x3c8b9733	0.01703987
225	0xbbab99bc	-0.0052368324
226	0x3ba51a42	0.0050385306
227	0x3c0d5947	0.008627242
228	0xbc06a883	-0.008218887
229	0x3b382b59	0.002810201
230	0x3c274ee3	0.010211679
231	0x3b713f50	0.0036811419
232	0x3b5a3290	0.0033294298
233	0x3c5970ab	0.013271491
234	0xbbc20ede	-0.0059221825
235	0x3a56eaf5	0.00081984635
236	0xbb152a6a	-0.0022760876
237	0x3a7f08c2	0.0009728783
238	0xbc853623	-0.016261166
239	0x3c0238e9	0.007948139
240	0xbbaae1f7	-0.0052149254
241	0x3c0cad3f	0.008586227
242	0xbcbce147	-0.02305664
243	0x3b932c6f	0.004491381
244	0x3bf558f2	0.0074874097
245	0x3c4e1ac3	0.012579623
246	0xbbf683b5	-0.007523025
247	0x3c51c3d2	0.012803035
248	0x3b970a6e	0.0046093976
249	0x3a57d29d	0.0008232983
250	0xbb806309	-0.003918056
251	0x3c8a2586	0.016863596
252	0x3bbdf2bf	0.00579676
253	0x3c6c2c1a	0.0144148115
254	0x3c1986da	0.00937053
255	0x3c5d4723	0.01350573

action_model._discrete_distribution.branches.2.weight f4 [2, 128]
0	0x3a98c084	0.0011654054
1	0x3b180d33	0.0023201227
2	0xba8ced97	-0.001075196
3	0xbb850b5d	-0.0040601925
4	0x3c2d8ecb	0.0105931265
5	0x3c4c2f0d	0.01246239
6	0x3b50c575	0.0031855975
7	0xbbcd1048	-0.0062580444
8	0x3c10b98b	0.008833299
9	0xbc6d7ad2	-0.014494615
10	0xbbc5017d	-0.0060121403
11	0x3bedb8da	0.007254702
12	0xbbb4c56d	-0.005516699
13	0xbc7df1e5	-0.015499567
14	0xbab16227	-0.001353328
15	0x3b81bb88	0.003959123
16	0xbc0c6f07	-0.008571393
17	0xbbfeef42	-0.0077799866
18	0xbc1080ec	-0.0088198
19	0x3c7fa683	0.015603664
20	0xbb2c5835	-0.0026297693
21	0xbc25bacb	-0.010115336
22	0x3bea2360	0.0071453303
23	0xbb88094f	-0.0041515003
24	0x3c031fe2	0.008003207
25	0x3bfbd27f	0.007685005
26	0xbcb82b85	-0.02248169
27	0x3c2842cf	0.010269835
28	0x3c0fb305	0.008770709
29	0x3b044902	0.0020185118
30	0xb9e67978	-0.0004395952
31	0xbb4d4288	-0.0031320173
32	0x3c638f2b	0.013889114
33	0xbb19fde3	-0.0023497276
34	0x3a974f32	0.0011543988
35	0xbb1b1e81	-0.0023669305
36	0xbcbe64ba	-0.02324139
37	0xbb9b2813	-0.004735002
38	0xbbd72d93	-0.006566712
39	0x3c40a066	0.011756992
40	0xba93e30b	-0.0011282874
41	0xbc79eaf2	-0.015253769
42	0x3a2bb7db	0.0006550529
43	0x3c339d87	0.01096285
44	0x3ab21455	0.0013586382
45	0xbc6016cd	-0.013677311
46	0x3bf5ca73	0.0075009405
47	0xbc85e10c	-0.016342662
48	0x3c2c9847	0.010534353
49	0x3c944a66	0.018101882
50	0xbb124b5d	-0.0022322752
51	0xbb26d56b	-0.0025456797
52	0x3c2c7f40	0.010528386
53	0x3a0c76dc	0.00053582876
54	0x3c38436b	0.011246542
55	0xbba300d9	-0.0049744663
56	0xbbc3e468	-0.005978156
57	0xbc34d8b7	-0.011037997
58	0xbc243514	-0.01002242
59	0x3b82cf57	0.003992002
60	0x3bc54c7d	0.006021081
61	0x3c1a0d9d	0.00940266
62	0x3a881ceb	0.0010384595
63	0x3abee540	0.0014564171
64	0xbc247e17	-0.010039828
65	0x3be67f48	0.007034216
66	0x3a041389	0.00050383114
67	0x3ab46356	0.0013762515
68	0x3a6bf287	0.0009000678
69	0xbb85d24f	-0.0040839086
70	0xbca69f7b	-0.020339718
71	0x3a7755e0	0.00094350986
72	0x3b85b078	0.0040798746
73	0x3b01889f	0.001976527
74	0x3b1b15a6	0.0023664027
75	0x3ab267ac	0.0013611219
76	0x3bd25395	0.006418655
77	0xbc15faa3	-0.009153995
78	0xbae15902	-0.0017192664
79	0x3c089d1f	0.008338242
80	0xbbe4c9ca	-0.006982063
81	0x3c099dbf	0.008399426
82	0x3bb36ce3	0.005475627
83	0x3c32e148	0.010917969
84	0xbb2f3e87	-0.002674015
85	0xbc5ee388	-0.013604052
86	0x3c9b8727	0.018985344
87	0xbca22ee9	-0.01979776
88	0x3b755f17	0.0037440711
89	0xbb22a187	-0.0024815516
90	0x3bc6bbd7	0.0060648727
91	0x3c594fba	0.013263637
92	0xbbb5bd1b	-0.005546225
93	0x3b372f9d	0.0027951964
94	0x3aeffbad	0.0018309258
95	0xb9acc097	-0.00032949887
96	0x3b8dac3b	0.00432351
97	0xbc7456c5	-0.014913266
98	0x3bf705b5	0.007538522
99	0x3c28c898	0.0103017315
100	0xbacb44c4	-0.0015508165
101	0x3c1d0f53	0.009586173
102	0xbbc0750e	-0.005873329
103	0x3b076f36	0.0020665652
104	0xbb92b287	-0.0044768485
105	0x3b534710	0.0032238401
106	0xbb921b72	-0.004458838
107	0x3b8bb85e	0.0042639216
108	0xbc3dc758	-0.011583172
109	0x3c07de28	0.008292712
110	0xbac7c9cb	-0.0015242634
111	0x3bb42dc1	0.0054986184
112	0x3b43fb7f	0.0029904542
113	0xbc1a9a59	-0.009436213
114	0x3c4f8a0f	0.012667193
115	0xbbd68d02	-0.006547571
116	0x3c24629e	0.010033278
117	0x3c07a638	0.008279376
118	0x3c92aaa1	0.017903628
119	0x3a988818	0.0011637239
120	0x3c4e3058	0.012584768
121	0x3c390463	0.01129255
122	0xbc11e38e	-0.008904351
123	0x3c2a43c3	0.010392132
124	0x3c41f0bc	0.011837181
125	0x3c84632f	0.016160576
126	0xbc54c6bf	-0.012986838
127	0xbbd4653a	-0.0064817937
128	0x3b6b5e10	0.003591422
129	0xbccc113c	-0.024910562
130	0x3c0aa32d	0.008461756
131	0xbbd6fa3d	-0.0065605924
132	0x3c62a8f5	0.013834228
133	0x3c7ada00	0.015310764
134	0xbba9353e	-0.0051638177
135	0xb9e47038	-0.00043571158
136	0x3c8c343b	0.01711475
137	0x3bf52d87	0.007482234
138	0x39c39296	0.00037302513
139	0x3b0ddbf3	0.0021645993
140	0xbbe58903	-0.0070048585
141	0x3bca9604	0.006182434
142	0xbb1ce479	-0.0023939891
143	0x3bcb7550	0.006209053
144	0xbba58cea	-0.0050521987
145	0xba2bbb39	-0.00065510307
146	0x3c5d95a7	0.013524449
147	0x3b0c1ba3	0.0021378777
148	0xba7c3318	-0.00096206507
149	0xbc26f4a4	-0.010190163
150	0x3bc51493	0.0060144155
151	0x3bb26b3f	0.0054449136
152	0x3c498853	0.012300569
153	0xbb83a33b	-0.0040172613
154	0xbc7d5cc0	-0.015464008
155	0xbc799d2b	-0.015235226
156	0xbc88b1e7	-0.016686393
157	0x3b150e78	0.002274422
158	0x3c83be0a	0.016081829
159	0x391839ba	0.00014517354
160	0xbc8b32cb	-0.016991993
161	0xbb959eb3	-0.0045660376
162	0x3c339455	0.010960658
163	0xbaf6520d	-0.0018792764
164	0x3c056d85	0.008143787
165	0xbc465d2b	-0.012107174
166	0x3beb1208	0.0071737804
167	0x39436d4b	0.00018637364
168	0xbbc56755	-0.006024281
169	0x39ed0e8d	0.00045215004
170	0x3b0cba33	0.0021473288
171	0xbb8abb5d	-0.004233761
172	0x3c02562b	0.007955114
173	0xbc248cbf	-0.010043322
174	0x3c1cc1d3	0.009567696
175	0xbbd2e8ed	-0.0064364583
176	0xbbb7bd93	-0.005607316
177	0xbb87169d	-0.0041225688
178	0xbc93e57f	-0.018053768
179	0x3bbbe79f	0.0057343985
180	0x3c14e02c	0.00908665
181	0xbb278b4c	-0.0025565205
182	0x3bb53fbb	0.005531279
183	0xbb142d8f	-0.0022610163
184	0xbca80fef	-0.02051541
185	0x3c00d333	0.007862854
186	0xbca2c193	-0.019867694
187	0xbc127f55	-0.008941491
188	0x3a875642	0.001032539
189	0x3b5ea710	0.0033974089
190	0x3a8aae42	0.0010580497
191	0xbb98e72b	-0.0046662292
192	0x3c39b217	0.011333964
193	0x3b97fda8	0.0046383925
194	0xbc2ddf7d	-0.010612366
195	0xbbd4d638	-0.0064952634
196	0x3be2795d	0.0069114403
197	0xbc97fa60	-0.018552005
198	0xbc7d606d	-0.015464884
199	0xbc41c4b8	-0.011826687
200	0x3c1b020f	0.00946094
201	0x3c1c82b2	0.009552645
202	0x3b99e9db	0.004697067
203	0x3bfeea95	0.007779429
204	0x3c100ba1	0.008791835
205	0x3c07f81c	0.0082989
206	0xbbacff9b	-0.005279494
207	0x3c60e347	0.013726062
208	0x3c087b21	0.0083301375
209	0xbb93f486	-0.0045152334
210	0x3b8ae5f7	0.0042388397
211	0x3bf443ab	0.0074543557
212	0xbbb7fce8	-0.0056148656
213	0xbb43927a	-0.0029841946
214	0xbb61c1ef	-0.0034447869
215	0xbc10a8db	-0.008829321
216	0xbc311d3f	-0.0108101955
217	0x3a935203	0.0011239651
218	0xba217a8b	-0.0006159923
219	0xbb733cc2	-0.0037115072
220	0x3ac037b3	0.0014665037
221	0xbac611c0	-0.0015111491
222	0xbc6af645	-0.014340942
223	0xbb06d41c	-0.0020573204
224	0xbc02fafe	-0.0079944115
225	0x3c3cef8c	0.011531722
226	0xbc3947a4	-0.011308584
227	0x3c93d36f	0.018045155
228	0xbb2d7766	-0.0026468872
229	0x3c0a4dd9	0.008441412
230	0xbbf22e4a	-0.007390772
231	0xba84b6ab	-0.001012524
232	0xbbe16af5	-0.0068792053
233	0xba52520a	-0.0008023089
234	0xbc015c4d	-0.007895541
235	0xba789ccd	-0.00094838144
236	0xbc58475a	-0.013200605
237	0x3be310b3	0.006929481
238	0x3b9d122b	0.0047934256
239	0x3b15ca69	0.0022856242
240	0x3ae6e2ad	0.0017615162
241	0xbc03eb57	-0.008051715
242	0x3badfd97	0.0053097713
243	0xba704962	-0.00091662083
244	0xbbe03f2f	-0.0068434696
245	0xbbd42e95	-0.0064752796
246	0x3ad22eed	0.0016035713
247	0x3c051265	0.008122061
248	0xbc4dadea	-0.012553671
249	0x3a8f683a	0.0010941096
250	0x3bd5213d	0.0065042065
251	0x3c8e9250	0.017403752
252	0x3b1f7b27	0.002433488
253	0xbb122b1b	-0.0022303525
254	0x3cc18588	0.023623243
255	0x3bfccdcf	0.007714964

action_model._discrete_distribution.branches.3.weight f4 [2, 128]
0	0x3c17a530	0.009255692
1	0xbb516347	-0.0031950043
2	0x3b553992	0.0032535535
3	0x3c3b7e90	0.011443749
4	0x3b8f05c3	0.0043647005
5	0x3c007073	0.00783931
6	0xbb0084c5	-0.0019610387
7	0x3bbe9a05	0.0058167004
8	0xbb3c8e6c	-0.0028771413
9	0xbc6316b3	-0.013860392
10	0xbaf2bbcb	-0.0018519101
11	0xbc82f802	-0.0159874
12	0x3b8e43cf	0.0043415795
13	0x3a2172f7	0.00061587937
14	0x3af12e1f	0.0018400586
15	0xba9dbaa0	-0.0012033768
16	0x3ac1c142	0.0014782327
17	0x39d17daa	0.00039957213
18	0x3c289a93	0.01029076
19	0xbc07b89c	-0.00828376
20	0xbb2c605b	-0.002630255
21	0xbc546cba	-0.012965376
22	0xb9fda038	-0.00048375293
23	0xba652955	-0.00087418157
24	0x3bf02cfa	0.0073295804
25	0xbc4bd535	-0.012440969
26	0xbc7ffd37	-0.015624336
27	0xbb7ad193	-0.0038271889
28	0xbbf59cd5	-0.0074955025
29	0xbc19feff	-0.009399175
30	0x3c049b3f	0.008093654
31	0xb9b7307b	-0.000349406
32	0x3b960b43	0.004578979
33	0x3bac8a5f	0.0052655186
34	0xbbc2bff7	-0.005943294
35	0xb9f73a45	-0.00047154925
36	0xbb979b2f	-0.0046266536
37	0xbc0dd6a1	-0.008657129
38	0xbb283af6	-0.002566991
39	0xbc8ab817	-0.016933484
40	0xbbf47042	-0.0074596712
41	0x3b89c4f8	0.0042043887
42	0x3c0b8c07	0.008517272
43	0xbb552e95	-0.0032528986
44	0x3adb8563	0.0016748126
45	0xbc1977a3	-0.0093669025
46	0xbc19782b	-0.009367029
47	0xb9fbe84a	-0.0004804752
48	0x3bb53c62	0.00553088
49	0x3bc84c31	0.0061125983
50	0x3c68325b	0.014172162
51	0x3b9f052f	0.004852913
52	0x3bd3c2f0	0.0064624473
53	0xbbd4ecb5	-0.0064979442
54	0x3bf4920a	0.0074636983
55	0x3bf68175	0.0075227567
56	0x3c81076b	0.015750607
57	0x3cba661f	0.022753773
58	0x3c85f56c	0.016352378
59	0x3c27be04	0.010238174
60	0xbb1d74a6	-0.0024025827
61	0x3c80cd37	0.015722854
62	0x3c01a59f	0.007913022
63	0xbc5c5cd3	-0.013449865
64	0xbc10cfe7	-0.00883863
65	0xbc64849b	-0.013947631
66	0xbc9f1e5b	-0.019423654
67	0x3bb47cb5	0.0055080303
68	0x3c93de43	0.018050319
69	0xbbd3931a	-0.006456745
70	0x3b6dc328	0.0036279652
71	0x3acb195d	0.001549523
72	0xbb80a499	-0.0039258716
73	0xbbf79f67	-0.007556844
74	0x3bd21345	0.0064109885
75	0x3c094807	0.008378989
76	0xbb13aa3f	-0.0022531895
77	0xbc78cdb0	-0.0151857585
78	0x3b007d49	0.0019605926
79	0x3ba9bc11	0.00517989
80	0x3c067a90	0.008207932
81	0xbafe7538	-0.0019413596
82	0xbba0db2f	-0.004908941
83	0xbc28eb80	-0.010310054
84	0xbb24346b	-0.0025055658
85	0x3c495c6e	0.012290103
86	0xbc1d168a	-0.009587893
87	0xbbc187e7	-0.0059060934
88	0x3b8b7d9f	0.0042569186
89	0x3bf13038	0.0073604845
90	0x3c5e3a08	0.01356364
91	0x3b48390e	0.0030551585
92	0xbbcc25c7	-0.0062300893
93	0xbbec4e67	-0.0072114947
94	0x3b0d61cb	0.0021573182
95	0x3bb79ef1	0.005603664
96	0x3c3e2cb7	0.011607341
97	0xbc035dff	-0.008018016
98	0x3b33b61b	0.0027421776
99	0x3b619423	0.0034420572
100	0x3bb8e8a4	0.0056429673
101	0x3c2c5cb1	0.010520146
102	0xb8e89205	-0.0001108982
103	0xba856bd9	-0.0010179236
104	0xbb1cad75	-0.00239071
105	0x3ae68e5b	0.0017590033
106	0xbc8e8017	-0.017395062
107	0x3b906097	0.0044060457
108	0xbc419afa	-0.011816734
109	0xbc534922	-0.012895854
110	0x3b0d280b	0.002153876
111	0xbbba32a6	-0.0056823073
112	0xbb16505b	-0.002293608
113	0xbc19cbbb	-0.009386952
114	0xbb9ffa10	-0.0048821047
115	0xbb40bbd2	-0.0029408825
116	0xbbf62420	-0.0075116307
117	0xbcc2997c	-0.023754828
118	0x3a9ed832	0.0012118875
119	0xbbc8492b	-0.006112238
120	0x3bac1377	0.005251344
121	0xbb82a338	-0.0039867423
122	0x3c089daa	0.008338371
123	0x3c06993e	0.008215247
124	0x3af89cb5	0.0018967601
125	0xba556395	-0.0008140144
126	0x3c0eb717	0.008710644
127	0x3b846c15	0.0040412047
128	0x3cc649a5	0.024205038
129	0xbc541878	-0.012945287
130	0x3c3272d8	0.010891639
131	0xba626278	-0.0008635889
132	0x395429ed	0.00020233514
133	0xbbfcaacd	-0.0077107907
134	0xbc2c86cb	-0.010530184
135	0x3c8339a3	0.016018694
136	0xbc01c82b	-0.007921259
137	0x37de1488	2.6474023e-05
138	0x39368216	0.00017405333
139	0xbc986dd9	-0.018607067
140	0xbc024d38	-0.007952981
141	0xbb81749e	-0.0039506694
142	0x3b3d8f2b	0.0028924446
143	0x3b6812c2	0.003541157
144	0xbac4d8c8	-0.0015018219
145	0x3c6c1abf	0.014410674
146	0x3c0aa001	0.0084609995
147	0xbc1b56d3	-0.00948115
148	0xbc039861	-0.008031935
149	0x3c564e2b	0.01308016
150	0x3b8e2d69	0.0043389094
151	0x3b1a3289	0.0023528656
152	0x3c887d0b	0.016661188
153	0xbc1a2faf	-0.009410783
154	0xba0823b7	-0.000519331
155	0x3a17dddb	0.0005793252
156	0x3c5c56ba	0.013448412
157	0xbbd0724a	-0.0063612806
158	0xbb96f3d7	-0.0046067047
159	0x3cb11b68	0.021619514
160	0x3c22d092	0.009937422
161	0x3bc22b1f	0.0059255506
162	0xba34b324	-0.0006893149
163	0xbb74cd9d	-0.0037354
164	0x3c1a07c8	0.009401269
165	0xbb30ab11	-0.0026957432
166	0x3b336791	0.0027374963
167	0x3c2478de	0.010038583
168	0x3bd611d3	0.0065328865
169	0x3b54a185	0.0032444906
170	0x3b25a5f7	0.0025275925
171	0xbc957466	-0.01824398
172	0xbbf6fadb	-0.0075372285
173	0x3b74bdbd	0.0037344538
174	0xbb525678	-0.0032094996
175	0x3c92d6cd	0.01792469
176	0x3bba1534	0.005678797
177	0xbcacf009	-0.021110551
178	0x3bc706a7	0.006073791
179	0x3c4b2791	0.01239957
180	0x3b9beb2d	0.0047582597
181	0xbb4ee070	-0.003156688
182	0xbb8a24f3	-0.0042158305
183	0x3bbe1d31	0.0058018197
184	0x3c7f14c3	0.015568915
185	0x3b9424ac	0.004520973
186	0x3b941cc8	0.0045200326
187	0xbaf3185d	-0.001854669
188	0xba9eae82	-0.0012106451
189	0x3b117700	0.0022196174
190	0xbbe812d2	-0.0070823217
191	0x3b77ec30	0.0037829988
192	0xbb248033	-0.0025100827
193	0xbc00801a	-0.007843042
194	0xbbd9c3ca	-0.0066456543
195	0xbbc296d3	-0.00593839
196	0x3c09e7d5	0.0084170895
197	0x3b175b23	0.0023095093
198	0x3c2425b2	0.010018753
199	0x3bf5f1d5	0.0075056353
200	0xbc17af4b	-0.009258102
201	0x3c53c780	0.0129259825
202	0x3b414573	0.0029490858
203	0x3a5f4118	0.00085164746
204	0x370805ef	8.107613e-06
205	0x3b84fc94	0.00405843
206	0xbb8620bb	-0.0040932572
207	0xbb5e86fb	-0.0033954966
208	0xbc216c2f	-0.009852453
209	0x3a949f47	0.0011338972
210	0x3cd3e010	0.025863677
211	0x3bbf3dc7	0.005836222
212	0xbc85694a	-0.016285557
213	0xbb247ed7	-0.0025100017
214	0xba024478	-0.0004969309
215	0x3b2d9661	0.0026487338
216	0xbc2cdd44	-0.010550801
217	0xbc2941d2	-0.010330634
218	0x3b9d76af	0.004805408
219	0x3bc349ef	0.0059597413
220	0xbc497c11	-0.012297646
221	0xba8eb9c7	-0.0010889106
222	0x3bb5f0d3	0.00555239
223	0x3c16de6f	0.009208306
224	0x3b4fcbb7	0.0031707117
225	0xba5a6f22	-0.00083326
226	0x3c48a89c	0.012247231
227	0xbc5b5a78	-0.013388269
228	0xbc308dbc	-0.01077598
229	0xbbb81422	-0.0056176344
230	0xba8b4bd1	-0.0010627453
231	0xba07cad8	-0.00051800674
232	0x3c0c2722	0.008554252
233	0x3b980a3d	0.0046398924
234	0xbbbc0f44	-0.0057391245
235	0xbb8f83eb	-0.0043797395
236	0xbb05f9cb	-0.0020443078
237	0x3c2e93bc	0.01065534
238	0x3b6425b2	0.0034812507
239	0xbbc7531d	-0.006082906
240	0x3b1b49dc	0.0023695147
241	0xbc1a8329	-0.009430685
242	0x3c3931db	0.01130339
243	0xbc445922	-0.011984142
244	0xbb131670	-0.0022443794
245	0xbb92d803	-0.004481317
246	0x3c29cacb	0.010363291
247	0x3b8981b6	0.004196371
248	0xbbe575c8	-0.007002566
249	0x3b42cd6a	0.0029724487
250	0x3bcc8aff	0.0062421556
251	0xbc532508	-0.012887247
252	0x3b2c8dfc	0.0026329746
253	0xbc27e693	-0.010247844
254	0x3bae14f7	0.005312558
255	0xbb55fa68	-0.0032650474

onnx::Div_100 f4 [11]
0	0x42156509	37.348667
1	0x41cee069	25.859575
2	0x41beaee3	23.835394
3	0x417f41f2	15.9536
4	0x412b4634	10.704639
5	0x402307a4	2.5473413
6	0x3f004ade	0.5011424
7	0x3efffafa	0.49996167
8	0x3f001661	0.5003415
9	0x3f002e26	0.50070417
10	0x3d0d12e0	0.03444183
