Assets/results/day4_1208/TrafficLightBrain/TrafficLightBrain-859998.onnx (onnx, 403823 bytes, 21 tensors)

discrete_act_size_vector f4 [1, 8]
000000 00 00 00 40 00 00 00 40 00 00 00 40 00 00 00 40
       2.0 2.0 2.0 2.0
000010 00 00 00 40 00 00 00 40 00 00 00 40 00 00 00 40
       2.0 2.0 2.0 2.0

network_body._body_endoder.seq_layers.0.weight f4 [256, 100]
000000 80 c6 53 3d bb 95 9c bd ed 71 2a be d6 85 33 be
       0.051702976 -0.07645746 -0.16645022 -0.17531523
000010 44 94 c9 bd 80 dd 32 be 42 6d 99 be aa 33 47 bd
       -0.098427325 -0.17467308 -0.2996617 -0.048633255
000020 cf e5 11 3d c6 36 22 bd 98 d5 54 3d 1f 1f af bd
       0.035619553 -0.039603017 0.05196151 -0.08550858
000030 79 09 06 bd 76 04 fa bd f9 d0 5c be f3 9d d9 3c
       -0.032723878 -0.12207882 -0.21564092 0.026564574
000040 f2 6a b9 bd 6d 0a 0c 3b 8c 7a 9e be 74 2d 22 be
       -0.09053601 0.002136852 -0.3095287 -0.15837651
000050 6e 57 d9 bc 23 66 51 3d 7d 33 69 3c 79 75 27 bd
       -0.026530948 0.051122796 0.014233467 -0.040883515
000060 1b a9 48 be 1f 24 15 bd fc 12 db bb 55 38 02 be
       -0.19595759 -0.0364114 -0.0066856127 -0.12716801
000070 ef e0 78 bd 87 0b 36 bd 4a d4 78 3d f7 e7 d3 bd
       -0.06076139 -0.044444587 0.06074933 -0.10346978
000080 d5 45 0d 3d 93 0b 77 bd 35 fb 87 bc ea 71 80 bd
       0.034490425 -0.060313772 -0.016599277 -0.062717274
000090 fb 54 e0 bc ba 0a d2 3c 73 39 98 3d a6 61 90 3c
       -0.027384272 0.02563988 0.074328326 0.017624687
0000a0 4b 7f 0d 3e d7 1c 43 bd f3 a0 21 be a5 f3 dd 3d
       0.1381809 -0.047634926 -0.15784054 0.10837487
0000b0 c8 cc c5 bd df b2 5c 3e 81 e5 ad 3d d3 35 67 bd
       -0.096581995 0.21552609 0.0849104 -0.056447815
0000c0 c5 2a 6c 3e fb dd e6 bd 87 5e a5 bb b8 54 ce 3c
       0.2306319 -0.11272808 -0.005046669 0.025186881
0000d0 86 9f 06 3d be 08 03 3e c7 b3 a0 bd 78 1b e3 3c
       0.032866977 0.12796304 -0.0784679 0.027723059
0000e0 42 0d 24 bc 9a 97 ac 3d 2f 98 4d 3d ed 4d 5e 3c
       -0.0100129265 0.08427353 0.05019396 0.013568384
0000f0 57 fa a6 bd 7a 4d 70 3c 9b 96 98 bd 54 91 02 3e
       -0.08153217 0.014666909 -0.07450601 0.12750751
000100 e0 63 1b be 4b 57 15 be 58 31 90 3c 3a 9f 01 3e
       -0.15174818 -0.14584081 0.017601654 0.12658396
000110 92 80 23 3d 9b 40 0a 3b 5b 46 c1 bd 68 84 ef 3c
       0.039917536 0.0021095637 -0.09437247 0.02923794
000120 8d fe 60 bd 37 c9 56 3e d7 e9 a1 3d 94 cb 4a 3c
       -0.05493026 0.20975195 0.079059295 0.012377638
000130 38 b9 9f 3d e8 33 89 bd 27 78 64 3e 94 16 9a bd
       0.077989995 -0.066993535 0.2231146 -0.07523838
000140 47 96 52 bc 87 cd 20 be e8 06 d8 bc a1 8e b2 3d
       -0.012853212 -0.15703402 -0.02637048 0.087186106
000150 3b 8e 05 3d 0f 1f 03 3d 80 14 d3 3a 7b b9 b2 bd
       0.032606345 0.03201204 0.0016104132 -0.08726784
000160 c9 4e 20 3d 80 e5 ea 3d 73 cd 20 bb 5a 97 67 bb
       0.039137635 0.11469555 -0.002453652 -0.0035338015
000170 43 25 87 bc cd e0 3c be 13 e9 bc 3d b5 81 24 3c
       -0.01649726 -0.1844513 0.09224143 0.01004069
000180 94 9c 40 3c ed e5 88 bc 94 a7 3c bd c0 3a a9 bd
       0.011756081 -0.0167112 -0.046058252 -0.08263159
000190 b1 57 6f 3d 28 e5 0d be 05 ca 01 be 31 a9 30 bd
       0.05843324 -0.13856947 -0.1267472 -0.043130103
0001a0 4f f4 04 be e8 b1 78 be 18 92 25 be 26 ab c2 bd
       -0.12983821 -0.24286616 -0.16169012 -0.095053
0001b0 c1 0b 41 be f2 e3 7e 3d 2a 55 50 3e 2e a9 03 be
       -0.1885214 0.062229104 0.20344988 -0.12857506
0001c0 df bd 0d be 7a fb b5 3d ff 09 a7 3c 38 ab 63 3d
       -0.13841961 0.08885856 0.020390509 0.05558321
0001d0 b3 fa 25 be 26 ba 52 be e3 dd 51 bd 6c c1 98 bd
       -0.16208915 -0.20578822 -0.051237 -0.07458767
0001e0 c2 e8 ad bd ce 08 5a be ae 23 20 bd d9 fd 09 be
       -0.08491661 -0.21292421 -0.039096527 -0.13475741
0001f0 5f dc 06 be 8e 59 a6 bc 05 4b 68 3e c2 4d 65 bd
       -0.13170002 -0.020306375 0.22684868 -0.05598236
000200 7c 4b a8 3c e8 9b 35 3d d9 24 1b 3c 37 0d 5d be
       0.020543806 0.044338137 0.009469234 -0.21587072
000210 4b 1f be bd ff 2a a5 3d 50 1e ce 3d 1b 13 04 3e
       -0.092833124 0.080648415 0.100643754 0.12897913
000220 03 22 c5 3d a4 29 09 3e de fc 8d 3a ce 6c 0e be
       0.09625628 0.13394791 0.0010832807 -0.13908693
000230 4e 12 01 bd 23 aa 93 3d fa 42 51 3d 7f ec bb bd
       -0.031511597 0.072101854 0.051089264 -0.091759674
000240 98 6f e8 bd 63 e4 22 3d 91 10 1e 3b e7 21 38 3d
       -0.1134941 0.039768588 0.002411876 0.044954207
000250 b1 97 89 3c bd 4f 4d 3c 08 19 84 bd e5 88 c0 3d
       0.016795965 0.012531218 -0.06450087 0.094011106
000260 d0 ac f3 bd c7 c0 2f be f7 50 84 bd d5 b8 06 be
       -0.11898196 -0.17163382 -0.06460755 -0.13156445
000270 cf fc 6b 3d 3a 95 71 3d 95 c5 11 3d 55 cc df 3b
       0.057614144 0.058980204 0.03558882 0.006829778
000280 67 91 fb 3d 53 8b ce bc 05 2a 84 3d f3 ff a9 bd
       0.12283593 -0.02521292 0.06453327 -0.083007716
000290 65 d8 85 bd 33 f9 af bd 68 6e 3c 3d 59 61 af bd
       -0.065354146 -0.08592453 0.04600373 -0.085634895
0002a0 73 e8 0a 3e 83 e2 41 3d 36 b2 40 bd c3 eb 6d 3d
       0.13565235 0.04733516 -0.047044955 0.058086168
0002b0 17 fe e8 3d 68 7f ec 3d 83 87 0f 3d 82 05 b1 3c
       0.11376589 0.11547738 0.035041343 0.021609072
0002c0 29 0d 27 be 3c 72 cc 3d 73 93 12 3d 40 ee 39 3e
       -0.16313614 0.09982726 0.03578515 0.18157291
0002d0 3d ba 90 3c f2 18 21 3e 10 37 eb bd 4f dc ad bb
       0.01766693 0.15732172 -0.11485112 -0.005305804
0002e0 c3 d8 be 3c c5 7a 92 3b bd dc 70 3d bf 5d a4 bd
       0.02329672 0.0044702017 0.058804262 -0.08025693
0002f0 99 56 38 bc e1 31 88 be a0 4c 92 bc c2 2c bf bd
       -0.011251115 -0.26600555 -0.017858803 -0.09334709
000300 bb 2a db bd 1a c9 8f bb 7a c3 6e 3d 80 ca 2b bd
       -0.107015096 -0.004387987 0.05829189 -0.041941166
000310 2d 6b 0c 3d dc 07 4b 3d 37 83 60 3d a6 17 ae 3d
       0.0342819 0.049568042 0.054812636 0.08500604
000320 c7 98 09 bd 61 c2 27 bd c4 8b f2 bd cc ad e8 3d
       -0.033592965 -0.04095686 -0.118430644 0.11361274
000330 87 b7 ae bd 50 cf 93 bc 2f 2a bd bd b3 ca 71 3d
       -0.08531099 -0.01804319 -0.092365615 0.0590312
000340 8f bb 34 bd ed 9d 99 3d d0 99 b8 bd 04 80 ae bd
       -0.044124182 0.07500825 -0.090137124 -0.08520511
000350 ad 8f 30 3d d8 70 b3 3c 72 b6 17 be 42 cf 9f 3d
       0.04310577 0.021904394 -0.14815691 0.07803203
000360 d5 da 9d bc eb 89 dc be 43 b2 02 be c9 3e 47 3d
       -0.019269386 -0.43073973 -0.12763314 0.04864386
000370 b4 ef 54 3d 46 b5 62 3e 22 3b 1c 3e d4 40 5b 3d
       0.05198641 0.22139463 0.15256932 0.05352862
000380 83 b0 4a bd 02 af ee 3d 40 30 19 bc fb 0e cb 3d
       -0.04948474 0.11654474 -0.009349883 0.09914967
000390 1f 7e 6d bd 6e 07 94 3d 57 e6 cb 3c 07 c0 86 bc
       -0.057981607 0.072279796 0.024890108 -0.016448988
0003a0 4b 94 16 3e 09 40 2c bc 2b 99 a1 bd 7f 39 78 bc
       0.14705007 -0.010513314 -0.078905426 -0.015150427
0003b0 77 b6 ce bd cf 55 8c bd 15 19 6e 3d b7 00 4e bd
       -0.10093396 -0.06852304 0.05812939 -0.05029365
0003c0 c5 5e d7 bc 6c 17 30 3c 0a 90 06 3e 73 ab 0d bd
       -0.026290307 0.010747772 0.13140884 -0.034587335
0003d0 6b dd a0 bc 89 2e 1e be 2f 3b e5 3d 90 a2 83 bc
       -0.01963683 -0.15447439 0.11192929 -0.016068727
0003e0 ad 9e e0 3d 2e 9f 22 be 42 11 af 3c 1b 28 f0 3c
       0.10967765 -0.15881035 0.021370534 0.029315999
0003f0 db a0 e6 3d 16 e1 0b 3d f3 c3 69 bc 82 d7 b5 3d
       0.112611495 0.034150206 -0.014267909 0.088789955

network_body._body_endoder.seq_layers.0.bias f4 [256]
000000 89 bc 21 bd f5 b3 1d bd 7f cf 84 3d f0 fb cb 3c
       -0.03948644 -0.0385017 0.06484889 0.024900407
000010 b1 2b b2 3c 7e 8e d5 bc 98 4d 1a bd 8a c8 1f 3c
       0.02174935 -0.026068922 -0.037671655 0.009752402
000020 99 c6 10 bc d2 0a 21 bd 8b 82 39 3d ff f8 77 3d
       -0.008836412 -0.03931696 0.04529051 0.060540196
000030 0a 89 f5 bc d6 e4 17 3d a6 c3 04 bd 96 2f 1e 3c
       -0.029972572 0.03708347 -0.032413147 0.0096549
000040 9a a2 cc 3d 94 04 2e bd d4 95 e4 bb 0c f9 6f 3a
       0.09991951 -0.042484835 -0.0069758687 0.00091542373
000050 79 06 6d 3c ab fc c1 3c 92 57 0d bc 74 c4 03 bd
       0.014466875 0.023680052 -0.008626835 -0.032169774
000060 c6 36 5d bd 5d 51 2d 3d d5 c0 18 3c 9d 16 0b bd
       -0.054007314 0.042313922 0.0093233185 -0.033957113
000070 37 29 5e ba 1f 37 be bc 88 af 21 3d 67 cd 23 bc
       -0.00084747694 -0.023219643 0.03947404 -0.009997702
000080 fa 23 7a 3c c9 89 be bc 18 f2 34 3c 29 75 03 bc
       0.015267367 -0.02325906 0.011044048 -0.008023539
000090 06 24 cb 3d 5e 58 20 3d 5a 3f a3 bc 12 b4 60 3c
       0.0991898 0.039146774 -0.01992767 0.013714807
0000a0 7c 3b 84 3c 46 a0 6f 3c 16 4b 61 bd 5a f0 46 bd
       0.016141646 0.0146256145 -0.05500325 -0.04856906
0000b0 74 94 32 3d cb ff 06 3d 93 86 da b9 43 fc 90 bc
       0.043598607 0.032958787 -0.00041680466 -0.017698413
0000c0 04 eb 57 bc cd 46 6a 3d 7e 14 15 bd 01 dc 48 bd
       -0.013178591 0.057196427 -0.036396496 -0.049037937
0000d0 12 22 c4 bc 6c b4 5a bc fe 67 62 bc 64 e4 96 3b
       -0.023942027 -0.01334868 -0.013818739 0.004604863
0000e0 ea 35 a1 bc e6 d3 8b bc 8c 7e 59 bb d1 01 96 bb
       -0.019679029 -0.017068814 -0.0033187 -0.0045778533
0000f0 ec f7 45 3d 5f f8 46 bc 8f 8e 8a 3d b0 b8 78 3c
       0.04833214 -0.012144177 0.06765472 0.015180752
000100 41 ce 4c 3b d7 5a ad ba f1 6e 02 3c dd 29 e3 bc
       0.0031250867 -0.0013225925 0.007961021 -0.027729923
000110 07 eb 4d 3c ac d5 63 3c 24 89 1c bc 46 ef 0b 3d
       0.012568242 0.013905924 -0.009554181 0.034163736
000120 f8 f6 fe 3c 61 65 81 3c 04 b7 84 bb d6 d3 3c 3d
       0.031123623 0.015795412 -0.0040501375 0.04610046
000130 b9 95 58 bc ca ed f6 ba b5 08 9d bc 9c f4 c4 3b
       -0.01321929 -0.0018839177 -0.01916919 0.006010605
000140 1c c6 41 3d 54 f8 9b bb 57 37 b7 ba fd 75 ae 3c
       0.047308072 -0.0047598276 -0.0013978285 0.021296496
000150 fc 6d 0c bd 24 9b 8d 3c d4 44 46 3d 07 51 0f 3d
       -0.034284577 0.01728589 0.048405483 0.034989383
000160 e5 2f f3 3c b0 2d e0 bc cf 28 5a bc 0a 40 0a bb
       0.029685924 -0.027365535 -0.013315394 -0.00210953
000170 08 f3 b0 3d a1 64 1c 3d cc 93 90 3d 1e ba da 3b
       0.086401045 0.038181905 0.0705944 0.006675019
000180 c5 17 1a bd 42 11 92 3b 8b a5 e1 bc d4 03 19 3d
       -0.037620325 0.0044576237 -0.027544757 0.037357166
000190 a6 8b 29 3d 3d 66 37 3c 2e 25 15 3d dd 2c 5c 3c
       0.041392945 0.011193809 0.03641241 0.013438431
0001a0 0f 96 1a 3c 31 87 05 3d e4 ea 28 bd 48 b7 02 bc
       0.009435191 0.03259963 -0.041239634 -0.007978268
0001b0 a3 66 c1 3b 7d c3 1f 3d 88 b0 cd ba 0e a2 9e bc
       0.005902128 0.03900479 -0.0015692869 -0.019364383
0001c0 24 dd 4c bd 51 5e 2c bc f6 96 f7 3c 41 e7 d2 3c
       -0.050015584 -0.010520534 0.030223351 0.025745036
0001d0 ca 36 98 bc 9b 9b a1 bb 96 4d b6 3c dc c7 fb bc
       -0.018580813 -0.0049318797 0.022253793 -0.030734949
0001e0 5f 7d 78 bd d5 d5 ea 3c f0 62 41 3d 68 82 2a bd
       -0.06066644 0.028666416 0.047213495 -0.04162827
0001f0 54 71 a4 3c 39 14 80 3d 2c 8e 9c 3c 4a ca 4b 3c
       0.02007357 0.06253857 0.019110762 0.012438366
000200 93 16 13 3d 4e 13 04 3d bc df ab 3b 41 e2 a8 3b
       0.0359102 0.032244973 0.005245177 0.0051539247
000210 c3 8b bc bc e2 71 9b 39 ab 74 9f 3a 1f 85 88 3c
       -0.023015862 0.00029648753 0.0012165507 0.01666504
000220 d0 fe 14 bc 72 48 c4 bc 61 3e 85 3b f7 b5 82 bc
       -0.009093955 -0.023960326 0.004066274 -0.015955908
000230 57 73 17 3d d8 86 44 3c fc 12 d2 3d 9e b5 24 3d
       0.03697523 0.01199504 0.10257527 0.040212266
000240 c6 0f bd 3c 44 e2 f0 3c 6a 08 85 3d ff dc 4a bc
       0.02307881 0.029404767 0.064957455 -0.012381791
000250 a8 d2 2a 3d 7b 90 ad 3c d0 7b 46 3d a3 2a 0e bd
       0.041704804 0.021187058 0.04845792 -0.03470863
000260 a7 2c 70 3d 14 e9 84 bc ba a0 ee 3c ef 1d ad 3b
       0.058636334 -0.016224422 0.029129375 0.0052831094
000270 54 de 0e 3d 5d 6c 00 3c 4a 33 d9 ba c2 6b 50 bc
       0.034879997 0.007838336 -0.0016571071 -0.012721004
000280 5d db 8b 3d db 3b 44 3c 6c b2 9f 3c 53 68 0e 3d
       0.068289496 0.011977161 0.019494258 0.03476746
000290 18 c0 4e 3d fb 06 90 3c e6 7f bf bc 20 7b 86 bd
       0.050476164 0.017581454 -0.023376416 -0.06566453
0002a0 c8 68 90 3c 28 7a 3d bc 26 d6 99 3c ea f7 c4 bc
       0.017628089 -0.011564769 0.018778872 -0.024043996
0002b0 05 a5 3e 3d 76 9f 19 3d 37 93 ab ba 1b 56 2b 3d
       0.046544094 0.03750559 -0.0013090138 0.041830163
0002c0 ea b8 5d bd b2 eb 9e bc 33 dc 62 bc 47 e7 af 3b
       -0.054131426 -0.019399498 -0.013846445 0.0053681466
0002d0 8e 57 06 3c f6 56 ee bb e7 89 93 bc d0 59 1b 3d
       0.008199586 -0.00727355 -0.018010093 0.03792745
0002e0 40 8b 40 bd 2d 80 c6 bc 50 4c 80 3c 2d 63 1f 3d
       -0.0470078 -0.02423104 0.015661389 0.03891294
0002f0 18 29 6d bc 42 d0 b2 3c 85 5b b4 3c a6 64 ef 3b
       -0.01447513 0.02182782 0.022016296 0.0073056994
000300 a2 20 ac bc 3e 46 e1 3c a2 e4 41 bd 86 f9 50 3d
       -0.021011654 0.027499314 -0.047337182 0.051019214
000310 1b 20 e4 3c c1 b7 0d 3c 64 fe 22 3d 17 7f 52 bb
       0.02784734 0.008649767 0.039793387 -0.0032119208
000320 9a 78 cd 3b 31 69 82 bb 92 6f 98 3d 59 30 9b bc
       0.0062704803 -0.003979825 0.07443155 -0.018943952
000330 2d 35 87 bb e8 3b c6 bc f3 48 de bc 33 5c 00 3d
       -0.004126212 -0.024198487 -0.027134394 0.031337928
000340 fb 10 34 3d 5f 29 ff 3c 8d 61 86 bc d9 13 33 3c
       0.043961506 0.031147657 -0.016403938 0.010930025
000350 9d 51 07 3d 57 40 34 bd 50 f8 0b 3d f8 a4 02 bd
       0.033036817 -0.04400667 0.034172356 -0.031895608
000360 17 76 1b 3d 1d 36 4e 3c be c1 f2 bc a6 0c d7 bc
       0.037954416 0.012586144 -0.0296334 -0.026251148
000370 65 0e 40 bc 3b 31 11 3d e5 3b 9a 3c 2e 47 5e bc
       -0.011722182 0.03544734 0.018827388 -0.013566775
000380 66 5a 1b 3d 5e a7 62 3d b3 b6 3c 3d ea 70 86 bd
       0.037928008 0.055335395 0.046072673 -0.065645054
000390 e3 21 c5 3c 26 c6 df bc cf c2 21 3d 0e a5 f0 bb
       0.02406401 -0.027316164 0.039492425 -0.007343895
0003a0 58 78 bf 3c ba 73 9b bc 34 33 79 3d 61 bc 19 bd
       0.023372814 -0.018976081 0.060839847 -0.037533168
0003b0 69 92 a3 3c 29 86 9f 3c cb 0b 83 bd 6e a9 42 3d
       0.019967275 0.019473152 -0.06398734 0.047524862
0003c0 bf 6d 81 bc ed 3f 49 bb bc 6d 56 3d 01 39 ab bc
       -0.015799401 -0.0030708269 0.052350745 -0.020901205
0003d0 af 85 ab 3d 5d 2e 2a 3d 09 09 ef 3c 6e 68 9f bb
       0.083751075 0.04154812 0.029179113 -0.004864744
0003e0 f8 73 08 bd 9b ad db 3c 6c b2 1b 3d ce 14 cb bc
       -0.03331372 0.02681618 0.038011953 -0.024790194
0003f0 96 61 11 3d 7a 8a bf 3b 5c 87 6b 3d 5c d9 17 bd
       0.035493456 0.005845365 0.057502136 -0.037072524

network_body._body_endoder.seq_layers.2.weight f4 [256, 256]
000000 4f 73 1e bd a5 04 e9 bd 60 ba 8b 3d 3f 7a 90 3d
       -0.038684186 -0.11377839 0.068226576 0.070545666
000010 67 fd c8 3d 50 3c a7 3c 8a 57 0c bd 35 70 5a 3b
       0.09813958 0.020414501 -0.03426317 0.003333104
000020 c2 33 98 bc fa 3a 2d bd d1 cf a0 3d df 20 d2 3a
       -0.018579368 -0.042292573 0.07852138 0.0016031525
000030 94 48 93 bc 3a 7e 0a be 96 36 32 bd bd b2 25 bd
       -0.017978944 -0.13524714 -0.04350909 -0.04045366
000040 10 9a 1f 3d 5b 73 ea 3d 3b c3 95 bd 21 5b f7 3d
       0.038965285 0.114477836 -0.07312628 0.12077928
000050 1d 85 84 3c d0 af f8 bc f2 75 c2 bc 17 bb 94 bd
       0.016176755 -0.030357271 -0.023737881 -0.07262247
000060 b4 04 e5 bd 2d bc c3 3b 5e 82 e2 3d 68 05 d8 3d
       -0.11182538 0.00597336 0.11060022 0.10547906
000070 e8 7b ed 3c 3a 6c 2f bd a6 5a ec 3c c3 b0 41 bd
       0.028989747 -0.042827822 0.028851818 -0.047287714
000080 7d 5a 17 be 6a aa f3 3a ec db e0 bd 2c 1e 1d 3e
       -0.14780612 0.0018590216 -0.10979447 0.15343541
000090 63 88 08 3d 45 9c 09 bd 59 e2 ba 3c 80 ac 31 3d
       0.033333194 -0.033596296 0.02281301 0.0433774
0000a0 b9 d7 dc bc c8 16 b3 bd a5 1c f7 bd 34 94 0e 3d
       -0.026958333 -0.087445796 -0.120660104 0.034809306
0000b0 d8 96 90 bd 46 d2 fa 3c e7 7e 6c bc f1 f7 d7 bd
       -0.07060021 0.030617844 -0.014434553 -0.10545338
0000c0 5e c4 b9 b7 0e 8b a6 3d 41 e2 92 bc 20 ba 8a bc
       -2.214516e-05 0.08131991 -0.017930152 -0.016934454
0000d0 9f eb f0 3b 7a 66 05 3e 6a 7f a6 bd 89 14 36 be
       0.007352307 0.13027373 -0.08129771 -0.17781271
0000e0 27 04 bf bd bf 0d f0 bc 0e 68 90 bd ae cc 15 be
       -0.09326964 -0.02930343 -0.07051097 -0.1462886
0000f0 28 07 3d bd 6f 37 8e 3d 3c 9a ce 3c 80 ec c9 bc
       -0.046149403 0.06944167 0.025220029 -0.024648905
000100 20 95 e8 3a 2c eb 04 bd 1f eb 18 3d 14 ab a6 3d
       0.0017744638 -0.03245084 0.037333604 0.08138099
000110 7d f8 d0 bd 0f d4 a0 bb 25 72 1c be b3 7a 2e be
       -0.102036454 -0.004908092 -0.15277918 -0.17038994
000120 47 5f e3 bc 94 93 6e bd f0 ad c4 3c f1 09 d5 3c
       -0.027755393 -0.05824621 0.024008721 0.026005717
000130 f6 46 3b bd f2 04 01 3c f6 98 3c bb 57 8d 96 3c
       -0.04572197 0.007874714 -0.0028777695 0.018377943
000140 36 a1 cf 3c 08 d2 49 3d a1 78 81 3d 17 ed d4 3a
       0.025345426 0.049272567 0.06321836 0.0016244975
000150 2d b1 fd bc 1f 2e b0 bd f9 4c 74 3d e2 df 22 3e
       -0.030968273 -0.08602547 0.05964372 0.15905717
000160 d1 c3 ce 3d 30 65 06 3d a2 b8 75 bc 4e 1c 55 3d
       0.10095943 0.032811344 -0.014997633 0.052028947
000170 ae 3d 0a be b4 ff 40 be cb 19 80 bd 26 94 01 bd
       -0.13500091 -0.18847543 -0.062549196 -0.031635426
000180 4e d9 8f 3d bc 0a 6f bd f2 29 6b bd b6 36 1c b9
       0.070238695 -0.058359846 -0.05741305 -0.00014897701
000190 0f b6 97 3c 0b 6e 10 3b 95 ca 4f be d9 0e 81 3b
       0.01851943 0.0022038247 -0.20292123 0.0039385376
0001a0 42 bc 77 bd 7d 21 6b 3c 43 75 be bc 25 c1 0c 3d
       -0.06048227 0.014351246 -0.023249274 0.034363884
0001b0 38 8c 27 3d 26 13 d5 3d 56 59 cc 3c be 2e 54 3d
       0.040905207 0.10404043 0.024944942 0.05180239
0001c0 b2 cb fa bd c2 04 64 3d 36 92 19 be 5b 5e 68 bb
       -0.12245883 0.0556686 -0.14997181 -0.003545663
0001d0 85 6b b1 3d 62 92 98 bd 80 22 8b 3d 42 4a 47 bd
       0.08663086 -0.07449795 0.0679369 -0.048654802
0001e0 7a a0 db bc da 14 0f be 24 c1 6d bd f4 75 96 3c
       -0.02680992 -0.13972798 -0.05804552 0.018366791
0001f0 c5 bc e5 bd c4 be 10 3e 19 5f 0c bc bc ef 11 be
       -0.112176456 0.14135271 -0.008567595 -0.14251608
000200 a3 22 60 3d 86 f0 6e 3c 2b b2 82 bc 2f 81 8e 3d
       0.054720532 0.014583712 -0.015954098 0.069582336
000210 08 28 85 bd ad 40 1c be e5 63 14 3e ce 3c 06 bd
       -0.06501776 -0.15259047 0.14491232 -0.03277283
000220 33 41 a9 3d e2 35 88 be dc fe ad 3d b0 39 89 3c
       0.08264389 -0.2660361 0.08495876 0.01675114
000230 aa de 05 bd c6 48 33 3d c7 6f aa bc 9a 18 96 3c
       -0.032683052 0.043770574 -0.020805253 0.018322278
000240 63 eb 46 bd cf 28 28 3d 0e 04 e0 3b ee d8 93 3d
       -0.048564326 0.041054543 0.006836421 0.072191104
000250 99 0c 0d bd 60 e2 e4 3c 20 a1 5c 3d 79 25 50 bd
       -0.034435842 0.027939975 0.0538646 -0.050816987
000260 3b 3f 1d 3d 1a b9 a3 3c 61 0a f3 bb 0f 0c 50 bd
       0.03839038 0.019985724 -0.0074170087 -0.05079275
000270 8f 1c 20 3e 2a 8a 8e 3d 57 e6 5c bd fc d5 db 3d
       0.15635894 0.069599465 -0.053930607 0.10734174
000280 56 23 bf bd 18 18 c2 3d c8 3d da bd fb d8 79 3d
       -0.09332912 0.09477252 -0.10656315 0.060997944
000290 01 77 6c bd 0b d0 71 bd a1 b9 3f bd aa d1 6b bd
       -0.05773068 -0.059036296 -0.04680789 -0.057572998
0002a0 7c fe 00 bd 52 9d eb 3d 18 87 91 3d a5 98 1b bd
       -0.031492695 0.11504616 0.07105845 -0.03798737
0002b0 20 3f ea 3d 49 e4 52 3d 81 86 0c be 7a 61 18 3d
       0.114378214 0.05148724 -0.13723184 0.037202336
0002c0 69 42 df 3c 5f 59 d6 bd c5 7b 71 bd 44 71 96 bc
       0.027253347 -0.10466265 -0.058955926 -0.018364556
0002d0 18 e0 0a be 64 1d 63 bc 58 e9 0f be 03 a7 10 bc
       -0.13562047 -0.013861988 -0.14053857 -0.008828881
0002e0 92 80 1e 3d 1b 4e 8c bd 68 e0 21 be 74 a4 80 bd
       0.038696833 -0.06850835 -0.1580826 -0.06281367
0002f0 f7 02 46 3d a2 d1 d8 3c 4f b1 db 3c 55 3a b7 3c
       0.04834267 0.026467148 0.026817946 0.022366682
000300 b9 1e 0e 3b f7 ad b8 3d af 30 43 3c 99 05 30 bd
       0.0021685793 0.09017556 0.011913463 -0.04297409
000310 f1 d0 c0 bd 60 e4 69 3b a4 5e 3b bd 0c 3d 68 3b
       -0.094148524 0.00356891 -0.045744553 0.0035436777
000320 83 a3 37 bd 5e 41 4b 3d 74 a2 2a bd 81 62 5d bc
       -0.04483367 0.049622886 -0.041658834 -0.013512255
000330 bd 91 fe bc 5d e8 03 bd 57 66 29 be 30 59 84 bd
       -0.031075353 -0.03220402 -0.16542946 -0.06462324
000340 d0 cd 6a bc cb 85 d8 bd ec 0e a6 bd 15 15 24 3d
       -0.014331296 -0.10572394 -0.08108315 0.040059168
000350 ff 58 ee 3d 52 ac 22 bb 5e 0d 0b be 6b 58 68 bd
       0.116380684 -0.002482195 -0.13579318 -0.056724947
000360 0e 10 42 3d 0d d4 dc 3c 6f 0b 74 3d d7 9e f8 3b
       0.047378592 0.026956582 0.059581216 0.0075872946
000370 54 0d 0b 3c 72 37 d9 bd 0d b2 05 3e 0f 3c 83 bc
       0.008487064 -0.106062785 0.13056202 -0.01601985
000380 e7 7a a1 bd 2b ee 58 bd b1 0e 85 bd 65 27 7c 3c
       -0.0788477 -0.05296151 -0.06496943 0.015390252
000390 13 ec 19 3d e0 a3 df bc 7c 30 8f 3d 98 d6 f3 3d
       0.037578654 -0.027299821 0.069916695 0.11906165
0003a0 8f 5c d2 3c 3c 54 5f 3d 7f ef e8 bc e2 6e 64 bd
       0.025678901 0.05452369 -0.028434513 -0.05576981
0003b0 37 04 a6 bd 3e 72 b6 bd 34 a6 8c bd e9 59 a3 3d
       -0.08106273 -0.08908509 -0.06867638 0.079761334
0003c0 41 92 67 bc a9 a9 b4 bc 7f 1c b7 bc 6a 86 10 3e
       -0.014133991 -0.022053557 -0.022352455 0.14113775
0003d0 1c 10 13 be dd b5 1a bd 9c 92 bb 3c dc f9 5c bc
       -0.14361614 -0.037771095 0.022897057 -0.0134873055
0003e0 fd ef 2c 3d 9e 06 59 3d 7b 38 b3 3d d3 5e 57 bd
       0.04222106 0.052984826 0.08751007 -0.052580666
0003f0 e0 ba 90 bc f4 58 d8 3d 01 ad a8 bc 45 73 d1 bb
       -0.017667234 0.105638415 -0.020590307 -0.006391915

network_body._body_endoder.seq_layers.2.bias f4 [256]
000000 42 c1 e8 3c 2e c9 d6 bb 4e 75 77 bc 55 11 12 bd
       0.028412465 -0.006554744 -0.015103651 -0.03566106
000010 9e 23 32 3a b6 53 d9 bb 07 04 8e bb e1 23 70 3b
       0.00067954685 -0.0066322936 -0.004333976 0.003664248
000020 de 54 26 bc 8f 0e 8c bc 1b 1b d6 3b 03 8c fa 3b
       -0.01015207 -0.017096786 0.006533993 0.007646085
000030 e1 85 61 3b a7 9e 64 bd 5e fc 16 bd 76 5b b3 3c
       0.0034412073 -0.055815365 -0.03686177 0.021894198
000040 50 76 5a bd 76 34 36 bd e3 da 58 bd ac a7 68 3c
       -0.053335488 -0.044483624 -0.05294312 0.014200132
000050 08 3e 06 bc cc 66 e6 bc 6b 06 24 ba f3 c3 5e bc
       -0.0081935 -0.02812519 -0.000625706 -0.013596523
000060 00 79 1a 3c 2b 8d 95 bc 48 d6 a4 3b cb 9e eb bc
       0.009428263 -0.01825579 0.005030427 -0.028762242
000070 7b 1d 54 3c 5b c9 1c bc c4 83 7b bd 74 02 5b bd
       0.012946482 -0.009569491 -0.06140496 -0.053469136
000080 a4 c8 23 bd 19 9c 36 3c 20 ef 61 3c c4 79 63 bd
       -0.039986268 0.011145615 0.013789922 -0.055536047
000090 a5 6b 3b bd 45 7b 08 bd b6 78 34 bc 93 0b 99 3b
       -0.045756955 -0.033320684 -0.011015108 0.004670569
0000a0 40 66 32 3d f3 bf 51 bd a5 5f ac 3c f0 2b 3d bc
       0.043554544 -0.051208448 0.0210417 -0.01154612
0000b0 4a 10 8b 3c 45 55 f9 3c a8 74 87 bb 49 34 19 bc
       0.01697554 0.030436167 -0.0041337796 -0.009350845
0000c0 40 17 1b 3c 71 e9 a9 3c 8b 21 34 bd 5c f1 0a bc
       0.009465992 0.020741196 -0.0439773 -0.008480396
0000d0 c2 79 cf bc 58 ab 41 bd e7 ab 02 bb d3 2a 01 bc
       -0.025326613 -0.047282547 -0.0019938888 -0.007883745
0000e0 aa 79 d2 3c 84 9a 1f 3c 62 6e d5 bc 0e d1 e3 bc
       0.02569278 0.009741429 -0.026053611 -0.027809646
0000f0 d0 f2 81 bc bb 0a 67 bd d4 a2 ce 3b 22 6b e9 bc
       -0.015862852 -0.056406718 0.0063060317 -0.028493468
000100 cd 15 6c bb 02 13 17 3c 1e 24 c4 bc 28 19 7b 3c
       -0.0036023736 0.00922084 -0.023943003 0.015325822
000110 3a f5 ca bb 67 62 22 3d 52 4c 16 bc fd 5c 5f bd
       -0.006193784 0.039644625 -0.00917347 -0.05453204
000120 38 1c ee bc 36 9e b9 bc f2 ea 25 bd 17 2a b1 3c
       -0.02906619 -0.022658449 -0.040507264 0.021626515
000130 bf ad db bc b3 39 75 bc 93 a2 2b bc fa 38 e8 bc
       -0.026816247 -0.01496737 -0.010475772 -0.028347481
000140 f9 03 b8 3c d5 7b a8 3c 6e f8 f0 bc 8b e6 d0 3b
       0.022462832 0.02056686 -0.029415336 0.006375139
000150 62 60 8b 3a a6 dc f0 bc 03 d8 60 3c dd d9 ed 3b
       0.0010633583 -0.029402088 0.013723376 0.0072586373
000160 b9 34 12 bc 32 10 a9 bc 35 50 63 bc 4c 73 3b bb
       -0.008923703 -0.020637605 -0.013874103 -0.0028602658
000170 02 1a 82 3c 26 12 84 bb d0 17 c0 bd 92 70 3d bd
       0.015881542 -0.004030484 -0.09379542 -0.046249934
000180 85 a5 e7 3b b0 79 f4 bc c1 73 da bc e3 01 ad bc
       0.007069292 -0.029843181 -0.026666524 -0.021119064
000190 71 d3 49 bb ed e6 c5 3c 2c d8 a4 3c c7 88 e7 bb
       -0.0030796195 0.024157966 0.02012261 -0.0070658657
0001a0 85 b8 53 3c c5 c0 10 bd a3 b0 dc bb ec be 40 3a
       0.012922411 -0.03534009 -0.006734924 0.00073526683
0001b0 6a 18 bf 3b 56 05 d7 3b 31 8f 31 bd 81 bc 51 bd
       0.005831768 0.0065619154 -0.04334945 -0.051205162
0001c0 b1 30 c5 bc cd f1 df bc 64 5e 4a 3c 5c be 26 bd
       -0.02407107 -0.02733698 0.012351606 -0.040708885
0001d0 80 6d a9 bc 58 48 a9 3c a9 d3 8a ba 7d 79 66 bd
       -0.020682096 0.020664379 -0.0010591644 -0.056268204
0001e0 fd 31 c0 3c 4b f7 07 bd e0 82 2c bd c1 04 4c bd
       0.023461336 -0.03319482 -0.042117 -0.04980922
0001f0 be af 86 3a 09 45 05 3d cc ad 70 bc d6 9a d9 3c
       0.0010275764 0.03253654 -0.014689874 0.02656309
000200 7d ea 28 bc b8 67 2d bd fd f9 f7 bc 75 6f 5b bc
       -0.010309813 -0.042335242 -0.03027057 -0.013393273
000210 af 67 c5 3c 7a c5 c5 ba e1 28 83 3c f0 7d 9d bc
       0.024097292 -0.001508876 0.016010704 -0.01922509
000220 a9 cc d3 bc 85 d0 33 3c dc a6 7d bc c1 7f b4 bc
       -0.025854426 0.010975008 -0.015481677 -0.022033574
000230 da f9 5d bb 3d 3d ba bc a0 bd 5c 3c 0a 49 8f 3b
       -0.0033870847 -0.022734279 0.0134729445 0.0043727206
000240 ed a5 6c bc 8f 5d 71 bc 43 2c 17 bc c7 20 50 3d
       -0.014443857 -0.014731779 -0.009226861 0.05081251
000250 38 76 86 3c 89 88 b3 bc 96 7b 02 bd 9a 64 50 38
       0.016413793 -0.021915691 -0.031856142 4.9684757e-05
000260 3d c6 20 bd cf dd 9e bc 79 b4 cc 3c f6 1e 8e 3c
       -0.039251555 -0.019392876 0.0249884 0.017348748
000270 b1 29 dc bc d5 a0 92 bc 0a 7c 5a bd f8 09 89 38
       -0.026875349 -0.017898956 -0.05334095 6.534526e-05
000280 2a 1c a6 bd 40 e0 5e 3c cf 08 c8 3b 51 50 8b 3c
       -0.081108406 0.01360327 0.0061045657 0.017006071
000290 05 b8 a7 3b f3 bf ad bb 44 50 6a bc 17 f4 21 bc
       0.0051183724 -0.005302423 -0.014301363 -0.009884856
0002a0 c7 34 0f bd 9e 76 74 3c 4e 0f dd 3c c8 1f 49 bd
       -0.03496244 0.014920859 0.026984837 -0.049102575
0002b0 81 50 1d bd da c5 b3 3c de 63 37 bd 8e 56 11 bd
       -0.038406853 0.021944929 -0.044772975 -0.035482936
0002c0 00 b4 48 bd 2a 43 82 bc 0d e8 a0 3c 8c e4 54 bc
       -0.048999786 -0.015901167 0.0196419 -0.012993943
0002d0 1f 65 83 bc c1 84 76 bc d0 a5 ef 3c b4 33 7e 3c
       -0.01603943 -0.015046299 0.02925387 0.015515257
0002e0 f7 8c 44 bc fe d6 c7 3c 24 17 6b 3d 8b 56 25 bb
       -0.011996499 0.024394508 0.057395115 -0.0025228586
0002f0 ab b8 92 bd f5 21 4d bd 68 e0 11 3c d6 af 45 bc
       -0.07164129 -0.050081212 0.0089036 -0.012065848
000300 77 13 35 bc 5f fe 2d bd 3e 09 5e bd f6 dd b7 bc
       -0.011052004 -0.042478915 -0.054208033 -0.022444706
000310 93 5e 11 bd c4 b3 62 3c ab 6e 17 3c d3 ef 04 3b
       -0.035490584 0.013836805 0.009242694 0.0020284548
000320 15 a7 bd 3c 7a 8f bc 3b a9 bd fa bc 47 79 27 bc
       0.02315096 0.0057544084 -0.030608015 -0.010221786
000330 59 b1 1e bc 50 54 83 3c c5 a7 b8 bc d2 79 13 bd
       -0.009685838 0.016031414 -0.022540936 -0.03600485
000340 4d 91 38 3c 5e 1f d6 3a 12 89 27 3d d2 25 6b bc
       0.011265111 0.0016336252 0.040902205 -0.014352279
000350 71 82 43 bb be 79 82 bd ba 14 f3 bc 29 03 0e bc
       -0.0029832388 -0.06370877 -0.02967297 -0.008667746
000360 73 dd 79 3c 75 31 5a bc 27 d8 7b bc 43 a0 c2 3b
       0.0152505515 -0.013317456 -0.015371359 0.005939515
000370 f1 c8 00 bd 05 ed a6 bc 1f ad ba 3b 6b 0e d6 bc
       -0.031441633 -0.020376692 0.005696907 -0.026129922
000380 9e d0 c3 3a fa 6a ac bc c0 a6 ac 3b 9f 5d 0c bd
       0.0014939492 -0.021047104 0.0052689016 -0.03426897
000390 79 73 a8 3b ca 64 ff bc c6 62 01 bc 58 e1 06 3d
       0.0051407185 -0.03117599 -0.007897085 0.03292975
0003a0 d1 5a d5 bc 9c 07 07 3d 4e e4 04 bc 43 e3 13 bc
       -0.026044281 0.03296624 -0.008111073 -0.009026351
0003b0 22 c4 18 bb f5 5f 58 3d 08 b3 2e bd 13 3a 46 bd
       -0.0023310264 0.052825887 -0.042651206 -0.048395228
0003c0 5d 31 9f bc 34 be a2 bc b4 e4 a7 39 45 b9 86 3b
       -0.019432718 -0.019866087 0.0003202312 0.0041114413
0003d0 24 67 37 3b 0a b2 44 bd bf ac ac bc fb 03 c9 bc
       0.002798506 -0.048021354 -0.021078466 -0.02453803
0003e0 9e 3e 29 3c c4 1c 69 bc 78 d9 dc bb 22 af f1 bc
       0.0103298705 -0.01422805 -0.0067397915 -0.029502455
0003f0 09 46 11 bd c9 e6 02 bd 43 36 17 3c 6f ed 87 bd
       -0.03546718 -0.031958375 0.009229246 -0.06637084

action_model._discrete_distribution.branches.0.weight f4 [2, 256]
000000 1d 9e f2 3c bd 2d 77 3c 5a 75 ca bb 44 da 29 3c
       0.02961641 0.015086588 -0.00617854 0.01036698
000010 d8 91 8e 3a b8 ac 19 bd 75 e3 6b 3d df e1 3a 3d
       0.0010877205 -0.037518233 0.057589967 0.045625564
000020 d1 34 54 3d c8 ee 4f 3d 7e 92 5a bc 1a 29 ea 3b
       0.051808182 0.05076483 -0.0133405905 0.007146013
000030 7c 12 c9 bb 79 2f d1 bc fd 95 20 3d 66 97 e7 3c
       -0.0061362367 -0.025535332 0.03920554 0.028270435
000040 dd 2d c9 3b 7d 21 b4 bc db 64 4d ba 30 46 86 3d
       0.0061395005 -0.021988625 -0.0007835158 0.06556356
000050 28 c0 c5 3b 7f a3 e1 3c 5a 88 f5 bc d6 8c b7 bb
       0.0060348697 0.027543781 -0.029972244 -0.0056015057
000060 28 32 29 3d 85 aa 3a 3d c8 71 7b 3d 8d a9 83 3d
       0.0413076 0.045572776 0.061387807 0.064288236
000070 21 7d 49 bd bc d5 83 3d e0 f4 aa bb 4d 24 9f bb
       -0.049191598 0.06437251 -0.0052171797 -0.0048566223
000080 52 c0 4b 3d 12 92 9c 3d 77 8b 43 bc 2a 7f 2f bb
       0.049743958 0.07645048 -0.0119351065 -0.0026778677
000090 c1 f6 f3 3b 07 c2 94 bd 70 fb 20 3d 26 3d 74 bc
       0.007445187 -0.0726357 0.03930229 -0.014907157
0000a0 e2 60 84 3d ed 9e 89 bc 90 14 f2 bc a0 38 1f 3c
       0.064637914 -0.016799415 -0.02955082 0.00971809
0000b0 3f 6d a6 bc 26 6b 99 3c d4 fe c1 bc cf 23 92 3d
       -0.020315764 0.01872785 -0.023681082 0.07135736
0000c0 26 77 b1 3c 5e e1 9f 3c 6f 59 4b 3d 2f 2b b0 3c
       0.02166326 0.019516643 0.049645837 0.021504967
0000d0 54 b6 45 bd 4c 2a e3 3c 14 1d f5 3b 31 94 a0 3c
       -0.048269585 0.02773013 0.007480273 0.019601913
0000e0 49 2d 1a 3c 71 2e 12 3d d3 48 0b 3d 68 58 b4 bc
       0.009410211 0.03568882 0.034004997 -0.022014812
0000f0 ec 7a 27 3c 08 a3 cc bb 70 5b 9c ba 94 dc 89 3d
       0.010222178 -0.006245021 -0.0011929106 0.06731525
000100 1c 6a 2a 3d 84 bc 83 bc 3a 22 d9 bb e4 13 2e 3c
       0.0416051 -0.016081102 -0.0066263946 0.0106248595
000110 1f bc e7 3c 57 67 2e 3c a6 07 04 3d e7 f1 52 3d
       0.028287945 0.010644755 0.032233857 0.051500227
000120 ba 6c e2 3c 44 36 5c bc 6e f5 43 3c db f4 39 3d
       0.027639735 -0.013440672 0.0119603705 0.045399528
000130 9d d6 36 3d 31 77 24 3d a2 53 06 3d 7e 21 37 bd
       0.044638265 0.040152732 0.032794602 -0.044709675
000140 2d d7 3f bc dc aa ff bb 6e 35 fc 3c b2 50 71 3c
       -0.011709017 -0.0078023504 0.030787196 0.014728712
000150 36 37 b1 3c bb fc b9 bc 45 c5 25 3d 70 c4 50 3c
       0.021632772 -0.02270352 0.040471334 0.012742147
000160 59 1b 97 3c f9 d0 68 3d cf ec 3d 3d 75 33 1c bc
       0.018445658 0.056839917 0.046368416 -0.009533753
000170 ca 62 9a bc 44 25 b9 bc 30 a8 c5 3c 05 9e 8d 3c
       -0.018845934 -0.022600777 0.02412805 0.017287264
000180 f0 75 13 bc bb 27 89 3d ab b4 0f 3d dc a2 7b 3c
       -0.009000286 0.06697031 0.035084408 0.015358653
000190 28 ad 2c bd c0 2d 8c 3d 6c e2 1d 3d 9c ff 62 3d
       -0.042157322 0.068446636 0.03854601 0.05541955
0001a0 1f d0 21 bc fd 5a 29 3d 70 76 0c 3d a3 a1 21 3c
       -0.00987628 0.04134654 0.03429264 0.009865197
0001b0 82 e0 1f 3d ad 0b 29 3d 0b 78 ee 3b 69 06 a5 bb
       0.039032467 0.0412709 0.007277494 -0.0050361645
0001c0 63 ba 2c 3b aa 95 8b bc 18 e5 a5 bb 88 73 84 3b
       0.0026356212 -0.017039139 -0.0050627105 0.0040420927
0001d0 d1 f7 5d 3d e8 7c e4 3c b6 08 26 3d 8f 73 ed 3c
       0.054191414 0.027891591 0.04053565 0.028985767
0001e0 f0 47 3d 3d c1 55 79 bc f0 5a 77 bb 65 d4 60 bd
       0.046211183 -0.015218199 -0.0037743412 -0.054890055
0001f0 5c b0 7e ba 72 fe c5 b9 f5 f5 4d 3d 3e f4 fa 3c
       -0.00097156106 -0.00037764345 0.05028339 0.030634042
000200 f2 fc 35 3d 8d 58 36 ba 14 9a 89 bb 8f da cd 3c
       0.04443068 -0.0006955944 -0.0041992757 0.02512863
000210 ce 30 3b 3d 08 7b e1 3c fd 10 7e 3c d1 4c 4b 3c
       0.04570084 0.027524486 0.01550698 0.012408451
000220 fc c8 62 3a 85 e6 fd 3a e7 58 a2 ba f0 50 c8 3d
       0.0008651165 0.0019371068 -0.0012386114 0.097810626
000230 c9 6b 4a bd bf cb 44 3d 7a e2 68 3d 99 1d a3 bc
       -0.0494192 0.04804587 0.05685661 -0.019911574
000240 4e c3 4d bc ff ee 5f 3c 5e 09 57 3b 49 e9 89 bc
       -0.012558771 0.013667821 0.003281198 -0.016834872
000250 3a b3 1b 3d 56 24 52 3d 03 6d d0 3c 13 f0 12 3b
       0.03801272 0.051304184 0.025442606 0.0022420927
000260 76 cb f2 3b b3 9c f6 3c 60 f9 0e bd a5 9d 18 3c
       0.0074095083 0.030104017 -0.03490579 0.009314929
000270 22 01 68 bc f1 78 de bb ac e9 a0 3c 33 3c 86 3c
       -0.014160426 -0.0067893197 0.019642673 0.016386127
000280 df 9f 1f 3c 13 8e f0 3c af 08 f1 bc ac 87 72 bc
       0.009742706 0.029364621 -0.029423086 -0.0148028545
000290 5c 42 12 3c 63 dc 87 3c 4c 5d 43 3d e5 08 1c 3d
       0.008926954 0.01658458 0.047696397 0.03809442
0002a0 1b ab 37 bd 36 fe 05 3d a5 62 ef ba 35 31 86 3c
       -0.044840913 0.032713138 -0.0018263651 0.016380886
0002b0 70 87 95 bc 57 04 ab 3d 56 5f 42 3d ef 5b 9b bc
       -0.018253058 0.08350437 0.0474542 -0.018964736
0002c0 5e 35 5f bc 8d a7 95 bb 92 66 8e 3b b9 b9 8d 3c
       -0.013623564 -0.0045670928 0.0043457234 0.017300474
0002d0 ec 30 9c 3c 67 a0 48 bd 0b 19 46 3d fa 3c fa bc
       0.019066297 -0.048981097 0.048363727 -0.030546654
0002e0 0d f0 9d bc f7 c4 1f bd 52 2d 46 bc 53 f0 48 b9
       -0.019279504 -0.0390062 -0.012095766 -0.00019163014
0002f0 a4 ef aa bc 5e fa 88 3c 31 e9 e6 3c 8d b7 95 3d
       -0.020866223 0.016720947 0.028187366 0.073104
000300 ac cd 8a bc 3e 88 94 bc 35 f4 d5 3b 42 a0 f3 3b
       -0.016943775 -0.018131372 0.006529356 0.0074348757
000310 68 00 46 3c 6c a1 1a 3d 09 50 8d 3c 90 58 02 bc
       0.012085058 0.0377516 0.017250078 -0.007955685
000320 e2 a7 0e bd 47 17 39 3d d6 1a bb 3c 21 e8 61 bd
       -0.034828074 0.045188215 0.022839945 -0.055153016
000330 c3 36 7a 3c c9 02 15 3d 1c 57 24 3d 8b aa 0c bd
       0.015271845 0.03637961 0.040122136 -0.03434233
000340 7c 29 b4 bb ef a1 ab 3c e9 44 7e bd 32 dc 85 bc
       -0.0054981094 0.02095124 -0.062077437 -0.016340349
000350 54 7d 2f bc b4 19 c0 3b fd dc 2a 3d 57 dc 21 bc
       -0.010711033 0.005862439 0.041714657 -0.009879193
000360 76 01 85 bc a3 59 80 bc 1a 39 88 3c 9b 9d fa bc
       -0.016236048 -0.015667742 0.01662879 -0.03059273
000370 5a e3 48 bd 25 00 c4 3c dd de 28 ba 88 0a fa bb
       -0.049044944 0.02392585 -0.00064419006 -0.00763065
000380 d5 ef 29 b9 10 5b f2 3c 12 2a 89 3d 27 9c a2 3c
       -0.0001620644 0.029584438 0.066974774 0.01984985
000390 e3 0a 80 3d 0b 8f 84 3c fe a4 10 3d 5c 0a fd 3c
       0.062520765 0.01618149 0.0353136 0.030888729
0003a0 b9 99 05 ba d0 90 88 3d 5d 9f 06 3c 12 1a 31 bb
       -0.0005096454 0.06668246 0.008216706 -0.0027023596
0003b0 65 a6 71 bc 1f 39 50 3d d3 3d b5 bc 5a 3b b4 3c
       -0.014749144 0.050835725 -0.022124207 0.022000957
0003c0 76 9b 7f 3c 37 14 85 3d 2e 4f 8f ba 8d b1 26 3d
       0.01560103 0.06497996 -0.0010933632 0.04069667
0003d0 77 00 53 3c a8 7e e3 bc c3 bf 8e 3c 53 29 a8 3c
       0.012878529 -0.027770355 0.017425423 0.020527517
0003e0 6b 97 c2 3c 3e 94 af 3c 09 37 bc b9 9c 76 0f 3d
       0.023753842 0.021432992 -0.0003589916 0.035025224
0003f0 b3 1d 9e 3c c8 af a2 3b 5f 47 2f 3c d4 42 e6 bb
       0.019301271 0.0049648024 0.010698169 -0.0070270095

action_model._discrete_distribution.branches.0.bias f4 [2]
000000 43 ae ca bc 3f ae ca 3c
       -0.024741298 0.02474129

action_model._discrete_distribution.branches.1.weight f4 [2, 256]
000000 05 bc de bc 58 0b dc bc 19 fb 03 bd d3 8d 9a 3c
       -0.027189264 -0.026860878 -0.032221887 0.018866455
000010 18 09 f8 bc bc 01 92 bb 66 95 ea 3c 0f 81 0e 3d
       -0.030277774 -0.004455773 0.028635692 0.03479105
000020 43 23 9d 3c 6b 67 11 3d 5e 5e 9f bc 84 d2 1b bc
       0.019181853 0.035499018 -0.019454177 -0.00951064
000030 70 e6 51 bd 74 9a d7 39 5a 62 0f 3d 4e ee e0 3b
       -0.051245153 0.00041123072 0.035005905 0.0068643456
000040 2e a9 4b 3c 2f 3a 7b 3c bf 71 7d 3c 39 88 01 3d
       0.012430472 0.015333696 0.015469014 0.031624053
000050 de 6d b1 3c 5f d9 62 3c db c0 03 3d 3c a5 21 3d
       0.021658834 0.013845771 0.032166343 0.03946422
000060 8f 2f fe 3c e8 4b d5 bb 1e f4 63 3b cb 01 04 3d
       0.031028537 -0.006509293 0.0034782956 0.032228272
000070 a3 07 77 bc 68 92 2d 3d 07 10 d2 bb 23 5f a9 3c
       -0.015077504 0.042375952 -0.006410602 0.020675248
000080 ac 3a 4e 3c 36 5e 3d 3d 65 8a eb 3b 0c 30 d1 3c
       0.012587231 0.046232425 0.007188129 0.025535606
000090 ec 1d 45 3c e6 1b 96 3c 47 54 52 3a 86 e9 87 3c
       0.01203106 0.01832385 0.00080234226 0.016590845
0000a0 be 8b 8a 3d 6b 94 10 bc 27 cf 2f bc 4d 5e 71 3c
       0.06764935 -0.008824448 -0.010730541 0.014731956
0000b0 12 a0 2b bd cd 40 0d 3b e1 26 6e 3d b3 4b 6c 3d
       -0.0419007 0.0021553517 0.058142547 0.05768938
0000c0 a0 e2 45 3b 92 28 d6 3c 5c b4 02 3d 12 a2 43 3d
       0.0030194893 0.026142392 0.031910285 0.047761984
0000d0 8e b5 a5 3c db 02 3a 3d b0 0a 3b 3d ca f4 7a bb
       0.020228174 0.04541288 0.04566449 -0.0038292878
0000e0 4e 14 23 bd 2a 77 07 3d 72 f8 0c 3d 80 d7 fa bc
       -0.039814286 0.033072628 0.034416623 -0.030620337
0000f0 01 34 b7 3b ff 68 b5 3a e9 6b 8c 3b d8 b7 84 3d
       0.005590916 0.0013840495 0.004285325 0.06480378
000100 68 a8 13 3d 81 9d b1 bc e0 61 91 bd f4 84 26 3a
       0.036049277 -0.021681549 -0.07098746 0.0006352209
000110 f3 50 6e 3d 7a 30 4f bb 83 3a bf bc 73 13 1c 3d
       0.058182668 -0.0031614588 -0.02334333 0.038104486
000120 48 c6 2d bc 75 96 f5 bc 88 5b 88 3b 17 67 9e 3d
       -0.010606356 -0.02997897 0.004161302 0.077345066
000130 68 02 7f 3d 57 37 4e 3d b8 02 dc 3c 38 1e 39 b8
       0.062258154 0.050345745 0.026856765 -4.413558e-05
000140 ea ac 30 bd 16 c4 6e bc 62 08 2b 3c 5a 1e 11 bc
       -0.043133654 -0.014573118 0.01043901 -0.008857334
000150 22 f5 ba 3c ec e7 10 bc 46 e1 33 3d 01 4f bc bc
       0.022821967 -0.008844357 0.04391601 -0.02298689
000160 02 4b 20 3d f5 f7 01 3d be e3 93 3c d5 bf 85 3d
       0.039134033 0.03173061 0.018052932 0.0653073
000170 fb 50 f4 b9 1a d8 82 bc 49 90 f6 3c 56 cd 0e 3d
       -0.00046599642 -0.015972186 0.030098097 0.034863792
000180 5c 1d 1d 3d df 47 25 3d cc c9 99 bc e6 f4 09 3d
       0.038358077 0.040351745 -0.018772982 0.03368082
000190 02 27 26 3d 8a bf 1d 3c 0d 05 4d bc b0 6d af 3b
       0.040564544 0.009628186 -0.012513411 0.005353652
0001a0 77 dc 88 39 a4 6a 71 bb df 42 b2 bb 7d ef e2 3c
       0.000261042 -0.0036837244 -0.0054401006 0.027702088
0001b0 4d a4 f3 bb e3 f8 9c bc e8 87 b4 bc 57 87 0f bb
       -0.0074353577 -0.019161647 -0.022037461 -0.0021900737
0001c0 10 a0 b9 3c 3e 01 01 ba 1f 2e c8 bc 91 4f 70 3d
       0.022659332 -0.00049211446 -0.024436055 0.05866963
0001d0 3f 4d 06 3d f3 b1 83 3d 26 74 59 3d 79 54 c5 bb
       0.03278851 0.064304255 0.053089283 -0.006022033
0001e0 96 42 b1 3d e6 4a 18 3c 61 0b 06 3c c0 16 77 bc
       0.086552784 0.009295201 0.008181424 -0.015081108
0001f0 8c 05 e5 bc da 47 cf 3d f0 1f 26 3d 14 cb 14 bd
       -0.027956747 0.101211265 0.0405578 -0.036326483
000200 c6 d6 1f 3b dc 23 13 3d cf aa 45 b9 0e 21 19 3c
       0.002438949 0.03592287 -0.00018851015 0.00934626
000210 c6 00 e3 3c db 71 6a bc c5 5c 8a 3c dc c1 86 bc
       0.02771033 -0.014309372 0.01688994 -0.016449861
000220 5a cb 74 bc 25 15 e3 bc 2c 54 98 bc 23 81 0f 3d
       -0.014941061 -0.027720043 -0.018594824 0.035035264
000230 7e 9f 04 bd 44 ad 2e 3d 9c 23 d5 3c ba 3f b9 3c
       -0.032378666 0.042645708 0.026017956 0.022613395
000240 2f 35 a1 bb 15 40 d9 3c d7 66 68 3c 0e aa 5c 3b
       -0.00491967 0.026519815 0.014184675 0.0033670696
000250 36 e9 9f 3a 28 c7 88 3d 78 fc bb 3c a5 81 9e 3d
       0.001220024 0.06678611 0.022947535 0.077395715
000260 c7 24 9e 3b ab da 04 3d fe a1 e2 bc 24 c4 0f 3d
       0.0048261615 0.0324351 -0.027665135 0.035099164
000270 7e 89 08 bc 1b 1f 09 3c dc 3f ba bc 58 0a d2 3c
       -0.008333562 0.0083692325 -0.022735529 0.025639698
000280 51 81 c8 3b 43 66 84 3c 85 23 dd 3c 6f 02 49 3d
       0.0061189313 0.016162043 0.026994476 0.049074586
000290 e6 3f 99 bc 6e 8a 43 3c 4f aa 2a 3d a4 d6 31 3d
       -0.018707227 0.01193486 0.041666325 0.043417588
0002a0 4c 93 5c 3b 11 f3 31 3c 1f 89 29 3c 3d 46 bb 3b
       0.0033657132 0.010861174 0.010347634 0.00571516
0002b0 f4 be 57 3b ed bb d7 3c 48 9d 20 3d ae 34 49 bc
       0.0032920213 0.026334727 0.039212495 -0.012280626
0002c0 a2 24 02 bc 12 c1 84 3b 9e 10 17 bc 09 ea b0 3c
       -0.007943304 0.004051336 -0.00922027 0.021595972
0002d0 4b 41 2b 3d 78 7f 73 bc 81 a0 b1 3d bc 60 cd bc
       0.041810315 -0.014861934 0.08673192 -0.02507054
0002e0 2a c0 d8 3c b8 98 1a bd 97 f7 aa 3c bc b9 30 3c
       0.026458818 -0.0377433 0.020870013 0.01078647
0002f0 ea dd d8 ba 16 e7 e8 bc a1 e2 2b 3d fb 66 ea 3c
       -0.0016545628 -0.028430503 0.041964177 0.028613558
000300 06 14 22 39 61 60 5f 3c aa ff 67 3c 91 10 07 3d
       0.00015456983 0.013633818 0.014160076 0.032974783
000310 0f fe 31 3c 61 1b ca 3b 98 1d c0 bc 3b 7e be bc
       0.010863795 0.0061678146 -0.023451611 -0.02325355
000320 16 8b 32 bd 05 35 56 3d f9 51 22 bc ae 75 e2 3c
       -0.043589674 0.052296657 -0.009907239 0.027644005
000330 8a bf 00 bd 6a d0 64 3d e0 e3 82 bb 0a d5 46 bc
       -0.031432666 0.05586282 -0.00399445 -0.012135753
000340 dd f3 91 3c fe d2 a6 3b 13 ae 6a bd 4b ac 00 3d
       0.017816478 0.00509107 -0.057294916 0.03141431
000350 93 62 c0 bb 43 99 d9 3a e6 63 c9 3b 2a 26 c9 bc
       -0.005871126 0.0016601462 0.006145942 -0.02455433
000360 42 2e 50 3c 1e f2 93 3c 50 63 df 3c 20 9e 0e 3d
       0.012706341 0.018059786 0.027269036 0.03481877
000370 bc 17 da bb 48 c6 91 3d 85 bf 08 3b f1 90 bc bc
       -0.0066556614 0.07117897 0.0020866108 -0.023018332
000380 a5 cf 13 bc 89 dd d4 3c e3 f2 e2 3b c3 fd 34 3c
       -0.009021674 0.025984542 0.006925927 0.01104683
000390 04 56 0d 3d 73 8f 49 bc 7e d4 1f 3b 17 f6 00 3d
       0.03450586 -0.012302267 0.002438813 0.03148469
0003a0 45 76 c8 3b 21 5a 55 3d 55 60 1a 3d 05 b6 75 3c
       0.0061176145 0.052087907 0.037689526 0.01499701
0003b0 48 d6 d2 bc a5 b2 28 3d c6 ec aa 3a 51 04 b6 3c
       -0.025736943 0.041185994 0.0013040535 0.022218855
0003c0 39 c7 ae 39 ce 92 18 3d 12 d8 fd bc 88 6e 0d 3d
       0.000333363 0.03724938 -0.03098682 0.03452924
0003d0 58 39 33 3d 95 6d 8b 3c 42 09 7d 3d f7 28 09 3d
       0.04375586 0.017020026 0.061776407 0.033486333
0003e0 30 06 99 bc b1 7b 4b 3a 12 a9 02 bd 8c 7a fd 3a
       -0.018679708 0.0007762267 -0.03189952 0.001933889
0003f0 a6 d2 29 bc 58 86 ae bc 26 4c 41 3c 13 ef 20 b9
       -0.010365164 -0.021304294 0.01179794 -0.00015347851

action_model._discrete_distribution.branches.1.bias f4 [2]
000000 1f ec d7 bc 20 ec d7 3c
       -0.026357708 0.02635771
