Assets/results/day4_1208/TrafficLightBrain/TrafficLightBrain-869999.onnx (onnx, 403823 bytes, 21 tensors)

discrete_act_size_vector f4 [1, 8]
0	0x40000000	2.0
1	0x40000000	2.0
2	0x40000000	2.0
3	0x40000000	2.0
4	0x40000000	2.0
5	0x40000000	2.0
6	0x40000000	2.0
7	0x40000000	2.0

network_body._body_endoder.seq_layers.0.weight f4 [256, 100]
0	0x3d4f2fdc	0.05058275
1	0xbd9e5cb5	-0.07732526
2	0xbe2dc34c	-0.16969031
3	0xbe30c16b	-0.17261283
4	0xbdc8a048	-0.09796196
5	0xbe2e973f	-0.17049883
6	0xbe9b1d1d	-0.3029565
7	0xbd41ba86	-0.047297023
8	0x3d1524d1	0.036412064
9	0xbd2236c6	-0.039603017
10	0x3d584d48	0.052808076
11	0xbda57cdf	-0.08080458
12	0xbd0f68f5	-0.035012204
13	0xbdfbdeb1	-0.122983344
14	0xbe59f9a1	-0.21286632
15	0x3ceb5d40	0.028730989
16	0xbdc1f5dc	-0.09470722
17	0x3a218018	0.000616075
18	0xbe9e7a8c	-0.3095287
19	0xbe228861	-0.15872337
20	0xbcd9576e	-0.026530948
21	0x3d516623	0.051122796
22	0x3c69337d	0.014233467
23	0xbd277579	-0.040883515
24	0xbe48a91b	-0.19595759
25	0xbd15241f	-0.0364114
26	0xbbdb12fc	-0.0066856127
27	0xbe023855	-0.12716801
28	0xbd78e0ef	-0.06076139
29	0xbd360b87	-0.044444587
30	0x3d78d44a	0.06074933
31	0xbdd3e7f7	-0.10346978
32	0x3d0d45d5	0.034490425
33	0xbd770b93	-0.060313772
34	0xbc87fb35	-0.016599277
35	0xbd8071ea	-0.062717274
36	0xbce054fb	-0.027384272
37	0x3cd20aba	0.02563988
38	0x3d983973	0.074328326
39	0x3c9061a6	0.017624687
40	0x3e0d7f4b	0.1381809
41	0xbd431cd7	-0.047634926
42	0xbe21a0f3	-0.15784054
43	0x3dddf3a5	0.10837487
44	0xbdc5ccc8	-0.096581995
45	0x3e5cb2df	0.21552609
46	0x3dade581	0.0849104
47	0xbd6735d3	-0.056447815
48	0x3e6c2ac5	0.2306319
49	0xbde6ddfb	-0.11272808
50	0xbba55e87	-0.005046669
51	0x3cce54b8	0.025186881
52	0x3d069f86	0.032866977
53	0x3e0308be	0.12796304
54	0xbda0b3c7	-0.0784679
55	0x3ce31b78	0.027723059
56	0xbc240d42	-0.0100129265
57	0x3dac979a	0.08427353
58	0x3d4d982f	0.05019396
59	0x3c5e4ded	0.013568384
60	0xbda6fa57	-0.08153217
61	0x3c704d7a	0.014666909
62	0xbd98969b	-0.07450601
63	0x3e029154	0.12750751
64	0xbe1b63e0	-0.15174818
65	0xbe15574b	-0.14584081
66	0x3c903158	0.017601654
67	0x3e019f3a	0.12658396
68	0x3d238092	0.039917536
69	0x3b0a409b	0.0021095637
70	0xbdc1465b	-0.09437247
71	0x3cef8468	0.02923794
72	0xbd60fe8d	-0.05493026
73	0x3e56c937	0.20975195
74	0x3da1e9d7	0.079059295
75	0x3c4acb94	0.012377638
76	0x3d9fb938	0.077989995
77	0xbd8933e8	-0.066993535
78	0x3e647827	0.2231146
79	0xbd9a1694	-0.07523838
80	0xbc529647	-0.012853212
81	0xbe20cd87	-0.15703402
82	0xbcd806e8	-0.02637048
83	0x3db28ea1	0.087186106
84	0x3d058e3b	0.032606345
85	0x3d031f0f	0.03201204
86	0x3ad31480	0.0016104132
87	0xbdb2b97b	-0.08726784
88	0x3d204ec9	0.039137635
89	0x3deae580	0.11469555
90	0xbb20cd73	-0.002453652
91	0xbb67975a	-0.0035338015
92	0xbc872543	-0.01649726
93	0xbe3ce0cd	-0.1844513
94	0x3dbce913	0.09224143
95	0x3c2481b5	0.01004069
96	0x3c409c94	0.011756081
97	0xbc88e5ed	-0.0167112
98	0xbd3ca794	-0.046058252
99	0xbda93ac0	-0.08263159
100	0x3d8fec89	0.070275374
101	0xbe0b6327	-0.13612042
102	0xbe0bb04d	-0.13641472
103	0xbd46b882	-0.048515804
104	0xbdf69fe7	-0.12042218
105	0xbe70efa5	-0.23528917
106	0xbe27fe03	-0.16405492
107	0xbdc1ec0e	-0.09468852
108	0xbe3cb323	-0.1842771
109	0x3d7ee3f2	0.062229104
110	0x3e598458	0.21241891
111	0xbe001af6	-0.12510285
112	0xbe0d264d	-0.13784142
113	0x3dc132d0	0.0943352
114	0x3c96916d	0.018379891
115	0x3d6f7e9c	0.058470353
116	0xbe2b51ff	-0.16730498
117	0xbe5dd792	-0.21664265
118	0xbd51dde3	-0.051237
119	0xbd973629	-0.07383377
120	0xbdade8c2	-0.08491661
121	0xbe5a08ce	-0.21292421
122	0xbd2023ae	-0.039096527
123	0xbe09fdd9	-0.13475741
124	0xbe06dc5f	-0.13170002
125	0xbca6598e	-0.020306375
126	0x3e684b05	0.22684868
127	0xbd654dc2	-0.05598236
128	0x3ca84b7c	0.020543806
129	0x3d359be8	0.044338137
130	0x3c1b24d9	0.009469234
131	0xbe5d0d37	-0.21587072
132	0xbdbe1f4b	-0.092833124
133	0x3da52aff	0.080648415
134	0x3dce1e50	0.100643754
135	0x3e04131b	0.12897913
136	0x3dc52203	0.09625628
137	0x3e0929a4	0.13394791
138	0x3a8dfcde	0.0010832807
139	0xbe0e6cce	-0.13908693
140	0xbd01124e	-0.031511597
141	0x3d93aa23	0.072101854
142	0x3d5142fa	0.051089264
143	0xbdbbec7f	-0.091759674
144	0xbde86f98	-0.1134941
145	0x3d22e463	0.039768588
146	0x3b1e1091	0.002411876
147	0x3d3821e7	0.044954207
148	0x3c8997b1	0.016795965
149	0x3c4d4fbd	0.012531218
150	0xbd841908	-0.06450087
151	0x3dc088e5	0.094011106
152	0xbdf3acd0	-0.11898196
153	0xbe2fc0c7	-0.17163382
154	0xbd8450f7	-0.06460755
155	0xbe06b8d5	-0.13156445
156	0x3d6bfccf	0.057614144
157	0x3d71953a	0.058980204
158	0x3d11c595	0.03558882
159	0x3bdfcc55	0.006829778
160	0x3dfb9167	0.12283593
161	0xbcce8b53	-0.02521292
162	0x3d842a05	0.06453327
163	0xbda9fff3	-0.083007716
164	0xbd85d865	-0.065354146
165	0xbdaff933	-0.08592453
166	0x3d3c6e68	0.04600373
167	0xbdaf6159	-0.085634895
168	0x3e0ae873	0.13565235
169	0x3d41e283	0.04733516
170	0xbd40b236	-0.047044955
171	0x3d6debc3	0.058086168
172	0x3de8fe17	0.11376589
173	0x3dec7f68	0.11547738
174	0x3d0f8783	0.035041343
175	0x3cb10582	0.021609072
176	0xbe270d29	-0.16313614
177	0x3dcc723c	0.09982726
178	0x3d129373	0.03578515
179	0x3e39ee40	0.18157291
180	0x3c90ba3d	0.01766693
181	0x3e2118f2	0.15732172
182	0xbdeb3710	-0.11485112
183	0xbbaddc4f	-0.005305804
184	0x3cbed8c3	0.02329672
185	0x3b927ac5	0.0044702017
186	0x3d70dcbd	0.058804262
187	0xbda45dbf	-0.08025693
188	0xbc385699	-0.011251115
189	0xbe8831e1	-0.26600555
190	0xbc924ca0	-0.017858803
191	0xbdbf2cc2	-0.09334709
192	0xbddb2abb	-0.107015096
193	0xbb8fc91a	-0.004387987
194	0x3d6ec37a	0.05829189
195	0xbd2bca80	-0.041941166
196	0x3d0c6b2d	0.0342819
197	0x3d4b07dc	0.049568042
198	0x3d608337	0.054812636
199	0x3dae17a6	0.08500604
200	0xbd180dac	-0.037122414
201	0xbd295557	-0.041341152
202	0xbdf056e9	-0.11735327
203	0x3dee4e74	0.116360575
204	0xbdab2511	-0.08356679
205	0xbcb5ce73	-0.02219317
206	0xbdc3e1b2	-0.09564532
207	0x3d7113e9	0.05885688
208	0xbd361dfb	-0.044462185
209	0x3d999ded	0.07500825
210	0xbdbbd67d	-0.0917177
211	0xbdb7007d	-0.0893564
212	0x3d075466	0.033039473
213	0x3c9fa56f	0.019488065
214	0xbe1c66c9	-0.15273584
215	0x3da33a2a	0.07970078
216	0xbc9d9324	-0.019235201
217	0xbedbc2d1	-0.4292207
218	0xbe02b243	-0.12763314
219	0x3d44679e	0.04795038
220	0x3d54efb4	0.05198641
221	0x3e62b546	0.22139463
222	0x3e1c3b22	0.15256932
223	0x3d5b40d4	0.05352862
224	0xbd4ab083	-0.04948474
225	0x3deeaf02	0.11654474
226	0xbc193040	-0.009349883
227	0x3dcb0efb	0.09914967
228	0xbd6d7e1f	-0.057981607
229	0x3d94076e	0.072279796
230	0x3ccbe657	0.024890108
231	0xbc86c007	-0.016448988
232	0x3e16944b	0.14705007
233	0xbc2c4009	-0.010513314
234	0xbda1992b	-0.078905426
235	0xbc78397f	-0.015150427
236	0xbdceb677	-0.10093396
237	0xbd8c55cf	-0.06852304
238	0x3d6e1915	0.05812939
239	0xbd4e00b7	-0.05029365
240	0xbcd75ec5	-0.026290307
241	0x3c30176c	0.010747772
242	0x3e06900a	0.13140884
243	0xbd0dab73	-0.034587335
244	0xbca0dd6b	-0.01963683
245	0xbe1e2e89	-0.15447439
246	0x3de53b2f	0.11192929
247	0xbc83a290	-0.016068727
248	0x3de09ead	0.10967765
249	0xbe229f2e	-0.15881035
250	0x3caf1142	0.021370534
251	0x3cf0281b	0.029315999
252	0x3de6a0db	0.112611495
253	0x3d0be116	0.034150206
254	0xbc69c3f3	-0.014267909
255	0x3db5d782	0.088789955

network_body._body_endoder.seq_layers.0.bias f4 [256]
0	0xbd1eea1a	-0.038797475
1	0xbd0760c0	-0.033051252
2	0x3d85d319	0.06534404
3	0x3cf33006	0.029685985
4	0x3cb17d41	0.021666171
5	0xbcc73b5d	-0.024320299
6	0xbd2f9cea	-0.042874254
7	0x3c373b18	0.011183523
8	0xbbfc93ce	-0.0077080494
9	0xbd2bb7d0	-0.041923344
10	0x3d3b5ad6	0.045740925
11	0x3d72e2cc	0.05929832
12	0xbcdf6013	-0.027267491
13	0x3d2312af	0.03981274
14	0xbd0bbc1e	-0.03411495
15	0x3bca51f4	0.0061743204
16	0x3dcde69a	0.100537494
17	0xbd379a2e	-0.04482477
18	0x3b4e56a5	0.003148475
19	0x3acb1c44	0.0015496095
20	0x3c6ab7a6	0.014326012
21	0x3ccd049c	0.025026612
22	0xbb344f63	-0.0027513138
23	0xbd033341	-0.0320313
24	0xbd5781bf	-0.05261397
25	0x3d36dbd7	0.04464325
26	0x3a2b8766	0.0006543308
27	0xbd0e4838	-0.034736842
28	0x3ab8ab84	0.0014089202
29	0xbcaf7677	-0.021418793
30	0x3d0d1017	0.034439173
31	0xbc0c3914	-0.00855853
32	0x3c86086f	0.016361443
33	0xbcb0f276	-0.02159999
34	0x3c71bb62	0.014754148
35	0xbc582ad3	-0.013193804
36	0x3dc70265	0.097172536
37	0x3d0c4bf3	0.03425212
38	0xbc804006	-0.015655529
39	0x3cad57b8	0.021159992
40	0x3c5d36c4	0.013501827
41	0x3c8fc3a1	0.017549338
42	0xbd443ff1	-0.04791254
43	0xbd3a4c8a	-0.04548315
44	0x3d2a4072	0.041565366
45	0x3cef9ab1	0.029248567
46	0x3b3d0db7	0.0028847286
47	0xbc8742bb	-0.016511312
48	0xbc46e272	-0.01213895
49	0x3d6047ca	0.054755963
50	0xbd21ee15	-0.039533693
51	0xbd5c4173	-0.053773355
52	0xbcc3101c	-0.023811392
53	0xbc68dacc	-0.0142123215
54	0xbb09c578	-0.0021022242
55	0x3c489213	0.012241858
56	0xbc3f0144	-0.011658017
57	0xbc9e06b7	-0.019290311
58	0xbc431d64	-0.011908863
59	0xbc5e7553	-0.013577777
60	0x3d3b2b41	0.045695547
61	0xbc497fe0	-0.012298554
62	0x3d858488	0.06519419
63	0x3c2c8bf6	0.010531416
64	0x3a8d7312	0.001079174
65	0xbb950bf3	-0.0045485436
66	0x3b06b6bd	0.0020555698
67	0xbcb22117	-0.021744294
68	0x3ca4c008	0.020111099
69	0x3c86fdfb	0.01647853
70	0xbc696590	-0.014245406
71	0x3d129322	0.035784848
72	0x3cf29bb7	0.029615266
73	0x3c5a309a	0.013317252
74	0x3b72ce05	0.0037049067
75	0x3d3501a4	0.044191018
76	0xbbf4598f	-0.0074569653
77	0xbad376d0	-0.0016133431
78	0xbc717702	-0.014737846
79	0x3b59b1fe	0.0033217664
80	0x3d1dd2e7	0.03853121
81	0xbb6c83f6	-0.0036089397
82	0xbbdc49a8	-0.0067226477
83	0x3ca2b4ac	0.019861542
84	0xbd089b2c	-0.03335111
85	0x3cad05a4	0.021120854
86	0x3d5696d8	0.05238995
87	0x3cfc497d	0.03079676
88	0x3d099206	0.033586524
89	0xbce31192	-0.02771834
90	0xbc3f572f	-0.011678501
91	0x3ba41d29	0.005008359
92	0x3dafd6d6	0.085858986
93	0x3d089b0f	0.033351
94	0x3d8a8ca9	0.0676511
95	0x3b8e9efa	0.0043524476
96	0xbd114455	-0.035465557
97	0x3a5bbc20	0.000838222
98	0xbd001af1	-0.031275693
99	0x3d013611	0.031545702
100	0x3d202169	0.039094362
101	0x3c1c3f0d	0.009536517
102	0x3d18af83	0.037276756
103	0x3c0843c1	0.008316935
104	0x3c3607b8	0.011110239
105	0x3cf73151	0.030174883
106	0xbd2253c2	-0.03963066
107	0xbbe7d89d	-0.007075383
108	0x3b33da98	0.0027443524
109	0x3cecda72	0.028912757
110	0xbc0a9eb9	-0.008460694
111	0xbcdad861	-0.026714506
112	0xbd3452f2	-0.044024415
113	0xbc7a2a44	-0.015268866
114	0x3ca0297a	0.019551028
115	0x3cd5ab5a	0.026082683
116	0xbcba69bf	-0.022755502
117	0xbc00a4eb	-0.0078518195
118	0x3cba6e77	0.022757752
119	0xbcf80abd	-0.030278558
120	0xbd798825	-0.060920853
121	0x3d0252e8	0.031817347
122	0x3d4e61b8	0.05038616
123	0xbd21a0d4	-0.03946002
124	0x3cd15147	0.025551451
125	0x3d74ce68	0.059767157
126	0x3c9008e8	0.017582372
127	0x3c82c7cf	0.015964417
128	0x3d068319	0.03283987
129	0x3ce6c787	0.028171314
130	0x3b634e1a	0.0034684003
131	0xb987f41e	-0.00025931088
132	0xbc528213	-0.012848395
133	0xba52f2b4	-0.000804703
134	0xbb84894b	-0.004044687
135	0x3c3897c0	0.011266649
136	0xbc09d29b	-0.008412029
137	0xbcd6fdae	-0.02624401
138	0x3abcbd77	0.0014399727
139	0xbcafc1a4	-0.02145464
140	0x3d2b9d19	0.041897867
141	0x3c40bce3	0.011763784
142	0x3dd20091	0.10254014
143	0x3d0dade3	0.03458966
144	0x3cc97f5e	0.024596866
145	0x3ce593fa	0.028024662
146	0x3d7f7bc3	0.062373888
147	0xbc73f326	-0.014889514
148	0x3d2bd3d0	0.041950047
149	0x3cbb4ece	0.022864725
150	0x3d4ac2f2	0.04950232
151	0xbcda6377	-0.026658757
152	0x3d712250	0.058870614
153	0xbc23593a	-0.009970004
154	0x3cb6f46b	0.022333344
155	0x3b2d6a04	0.0026460895
156	0x3d0cda5f	0.034387942
157	0x3b942157	0.004520576
158	0xbb627f70	-0.0034560822
159	0xbb802c05	-0.0039114975
160	0x3d8794f1	0.06620205
161	0x3bdac3d2	0.0066761756
162	0x3c5fe7fd	0.01366615
163	0x3d04aac0	0.032389402
164	0x3d661131	0.05616874
165	0x3c8aa900	0.016926289
166	0xbcbdd3cc	-0.023172282
167	0xbd7919c5	-0.06081559
168	0x3c5252fc	0.012837168
169	0xbb1ff5a7	-0.0024407895
170	0x3c958358	0.018251106
171	0xbcb71ff4	-0.022354104
172	0x3d33085e	0.04370915
173	0x3d18f8de	0.037346713
174	0xbc0151b9	-0.007893019
175	0x3d41f73f	0.047354933
176	0xbd67b1a1	-0.056565885
177	0xbc78b05e	-0.015178768
178	0xbbb58035	-0.005538965
179	0xbbdb9de1	-0.0067021702
180	0x3c393c5b	0.011305894
181	0xbbd4429d	-0.0064776675
182	0xbc933570	-0.017969817
183	0x3cf24687	0.029574646
184	0xbd59cd84	-0.05317451
185	0xbcd09b72	-0.025464747
186	0x3c26745f	0.010159581
187	0x3d244b1f	0.040110704
188	0xbc75cf7b	-0.0150030805
189	0x3c9fd665	0.019511411
190	0x3cbd412a	0.023102362
191	0x3bb5934a	0.00554124
192	0xbc9a4dcd	-0.018835926
193	0x3cbda19f	0.023148356
194	0xbd6488b5	-0.055794436
195	0x3d69d69a	0.057089426
196	0x3d37c463	0.044865023
197	0x3bb6f6e2	0.00558363
198	0x3d1d0ef2	0.03834433
199	0xbbd17796	-0.0063924296
200	0x3b07e35f	0.002073489
201	0xbbd14763	-0.006386684
202	0x3d9f9653	0.07792344
203	0xbcbfe672	-0.023425315
204	0x3b8b6c3f	0.0042548473
205	0xbcf5348c	-0.029932283
206	0xbceb4683	-0.028720146
207	0x3cd4bf63	0.025970167
208	0x3d4fc591	0.050725523
209	0x3cd63092	0.026146207
210	0xbcae05c7	-0.02124299
211	0x3c0a1588	0.008427985
212	0x3cf7f644	0.030268796
213	0xbd2b61ae	-0.0418412
214	0x3cd7f5c3	0.026362306
215	0xbd01e4c1	-0.031712297
216	0x3d0ef65d	0.03490292
217	0x3c1b1d08	0.009467371
218	0xbcf8409d	-0.030304248
219	0xbcedc5ef	-0.029025046
220	0xbc63478b	-0.013872038
221	0x3d03065b	0.031988483
222	0x3ca49dac	0.020094715
223	0xbc61d50f	-0.013783707
224	0x3d13b4d0	0.036061108
225	0x3d6b1c41	0.057399992
226	0x3d3897a6	0.0450665
227	0xbd72dbc4	-0.059291616
228	0x3ccd2197	0.025040431
229	0xbcceffc1	-0.025268437
230	0x3d13d2ef	0.036089834
231	0xbc112db3	-0.008860993
232	0x3d0196a9	0.03163782
233	0xbca4ac5c	-0.020101719
234	0x3d7c722c	0.06163232
235	0xbd37c6e7	-0.044867422
236	0x3cb2b631	0.021815391
237	0x3c6aef24	0.014339242
238	0xbd913526	-0.070902154
239	0x3d3609c3	0.044442903
240	0xbd09d1a0	-0.03364718
241	0xbb87f055	-0.004148523
242	0x3d61dc95	0.055142004
243	0xbcc8b542	-0.024500493
244	0x3d9f8c5b	0.077904426
245	0x3d4c1329	0.04982296
246	0x3ce194fb	0.02753686
247	0xbb5b96af	-0.0033506562
248	0xbd0ea9a0	-0.034829736
249	0x3cd9d46f	0.026590554
250	0x3d11b792	0.035575457
251	0xbcad13a5	-0.021127531
252	0x3cbce0df	0.023056446
253	0x3b842dc5	0.0040337765
254	0x3d6905c3	0.05689026
255	0xbcf37943	-0.029720908

network_body._body_endoder.seq_layers.2.weight f4 [256, 256]
0	0xbd2a2b7f	-0.041545387
1	0xbde9df88	-0.11419588
2	0x3d9182d3	0.07105031
3	0x3d85d174	0.06534091
4	0x3db9d9d4	0.090747505
5	0x3c575394	0.013142485
6	0xbcf5bede	-0.02999824
7	0x3c8f477d	0.017490143
8	0xbc566b15	-0.013087054
9	0xbd49f0da	-0.04930196
10	0x3dc7babe	0.09752415
11	0xbb911a81	-0.0044282083
12	0xbc55ed6b	-0.013057093
13	0xbe0f5e61	-0.14000846
14	0xbd45e028	-0.048309475
15	0xbd3fcfd7	-0.04682907
16	0x3d806b0d	0.06270418
17	0x3ddb50a5	0.10708741
18	0xbd91a95e	-0.07112382
19	0x3df1cd16	0.11806695
20	0x3bfc02d9	0.007690769
21	0xbd16e3a0	-0.036838174
22	0xbcbc1de7	-0.022963477
23	0xbd9428f9	-0.072343774
24	0xbde78ded	-0.11306367
25	0x3b720e8f	0.0036934947
26	0x3de97bea	0.11400588
27	0x3dd50028	0.104004204
28	0x3ca9ef6d	0.02074405
29	0xbd31b238	-0.043382853
30	0x3ce163ba	0.027513374
31	0xbd3751c3	-0.04475571
32	0xbe1f6741	-0.15566732
33	0x3b70ee29	0.0036763048
34	0xbde1e54b	-0.11030062
35	0x3e2c1dad	0.16808195
36	0x3d07f789	0.033195052
37	0xbd04101d	-0.03224193
38	0x3ca2078a	0.019778986
39	0x3d2d76a9	0.04234949
40	0xbd0c4e9b	-0.03425465
41	0xbdba042a	-0.090828255
42	0xbe08a900	-0.13345718
43	0x3d051733	0.032492828
44	0xbd9b20c7	-0.07574611
45	0x3ca413d9	0.020028995
46	0xbcbb2adc	-0.022847585
47	0xbdd7f4cf	-0.105447404
48	0xbb7d6c8e	-0.003866944
49	0x3d98ff24	0.07470539
50	0xbc6405ac	-0.013917368
51	0xbc531516	-0.012883445
52	0x3a9a0d0e	0.0011753158
53	0x3e0504c0	0.12990093
54	0xbd9f9272	-0.07791604
55	0xbe3da246	-0.18518934
56	0xbdba687f	-0.09101962
57	0xbcf8e37d	-0.030381912
58	0xbd873a26	-0.06602888
59	0xbe187ea2	-0.14892057
60	0xbd45faa6	-0.04833474
61	0x3d91e359	0.07123441
62	0x3ca1ee75	0.019767025
63	0xbcc72e78	-0.02431415
64	0xbbbd0e72	-0.0057695443
65	0xbd0778d7	-0.033074226
66	0x3d044dfa	0.032300927
67	0x3d9f9602	0.077922836
68	0xbde0d178	-0.10977453
69	0xbc4a263f	-0.01233822
70	0xbe230cd3	-0.15922861
71	0xbe394827	-0.1809393
72	0xbd05cd9b	-0.032666784
73	0xbd7d6be6	-0.061870478
74	0x3c9c28f5	0.019062499
75	0x3c91f448	0.017816678
76	0xbd4dcd7f	-0.050244804
77	0x3a5b5edc	0.0008368322
78	0xbb32ddd1	-0.0027292857
79	0x3c3ee12f	0.011650368
80	0x3ccde6f3	0.02513454
81	0x3d4994be	0.049214117
82	0x3d6dcb66	0.058055304
83	0xbb72a2d4	-0.0037023323
84	0xbcde9bf8	-0.027173981
85	0xbdb4bcd5	-0.08825079
86	0x3d6609cf	0.056161698
87	0x3e1d3838	0.15353477
88	0x3dcce7cf	0.100051515
89	0x3d3349c1	0.04377151
90	0xbccab97f	-0.024746655
91	0x3d543eff	0.05181789
92	0xbe06d60f	-0.13167594
93	0xbe3a2b11	-0.18180491
94	0xbd82902d	-0.063751556
95	0xbcf6af85	-0.030112991
96	0x3d89d1ee	0.06729494
97	0xbd75eeac	-0.06004207
98	0xbd6f5b8b	-0.05843691
99	0x3a25e268	0.00063279876
100	0x3c6f340d	0.014599812
101	0xb811ae92	-3.4733275e-05
102	0xbe5435fc	-0.20723718
103	0x3b0acb03	0.0021178133
104	0xbd6a1603	-0.0571499
105	0x3c221273	0.009892094
106	0xbcb16b9d	-0.02165776
107	0x3ce874c9	0.028376
108	0x3d1c689e	0.03818571
109	0x3ddec72c	0.10877833
110	0x3d03604c	0.032074258
111	0x3d633ab7	0.055475917
112	0xbdfc71b1	-0.123263724
113	0x3d522597	0.05130538
114	0xbe1326d5	-0.14370282
115	0xbbdff17f	-0.0068342085
116	0x3da54504	0.08069804
117	0xbd9396c5	-0.072064914
118	0x3d7a1e44	0.06106402
119	0xbd462413	-0.048374247
120	0xbcdd8948	-0.027043
121	0xbe15e84c	-0.14639395
122	0xbd8223ca	-0.063544825
123	0x3c55bce9	0.013045528
124	0xbde1d9a3	-0.11027839
125	0x3e08f1dd	0.13373514
126	0xbc141ea3	-0.0090405075
127	0xbe10cf66	-0.14141616
128	0x3d4ae07b	0.049530488
129	0x3c0519d0	0.00812383
130	0xbcaf8cc9	-0.021429436
131	0x3d80d972	0.062914744
132	0xbd86ec5d	-0.065880515
133	0xbe1f210f	-0.15539955
134	0x3e0bad1a	0.13640252
135	0xbceff253	-0.029290354
136	0x3d9cafc7	0.07650714
137	0xbe850e8b	-0.25987658
138	0x3da9b7c2	0.08287002
139	0x3c57bcec	0.013167601
140	0xbca16337	-0.01970063
141	0x3d33fb10	0.043940604
142	0xbcc01d4d	-0.023451472
143	0x3c533cd8	0.012892924
144	0xbd471498	-0.048603624
145	0x3d0f5548	0.03499344
146	0x3aa2820d	0.0012398377
147	0x3d823cd6	0.0635926
148	0xbd26beec	-0.04070942
149	0x3d126238	0.0357382
150	0x3d43fada	0.047846653
151	0xbd4ddf60	-0.050261855
152	0x3d03caab	0.0321757
153	0x3c87bcc7	0.016569508
154	0xbc0a5688	-0.008443482
155	0xbd603bf2	-0.05474467
156	0x3e200343	0.15626244
157	0x3d7bc045	0.06146266
158	0xbd49773e	-0.049185984
159	0x3dc62440	0.09674883
160	0xbdc3f689	-0.09568507
161	0x3dc5d5dc	0.09659931
162	0xbdd7afd0	-0.105315804
163	0x3d67d399	0.05659828
164	0xbd7df2bd	-0.06199907
165	0xbd7a21e0	-0.061067462
166	0xbd39dcce	-0.04537659
167	0xbd734209	-0.059389148
168	0xbd147f65	-0.036254305
169	0x3df02540	0.11725855
170	0x3d90e7d1	0.070754655
171	0xbd0fdc96	-0.035122477
172	0x3dda7690	0.10667145
173	0x3d3fcbc6	0.046825193
174	0xbe022cba	-0.12712374
175	0x3d2f6e01	0.042829517
176	0x3cce36f1	0.025172682
177	0xbdea032b	-0.114263855
178	0xbd945952	-0.07243599
179	0xbc3ed1f0	-0.011646733
180	0xbe0b75e5	-0.13619192
181	0xbcbf48c6	-0.02335013
182	0xbe179a2f	-0.1480491
183	0xbc24b835	-0.010053684
184	0x3d486d14	0.04893215
185	0xbd8b31b5	-0.0679659
186	0xbe249bcc	-0.16075057
187	0xbd86ec6a	-0.06588061
188	0x3d4ba13f	0.049714323
189	0x3cb887fc	0.02252578
190	0x3caa164d	0.020762587
191	0x3cc5c1d9	0.024140285
192	0xbb15b01b	-0.0022840563
193	0x3db300ef	0.087404124
194	0x3c261294	0.010136265
195	0xbd49080b	-0.049079936
196	0xbdc30723	-0.095228456
197	0xba4776cb	-0.0007608949
198	0xbd3de89a	-0.046364404
199	0xb997eb93	-0.0002897648
200	0xbd2c37f7	-0.04204556
201	0x3d35c5df	0.044378158
202	0xbd2bb0e5	-0.041916747
203	0xbc0edf1c	-0.008720186
204	0xbcda9f8a	-0.026687402
205	0xbd174397	-0.036929693
206	0xbe2c49a8	-0.16824973
207	0xbd8d6854	-0.06904665
208	0xbc85ec66	-0.016348075
209	0xbdde635a	-0.108587936
210	0xbda30035	-0.07959024
211	0x3d10d6a8	0.035360962
212	0x3de48501	0.11158181
213	0xbc0b195b	-0.008489932
214	0xbe092655	-0.13393529
215	0xbd6afe2b	-0.0573713
216	0x3d31c609	0.04340175
217	0x3d019d73	0.031644296
218	0x3d635f94	0.055511072
219	0x3b1a3297	0.002352869
220	0x3b5ace92	0.0033387286
221	0xbde198ee	-0.11015497
222	0x3dfe3b8a	0.124137
223	0xbc9bc4dc	-0.019014768
224	0xbd9c8c15	-0.07643906
225	0xbd5c470b	-0.05377869
226	0xbd880478	-0.06641477
227	0x3c5fe968	0.013666488
228	0x3d0d5578	0.034505337
229	0xbce37f09	-0.027770536
230	0x3d88921c	0.06668493
231	0x3dee41c6	0.11633639
232	0x3cd8f603	0.026484495
233	0x3d5a8721	0.053351525
234	0xbd0e3f60	-0.034728408
235	0xbd65cbae	-0.056102447
236	0xbdb6f178	-0.08932775
237	0xbdb19523	-0.08671024
238	0xbd8c92ed	-0.06863961
239	0x3da79743	0.08183148
240	0xbca3ce0f	-0.019995717
241	0xbc85e515	-0.016344586
242	0xbcdc1481	-0.026865246
243	0x3e0dba7d	0.13840671
244	0xbe10341c	-0.14082378
245	0xbd3f91a2	-0.046769746
246	0x3c883053	0.016624605
247	0xbca43313	-0.020043885
248	0x3d37e6fd	0.044898022
249	0x3d40fe20	0.047117352
250	0x3da7c45a	0.08191748
251	0xbd5212f9	-0.051287625
252	0xbc89ea02	-0.016835216
253	0x3dd1b3ad	0.102393486
254	0xbcbdcf13	-0.02317003
255	0xbc0d214b	-0.008613895

network_body._body_endoder.seq_layers.2.bias f4 [256]
0	0x3cdd99eb	0.027050933
1	0xbc10723f	-0.008816301
2	0xbc9c5fa2	-0.01908857
3	0xbd0caf46	-0.03434684
4	0x3baa6b94	0.0052008126
5	0xbc2a95cb	-0.01041169
6	0xbb0cf1ef	-0.0021506508
7	0x3c5e2876	0.013559451
8	0xbb28048b	-0.0025637473
9	0xbc3c09ab	-0.011476914
10	0x3be1ce30	0.0068910345
11	0x3bbf067b	0.00582963
12	0x3ad7e30d	0.0016470865
13	0xbd57f61c	-0.052724943
14	0xbcf81116	-0.030281585
15	0x3cd6f557	0.026240034
16	0xbd580b95	-0.05274542
17	0xbd34063b	-0.043951254
18	0xbd47edf5	-0.048810918
19	0x3cc06f58	0.023490593
20	0x391fdfef	0.00015246843
21	0xbcdc35e2	-0.026881162
22	0xbbe9cb75	-0.0071348497
23	0xbc6cd64b	-0.014455388
24	0x3c35444d	0.011063647
25	0xbc7d0d6e	-0.015445096
26	0x3c44dfba	0.012016231
27	0xbcc111cd	-0.023568058
28	0x3c0437c9	0.008069941
29	0xba0a3062	-0.0005271492
30	0xbd7fcbcc	-0.062450215
31	0xbd5a7c2d	-0.05334108
32	0xbd1f67b8	-0.038917273
33	0x3c2261af	0.009910985
34	0x3c15d2aa	0.0091444645
35	0xbd571fb5	-0.052520473
36	0xbd2ea3c9	-0.042636666
37	0xbd13a0b4	-0.03604193
38	0xbc3f6959	-0.011682832
39	0x3b93b90b	0.004508143
40	0x3d2d3a8b	0.04229216
41	0xbd5539df	-0.052057143
42	0x3c857447	0.016290797
43	0xbb7c9881	-0.0038543048
44	0x3c241e44	0.0100169815
45	0x3cec902b	0.028877338
46	0xbb7668aa	-0.0037599006
47	0xbbac2311	-0.0052532037
48	0x3c05e083	0.008171204
49	0x3ccd2179	0.025040375
50	0xbd1e7981	-0.038690094
51	0xbbd5eb0f	-0.0065282653
52	0xbcd99a21	-0.026562752
53	0xbd26f74b	-0.04076318
54	0x3be69d20	0.0070377737
55	0xbc38696e	-0.011255605
56	0x3cc6a3c6	0.024248015
57	0x3ca2016f	0.019776074
58	0xbcf24440	-0.02957356
59	0xbd0b843f	-0.034061667
60	0xbc84d6ae	-0.016215649
61	0xbd67472b	-0.056464355
62	0x3bacdeff	0.0052756066
63	0xbcd266a6	-0.025683712
64	0xbb8bc61b	-0.0042655594
65	0x3c0b57e9	0.008504846
66	0xbd01391b	-0.0315486
67	0x3c47c240	0.012192309
68	0x3ae4ef9e	0.0017466431
69	0x3d148b53	0.036265682
70	0xbbf08f28	-0.0073412843
71	0xbd381cd8	-0.044949383
72	0xbcd35eac	-0.025801979
73	0xbcca0e3b	-0.024664989
74	0xbd1c8830	-0.038215816
75	0x3ca5077c	0.02014517
76	0xbcc0dca3	-0.023542708
77	0xbc6e2454	-0.0145350285
78	0xbad6081a	-0.0016329319
79	0xbcdc5f5a	-0.026900936
80	0x3c8dab1e	0.01729351
81	0x3c9174d8	0.01775591
82	0xbc9c84b0	-0.01910624
83	0x3bb7ec78	0.005612906
84	0xbaf9c589	-0.0019056062
85	0xbce6d93e	-0.028179761
86	0x3c90adc9	0.017660992
87	0x3bde31d3	0.006780842
88	0xbbd84944	-0.006600531
89	0xbc8365b6	-0.01603971
90	0xbc322b9d	-0.010874656
91	0xbb4259b3	-0.0029655516
92	0x3c37056d	0.011170727
93	0xbc043e69	-0.00807152
94	0xbda26eb1	-0.07931269
95	0xbd313938	-0.04326746
96	0x3b5a0e08	0.0033272523
97	0xbc9ed554	-0.019388832
98	0xbceb89d2	-0.028752241
99	0xbc135cf3	-0.008994329
100	0xbc197e2e	-0.0093684625
101	0x3cb41ade	0.021985468
102	0x3cabb635	0.020960907
103	0x3ac81a1f	0.0015266574
104	0x3c21ef55	0.009883721
105	0xbd06b101	-0.032883648
106	0xbb15ab85	-0.002283783
107	0x3a687f90	0.0008869106
108	0x3c554b2f	0.013018413
109	0x3c42e449	0.011895248
110	0xbd2533cc	-0.0403326
111	0xbd6c98bc	-0.057762846
112	0xbcace791	-0.021106513
113	0xbd14e252	-0.03634865
114	0x3c039218	0.008030437
115	0xbd2baac6	-0.04191091
116	0xbc8054f5	-0.01566551
117	0x3cbd6e39	0.023123847
118	0x3c5e998a	0.013586411
119	0xbd481b89	-0.048854385
120	0x3d05129d	0.032488454
121	0xbd021d47	-0.031766202
122	0xbd2b6576	-0.041844808
123	0xbd576b3b	-0.052592497
124	0xb9d1c183	-0.00040007764
125	0x3d276c2e	0.040874653
126	0xbc16c470	-0.009202108
127	0x3cf0940f	0.029367475
128	0xbb8e02ff	-0.0043338533
129	0xbd1b2302	-0.037875183
130	0xbceb7931	-0.028744312
131	0xbc40a9c4	-0.011759225
132	0x3ce222e5	0.02760453
133	0xbb8ba4e1	-0.0042615985
134	0x3c8427ef	0.016132323
135	0xbc9a87a6	-0.01886351
136	0xbcc3391c	-0.023830943
137	0x3c1852e4	0.009297106
138	0xbcb5799e	-0.022152718
139	0xbc968f1e	-0.01837879
140	0xbc33b18a	-0.010967622
141	0xbc8482b9	-0.016175615
142	0x3ccf378d	0.025295043
143	0x3bdd9c78	0.0067630373
144	0xbc7cf3b7	-0.0154389655
145	0xbc5e0b00	-0.013552427
146	0xbc05ad96	-0.008159062
147	0x3d44c0e6	0.048035525
148	0x3c61e26b	0.013786892
149	0xbc8d218e	-0.017227914
150	0xbcfbc7c3	-0.030734902
151	0xbb8d854b	-0.0043188683
152	0xbd19e8c3	-0.037575494
153	0xbba926e2	-0.005162106
154	0x3ca245ad	0.019808615
155	0x3c51b2b2	0.012798952
156	0xbcea4d89	-0.028601425
157	0xbc96b20e	-0.01839545
158	0xbd5bca76	-0.05365988
159	0xbae660a6	-0.0017576411
160	0xbd9dd50c	-0.07706651
161	0x3cd9e2da	0.026597429
162	0xb9ce4dd9	-0.00039349383
163	0x3ca51d55	0.020155588
164	0x3a07aa1d	0.000517519
165	0xbb52c85a	-0.0032162876
166	0xbc8251d9	-0.015908169
167	0xbbe0fe6d	-0.0068662674
168	0xbd1c05c7	-0.038091447
169	0x3c8c8b4c	0.017156266
170	0x3ce74ac7	0.028233899
171	0xbd2fdceb	-0.042935293
172	0xbd27fa38	-0.04101011
173	0x3d17baba	0.03704331
174	0xbd1e7dbc	-0.03869413
175	0xbd063665	-0.03276672
176	0xbd46145a	-0.048359253
177	0xbc569e1b	-0.013099219
178	0x3cbd89c5	0.023136983
179	0xbc29cd99	-0.01036396
180	0xbbef4f53	-0.0073031574
181	0xbca0e036	-0.019638162
182	0x3d0bde7f	0.034147736
183	0x3c3e7bf9	0.011626237
184	0xbc87acc9	-0.016561883
185	0x3c786f89	0.015163311
186	0x3d76871a	0.060187437
187	0xba95a29e	-0.0011416262
188	0xbd930573	-0.07178774
189	0xbd4e8a79	-0.050425027
190	0x3bfacf41	0.007654101
191	0xba43fb08	-0.0007476066
192	0xbc451163	-0.012028071
193	0xbd40045e	-0.046879165
194	0xbd5664c8	-0.052342206
195	0xbc853a39	-0.016263114
196	0xbd202c62	-0.039104827
197	0x3c770615	0.015077134
198	0x3c094f0d	0.008380664
199	0xbc2da3fc	-0.010598179
200	0x3cad3570	0.021143645
201	0x3bee3b60	0.0072702616
202	0xbcf4b2b6	-0.029870372
203	0xbc573394	-0.013134856
204	0xbbba75c2	-0.0056903074
205	0x3ca03619	0.019557046
206	0xbc72ea22	-0.014826329
207	0xbd0ce1e7	-0.034395125
208	0x3c4fe7da	0.012689555
209	0x3a73486a	0.0009280505
210	0x3d11d3a3	0.035602223
211	0xbc59b848	-0.013288565
212	0xbb9d5433	-0.004801297
213	0xbd817f6e	-0.063231334
214	0xbcd0509f	-0.025429068
215	0xbc334bfe	-0.010943411
216	0x3c73ff26	0.014892375
217	0xbc50cc22	-0.012743982
218	0xbc4e7e29	-0.012603321
219	0x3bc71f5f	0.006076738
220	0xbcfc4c48	-0.030798092
221	0xbc98e0ac	-0.01866182
222	0x3c55116f	0.013004645
223	0xbce1c2ce	-0.02755871
224	0xbab66b87	-0.0013917544
225	0xbcba1ba7	-0.022718264
226	0x3cb7d855	0.022442022
227	0xbcf24b51	-0.02957693
228	0x3c244512	0.010026233
229	0xbcf5d51b	-0.030008843
230	0xbba64bc1	-0.0050749485
231	0x3d298492	0.041386195
232	0xbcee0405	-0.029054651
233	0x3d13cafd	0.036082257
234	0xbc07a541	-0.008279146
235	0xbc5de0c5	-0.013542359
236	0x3b015c76	0.001973895
237	0x3d773936	0.060357295
238	0xbd1a7b89	-0.03771547
239	0xbd4315e9	-0.047628317
240	0xbc918ff7	-0.017768843
241	0xbc721fb2	-0.014778065
242	0x3b914edc	0.0044344496
243	0x3b99c0c0	0.004692167
244	0x3afd06ec	0.0019304431
245	0xbd464784	-0.048408046
246	0xbc8b1a83	-0.016980415
247	0xbca37e0a	-0.019957561
248	0x3c273672	0.010205852
249	0xbbd575d5	-0.006514291
250	0xbc58b048	-0.0132256225
251	0xbce6eb3c	-0.02818834
252	0xbd0d6ada	-0.03452573
253	0xbd01453b	-0.031560164
254	0x3c2e1008	0.010623939
255	0xbd87aaaa	-0.066243485

action_model._discrete_distribution.branches.0.weight f4 [2, 256]
0	0x3cc40017	0.023925824
1	0x3c5229c1	0.012827338
2	0xbbadcdc5	-0.0053040707
3	0x3c32a70e	0.010904087
4	0x3ccce947	0.025013579
5	0xbd29e0d1	-0.041474167
6	0x3d740a83	0.059580337
7	0x3d09c1e7	0.033632185
8	0x3d45167f	0.048117157
9	0x3d186e83	0.037214767
10	0xbc65b162	-0.014019342
11	0x3bf51f5e	0.007480546
12	0xbc34df21	-0.011039526
13	0xbcdf1cc9	-0.027235406
14	0x3cd25312	0.025674377
15	0x3cd82f09	0.026389616
16	0x3baf1835	0.005343462
17	0xbcb984d3	-0.022646343
18	0xbb4fc305	-0.0031701934
19	0x3d582b12	0.05277545
20	0xbc186d96	-0.009303471
21	0x3c98a812	0.01863483
22	0xbd041df5	-0.03225513
23	0xbbb36664	-0.0054748524
24	0x3cff7f78	0.031188712
25	0x3d2999a2	0.04140628
26	0x3d600763	0.054694545
27	0x3d56f04b	0.052475255
28	0xbd5404a4	-0.05176224
29	0x3d70a582	0.05875159
30	0xbba8c916	-0.0051509244
31	0xbab60b83	-0.0013888929
32	0x3d445752	0.047934838
33	0x3d979201	0.07400895
34	0xbc07563f	-0.008260309
35	0xbb6533c7	-0.0034973489
36	0x3b90a9bb	0.0044147647
37	0xbd99abb0	-0.0750345
38	0x3d17af44	0.03703238
39	0xbc9cca8c	-0.01913955
40	0x3d7eab4f	0.06217509
41	0xbc8b7086	-0.017021429
42	0xbcfeee89	-0.031119602
43	0x3c2c13da	0.01050278
44	0xbc93c5f3	-0.018038725
45	0x3c918b94	0.017766751
46	0xbc96e198	-0.018418118
47	0x3d8ca390	0.068671346
48	0x3caf8b8e	0.02142885
49	0x3cb4a91f	0.0220533
50	0x3d234200	0.039857864
51	0x3c3a83ca	0.01138396
52	0xbd4b3636	-0.049612246
53	0x3cb8c18e	0.022553232
54	0xbb205cc8	-0.0024469364
55	0x3c37aafe	0.011210201
56	0x3b4bb770	0.003108468
57	0x3cbac3b1	0.022798391
58	0x3ceb35cb	0.028712174
59	0xbcbe3e18	-0.023222968
60	0x3c0b6950	0.008508995
61	0xbc1e1e87	-0.009650833
62	0xb9a42041	-0.0003130455
63	0x3d82c1c0	0.06384611
64	0x3d1d7f45	0.03845145
65	0xbca02b46	-0.019551884
66	0xbbe96a01	-0.0071232324
67	0x3c2036a2	0.0097786505
68	0x3c81af3c	0.015830629
69	0x3c4ce075	0.012504687
70	0x3cda6d7a	0.02666353
71	0x3d336ba9	0.043803845
72	0x3c79d1a9	0.015247741
73	0xbc935f30	-0.017989725
74	0x3c1ed9cf	0.009695484
75	0x3d22920a	0.039690055
76	0x3cf8dac1	0.030377747
77	0x3d05734f	0.03258067
78	0x3cf03af1	0.02932498
79	0xbd3e2d30	-0.046429813
80	0xbc5c0cca	-0.0134307835
81	0xbc00f45d	-0.007870761
82	0x3ce97b24	0.0285011
83	0x3bed373f	0.007239252
84	0x3cafaad6	0.021443766
85	0xbce7a495	-0.028276721
86	0x3d201b91	0.03908879
87	0x3c546c5e	0.01296529
88	0x3c56a3c8	0.013100572
89	0x3d4db2eb	0.050219458
90	0x3d2972af	0.041369136
91	0xbc097fe9	-0.008392313
92	0xbcb5d720	-0.022197306
93	0xbca85cf1	-0.02055213
94	0x3c4cb1dc	0.012493577
95	0x3be3dc41	0.0069537465
96	0xb9bd3dcc	-0.0003609493
97	0x3d865632	0.06559409
98	0x3cf6f444	0.030145772
99	0x3c9e918b	0.01935651
100	0xbd280ec0	-0.04102969
101	0x3d848125	0.06469945
102	0x3cf5f948	0.030026093
103	0x3d35e9c9	0.044412408
104	0xbc202eaa	-0.009776751
105	0x3d20c732	0.039252467
106	0x3d034145	0.032044668
107	0x3bb0b981	0.0053932075
108	0x3d0df453	0.034656834
109	0x3d1a3196	0.037644945
110	0x3b7d7548	0.0038674641
111	0xbc27e42a	-0.01024727
112	0x3b5d49fe	0.0033766027
113	0xbca6ccbb	-0.020361295
114	0xbba0b2b9	-0.004904118
115	0xbc0d1ec4	-0.008613292
116	0x3d49b0da	0.049240924
117	0x3cdbd2df	0.02683395
118	0x3d0d2ca1	0.03446639
119	0x3ca163cd	0.019700909
120	0x3d2ce53c	0.042210802
121	0xbc7fd2d7	-0.015614233
122	0xbb60ec7b	-0.003432064
123	0xbd691bb0	-0.05691117
124	0x3b17d35b	0.002316675
125	0x3c58a66a	0.01322327
126	0x3d34d91f	0.044152375
127	0x3cf8c278	0.030366167
128	0x3d2b9aaa	0.041895546
129	0xba1af02b	-0.00059104216
130	0xbb2ce7d6	-0.0026383302
131	0x3ccea2dc	0.025224142
132	0x3d35cfc4	0.044387594
133	0x3cdd1ba1	0.026990714
134	0x3c69f4e7	0.014279581
135	0x3c212dd1	0.009837584
136	0xbb938858	-0.0045023374
137	0xba606e85	-0.00085613906
138	0xbb85f90a	-0.0040885257
139	0x3dc1a1f9	0.09454722
140	0xbd50f6d5	-0.051016647
141	0x3d240e33	0.040052604
142	0x3d1d4f53	0.038405728
143	0xbcb7da66	-0.022443008
144	0xbc588da8	-0.013217367
145	0x3bbc5883	0.005747856
146	0xba617fb2	-0.0008602097
147	0xbc9fb3c1	-0.019494893
148	0x3d00b834	0.03142567
149	0x3d2edd48	0.0426915
150	0x3c7972f2	0.015225159
151	0x3b137c83	0.0022504635
152	0x3bbd8817	0.0057840454
153	0x3d07a457	0.03311571
154	0xbd0f7ed6	-0.03503307
155	0x3b3714fe	0.0027936096
156	0xbc8e4001	-0.017364504
157	0xbbf0c2aa	-0.0073474245
158	0x3c7d3732	0.015455054
159	0x3b43c512	0.0029872102
160	0x3b17f07f	0.0023184118
161	0x3d2896c1	0.041159395
162	0xbcdd2104	-0.026993282
163	0xbbf0717d	-0.0073377476
164	0x3ba623c1	0.00507018
165	0x3c03cec0	0.0080448985
166	0x3d073055	0.033005077
167	0x3cf88f6a	0.030341823
168	0xbd414aa5	-0.047190327
169	0x3cf3db8a	0.02976777
170	0xbbcead6e	-0.0063072955
171	0x3ba064b6	0.004894818
172	0xbc95176e	-0.018199649
173	0x3daf62b0	0.08563745
174	0x3d1e572b	0.03865735
175	0xbca753f0	-0.020425767
176	0xbc8139ad	-0.015774572
177	0xbb2b12d5	-0.0026103754
178	0x3c612400	0.013741493
179	0x3c782a53	0.01514681
180	0x3c29920f	0.0103497645
181	0xbd4f1e72	-0.050566144
182	0x3d382184	0.044953838
183	0xbcfdc547	-0.030977858
184	0xbcf8464b	-0.030306956
185	0xbd23af3d	-0.039962042
186	0xbbf753aa	-0.0075478153
187	0xbb6484f9	-0.0034869297
188	0xbcc05c6f	-0.023481576
189	0x3bf25624	0.0073955227
190	0x3ce69719	0.02814822
191	0x3d91317a	0.07089515
192	0xbc813967	-0.015774442
193	0xbc96ab19	-0.018392133
194	0x3b03b13a	0.002009465
195	0x3c03b5d7	0.0080389595
196	0xbbdc885c	-0.0067301225
197	0x3d0f22b9	0.034945223
198	0x3c66b3d2	0.014080958
199	0xbc62cce3	-0.013842794
200	0xbd160837	-0.036628928
201	0x3d30ae7f	0.043135162
202	0x3cb1fa1e	0.02172571
203	0xbd6d8596	-0.057988726
204	0x3bd7d02e	0.0065860962
205	0x3ce4ee11	0.02794555
206	0x3d0a2147	0.033723142
207	0xbd11cbcc	-0.035594746
208	0xbc29b47d	-0.010357973
209	0x3ca305c6	0.019900214
210	0xbd6b1cc0	-0.057400465
211	0xbcc68402	-0.024232868
212	0xbc77b7a8	-0.015119471
213	0x3b68eaa5	0.003554025
214	0x3d04841d	0.032352556
215	0xbc2e175b	-0.010625686
216	0xbc782523	-0.015145573
217	0xbc83211e	-0.016007002
218	0x3c2ed8b1	0.01067178
219	0xbd0394d2	-0.032124348
220	0xbd5164e1	-0.051121596
221	0x3c681ec5	0.014167492
222	0xbb72e668	-0.0037063602
223	0xbc8622a3	-0.016373938
224	0xbb668309	-0.0035173318
225	0x3cd8839e	0.026429947
226	0x3d913e44	0.07091954
227	0x3c63995a	0.013891542
228	0x3d3b3ebd	0.04571413
229	0x3c92e4ca	0.01793136
230	0x3d07ba45	0.033136625
231	0x3d126623	0.035741936
232	0xbc01c369	-0.007920125
233	0x3d852b67	0.06502419
234	0x3ba68767	0.005082059
235	0xbb993fce	-0.0046767956
236	0xbc85dc2e	-0.016340341
237	0x3d5bc801	0.053657535
238	0xbccf97ed	-0.025340999
239	0x3caa9e8c	0.020827554
240	0x3c569c85	0.013098841
241	0x3d81e119	0.06341762
242	0x3cb4999d	0.022045905
243	0x3d236ec6	0.039900564
244	0x3c0c6b01	0.008570434
245	0xbceb7960	-0.0287444
246	0x3c225552	0.009908037
247	0x3c8ed6b3	0.017436361
248	0x3ca718ef	0.020397631
249	0x3c71baed	0.014754039
250	0x3a7b663a	0.0009590123
251	0x3cbf0179	0.023316132
252	0x3ca13404	0.019678123
253	0x3b329e0e	0.0027254852
254	0x3b0c2196	0.0021382323
255	0xbc086406	-0.008324629

action_model._discrete_distribution.branches.0.bias f4 [2]
0	0xbca2acaa	-0.019857723
1	0x3ca2aca8	0.01985772

action_model._discrete_distribution.branches.1.weight f4 [2, 256]
0	0xbcb78a64	-0.022404857
1	0xbce28d48	-0.027655259
2	0xbcfdb69a	-0.03097086
3	0x3c8ff885	0.017574558
4	0xbcebbdf8	-0.028777108
5	0xbb91ab83	-0.0044454946
6	0x3cdb55d2	0.02677432
7	0x3cfc21c7	0.030777825
8	0x3cd0d0b5	0.025490144
9	0x3d056fa2	0.032577164
10	0xbc86b7ab	-0.016445002
11	0xbc2884b6	-0.010285547
12	0xbd4b67fe	-0.04965972
13	0xba8926e8	-0.0010463865
14	0x3d021b51	0.031764332
15	0x3c2dce7e	0.010608314
16	0x3c53a9d4	0.012918908
17	0x3c6ec227	0.014572657
18	0x3c55ea6d	0.01305638
19	0x3cce49f8	0.025181755
20	0x3cc8aa65	0.024495313
21	0x3c163826	0.00916866
22	0x3d0cf2d3	0.034411263
23	0x3d2e3784	0.042533413
24	0x3cdbb855	0.026821295
25	0xba8ceea1	-0.0010752269
26	0x3bc6f357	0.006071489
27	0x3d21f8c1	0.03954387
28	0xbc11f514	-0.008908529
29	0x3d3ac5ba	0.045598723
30	0xbc00b80c	-0.00785638
31	0x3c549fd5	0.01297756
32	0x3c00acbe	0.007853685
33	0x3d3111fb	0.043230038
34	0x3c0b5514	0.008504171
35	0x3cc0072e	0.023440924
36	0x3c1e50ac	0.009662788
37	0x3c92bc9b	0.0179122
38	0xbb9185d4	-0.0044410024
39	0x3c8678f1	0.016415091
40	0x3d80bb18	0.06285685
41	0xbc07db52	-0.008292036
42	0xbc1bf56a	-0.0095189605
43	0x3c17ce37	0.009265474
44	0xbd1c56a3	-0.03816856
45	0xbc089bdf	-0.008337944
46	0x3d53fe37	0.05175611
47	0x3d750df2	0.059827752
48	0x3b7cfd58	0.0038603153
49	0x3ce1a32e	0.02754363
50	0x3d0492f7	0.03236672
51	0x3d4821de	0.048860423
52	0x3c9017ed	0.017589534
53	0x3d3fec34	0.04685612
54	0x3d2334db	0.03984533
55	0xbb00d372	-0.0019657281
56	0xbd222e9b	-0.039595228
57	0x3ccee998	0.02525787
58	0x3d0f9709	0.035056148
59	0xbcf1b7cf	-0.029506592
60	0x3bc4c5e3	0.0060050352
61	0x3ab9964a	0.001415917
62	0xba4b3def	-0.0007753064
63	0x3d8bf0ef	0.06833064
64	0x3d09d621	0.033651475
65	0xbcabbbcd	-0.020963574
66	0xbd93c2f1	-0.072149165
67	0xbb4f6b33	-0.003164959
68	0x3d64e308	0.055880576
69	0xbbd6a4a2	-0.0065503875
70	0xbc97c16d	-0.01852485
71	0x3d197977	0.037469354
72	0xbc3fb376	-0.011700502
73	0xbd021afa	-0.031764008
74	0x3b9f0b1e	0.00485362
75	0x3d938a5c	0.07204124
76	0x3d6f0417	0.05835351
77	0x3d5c9d58	0.053860992
78	0x3cd53993	0.02602843
79	0xbac2f759	-0.0014874741
80	0xbd357553	-0.044301342
81	0xbc9d42dd	-0.019196922
82	0x3c13435f	0.0089882305
83	0xbc301ad7	-0.010748587
84	0x3cb26453	0.021776354
85	0xbbff6e91	-0.007795163
86	0x3d3cf0b0	0.046127975
87	0xbcbdb6ff	-0.023158548
88	0x3d047fdc	0.0323485
89	0x3ceb52fc	0.028726093
90	0x3c9d85ca	0.019228835
91	0x3d7f80c3	0.062378656
92	0xbb892e50	-0.004186429
93	0xbc6a22ac	-0.014290493
94	0x3cebd90b	0.028790018
95	0x3cf5f955	0.030026117
96	0x3d2ff872	0.042961545
97	0x3d347f31	0.04406661
98	0xbc69b942	-0.01426536
99	0x3d265de4	0.040616885
100	0x3d1b5f66	0.037932776
101	0x3bef818f	0.0073091458
102	0xbc20a0da	-0.009803975
103	0x3b99f07d	0.004697858
104	0xbadf6a3c	-0.001704521
105	0xbb8e95d3	-0.0043513565
106	0xba086ca7	-0.0005204179
107	0x3ce82f44	0.02834285
108	0xbb5142e2	-0.0031930734
109	0xbc7a88c0	-0.015291393
110	0xbcd1cf67	-0.025611592
111	0xbada17ea	-0.0016639207
112	0x3ca37e16	0.019957583
113	0x3b9001fb	0.0043947673
114	0xbcca33da	-0.024682928
115	0x3d6c25d8	0.057653278
116	0x3d1d968c	0.03847365
117	0x3d81815d	0.06323502
118	0x3d507e21	0.050901536
119	0xbc0a2467	-0.008431531
120	0x3dada4dd	0.08478711
121	0x3c39a300	0.011330366
122	0x3bbcf15e	0.005766078
123	0xbc80cb17	-0.01572184
124	0xbce5ad2a	-0.028036673
125	0x3dcdf484	0.10056403
126	0x3d4dd564	0.050252333
127	0xbd0782fb	-0.033083897
128	0x3bc57e80	0.006027043
129	0x3d0d4095	0.03448542
130	0x3a89ab91	0.0010503401
131	0x3c1e5838	0.009664588
132	0x3cda0b9d	0.026616866
133	0xbc75ca57	-0.015001855
134	0x3c47c863	0.012193772
135	0xbc9294e7	-0.017893268
136	0xbc97b9aa	-0.018521149
137	0xbcd1c5d0	-0.02560702
138	0xbc80f88b	-0.015743515
139	0x3d1f62c7	0.03891256
140	0xbce12f4f	-0.027488379
141	0x3d2a3f14	0.041564062
142	0x3cdf0080	0.027221918
143	0x3cd01413	0.025400197
144	0xbbcac1bb	-0.0061876453
145	0x3caa9526	0.020823073
146	0x3c5a7cff	0.013335465
147	0x3b83968b	0.004015749
148	0x3b041750	0.0020155497
149	0x3d8ac4fa	0.067758515
150	0x3c8f54a8	0.017496422
151	0x3d89f76d	0.06736646
152	0x3b420d99	0.0029610156
153	0x3ce807f9	0.028324114
154	0xbcb7a2bc	-0.022416465
155	0x3d06e9b3	0.032937717
156	0xbc272e25	-0.010203873
157	0x3c1eceb0	0.009692833
158	0xbcbff0df	-0.023430286
159	0x3cd14e5c	0.02555006
160	0x3b5a0db5	0.003327233
161	0x3c7c5537	0.015401176
162	0x3cc8d590	0.024515897
163	0x3d3ee643	0.046606313
164	0xbc97eae0	-0.018544614
165	0x3c0e855e	0.008698789
166	0x3d157d41	0.036496405
167	0x3d2eae34	0.0426466
168	0x3b8910a2	0.004182891
169	0x3c3ef6ae	0.011655493
170	0x3c5d8cf2	0.0135223735
171	0x3b1f58d6	0.0024314425
172	0x3b29e4dc	0.0025923764
173	0x3d134cbd	0.035961855
174	0x3d11a5bc	0.035558447
175	0xbc499a2c	-0.012304824
176	0xbc0e4fa6	-0.008685982
177	0xbb500d14	-0.0031746076
178	0xbb9c49be	-0.004769533
179	0x3cb0956b	0.021555623
180	0x3d2ec907	0.042672183
181	0xbc4146f6	-0.011796704
182	0x3dba4926	0.09095983
183	0xbcb9d029	-0.022682266
184	0x3ce77351	0.02825323
185	0xbd147565	-0.03624477
186	0x3cc41139	0.023933994
187	0x3c86cbc3	0.016454583
188	0xbb3f9041	-0.002923027
189	0xbccf256c	-0.025286399
190	0x3d250f6c	0.04029791
191	0x3d07a481	0.033115868
192	0xbac5885c	-0.0015070545
193	0x3c707120	0.014675409
194	0x3c2d497a	0.0105766
195	0x3d0a2c11	0.03373343
196	0x3c74cd99	0.014941596
197	0x3b973134	0.0046140198
198	0xbcdefb93	-0.02721957
199	0xbccc913a	-0.024971593
200	0xbd2e65fb	-0.042577725
201	0x3d4fc2cf	0.050722893
202	0xbc86b655	-0.016444365
203	0x3ce1c95a	0.027561832
204	0xbd0ff79c	-0.035148248
205	0x3d68ae73	0.056806993
206	0x39ff52ef	0.0004869918
207	0xbc48710f	-0.0122339865
208	0x3ca7f68d	0.020503307
209	0x3b89ffe4	0.0042114127
210	0xbd4e4386	-0.050357364
211	0x3d046967	0.032327082
212	0xbbfa184f	-0.0076322923
213	0x3a59674b	0.0008293285
214	0x3bce5b2e	0.0062974906
215	0xbcd78676	-0.026309233
216	0x3c45f235	0.012081672
217	0x3c9f1514	0.01941923
218	0x3ca93c6f	0.0206587
219	0x3d13498a	0.035958804
220	0xbbda3b24	-0.006659882
221	0x3d8fd1c1	0.07022429
222	0x3ad4d16c	0.0016236729
223	0xbc929cda	-0.017897058
224	0xbc4e9ed9	-0.012611114
225	0x3ca969e2	0.020680372
226	0x3c053c74	0.008132089
227	0x3c300ac1	0.010744751
228	0x3cee1667	0.029063417
229	0xbc16c67b	-0.009202595
230	0xbb2f74c7	-0.0026772486
231	0x3d16c26f	0.03680652
232	0x3bf4e037	0.0074730176
233	0x3d487da2	0.048947938
234	0x3d0b5fb8	0.03402683
235	0x3c6abbaf	0.014326974
236	0xbd009c1b	-0.031398874
237	0x3d2a9a03	0.041650783
238	0xbb0dbe35	-0.0021628265
239	0x3cb257e6	0.021770429
240	0xbb0832f0	-0.0020782314
241	0x3d2b9d25	0.04189791
242	0xbce41712	-0.027843032
243	0x3cf54b84	0.029943235
244	0x3d38af94	0.04508932
245	0x3c80c53a	0.015719045
246	0x3d77aa39	0.06046507
247	0x3cfd7279	0.030938374
248	0xbc911371	-0.017709466
249	0xbb0f66cc	-0.002188134
250	0xbd088f64	-0.033339873
251	0xba518182	-0.00079920155
252	0xbc1bff07	-0.0095212525
253	0xbccbcfa4	-0.024879284
254	0x3c38f33f	0.011288463
255	0xba101b7c	-0.00054972596

action_model._discrete_distribution.branches.1.bias f4 [2]
0	0xbcc586f1	-0.024112197
1	0x3cc586f2	0.024112199

action_model._discrete_distribution.branches.2.weight f4 [2, 256]
0	0x3d00dc45	0.031460065
1	0xbc56eb62	-0.013117643
2	0x3cea12e7	0.028573466
3	0xbb1b75ea	-0.0023721405
4	0xbd2be5af	-0.04196709
5	0x3cb8279d	0.022479827
6	0xbcafe711	-0.021472486
7	0xbd17074c	-0.036872193
8	0x3c226f4d	0.0099142315
9	0x3d03e7ae	0.03220337
10	0x3ba318eb	0.0049773357
11	0xbbd67f98	-0.006545972
12	0xbb92dd71	-0.0044819643
13	0xbc7f3925	-0.015577589
14	0x3d0c1477	0.034199204
15	0xbcc27919	-0.023739384
16	0x3c19e1ed	0.009392244
17	0x3c7c5efb	0.0154035045
18	0xbb00f148	-0.0019675065
19	0xbb7b3d6d	-0.0038336173
20	0x3ca91db5	0.020644048
21	0x3c06fa93	0.0082384525
22	0x3cddd71e	0.027080115
23	0x3b2adf1e	0.002607293
24	0x3c56b574	0.013104785
25	0xba49713d	-0.00076844153
26	0xbc8fc38f	-0.017549304
27	0x3c99fc00	0.01879692
28	0x3ca0d12b	0.019630989
29	0xbb05838a	-0.0020372593
30	0xbc766a9e	-0.015040068
31	0xbbed0599	-0.0072333333
32	0x3bb3e638	0.0054900907
33	0xbd09b150	-0.033616364
34	0xbc95eba7	-0.018300844
35	0x3d15992a	0.03652302
36	0xba68fc18	-0.00088876626
37	0xbbab54f5	-0.0052286335
38	0xbd056208	-0.032564193
39	0xbbb159c7	-0.0054123136
40	0xbc968029	-0.018371658
41	0x3a5c5059	0.0008404307
42	0x3d86bada	0.06578608
43	0xbd33381f	-0.043754693
44	0x3d107bcd	0.035274316
45	0xbd1beaaa	-0.03806559
46	0x3d0834c4	0.033253446
47	0x3d1645c9	0.036687646
48	0x3d5a8b1c	0.05335532
49	0xbd1c353f	-0.038136717
50	0x3b942d9c	0.0045220386
51	0x3c1b93c1	0.0094956765
52	0xba6c6c65	-0.00090188376
53	0x3c89e855	0.016834417
54	0x3cf5b582	0.029993776
55	0x3ac8880f	0.0015299338
56	0x3c25631a	0.010094428
57	0xbc68a830	-0.014200255
58	0x3ae97dc2	0.0017813968
59	0xbc6403c3	-0.0139169125
60	0xbb64abe7	-0.00348925
61	0x3bcb7754	0.0062092934
62	0x3901c2ad	0.00012374921
63	0x3cb952cf	0.022622494
64	0x3c347eea	0.011016587
65	0xbd35dc53	-0.04439957
66	0x3d07a943	0.033120405
67	0xbbeb780c	-0.0071859416
68	0xbb997c51	-0.004684009
69	0x3d506a6b	0.050882738
70	0xbc132f66	-0.008983469
71	0xbc02cf23	-0.007983956
72	0x3c338cb7	0.010958842
73	0xbbde91fe	-0.006792306
74	0x3c0b7fab	0.008514325
75	0xbc97599c	-0.018475346
76	0x3b50c589	0.0031856021
77	0x3ca8cf5c	0.02060669
78	0x3b8d973e	0.004321008
79	0xbc6f7034	-0.014614154
80	0x3d4f7eab	0.05065791
81	0xbd2123a6	-0.039340638
82	0xbcdbe883	-0.026844269
83	0xbb625158	-0.0034533348
84	0x3c901b0e	0.017591026
85	0x3b82d1b3	0.0039922833
86	0x3bf6306c	0.0075130966
87	0x3d2f00c8	0.042725354
88	0x3aeac7d2	0.0017912334
89	0x3b9ae84e	0.0047274
90	0x3d09dfa6	0.033660553
91	0x3be3e5f9	0.006954905
92	0x3d70dfb3	0.058807086
93	0xbcde3bb8	-0.027128085
94	0x3d1bb85b	0.038017612
95	0xbc107389	-0.008816608
96	0x3c2f9e01	0.010718823
97	0x3ce7c47b	0.028291931
98	0xbc24e4bf	-0.010064303
99	0xbcb83280	-0.022485018
100	0x3c2e9a46	0.010656899
101	0xbd328602	-0.04358483
102	0x3c8ddc75	0.017317036
103	0x3d00c2aa	0.031435646
104	0xbd0a09e7	-0.03370085
105	0x3b35d979	0.0027748032
106	0xbca5e9b7	-0.020253045
107	0xbc9dc46b	-0.019258698
108	0xbd08ca7b	-0.033396225
109	0xbcaf7585	-0.021418342
110	0x3c3d08c8	0.011537738
111	0x3bc1de41	0.0059163873
112	0x3c049ad2	0.008093553
113	0x3c6e4d4d	0.014544797
114	0xbc9cf320	-0.0191589
115	0x3cda80ff	0.026672838
116	0x3cf758c7	0.0301937
117	0x3c8ad01b	0.016944936
118	0x3c0adebd	0.0084759565
119	0xb89df4d7	-7.531948e-05
120	0xbc38feec	-0.011291247
121	0x3c30410f	0.010757699
122	0xbc17882e	-0.009248776
123	0x3c66c6a3	0.014085445
124	0xbd327e79	-0.043577645
125	0xbc96d4ce	-0.01841202
126	0x3c363a79	0.011122339
127	0x3c890982	0.016728166
128	0xbba39ccb	-0.0049930564
129	0xbc65bd67	-0.014022208
130	0x3b822073	0.0039711534
131	0x3c502d80	0.012706161
132	0x3bf56fce	0.007490135
133	0x3bc00a94	0.005860636
134	0xbce062e3	-0.027390903
135	0xbcc316b3	-0.023814535
136	0x3c3c0587	0.011475927
137	0x3ce88b81	0.028386833
138	0x3c2b15ed	0.010442239
139	0xbbd469b6	-0.0064823283
140	0x3cc852e0	0.02445358
141	0x3ceaf783	0.028682476
142	0x3d2c454e	0.04205828
143	0x3d344e09	0.044019733
144	0x3d2e0323	0.04248346
145	0x3aa95270	0.0012918245
146	0xbca299f8	-0.019848809
147	0x3d7d24f6	0.061802827
148	0x3c8356ac	0.01603254
149	0x3b9a5ad4	0.0047105346
150	0xbb3f8730	-0.0029224865
151	0x3d1d176f	0.038352426
152	0xbc1eb191	-0.00968589
153	0x3cdd6268	0.027024463
154	0xbb5be13d	-0.0033551
155	0x3d9cc8c2	0.07655479
156	0xbceb7970	-0.02874443
157	0x3cddaddb	0.02706044
158	0x3ce5b205	0.028038988
159	0xbb890570	-0.0041815564
160	0xbc33504c	-0.010944437
161	0xbccb573c	-0.02482187
162	0x3cf2aed2	0.029624376
163	0x3d174acf	0.036936577
164	0x3d8e6b78	0.06954092
165	0xbc599d86	-0.013282185
166	0x3c291fce	0.010322524
167	0x3c34332e	0.01099853
168	0xbc54c28d	-0.012985838
169	0x396c7803	0.00022551422
170	0xbd3b5058	-0.04573092
171	0x3d3b51bc	0.045732245
172	0xbb8f9517	-0.0043817866
173	0xbd0e244f	-0.034702595
174	0xbc4d38b4	-0.012525726
175	0xbc8434e9	-0.01613851
176	0xbc13e4b1	-0.009026692
177	0x3bd52e3d	0.006505756
178	0xbc6808c0	-0.014162242
179	0x3d034ce1	0.03205574
180	0x3cb757bf	0.022380708
181	0x3b413f08	0.0029487032
182	0x3c27f1d2	0.010250526
183	0x3d1d02ab	0.038332622
184	0xbc271338	-0.010197453
185	0xbc90da50	-0.017682225
186	0xbd0f39ac	-0.03496711
187	0x3c90b49d	0.017664248
188	0xbc85886c	-0.016300403
189	0x3c621689	0.013799318
190	0x3c7e5286	0.015522605
191	0x3cdcf129	0.026970463
192	0x3cf6de9e	0.030135449
193	0x3cd1d4b6	0.025614124
194	0xbc1ff77b	-0.009763594
195	0x3b868208	0.0041048564
196	0xb9ab25c2	-0.00032643793
197	0x3d1763ec	0.036960527
198	0xbd5a99db	-0.053369384
199	0x3c55d2f5	0.013050784
200	0x3d4572db	0.048205238
201	0x3c5ce938	0.013483338
202	0x3c2a98a3	0.010412368
203	0x3c4113f4	0.011784542
204	0x3c9c259a	0.019060899
205	0x3c49e438	0.012322478
206	0xbcc4cc75	-0.024023274
207	0xbc036bc5	-0.0080213
208	0xbc1d2902	-0.009592297
209	0x3c9df1c8	0.01928033
210	0x3d2a8c2d	0.04163759
211	0x3c1358e1	0.008993358
212	0xbd2702d4	-0.04077418
213	0xbbeaeefe	-0.0071696034
214	0x3c41436d	0.011795861
215	0x3b17c23b	0.0023156542
216	0x3ab362db	0.0013686077
217	0xbcdc0d0d	-0.026861692
218	0xbc6802eb	-0.014160852
219	0xbbffae63	-0.007802771
220	0xbc3c92c9	-0.011509606
221	0x3b808b60	0.003922865
222	0x3c31f5e2	0.010861846
223	0x3bd1a0fd	0.006397365
224	0xbb913cd6	-0.004432301
225	0x3c87edec	0.016592942
226	0xbc193e0e	-0.009353174
227	0xbc15eed3	-0.009151178
228	0xbc8429e7	-0.016133262
229	0x3a733bf1	0.00092786463
230	0xbba9872b	-0.005173584
231	0xbd01890f	-0.03162485
232	0xbb2ef34f	-0.0026695316
233	0xbb8c16f6	-0.004275198
234	0x3cad05d8	0.02112095
235	0xbb035da8	-0.0020044837
236	0x3c2f9db6	0.010718754
237	0xbd530bbf	-0.051524874
238	0x3bec92d9	0.007219654
239	0x3caa3881	0.020778896
240	0x3c56f8e5	0.0131208645
241	0x3d37dca4	0.044888154
242	0xbcfb58ed	-0.030682052
243	0x3c983cf0	0.018583745
244	0xbd1d47c1	-0.038398508
245	0xb94bf9ea	-0.00019452689
246	0x3ce5d03d	0.028053397
247	0x3c3d2eb5	0.01154678
248	0x3c6d5826	0.014486348
249	0xbce5d6a9	-0.02805646
250	0x3d249a55	0.040186245
251	0x3cd6ac37	0.026205165
252	0x3c45030e	0.012024654
253	0xbd11d331	-0.0356018
254	0xbc4c57c5	-0.012472098
255	0x3b020ab8	0.0019842815

action_model._discrete_distribution.branches.2.bias f4 [2]
0	0xbc982992	-0.01857451
1	0x3c982992	0.01857451
