Assets/results/traffic_1401/TrafficLightBrain/TrafficLightBrain-3242.pt (torch, 476729 bytes, 60 tensors)

discrete_act_size_vector f4 [1, 4]
00000000: 0000 0040 0000 0040 0000 0040 0000 0040
2.0 2.0 2.0 2.0

network_body.observation_encoder.processors.0.normalizer.running_mean f4 [11]
00000000: 3dca 9a41 dc93 9d41 81bc 9441 7c7c 9d41
00000010: ccd5 4b41 deaf 9340 2d3d eb3e c314 eb3e
00000020: 75a8 fe3e 07b6 fa3e 0000 0000
19.34875 19.697197 18.592043 19.685783 12.7396965 4.615218 0.4594511 0.45914277
0.49737898 0.48967 0.0

network_body.observation_encoder.processors.0.normalizer.running_variance f4 [11]
00000000: 1d7a 3349 79b8 3b49 2874 3049 ddf2 4149
00000010: d1ad 0e48 1479 3646 be9a 4944 8b95 4944
00000020: 94ee 4a44 dad9 4a44 0000 803f
735137.8 768903.56 722754.5 794413.8 146103.27 11678.27 806.41785 806.3366
811.7278 811.40393 1.0

network_body.processors.0.normalizer.running_mean f4 [11]
00000000: 3dca 9a41 dc93 9d41 81bc 9441 7c7c 9d41
00000010: ccd5 4b41 deaf 9340 2d3d eb3e c314 eb3e
00000020: 75a8 fe3e 07b6 fa3e 0000 0000
19.34875 19.697197 18.592043 19.685783 12.7396965 4.615218 0.4594511 0.45914277
0.49737898 0.48967 0.0

network_body.processors.0.normalizer.running_variance f4 [11]
00000000: 1d7a 3349 79b8 3b49 2874 3049 ddf2 4149
00000010: d1ad 0e48 1479 3646 be9a 4944 8b95 4944
00000020: 94ee 4a44 dad9 4a44 0000 803f
735137.8 768903.56 722754.5 794413.8 146103.27 11678.27 806.41785 806.3366
811.7278 811.40393 1.0

network_body._body_endoder.seq_layers.0.weight f4 [128, 11]
00000000: a689 b33d afe1 c6be 6c7d 92be df55 993e
00000010: be78 88be 152f 32be 00f8 34be 6add 413f
00000020: d93c 16bd 3cf2 3e3e b0de b63d d15b 94be
00000030: 8a74 0bbf e29e 833e ab4b ae3d 0965 eb3e
00000040: 6795 72be 2596 96be f575 69be 81a5 623d
00000050: 4835 5bbe d76c 723e c0af b63e 2e0f b13e
00000060: d3f3 0cbe 8afd 513e 7188 533f ded8 f3be
00000070: 2ad3 733e d832 333d df5c 19bc 1f22 43bf
00000080: 8715 3b3e 0504 30be 1e0d 64be 8bbc 70bd
00000090: 6071 4d3e 37cc 993e 0c48 813f 2ecd cdbe
000000a0: f9f8 50be 3d80 89be 673b 013f 9d8a 71bd
000000b0: c0d3 babe 6274 b7bd 5b05 f93e 20a7 2f3d
000000c0: cdad 8e3e 7fbc fabd 39e3 b33e 33d1 ea3d
000000d0: ebb0 653d c901 203e 5247 1bbf 79bc a03e
000000e0: 9015 a03c 585b 943c a240 39bd 5381 3dbd
000000f0: ed23 293e 4d17 02bf a9e8 85be d346 96bd
00000100: 1c8e 98be 9aae e8bd aa71 9dbd 6f02 25be
00000110: c115 6b3e 39d0 6bbe aa0e 23be 2b64 cc3e
00000120: e70e 95bd b653 153e 1b9e 8bbe 5c3c e43e
00000130: 96a8 283e 14af 8abe 65ce eebd bbf0 bb3e
00000140: fc0d 74be 62d9 8bbe a202 01be 12ac adbc
00000150: f625 cbbe fbf6 b43e ab63 aa3e 8aa7 17be
00000160: 7142 58bf 6bd2 8e3c 333e a7be e314 143d
00000170: 9d8a a8bd 3da9 43be 4a46 4a3e e4e7 963e
00000180: eb6b 173d a828 a3be b449 0c3d eb4b ddbd
00000190: e5f8 453d 7f2f 85be a242 2ebf 7e42 a63e
000001a0: b457 a63e d8b1 88bb 6904 fe3d 0b55 0abe
000001b0: 95e7 18be 3b26 933e 0d68 bfbe 19d4 cbbe
000001c0: e330 ebbc af9c 40be f48e 3bbe f39a 853e
000001d0: b06f cc3e f9ad 9b3d 7b3f 7dbc bd94 88be
000001e0: 7752 3f3e 7078 3e3e f732 a3be 092e 023d
000001f0: 2da0 d73e c09a 703d a012 e9be 3602 30be
00000200: cbd4 a43e 3cce eb3e 3ec1 48be 89fc 733e
00000210: 10e3 633e 5cd7 1bbe c36c 3a3e c483 453e
00000220: aa68 443e ef14 293f bc02 87be 58ba 1d3e
00000230: 08ca 19be d922 a23e 13a6 443e 500a 823e
00000240: 56c6 873e 37cb 1fbe ba43 4cbd 1b8f 9c3e
00000250: 1175 b8be 4b1d 3abe 2cc5 4d3e f907 163f
00000260: 2a00 c2be bc8d a63e 3736 22be 82d0 2f3c
00000270: 5ec1 a73d 098f ccbe 6166 bdbe e543 30be
00000280: 9298 34bd 3d08 7fbe cefc ca3e 125c 743e
00000290: 02b5 723e 5082 0dbd 40dc 26be b49b 2b3e
000002a0: 75fd 3bbe a676 703e bde8 f23d e7ca ffbd
000002b0: cd77 1fbe a58f 97bf 6a26 99be dfd2 4c3b
000002c0: fd9d efbe 6b7d 12bf 563d c9be dd70 b8bd
000002d0: 8382 37bf 377a b43e 622d 923e 365d d8be
000002e0: 1c7e 0d3f 49e8 a33b b11e b4be 41ee 973e
000002f0: f2cb e13e 07b1 b0bd 4d9a 6f3b 5cc5 d83d
00000300: c8a1 d4be 5bd8 703e 5ff8 1bbf 7d45 b1bc
00000310: 33ec 183d 7681 f63e 8be5 37bd 943e 48be
00000320: 4307 f13e 25fc fbbe eda9 363f 2968 96be
00000330: fe33 11be 9ac2 bbbe c4ba 18be af26 51bf
00000340: 6299 7dbe 1e6a 06be 9b7b c13e 96d2 933d
00000350: 02ae c63e 11a1 253d 8545 11bd f4ae db3e
00000360: 7563 233f e3c4 89be e166 853d 0a21 64bb
00000370: 3df5 85be a112 ad3e c545 093f 970d 8bbe
00000380: 1f71 5bbd 8081 e1bd 3a32 0c3e caaf 2d3f
00000390: 0a3a 1c3d 6316 883e c9e6 a93d a86b 813e
000003a0: f1ac 26be adec 273f 584d d8be 60ff 73be
000003b0: ad4f 043f 30a4 13be b578 d6bd 295f 873e
000003c0: 6cae ec3e 45f2 2e3f 1b1f 83bd 4f62 e23e
000003d0: 1e60 043f e91d 9abe 2c7e 04bf 74e3 1dbe
000003e0: 40c7 10be 1d30 07bd 4b28 e0be fb3f cf3d
000003f0: 9dac 26be 67dd 3abe f0e8 c4bd e838 943e
0.08766489 -0.38844058 -0.28611314 0.29948327 -0.2665462 -0.17400773 -0.1767273 0.75728476
-0.036679123 0.18647093 0.08929193 -0.289763 -0.544747 0.25707155 0.08510526 0.4597552
-0.23689805 -0.29411426 -0.22798903 0.055333618 -0.21407044 0.23674332 0.35680962 0.34581894
-0.13764887 0.20506874 0.8263007 -0.47626394 0.23811021 0.04374966 -0.009360521 -0.7622394
0.18269931 -0.17189033 -0.22270629 -0.05877356 0.2006278 0.30038616 1.0100112 -0.40195602
-0.20407476 -0.2685565 0.50481266 -0.058970083 -0.36489677 -0.08957745 0.48636898 0.042883992
0.27866974 -0.12242984 0.35134295 0.11465683 0.056076925 0.15625681 -0.606557 0.31393793
0.019541532 0.018109962 -0.045227654 -0.04626591 0.16517611 -0.50816804 -0.26154068 -0.073377274
-0.2979592 -0.113614276 -0.07687695 -0.1611421 0.22957517 -0.2302865 -0.15923563 0.39920172
-0.07278233 0.14582714 -0.27269062 0.445773 0.1647056 -0.270867 -0.116604604 0.367071
-0.2383346 -0.27314287 -0.1259866 -0.021200214 -0.396774 0.3534468 0.33279166 -0.14810005
-0.8447638 0.01743432 -0.32664642 0.03615273 -0.082295634 -0.19107528 0.19753376 0.29473794
0.036968153 -0.31866956 0.034249976 -0.10805496 0.048333067 -0.260128 -0.68070424 0.32472605
0.32488787 -0.0041715913 0.12403185 -0.13509004 -0.14932092 0.28740105 -0.37384072 -0.39810255
-0.028709834 -0.1880977 -0.18316251 0.2609478 0.3992896 0.07601542 -0.015457029 -0.26675978
0.18683802 0.18600631 -0.3187482 0.031782184 0.42114392 0.05874133 -0.45522022 -0.17188343
0.32193598 0.46055782 -0.19604966 0.23826803 0.22254586 -0.15218872 0.18205552 0.19288546
0.19180551 0.6604757 -0.26369274 0.15403116 -0.15018475 0.31667212 0.19203977 0.25398493
0.26518506 -0.15604864 -0.049869277 0.3057793 -0.36026815 -0.18175237 0.20094746 0.58605915
-0.3789075 0.3253001 -0.15840994 0.0107308645 0.08191179 -0.39952877 -0.3699217 -0.172134
-0.044090815 -0.24905486 0.39646 0.23863247 0.23701862 -0.034548104 -0.16294956 0.16758615
-0.18358405 0.23482761 0.118607976 -0.124898724 -0.15573044 -1.1840712 -0.2991212 0.0031253619
-0.46800223 -0.5722262 -0.39304608 -0.09005902 -0.7168352 0.35249493 0.2855025 -0.42258614
0.5527055 0.005002056 -0.35179666 0.2967396 0.4410091 -0.08627515 0.0036560476 0.10584518
-0.4152968 0.23520033 -0.6092586 -0.02163958 0.037334632 0.48145646 -0.044896644 -0.19555122
0.47075853 -0.4921581 0.71353036 -0.29376343 -0.1417999 -0.36671907 -0.14914995 -0.8169965
-0.24765542 -0.13126418 0.37789616 0.072179005 0.38804632 0.040436808 -0.03546669 0.42906916
0.63823634 -0.26908025 0.06513763 -0.0034809732 -0.26163664 0.33803275 0.53622085 -0.27158806
-0.053574678 -0.11011028 0.13691035 0.6784636 0.038141288 0.2657958 0.08295972 0.25277448
-0.1627691 0.65595514 -0.4224651 -0.23827887 0.51684076 -0.14418101 -0.10472242 0.2643979
0.46226823 0.68338424 -0.06402417 0.44215629 0.51709163 -0.30100945 -0.51755023 -0.15418798
-0.14138508 -0.03300487 -0.4378074 0.10119625 -0.16276784 -0.18248521 -0.09614742 0.28949666

network_body._body_endoder.seq_layers.0.bias f4 [128]
00000000: 2beb 753a 4978 9f3b 36d7 113b caac 833b
00000010: 58af d63b 7c18 edbb 2e4a 5b3a 3277 8cba
00000020: 77a4 d9ba 581c fcba f7ef a93a 2fcf 203b
00000030: 32f8 4c3b e700 933b ba78 f63b 617d c1ba
00000040: 6862 ddba e3a9 a6bb b086 733b de4c d53b
00000050: c77f 9fbb 5805 9dba 1c65 07bb 06f9 703b
00000060: 4049 b03b 501d be3b 5071 bc39 ed60 b43b
00000070: 126c 9cbb 5d1b 133c fe7e 9f3b ac9e edba
00000080: ee60 393b b4ea b93a a728 583b 3e8d d1bb
00000090: de58 5d3a f0a9 41bb 54ae b0ba 109c 4fbb
000000a0: a28b 1a3a 3b4d d43b 4723 dcbb 2610 dabb
000000b0: 2825 7dbb 27d9 703b a8e7 ea3b 9ae6 c1ba
000000c0: fdd0 33bb 1393 643b 3262 68bb f10a 4bbb
000000d0: 4337 5b3b e6bc 053c d865 0b3c e084 0ebb
000000e0: acad 89bb 2c2d 22bb 87c2 033a bd88 6abb
000000f0: cbd1 7e3b cceb 083b 05d9 8fbb 4cee 643b
00000100: 3ff0 b13b daaf 953b 3f44 d13b 220c d739
00000110: a74b 2d3a 50e7 fb3b 0693 933b 411f bb3b
00000120: c70a b33a 7bad a6bb 71e6 053c 6260 0d3c
00000130: 656c 3d39 966d 863a fed4 de3a 26f6 fcba
00000140: 1e61 a03b 24bc 003b d7a8 8d3b bff5 83bb
00000150: f1ba 7fbb ba95 a43b 3b1b 4a3b 1d03 e639
00000160: 2b72 48bb 8c9f 1b3b 5424 9aba 07bd bf3b
00000170: baac 313a f9d0 ac3b 8bfb 97bb db9c e43b
00000180: 0e4b ff3a ff33 253b 5f71 9dbb 76c8 c6b9
00000190: 6413 863b 09ff 913a cb97 95bb 1d6b d33a
000001a0: c5b3 d3bb abeb 83bb a7a8 7a3b 1c7f b5ba
000001b0: 30b3 1c3a 1f4f abb9 4f00 413b dfec bf3a
000001c0: aafe 3f3b efe2 603a f5b6 09ba 709a 0b3a
000001d0: 950f a43b 9382 faba e057 9f3a 65a1 c33b
000001e0: fbf3 db3b 3057 c7bb 291b 7c3b d6d9 a33b
000001f0: edf4 8f3b 7537 463b 1208 95bb 158f 483a
0.0009381051 0.004866634 0.002225352 0.004018401 0.0065516643 -0.007235585 0.00083652406 -0.0010716675
-0.00166048 -0.0019234521 0.0012965192 0.0024537554 0.0031275866 0.0044861916 0.007521716 -0.0014762097
-0.0016890289 -0.00508617 0.0037159137 0.0065094074 -0.004867527 -0.0011979742 -0.002065963 0.0036769523
0.005379826 0.005801834 0.0003594258 0.0055047185 -0.004773625 0.008978692 0.0048674336 -0.0018128953
0.0028286534 0.0014184327 0.0032983215 -0.006395011 0.0008443723 -0.0029550754 -0.0013479688 -0.0031678714
0.00058954407 0.006478933 -0.0067180726 -0.006654757 -0.0038626883 0.0036750527 0.007168729 -0.0014793456
-0.00274378 0.0034877702 -0.003545892 -0.0030981863 0.0033449687 0.008162713 0.008508168 -0.002174668
-0.0042016115 -0.0024746163 0.000502624 -0.0035787069 0.003888237 0.00208925 -0.0043898844 0.0034932075
0.005430251 0.0045680823 0.0063863094 0.00041017035 0.00066106993 0.0076874867 0.0045036105 0.005710513
0.0013659828 -0.0050865985 0.008172617 0.0086289365 0.00018064825 0.0010256048 0.0017000732 -0.0019299432
0.00489439 0.001964339 0.004323106 -0.004027098 -0.0039021338 0.0050227316 0.0030838985 0.00043871338
-0.0030585628 0.002374622 -0.0011760094 0.0058513912 0.00067777524 0.005273935 -0.0046381406 0.0069767064
0.0019477324 0.0025207994 -0.0048047747 -0.00037914858 0.004091667 0.0011138628 -0.0045652143 0.0016129945
-0.006460639 -0.0040258965 0.0038247497 -0.0013847086 0.0005977629 -0.0003267461 0.0029449647 0.0014642737
0.0029296079 0.00085787376 -0.0005253398 0.0005325442 0.0050067403 -0.00191124 0.0012156926 0.0059701675
0.0067124343 -0.0060833916 0.0038468337 0.0050003333 0.004393211 0.0030245457 -0.004548081 0.00076507154

network_body._body_endoder.seq_layers.2.weight f4 [128, 128]
00000000: a52b 8fbd a1bc 253e 5dcb 773c bec9 a23d
00000010: d401 463a 3b0e cc3d 754d 80bc a577 8e3d
00000020: 9307 8abd 4ade 3d3c cd1a 5a3d c894 82bd
00000030: 9870 5c3d e04d d63c 1847 b7bd 47ab 69bd
00000040: 0b3a 43bd a6e2 9ebd f8a1 743d 9b0e 533e
00000050: aa10 05bc 0c51 7a3c b12a 32bd 92a5 04be
00000060: 5ea4 ef3c 221c f63d dfb8 6e3d 8241 373d
00000070: 187e 44bd 87eb d33d df81 103e eab1 87bc
00000080: fe70 dbbc 8d41 c0bc b1c0 0fbe a98b ce3c
00000090: 0248 323d 9b44 ef3d 4005 09be b93f b23d
000000a0: aea1 d1bd 08b0 b93b 4ec7 943d 49cc 8ebd
000000b0: c425 5dbc 6d02 b2bd c1a3 123c 7fc4 0dbe
000000c0: ce7d 453d 272d e6bd eac7 873d 077b 54bd
000000d0: a300 75bd 8ba6 3f3e 5988 d4bb 31f5 1a3e
000000e0: 6735 8c3c a1f6 c33d 016e 883d 779e 1a3e
000000f0: 92d9 47bd a039 983d 0928 043e 91de 22bd
00000100: 113a dfbd 48a9 5d3e 3eb3 7abd 571e b6bc
00000110: e410 d63c 3e52 29bc 23ba 363d 50ac 57bd
00000120: 9236 63bd 4b04 043e f5ee c5bd f2dc caba
00000130: 87fc 9cbd 36a5 4d3c f44b 7d3d 49f7 3bbd
00000140: ab1b e33d e16a 28be f426 9ebc 28c0 a33c
00000150: 5682 103e 421a d8bd e5ca a13d 06a4 36bb
00000160: d6b7 2abd 4906 bd3d 5c31 aebd 2862 463d
00000170: 5a01 d5bd ec6d 8fbd ee89 84bd 59f7 c33d
00000180: a983 fa3d 720d a3bc 8777 a63b a70f 783d
00000190: 7451 a13d a6e0 53bd cb0c a73d 946c d63c
000001a0: 0b47 04be e58c 2b3e 0150 c43c 6692 b33d
000001b0: 8263 193e cbbc 5e3d 96ee d5bd a2db bbbc
000001c0: a459 2e3e 89ab 433d a2a4 9dbd 6b11 10be
000001d0: 5fde c0bd 511b de3b fe11 6dbd cfbc f9bc
000001e0: 8522 303b 126a 8bbd a3c1 fcbd b128 29be
000001f0: 0e83 bd3a a440 853c a121 0fbe 9bb4 08be
00000200: bdb9 4dbd 5254 103d cd17 fcbd 448d cbbc
00000210: e47c 6fbd 518e 0abc 4657 b0bd 1384 20bd
00000220: 6b03 0b3e 343a 8cbd 7132 b8b8 22b3 55be
00000230: c6d3 b0bd e528 5bbd 2d07 71bc 9b64 f03c
00000240: 3608 dbbb d857 363b 6332 b1bd 842c 5d3c
00000250: 4b66 eabc 6103 56bd d439 023e 058a fabd
00000260: 49de 243e b923 94bd e95d a4bd d14d f1bd
00000270: 4789 06bc 4019 11be 3b9c a73c 1e12 943c
00000280: 867f 5d3c 8300 cbbd c55a 3fbd 53e9 85bd
00000290: 8bac b93d 1ff7 71bc d0f1 693e 0ea0 0b3e
000002a0: 1440 073d b8ef 8bbc 11c2 243e b864 15be
000002b0: 8fb5 97bd def8 d53d be66 d8bd b4d9 24be
000002c0: 2152 24bd 102b 073d ea28 b8bd 1d01 5cbd
000002d0: 73f4 b53d 716f 9bbd f8f8 ee3d 80d8 59be
000002e0: c6ee 003d 6324 a83d 9427 363e 0ba1 bebd
000002f0: 6775 a23d c5e8 173e cd80 0a3e 4169 233d
00000300: e387 21bd 02ed babd ba0c ab3c b20e 343d
00000310: 6f4a e93d 8412 083d 4e5e 553d 230a b53d
00000320: e2f4 3abe f4d1 c23a bd85 ffbc 206e 3e3d
00000330: 2a67 a63d 7c43 b7bd fcb3 2c3d b95b 113e
00000340: da64 5a3c 0eaf 88bc ceee 9a3d e402 4abd
00000350: 17c1 8e3d 8076 2fbe 0045 823d 4a60 99bd
00000360: 33c0 f6bc f116 4ebd d3c2 703e ad79 4dbe
00000370: a266 e1bd 91f3 bbbc 3ec4 efbd 8a4f c43d
00000380: 3420 e63d 4404 d83c 6cbf a8bd f79b c63d
00000390: 6afb 283d f924 97bd 765c cd3c 10fb 0c3e
000003a0: b9b5 72bd 8b3a edbc 463a d73d 870a fcbd
000003b0: f396 1dbd 19c3 afbd 3243 b33d 0066 853c
000003c0: b27c 933d 8bf3 a1bd 69aa 48bd ef15 2f3e
000003d0: f056 ea3c d285 ee3d e597 c6bd 021c 153e
000003e0: 7005 033e a241 87bc 35e7 133e 7e0a 47bc
000003f0: bcfb 1abe c268 bd3d e674 053e d21b 913d
-0.069907464 0.16185237 0.015124169 0.079486355 0.0007553373 0.09963652 -0.015661934 0.06956414
-0.06739726 0.011588642 0.053248215 -0.06376034 0.053818315 0.02616018 -0.08949107 -0.05704811
-0.047662776 -0.077580735 0.059724778 0.2061104 -0.008121649 0.015278112 -0.043497745 -0.12953785
0.029253181 0.12017085 0.058281776 0.044740207 -0.047971815 0.10347658 0.14112042 -0.016564328
-0.026787277 -0.023468757 -0.1403835 0.02521308 0.043525703 0.11683007 -0.13380909 0.087035604
-0.10235916 0.0056667365 0.07264577 -0.06972558 -0.013497774 -0.08691869 0.008950175 -0.13844489
0.04821568 -0.11239081 0.066299275 -0.05187514 -0.05981506 0.18715875 -0.0064859805 0.15132596
0.017115308 0.09568525 0.066616066 0.15099512 -0.048791476 0.07432866 0.12905897 -0.039763037
-0.10899747 0.21646607 -0.061206095 -0.022231264 0.026131101 -0.0103345495 0.044611108 -0.052654564
-0.055471964 0.12892263 -0.09664718 -0.0015477224 -0.07665353 0.012551596 0.061840013 -0.045890126
0.110892616 -0.16447021 -0.019305684 0.019989088 0.14112219 -0.10551883 0.07900027 -0.0027868762
-0.041679226 0.092297144 -0.08505508 0.048433453 -0.104006484 -0.07003388 -0.064716205 0.09568662
0.122321434 -0.019903872 0.0050801667 0.060561802 0.07876864 -0.051727913 0.08156737 0.026174821
-0.12917726 0.16752966 0.02396393 0.08768158 0.14979365 0.054379266 -0.10445897 -0.022931878
0.17026383 0.04777101 -0.07697417 -0.14069144 -0.09417414 0.0067781587 -0.057878487 -0.030485539
0.0026876044 -0.06807341 -0.12341621 -0.16519429 0.0014458613 0.016266175 -0.13977672 -0.13350146
-0.050225962 0.035236664 -0.12309227 -0.024847634 -0.058468714 -0.008456782 -0.08610396 -0.039188456
0.13575523 -0.06847039 -8.783199e-05 -0.20869115 -0.086341426 -0.053505797 -0.0147111835 0.029344847
-0.0066843284 0.0027823355 -0.08652189 0.013499383 -0.02861323 -0.052249316 0.12717372 -0.122333564
0.1610042 -0.07233376 -0.080257244 -0.117824204 -0.00821144 -0.14169788 0.020460239 0.018075045
0.0135191735 -0.09912207 -0.046717424 -0.06538644 0.09066113 -0.014768391 0.2284615 0.13635275
0.033020094 -0.01708208 0.16089655 -0.14589202 -0.074076764 0.10447858 -0.105664715 -0.16098672
-0.040117387 0.033000052 -0.08992179 -0.053712 0.088845156 -0.07589615 0.11668581 -0.21273994
0.031477712 0.08210065 0.17788535 -0.0930806 0.07932549 0.14834888 0.13525696 0.0398953
-0.039436232 -0.09127237 0.020880092 0.043959327 0.1139115 0.033220783 0.05209189 0.08839824
-0.18257478 0.0014863596 -0.031191701 0.046491742 0.08125146 -0.089484185 0.042163834 0.14195146
0.013329709 -0.016685035 0.0756508 -0.049319163 0.06970423 -0.17135048 0.06360817 -0.07489069
-0.030120945 -0.050314847 0.2351182 -0.20065947 -0.11005904 -0.02294329 -0.11707352 0.09585483
0.11236611 0.026369222 -0.08239636 0.09697717 0.041255392 -0.07380099 0.025068503 0.13767648
-0.059255335 -0.02895858 0.10509162 -0.123066954 -0.038474035 -0.08582134 0.08753051 0.016283989
0.07201518 -0.0790778 -0.04899064 0.17098211 0.028605908 0.11646618 -0.0969694 0.14561465
0.12795043 -0.016510788 0.14443667 -0.012148498 -0.15135092 0.092484966 0.13032874 0.070853844

network_body._body_endoder.seq_layers.2.bias f4 [128]
00000000: aa74 213b b5a6 a5bb 2dba dd3a f599 2bbb
00000010: a895 89bb 0d5a c23b 9a67 943b d4db bbb9
00000020: d758 01bb bc44 c23b 313d 23ba ec9c aabb
00000030: 9f21 69ba bb27 8cbb 6488 59ba 10b4 933b
00000040: 051d e6b8 8f93 e53b 9515 a73b b32d 203b
00000050: f1e7 bdbb 5547 aeba d4c6 d3bb c1cb 123b
00000060: c65b 5e3b dfef b2ba 0101 f63a 92c6 46ba
00000070: 6ad7 8aba fd57 d13b 1966 cabb d76b a4bb
00000080: afb9 083c b0f3 adbb a897 9d3b d200 ceba
00000090: 7600 a33b d993 d2ba ed90 fd3b 0c9a a93b
000000a0: 31fa a33b 88f2 8fba 9366 89bb 1094 e13b
000000b0: 6e5e a83b 28da 80bb f65d 9eb8 49ab 7fbb
000000c0: e2f7 cd3a 3cff 9b3b 2ce9 b43b 529a a63b
000000d0: 6edc d63b c6c1 75bb 4ee3 fbbb 5816 ac3b
000000e0: ce9b ba3b d68c 0bbb 9179 f8bb 6cc7 833b
000000f0: 1ea9 c0ba f87b 823b 3fc8 14b9 5e2e b5bb
00000100: 5f01 6d3b 1b69 9aba bf24 ce3b 65a7 42bb
00000110: a6d6 bcbb 7530 68bb 10c9 623b bd00 10bb
00000120: 3d83 c43b b414 90bb 2f47 5cbb b17d 52bb
00000130: 41ef be3b b349 e33b b398 6cba 1ae5 7a3b
00000140: 8b51 35bb 697a fb3a b396 fb3b 1500 933b
00000150: 5769 d13a 2f0b ae39 57f7 693b ea19 56bb
00000160: b694 063c a35d 2dbb ec06 83bb 1bc3 293a
00000170: bc1c 89bb 6cca f5ba 4d80 d03a dcba 023c
00000180: 2205 833b 3491 293b d7e9 823a 6fb2 853b
00000190: 3137 12ba ed29 dab9 3688 3ebb 27f5 a73b
000001a0: a11a d3ba 575b 59bb 0129 963b 30d5 21bb
000001b0: 13f8 b23b f8e7 b9ba 19ab 6b3b bc59 2f3b
000001c0: 6983 59ba 079b 1f3b 887b ec3b 8797 293b
000001d0: e681 a839 9483 f739 0fbe 4539 2f75 abbb
000001e0: 839c cdbb c148 8b3b cf21 423b df98 ad3b
000001f0: 5f3f fa3b 82eb c43a 85f7 893a d32b e23b
0.0024636188 -0.0050552734 0.0016916447 -0.0026184295 -0.0041987486 0.005931145 0.004528952 -0.00035831204
-0.001973679 0.005928604 -0.0006227075 -0.005206695 -0.00088932546 -0.004277197 -0.0008298217 0.004507549
-0.0001097266 0.0070061157 0.0050990083 0.0024441301 -0.005795472 -0.0013296405 -0.006462911 0.0022399279
0.0033929213 -0.001365181 0.001876861 -0.000758269 -0.0010592763 0.006388663 -0.006176722 -0.0050177383
0.008345052 -0.005308591 0.0048093386 -0.0015716797 0.00497442 -0.001606579 0.0077382238 0.0051758345
0.0050041904 -0.0010982314 -0.004193136 0.0068841055 0.00513821 -0.0039322563 -7.551529e-05 -0.0039012006
0.0015714134 0.004760651 0.0055209603 0.0050843144 0.006557039 -0.0037499531 -0.007687009 0.005251687
0.005694843 -0.0021293662 -0.007582851 0.0040215757 -0.0014698838 0.0039820634 -0.00014188977 -0.005529209
0.0036164147 -0.0011780591 0.0062910016 -0.0029701826 -0.005762893 -0.0035429273 0.0034604706 -0.0021973096
0.00599709 -0.0043969993 -0.0033611765 -0.0032118375 0.005826861 0.006936276 -0.00090254395 0.0038283528
-0.0027667012 0.0019186261 0.007677877 0.0044860938 0.0015976828 0.000331962 0.0035700405 -0.0032669255
0.008214166 -0.0026453517 -0.003998628 0.00064759114 -0.0041843336 -0.0018752343 0.0015907377 0.007979121
0.0039984146 0.0025873901 0.0009987903 0.004080109 -0.0005577682 -0.00041611437 -0.0029072887 0.00512566
-0.0016105958 -0.0033166015 0.0045825248 -0.002469372 0.0054617017 -0.0014183512 0.0035960136 0.0026756367
-0.00082974747 0.0024353878 0.0072168745 0.002587767 0.0003214024 0.00047209545 0.00018858186 -0.005232475
-0.006274761 0.0042506163 0.0029622202 0.0052977647 0.007636949 0.00150238 0.0010526037 0.006902197

action_model._discrete_distribution.branches.0.weight f4 [2, 128]
00000000: ceb3 293b dda4 15bc b782 f93b 4ddb 9c3b
00000010: fa9c 20bc 39e9 823b 7bed 0f3c 6a61 dd3a
00000020: c3ec 673b 2816 26bc 477a 803c 0cf4 4dba
00000030: 6f4f 8c3b 3836 3abc c088 1ebc 6cb2 2f3c
00000040: 536a 0ebb d58b 023c b44b 3d3c d922 bd3b
00000050: b78e d6bb f725 debb 688f 693b 765d 353b
00000060: 5dbc 36ba bbce 97bb 9b37 443c 813a 753b
00000070: 248f 2e3b d719 fd3a c2be a2bc ecc2 f0bb
00000080: 7f9f 823c 1821 bcbc 7c5b 83ba 2cd2 6ebc
00000090: 14f8 f6ba 7244 85bc 8db0 fb3b e0d8 7e3c
000000a0: 31fc d9bb 0b2a 2abc e79e ad3b bec0 ea3b
000000b0: f5ad 473c 2cf8 4dbc 50a3 84bb 16a5 f6ba
000000c0: dc8f d9ba 862b 9b3a 163b 7c3c 7d69 2c3c
000000d0: ca9b ff3a 3ad1 bb3a b92f 3abc be06 4fbb
000000e0: 67f3 553c 65ad a539 02ba cebb ffe9 ac3a
000000f0: a1fd 56bc cf77 87bb 9885 2f3c 50ae ddbb
00000100: f747 053b 9c1f d4bb 52c9 783c 03bc 16bc
00000110: 8384 30bc bc0f 323a e10a 9d3c 8bd1 083c
00000120: 5bb5 77bb 3c4b 55bc 0017 e03b c666 a5bc
00000130: f026 a0bb 706e 823b 20e5 b9bb 0bf8 50bb
00000140: 377b af3b e1aa 9e3b 8cb6 923c daf3 cfbb
00000150: 4518 87bc 4f2f 823b fd1c d3bb 7299 7eba
00000160: 4a8a 3a3c 3e9a 21bc 685e dc3b 78c5 21ba
00000170: 740e 3f3c eb2e 0dbc fb47 6e3c 10dd 2d3c
00000180: 5a96 303c 0cb2 9f3b c72a 4abc 8496 503c
00000190: a186 3cbc 5b10 0eb9 350b 923a 0a19 2d3c
000001a0: 7dec 123c 6fda 2a3c a892 f8bb 0052 ecbb
000001b0: 629f f73b 2841 12ba 5f45 d6b8 187a 5b3c
000001c0: 78ca 30bb e59c 823b ab18 7eba b60e 323c
000001d0: 7bcb c839 a253 18bc c242 b1ba 520d 02bc
000001e0: 7fb1 e7ba 0a66 37ba 31b6 8a3c 6246 96bb
000001f0: 9a8b c23b 191b 003c 1983 263c 7b3c a73a
00000200: cd25 24bc 28e3 1b3c 3efb 95bb 8523 9ebb
00000210: ac03 4e3a 068b 39bc 75f0 45bc 090e 813c
00000220: b46c a7bc 1016 b53a dd33 f73b 7764 5ebb
00000230: fec4 893b 207a 0d3c 6f17 b9bc 8f70 a13b
00000240: adfc 38bb 76cd ebbb a999 73bc 2db2 853c
00000250: fae3 883b 3e40 4c3c 1998 983c e16b f33b
00000260: 608e 20bc 5bdb 853c 68fc c43b d613 193c
00000270: 2dc1 be3a 6b63 e9bb 9936 74bb da71 a03b
00000280: 0791 01bc a7ec 43bc 2014 c63a 5436 5b3c
00000290: 77c0 c6ba acc1 95bc 895b a0bc cbd0 cfbb
000002a0: 867c 21bc e061 f839 4bda 093c 18c6 67bc
000002b0: f2f6 5c3b 4b79 5139 8c8e 853c ca85 ee39
000002c0: 5fa3 6abc 74be 50bc 6ede b3ba a856 233c
000002d0: 1061 a2bb 1341 653b fae4 eb3b 2184 1ebc
000002e0: c712 6dbc 24cd 3bb9 3c07 093c 7430 3abb
000002f0: 600e 153c 6933 d9bb ed69 183c a942 4e3c
00000300: 8173 9cbc 36e7 15bc ef00 fabb 3278 19bc
00000310: 5e22 a83b 23a0 16bb 9288 dcbb d730 e33a
00000320: ecc9 d5bc d84c 01bb 893f 833a f9b7 f2bb
00000330: a857 98bc 7ce9 bdba fa08 04bc 0b3d 83ba
00000340: 9e0d 023c b350 14bb c28a ccb9 5efe 0fbc
00000350: 10e9 a73c 2a64 433a 2b86 26b8 9ad4 963b
00000360: c3da d2bb 4f18 c539 a67b 613c 956a cbba
00000370: 5e60 233c 40e8 763b 8f52 68ba ccc0 debb
00000380: 74de 02bc 81ba 4bbc 7efb 383c 73b0 b9bb
00000390: 5c81 30bc 1780 103a 451b 41bc ade4 c7bc
000003a0: fe15 39bc b508 b13b 053a 423b d83c 39ba
000003b0: a21b ea3b 6927 893c 3ce2 a8bb 1db0 80bc
000003c0: 8353 7c3a 032a 5abc 2573 69bc 1fa1 79ba
000003d0: d3cd 6bbc 6416 303c b194 3dbc 2535 91ba
000003e0: 042f ac3b 43a9 17bc 9e8d 95bb c344 bebb
000003f0: 4fa6 41bc a7a2 0cbc 3e57 983b 3377 57bc
0.0025894525 -0.009133545 0.0076144594 0.004786885 -0.009803051 0.0039950875 0.008784647 0.0016889994
0.0035388924 -0.010137118 0.015683306 -0.0007856495 0.00428193 -0.011365466 -0.009676158 0.010723691
-0.0021730855 0.007967909 0.011553694 0.0057719764 -0.0065477747 -0.006779428 0.0035638455 0.0027674115
-0.00069708173 -0.0046327985 0.011976148 0.0037418904 0.0026635611 0.0019310069 -0.019866351 -0.0073474552
0.015945194 -0.022965 -0.0010021771 -0.014576476 -0.0018842244 -0.016267989 0.0076809586 0.015554637
-0.006652378 -0.010386 0.0052984837 0.00716409 0.012187471 -0.012571376 -0.0040477887 -0.001881751
-0.001659866 0.0011838533 0.015394947 0.010523197 0.0019501385 0.0014329322 -0.011363917 -0.0031589712
0.01305852 0.0003160044 -0.006308795 0.0013192295 -0.013121993 -0.0041341553 0.010713004 -0.0067651644
0.0020337084 -0.0064734947 0.015184717 -0.009200099 -0.010773781 0.0006792506 0.019170227 0.00835074
-0.0037797305 -0.013018426 0.0068386793 -0.020190608 -0.004887454 0.0039804503 -0.005673066 -0.0031886126
0.0053552645 0.0048421477 0.01790931 -0.006346208 -0.016491065 0.003972925 -0.0064426647 -0.0009712196
0.01138551 -0.009863434 0.0067251213 -0.0006171088 0.011661161 -0.008617143 0.014543529 0.010611787
0.010778034 0.0048735198 -0.0123393005 0.012731198 -0.011506707 -0.00013548268 0.0011142256 0.010565052
0.008967516 0.010428055 -0.007585842 -0.0072119236 0.0075568417 -0.0005579167 -0.000102172366 0.013395809
-0.002697615 0.0039859884 -0.0009693007 0.010867765 0.00038298577 -0.009297283 -0.0013523924 -0.007937746
-0.0017676799 -0.0006996101 0.016932579 -0.004586027 0.005937052 0.007818961 0.010163092 0.0012759113
-0.010018778 0.0095146075 -0.0045770695 -0.0048260116 0.00078588235 -0.01132465 -0.012081255 0.015753763
-0.020437576 0.0013815779 0.0075440244 -0.0033934393 0.0042043915 0.008635074 -0.022594182 0.004926748
-0.0028226778 -0.0071961237 -0.014868178 0.016320312 0.0041775675 0.012466488 0.018627213 0.0074286317
-0.00979957 0.016339948 0.0060115345 0.009343108 0.001455342 -0.0071224472 -0.0037263988 0.0048963847
-0.007908112 -0.011958278 0.0015112199 0.013379652 -0.001516356 -0.018280827 -0.019574897 -0.0063420287
-0.009856349 0.0004737517 0.0084138615 -0.01414635 0.0033716527 0.00019976978 0.016303323 0.00045494578
-0.014321177 -0.01274072 -0.0013722905 0.009969391 -0.0049554184 0.0034981414 0.007198927 -0.009675057
-0.014469809 -0.0001791013 0.008363541 -0.0028410228 0.009097666 -0.006628443 0.009302598 0.012589135
-0.019098045 -0.009149363 -0.007629506 -0.009367036 0.00513105 -0.0022983633 -0.0067301476 0.0017333281
-0.02609726 -0.001972964 0.0010013442 -0.007407185 -0.018596485 -0.001448914 -0.008058781 -0.0010012699
0.007937817 -0.0022631108 -0.00039013295 -0.008788673 0.020496875 0.0007453585 -3.9702438e-05 0.004602981
-0.00643477 0.0003759288 0.01376239 -0.0015519435 0.009971706 0.0037675053 -0.00088624 -0.0067978855
-0.007987607 -0.012434603 0.011290429 -0.0056667863 -0.010773029 0.0005512251 -0.011786287 -0.024401033
-0.011296747 0.0054026493 0.0029636633 -0.00070662564 0.0071444074 0.016742425 -0.0051539224 -0.015708977
0.00096254813 -0.01331568 -0.014248644 -0.0009522605 -0.014392334 0.010747526 -0.011571095 -0.001107846
0.005254628 -0.009256664 -0.004564001 -0.005806537 -0.011819436 -0.008583701 0.004649072 -0.013150978

action_model._discrete_distribution.branches.0.bias f4 [2]
00000000: e062 c53b e062 c5bb
0.0060237497 -0.0060237497

action_model._discrete_distribution.branches.1.weight f4 [2, 128]
00000000: eb05 9cbc 9ae1 4a3c 6462 063c d4fd a63b
00000010: 7403 aebb d670 99bb 33aa 10bc d17a 853b
00000020: d03e 013c 0bcc a2bb 89db 60bc cef0 a9bb
00000030: a81b e23a 3c68 3c39 5de3 263a 7e3c e4ba
00000040: 9655 74ba 9d75 873b cc22 76bb fbfc 45bb
00000050: 50a5 9cbb 990c b33b 8f6a 7c3b 2264 93bc
00000060: 181a 833a eeca d139 aa4a 0f3c c29f c0bb
00000070: 11df 3cba 7fdb e7bb 6ff6 2c3b d712 843b
00000080: d417 29bb 3d3a c93b 2c96 803c 1d5c bfbb
00000090: d397 06bb a9bd e2bb a33f 48bb 363e 803c
000000a0: fb5f 363b 9b0f 8a3a 26dc 02bc 3ee6 843b
000000b0: 0947 06bc 25ee 653c 6d86 803c e486 9c3b
000000c0: 5eb1 2e3c 8b9f c23b 8607 453c b2f3 043c
000000d0: 076a c7bb 98af 853b 833d 61bc ca84 2c3a
000000e0: 7c77 bcbc 6835 f4bb 2690 823a 095d 703c
000000f0: 2f80 8dba ee84 623c bf9e 61bb 74dd 3abc
00000100: 7ffa 273c 0b20 db3b 1b67 dcbb 8153 5dbc
00000110: 65b4 b2bb 08ba 523c 7606 003b 8c78 f83b
00000120: 4c4e 23bb 4b82 523c af44 373b 10b5 2b3b
00000130: 6096 943a f404 6fbb 26d1 253c ec00 febb
00000140: d295 3dbc 7778 aa3b 4b1d b9bb 1538 75bc
00000150: 5bbc 193b 816d 7939 e925 2c3c 6465 383c
00000160: feeb 5c3c e8a7 8f3b ba50 423c 363c d2bb
00000170: 566d 893b 6b5d babb 6fb5 60bc 505e 0fbc
00000180: acc1 c3bb 0e6f 143b 5477 183c 1ee0 9f3c
00000190: 961f 7fbb 7c6f 5ebc a412 b139 c5cc 2cbc
000001a0: 0f0a 773c 3834 bdbb a2a5 13bb 5d4a d9bb
000001b0: a311 203b a837 fa36 386d cd3b 7576 68b9
000001c0: 2aae 4d3b a0cf fabb 6fbd 4b3c 8fc3 92bb
000001d0: ed38 8dbc 5d09 363b 29e3 47bc ac72 013c
000001e0: 4196 8dbb 3bab 053c ef61 953a bb8a 08bc
000001f0: 1a39 ba3b 9cfd b0bc b0d0 90ba c2ff 74bc
00000200: 2895 4a3c 7d95 823c 971a 89ba 388c 2a3c
00000210: 4c61 66bc 5830 b1ba 901f e9bb d72c cdbb
00000220: c8ef 50bb 050a 62bb 1e25 00bc 99b6 f339
00000230: eebd 0dbc 071a a83c 5183 773c 69cf 933b
00000240: 9f5d 903b bf71 9f3b 8c1b 863c ed26 0fba
00000250: a166 d9ba 6015 9cba e8fd 823b cd9c 9bbb
00000260: d40a 8cbb 1cab 69bc 341b 08bc cf88 d6bb
00000270: cf91 1fbc 5891 48bc 960c bf39 0309 46bc
00000280: 935f 16bc e75c af3a 3f82 583c a43d 8d3c
00000290: adbc 843c c920 e1bb 460c 04bc a832 e63b
000002a0: 9c09 523a 47e2 8b3c 1cd2 513b b012 deba
000002b0: 970d ddbb 6b9f c1ba b1d8 e3bb 9c6c ec3b
000002c0: 81fe 353c 9176 7a3b 68f6 2e3a 2487 0d3a
000002d0: debc 293c ce27 6abb 85c4 80bb fd29 63bc
000002e0: b7cb 233c ef5c e3bc d0b1 453b 7a86 2e3b
000002f0: 492d a33a 8a02 4eba 36b8 e6bb f6a2 34bc
00000300: 51d7 04bc f4a8 7f3b dac0 6ebc 473b bdbb
00000310: 29ad 4e3c 24aa 13bb 13c7 0cbc 4ad4 b4bb
00000320: ba8e f3bb 66c3 cbbb dcc6 b3bb 8396 3f3c
00000330: d6cb b8bc 1d03 83bc 27c2 903b 3aad 873c
00000340: 8e6d 86bc a94d 823c 98ec 0abb 6d63 323c
00000350: 1488 ecbb 3455 8fbb ee6b 13bc d947 2bbb
00000360: 81d2 0b3b 56bb 6ebb 3eaf 533c f425 8c3b
00000370: 671d 98bc 6dac 8bbc 8fbc 48bc 2df3 8e3b
00000380: 21a7 99ba db73 d83b 48aa 583c d261 403c
00000390: ee2f 2e3a e6b2 7a3c 0b38 fe3b 8901 46bb
000003a0: 69a8 c23c 9475 1e3c 713b 18bc ed7f 5abb
000003b0: 2b92 cdbb 03f1 22ba 6e8c 17bc e225 8a3c
000003c0: cfc2 d5bb b801 893b c0a0 c6b7 5407 bb3b
000003d0: dca8 c1bb 4018 773c 6ea0 f03b bf38 753b
000003e0: a81f 14bc ec68 38bb 0011 273c ed85 42bc
000003f0: d441 2bbc de35 223c 80fb 06bb a8e8 053b
-0.01904579 0.012382889 0.008202169 0.0050961766 -0.0053104702 -0.0046826405 -0.008829641 0.0040734787
0.007888511 -0.0049681715 -0.013724216 -0.005186177 0.0017250674 0.00017967907 0.0006366277 -0.0017413048
-0.00093206146 0.0041338936 -0.0037557362 -0.0030210603 -0.004780449 0.0054641482 0.0038515662 -0.017992083
0.0010002283 0.0004001478 0.008745829 -0.0058784196 -0.00072048703 -0.0070757265 0.0026392003 0.004030566
-0.0025801556 0.0061409757 0.015696608 -0.005839838 -0.0020537272 -0.006919582 -0.0030555509 0.015654664
0.0027828205 0.0010533215 -0.007987058 0.0040557673 -0.008195647 0.014033829 0.0156891 0.0047768224
0.010662405 0.005939429 0.0120257195 0.008114742 -0.0060856375 0.0040797703 -0.013747576 0.00065810664
-0.023006193 -0.0074526556 0.0009961172 0.014670619 -0.0010795648 0.013825638 -0.0034426895 -0.011405338
0.010252594 0.0066871694 -0.0067261583 -0.013508678 -0.0054536336 0.012861736 0.00195351 0.0075827297
-0.0024918495 0.012848447 0.0027964523 0.002620045 0.0011336319 -0.0036471458 0.010120666 -0.0077515747
-0.0115713645 0.005202349 -0.005649244 -0.014966984 0.0023458216 0.00023787284 0.010507085 0.011254642
0.013483999 0.0043840297 0.011860067 -0.006415869 0.004193942 -0.005687406 -0.013715132 -0.008750513
-0.005974015 0.0022649202 0.009305794 0.019516047 -0.0038928739 -0.013576385 0.0003377396 -0.010546868
0.015078082 -0.005774047 -0.0022529145 -0.0066311792 0.0024424575 7.45706e-06 0.0062691234 -0.00022169373
0.0031384327 -0.0076541454 0.012435301 -0.004478879 -0.017239058 0.0027776577 -0.012200155 0.007900875
-0.00432089 0.0081585 0.0011396984 -0.008333857 0.0056830766 -0.021605305 -0.0011048522 -0.014953556
0.012364663 0.015940422 -0.0010460195 0.010409407 -0.014061283 -0.0013518436 -0.0071143582 -0.006261449
-0.0031881202 -0.0034490835 -0.007821349 0.00046484618 -0.00865124 0.020520223 0.015106992 0.004510809
0.0044056918 0.0048658545 0.016370557 -0.00054608175 -0.0016586372 -0.0011908226 0.003997553 -0.0047489167
-0.0042737518 -0.014261987 -0.008307267 -0.0065470706 -0.009739353 -0.012241684 0.00036439736 -0.0120871095
-0.00917806 0.0013379127 0.013214647 0.017241307 0.016203249 -0.0068703634 -0.008059567 0.0070250817
0.0008012296 0.01707567 0.0032016104 -0.0016942825 -0.006746005 -0.0014772242 -0.006953322 0.0072150957
0.011108042 0.0038217644 0.00066742906 0.00053988607 0.010359971 -0.0035729292 -0.003929677 -0.013864991
0.0099973 -0.027754275 0.00301658 0.0026630447 0.0012449409 -0.0007858655 -0.0070410026 -0.011025181
-0.008107976 0.0039010616 -0.014572347 -0.0057748887 0.012614527 -0.0022531832 -0.008592385 -0.005518471
-0.007432786 -0.0062183617 -0.0054863524 0.0116936 -0.022558134 -0.015992695 0.004417676 0.016562093
-0.016409662 0.015906172 -0.002119815 0.010887963 -0.00721837 -0.0043741707 -0.0089979 -0.0026135354
0.0021335187 -0.003642758 0.012920199 0.0042769853 -0.018568708 -0.017049992 -0.012251987 0.004362485
-0.0011722782 0.006605608 0.013224192 0.011742072 0.00066447153 0.015301442 0.0077581457 -0.0030213317
0.023761945 0.0096715875 -0.009291516 -0.003334041 -0.006273528 -0.0006215723 -0.00924979 0.016863767
-0.006523467 0.004181113 -2.3678294e-05 0.0057076607 -0.005910022 0.015081465 0.0073433435 0.0037417857
-0.009040751 -0.002813871 0.010196924 -0.011872751 -0.010452706 0.009900538 -0.0020596683 0.0020432863

action_model._discrete_distribution.branches.1.bias f4 [2]
00000000: effc 0d3a f8fc 0dba
0.0005416413 -0.00054164184

action_model._discrete_distribution.branches.2.weight f4 [2, 128]
00000000: 8905 14bb 6a1d 56bb cc7a acba f700 67bb
00000010: f370 073b 182b 5b3c 412c c93b 6c27 40bb
00000020: 61b2 1d3c b5d5 f6bb ade4 e2ba d145 853b
00000030: 023b bebb 3eb8 18bb d5ec 013c e736 20bc
00000040: aaa2 183b 685d 4bbc cd7e b93b f4af 82bc
00000050: 5635 a93a d1be 2cbc 9505 8f3c 5435 15bc
00000060: 27bb acbb dd91 633a ebc7 e6bb f0f0 3ebc
00000070: e022 a03a efc4 8fbc 99eb 303a a6df 653c
00000080: 8ab9 36bc 000f e73b d637 70bc 1fa9 87bb
00000090: 3647 3abc 2c14 c03b 7887 a83b a00b 1eba
000000a0: edc3 dbbb 77c8 ca3b b6e4 153c 4337 8abb
000000b0: 04af 4cbc b3a1 c03c 51d9 d1bc f4cc c33b
000000c0: 47fe c2bb 25bc 6cbb 4d5d 8fba 526e f8bb
000000d0: 4288 acbc 02c0 fe39 4510 2d3b ed7f d5bb
000000e0: 14a1 123c 0b13 533b f9ad a9bb 4293 4cbb
000000f0: 623e ec3a a800 a537 e050 72bc 21c2 87bc
00000100: ada3 fabb c539 3ebc 467d d4bc 51f1 043c
00000110: 0246 8c3b cc1f 333c e753 cfbb 71d3 2fbc
00000120: 76f9 36bc bb25 843b 8264 003c 49ca a3bb
00000130: 1e63 82bb b56d 55bc 5f7b 97ba a13b a039
00000140: 3c5e 9abb 7951 64bc e550 63bb 682f cd3c
00000150: 16cc ba3c 99c0 be3a 98da 0b3c 7c4f 383a
00000160: da25 843a 6741 9b3b 4449 163c e4b3 f8bb
00000170: 2119 5f3b d6fe 913b 9641 26bb 601d f1bb
00000180: f55b a13c cfc1 a93b e6b7 813b c7d5 983b
00000190: e0d3 c4bb e41c 193c 1752 c13c 3e03 7abc
000001a0: db26 f73a dd64 873c 46d1 66bc a625 62bb
000001b0: 7777 4139 77f0 3fbc 1a3b 263b 8944 4f3b
000001c0: 5def 0bbb b682 edbb 779a 47ba 054e 153c
000001d0: 565d 993c 6808 57bc 29fa 1e3b 40f7 d13a
000001e0: 356c ad3c 752f cc3b 330c 08bc d48d 053a
000001f0: 6d02 dcbb 5c0f 743c d636 7c3c 8ddc 20bb
00000200: 4a4b 103c 4663 a93b 2b98 4d3c 60a1 d9bb
00000210: 76e1 77bc 853a 073a 2d16 bf39 3359 cb3b
00000220: 85a8 adbb 6720 82bb 443b f43b 8e34 bcbb
00000230: 8305 24bc 9f66 213c 3c3d 3dbc 12ca 8abb
00000240: e8ab bb3b f9e0 c13b 65be f73a b45a 813c
00000250: ad06 053b ab27 993c 1663 273c 6163 263c
00000260: 204d b83b a712 763c 597a 023c 462a 24bc
00000270: 500d 853b 0ff4 703c 7e4d 44b9 c7ae 8dbc
00000280: 6f69 c939 3312 183c 0c8b 113c 5875 5139
00000290: 9862 1dbb aa93 54bc a0e4 043b d817 ecbb
000002a0: d302 4fbb d9c1 2dbb 41bd f33b f1a6 563c
000002b0: 772f 073c e0fb ecba ad84 59bb a1e6 e3bc
000002c0: e2aa a4bb 8c4d fbbb bbca 45bb 51de 4c3c
000002d0: 1be6 e03b 6093 c8bb 9399 9bbb 173d 753c
000002e0: d2bc 153b 23e8 17bc 6d67 43bc 0580 9bba
000002f0: 4bde bc3b 9254 103b 2b8b d13b 0c0a acbc
00000300: 720b 6dba f0b3 6eba e41e 0b3b 2a60 933b
00000310: 530f 7e3a 767e a738 6732 a5ba a1e7 153b
00000320: e843 7fbb aa83 63bc 6af3 243b 6de0 083b
00000330: 081a 713b 8ba2 d73b 6422 b9bb 9c8d 453c
00000340: d383 253b 8074 eaba 4ca9 ed3b 05bb 4239
00000350: 1b44 373c 9184 afba d202 253c 2922 f2b9
00000360: c80a 623c 97aa f7bb bdb2 87bb cef8 ca3b
00000370: d00b dcbb 1173 66bc 0397 083c b2fa 183b
00000380: afb6 91bb 4452 953c 1d96 993c d62b 40bb
00000390: f5b9 683b 5175 273c 5ea0 f33b 18ca 8f3b
000003a0: fe9d ac3a 2489 81bb fca6 653c 1e90 b3b8
000003b0: ea79 9c3c b127 57bb b731 423c 411e 4a3c
000003c0: b186 eabb 7c73 53bc 8c62 893b 3432 85ba
000003d0: 9d7a 18bb c386 8d3c 7b64 2c3b d372 33bb
000003e0: 4a57 1f3c d289 11bc 5730 a73b b5cd 813c
000003f0: 57df 69bb 6521 0b3b 2516 0c3b 218e 5b3a
-0.0022586307 -0.003267134 -0.0013159155 -0.0035248378 0.0020666688 0.013376974 0.0061393087 -0.0029320372
0.009625048 -0.0075328 -0.0017310582 0.0040671607 -0.005805374 -0.0023303176 0.00793 -0.009778715
0.0023290315 -0.0124124065 0.005660868 -0.015953042 0.0012909572 -0.010543541 0.017458716 -0.009106953
-0.0052713337 0.0008681098 -0.007042875 -0.011654124 0.0012217425 -0.01754996 0.0006748974 0.014030373
-0.011152634 0.0070513487 -0.01466175 -0.004140034 -0.011369517 0.0058617797 0.0051431023 -0.0006028954
-0.006706706 0.006188448 0.009148767 -0.0042180135 -0.012492899 0.023514604 -0.02561632 0.00597536
-0.0059507224 -0.0036122885 -0.001093784 -0.0075815106 -0.021061067 0.00048589712 0.0026407402 -0.006515494
0.008949537 0.0032207395 -0.00517821 -0.0031215702 0.0018023963 1.9669838e-05 -0.01478979 -0.01657206
-0.007648906 -0.011610453 -0.025938641 0.008114175 0.0042808065 0.010932874 -0.0063271406 -0.010731564
-0.011167875 0.004032818 0.007836463 -0.0049984795 -0.003979101 -0.0130266445 -0.0011557153 0.00030562005
-0.0047109406 -0.01393544 -0.0034685668 0.02504702 0.022802394 0.0014553248 0.0085360035 0.0007030887
0.0010082081 0.004738021 0.009172741 -0.007589804 0.0034042078 0.0044554276 -0.0025368682 -0.007358238
0.019697169 0.0051805745 0.00395869 0.004664156 -0.006006703 0.009345267 0.023598714 -0.015259562
0.0018856184 0.016527588 -0.014087981 -0.0034507303 0.00018450418 -0.011715046 0.0025364817 0.0031626543
-0.0021352388 -0.007248248 -0.00076142646 0.00911284 0.018721264 -0.013124563 0.0024257994 0.0016019121
0.021169761 0.0062312433 -0.00830369 0.00050946814 -0.0067141564 0.01489624 0.015393933 -0.002454552
0.008807013 0.005169305 0.012548487 -0.006641552 -0.015129438 0.00051585614 0.0003644688 0.0062057017
-0.00529963 -0.003971148 0.007453354 -0.0057435697 -0.01001108 0.009851127 -0.011550244 -0.0042355144
0.00572728 0.0059167114 0.0018901346 0.015790321 0.0020298169 0.018695673 0.010216495 0.01015553
0.0056244284 0.0150190955 0.00796374 -0.010019844 0.004060425 0.014706626 -0.00018720885 -0.017295254
0.00038416262 0.009281683 0.008883249 0.00019975507 -0.0024015065 -0.012974659 0.0020277873 -0.007204991
-0.0031587377 -0.0026513247 0.0074383323 0.013101325 0.008251063 -0.0018080436 -0.0033190653 -0.027819933
-0.0050252536 -0.0076691564 -0.0030180651 0.012504176 0.006863368 -0.006121084 -0.004748532 0.014968178
0.0022848141 -0.009271654 -0.011926514 -0.0011863714 0.005763804 0.0022023064 0.006394764 -0.021000884
-0.0009042538 -0.0009105792 0.002122813 0.0044975476 0.00096916145 7.986736e-05 -0.0012603522 0.0022873657
-0.0038950387 -0.013886372 0.00251695 0.0020885721 0.0036789197 0.006580656 -0.0056498516 0.012057688
0.0025255575 -0.0017887503 0.007252848 0.00018570952 0.011185671 -0.0013390948 0.010071473 -0.00046183288
0.013796516 -0.0075581777 -0.0041411803 0.0061942106 -0.0067152753 -0.01406552 0.008336785 0.0023342785
-0.0044468264 0.018227704 0.018748337 -0.0029323003 0.003551123 0.0102208415 0.0074348887 0.004388105
0.0013169644 -0.003953116 0.014016863 -8.562229e-05 0.019101102 -0.0032830054 0.011852673 0.012336315
-0.0071571697 -0.012905952 0.004192656 -0.0010162056 -0.0023266443 0.017276173 0.0026305008 -0.0027381673
0.009725401 -0.008882957 0.005102198 0.01584516 -0.00356861 0.0021229621 0.0021375504 0.0008375366

action_model._discrete_distribution.branches.2.bias f4 [2]
00000000: 981d b1bb 951d b13b
-0.005405139 0.005405138

action_model._discrete_distribution.branches.3.weight f4 [2, 128]
00000000: 560d 99ba ffce 193c 78f4 a7ba 7415 1d3b
00000010: f8aa 4dbb 0f6d 6fbc f6ef 683b 98a3 7abc
00000020: 17fc 213c 1f43 2ebc 839f c63c 6cd4 bd3b
00000030: d397 2b3c 31aa 41bc 15c1 6d3c 897f 6abc
00000040: 6c97 46bc 7296 1b3b 05f9 153a 5760 eb3b
00000050: f2b3 ba3b dd17 a23c b686 4a3b bbd8 0fbc
00000060: 6140 c93b ce8d 65bc 8155 a1bb e4a1 90bc
00000070: 3702 913b 31cf b9bc 5a38 b1b9 283f b73b
00000080: 470a 36bc 747f 03bc 8b5e 50bc c0b8 4ebc
00000090: 10c1 f7ba 0cc7 963b 2c6e d6bb 3bb4 32bc
000000a0: 6088 85bc 78e6 a5bb 4636 853b 5d25 163c
000000b0: 427d 27bc e091 46bb 22c5 ad3a 2e03 49bc
000000c0: 96da a03b aad0 623b fdee d8bb a081 803c
000000d0: b856 8fbc 0ddd bc3b e4b2 3d3c a2c6 5bba
000000e0: 4a16 bd3a 8355 d3bc 1bdb 4e3c f7d5 84bc
000000f0: 562a 3cbc 3e30 c3bc c292 e13c 4e36 043c
00000100: 42ed cf3a cb64 a73b f723 8cbc 4abc bd3b
00000110: c942 023c cc5a 1f3c 4014 66ba 6626 2b3a
00000120: eceb 4b3b d770 bd3b bab9 243b 85d5 1c3a
00000130: 6919 a8bb 65ba 76bb 28a5 70bc 2cb2 7cbc
00000140: 0222 bc3b f663 12ba 901e 9fba f238 3bbc
00000150: c199 b1bc 8c03 d73b 95e6 75bc 34d4 913b
00000160: 60a8 f1bc e673 31bc 7af1 95b9 eeb3 0dbb
00000170: daae 8f3b 40e0 9abb 4176 2b3b 606d 573c
00000180: 63f9 503a 4a80 ff39 ddb4 3dbc 1b94 3abc
00000190: f0d5 cb3a c889 103b 0e70 85bb e8b1 0d3c
000001a0: dc88 6a3c 96d7 3a3c 7d15 47bc d4b3 e63b
000001b0: 3438 81bb f1e7 4ebc 1da5 c73b aaac 47ba
000001c0: 69e1 a9ba 79b7 4abb 2cfa a2bc 12a7 503c
000001d0: cb5d 183b c874 68bb 9ea1 71ba c095 693c
000001e0: 248c 9a3b 0a4d c2bb 07b7 463c 57b8 5039
000001f0: 5577 8fbb 2620 8f3c e3fa 8fbc 8c64 73bc
00000200: 8443 4dbb 54a7 8c3b 0310 64bc 4424 01bc
00000210: d090 4ebc 6202 67bb ae86 883b afd4 adb9
00000220: 0b31 6abc c530 0c3c a4e3 afbb 2670 53bc
00000230: f593 b33a 03b3 33bc eed8 963c 9197 473c
00000240: 3f3a 0dbb 4557 163c 0cb6 8fbb d924 9a3b
00000250: c40e 66bb 4ffd 8ebc 9984 7fbc c5e1 3a3c
00000260: 07db 9eba 832f 8cbc 2071 553a dc36 083a
00000270: 6b9a d6bb d31b a03b 4b5f 193c e6a0 893c
00000280: 62d8 b83b 140a b8bc 5f37 f83b fc59 aa3b
00000290: c7ec da3c 0815 973c 9649 2f39 84fc afbb
000002a0: c653 3c3c 48d7 aa3a aa9b ac3b 60e7 afbc
000002b0: 088a 75bb db69 d7b9 8611 0fbc def8 04bb
000002c0: e2bc fdbb 7f74 2a3c 9a5d 6e3c 1abd 8bbb
000002d0: 32c8 bcbb d59e a63b 5e9d 63ba 71f5 013b
000002e0: 9f4a 9abb 4735 1ebc 63a1 073c 7c53 623c
000002f0: 3987 0a3b 40f9 213b fe8f 2e3c e85f 923b
00000300: 6720 5a3c cf8b 32bc 89ab 143c 25d2 993b
00000310: 07b9 2a3b 278e 71bb 33f4 0b3c ae53 5cba
00000320: 3694 243c 8dc6 a4bc 5360 41bc 415f d1bb
00000330: 881a a6bb 8ee2 d73b 6127 8abb 7489 8cb8
00000340: 91d6 12bc 1a36 72bb e247 a1ba bdb5 083b
00000350: 0b67 d23c 2625 c23b 6fbd 273c 6a8a 093c
00000360: 72e7 a83c bac4 853b 418a 103c c5b8 dbba
00000370: 2880 abbc 68d3 303c c15f 103b 5c80 613c
00000380: eeb8 6f3b 88c3 08bc 9f63 313c ab5c e53b
00000390: 7096 a3bc 95dc eebc b20c 113c f70f b8bb
000003a0: 72f6 7aba cad4 babb 7e21 5c3c 54c9 943b
000003b0: eb03 c83c 7096 16ba 2d5f b2bb 3885 62bc
000003c0: 5328 cb3c a5ba 52bc 39d5 303b bf56 3dbc
000003d0: d8b0 40bb d8ff fa3b b13c cebb 9945 5db9
000003e0: f1d9 fabb 7bd2 053c 793f afbb 0eff 393c
000003f0: 09c8 2c3c 6e6b 893b 3a50 823b c5a7 2d3c
-0.0011676948 0.009387731 -0.0012813946 0.0023969086 -0.0031382423 -0.014613404 0.0035543418 -0.015297793
0.009886763 -0.01063612 0.024245983 0.005793145 0.010473209 -0.011820362 0.014511366 -0.014312633
-0.012121063 0.0023740795 0.0005721006 0.0071831155 0.0056977207 0.01978677 0.0030903048 -0.0087797
0.0061417078 -0.01401086 -0.004923523 -0.01765532 0.004425313 -0.022681804 -0.00033802056 0.0055922456
-0.011110849 -0.008025993 -0.012717853 -0.01261729 -0.0018902142 0.004601365 -0.006543895 -0.010907228
-0.01630038 -0.0050628744 0.004065308 0.009164182 -0.010222735 -0.003029935 0.0013257603 -0.0122688245
0.00490887 0.0034609237 -0.0066202865 0.01568681 -0.017497405 0.005763656 0.011578295 -0.00083837856
0.0014426198 -0.025797611 0.012625481 -0.016215308 -0.011484703 -0.023826715 0.0275358 0.008069588
0.0015863555 0.005108451 -0.017106993 0.005790268 0.007950493 0.0097262375 -0.0008776821 0.0006528854
0.0031115962 0.005781274 0.0025135116 0.00059827446 -0.0051299823 -0.003764772 -0.014687814 -0.015423339
0.0057413587 -0.00055843533 -0.0012139846 -0.011427151 -0.02167976 0.006561702 -0.015008588 0.0044503454
-0.029499233 -0.010830855 -0.0002859941 -0.002162214 0.0043848576 -0.0047264397 0.0026163014 0.013148636
0.0007971732 0.00048732973 -0.011578766 -0.01138785 0.0015551429 0.002205478 -0.004072196 0.008648373
0.014314856 0.011403939 -0.012151119 0.00704048 -0.0039434675 -0.012628541 0.006092681 -0.00076169765
-0.0012960854 -0.0030932112 -0.019894682 0.012735145 0.0023249264 -0.0035469998 -0.0009217503 0.014256895
0.004716413 -0.005929594 0.012128598 0.00019905098 -0.004378239 0.017471384 -0.017575687 -0.014855515
-0.003132076 0.004292408 -0.013919833 -0.007882182 -0.012607768 -0.0035249223 0.0041664457 -0.00033155593
-0.014293919 0.008556549 -0.005367713 -0.012905156 0.0013700711 -0.010967973 0.018413987 0.012182132
-0.002154961 0.00917608 -0.0043857154 0.0047040996 -0.0035104016 -0.017454771 -0.015595579 0.011406367
-0.0012119719 -0.0171125 0.0008142162 0.0005196163 -0.00654917 0.0048861294 0.0093610985 0.016800355
0.005641029 -0.022465743 0.00757496 0.0051987153 0.026724232 0.018442646 0.00016716713 -0.0053706784
0.0114945825 0.001303413 0.00526758 -0.021472633 -0.0037466306 -0.00041086864 -0.008732205 -0.0020289938
-0.007743464 0.010403751 0.014548684 -0.004264486 -0.00576117 0.005084852 -0.00086828123 0.0019830132
-0.0047086026 -0.009656257 0.008278224 0.01381385 0.0021137728 0.0024715215 0.010654448 0.0044669993
0.013313389 -0.010897591 0.0090741 0.0046942406 0.0026050226 -0.003685841 0.008542108 -0.0008404803
0.010045102 -0.020114208 -0.011802751 -0.006389529 -0.0050690807 0.0065882867 -0.00421612 -6.701323e-05
-0.008962289 -0.0036958517 -0.0012304748 0.0020860278 0.0256839 0.0059248386 0.010238036 0.008394817
0.020618174 0.0040822895 0.008822025 -0.001676344 -0.020935133 0.010792591 0.002202973 0.013763513
0.0036578733 -0.0083473995 0.010826974 0.0069995723 -0.019969195 -0.029157916 0.008853124 -0.0056171375
-0.00095734664 -0.005701636 0.01343572 0.0045406017 0.02441593 -0.0005744463 -0.0054434747 -0.013825707
0.024799502 -0.012861882 0.002698256 -0.011556326 -0.0029402282 0.0076598935 -0.006293856 -0.0002110213
-0.007655375 0.008167858 -0.0053481427 0.011352314 0.010545739 0.004193715 0.003976849 0.010599081

action_model._discrete_distribution.branches.3.bias f4 [2]
00000000: 449b 5bbb 459b 5b3b
-0.0033509294 0.0033509296
