Assets/results/traffic_1401/TrafficLightBrain/TrafficLightBrain-161.onnx (onnx, 88715 bytes, 11 tensors)

discrete_act_size_vector f4 [1, 4]
2.0 2.0 2.0 2.0
00000000: 0000 0040 0000 0040 0000 0040 0000 0040

network_body.observation_encoder.processors.0.normalizer.running_mean f4 [11]
17.746914 20.02469 17.35185 14.376543 12.575173 4.722069 0.47530866 0.4197531
0.5 0.5308642 0.0
00000000: aef9 8d41 9132 a041 97d0 8a41 5206 6641
00000010: e933 4941 301b 9740 a85b f33e e1e9 d63e
00000020: 0000 003f b7e6 073f 0000 0000

network_body._body_endoder.seq_layers.0.weight f4 [128, 11]
0.040550217 -0.60069484 0.017585393 0.473577 -0.20870109 0.10903062 -0.3347369 0.53926605
0.49256456 -0.20391539 0.096134424 -0.0673792 0.11271871 -0.09033461 0.42012978 0.29903257
0.11623806 -0.5178725 -0.037847962 -0.15825516 -0.31404832 0.15807082 0.38381153 -0.09085297
0.0814574 -0.29806668 0.3796337 -0.49258688 -0.0038568808 -0.5190658 0.5012862 -0.21330161
0.043741312 -0.56501037 0.49335486 -0.18943027 0.23052283 0.018843941 0.24968375 -0.2948519
0.11645327 -0.14015365 0.36718437 -0.015987873 0.13510866 0.45804992 0.28641677 0.14582273
-0.14552355 -0.24246342 -0.14471485 -0.384504 -0.012682248 0.5889377 0.12896402 0.14946815
0.5007215 -0.412461 0.79501045 -0.055254802 0.16732772 -0.21443194 0.045159075 -0.39069775
-0.680312 0.2923583 0.05569976 -0.03874275 0.29324746 -0.084842235 -0.48165014 -0.031752937
0.1156906 -0.10632328 0.6264866 -0.25559908 -0.5444383 -0.039458543 -0.52313083 -0.14536408
-0.38572034 -0.04646248 0.52227366 0.0373677 0.109744735 0.33054665 0.037634064 -0.37465596
-0.20341176 -0.31480488 -0.29973197 0.7287362 0.00490001 0.11431655 0.4357064 0.019242447
-0.520366 0.5798288 0.516171 0.04070968 0.5405961 -0.3651956 0.14716493 -0.5017757
-0.20042677 0.0143721895 0.3154835 0.42175275 -0.08640481 -0.07816848 -0.18221892 -0.113130115
0.061210755 0.08319625 0.33872765 -0.22738777 -0.12367415 -0.54458064 -0.1032076 0.056501742
0.31292522 0.29921883 -0.15372764 0.0146976635 -0.6166253 -0.16105846 0.16497438 -0.55447096
-0.41592935 -0.4041771 -0.14303412 0.21072115 0.40381315 0.58326924 -0.06740067 -0.21352823
0.5666912 0.2911409 0.13918246 -0.47115213 -0.07801492 -0.107558794 -0.03205823 0.49420163
-0.16067354 0.29676569 -0.3576042 0.062455893 -0.42935193 -0.07780745 0.09382393 0.8744933
-0.21048875 0.29849747 0.34888896 -0.29211533 -0.01271222 0.07507175 -0.25367245 0.22841343
-0.2817042 -0.5011314 0.12137931 -0.06575701 0.14135315 0.2789592 0.49557608 -0.4290423
-0.5482631 0.36308563 -0.1248025 -0.0063778087 0.060255557 -0.36475194 0.23944604 -0.16312756
-0.18792436 0.15205948 0.50864565 -0.19602773 -0.49292958 -0.33692563 0.10301528 -0.06103925
0.035335265 0.04899062 0.2530894 -0.5345818 0.11381961 -0.08504794 -0.29339817 0.5041057
-0.39849424 -0.29859158 0.15874518 -0.3294857 -0.11904973 0.06307022 0.43273672 -0.15850177
0.094666235 -0.14451316 -0.06897971 0.36778533 -0.3496661 0.46705326 -0.23925512 -0.57608074
-0.029617624 -0.45065245 0.13098623 -0.04869743 0.04436561 -0.13186608 -0.38113242 -0.26751587
0.06352982 -0.10359405 -0.13576402 -0.2213117 -0.19189373 0.01814503 0.06952442 0.054961335
0.49077678 0.32041055 0.059857544 0.21416119 0.094986945 -0.10280834 -0.24098411 -0.41309184
0.43542564 0.07688955 -0.29704538 -0.0002430083 0.4533348 0.21830328 -0.015049159 -0.18131661
-0.36692423 -0.340166 0.25400695 -0.019138407 0.22457492 0.29218927 0.49937817 0.27988538
0.8015986 -0.09321179 0.002348477 -0.20075771 -0.3780473 -0.18866347 -0.005314045 0.378128
00000000: fc17 263d 23c7 19bf 3e0f 903c af78 f23e
00000010: bdb5 55be 724b df3d a362 abbe 570d 0a3f
00000020: 6c31 fc3e 32cf 50be 20e2 c43d 1bfe 89bd
00000030: 11d9 e63d 5a01 b9bd 401b d73e cc1a 993e
00000040: 380e ee3d 4b93 04bf 7706 1bbd a40d 22be
00000050: f1ca a0be 51dd 213e f282 c43e 1f11 babd
00000060: 23d3 a63d 329c 98be 595f c23e 5934 fcbe
00000070: b9c3 7cbb 7fe1 04bf 4b54 003f bd6b 5abe
00000080: 172a 333d 85a4 10bf 0299 fc3e 02fa 41be
00000090: 2d0e 6c3e 9c5e 9a3c 19ad 7f3e d4f6 96be
000000a0: 0d7f ee3d 7084 0fbe 97ff bb3e 00f9 82bc
000000b0: ed59 0a3e 8585 ea3e 38a5 923e 8e52 153e
000000c0: 2004 15be 5548 78be 2130 14be b5dd c4be
000000d0: 34c9 4fbc 9fc4 163f 250f 043e 2e0e 193e
000000e0: 492f 003f 172e d3be ce85 4b3f dc52 62bd
000000f0: f557 2b3e 0c94 5bbe b9f8 383d 8909 c8be
00000100: ed28 2ebf fdaf 953e 6e25 643d b8b0 1ebd
00000110: 8824 963e c4c1 adbd d99a f6be 5e0f 02bd
00000120: 31ef ec3d 05c0 d9bd 6d61 203f e2dd 82be
00000130: 4f60 0bbf 489f 21bd e7eb 05bf 52da 14be
00000140: 237d c5be 714f 3ebd bab3 053f e00e 193d
00000150: d9c1 e03d 693d a93e 2d26 1a3d e8d2 bfbe
00000160: 2c4b 50be 1b2e a1be 7876 99be 758e 3a3f
00000170: 4390 a03b cc1e ea3d e914 df3e 56a2 9d3c
00000180: b536 05bf a96f 143f c823 043f 32bf 263d
00000190: 8264 0a3f ebfa babe 67b2 163e 5f74 00bf
000001a0: ad3c 4dbe 5579 6b3c 0e87 a13e faef d73e
000001b0: 01f5 b0bd cc16 a0bd 9997 3abe c3b0 e7bd
000001c0: 21b8 7a3d cc62 aa3d b66d ad3e 57d8 68be
000001d0: df48 fdbd a369 0bbf 825e d3bd 5f6e 673d
000001e0: bc37 a03e 3633 993e c76a 1dbe 78ce 703c
000001f0: 28db 1dbf 82ec 24be 0bef 283e cff1 0dbf
00000200: b1f4 d4be 4df0 cebe 8977 12be 49c7 573e
00000210: 99c0 ce3e 2251 153f 5d09 8abd 25a7 5abe
00000220: ad12 113f 6c10 953e d985 0e3e da3a f1be
00000230: 49c6 9fbd c947 dcbd 7e4f 03bd ff07 fd3e
00000240: 9b87 24be acf1 973e e617 b7be c0d1 7f3d
00000250: 04d4 dbbe 8359 9fbd c326 c03d cbde 5f3f
00000260: 5d8a 57be a9d4 983e 93a1 b23e 2490 95be
00000270: ea46 50bc 38bf 993d 5be1 81be 36e5 693e
00000280: 883b 90be 264a 00bf b795 f83d 9cab 86bd
00000290: e1be 103e bed3 8e3e 26bc fd3e 6fab dbbe
000002a0: f85a 0cbf 5ce6 b93e 7498 ffbd f0fc d0bb
000002b0: 88ce 763d c4c0 babe 5831 753e e90a 27be
000002c0: 3e6f 40be 7bb5 1b3e 9a36 023f 7ebb 48be
000002d0: 4461 fcbe 8481 acbe adf9 d23d 4b04 7abd
000002e0: b6bb 103d 63aa 483d ef94 813e 5ada 08bf
000002f0: 411a e93d 9d2d aebd 4938 96be 120d 013f
00000300: 7007 ccbe ffe0 98be 198e 223e 5ab2 a8be
00000310: 58d0 f3bd f62a 813d ab8f dd3e 4a4e 22be
00000320: 5fe0 c13d 42fb 13be 3c45 8dbd 5c4e bc3e
00000330: 6f07 b3be 9b21 ef3e 4bff 74be 077a 13bf
00000340: a9a0 f2bc ebbb e6be 4121 063e f576 47bd
00000350: b7b8 353d e707 07be ca23 c3be d7f7 88be
00000360: ec1b 823d 1e29 d4bd b905 0bbe 899f 62be
00000370: ca7f 44be e3a4 943c d262 8e3d 231f 613d
00000380: 1847 fb3e da0c a43e 2f2d 753d 124d 5b3e
00000390: 8488 c23d 2e8d d2bd 8ac4 76be c680 d3be
000003a0: 1cf0 de3e 4578 9d3d 5516 98be 0bd0 7eb9
000003b0: 801b e83e e58a 5f3e bf90 76bc 10ab 39be
000003c0: 7edd bbbe 3d2a aebe 330d 823e 26c8 9cbc
000003d0: f8f6 653e d599 953e 7fae ff3e 234d 8f3e
000003e0: 9135 4d3f d3e5 bebd e8e8 193b 6e93 4dbe
000003f0: 6a8f c1be ff30 41be 7121 aebb fe99 c13e

network_body._body_endoder.seq_layers.0.bias f4 [128]
0.0 0.0 0.0 0.0 0.0 0.0 0.0 0.0
0.0 0.0 0.0 0.0 0.0 0.0 0.0 0.0
0.0 0.0 0.0 0.0 0.0 0.0 0.0 0.0
0.0 0.0 0.0 0.0 0.0 0.0 0.0 0.0
0.0 0.0 0.0 0.0 0.0 0.0 0.0 0.0
0.0 0.0 0.0 0.0 0.0 0.0 0.0 0.0
0.0 0.0 0.0 0.0 0.0 0.0 0.0 0.0
0.0 0.0 0.0 0.0 0.0 0.0 0.0 0.0
0.0 0.0 0.0 0.0 0.0 0.0 0.0 0.0
0.0 0.0 0.0 0.0 0.0 0.0 0.0 0.0
0.0 0.0 0.0 0.0 0.0 0.0 0.0 0.0
0.0 0.0 0.0 0.0 0.0 0.0 0.0 0.0
0.0 0.0 0.0 0.0 0.0 0.0 0.0 0.0
0.0 0.0 0.0 0.0 0.0 0.0 0.0 0.0
0.0 0.0 0.0 0.0 0.0 0.0 0.0 0.0
0.0 0.0 0.0 0.0 0.0 0.0 0.0 0.0
00000000: 0000 0000 0000 0000 0000 0000 0000 0000
00000010: 0000 0000 0000 0000 0000 0000 0000 0000
00000020: 0000 0000 0000 0000 0000 0000 0000 0000
00000030: 0000 0000 0000 0000 0000 0000 0000 0000
00000040: 0000 0000 0000 0000 0000 0000 0000 0000
00000050: 0000 0000 0000 0000 0000 0000 0000 0000
00000060: 0000 0000 0000 0000 0000 0000 0000 0000
00000070: 0000 0000 0000 0000 0000 0000 0000 0000
00000080: 0000 0000 0000 0000 0000 0000 0000 0000
00000090: 0000 0000 0000 0000 0000 0000 0000 0000
000000a0: 0000 0000 0000 0000 0000 0000 0000 0000
000000b0: 0000 0000 0000 0000 0000 0000 0000 0000
000000c0: 0000 0000 0000 0000 0000 0000 0000 0000
000000d0: 0000 0000 0000 0000 0000 0000 0000 0000
000000e0: 0000 0000 0000 0000 0000 0000 0000 0000
000000f0: 0000 0000 0000 0000 0000 0000 0000 0000
00000100: 0000 0000 0000 0000 0000 0000 0000 0000
00000110: 0000 0000 0000 0000 0000 0000 0000 0000
00000120: 0000 0000 0000 0000 0000 0000 0000 0000
00000130: 0000 0000 0000 0000 0000 0000 0000 0000
00000140: 0000 0000 0000 0000 0000 0000 0000 0000
00000150: 0000 0000 0000 0000 0000 0000 0000 0000
00000160: 0000 0000 0000 0000 0000 0000 0000 0000
00000170: 0000 0000 0000 0000 0000 0000 0000 0000
00000180: 0000 0000 0000 0000 0000 0000 0000 0000
00000190: 0000 0000 0000 0000 0000 0000 0000 0000
000001a0: 0000 0000 0000 0000 0000 0000 0000 0000
000001b0: 0000 0000 0000 0000 0000 0000 0000 0000
000001c0: 0000 0000 0000 0000 0000 0000 0000 0000
000001d0: 0000 0000 0000 0000 0000 0000 0000 0000
000001e0: 0000 0000 0000 0000 0000 0000 0000 0000
000001f0: 0000 0000 0000 0000 0000 0000 0000 0000

network_body._body_endoder.seq_layers.2.weight f4 [128, 128]
-0.0089594815 0.14728977 0.116901435 0.11028758 -0.027113969 -0.10852392 0.07713892 0.07930846
-0.08768327 0.07245428 0.025701856 -0.054801077 -0.16241486 -0.029490361 0.023049945 0.02987466
-0.105323136 -0.11657681 0.062266108 0.082789935 0.07316192 0.1039168 -0.07570705 -0.17016414
0.010935346 0.018854484 -0.028874233 -0.11928068 0.11680034 -0.006787497 0.063451365 -0.042778686
0.07053462 0.070996016 -0.10646483 0.12965603 0.05765663 0.012181035 -0.1452621 -0.07880844
0.06697474 0.012054865 0.05542193 0.12549289 -0.002986673 0.10329618 0.12982433 0.012645625
-0.120797165 0.13124123 0.103934824 0.21927284 -0.1495241 -0.076367505 -0.051107563 -0.051154703
-0.10845755 0.023572955 -0.021805434 -0.04890163 -0.006322619 -0.13677347 -0.040507868 0.0074021514
0.09988807 0.020843627 -0.024643736 -0.04915642 -0.10413787 -0.08562626 -0.063884676 -0.13621914
0.060749307 -0.22365738 0.034093924 -0.005505495 -0.15936156 0.18378395 0.058963634 -0.13601881
0.13205998 -0.10673862 -0.0004303841 -0.19807096 -0.06896733 0.08785927 0.060708642 -0.26424104
0.046743248 -0.05047852 0.13157411 -0.013731209 0.01113681 0.025031477 -0.1947041 -0.024171844
0.043229725 -0.08441426 -0.010352784 0.04476918 0.17181607 0.039719928 -0.09141279 0.04506215
-0.032014992 -0.049938455 0.059500355 0.010877085 -0.16918612 0.10829028 -0.08278989 -0.13893874
-0.017793944 0.032978434 -0.080266625 0.056742884 -0.030544 0.04760604 -0.016544005 -0.011632772
0.02290227 -0.04438365 0.14297031 0.0607607 0.07631701 -0.01710444 -0.05150975 -0.04039887
-0.10250489 -0.20724928 -0.06441248 -0.038670886 0.03314731 -0.09754913 -0.07605184 0.016362777
-0.10026222 0.15338588 -0.013161661 0.069601364 -0.031263348 0.0652154 -0.094538406 -0.09981751
0.022919526 -0.028772285 0.095379464 0.020157225 -0.07167778 -0.02487596 0.008526845 -0.019355884
-0.052653957 0.054358516 -0.031792138 0.09073154 -0.06395565 -0.12967217 -0.030982135 0.013605391
0.06293657 -0.13039827 0.015716173 0.11104716 0.017398782 0.07665905 0.05156897 -0.109978124
0.111368306 -0.16543497 0.0085486295 0.009219979 0.055297572 0.035764165 0.046179164 0.0062720603
0.09683799 -0.020553373 -0.04677871 0.056354508 0.0497788 0.009279278 0.055752367 0.020210065
0.13916168 -0.13484114 0.0028205991 0.08696213 -0.121277414 -0.14194493 0.12693587 0.11966502
0.11219576 0.18085198 -0.049915913 0.1571635 0.03183144 -0.098064475 0.16925648 -0.035221137
-0.026080053 0.09846004 0.123477936 -0.008537961 -0.0037331774 0.02051015 0.079437405 0.042379852
-0.11334858 -0.010645832 0.046987165 -0.035271212 0.04193882 0.07396485 -0.18935023 -0.117439196
0.11126864 -0.01905354 -0.06769785 -0.0034265344 -0.028054746 -0.06745038 -0.05397406 -0.050121237
0.003671737 -0.022710042 -0.017452441 -0.06459463 0.12726837 0.085495815 -0.041679267 0.088087425
0.12539351 -0.11377772 -0.06441135 0.0013239963 -0.11843638 -0.13698182 0.047088828 0.028745808
-0.16147946 0.054099035 -0.052705206 -0.12618122 -0.06594566 -0.039958544 0.096908994 0.037822783
0.093715645 -0.102658056 -0.04582799 0.08129888 0.13906643 0.024581624 0.012920164 -0.12653908
00000000: caca 12bc 21d3 163e 056a ef3d 74de e13d
00000010: 1d1e debc ca41 debd 03fb 9d3d 796c a23d
00000020: 4993 b3bd e962 943d b38c d23c 1877 60bd
00000030: 1550 26be c595 f1bc 3dd3 bc3c b4bb f43c
00000040: a8b3 d7bd d3bf eebd bf0a 7f3d c58d a93d
00000050: ebd5 953d 55d2 d43d 4c0c 9bbd 823f 2ebe
00000060: 2a2a 333c b874 9a3c a889 ecbc 6e49 f4bd
00000070: 0435 ef3d a769 debb caf2 813d b438 2fbd
00000080: 7474 903d 5c66 913d 3c0a dabd 8dc4 043e
00000090: 5c29 6c3d f792 473c 97bf 14be 5266 a1bd
000000a0: 0d2a 893d c581 453c 1b02 633d 3581 003e
000000b0: 0fbc 43bb f38c d33d abf0 043e 982f 4f3c
000000c0: 8164 f7bd 1a64 063e c8db d43d 0f89 603e
000000d0: d81c 19be 9166 9cbd 2a56 51bd 9887 51bd
000000e0: fe1e debd 121c c13c 4fa1 b2bc 134d 48bd
000000f0: f92d cfbb 580e 0cbe 94eb 25bd bf8d f23b
00000100: 1e92 cc3d 41c0 aa3c a9e1 c9bc 3e58 49bd
00000110: 3c46 d5bd d25c afbd f8d5 82bd 087d 0bbe
00000120: 44d4 783d 7106 65be 12a6 0b3d 7067 b4bb
00000130: ad2f 23be dc31 3c3e da83 713d 8448 0bbe
00000140: bb3a 073e c799 dabd 2da5 e1b9 1dd3 4abe
00000150: be3e 8dbd 90ef b33d a0a9 783d 9a4a 87be
00000160: d975 3f3d 91c2 4ebd 5dbb 063e ddf8 60bc
00000170: 2b77 363c d00e cd3c 8360 47be 0804 c6bc
00000180: a711 313d 62e1 acbd b99e 29bc e35f 373d
00000190: 8df0 2f3e 5db1 223d a136 bbbd 1793 383d
000001a0: 2722 03bd 448c 4cbd a5b6 733d cd35 323c
000001b0: 203f 2dbe 4bc7 dd3d bf8d a9bd f545 0ebe
000001c0: 9bc4 91bc 6514 073d d462 a4bd 3a6b 683d
000001d0: 6937 fabc 8dfe 423d 4b87 87bc 6297 3ebc
000001e0: 8b9d bb3c a1cb 35bd cf66 123e 36e0 783d
000001f0: 184c 9c3d 9c1e 8cbc e3fb 52bd 4979 25bd
00000200: 15ee d1bd 2839 54be b1ea 83bd 5d65 1ebd
00000210: 79c5 073d d7c7 c7bd 11c1 9bbd 3b0b 863c
00000220: 4756 cdbd 3011 1d3e 02a4 57bc 298b 8e3d
00000230: ff0d 00bd a78f 853d 5a9d c1bd 1f6d ccbd
00000240: bbc1 bb3c dbb3 ebbc 4f56 c33d c420 a53c
00000250: cdcb 92bd abc8 cbbc 2eb4 0b3c 3b90 9ebc
00000260: adab 57bd 09a7 5e3d 7938 02bd 75d1 b93d
00000270: 2efb 82bd c8c8 04be 3fce fdbc 25e9 5e3c
00000280: e3e4 803d 2087 05be 34bf 803c b26c e33d
00000290: e487 8e3c 6cff 9c3d fc39 533d 363c e1bd
000002a0: 1115 e43d c967 29be 8d0f 0c3c 650f 173c
000002b0: b57f 623d 727d 123d 5d26 3d3d db85 cd3b
000002c0: ff52 c63d 8c5f a8bc 089b 3fbd fcd3 663d
000002d0: dbe4 4b3d 1d08 183c 985c 643d 948f a53c
000002e0: 6680 0e3e cc13 0abe cdd9 383b 3419 b23d
000002f0: 4b60 f8bd 035a 11be 7afb 013e ef12 f53d
00000300: e4c6 e53d 4331 393e a174 4cbd 78ef 203e
00000310: af61 023d 07d6 c8bd 9251 2d3e 0a44 10bd
00000320: d6a5 d5bc 6ba5 c93d 00e2 fc3d cee2 0bbc
00000330: 53a8 74bb e704 a83c 14b0 a23d 7f96 2d3d
00000340: 4d23 e8bd db6b 2ebc 9d75 403d 8c78 10bd
00000350: 0ac8 2b3d e27a 973d 07e5 41be f683 f0bd
00000360: d0e0 e33d 2b16 9cbc 2ca5 8abd b58f 60bb
00000370: 11d3 e5bc 6d23 8abd e713 5dbd ed4b 4dbd
00000380: 86a1 703b 690a babc 6cf8 8ebc 304a 84bd
00000390: a452 023e 6e18 af3d e1b7 2abd 2e67 b43d
000003a0: 2867 003e 4b04 e9bd 19ea 83bd f289 ad3a
000003b0: c68e f2bd f644 0cbe 37e0 403d 547c eb3c
000003c0: df5a 25be f396 5d3d 6ae1 57bd a635 01be
000003d0: 850e 87bd 92ab 23bd 3978 c63d 10ec 1a3d
000003e0: fded bf3d 633e d2bd 21b6 3bbd 0780 a63d
000003f0: 6e67 0e3e 675f c93c 18af 533c 7693 01be

action_model._discrete_distribution.branches.0.weight f4 [2, 128]
0.0027908874 0.001478075 0.0016566694 0.0010652359 -0.004624901 0.007114594 0.0064759427 -0.0167157
0.017138766 0.01242781 0.012167699 -5.9463997e-05 -0.009806252 -0.005929397 0.007946064 0.010726457
-0.0025161982 -0.01651823 0.006917696 0.004386672 0.002678689 0.015352688 0.011647335 0.008824979
-0.005134747 -0.024115851 0.0068328804 -0.008835859 -0.0047963136 0.0066083693 -0.018730188 -0.005336248
-0.007121024 0.008788194 0.006724976 -0.003301852 -0.003354026 0.010905995 0.0027746463 0.0129793575
0.0063326173 -0.013660948 0.01617758 0.01037533 -0.0047360645 0.0002701098 0.00867137 0.0060516014
-0.0057237674 0.0062909983 0.0007997254 0.0015702567 0.014695522 0.014499538 0.011000077 -0.012429494
-0.007240393 0.0025585268 0.0033796567 0.008509934 0.001643794 -0.0115345325 -0.006822658 0.00041057324
-0.010374654 -0.009660864 -0.0022500826 -0.0031867994 -0.006445457 -0.004454326 0.009545695 -0.015620894
0.014320574 -0.0022190616 -0.009134958 0.016749969 0.0053111664 0.0048981085 -0.0075739794 0.01758876
0.0018268913 0.0110766785 -0.0067745866 -0.0073852553 0.006129367 -0.0013352568 0.00079143356 -0.0028660924
-0.004834147 0.016595865 -0.00560819 0.0018914804 0.0021902462 -0.010924898 -8.216418e-05 -0.0059561776
-0.004344883 -0.0014261073 0.00827506 -0.00014127349 -0.0010186378 0.0009407564 0.0049264873 0.0071041086
0.001289288 -0.01582025 -0.005844441 0.0057086605 0.006012472 -0.011645344 -0.012046303 0.0014755761
0.0020923426 0.015026881 0.0021820394 0.00864687 -0.017036805 -0.017512131 -0.0017383734 -0.009395425
-0.00022254659 0.006511708 -0.009810607 -0.001993829 0.0011536563 -0.0033643786 -0.004764955 -0.0023453943
-0.0015677452 -0.0031345938 -0.00029357968 -0.0060114297 0.012376467 -0.0015486297 0.004745717 -0.0036126561
0.013741471 -0.019929774 -0.009916409 0.0038314385 -0.004767282 0.001619933 -0.006288913 -0.014551659
0.0018008795 0.014992704 -0.0001565843 -0.00027669093 0.014532966 0.008027636 -0.007748905 0.009811721
0.010568941 0.0047906926 -0.0040878896 0.0013212034 -0.0065648803 0.0022148995 0.010742854 -0.0106171975
-0.008160661 -0.002434044 -0.00047592446 0.003132438 -0.004986029 0.0013768664 -0.0044874665 -0.0071123377
0.0083707115 -0.012173404 0.0076740757 -0.013880126 -0.009739223 0.0057413373 0.012919073 0.0077107074
0.014246228 0.0015975143 -0.011151837 0.0031476424 -0.018231174 0.00042768155 -0.01072169 0.01630808
-0.016149506 0.0015691767 0.0027215786 -0.009674774 -0.0010859201 0.004462535 0.0079825865 -0.0036640943
0.0033563771 -6.897707e-06 0.01915864 0.003791398 -0.008419703 -0.0016464709 4.860832e-05 -0.011826039
-0.0012528177 -0.004500821 -0.021380192 -0.008885848 -0.011606529 0.0010660397 0.0020765055 -0.0083774915
0.0028689585 -0.0052305334 -6.125784e-05 -0.016518788 -0.012950296 0.007753516 -0.0045021325 -0.00740752
0.004838375 -0.005875308 -0.011664952 -0.00403177 -0.0019618247 0.0007754222 -0.00928789 0.013747319
-0.000389148 0.006877549 0.012230726 0.002925256 0.012128285 -0.008024402 0.0022014193 0.0077717206
-0.0011110057 0.0054270444 -0.011636517 0.013503136 -0.0041180057 -0.0016105765 0.015431617 0.0014800843
-0.005227982 0.0036338784 0.00888689 -0.00682665 0.00397865 -0.009921507 -0.007104295 0.01285608
-0.00010153143 0.0022145624 -0.021966342 0.0044996655 0.0068353117 -0.0047672153 -0.00403626 0.0015697972
00000000: 52e7 363b f8bb c13a 9a24 d93a 639f 8b3a
00000010: 7b8c 97bb 8a21 e93b 2534 d43b 5def 88bc
00000020: 9966 8c3c 039e 4b3c 075b 473c fb68 79b8
00000030: 67aa 20bc 634b c2bb 3530 023c 06be 2f3c
00000040: cde6 24bb 3d51 87bc d7ad e23b 12be 8f3b
00000050: f28c 2f3b d789 7b3c 77d4 3e3c a596 103c
00000060: 6141 a8bb 9b8e c5bc 5be6 df3b 47c4 10bc
00000070: 652a 9dbb 058b d83b 0d70 99bc b1db aebb
00000080: 7b57 e9bb 5bfc 0f3c 305d dc3b e263 58bb
00000090: 38cf 5bbb 0faf 323c d7d6 353b 5fa7 543c
000000a0: d881 cf3b 2bd2 5fbc d886 843c 4afd 293c
000000b0: fd30 9bbb 869d 8d39 5d12 0e3c 834c c63b
000000c0: 718e bbbb b824 ce3b aaa4 513a 12d1 cd3a
000000d0: 7dc5 703c 788f 6d3c ab39 343c 14a5 4bbc
000000e0: d240 edbb f5ac 273b 3b7d 5d3b 406d 0b3c
000000f0: 9374 d73a 56fb 3cbc 9a90 dfbb 3542 d739
00000100: 74fa 29bc 9a48 1ebc 1f76 13bb 9fd9 50bb
00000110: 6a34 d3bb 98f5 91bb 8c65 1c3c c7ee 7fbc
00000120: d7a0 6a3c ad6d 11bb caaa 15bc 3b37 893c
00000130: 4b09 ae3b 5080 a03b 252f f8bb 4e16 903c
00000140: 4d74 ef3a f57a 353c 5afd ddbb 0300 f2bb
00000150: dbd8 c83b c903 afba 3578 4f3a 0dd5 3bbb
00000160: c467 9ebb 0df4 873c e8c4 b7bb 8deb f73a
00000170: 3c8a 0f3b 58fe 32bc 8f4f acb8 0a2c c3bb
00000180: 855f 8ebb 38ec baba 1e94 073c d022 14b9
00000190: d083 85ba 189d 763a 5f6e a13b 95c9 e83b
000001a0: 54fd a83a 7899 81bc b982 bfbb b70f bb3b
000001b0: 4504 c53b 1dcc 3ebc db5d 45bc 1e68 c13a
000001c0: af1f 093b 4f33 763c 8c00 0f3b 9aab 0d3c
000001d0: c590 8bbc 9a75 8fbc 22da e3ba 45ef 19bc
000001e0: 655b 69b9 2a60 d53b abbc 20bc e6aa 02bb
000001f0: 4836 973a e87c 5cbb 5723 9cbb 30b5 19bb
00000200: cd7c cdba c26d 4dbb 99eb 99b9 87fb c4bb
00000210: aac6 4a3c 64fb caba f681 9b3b 50c2 6cbb
00000220: e823 613c c443 a3bc 6f78 22bc df18 7b3b
00000230: dc36 9cbb ef53 d43a 3a13 cebb 156a 6ebc
00000240: 7d0b ec3a f5a3 753c c730 24b9 d410 91b9
00000250: ad1b 6e3c 5986 033c 87ea fdbb 57c1 203c
00000260: 5a29 2d3c 3efb 9c3b b4f3 85bb 3b2c ad3a
00000270: 351e d7bb d927 113b cc02 303c c1f3 2dbc
00000280: 4bb4 05bc 7b84 1fbb 8085 f9b9 9749 4d3b
00000290: d861 a3bb f877 b43a 990b 93bb 9d0e e9bb
000002a0: 4f25 093c f572 47bc d076 fb3b 7869 63bc
000002b0: 4391 1fbc d421 bc3b 85aa 533c 1aaa fc3b
000002c0: 0369 693c af63 d13a 32b6 36bc ad48 4e3b
000002d0: 8b59 95bc 723a e039 07aa 2fbc 8698 853c
000002e0: f84b 84bc d5ac cd3a 835c 323b f182 1ebc
000002f0: 6f55 8eba 753a 923b 65c9 023c 4d21 70bb
00000300: aaf6 5b3b da72 e7b6 95f2 9c3c 1a79 783b
00000310: cbf2 09bc 65ce d7ba c9e0 4b38 01c2 41bc
00000320: 9635 a4ba a07b 93bb 8325 afbc f395 11bc
00000330: 5029 3ebc 5bba 8b3a fb15 083b bf41 09bc
00000340: 2305 3c3b e564 abbb 8d77 80b8 6952 87bc
00000350: 7a2d 54bc 3511 fe3b a086 93bb c8ba f2bb
00000360: 3b8b 9e3b a885 c0bb 5b1e 3fbc f01c 84bb
00000370: f591 00bb b445 4b3a 3c2c 18bc 6f3c 613c
00000380: 8f06 ccb9 105d e13b 6263 483c a7b5 3f3b
00000390: b7b5 463c c878 03bc b045 103b eba9 fe3b
000003a0: 2a9f 91ba 59d5 b13b 17a7 3ebc 423c 5d3c
000003b0: 56f0 86bb fb19 d3ba e5d4 7c3c 63ff c13a
000003c0: 7e4f abbb 5d26 6e3b 519a 113c 17b2 dfbb
000003d0: 565f 823b d18d 22bc 25cb e8bb 4fa2 523c
000003e0: 45ed d4b8 3122 113b c2f2 b3bc ee71 933b
000003f0: c0fa df3b 4d36 9cbb 9a42 84bb a7c1 cd3a

action_model._discrete_distribution.branches.0.bias f4 [2]
0.0 0.0
00000000: 0000 0000 0000 0000

action_model._discrete_distribution.branches.1.weight f4 [2, 128]
-0.017828625 -0.00042325398 -0.0070601352 0.01659783 0.0043798634 0.0044781347 -0.01365904 0.010370357
-0.0054265703 0.0128309475 -0.00635665 0.011728742 -0.004687445 -0.005538844 -0.01632198 -0.0034584217
0.015402329 0.0025549387 0.0011013193 0.011610163 -0.0024779995 0.00074183586 -0.0012743537 0.010991553
-0.0041898 0.009450896 0.00041652727 0.007013784 0.00509711 0.011905651 0.010735056 -0.0053129075
0.0026526973 0.010003473 0.0068468275 0.0033238796 0.009160756 0.0073044556 0.0038161587 0.002346251
0.0085034855 0.0019431908 0.015156293 0.0030590526 -0.010285341 -0.015217215 -0.0045068613 0.0077868784
-0.0077305594 -0.0106141865 0.007678253 0.017672934 0.009102065 -0.024401879 -0.0038415187 0.016877137
0.01326814 0.0008730855 0.0027005838 0.0170785 -0.005863867 -0.0009623384 0.018431542 0.012032349
0.005108748 -0.009096946 -0.0062924675 0.00012916817 -0.015258977 0.0024694293 0.0152199445 -0.0077783405
-0.006775508 0.004602924 0.008185142 0.019777551 0.01082145 -0.0016398473 -0.0024158084 -0.001462086
-0.005200789 -0.020875521 -0.006833824 0.0045842207 -0.0018103532 0.0069573536 -0.01179207 -0.008808937
0.008078312 -0.004825407 0.00092587335 -0.010994258 0.0056112865 0.009905563 0.010025572 -0.007845366
0.008279849 0.015719345 -0.013541094 -0.0018212935 -0.006073542 -0.0047223507 -0.011648606 0.0002770276
-0.012482892 0.010966099 0.0039402354 0.0200111 -0.0076297293 -0.003270492 0.0008587599 -0.0010900198
-0.00024488414 -0.013452395 -0.005592114 -0.00044652383 0.0012519486 0.001967568 -0.010230058 0.0044265743
-0.017605819 0.006406989 0.017559586 -0.008111652 -0.0006390055 0.0014118013 0.004419427 0.0007668661
-0.0054461854 0.0042467336 0.011261655 0.009357223 0.008122474 -0.00022185624 0.007985748 -0.0008362896
0.0041695214 0.009224947 -0.0060832626 0.0036037962 0.00043926146 -0.016489638 0.020520732 0.00468011
0.0082708765 -0.011264537 -0.007608795 -0.009373141 -0.0025918644 -0.008755561 -0.0035169774 0.001299323
0.0015052016 0.007756536 -0.016304066 -0.01933191 -0.011481608 -0.0010237739 2.3609446e-06 -0.0020170787
-0.0076274746 -0.008399787 -0.012699321 -0.00072155456 -0.0072154105 0.011213751 -0.002092319 0.0015680532
0.011326137 -0.016056607 0.00019058607 0.00019975453 0.0044370475 -0.0018089794 -0.0056144297 0.009427222
-0.01706083 0.00088370685 -0.009198466 -0.017038397 0.008418503 -0.024062995 0.015665775 0.010528691
0.0014145192 -0.0015540959 0.01729729 -0.0053734994 -0.0019992383 0.0046593593 -0.0011360365 0.0035693557
-0.0067459256 -0.00073142693 0.0018573726 -0.00035595646 -0.00018728344 0.0032612656 0.0023337451 -0.0037452062
-0.0077910447 0.014676879 -0.010572713 -0.013337587 0.007860891 0.0012335092 -0.01599977 0.0044958116
-0.00945563 0.0069665224 0.0031933915 0.0010021271 0.0103685 0.00059746986 0.014199405 0.0013944089
-0.016962828 0.0102417795 -0.0049596257 0.0092394985 0.014061751 -0.0067385077 0.015337794 0.010011363
0.0005202896 -0.0039702053 0.003085141 0.0057733674 -0.001386652 0.0013293528 -0.0021562083 -0.0006830693
0.009384757 0.001815576 0.0043829284 0.014899998 -0.008652141 -0.014871659 0.008809159 -0.009870943
0.007677559 0.001974491 -0.0034473387 -0.001822247 -0.00312997 0.010085242 -0.002005139 0.008261536
0.001237309 0.0026581108 -0.00034074948 0.002697095 -0.0036973085 0.004604995 0.00070026587 -0.0011551742
00000000: 560d 92bc 30e8 ddb9 b558 e7bb 2cf8 873c
00000010: f584 8f3b 51bd 923b 2bca 5fbc 6ee8 293c
00000020: 5fd1 b1bb e538 523c 724b d0bb e929 403c
00000030: 2399 99bb 317f b5bb acb5 85bc b0a6 62bb
00000040: 0d5a 7c3c c270 273b 255a 903a 8e38 3e3c
00000050: ef65 22bb c377 423a 3708 a7ba ea15 343c
00000060: 974a 89bb eed7 1a3c 5861 da39 e2d3 e53b
00000070: a805 a73b eb0f 433c 17e2 2f3c e617 aebb
00000080: e0d8 2d3b 9be5 233c 5a5b e03b 72d5 593b
00000090: ff16 163c 375a ef3b 8518 7a3b 8fc3 193b
000000a0: 3452 0b3c aab2 fe3a 1a52 783c 637a 483b
000000b0: d983 28bc a051 79bc 4bae 93bb 1229 ff3b
000000c0: a250 fdbb 20e7 2dbc db99 fb3b d4c6 903c
000000d0: d420 153c 73e6 c7bc fdc1 7bbb ec41 8a3c
000000e0: 9d62 593c c7df 643a 47fc 303b 36e8 8b3c
000000f0: ae25 c0bb 7045 7cba bffd 963c 5423 453c
00000100: 4967 a73b 5b0b 15bc 0b31 cebb 5171 0739
00000110: ca00 7abc 26d6 213b 135d 793c 73e1 febb
00000120: 1505 debb 20d4 963b f91a 063c 8804 a23c
00000130: 734c 313c 25f0 d6ba 8a52 1ebb 77a3 bfba
00000140: 616b aabb 2403 abbc 45ee dfbb 3b37 963b
00000150: 6049 edba 83fa e33b 8733 41bc 5c53 10bc
00000160: e55a 043c 731e 9ebb 4fb6 723a 4321 34bc
00000170: e2de b73b f14a 223c 4c42 243c da89 00bc
00000180: 34a8 073c dbc5 803c 77db 5dbc 78b8 eeba
00000190: 9004 c7bb f3bd 9abb cbd9 3ebc 043e 9139
000001a0: 0b85 4cbc 27ab 333c 171d 813b 52ee a33c
000001b0: cf02 fabb c055 56bb 671e 613a ffde 8eba
000001c0: cb63 80b9 6f67 5cbc 0d3e b7bb 6a1b eab9
000001d0: 6d18 a43a 50f2 003b f99b 27bc cc0c 913b
000001e0: 143a 90bc b8f1 d13b 1fd9 8f3c bce6 04bc
000001f0: ef82 27ba 310c b93a d7d0 903b 8307 493a
00000200: ea75 b2bb 2f28 8b3b ce82 383c 0a4f 193c
00000210: 2014 053c 15a2 68b9 a8d6 023c 723a 5bba
00000220: 7ba0 883b 3b24 173c 1b56 c7bb ab2d 6c3b
00000230: ad4c e639 4715 87bc 181b a83c 9c5b 993b
00000240: 9282 073c e58e 38bc 3353 f9bb ce91 19bc
00000250: 45dc 29bb 7c73 0fbc 177d 66bb 0c4e aa3a
00000260: 2f4a c53a 8a2a fe3b 1b90 85bc f45d 9ebc
00000270: 5b1d 3cbc 2730 86ba b870 1e36 f730 04bb
00000280: e5ef f9bb 439f 09bc d010 50bc b526 3dba
00000290: 406f ecbb e1b9 373c 4a1f 09bb 2287 cd3a
000002a0: 4391 393c 2589 83bc 0fd8 4739 3375 5139
000002b0: a764 913b 471b edba 40f9 b7bb a374 1a3c
000002c0: 27c3 8bbc 90a8 673a 2ab5 16bc 1c94 8bbc
000002d0: c3ed 093c c21f c5bc 8355 803c 8880 2c3c
000002e0: 6367 b93a ceb2 cbba 0cb3 8d3c 2e14 b0bb
000002f0: a705 03bb 8aad 983b 0fe7 94ba daeb 693b
00000300: ed0c ddbb 3bbd 3fba 1573 f33a ab9f bab9
00000310: 8461 44b9 f5ba 553b bff1 183b 2272 75bb
00000320: 054c ffbb 4b77 703c 2c39 2dbc e585 5abc
00000330: f7ca 003c b3ad a13a f311 83bc 9a51 933b
00000340: c9eb 1abc 6d47 e43b 3848 513b ce59 833a
00000350: a4e0 293c 869f 1c3a 9fa4 683c 99c4 b63a
00000360: a1f5 8abc 23cd 273c 5b84 a2bb 4461 173c
00000370: 4263 663c b3ce dcbb 5f4b 7b3c b306 243c
00000380: 0b64 083a 7f18 82bb 1430 4a3b 842e bd3b
00000390: 52c0 b5ba ae3d ae3a 2c4f 0dbb 0110 33ba
000003a0: 86c2 193c 9ff8 ed3a ab9e 8f3b 1f1f 743c
000003b0: b6c1 0dbc 42a8 73bc 4a54 103c bcb9 21bc
000003c0: 0894 fb3b 7666 013b bfec 61bb 77d8 eeba
000003d0: 2f20 4dbb 923c 253c a668 03bb 655b 073c
000003e0: 332d a23a b333 2e3b 9fa6 b2b9 bfc1 303b
000003f0: 8b4e 72bb 7fe5 963b 0c92 373a 3769 97ba

action_model._discrete_distribution.branches.2.weight f4 [2, 128]
-0.010110383 0.00013158562 -0.0029436278 0.0017465111 0.005192177 -0.009486253 -0.008207849 -0.0022323567
0.020209614 -0.001463622 0.008307383 0.0033108182 -0.006480386 -0.0044905883 0.0014774889 -0.012897882
-0.0027063661 0.012720873 -0.0025126063 0.0012160348 -0.012664017 -0.0018030963 0.0059087346 -0.007969377
-0.0050525237 0.010992675 0.002815876 0.0042040762 -0.009801365 -0.018168444 -0.0030364727 0.0036271361
0.012186406 0.0023106658 0.0014320256 0.011020529 0.0045356937 -0.0032500864 -0.00045071458 -0.028258463
-0.008585368 0.0002801101 -0.009990138 -0.014594592 0.0011772717 0.008040294 -0.0013931597 -0.0060401014
-0.009172506 -0.0047014 -0.0022995684 -0.008473976 0.0032679278 -0.020370217 0.008871823 -0.0013807883
-0.0015969254 0.003828837 -0.015850492 0.01730661 -0.004227135 0.00225428 -0.003558065 0.011692616
0.000972401 -0.002776331 0.00043879804 -0.0035448894 0.011684999 0.013392188 0.006341908 0.016497979
0.00026431467 -0.0068643885 0.0026932748 0.010516575 0.0013474849 0.005585176 0.008305119 0.0038976155
0.009090787 0.001990562 -0.002114552 0.003974846 0.001708713 0.0068018036 0.003308421 -0.003428772
-0.015627174 0.0039865463 -0.0056240666 0.0015392232 0.008177481 -0.02101816 -0.004511756 -0.0066908137
-0.0072757686 -0.015231808 0.008669087 0.007155673 -0.0047779325 -0.013041687 0.0040786895 -0.0053797695
0.0058869445 -0.0074807107 -0.005671642 0.00957661 0.004048792 0.0039325533 0.007786292 -0.001697644
-0.01483541 -0.011867239 -0.004303411 0.016878983 0.0047050407 0.0032733846 -0.012609518 9.41066e-05
0.005520306 0.013840832 -0.017101398 0.0019987926 -0.016183442 0.0006441625 -0.0077553885 0.012176085
-0.009116631 0.0068703606 0.012140919 0.005219687 0.012510525 0.00049676094 0.006663134 0.006755384
0.00364144 0.0009375726 0.001334745 -0.009285987 -0.0054981573 0.0060442397 -0.009275979 0.012369671
-0.0035152999 -0.0060219597 0.005455933 0.014340572 0.0041623553 0.019704415 0.011519159 0.01825108
0.012030616 -0.0049028476 -0.00057464745 0.0052900016 -0.008882273 -0.012491665 0.0036801037 0.0045551644
0.0012752682 0.0005280604 -0.0014631421 -0.013460959 -0.0009007455 0.014251267 -0.01883061 0.014934801
0.004062372 -0.0045230957 -0.0160709 -0.0019306904 0.0068034693 -0.0141892005 -0.005552474 -0.0039225337
-0.0050835456 -0.00051468675 0.0038023025 0.008768989 -0.0022493547 -0.004374058 -0.005639033 -0.0058069504
-0.0036451798 0.009378548 0.006704776 -0.0059095486 -0.0014839456 -0.009297333 0.007434518 0.008626248
0.009311438 -0.004979989 -0.010958391 0.00504112 -0.0148726 0.007160082 0.0033420583 0.008557964
0.002491854 -0.009869483 -0.022330996 -0.0051950007 0.0028763344 0.010412416 0.0005634615 0.0024011198
-0.0019539758 -0.0049883435 0.0069921273 -0.0051165153 0.014603061 0.012543552 0.006741746 -0.008107733
-0.0036565461 -0.003177808 -0.02301389 -0.007493734 0.0077883652 0.0058618593 0.0036435262 0.01056225
-0.012617013 0.004403524 -0.0029415176 -0.0058422904 0.0029437318 -0.012137268 0.010262816 0.016888304
0.0011873745 -0.0071306503 -0.006259553 -0.007082799 0.0014329905 -0.005262431 0.009764679 0.018173749
0.0048038997 -0.0108512025 0.0036256153 0.009582038 -0.0010709092 -0.0021057178 0.013918302 -0.022620982
0.0011502425 0.002483067 -0.008132806 0.0044103307 0.0056438157 0.017329063 -0.008976275 -0.0057630474
00000000: 05a6 25bc 3ffa 0939 e1e9 40bb 30eb e43a
00000010: 2323 aa3b 3b6c 1bbc 377a 06bc bb4c 12bb
00000020: a28e a53c 01d7 bfba b11b 083c 50fa 583b
00000030: 6b59 d4bb c925 93bb 4da8 c13a a351 53bc
00000040: 4a5d 31bb 356b 503c 8aaa 24bb 5b63 9f3a
00000050: bd7c 4fbc df55 ecba 0f9e c13b fd91 02bc
00000060: a48f a5bb 9f1a 343c 8f8a 383b 59c2 893b
00000070: e895 20bc fdd5 94bc 8fff 46bb 3fb5 6d3b
00000080: 7ea9 473c 8a6e 173b ceb2 bb3a 738f 343c
00000090: 28a0 943b 67ff 54bb e34d ecb9 4b7e e7bc
000000a0: a5a9 0cbc bedb 9239 adad 23bc 281e 6fbc
000000b0: af4e 9a3a 70bb 033c af9a b6ba 0bec c5bb
000000c0: 4748 16bc 340e 9abb 5bb4 16bb 6ed6 0abc
000000d0: bb2a 563b 71df a6bc 1f5b 113c 91fb b4ba
000000e0: ed4f d1ba 3aed 7a3b e4d8 81bc 97c6 8d3c
000000f0: c783 8abb 8bbc 133b 6d2e 69bb 6392 3f3c
00000100: bae8 7e3a 1bf3 35bb 7a0e e639 6051 68bb
00000110: 7072 3f3c e86a 5b3c c8cf cf3b c526 873c
00000120: b793 8a39 aaee e0bb a781 303b b64d 2c3c
00000130: 179e b03a da03 b73b 3212 083c 236f 7f3b
00000140: 86f1 143c 1774 023b 4c94 0abb 6d3f 823b
00000150: e5f6 df3a aae1 de3b 18d2 583b 40b5 60bb
00000160: 8f04 80bc 93a1 823b 174a b8bb c3bf c93a
00000170: d7fa 053c 472e acbc 5ad7 93bb 9d3e dbbb
00000180: 9269 eebb d58e 79bc c908 0e3c 237a ea3b
00000190: 3490 9cbb cdac 55bc 87a6 853b c748 b0bb
000001a0: 45e7 c03b c020 f5bb 2ed9 b9bb 37e7 1c3c
000001b0: bbab 843b a6dc 803b 2724 ff3b 7b83 deba
000001c0: 3810 73bc cf6e 42bc a103 8dbb cb45 8a3c
000001d0: be2c 9a3b 4886 563b 2798 4ebc 195b c538
000001e0: afe3 b43b a8c4 623c 3b18 8cbc 2dfe 023b
000001f0: 2393 84bc 03dd 283a ea20 febb 347e 473c
00000200: ec5d 15bc c320 e13b b5ea 463c e809 ab3b
00000210: f2f8 4c3c 1039 023a 6b56 da3b 455c dd3b
00000220: 3aa5 6e3b 6fc7 753a 9cf2 ae3a 4124 18bc
00000230: e329 b4bb c20e c63b 47fa 17bc 29aa 4a3c
00000240: f260 66bb dc53 c5bb afc7 b23b b8f4 6a3c
00000250: 5e64 883b 276b a13c dbba 3c3c 4a83 953c
00000260: 101c 453c 11a8 a0bb f0a3 16ba c057 ad3b
00000270: f486 11bc d7a9 4cbc e52d 713b 7d43 953b
00000280: e626 a73a 896d 0a3a e7c6 bfba 5b8b 5cbc
00000290: 0220 6cba 257e 693c a742 9abc 18b1 743c
000002a0: a51d 853b 7a36 94bb 1fa7 83bc 380f fdba
000002b0: a3ef de3b d279 68bc 87f1 b5bb 9988 80bb
000002c0: df93 a6bb 0bec 06ba 0d30 793b ceab 0f3c
000002d0: e969 13bb 4254 8fbb a3c7 b8bb 3b48 bebb
000002e0: f8e3 6ebb 7ba8 193c bdb3 db3b e3a4 c1bb
000002f0: f480 c2ba d753 18bc 429d f33b 1b55 0d3c
00000300: 008f 183c 2d2f a3bb d38a 33bc fb2f a53b
00000310: 35ac 73bc 1f9f ea3b 6f06 5b3b b436 0c3c
00000320: 5f4e 233b 9db3 21bc 7eef b6bc d33a aabb
00000330: e280 3c3b d798 2a3c 43b5 133a 1b5c 1d3b
00000340: 460e 00bb 4275 a3bb 371e e53b 71a8 a7bb
00000350: ad41 6f3c 7883 4d3c dde9 dc3b 4cd6 04bc
00000360: aaa2 6fbb c542 50bb a087 bcbc ff8d f5bb
00000370: 8b35 ff3b d714 c03b 3ac8 6e3b 4a0d 2d3c
00000380: 97b7 4ebc 704b 903b 7ac6 40bb af70 bfbb
00000390: a0eb 403b 64db 46bc 5f25 283c 5759 8a3c
000003a0: ada1 9b3a 3ba8 e9bb f01c cdbb d316 e8bb
000003b0: 2fd3 bb3a 7970 acbb 08fc 1f3c 1de1 943c
000003c0: 086a 9d3b 3ec9 31bc bb9b 6d3b fbfd 1c3c
000003d0: c05d 8cba 1500 0abb 9709 643c a34f b9bc
000003e0: bcc3 963a f4ba 223b 763f 05bc 8984 903b
000003f0: c2ef b83b aef5 8d3c 3a11 13bc f2d7 bcbb

action_model._discrete_distribution.branches.3.weight f4 [2, 128]
0.008313963 -0.010154635 0.0039641433 0.014699754 0.0069882493 0.007013663 -0.020054933 -0.0009812238
0.013204003 0.0067891264 0.014668874 -0.012742782 0.0002562839 0.0017240951 -0.027984977 0.0012243392
-0.009367443 0.020356344 0.011403169 0.002081636 0.00054398895 -0.010313517 0.007294727 -0.00993671
0.013304884 -0.0022694578 0.0021168606 -0.019241998 0.0012353844 -0.009636194 0.019794783 -0.02053565
0.010376941 -0.0027072595 -0.008166665 -0.006069359 -0.008695952 0.0076405816 0.0032740028 -0.004319048
-0.0059024873 -0.0038716232 -0.0039419103 0.009864563 0.007908244 -0.004542244 0.026769424 0.01830659
0.0012820682 -0.0033142602 0.0017602803 -0.0005610656 -0.0022897706 -0.0057561225 0.005050008 -0.004172322
0.004015972 0.00053507567 -0.012133687 -0.008750413 0.0041840947 0.018049102 -0.004633148 0.0042166803
-0.005091235 -0.002676923 0.0020018779 -0.010568134 0.0030110383 0.012146797 0.008967832 0.00908399
0.0026627784 -0.004105827 0.0068361945 -0.010559346 -0.0025474124 0.01147926 -0.0054283864 -0.0022949448
0.0027261083 -0.00045194794 -0.013562015 -0.0042572008 0.0024499947 0.0046091327 0.003980515 -0.009753919
0.0029864495 0.01960524 -0.0030151126 0.014199965 0.01744339 -0.0018769427 0.0037891313 -0.00025769765
-0.0013526005 0.015156912 -0.029518886 -0.011923584 -0.0068682022 -0.0071942806 0.0069484883 -0.01126965
-0.000102297476 -0.011330507 -0.015298451 -0.0050168126 0.009384683 0.00060102955 0.0059686955 -0.010991022
-0.004349102 0.004454345 -0.00042983724 0.0012708794 0.02260515 -0.00539882 -0.0048977677 -0.0126447845
-0.0011387144 0.0055030747 -0.008504246 -0.02192522 0.010850405 -0.012231278 -0.0030973055 0.006499141
0.008583155 -0.012455101 0.009471305 0.0014656871 0.009024172 0.0067117955 0.004354562 0.014513435
0.017157735 0.003343196 0.0028575636 0.0012839634 -0.007782007 -0.0048978706 0.008272706 0.004007258
-0.007568249 0.00705773 -0.0046649566 0.008763782 0.011873762 0.0014867799 -0.009547426 -0.010097562
-0.0055487766 0.004920485 0.019600391 -0.0012599735 -0.0031802997 0.00038543373 -0.005727953 -0.008431627
0.0037298247 -0.005435373 0.000803014 -0.014182366 0.0009907674 -0.019178754 0.0046520494 -0.0021631399
-0.0011455164 0.011751347 -0.004213441 -0.008251419 -0.006209912 0.013146413 0.0023456863 -0.005810469
0.008277633 -0.009428474 0.0020605272 0.0147085935 0.013372473 -0.0047309804 -0.0077157984 -0.0020377326
-0.021264222 0.0010313801 -0.0073110396 -0.0016446313 -0.0072223055 -0.0016677311 0.006865135 0.006483362
0.0002387386 0.001726658 -0.004936823 0.0048402767 0.008333134 -0.009612032 0.00794999 0.011620066
-0.0014763818 0.009436106 -0.004946344 -0.011351169 0.00822119 -0.006570554 0.010102506 -0.0023597803
-0.0022293113 0.0006996039 0.0066058873 -0.007618499 0.0050933254 0.009240073 0.004251329 -0.005553809
-0.0004339166 -0.012818298 0.000113221584 -0.0042394856 0.003704764 -0.0033346757 0.004840362 0.0065970975
-0.0064184964 0.006121725 0.00034153296 0.0045785513 0.012485591 0.00089259207 0.010639704 -0.013238991
-0.0070409947 0.011105177 0.012115939 -0.02035868 -0.0028466845 -0.0014934324 0.004479615 -0.003787011
0.00045434464 0.0026544402 0.0021404836 -0.00039284365 0.0045839357 -0.011208463 -0.013728778 0.01860583
0.00967094 0.0022314219 0.0030850198 0.0013951844 0.008328463 -0.0026755512 -0.018779725 0.0039280383
00000000: 4a37 083c a05f 26bc a5e5 813b 3dd7 703c
00000010: affd e43b dfd2 e53b 3e4a a4bc 689c 80ba
00000020: 9a55 583c 5277 de3b b855 703c 1ac7 50bc
00000030: d85d 8639 08fb e13a c040 e5bc 027a a03a
00000040: e779 19bc 59c2 a63c 5bd4 3a3c 0f6c 083b
00000050: 7b9a 0e3a 07fa 28bc 9b08 ef3b 95cd 22bc
00000060: bafc 593c 2fbb 14bb 07bb 0a3b 65a1 9dbc
00000070: 9fec a13a 21e1 1dbc ab28 a23c 613a a8bc
00000080: 0c04 2a3c 476c 31bb 7acd 05bc 79e1 c6bb
00000090: 7779 0ebc d85d fa3b a790 563b cd86 8dbb
000000a0: a769 c1bb 0fbb 7dbb 242b 81bb fa9e 213c
000000b0: 9491 013c 1bd7 94bb 8d4b db3c b4f7 953c
000000c0: 120b a83a 0f34 59bb 35b9 e63a 7a14 13ba
000000d0: fa0f 16bb db9d bcbb 8a7a a53b f9b7 88bb
000000e0: 6a98 833b 5244 0c3a 5fcc 46bc e45d 0fbc
000000f0: bb1a 893b b6db 933c aad1 97bb 142c 8a3b
00000100: 60d4 a6bb 516f 2fbb f031 033b f725 2dbc
00000110: d754 453b 5c03 473c d0ed 123c 04d5 143c
00000120: 0282 2e3b 2c8a 86bb 2802 e03b 1b01 2dbc
00000130: 7df2 26bb 8213 3c3c 9be0 b1bb c966 16bb
00000140: 82a8 323b 6df3 ecb9 3733 5ebc fd7f 8bbb
00000150: 1790 203b 3508 973b fb6e 823b e7ce 1fbc
00000160: 4fb8 433b 2b9b a03c 3299 45bb f8a6 683c
00000170: 71e5 8e3c bf03 f6ba 1353 783b 981b 87b9
00000180: be49 b1ba b254 783c 97d1 f1bc 235b 43bc
00000190: a80e e1bb 00be ebbb 25b0 e33b 57a4 38bc
000001a0: 8a88 d6b8 97a3 39bc 5ba6 7abc 1364 a4bb
000001b0: 37c2 193c 698e 1d3a 0c95 c33b b013 34bc
000001c0: e982 8ebb c1f5 913b c75b e1b9 a393 a63a
000001d0: 6f2e b93c 96e8 b0bb 747d a0bb 122c 4fbc
000001e0: ea40 95ba 2353 b43b 6555 0bbc 859c b3bc
000001f0: e6c5 313c b365 48bc 2afc 4abb bff6 d43b
00000200: 5da0 0c3c 7b10 4cbc 882d 1b3c 4c1c c03a
00000210: 1fda 133c 9fee db3b b7b0 8e3b c2c9 6d3c
00000220: 618e 8c3c 8519 5b3b f645 3b3b aa4a a83a
00000230: 3500 ffbb 517e a0bb 3e8a 073c 514f 833b
00000240: 13ff f7bb 8844 e73b 7edc 98bb f795 0f3c
00000250: 2b8a 423c 0ee0 c23a cf6c 1cbc 3f70 25bc
00000260: 83d2 b5bb 053c a13b 0091 a03c b225 a5ba
00000270: 936c 50bb 0a14 ca39 8db1 bbbb cf24 0abc
00000280: 1370 743b 371b b2bb 5b81 523a 285d 68bc
00000290: a3dc 813a c31c 9dbc 3870 983b 77c3 0dbb
000002a0: 2725 96ba b988 403c e810 8abb f630 07bc
000002b0: 847c cbbb 0d64 573c 16ba 193b bf65 bebb
000002c0: e99e 073c e379 1abc e909 073b 50fc 703c
000002d0: 3818 5b3c 5706 9bbb cfd4 fcbb 7b8b 05bb
000002e0: 4e32 aebc 602f 873a 7291 efbb ab90 d7ba
000002f0: 17a9 ecbb c597 daba edf4 e03b 6272 d43b
00000300: e855 7a39 0751 e23a 13c5 a1bb 2f9b 9e3b
00000310: b387 083c c97b 1dbc ad40 023c 1762 3e3c
00000320: 2783 c1ba e699 1a3c f114 a2bb 41fa 39bc
00000330: 2cb2 063c cd4d d7bb fb84 253c 8ba6 1abb
00000340: a319 12bb 9f65 373a 3376 d83b 9aa4 f9bb
00000350: e9e5 a63b ad63 173c bc4e 8b3b bafc b5bb
00000360: 4d7f e3b9 d703 52bc 6071 ed38 62eb 8abb
00000370: a0cb 723b 938a 5abb e69b 9e3b 772c d83b
00000380: 4052 d2bb c098 c83b c70f b339 ac07 963b
00000390: 5d90 4c3c d7fc 693a 2752 2e3c 5ae8 58bc
000003a0: 25b8 e6bb 7df2 353c ee81 463c 3fc7 a6bc
000003b0: 718f 3abb 47bf c3ba bcc9 923b 802f 78bb
000003c0: 1b35 ee39 1ef6 2d3b 5b47 0c3b 95f6 cdb9
000003d0: d734 963b b4a3 37bc abee 60bc 416b 983c
000003e0: dd72 1e3c 0c3d 123b 0b2e 4a3b 9fde b63a
000003f0: 1b74 083c 4d58 2fbb f0d7 99bc c6b6 803b

onnx::Div_100 f4 [11]
14.0179825 15.072848 13.856394 12.341097 5.416004 1.8407189 0.50553256 0.49973318
0.5061352 0.5051933 0.07856742
00000000: a849 6041 632a 7141 cab3 5d41 2275 4541
00000010: e84f ad40 ad9c eb3f 956a 013f 07dd ff3e
00000020: 1492 013f 5954 013f f5e7 a03d
