Assets/results/day4_0748/TrafficLightBrain/TrafficLightBrain-289986.onnx (onnx, 403823 bytes, 21 tensors)

discrete_act_size_vector f4 [1, 8]
0	0x40000000	2.0
1	0x40000000	2.0
2	0x40000000	2.0
3	0x40000000	2.0
4	0x40000000	2.0
5	0x40000000	2.0
6	0x40000000	2.0
7	0x40000000	2.0

network_body._body_endoder.seq_layers.0.weight f4 [256, 100]
0	0xbde297ff	-0.11064147
1	0x3c8c5fe7	0.017135574
2	0x3d892a16	0.066974804
3	0x3da04744	0.07826093
4	0x3e8d70ca	0.27625114
5	0x3e5a9a91	0.21348025
6	0x3d1a310c	0.03764443
7	0x3d88bdf3	0.06676855
8	0x3e0112ca	0.12604824
9	0xbdc82587	-0.09772783
10	0x3dea3cb0	0.114373565
11	0x3e20911f	0.1568036
12	0xbda3887f	-0.07985019
13	0x3c87ed10	0.016592532
14	0xbdb05665	-0.086102284
15	0x3d44b3eb	0.048023146
16	0xbd29cc20	-0.041454434
17	0xbb4480cc	-0.0029983995
18	0xbd0594a1	-0.032612447
19	0x3d5edb9a	0.054408647
20	0xbca5c9fb	-0.020237913
21	0x3dc5d56b	0.09659847
22	0x3e24a1b7	0.16077314
23	0xbd5715b0	-0.052510917
24	0x3ddb70ad	0.107148506
25	0xbe95c648	-0.2925284
26	0x3e097947	0.1342517
27	0xbd7ddae2	-0.06197632
28	0x3bd6e426	0.006557959
29	0x3ca8f037	0.020622356
30	0xbcb43fa0	-0.022002995
31	0x3d09e015	0.033660967
32	0x3e4e3d07	0.20140468
33	0x3d07c96d	0.03315108
34	0xbdb0c9cb	-0.08632239
35	0xbe16d9e7	-0.1473156
36	0x3c09ec91	0.008418218
37	0x3d0d37d4	0.03447707
38	0x3ded7d05	0.11596111
39	0x3ce5b753	0.028041517
40	0x3d928809	0.07154853
41	0x3cf84948	0.03030838
42	0xbe06586d	-0.1311967
43	0xbdc0d433	-0.09415474
44	0x3d1857e7	0.037193205
45	0xbd6f64cf	-0.058445748
46	0x3dd5d8da	0.10441752
47	0x3d97ea56	0.07417743
48	0xbdb16cb3	-0.08663311
49	0xbd1c7b0b	-0.03820328
50	0xbc291652	-0.010320263
51	0x3dc7e497	0.09760397
52	0xbdbe4e50	-0.09292281
53	0xbc40865c	-0.011750784
54	0xbc5fde38	-0.013663821
55	0xbc86642e	-0.016405191
56	0xbdeb7217	-0.1149637
57	0xbd62d3ba	-0.0553777
58	0xbe9010b9	-0.28137758
59	0xbdfea967	-0.12434655
60	0x3d19bf9c	0.03753625
61	0xbdd38f7f	-0.10330104
62	0x3c86216b	0.016373357
63	0x3d4ee67b	0.050512772
64	0x3deba86f	0.115067355
65	0x3e0a6579	0.13515271
66	0x3d84c612	0.064830914
67	0xbe144f17	-0.14483295
68	0x3d88f652	0.06687607
69	0x3d464527	0.048405793
70	0x3caaffc0	0.020873904
71	0xbd794a70	-0.060862005
72	0xbd9405ca	-0.07227667
73	0xbdd4bc8d	-0.10387526
74	0x3cc8cd56	0.024511974
75	0xbd755f9f	-0.059905645
76	0xbe33f1de	-0.17572734
77	0xbbca6041	-0.006176025
78	0x3cb220fc	0.021744244
79	0x3d8adeb7	0.06780761
80	0xbdfd69e5	-0.123737134
81	0x3d910d15	0.07082573
82	0xbcd9f213	-0.026604688
83	0xbd7d3a9f	-0.061823484
84	0x3dba37ed	0.09092698
85	0x3e07d3d8	0.13264406
86	0x3e36707b	0.17816345
87	0xbd8bd6cb	-0.06828078
88	0xbd05fdc8	-0.032712728
89	0x3de12c42	0.1099477
90	0xbe700d37	-0.23442541
91	0x3e1deec4	0.15423113
92	0xbd4e7eb5	-0.050413806
93	0x3d5d6cca	0.054058827
94	0x3e1ebd97	0.1550201
95	0xbd14b88a	-0.036308803
96	0xbe449ee8	-0.19201243
97	0x3c0bf826	0.00854305
98	0xbe67a178	-0.22620189
99	0xbdb3f7ae	-0.087874755
100	0xbe80846c	-0.2510103
101	0x3e1f8db2	0.15581396
102	0x3d1890e7	0.037247565
103	0xbd62344a	-0.055225648
104	0xbd364416	-0.044498526
105	0x3d8375aa	0.06418927
106	0x3db5bad6	0.08873527
107	0xbcdfa0ef	-0.027298419
108	0xbcd76d73	-0.026297307
109	0x3d9b4cbb	0.075829946
110	0x3e40c398	0.18824613
111	0x3d5c83ac	0.05383651
112	0xbd0c3951	-0.03423435
113	0x3cb8cb28	0.02255781
114	0xbdfbd995	-0.1229736
115	0x3d55f9c9	0.052240167
116	0xbe6f8296	-0.23389658
117	0xbe5bf67c	-0.21480745
118	0x3d8d19f0	0.06889713
119	0xba23317a	-0.0006225329
120	0x3d72cdec	0.059278414
121	0x3dad6d2a	0.08468087
122	0x3ccdef64	0.025138564
123	0x3d1c8d06	0.038220428
124	0xbd16f31c	-0.03685294
125	0xbc53b99c	-0.012922671
126	0xbd09d775	-0.03365274
127	0xbceaccaa	-0.028662045
128	0x3d1cbb6f	0.038264688
129	0x3d98c98b	0.07460316
130	0xbde00cc7	-0.10939937
131	0x3bd71887	0.006564203
132	0xbdae68ea	-0.085161045
133	0x3df13488	0.11777598
134	0xbdd5afa5	-0.10433892
135	0xbd2cf173	-0.04222245
136	0xbce3fa58	-0.027829334
137	0xbcc9ca5f	-0.02463263
138	0x3dae85f7	0.085216455
139	0xbdc8ad1f	-0.09798645
140	0xbdb76355	-0.08954493
141	0xbd7a0bf5	-0.06104656
142	0xbe3470da	-0.17621174
143	0xbe03a607	-0.12856303
144	0x3c94f7cf	0.01818457
145	0xbd9d7749	-0.076887675
146	0x3cf00635	0.029299835
147	0xbd2a6e65	-0.041609187
148	0x3cf482b2	0.029847477
149	0xbcb661a7	-0.022263361
150	0xbdd4beb8	-0.10387939
151	0xbba53ecb	-0.005042886
152	0x3cc5157f	0.024058102
153	0x3d6b8ffb	0.057510357
154	0x3cd1ad23	0.025595253
155	0x3c6c8fc5	0.014438574
156	0xbcc1be8f	-0.023650436
157	0xbd690c2f	-0.056896385
158	0xbc31feea	-0.010863999
159	0xbd35db9f	-0.0443989
160	0x3d73d6ea	0.05953113
161	0x3dc0b839	0.09410138
162	0xbdc5035c	-0.096197814
163	0xbdaf6ac3	-0.08565285
164	0x3da78b8f	0.081809156
165	0xbe228452	-0.15870789
166	0xbe22b6c6	-0.15890035
167	0x3cdcc588	0.026949659
168	0x3d905863	0.070481084
169	0x3be6d91a	0.0070449235
170	0xbd89fbe8	-0.067375004
171	0xbdf6bb83	-0.12047484
172	0x3d36d8a4	0.0446402
173	0x3d7db105	0.061936397
174	0xbcf4a490	-0.029863626
175	0xbd71754f	-0.058949765
176	0xbdca4dca	-0.09878118
177	0xbe3d5050	-0.18487668
178	0xbde7d6ab	-0.113202415
179	0xbd208fb2	-0.03919954
180	0x3cc40a56	0.02393071
181	0xbd8d5e7d	-0.06902788
182	0xbe47d77d	-0.19515796
183	0x3c0768fb	0.008264775
184	0x3d08a9df	0.033365127
185	0xbc6d7497	-0.014493129
186	0x3ba02de1	0.0048882817
187	0xbcbf6250	-0.023362309
188	0xbe7feee0	-0.24993467
189	0x3d26bb71	0.0407061
190	0x3adcd763	0.0016848858
191	0x3d7ca3cd	0.06167965
192	0xbc021e2f	-0.007941767
193	0xbe144351	-0.14478804
194	0xbde87583	-0.113505386
195	0xbcbf78ed	-0.023373092
196	0xbd321c7f	-0.043484207
197	0x3d60ccc3	0.054882776
198	0xbdfa2dbb	-0.12215754
199	0x3e3b0973	0.18265323
200	0x3d08616f	0.033296045
201	0xbd1d7a8f	-0.03844696
202	0x3e2dfa4e	0.16990015
203	0x3d8dab44	0.06917432
204	0xbe5829cf	-0.21109699
205	0x3d94421e	0.07239173
206	0xbe333d3d	-0.1750383
207	0xbd957c21	-0.07299066
208	0x3dca3198	0.098727405
209	0xbdec83cd	-0.115485765
210	0xbe62255e	-0.22084567
211	0x3c14dfe1	0.00908658
212	0xbdcf8762	-0.10133244
213	0x3e55cfe7	0.2088009
214	0xbe4852c0	-0.19562817
215	0xbd24beac	-0.0402209
216	0x3d45862d	0.048223663
217	0x3d10489e	0.035225503
218	0xbe05673c	-0.13027662
219	0x3cef7343	0.029229766
220	0xbc76fd4a	-0.015075037
221	0xbea983e6	-0.33108443
222	0xbcc7e77d	-0.024402374
223	0x3c2e955a	0.010655725
224	0xbe067bbf	-0.13133143
225	0xbdca3840	-0.0987401
226	0x3ce0082d	0.027347649
227	0xbe039738	-0.12850654
228	0xbd12edd4	-0.03587134
229	0x3e2743c4	0.16334444
230	0xbdf802e5	-0.12109927
231	0x3d6fc2ba	0.058535315
232	0x3d8003ff	0.06250762
233	0x3cde6687	0.027148498
234	0xbc7f2078	-0.015571706
235	0xbcd2807f	-0.025696037
236	0xbe4c29b6	-0.19937786
237	0xbdce4132	-0.10071029
238	0xbdc5527f	-0.096348755
239	0xbd26e3da	-0.04074464
240	0x3bc40ca9	0.0059829545
241	0xbc764a07	-0.015032298
242	0xbc7e1160	-0.015507072
243	0x3d5184a2	0.05115188
244	0x3d0893b7	0.033343997
245	0xbd532443	-0.051548254
246	0x3d5590af	0.052139934
247	0x3e118936	0.14212498
248	0x3e0c5205	0.13703163
249	0xbdb3aa99	-0.08772773
250	0x3cbbdf39	0.02293359
251	0x3d766890	0.060158312
252	0x3d3c819c	0.046022043
253	0x3e094d4e	0.13408396
254	0x3af3f7eb	0.0018613314
255	0x3b2ad87d	0.0026068978

network_body._body_endoder.seq_layers.0.bias f4 [256]
0	0xbc510cec	-0.0127594285
1	0x3c3adb51	0.011404828
2	0xbd1755cb	-0.036947053
3	0x3d345a6e	0.044031553
4	0xb98a5603	-0.00026385495
5	0x3c85eb1b	0.016347459
6	0x3bd33342	0.0064453194
7	0x3d5f6ff6	0.054550134
8	0xbb8bb08b	-0.004262989
9	0x3c77cb7d	0.015124199
10	0xbd2ac51a	-0.041691877
11	0xbd405309	-0.04695419
12	0x3a955f02	0.0011396112
13	0x3cfa57aa	0.03055938
14	0xbd16fa0f	-0.03685957
15	0x3b2c039e	0.0026247273
16	0xbc10fd3d	-0.008849439
17	0xbc8aa326	-0.016923498
18	0x3d7a77e5	0.061149497
19	0xbc840468	-0.016115382
20	0x3b5d2869	0.003374601
21	0xbca9bc38	-0.020719633
22	0xbb201abd	-0.002443
23	0xb710e6c2	-8.636796e-06
24	0xbbf3ce0f	-0.0074403356
25	0x3adc4c04	0.0016807322
26	0x3cc8ac49	0.024496214
27	0x3cadecec	0.021231137
28	0x3d6c3c03	0.05767442
29	0xbcb2bdbd	-0.02181899
30	0xbd28db89	-0.04122499
31	0x3a7bc16c	0.0009603712
32	0xbce075b3	-0.027399873
33	0x3b698bdf	0.0035636348
34	0xbd1bc903	-0.038033497
35	0xbd0de37a	-0.034640767
36	0x3d3017fb	0.04299162
37	0x3d62dd90	0.05538708
38	0xbca62db4	-0.020285465
39	0x3c6f1f44	0.014594857
40	0x3d0ef23b	0.034898978
41	0xbab6355c	-0.00139014
42	0xbc5af97c	-0.013365146
43	0xbcae1a9b	-0.02125292
44	0xbc39f9be	-0.011351047
45	0xbc002ae9	-0.007822731
46	0xbd30185f	-0.042991992
47	0x3bdf1524	0.00680794
48	0xbd07f400	-0.03319168
49	0x3c0b4591	0.008500473
50	0xbd5f5036	-0.054519854
51	0x3c8e5d60	0.017378509
52	0x3cd2ba66	0.025723647
53	0xbc82c749	-0.015964167
54	0x3c9f55c8	0.019450083
55	0x3d37d26f	0.04487842
56	0x3c026ab3	0.007960009
57	0x3cdc6887	0.026905311
58	0x3d514d22	0.05109895
59	0xbc1433ca	-0.009045551
60	0xbccb0ee0	-0.024787366
61	0x3c294ebd	0.010333714
62	0x3d35b282	0.04435969
63	0xbc4ff3b9	-0.012692385
64	0x3c252625	0.010079895
65	0xbbb124f1	-0.005406015
66	0x3d23ee45	0.040022153
67	0x3d792657	0.06082758
68	0x3b6c8c20	0.0036094263
69	0xbc03b075	-0.008037676
70	0xbab4cc77	-0.0013793845
71	0x3baaa067	0.0052071097
72	0xbc7ebc6c	-0.015547853
73	0xbd1b7b35	-0.037959296
74	0x3cd175d9	0.02556889
75	0xbd150686	-0.036383174
76	0x3d3ecee7	0.046584036
77	0x3c9a38d0	0.018825918
78	0x3d4342d8	0.04767117
79	0x3cd834be	0.026392337
80	0x3c987936	0.018612485
81	0xbd2a7262	-0.04161299
82	0xbb17fecd	-0.0023192645
83	0x3c89aa65	0.016804883
84	0xbc92be46	-0.017912995
85	0xbbb5287b	-0.0055285073
86	0x3bf43928	0.0074531026
87	0x3c534d3b	0.012896831
88	0xbca591bd	-0.020211095
89	0xbd4168c6	-0.04721906
90	0xbd3b4647	-0.04572132
91	0xbcf6ac02	-0.030111317
92	0x3d1075e0	0.035268664
93	0x3cbdc29a	0.023164082
94	0x3c642e64	0.013927076
95	0x393f6548	0.0001825291
96	0x3dab67e6	0.083694264
97	0x3ab14881	0.0013525636
98	0xbcfc45c3	-0.030794984
99	0xbd5757a7	-0.052573826
100	0x3c44f985	0.012022381
101	0x3cb6641d	0.022264535
102	0x3d23f34e	0.040026955
103	0x3cd8f4c5	0.026483903
104	0x3c3f7b67	0.011687136
105	0xbcd9c085	-0.026581058
106	0x3d22bfa1	0.039733533
107	0x3c87c394	0.016572751
108	0x3d1a9dc9	0.037748132
109	0x3d523fb3	0.05133028
110	0x3c8cb176	0.017174464
111	0x3c983a2d	0.018582428
112	0x3d3b3512	0.04570491
113	0x3c8c62c5	0.01713694
114	0xbcff40fd	-0.031158919
115	0xbd139728	-0.036032826
116	0x3d3dac7d	0.046307076
117	0xbc28708a	-0.010280738
118	0x3b9b22db	0.0047343797
119	0xbca4dec1	-0.020125749
120	0xbc80c5b6	-0.015719276
121	0x3c1ecef7	0.009692899
122	0x39c128c3	0.00036842198
123	0xbcdba52f	-0.026812164
124	0x3ce61ca3	0.028089827
125	0xbc472699	-0.0121551985
126	0xbd1502fb	-0.036379796
127	0xbd26203d	-0.04055809
128	0x3c50b5fc	0.012738701
129	0xbd16b69b	-0.03679524
130	0xbc24fae3	-0.010069582
131	0xbcc86818	-0.024463698
132	0x3cd39669	0.025828557
133	0x3bbd660c	0.005779987
134	0x3caa934a	0.020822186
135	0xbcd5ec0d	-0.026113534
136	0xbbe04d1b	-0.006845129
137	0x3c9162e6	0.017747354
138	0x3b203cae	0.002445023
139	0x3d49742d	0.04918306
140	0xbd35d639	-0.04439375
141	0xbc601aad	-0.013678235
142	0x3ce6f08b	0.028190872
143	0x3c7b210d	0.015327704
144	0x3c655e62	0.013999553
145	0xbcc0957f	-0.023508785
146	0x3c5719db	0.013128723
147	0xbbe7456c	-0.0070578363
148	0x3c058e97	0.008151672
149	0x3c30b4bc	0.010785278
150	0xbcfa8207	-0.03057958
151	0xbc8e6dc5	-0.017386327
152	0x3c5eab65	0.013590668
153	0x3ca95f67	0.020675374
154	0xbca2ddf6	-0.01988123
155	0x3c03d269	0.008045771
156	0x3c744e47	0.014911241
157	0xbbdec436	-0.0067982925
158	0xbbb94a7d	-0.0056546316
159	0xbd35f927	-0.044427063
160	0xbcd130ab	-0.025535902
161	0x3d2b7f8e	0.041869693
162	0x3c1fc229	0.009750881
163	0xbb229467	-0.0024807693
164	0x3acaafdc	0.0015463787
165	0x3ce81358	0.028329536
166	0xba8c9a2a	-0.0010727097
167	0xbba8b387	-0.0051483545
168	0xbd108ab5	-0.03528853
169	0xbd10575d	-0.035239566
170	0xbbb61972	-0.0055572325
171	0x3d3fc825	0.046821732
172	0xbd282d22	-0.041058667
173	0xbd0dc9f7	-0.034616437
174	0xbc145b4b	-0.009054969
175	0xbbdeb3ac	-0.006796321
176	0x3be9ec32	0.0071387524
177	0x3d75789b	0.05992947
178	0x3be682bb	0.0070346273
179	0xbbd88c93	-0.0066085546
180	0x3cbebb46	0.023282658
181	0xbc3ae188	-0.01140631
182	0x3c767c24	0.015044246
183	0x3c75edf0	0.015010342
184	0xbd16816f	-0.03674453
185	0x3c4321e6	0.0119099375
186	0x3d36a5d3	0.044591736
187	0x3d04292a	0.03226582
188	0x3cd001da	0.025391508
189	0x3ad37d58	0.0016135378
190	0x3c35a6b6	0.01108711
191	0x3adb18bb	0.0016715744
192	0x3cb7d776	0.022441607
193	0xbcaab35c	-0.020837478
194	0x3b2be9cd	0.0026231885
195	0x3d2ddb91	0.042445723
196	0xbbe89785	-0.0070981407
197	0x3d3eba6e	0.046564512
198	0x3ccd2c3a	0.025045503
199	0xbd170f6e	-0.03687995
200	0xbbc2fee3	-0.005950795
201	0x3ce58f6b	0.028022489
202	0xbb2ddf01	-0.0026530626
203	0x3cf9167b	0.030406227
204	0x3c8ff8b0	0.017574638
205	0xbc41690e	-0.011804832
206	0xbc30ba07	-0.01078654
207	0xbc0d4465	-0.008622264
208	0x3c42e31a	0.011894966
209	0xbc77316a	-0.015087465
210	0x3ce13630	0.027491659
211	0xbbcdde0e	-0.0062825745
212	0x3d2fd709	0.042929683
213	0xbc5fcc9b	-0.013659622
214	0x3b3e4d29	0.002903769
215	0xbbd32609	-0.006443743
216	0x3d0774d7	0.03307041
217	0xbc6f284c	-0.01459701
218	0x3c864797	0.016391559
219	0x3d0e8b47	0.034800794
220	0x3d456c8e	0.04819923
221	0x3d0ab2c0	0.033861876
222	0x3ca23953	0.019802725
223	0x3cd0f86b	0.02550908
224	0xbccc873c	-0.024966829
225	0x3c3948a8	0.0113088265
226	0x3da72a93	0.08162417
227	0xbd297bc0	-0.041377783
228	0xbbc4332c	-0.0059875455
229	0x3c8ffc9d	0.01757651
230	0x3c657ebb	0.014007266
231	0x3bf67283	0.007520975
232	0xbc94ed8a	-0.018179674
233	0xbd20fb49	-0.039302144
234	0xbd048f29	-0.03236309
235	0x3a278597	0.0006390451
236	0x3cb7da43	0.022442942
237	0xbce62e68	-0.0280983
238	0x3dabab2f	0.0838226
239	0x3d0fc2cd	0.035097886
240	0x3c2d62f8	0.010582678
241	0xbcce2059	-0.025161909
242	0x3cb315dc	0.02186101
243	0x3d3a1871	0.045433465
244	0x3d2387a9	0.039924297
245	0x3d3e741c	0.04649745
246	0x3c883bd7	0.016630096
247	0xbceda1b5	-0.029007772
248	0x3bfd31a5	0.0077268654
249	0x3d1a212b	0.037629288
250	0x3d2b74da	0.041859485
251	0xbcaa3ea1	-0.020781817
252	0x3d9e1c5d	0.077202536
253	0x3c4c8750	0.012483433
254	0xbccb257a	-0.024798144
255	0xbc0a593a	-0.008444125

network_body._body_endoder.seq_layers.2.weight f4 [256, 256]
0	0xbc2dce83	-0.010608318
1	0x3d395b92	0.045253344
2	0xbd837800	-0.064193726
3	0x3d3e7dee	0.046506815
4	0xbade821e	-0.0016976034
5	0xbd369829	-0.044578705
6	0xbba8319f	-0.0051328684
7	0x3e1a4dd4	0.15068752
8	0x3d1da221	0.038484696
9	0xbddb024c	-0.106937975
10	0xbe033de7	-0.12816583
11	0x3d9b63e1	0.0758741
12	0xbcc62f73	-0.024192547
13	0xbd7d308e	-0.061813883
14	0xbcba7f00	-0.022765636
15	0xbd9da628	-0.076977074
16	0xbc330e72	-0.010928737
17	0x3e01a19b	0.12659304
18	0xbc6e5812	-0.014547365
19	0xbdae120d	-0.08499537
20	0xbddb2684	-0.10700706
21	0x3b58ea44	0.0033098618
22	0x3d99ee50	0.075161576
23	0xbd31a00e	-0.04336553
24	0xbde9ea3c	-0.1142163
25	0x3d50f338	0.0510132
26	0xbbcb9539	-0.006212857
27	0xbbf823fe	-0.00757265
28	0x3d529303	0.051409733
29	0x3c1bd212	0.009510534
30	0xbc898ee2	-0.016791765
31	0x3c9a0e71	0.018805714
32	0xbd06916c	-0.03285353
33	0xbc605bd1	-0.013693766
34	0xbc8d557f	-0.017252682
35	0x3d2c44f6	0.042057954
36	0xbd88d9f9	-0.066822
37	0x3b3d84b3	0.0028918206
38	0x3d0005e8	0.031255633
39	0x3cee600a	0.02909853
40	0xbdf7df5e	-0.12103151
41	0x3d78ab08	0.060709983
42	0x3d080757	0.033210125
43	0xbcd04894	-0.025425233
44	0x3d810a4b	0.06300791
45	0xbde3f0ae	-0.111298904
46	0xbd187316	-0.03721913
47	0xbcf71599	-0.030161666
48	0xbdb3d07e	-0.08780001
49	0x3d076928	0.03305927
50	0x3d95647d	0.07294557
51	0xbd66fea7	-0.0563952
52	0x3d936cac	0.07198462
53	0x3df13554	0.1177775
54	0x3c5ed88b	0.013601433
55	0xbbd9bc2a	-0.0066447454
56	0x3d294d43	0.04133345
57	0x3e21f3aa	0.15815607
58	0xbd62e4bd	-0.055393923
59	0xbdac64e2	-0.08417679
60	0x3c9abf0a	0.018889923
61	0xbe217e1d	-0.15770765
62	0xbbcf57d5	-0.006327609
63	0x3d182d77	0.037152734
64	0xbd21a984	-0.039468303
65	0x3cfbbfe4	0.030731149
66	0x3dd42dc9	0.10360295
67	0xbc9810cf	-0.018562702
68	0x3d3ed1c6	0.046586774
69	0x3a063f0e	0.000512109
70	0xbcacfcba	-0.021116603
71	0xbcdee398	-0.027208135
72	0x3d84e457	0.06488865
73	0xbad179f8	-0.0015981784
74	0xbd8f9cf4	-0.07012358
75	0x3cacffa8	0.021118
76	0x3cd9aa08	0.026570335
77	0xbd7168d6	-0.05893787
78	0x3da81428	0.082069695
79	0x3df3dfba	0.11907907
80	0xbd239df2	-0.03994555
81	0x3b880015	0.0041504004
82	0xbc9fc5ae	-0.01950344
83	0xbd873845	-0.066025294
84	0xbd17dc2a	-0.0370752
85	0x3cde3bd2	0.027128134
86	0xbd6f25d7	-0.058385696
87	0x3cc6a7af	0.02424988
88	0xbd649714	-0.05580814
89	0x3d4c5078	0.04988143
90	0x3d52c78b	0.05145983
91	0xbdcb8c49	-0.09938867
92	0x3c3d7abc	0.011564907
93	0xbe15eca7	-0.14641057
94	0xbc940621	-0.018069329
95	0x3d177d49	0.036984716
96	0x3c9e22c8	0.019303694
97	0xbc60863d	-0.01370388
98	0x3e293258	0.16523111
99	0x3d342fe5	0.04399099
100	0x3c0a6799	0.008447551
101	0xbd3eec66	-0.046612166
102	0xbcfe2957	-0.031025572
103	0xbc82c6fa	-0.01596402
104	0x3db6f412	0.089332715
105	0xbd0c2903	-0.0342188
106	0xbe3bc1d8	-0.18335664
107	0xbd235b71	-0.039882127
108	0x3d01c239	0.031679366
109	0xbb8349a5	-0.004006582
110	0x3c7ab6ba	0.0153023545
111	0xbdc8e770	-0.09809768
112	0x3e1b9272	0.15192583
113	0x3cb8256e	0.022478785
114	0x3d3a97b2	0.045554824
115	0x3c736c04	0.014857296
116	0x3d6ec9ea	0.05829803
117	0xbb10edce	-0.00221144
118	0x3cc2c6cc	0.023776434
119	0xbc3803cf	-0.011231377
120	0x3ca7514e	0.020424511
121	0xbd846acd	-0.06465683
122	0x3d90764b	0.070538126
123	0x3d875a2b	0.06608995
124	0x3e056dd6	0.1303018
125	0xbc73edc6	-0.014888233
126	0x3d464604	0.048406616
127	0xbda5289c	-0.08064386
128	0x3bf2e35b	0.007412357
129	0xbd2a3a0c	-0.041559264
130	0xbca02625	-0.019549439
131	0xbd4866de	-0.048926227
132	0xbdc223ba	-0.094794706
133	0xbcd74373	-0.02627728
134	0xbde54401	-0.11194611
135	0xbd6512cf	-0.05592614
136	0x3d42056e	0.04736846
137	0xbd94efea	-0.072723225
138	0x3d92c86d	0.071671344
139	0x3c9021ba	0.017594207
140	0x3aaa14af	0.0012976135
141	0x3da15572	0.078776255
142	0x3be88fc2	0.0070972154
143	0xbdebc311	-0.11511815
144	0xbc02c793	-0.0079821525
145	0xbcfda8d6	-0.030964296
146	0x3cbca5d9	0.023028301
147	0xbd20fec5	-0.039305467
148	0xbba0d59b	-0.0049082763
149	0x3c82c2ed	0.015962088
150	0xbc29efbe	-0.0103721
151	0xbdf98d22	-0.12185122
152	0xbbd1ea4b	-0.0064061037
153	0xbdb06121	-0.08612276
154	0xbd3c06f6	-0.045905076
155	0xbcf73c46	-0.030180108
156	0xbd9e0678	-0.077160776
157	0x3dcb8fd3	0.09939542
158	0x3c634247	0.013870782
159	0x3d96c4d6	0.07361762
160	0xbad236d0	-0.0016038064
161	0xbcf59cb3	-0.029981947
162	0xbc85d69b	-0.016337683
163	0x3d357675	0.044302423
164	0x3d0f119f	0.034928914
165	0xbc708088	-0.014679082
166	0x3dd042fb	0.101690255
167	0xbc2bf378	-0.010495059
168	0x3dc53123	0.09628513
169	0xbd7c91da	-0.061662532
170	0xbdd19ced	-0.10235009
171	0x3dac3ed8	0.08410424
172	0x3d7eabf1	0.062175695
173	0xbd225ec9	-0.039641175
174	0x3dfe6fbb	0.12423655
175	0xbd69b928	-0.057061344
176	0x3c863449	0.016382353
177	0x3d7b9198	0.061418146
178	0xbd70a7ba	-0.058753707
179	0xbd3db24c	-0.046312615
180	0xbd06f828	-0.032951504
181	0x396da2fe	0.000226628
182	0xbbd53d33	-0.0065075397
183	0x3c8c63e0	0.017137468
184	0x3d055db8	0.03256008
185	0x3d208f86	0.039199375
186	0xbde26977	-0.11055272
187	0x3ce3dd72	0.027815554
188	0xbd7a123b	-0.061052542
189	0xbdf70236	-0.120609686
190	0xbd303c9a	-0.043026544
191	0xbe322fd0	-0.17401052
192	0x3da78f70	0.081816554
193	0xbdac994a	-0.08427675
194	0x3b0b9ec8	0.0021304358
195	0xbd227696	-0.039663874
196	0x3bc0f2ad	0.005888304
197	0x3dc5fcbf	0.09667348
198	0xbdc2780a	-0.09495552
199	0xbd3ec5d7	-0.046575394
200	0x3cab934b	0.020944258
201	0x3d920a49	0.07130868
202	0xbd6b7dc0	-0.05749297
203	0x3dbef376	0.0932378
204	0xbc1ae5e3	-0.009454223
205	0xbd85d2c7	-0.06534343
206	0x3bb53fb0	0.005531274
207	0x3d7e1967	0.062035944
208	0x3d6c7581	0.057729248
209	0xbd915036	-0.07095377
210	0xbbd8ef04	-0.0066202898
211	0x3d47bddd	0.048765052
212	0x3b752706	0.0037407293
213	0xbd77ad77	-0.060468163
214	0xbdeaa5ac	-0.11457381
215	0xbd4a639b	-0.049411397
216	0x3e07a8a8	0.13247931
217	0x3df10c84	0.11769965
218	0x3c14fd60	0.009093612
219	0x3da36754	0.07978693
220	0xbd2c206f	-0.04202312
221	0x3caae7a9	0.020862417
222	0x3d564a62	0.05231703
223	0xbdf6dee1	-0.120542295
224	0xbd7a7249	-0.061144147
225	0xbd4759a0	-0.048669457
226	0x3d1989aa	0.037484802
227	0xbbcafacd	-0.0061944486
228	0x3dbcdffe	0.092224106
229	0x3988cc04	0.00026091945
230	0xbde2f9fd	-0.11082838
231	0xbd9bd91c	-0.0760977
232	0xbd7e5a28	-0.0620977
233	0x3d0b060a	0.033941306
234	0xbda302bb	-0.07959505
235	0x3cf442ad	0.02981695
236	0xbc87b798	-0.016567037
237	0x3b884503	0.0041586175
238	0x3d5b942a	0.053608097
239	0xbbefdcf3	-0.0073200404
240	0x3aa50e0d	0.0012592688
241	0xbdc378d6	-0.09544532
242	0x3db72ee8	0.089444935
243	0x3da6ef7d	0.081511475
244	0xbd9b47f6	-0.07582085
245	0x3d0a03c2	0.03369499
246	0xbc999868	-0.01874943
247	0xbc043e31	-0.008071468
248	0xbc323fb9	-0.0108794505
249	0xbe84e0c4	-0.25952733
250	0xbdaaf4f3	-0.083475016
251	0x3dc470d4	0.09591833
252	0x3bf784c7	0.00755367
253	0xbc61cc89	-0.013781675
254	0xbc700a8a	-0.01465095
255	0xbc5321ba	-0.012886459

network_body._body_endoder.seq_layers.2.bias f4 [256]
0	0x3b6d28de	0.0036187689
1	0x3d33ac71	0.043865625
2	0x3cd3bdab	0.025847277
3	0x3b2f1108	0.0026713032
4	0x3d1dbc49	0.03850964
5	0xbd191e0f	-0.03738218
6	0xbc9d6536	-0.0192133
7	0x3c3410d4	0.01099034
8	0x3d6ce807	0.057838466
9	0x3c84434d	0.016145373
10	0x3d2a0d48	0.041516572
11	0xbd3feccc	-0.046856686
12	0xbc1c5b40	-0.00954324
13	0x3cdc9aec	0.026929341
14	0xbb9017da	-0.0043973746
15	0xbc0e079c	-0.008668806
16	0x3cf66fc6	0.030082595
17	0x3ccd75e0	0.025080621
18	0x3d310053	0.0432132
19	0x3cdc754a	0.026911397
20	0x3b9f24e8	0.0048566945
21	0x3cbfd5e4	0.02341742
22	0xbb9b7d90	-0.004745193
23	0x3c3c2241	0.011482776
24	0x3c9fa548	0.019487992
25	0x3cddbf3e	0.02706873
26	0xbcf7a884	-0.030231722
27	0x3cbd9b3b	0.023145309
28	0xbb9a8d59	-0.004716557
29	0x3d0f5bce	0.03499966
30	0xbc000049	-0.007812568
31	0xbc37ffb3	-0.011230397
32	0xbca6b6f1	-0.020350905
33	0x3cbc51b5	0.02298818
34	0xbca8d362	-0.020608608
35	0x3d57e615	0.052709658
36	0x3b914d5d	0.0044342712
37	0x3d042213	0.03225906
38	0xbc8e1c01	-0.017347338
39	0x3c715e87	0.01473201
40	0x3d02a051	0.03189117
41	0x3be520d8	0.0069924407
42	0x3d28a142	0.041169412
43	0x3cd7b8ba	0.026333202
44	0xbb285f69	-0.0025691635
45	0xbd23c6b6	-0.039984427
46	0x3c9ed137	0.01938687
47	0x3b1971d8	0.0023413803
48	0x3d2149b1	0.03937692
49	0x3b5381cf	0.0032273417
50	0x399b6b8f	0.0002964404
51	0xbc93bb34	-0.018033601
52	0xbcc54fc9	-0.024085896
53	0xbc55f356	-0.013058504
54	0xbc00b774	-0.007856239
55	0x3c6ca8db	0.014444555
56	0xbca47899	-0.020077037
57	0xbd19fdb5	-0.03759547
58	0x3c393b25	0.011305605
59	0xbd1ccd7f	-0.038281914
60	0xbc918d68	-0.017767623
61	0x3c258d86	0.010104543
62	0x3ccd4e22	0.02506167
63	0xbc184feb	-0.009296398
64	0xbc9ac052	-0.018890534
65	0x3b46895e	0.003029428
66	0xbbb35ef9	-0.005473968
67	0x3ca6f6af	0.0203813
68	0x3cd7af1e	0.02632862
69	0x3ab2981e	0.0013625657
70	0xbc30f2a3	-0.010800037
71	0x3acceaa9	0.0015633899
72	0xbc1f394f	-0.009718253
73	0x3aa784dc	0.0012780684
74	0xbbcc28ae	-0.0062304353
75	0x3c33c9a9	0.0109733725
76	0xbc01838f	-0.007904901
77	0xbb747d43	-0.0037306107
78	0x3d16319c	0.036668405
79	0xbc0fe02e	-0.008781476
80	0xbca4adac	-0.020102344
81	0xbceeb538	-0.029139146
82	0xbc11e004	-0.008903507
83	0x3b159cac	0.002282898
84	0x3c941047	0.018074168
85	0x3b8be925	0.0042697364
86	0xbc47cb3c	-0.012194451
87	0xbcc82540	-0.024431825
88	0x3cdd6c2c	0.02702912
89	0x3beceb18	0.007230174
90	0x3d52ea31	0.051492874
91	0xbcabdd0f	-0.020979432
92	0xbd09a02e	-0.033600025
93	0xbca1c075	-0.019745091
94	0x3cd9bcfc	0.026579373
95	0xbc9d559f	-0.019205866
96	0xbb8ac137	-0.004234459
97	0x3c47a8eb	0.012186269
98	0x3c422d09	0.0118515575
99	0xbbfd0a56	-0.0077221794
100	0x3c294dd4	0.010333497
101	0xbd275261	-0.040850047
102	0x3cb9cd41	0.02268088
103	0x3d5999e0	0.053125262
104	0x3a0ff819	0.00054919865
105	0xbc093f6a	-0.0083769355
106	0xbb8bdd9e	-0.004268362
107	0xbc80837f	-0.015687702
108	0xbc91ee90	-0.01781395
109	0x3d0e998a	0.034814395
110	0xbb904b47	-0.004403505
111	0x3c62fc34	0.013854075
112	0xbc320f20	-0.010867864
113	0x3cd6d1ed	0.026223147
114	0x3c72134f	0.014775111
115	0xbab62982	-0.0013897868
116	0xbc9a3cf3	-0.018827891
117	0xbc96ac42	-0.018392686
118	0x3cd896e2	0.026439134
119	0xbc9002be	-0.017579433
120	0xbc8874ef	-0.01665732
121	0x3d089177	0.03334185
122	0xbb9539bb	-0.004554001
123	0xbcacb64a	-0.021083016
124	0x3d122467	0.035679247
125	0xbc056dbd	-0.008143839
126	0xbc5bbb8e	-0.013411416
127	0xbc21e46e	-0.009881122
128	0xbaf0464e	-0.0018331499
129	0xbc92c7da	-0.017917562
130	0x3d0d33f1	0.034473363
131	0xbc88450d	-0.016634488
132	0x3d088cb1	0.0333373
133	0x3c645e93	0.013938564
134	0xbcd29fb6	-0.025710922
135	0x3c87f2e2	0.016595308
136	0x3d001e90	0.031279147
137	0x3cab86d9	0.020938324
138	0x3bc226d6	0.0059250398
139	0x3c923ef2	0.01785228
140	0xbcbe88c2	-0.02325857
141	0xbcbe5f14	-0.023238696
142	0x3c4deb21	0.012568266
143	0xbc827c59	-0.015928434
144	0xbd039baf	-0.032130893
145	0x3ccecfb1	0.02524552
146	0xbaf95012	-0.0019021055
147	0xbb7b9552	-0.0038388562
148	0xbc800ecc	-0.015632056
149	0xbc90fb9b	-0.0176981
150	0xbccb3646	-0.024806153
151	0xbd16a3c9	-0.03677729
152	0xbd005198	-0.031327814
153	0xb9e5eb14	-0.0004385343
154	0xbd556707	-0.052100208
155	0xbc0dda15	-0.008657952
156	0xbc9e7497	-0.019342704
157	0x3cfb2440	0.030656934
158	0x3d47c3da	0.048770763
159	0xbbd8f362	-0.0066208104
160	0x3bdf0d26	0.0068069873
161	0xbc3eea02	-0.0116524715
162	0x3ca36034	0.019943334
163	0x3cba6103	0.022751337
164	0xb9b0b81c	-0.00033706508
165	0xbd014ef7	-0.031569447
166	0x3c8be801	0.017078402
167	0xbb5adb94	-0.003339504
168	0xbc07bd53	-0.0082848845
169	0x3d1c519f	0.038163777
170	0x3d3e93d0	0.046527684
171	0xbc8cd4c3	-0.017191296
172	0xbca6e647	-0.020373477
173	0x3c9215a4	0.017832585
174	0xbcbd7f50	-0.023131996
175	0xbc9156a0	-0.017741501
176	0xbc5c7d01	-0.013457538
177	0x3cd3d75c	0.025859527
178	0xbd498198	-0.049195856
179	0x3c1e7357	0.009671054
180	0x3ce55208	0.027993217
181	0xbc9363e5	-0.01799197
182	0xbcddc0a9	-0.027069407
183	0xbcaa92bc	-0.020821922
184	0x3cf93762	0.030421916
185	0xbb667153	-0.0035162761
186	0xbc916aa6	-0.01775105
187	0x3ce7adaf	0.028281061
188	0xbce86d44	-0.028372414
189	0xbb81c115	-0.0039597847
190	0x3c823ae7	0.015897227
191	0x3c42c145	0.011886899
192	0x3c964eac	0.01834806
193	0x39efaddc	0.00045715168
194	0x3caa7928	0.020809725
195	0x3d335606	0.04378321
196	0x3b42bd43	0.002971486
197	0xbcbf954e	-0.023386624
198	0xbbf476d4	-0.0074604545
199	0x3bf540a8	0.0074845143
200	0xbcaf940c	-0.021432899
201	0x3cfbbc30	0.030729383
202	0xbc94a09a	-0.018142987
203	0xbd25c23b	-0.040468436
204	0xbd001a7c	-0.031275257
205	0x3ccf32a1	0.025292696
206	0xbd355d1c	-0.04427825
207	0xbbd120d5	-0.0063820877
208	0xbc30afe2	-0.010784121
209	0x3c790fd3	0.015201527
210	0xbcc7e751	-0.024402292
211	0x3d0090e2	0.03138817
212	0x3cf36ef8	0.029716
213	0xbc133fcb	-0.008987377
214	0x3cd258c2	0.025677089
215	0x3c1e8e2d	0.009677452
216	0xbbee582f	-0.007273696
217	0x3c4ad655	0.012380202
218	0x3c31b4ce	0.01084633
219	0x3cdd74ba	0.027033199
220	0xbc835e32	-0.016036127
221	0x3cbfe66b	0.023425302
222	0x3c4c75e3	0.012479278
223	0x3c038776	0.008027902
224	0xbc9cdf2a	-0.019149382
225	0xbc8f0925	-0.017460415
226	0xbc0274d2	-0.007962422
227	0xbbdca2c5	-0.006733271
228	0xbcbf626a	-0.023362357
229	0xbc96891e	-0.01837593
230	0xbb3a020a	-0.0028382563
231	0x3bac2f16	0.0052546365
232	0x3cb95c75	0.022627095
233	0x3d2a8d27	0.04163852
234	0x3c43658c	0.011926066
235	0xbcecd637	-0.02891074
236	0xbc6eb916	-0.014570495
237	0x3c767f15	0.015044947
238	0xbcb78b82	-0.02240539
239	0xbbf180d7	-0.0073700952
240	0x3d1bcd22	0.038037427
241	0x3cbbe010	0.02293399
242	0x3d35d036	0.04438802
243	0xbca45aa3	-0.02006275
244	0xbae45cf2	-0.0017422719
245	0x3d047de1	0.03234661
246	0x3a68a6c5	0.0008874948
247	0x3d3e5e8d	0.04647689
248	0xbcb34332	-0.021882627
249	0xbbdd5bd7	-0.006755333
250	0xbc8fe39d	-0.01756459
251	0xbd013eef	-0.03155416
252	0xbd1fe297	-0.039034452
253	0xbb254d3c	-0.0025223037
254	0x3ce1fbcf	0.027585892
255	0x3b8a503b	0.00422099

action_model._discrete_distribution.branches.0.weight f4 [2, 256]
0	0x3a71d9a2	0.000922585
1	0x3d431459	0.047626827
2	0x3d313dac	0.043271706
3	0xbb87d2eb	-0.0041450164
4	0x3c15f89a	0.0091535095
5	0xbc1cea45	-0.009577339
6	0x3b47e2d6	0.0030500195
7	0x3caa50f3	0.020790553
8	0x3c17b25c	0.009258833
9	0x3cf14f70	0.029456824
10	0xbc6f92b8	-0.014622383
11	0xbcb8c1a9	-0.022553282
12	0x3be51f4d	0.0069922567
13	0x3b7fd260	0.0039035305
14	0xbca0ebd2	-0.019643698
15	0xbbbd0757	-0.0057686972
16	0xbc8041b9	-0.015656339
17	0xbc1dc066	-0.009628391
18	0x3d5871b7	0.052842822
19	0x3c4f5efa	0.0126569215
20	0x3c492644	0.01227719
21	0x3d3095a4	0.04311146
22	0x3b926cba	0.0044685276
23	0x3c83cd54	0.016089119
24	0xbba080d4	-0.00489817
25	0x3c786525	0.0151608335
26	0xbc4f8778	-0.012666576
27	0xbc05f0a4	-0.008175049
28	0xbbe32441	-0.006931812
29	0xbad804d5	-0.0016480932
30	0x37ecbe65	2.8222052e-05
31	0xbc068d1c	-0.008212354
32	0x3ce5da35	0.02805815
33	0x3cc02336	0.02345429
34	0xbcc6a8a4	-0.024250336
35	0x3d59d8a7	0.05318513
36	0xbcdb5397	-0.026773257
37	0xbcfa05f9	-0.030520426
38	0x3b591985	0.0033126783
39	0xbbc32dae	-0.005956373
40	0xbd0c546c	-0.0342602
41	0xbccdf98d	-0.02514341
42	0x3cd56d5a	0.02605312
43	0xbb7117ae	-0.0036787796
44	0xbd37789e	-0.044792764
45	0xbb10a2cc	-0.002206969
46	0xbad3fba4	-0.0016173017
47	0xbd1b4882	-0.037910946
48	0x3d6d8aba	0.057993628
49	0xbc997e3d	-0.018736953
50	0x3becfe00	0.0072324276
51	0x3a4c1aad	0.00077859574
52	0xbd0a32a0	-0.033739686
53	0xbc94cfc3	-0.018165475
54	0xbc2b450c	-0.010453474
55	0x3cab1bba	0.020887244
56	0x3c0ef898	0.008726262
57	0xbc9bc6fa	-0.019015778
58	0x3b340d6e	0.0027473825
59	0x3ad19da7	0.0015992419
60	0xbb1b6e09	-0.002371671
61	0x3c5158f2	0.012777554
62	0x3cb5229a	0.022111226
63	0xbc33ab3c	-0.010966118
64	0x3b81302e	0.003942511
65	0x3c6aae3b	0.014323766
66	0xbc1ff3ff	-0.009762763
67	0x3c6abbb6	0.01432698
68	0xbb10ad1b	-0.0022075835
69	0x3b7eb7cb	0.0038866873
70	0xbc944cbf	-0.018103002
71	0x3c7c5b57	0.0154026365
72	0xbc4bdf7e	-0.012443421
73	0x3bf8bb93	0.00759072
74	0xbd108173	-0.035279702
75	0x3bfec233	0.007774615
76	0xbc5af4e0	-0.013364047
77	0xbc3ecd2a	-0.011645595
78	0xbb801e1f	-0.0039098407
79	0xbca68eac	-0.020331703
80	0x3c3c9f5d	0.011512605
81	0x3c9f599a	0.019451905
82	0x3ce7910d	0.028267408
83	0xbca048f9	-0.019566046
84	0x3cc74265	0.024323652
85	0xbbe2037a	-0.006897387
86	0xbc4ce6a1	-0.012506158
87	0x3c19235e	0.009346811
88	0x3d47d1ee	0.04878419
89	0x3cc3e075	0.02391074
90	0x3d522038	0.051300257
91	0xbbc48a7c	-0.005997954
92	0xbcd37e87	-0.025817169
93	0xbafa2cf9	-0.0019086889
94	0x3cdc665a	0.026904274
95	0xbc95a324	-0.018266268
96	0x3af43a9a	0.0018633187
97	0xbd1c3cfe	-0.038144104
98	0xbaae4e3f	-0.0013298466
99	0x3c79649c	0.015221741
100	0xbbc15f75	-0.005901272
101	0x3c1a2be3	0.0094098775
102	0x3d58693b	0.05283473
103	0x3d0e02d2	0.03467066
104	0xbc6aef48	-0.014339276
105	0x3c1f1f37	0.009712032
106	0x3a54382e	0.00080955296
107	0xb9e87931	-0.00044340783
108	0xbad49494	-0.0016218596
109	0x3c9964e9	0.018724876
110	0x3c4c3836	0.012464574
111	0x3d36f876	0.044670545
112	0xbb8aa00a	-0.004230504
113	0xbcba8d0d	-0.022772336
114	0x3d60d08c	0.054886386
115	0x392576c4	0.0001577987
116	0x3a2b909a	0.00065446796
117	0x3aa16e81	0.0012316258
118	0x3d59e560	0.053197265
119	0xbb18fd7f	-0.0023344455
120	0xbc64086f	-0.013918026
121	0xbc81f696	-0.015864652
122	0x3af0be2c	0.0018367223
123	0xbb9038fa	-0.0044013234
124	0x3ba8e40c	0.0051541384
125	0x3cab8674	0.020938136
126	0xba706bf2	-0.00091713585
127	0xbbe06944	-0.006848486
128	0xbb82c9d0	-0.003991343
129	0xbc96d384	-0.018411405
130	0xbc8c0f2f	-0.017097084
131	0xbce38830	-0.0277749
132	0x3c8f23ea	0.01747318
133	0x3a954af8	0.001139014
134	0x3b020bed	0.0019843534
135	0x3c9bb7ea	0.019008595
136	0xbaa655cc	-0.0012690364
137	0x3b163a6d	0.0022923008
138	0xba2b2ede	-0.0006530116
139	0xbb2a361b	-0.002597219
140	0xbd1d73ee	-0.038440637
141	0xbcb82869	-0.022480207
142	0x3d247717	0.040152635
143	0xbc5f1d91	-0.013617889
144	0xbb169f8e	-0.0022983286
145	0x3d21e28c	0.039522693
146	0xbc1e5ef8	-0.009666197
147	0x3cb5d58b	0.022196552
148	0x3c42a14d	0.011879277
149	0xbc09910f	-0.008396401
150	0x3c15d7b0	0.009145662
151	0xbc3c4a34	-0.011492301
152	0x3c04702b	0.008083384
153	0xbd05e236	-0.032686435
154	0x3bc66e4f	0.0060556303
155	0x3afad7bc	0.001913778
156	0xbd14c016	-0.036316
157	0x3c6d20e6	0.014473176
158	0x3c9abb70	0.018888205
159	0x3c36e881	0.011163832
160	0x3c346e83	0.011012676
161	0xbbbdfaaa	-0.0057977038
162	0x3bda71a8	0.006666381
163	0x3d107b3d	0.03527378
164	0x3c8e6a52	0.017384682
165	0x3c272123	0.0102007715
166	0xbc5d765d	-0.01351699
167	0xbc6686cc	-0.014070224
168	0xbc28234b	-0.010262321
169	0xbc16ced7	-0.009204588
170	0x3b85d504	0.0040842313
171	0xbbe20b96	-0.006898354
172	0x3bc8346b	0.0061097643
173	0xbc1926de	-0.009347646
174	0x3b521c5d	0.0032060363
175	0x3c9553ce	0.018228438
176	0xbc895f2c	-0.016769014
177	0x3c17e2b2	0.009270357
178	0xbc0c491f	-0.008562355
179	0xbb687545	-0.0035470289
180	0x3d1d56b5	0.03841277
181	0xbca271ae	-0.019829597
182	0xba1d6e52	-0.0006005514
183	0xbbd1a07a	-0.006397304
184	0x3d20f13c	0.03929256
185	0xbd4218a1	-0.04738677
186	0xbc646ef7	-0.013942472
187	0x3dcde7d4	0.10053983
188	0x3be78850	0.0070658103
189	0x3ba7a7b5	0.005116428
190	0x3a40814c	0.00073434855
191	0xba174375	-0.0005770245
192	0x3d511acb	0.051050942
193	0x3b4874fe	0.003058731
194	0x3cd4d344	0.025979646
195	0x3cceb692	0.02523354
196	0x3b85c348	0.004082117
197	0xbbf45ca8	-0.0074573345
198	0xbc354152	-0.011062937
199	0x3cf64ecd	0.030066872
200	0xbc8d8044	-0.017273076
201	0x3d835d0c	0.06414232
202	0xbcd5896b	-0.026066503
203	0xbc9197d3	-0.01777259
204	0xbc1febde	-0.009760825
205	0xbb250fb8	-0.002518637
206	0xbae4e507	-0.0017463275
207	0x3b9e13bf	0.0048241313
208	0xbca6e562	-0.02037305
209	0x3cc4236d	0.023942674
210	0x3c13b3d0	0.009015039
211	0x3c8e359f	0.017359553
212	0xbcceb55c	-0.025232963
213	0x3b207778	0.0024485271
214	0x3c01cf93	0.007923025
215	0xbb82f760	-0.0039967746
216	0xbd3b1612	-0.045675345
217	0xbbb28b71	-0.0054487516
218	0x3d27dd06	0.04098227
219	0x3a92191e	0.0011146402
220	0xbb82f24d	-0.0039961697
221	0x3a3d16ff	0.00072132045
222	0xbb39fe55	-0.0028380353
223	0x3d149163	0.036271464
224	0xbba1ce2f	-0.004937909
225	0xbc63dd93	-0.013907808
226	0x3a917e39	0.0011100239
227	0x3c6e4144	0.014541928
228	0x3cbce8d6	0.023060244
229	0x3c3dda76	0.01158773
230	0xbc8a9ac1	-0.016919496
231	0x3c508e36	0.012729218
232	0x3a9fc3bd	0.0012189072
233	0x3c28a796	0.010293862
234	0x3cf9633f	0.030442832
235	0xbc6b332a	-0.01435546
236	0xbbaf99d7	-0.0053589153
237	0x3c851c8c	0.016248964
238	0xbbb762a4	-0.0055964757
239	0x3c04dbee	0.008109076
240	0xbc72d37b	-0.014820929
241	0xbcebe90d	-0.02879765
242	0x3d9595c9	0.0730396
243	0xbab8ae8b	-0.0014090104
244	0x3c457409	0.012051591
245	0x3c6ce999	0.014459991
246	0xbc6d1459	-0.014470183
247	0x3c9ece46	0.019385468
248	0x3ba9a27d	0.005176841
249	0xbcc1d8b1	-0.023662897
250	0xb960149c	-0.00021369982
251	0xbd036677	-0.03208014
252	0xbc81661a	-0.015795756
253	0xbc6fbb42	-0.014632048
254	0x3bd4b382	0.0064911256
255	0xbb5e00dc	-0.0033875024

action_model._discrete_distribution.branches.0.bias f4 [2]
0	0xbb5a2392	-0.0033285362
1	0x3b5a23ab	0.003328542

action_model._discrete_distribution.branches.1.weight f4 [2, 256]
0	0xbc8a6ab5	-0.016896585
1	0xbabc5b1e	-0.0014370417
2	0x3cd7ccc7	0.026342763
3	0x3bdfd0da	0.006830317
4	0x3c0fed75	0.0087846415
5	0x3c52f813	0.012876528
6	0x3bacb640	0.0052707493
7	0x3cbd0bcf	0.02307692
8	0xbd572465	-0.052524943
9	0xbcdc6110	-0.026901752
10	0x3d947b07	0.07250028
11	0xbc5c986e	-0.013464076
12	0xbc4cb722	-0.012494834
13	0xbc9dbf9a	-0.019256402
14	0x3ad4c135	0.0016231897
15	0x3c7989b8	0.015230589
16	0x3d107392	0.035266466
17	0x3b97e0d9	0.004634958
18	0x3d261b41	0.040553335
19	0xbbea88b0	-0.0071574077
20	0x3ba0405b	0.0048904843
21	0x3bb424b1	0.005497538
22	0x3b85b742	0.004080684
23	0x3d02645f	0.031834003
24	0xbd1c1482	-0.038105495
25	0xbd80ac17	-0.062828235
26	0x3cf156a4	0.029460259
27	0x3bd60bd9	0.006532174
28	0x3a82442b	0.0009938529
29	0x3d9ff5ce	0.078105554
30	0x3c986fa3	0.01860792
31	0x3c2b4961	0.010454507
32	0x3c3c697d	0.01149976
33	0xbb06777b	-0.0020517993
34	0xbb26bb24	-0.0025441134
35	0xbcf375ec	-0.029719315
36	0x3c8ebb52	0.017423306
37	0x3c3fec6a	0.01171408
38	0xbbead26d	-0.007166198
39	0xbca95915	-0.02067236
40	0x3d07f9f9	0.033197377
41	0xbc3914f4	-0.0112964995
42	0xbd68d30e	-0.056841902
43	0x3c341eac	0.010993641
44	0x3c8c86d9	0.017154144
45	0x3c4d70e7	0.012539125
46	0xbb9a552e	-0.0047098612
47	0x3bb74141	0.0055924957
48	0x3ca6d948	0.02036728
49	0x3c4bbd16	0.012435218
50	0x3abd07eb	0.0014421915
51	0xbc02a223	-0.007973227
52	0x3b292cb9	0.002581401
53	0x3b04a406	0.0020239367
54	0xbb1b8977	-0.0023733058
55	0xbd31455e	-0.043279044
56	0xbcd211ad	-0.025643194
57	0xbbf4804b	-0.007461583
58	0x3bc4ec9f	0.0060096527
59	0xba4ff4f5	-0.0007932925
60	0x3c994dd4	0.01871387
61	0xbd33cb8c	-0.04389529
62	0xbcc45137	-0.023964508
63	0x3ccdac99	0.025106715
64	0xbc57ca5d	-0.013170806
65	0xbc0ddaa6	-0.008658087
66	0xbc99c0fe	-0.018768784
67	0xbb10dd31	-0.0022104497
68	0xbd6d274b	-0.0578988
69	0x3cce3bd2	0.025175009
70	0x3cb871f5	0.022515276
71	0xbb091624	-0.0020917738
72	0xbc8a9f16	-0.016921561
73	0x3cad63e6	0.0211658
74	0xbb9f746e	-0.0048661744
75	0x3d066583	0.032811653
76	0x3d021d4e	0.03176623
77	0xbcfcaff6	-0.030845623
78	0x3c79e387	0.015252001
79	0x3c6176ff	0.013761281
80	0x3b3c6e8a	0.002875241
81	0x3c938a64	0.018010326
82	0xbbe80158	-0.0070802383
83	0x3c7cdeaa	0.015433947
84	0xbcbd74dc	-0.023127012
85	0x3ba9aa50	0.0051777735
86	0x3d007ccf	0.031369027
87	0xbb01ad1b	-0.0019787017
88	0x3ca6835e	0.020326313
89	0xbb9d68a6	-0.004803735
90	0x3cd16fbd	0.025565976
91	0x3c63e704	0.013910059
92	0xbc2aef3f	-0.010433017
93	0x3c8301ce	0.015992071
94	0xbcf61da5	-0.030043432
95	0x3c887f19	0.016662167
96	0xbb39d7b1	-0.0028357322
97	0x3c0423ed	0.008065206
98	0xbc92c047	-0.01791395
99	0xbbfb04d6	-0.0076604886
100	0x3c3ff0ed	0.011715156
101	0xba7c89f9	-0.00096335966
102	0xbc244129	-0.010025301
103	0xbd886620	-0.06660104
104	0x3bca0e71	0.0061662723
105	0xbcc50038	-0.024047956
106	0xbd13b7c2	-0.036063917
107	0x3c85b9d5	0.016323963
108	0xbc118a6d	-0.008883101
109	0x3be53a43	0.0069954707
110	0x390d4b8f	0.00013474956
111	0x3d838895	0.06422535
112	0xbcae07eb	-0.02124401
113	0x3d8faba6	0.07015161
114	0xbc010381	-0.007874371
115	0xbc3e8e12	-0.011630552
116	0xbb5ae98e	-0.003340337
117	0xbcb0a3b9	-0.021562444
118	0x3ca214b3	0.01978526
119	0x3cf1a342	0.029496793
120	0x3c79b5b9	0.01524108
121	0x3b14d256	0.0022708378
122	0xba2ff074	-0.00067115505
123	0x3a410c93	0.00073642394
124	0x3c83ec6f	0.016103951
125	0x3c83f948	0.016110078
126	0x3cb2c51b	0.021822503
127	0x3c86ff0d	0.01647904
128	0x3cc5a712	0.024127517
129	0x3ba0b1b8	0.004903998
130	0x3c39a467	0.0113307005
131	0xbc0dfacf	-0.008665754
132	0xbc83b3df	-0.01607698
133	0x3caa29ff	0.020771978
134	0x3c4c39f2	0.012464987
135	0x3b02c032	0.0019950983
136	0x3d0ac6aa	0.033880867
137	0x3d4655af	0.048421558
138	0x3cc7d55e	0.024393734
139	0x3d0dbac1	0.03460193
140	0xbc82625d	-0.015916044
141	0xbb344892	-0.0027509076
142	0x3c57414c	0.013138127
143	0x3b89a5af	0.004200659
144	0xbc67591d	-0.014120367
145	0xbcd699ff	-0.026196478
146	0xbcaacef1	-0.02085063
147	0xbc6b5836	-0.014364293
148	0xbc1b7f94	-0.009490866
149	0xbc8f80e0	-0.017517507
150	0x3cad0daf	0.021124689
151	0x3c76e7b5	0.015069892
152	0x3b6ddb94	0.003629421
153	0xbc709d3a	-0.014685923
154	0x3cca78e9	0.024715858
155	0x3cbeacbb	0.023275724
156	0xbc32ea85	-0.010920172
157	0xbc7a8452	-0.015290337
158	0xbd087155	-0.033311207
159	0x39169dc6	0.0001436389
160	0x3b0272d4	0.0019904869
161	0xbb840589	-0.00402898
162	0xbd45f63e	-0.048330538
163	0x3d769180	0.060197353
164	0xbd3d3187	-0.04618981
165	0x3c6d7460	0.014493078
166	0x3d1ea552	0.03873188
167	0x3c80c016	0.015716594
168	0x3c68b78d	0.014203918
169	0x3c45b1d7	0.012066326
170	0x3cc99b7b	0.024610272
171	0xbc105fdb	-0.008811916
172	0x3a1273f6	0.00055867375
173	0x3d20e355	0.0392793
174	0x3b11f99e	0.0022274028
175	0x3cf0109c	0.029304795
176	0xbc2a25d8	-0.010384999
177	0x3cd375d7	0.025813026
178	0x3c2659a9	0.010153213
179	0xbd59b7a9	-0.053153668
180	0x3dad01c1	0.084476
181	0x3a86891e	0.0010264253
182	0x3c01edba	0.007930214
183	0xbba49d42	-0.0050236294
184	0x3b2ec882	0.0026669805
185	0xbc38d725	-0.011281763
186	0x3d129938	0.035790652
187	0x3c1a5bf9	0.009421342
188	0x3c70e029	0.014701881
189	0x3c3c0ac5	0.011477177
190	0xbb95abd0	-0.004567601
191	0xbc8e22ee	-0.01735064
192	0xbcfe2036	-0.031021219
193	0xbcb6b00e	-0.022300746
194	0xbbc812b1	-0.006105744
195	0xbd49fc31	-0.049312774
196	0x3c423e34	0.011855651
197	0x3c2e7730	0.010648534
198	0x3b276c7f	0.0025546846
199	0x3cb15d0c	0.021650814
200	0x3b7ac8fa	0.0038266764
201	0x3d285ac5	0.04110219
202	0xbc3e1d0f	-0.011603608
203	0xbc075aa4	-0.0082613565
204	0xbbee6e1d	-0.00727631
205	0x3b174c2f	0.002308618
206	0x3ccfd3c3	0.02536953
207	0x3d077870	0.033073843
208	0x3d063475	0.03276487
209	0xbb3f7c78	-0.0029218476
210	0x3bd8db9c	0.0066179764
211	0xbd15f792	-0.036613055
212	0x3d88a399	0.06671829
213	0x3c19b378	0.009381168
214	0x3c9f0c41	0.019415023
215	0x39fedeb2	0.00048612576
216	0x3d261d54	0.040555313
217	0x3c897dff	0.016783712
218	0xbd2ec8b7	-0.042671885
219	0xbd5aa10c	-0.053376243
220	0xbc372b48	-0.011179753
221	0x3cfd31d0	0.030907542
222	0xbc8e7892	-0.017391477
223	0xbd00d254	-0.031450585
224	0xbc65c911	-0.014024989
225	0x3c65ee1d	0.014033821
226	0xbc613cea	-0.013747433
227	0xbba3a181	-0.004993618
228	0xbce4df4d	-0.02793851
229	0xbc567f34	-0.013091851
230	0x3ccb8d59	0.024847673
231	0xbb14b70d	-0.0022692115
232	0xbb86f794	-0.004118869
233	0x3d00c03e	0.031433336
234	0x3d2a6512	0.041600294
235	0x3baf7200	0.005354166
236	0xbb1e3596	-0.0024140826
237	0x3be1798e	0.0068809455
238	0x3c26f8e2	0.010191174
239	0xbc215434	-0.009846736
240	0xbbf9cc6b	-0.0076232455
241	0xbca20ef1	-0.019782515
242	0x3c259ae6	0.010107731
243	0xbc7a270d	-0.0152680995
244	0x3d0f4372	0.03497643
245	0xbd807181	-0.06271649
246	0x3b5c9d80	0.0033663213
247	0xbc954235	-0.018220047
248	0x3c876021	0.01652533
249	0xbd2e9d44	-0.04263045
250	0xbc853ca8	-0.016264275
251	0xbab32f3a	-0.0013670691
252	0xbc00fee4	-0.007873271
253	0x3c4baa78	0.01243078
254	0xbd0b78d8	-0.034050792
255	0xbc6caae3	-0.014445039

action_model._discrete_distribution.branches.1.bias f4 [2]
0	0x3b849ac6	0.0040467707
1	0xbb849ad2	-0.0040467763

action_model._discrete_distribution.branches.2.weight f4 [2, 256]
0	0x3c124b96	0.008929154
1	0x3d8c4e48	0.068508685
2	0x3c97a666	0.018511962
3	0x3ae83b2b	0.0017717829
4	0x3d35d504	0.0443926
5	0x3c65d97c	0.014028903
6	0x3b5603f8	0.0032656174
7	0x3d2847af	0.041083988
8	0x3d50033a	0.050784327
9	0x3c66783f	0.014066755
10	0x3c408b9f	0.011752038
11	0xbca171b2	-0.019707534
12	0xbc5b14ff	-0.013371705
13	0x3d3c9171	0.04603714
14	0x3ab7a00d	0.0014009491
15	0xbc79b09a	-0.015239859
16	0x3cdab8cb	0.026699444
17	0x3d76eb9a	0.06028328
18	0x3d817361	0.06320835
19	0x3d3b15eb	0.0456752
20	0x3bc23a27	0.0059273425
21	0x3a5fc616	0.0008536292
22	0xbc56b657	-0.013104997
23	0x3cde653f	0.027147887
24	0xbbac8365	-0.005264687
25	0x3ca3e604	0.020007141
26	0x3c7633db	0.015027012
27	0x3cfa56d0	0.030558974
28	0x3c1687c6	0.009187644
29	0xbc6c0821	-0.014406235
30	0xbc13ed6e	-0.009028776
31	0xbd14c658	-0.036321968
32	0xbcdae1b0	-0.026718944
33	0x3d2114c6	0.03932645
34	0xbcc17ffb	-0.023620596
35	0x3cb2120a	0.021737117
36	0xbd16cca7	-0.036816265
37	0x3c87b13b	0.016564002
38	0x3a9947da	0.0011694387
39	0xbc5043d3	-0.012711483
40	0x3d42c24b	0.047548573
41	0x3b520ee5	0.0032052335
42	0x3da38c88	0.079857886
43	0xbb5836b0	-0.003299158
44	0xbd25f567	-0.040517237
45	0x3a960189	0.0011444549
46	0x3a1e05ce	0.00060280866
47	0x3d4b25e4	0.049596682
48	0x3d5fdcaf	0.05465382
49	0xbb3cf241	-0.0028830918
50	0x3b7ac9bb	0.0038267213
51	0xb99eef72	-0.0003031451
52	0xbbfc63dc	-0.007702334
53	0x3b573fa6	0.0032844334
54	0xbce8deee	-0.028426614
55	0xbc3e1e72	-0.011603938
56	0x3a1ab96a	0.00059022626
57	0x3c392896	0.01130118
58	0x3aefb86a	0.0018289213
59	0x3b6d3afe	0.0036198492
60	0x3cbfe1f8	0.02342318
61	0xbb9fecb2	-0.004880511
62	0xba8b62bf	-0.0010634287
63	0xbd18bbb7	-0.037288394
64	0xbccfe31e	-0.025376853
65	0x3cbd71b8	0.023125514
66	0xbc692e1d	-0.014232186
67	0x3cf25c6a	0.029585082
68	0x3cab1745	0.02088512
69	0x3ce4c8ce	0.027927782
70	0xbbd58309	-0.0065158647
71	0x3baf141f	0.005342975
72	0xbc9b2cde	-0.018942293
73	0x3c82bd8e	0.015959527
74	0xbc822ea3	-0.015891379
75	0xbcec5fc2	-0.028854255
76	0x3b086e28	0.0020817611
77	0xbb9bd65d	-0.0047557787
78	0x3d8ac107	0.06775098
79	0xbcaee110	-0.021347553
80	0x3ba83ad5	0.0051339664
81	0xbb890845	-0.004181894
82	0x3b0ffd54	0.0021971064
83	0xbc9c248a	-0.019060392
84	0x3be95ce6	0.00712167
85	0x3c1a7571	0.009427414
86	0xbc7a31d2	-0.015270667
87	0xb7fe1cf7	-3.0292647e-05
88	0x3d6aa011	0.057281557
89	0x3d398823	0.045295846
90	0x3d47cac5	0.04877736
91	0xbc866e19	-0.01640992
92	0xbc0075d5	-0.007840593
93	0x3bec9ee7	0.007221091
94	0xbc3a8568	-0.011384346
95	0x3b49985a	0.0030760975
96	0xbc0de471	-0.008660422
97	0x3a9ca5ec	0.0011951304
98	0x3b83ed07	0.0040260586
99	0x3bf769a2	0.007550434
100	0x3d1282ab	0.035769146
101	0xbbfbf164	-0.007688688
102	0x3cc378ab	0.02386125
103	0x3d7acbf3	0.061229657
104	0xbc80e3bf	-0.015733598
105	0x3c7ed665	0.015554045
106	0xbc21415b	-0.009842242
107	0xbc42ca55	-0.01188906
108	0xba7525f0	-0.00093516614
109	0x3cc3cbf7	0.023900969
110	0xbc4fdcc0	-0.012686908
111	0x3c457dd1	0.012053923
112	0xbc75b7c4	-0.014997426
113	0xbcbc274d	-0.022967959
114	0x3be36593	0.006939599
115	0xbbbacf2e	-0.0057009673
116	0x3c339f9b	0.010963346
117	0x3c327219	0.010891461
118	0x3d449184	0.047990337
119	0x3ab4680f	0.0013763922
120	0xbc02a8a3	-0.007974776
121	0x3db78039	0.089600034
122	0xbc11f046	-0.008907383
123	0xbc364c3f	-0.011126577
124	0x3da545dc	0.08069965
125	0xbbb8a74c	-0.0056351777
126	0xbc286986	-0.010279065
127	0x3c085625	0.00832132
128	0xbc8754bf	-0.016519902
129	0xbbbc0daf	-0.005738936
130	0xbd27be00	-0.040952682
131	0xbc320e65	-0.01086769
132	0x3d4605cc	0.048345372
133	0xbd3b21e5	-0.04568662
134	0x3c59bae2	0.013289185
135	0xbc984bf8	-0.018590912
136	0x3d754c6a	0.059887327
137	0x3cf169f2	0.029469464
138	0xbd328110	-0.043580115
139	0x3c5506f1	0.013002143
140	0x3af0f452	0.001838336
141	0xbc5d7879	-0.013517492
142	0x3b96fbc4	0.0046076495
143	0xbc893f14	-0.01675371
144	0xbc65df2a	-0.014030257
145	0x3d09bdba	0.033628203
146	0xbc979c07	-0.018507017
147	0x3c3a907b	0.011386986
148	0xbb1b9fb0	-0.0023746304
149	0xbcbc0fe9	-0.022956805
150	0x3c53460c	0.012895118
151	0xbc505ec9	-0.012717911
152	0xbbd0b816	-0.006369601
153	0xbceb1138	-0.028694734
154	0xbb3b15a4	-0.0028546834
155	0xbbdd9b22	-0.006762878
156	0xbbf65947	-0.007517967
157	0x3d40af9f	0.047042485
158	0x3d81d531	0.06339491
159	0x3cd0ff6b	0.025512418
160	0x3cae19bc	0.021252505
161	0x3c0edc43	0.008719507
162	0xba59d496	-0.0008309571
163	0xb8f25f29	-0.00011557184
164	0x3c5108f0	0.0127584785
165	0xbb7a1714	-0.0038160728
166	0xbd0bc236	-0.03412076
167	0xbcb2860d	-0.021792436
168	0x3c13ba95	0.009016653
169	0x3dc18f0d	0.09451113
170	0x3d951061	0.07278515
171	0x3b54386e	0.0032382268
172	0xbba34f5d	-0.004983826
173	0xbd252a73	-0.040323686
174	0x3bb1d6f1	0.0054272343
175	0xbcc23cb1	-0.02371058
176	0xbcaaea58	-0.020863697
177	0x3ccaa78e	0.0247381
178	0xbcac23ab	-0.021013102
179	0x3cad8d4c	0.02118554
180	0x3b77f262	0.003783368
181	0xbc0f5643	-0.008748594
182	0x3bd93085	0.0066280984
183	0x3c598040	0.013275206
184	0x3da5728d	0.080784895
185	0xbc73d6b0	-0.014882728
186	0x3b960d2a	0.004579206
187	0x3c7ffc9c	0.015624192
188	0xbad38376	-0.0016137201
189	0xbb440a9d	-0.0029913553
190	0x3cb21d00	0.021742344
191	0xbbb7c510	-0.0056082085
192	0x3ca70964	0.02039022
193	0xbb0ae5ea	-0.0021194168
194	0xbb3a7da4	-0.0028456235
195	0x3d06eda2	0.032941468
196	0x3b41522a	0.0029498436
197	0x3a36ccf8	0.0006973292
198	0x3bbe2740	0.005803019
199	0x3d3d6996	0.046243273
200	0xbc041d89	-0.008063682
201	0x3d6bdeea	0.057585634
202	0xbc360191	-0.011108772
203	0xbb866ef3	-0.0041025816
204	0xba495ce9	-0.0007681386
205	0xbcaacf7b	-0.020850888
206	0x3c1a3798	0.009412669
207	0x3c71d589	0.014760383
208	0x3a027122	0.00049759645
209	0x3c7f4afa	0.015581841
210	0x3c8a0b20	0.016851008
211	0x3b625648	0.003453629
212	0x3d2bfcff	0.041989323
213	0x3c3b2286	0.011421805
214	0x3d30b70a	0.04314331
215	0x3d2245d7	0.039617386
216	0xbd103969	-0.035211
217	0x3cf7db13	0.03025583
218	0x3ce5a808	0.028034225
219	0x3d57306b	0.05253641
220	0xbc58e4d8	-0.013238154
221	0x3d403e8c	0.04693465
222	0x39883ac9	0.0002598374
223	0x3cc97c02	0.024595264
224	0xbb1a0cff	-0.0023506281
225	0xbb7fef8a	-0.0039052689
226	0x3baaeaad	0.005215964
227	0x3cbd2c20	0.02309233
228	0xbc62bfbf	-0.013839661
229	0xbc065aaa	-0.008200327
230	0xbc031004	-0.007999424
231	0x3ce1b7e9	0.027553516
232	0x3cc9ac4b	0.024618289
233	0x3d9d612d	0.076845504
234	0x3cd0ccda	0.025488306
235	0xbbae1df9	-0.0053136316
236	0xbc60e18c	-0.01372565
237	0x3cb41f2f	0.021987526
238	0xb9e69126	-0.00043977163
239	0xbbcd5e5f	-0.0062673534
240	0x3d7d12c9	0.061785493
241	0xbbae6695	-0.0053222873
242	0xbd3f68d8	-0.046730846
243	0xbb39afcb	-0.002833354
244	0xbb718b01	-0.0036856534
245	0xb9996042	-0.00029254152
246	0x3c82cc06	0.015966427
247	0x3da77c68	0.081780255
248	0xbb3adf3b	-0.0028514403
249	0xbc879385	-0.016549835
250	0x3b8beca7	0.0042701545
251	0xbca000bd	-0.019531602
252	0xbc2fee01	-0.010737897
253	0xbc83c933	-0.01608715
254	0x3cbbdd3c	0.022932641
255	0x3c82c193	0.015961444

action_model._discrete_distribution.branches.2.bias f4 [2]
0	0x3a6b3e8f	0.00089738605
1	0xba6b3e8e	-0.000897386
