Assets/results/day4_0748/TrafficLightBrain/TrafficLightBrain-279957.onnx (onnx, 403823 bytes, 21 tensors)

discrete_act_size_vector f4 [1, 8]
00000000: 0000 0040 0000 0040 0000 0040 0000 0040
00000010: 0000 0040 0000 0040 0000 0040 0000 0040
2.0 2.0 2.0 2.0 2.0 2.0 2.0 2.0

network_body._body_endoder.seq_layers.0.weight f4 [256, 100]
00000000: 6f9b e6bd 953f 843c 7c78 943d 6c5a 9f3d
00000010: 0d3c 8c3e d506 593e 3ef0 103d 764a 803d
00000020: ebdf ff3d 646b c6bd b5c4 ef3d d0cf 1f3e
00000030: 56fd a2bd c3f4 873c d03c c4bd d6ae 443d
00000040: c0a3 53bd cc80 44bb 78d6 05bd ba9b 5e3d
00000050: ff8e a1bc ef36 d03d ec48 263e 91e2 4abd
00000060: d287 d63d 4aef 96be 4003 073e 630d 8abd
00000070: 26e4 d63b ac8b 8a3c a03f b4bc 15e0 093d
00000080: 073d 4e3e 6dc9 073d cbc9 b0bd e7d9 16be
00000090: 91ec 093c d437 0d3d 057d ed3d 53b7 e53c
000000a0: 0988 923d 4849 f83c 6d58 06be 33d4 c0bd
000000b0: e757 183d cf64 6fbd dad8 d53d 56ea 973d
000000c0: b36c b1bd 0b7b 1cbd 5216 29bc 97e4 c73d
000000d0: 504e bebd 5c86 40bc 38de 5fbc 2e64 86bc
000000e0: 1772 ebbd bad3 62bd b910 90be 67a9 febd
000000f0: 9cbf 193d 7f8f d3bd 6b21 863c 7be6 4e3d
00000100: 6fa8 eb3d 7965 0a3e 12c6 843d 174f 14be
00000110: 52f6 883d 2745 463d c0ff aa3c 704a 79bd
00000120: ca05 94bd 8dbc d4bd 56cd c83c 9f5f 75bd
00000130: def1 33be 4160 cabb fc20 b23c b7de 8a3d
00000140: e569 fdbd 150d 913d 13f2 d9bc 9f3a 7dbd
00000150: ed37 ba3d d8d3 073e 7b70 363e cbd6 8bbd
00000160: c8fd 05bd 422c e13d 370d 70be c4ee 1d3e
00000170: b57e 4ebd ca6c 5d3d 97bd 1e3e 8ab8 14bd
00000180: e89e 44be 26f8 0b3c 78a1 67be aef7 b3bd
00000190: 2cf3 7dbe d0af 1f3e aed4 243d 76bf 61bd
000001a0: a836 32bd bd35 8c3d 9788 b33d 6df6 d1bc
000001b0: a8c9 d0bc 3e9c 9c3d b1b0 423e 900b 5c3d
000001c0: 31a5 0cbd dce7 b83c 0eea 00be e7fb 553d
000001d0: 63ab 6fbe 7cf6 5bbe af1a 8d3d 8fcc 1eba
000001e0: 7628 773d c843 b93d 62e0 a83c ef8a 2e3d
000001f0: 4c74 0fbd 87a0 52bc 50b6 12bd eb4f d8bc
00000200: 6fbb 1c3d ea1d 9c3d c70c e0bd 8718 d73b
00000210: ea68 aebd 8834 f13d a5af d5bd 73f1 2cbd
00000220: 58fa e3bc 5fca c9bc f785 ae3d 1fad c8bd
00000230: 5563 b7bd f50b 7abd da70 34be 07a6 03be
00000240: cff7 943c 4977 9dbd 3506 f03c 656e 2abd
00000250: b282 f43c a761 b6bc b8be d4bd cb3e a5bb
00000260: 7f15 c53c fb8f 6b3d 23ad d13c c58f 6c3c
00000270: 8fbe c1bc 2f0c 69bd eafe 31bc 9fdb 35bd
00000280: ead6 733d 39b8 c03d 5c03 c5bd c36a afbd
00000290: 8f8b a73d 5284 22be c6b6 22be 88c5 dc3c
000002a0: 6358 903d 1ad9 e63b e8fb 89bd 83bb f6bd
000002b0: a4d8 363d 05b1 7d3d 90a4 f4bc 4f75 71bd
000002c0: ca4d cabd 5050 3dbe abd6 e7bd b28f 20bd
000002d0: 560a c43c 7d5e 8dbd 7dd7 47be fb68 073c
000002e0: dfa9 083d 9774 6dbc e12d a03b 5062 bfbc
000002f0: e0ee 7fbe 71bb 263d 63d7 dc3a cda3 7c3d
00000300: 2f1e 02bc 5143 14be 8375 e8bd ed78 bfbc
00000310: 7f1c 32bd c3cc 603d bb2d fabd 7309 3b3e
00000320: d90f 023d eecd 28bd 620e 273e 8b7d 893d
00000330: dee1 5dbe f997 913d e66b 34be af8e 8dbd
00000340: 98c5 c53d 3c7a f1bd b006 61be 63d1 233c
00000350: 5f56 cfbd fed5 553e 6c0e 3abe e1b8 24bd
00000360: fd83 6e3d 9e48 103d 3904 05be 94ff ee3c
00000370: 93dc 29bc b580 a9be 448b a7bc 3146 123c
00000380: 73ea 04be 3f65 c6bd 9608 db3c 1c92 00be
00000390: d4ed 12bd 9fe8 253e e502 f8bd bac2 6f3d
000003a0: ff03 803d 8766 de3c 7820 7fbc 7f80 d2bc
000003b0: b629 4cbe 3241 cebd 7f52 c5bd dae3 26bd
000003c0: a90c c43b 074a 76bc 6011 7ebc a284 513d
000003d0: b793 083d 4324 53bd af90 553d 3689 113e
000003e0: 0552 0c3e 99aa b3bd 39df bb3c 9068 763d
000003f0: 9c81 3c3d 4e4d 093e ebf7 f33a 7dd8 2a3b
-0.11260115 0.0161436 0.07249543 0.077809185 0.27389565 0.21194012 0.035385363 0.06264202
0.12493881 -0.09688452 0.11707441 0.15606618 -0.07958476 0.016596204 -0.095819116 0.0480183
-0.051669836 -0.0029983995 -0.032675236 0.05434773 -0.019721506 0.10166728 0.16238755 -0.049532477
0.104751244 -0.29479438 0.13184834 -0.067408346 0.006557959 0.016912304 -0.022002995 0.033660967
0.20140468 0.03315108 -0.08632239 -0.1473156 0.008418218 0.03447707 0.11596111 0.028041517
0.07154853 0.03030838 -0.1311967 -0.09415474 0.037193205 -0.058445748 0.10441752 0.07417743
-0.08663311 -0.03820328 -0.010320263 0.09760397 -0.09292281 -0.011750784 -0.013663821 -0.016405191
-0.1149637 -0.0553777 -0.28137758 -0.12434655 0.03753625 -0.10330104 0.016373357 0.050512772
0.115067355 0.13515271 0.064830914 -0.14483295 0.06687607 0.048405793 0.020873904 -0.060862005
-0.07227667 -0.10387526 0.024511974 -0.059905645 -0.17572734 -0.006176025 0.021744244 0.06780761
-0.123737134 0.07082573 -0.026604688 -0.061823484 0.09092698 0.13264406 0.17816345 -0.06828078
-0.032712728 0.1099477 -0.23442541 0.15423113 -0.050413806 0.054058827 0.1550201 -0.036308803
-0.19201243 0.00854305 -0.22620189 -0.087874755 -0.24799794 0.15594411 0.04024189 -0.055114232
-0.043509156 0.06846187 0.08766287 -0.0256302 -0.025486782 0.07646988 0.19012715 0.053721964
-0.034337226 0.022571497 -0.12589285 0.052242186 -0.23405223 -0.21480745 0.06889855 -0.0006057703
0.06034132 0.09046131 0.020614807 0.042612966 -0.03502302 -0.0128556555 -0.035818398 -0.026405295
0.038264688 0.07622893 -0.10939937 0.006564203 -0.085161045 0.11777598 -0.10433892 -0.04222245
-0.027829334 -0.02463263 0.085216455 -0.09798645 -0.08954493 -0.06104656 -0.17621174 -0.12856303
0.01818457 -0.076887675 0.029299835 -0.041609187 0.029847477 -0.022263361 -0.10387939 -0.005042886
0.024058102 0.057510357 0.025595253 0.014438574 -0.023650436 -0.056896385 -0.010863999 -0.0443989
0.05953113 0.09410138 -0.096197814 -0.08565285 0.081809156 -0.15870789 -0.15890035 0.026949659
0.070481084 0.0070449235 -0.067375004 -0.12047484 0.0446402 0.061936397 -0.029863626 -0.058949765
-0.09878118 -0.18487668 -0.113202415 -0.03919954 0.02393071 -0.06902788 -0.19515796 0.008264775
0.033365127 -0.014493129 0.0048882817 -0.023362309 -0.24993467 0.0407061 0.0016848858 0.06167965
-0.007941767 -0.14478804 -0.113505386 -0.023373092 -0.043484207 0.054882776 -0.12215754 0.18265323
0.031753395 -0.041212015 0.1631408 0.067133985 -0.21668193 0.071090646 -0.17619285 -0.0691198
0.09656829 -0.117908925 -0.21975207 0.009998652 -0.10123896 0.20882413 -0.18169564 -0.040215377
0.058231343 0.035225503 -0.12989892 0.029174604 -0.01036753 -0.33106008 -0.02045215 0.008927868
-0.1298006 -0.0968728 0.026737493 -0.12555736 -0.03587134 0.16202019 -0.12109927 0.058535315
0.06250762 0.027148498 -0.015571706 -0.025696037 -0.19937786 -0.10071029 -0.096348755 -0.04074464
0.0059829545 -0.015032298 -0.015507072 0.05115188 0.033343997 -0.051548254 0.052139934 0.14212498
0.13703163 -0.08772773 0.02293359 0.060158312 0.046022043 0.13408396 0.0018613314 0.0026068978

network_body._body_endoder.seq_layers.0.bias f4 [256]
00000000: 3129 64bc d748 5c3c 38b3 15bd 1b46 2f3d
00000010: 5f26 17bb 05ac 6b3c 0b46 003c 1227 603d
00000020: 3fc9 d0bb cd9b b23c 2fd9 26bd 819a 39bd
00000030: 8e39 06ba b803 e13c a2cb 0ebd f46d db3b
00000040: a033 ecbb 53fe 88bc cf09 783d 669b 82bc
00000050: e85e b0b9 df73 3fbc dff8 e4bb 08f1 2abb
00000060: 7a11 f2bb f482 e93a 6dbb d13c 2028 cf3c
00000070: 8688 763d 9b34 93bc abe6 23bd 50a4 033b
00000080: 7a52 c7bc da45 2c3c f14a 1dbd 6b59 08bd
00000090: e374 2c3d 83fb 683d 71a4 9bbc 4801 843c
000000a0: 3770 003d 2370 a3bb c809 53bc 4e69 5ebc
000000b0: 32fb 69bc 79b9 a2bb b5b6 29bd 0db7 373c
000000c0: 94c9 00bd 23a4 d73b 0e06 54bd 0d84 b13c
000000d0: b1ed cd3c f8d2 8fbc 257e 963c d256 263d
000000e0: 1354 f03b 69c8 dd3c 9957 583d 5a9d f8bb
000000f0: bf5a bebc a370 4d3c 399b 263d 75a7 10bc
00000100: 510b 473c ed15 04bb b5f2 253d 9094 643d
00000110: b2e4 1a3b d775 a5bb 316d 27bb f92f ec3b
00000120: dc43 46bc 0064 11bd d66b be3c 85a1 13bd
00000130: 8753 343d 4b91 b63c 2b63 483d 0e3d e43c
00000140: cfca bf3c e644 1ebd 95d0 bcba 1dab 9a3c
00000150: 03c5 a7bc eddf 20ba 0ef5 e93b 693f 933c
00000160: 6c6b 82bc 6939 3fbd 241e 3dbd c4f2 eabc
00000170: 1f85 113d 114c b23c df5b 653c 869f cdb9
00000180: f33a a73d f6de d8ba d4bd a0bc d814 5bbd
00000190: cec6 4b3c 02ca a73c 1538 2a3d 763a ac3c
000001a0: e1b9 623c a407 ebbc fe78 133d 8509 8b3c
000001b0: 003e 023d 44de 4b3d d8d3 883c f9cd 913c
000001c0: 75bf 393d e9c3 983c eb35 ddbc ebb9 10bd
000001d0: 950f 373d 9f52 4ebc 0262 6c3b 7c44 b7bc
000001e0: 93a0 53bc 987e 413c 5c57 fa3a 34d0 d2bc
000001f0: d3c6 e13c 164e 2fbc 146c 0abd ae22 11bd
00000200: ba52 3f3c e5a9 0bbd 8501 21bc efe6 c2bc
00000210: 8fd3 ca3c fb9f 0f3c 3e5f b53c 4e0b d2bc
00000220: 9f38 15bc 5d99 853c 1cfa dd3b b631 2a3d
00000230: a89e 33bd 8f0a 34bc bd16 0f3d 55a4 853c
00000240: acae 7e3c 5d6c c0bc ce91 593c d3c9 01bc
00000250: e496 303c 4472 343c 13bc f4bc f208 63bc
00000260: 248b 223c 548e bc3c faae 9abc 13dd 3f3c
00000270: da13 773c 23ef eabb d59c b0bb d5b4 26bd
00000280: 361f f3bc 2f6c 173d b739 6d3c c3b6 caba
00000290: ae7b 4d3b de41 e13c ec10 283b d5ef 69bb
000002a0: c911 0fbd c46c 16bd 86a5 09bb c1cc 453d
000002b0: bf1c 24bd fc2e 10bd a654 38bc b11f fabb
000002c0: 0fd9 083c 39a5 6e3d 296f 033c f8c2 cfbb
000002d0: ae82 f13c 053e 3fbc 34b3 7f3c b75b 843c
000002e0: 70e8 15bd 3433 7b3c 744c 3b3d 6415 f33c
000002f0: ebcb f53c 5ab7 fd3b 6ec0 273c 74e3 1b3b
00000300: b854 da3c 7549 8fbc 17bb a13a 454b 223d
00000310: f92a eabb 918a 3b3d 9615 da3c 887c 11bd
00000320: c51f f2bb 2466 033d 5684 e3ba 3b40 d93c
00000330: 29a9 a93c 9e68 debb 7871 32bc 1af6 28bc
00000340: 4692 023c da18 2abc 7d4f 023d 5e44 96ba
00000350: e263 373d cd74 6abc ed6a 8f3b adfc 04bc
00000360: 90d8 f83c 3f38 40bc f4a4 a03c 39ec 0e3d
00000370: 8c58 553d 041e 063d 0aa1 c53c d571 ef3c
00000380: afa0 a2bc 917d 5a3c b3f8 a53d 6ad9 1dbd
00000390: 9efd fbbb 1574 7f3c b06f 8d3c b510 e53b
000003a0: 550f afbc 9882 18bd 8851 04bd aa66 443a
000003b0: e69c 9d3c 5c9a bcbc ca90 b53d a701 0e3d
000003c0: e4e9 2c3c bd11 ccbc 1dfe ad3c c158 353d
000003d0: 1012 1d3d fbb2 323d 47ae a73c 5461 fbbc
000003e0: b40c 953b 19f3 1d3d 2b8c 2f3d 98d3 b0bc
000003f0: d77a 983d 50b6 533c c723 ccbc b2b0 10bc
-0.013925836 0.013445101 -0.03654787 0.042791467 -0.0023063642 0.014384274 0.0078292 0.05472476
-0.0063716467 0.021802807 -0.040734466 -0.045313362 -0.00051202707 0.027467594 -0.034862168 0.006696457
-0.0072083026 -0.016722834 0.06055623 -0.01594324 -0.00033640047 -0.011685341 -0.0069876756 -0.0026083607
-0.0073873373 0.0017815516 0.025602067 0.025287688 0.060188793 -0.01796942 -0.040014904 0.0020086952
-0.02433132 0.010514701 -0.038401548 -0.0332884 0.04210366 0.056880485 -0.01899931 0.016113892
0.031357016 -0.004987733 -0.01288075 -0.013574911 -0.014281081 -0.0049659577 -0.04143401 0.011213076
-0.03144224 0.006580846 -0.051763587 0.021669412 0.025137754 -0.017556652 0.018370697 0.040610142
0.007334241 0.027073102 0.052817915 -0.007587117 -0.02323663 0.012539062 0.040675376 -0.008828987
0.012148694 -0.002015467 0.040514667 0.055805743 0.0023634848 -0.005049448 -0.002554726 0.007207867
-0.01210114 -0.035495758 0.02324478 -0.03604271 0.04402497 0.022286078 0.0489227 0.027861144
0.023412136 -0.038639925 -0.0014405424 0.018880421 -0.020479685 -0.0006136883 0.0071398085 0.017974572
-0.015920363 -0.04668561 -0.046171322 -0.028680213 0.035527345 0.021764787 0.013998955 -0.000392195
0.081655405 -0.001654594 -0.019621767 -0.053486675 0.012437535 0.020482067 0.04155739 0.02102397
0.013838262 -0.028690167 0.03600406 0.016972313 0.03179741 0.049772516 0.016702577 0.01779841
0.045348603 0.018648105 -0.02700325 -0.035333555 0.044692595 -0.012592941 0.003606916 -0.022371523
-0.012916702 0.011809967 0.0019099521 -0.025734045 0.027560627 -0.0106997695 -0.033794478 -0.035433464
0.011677438 -0.03409757 -0.009827022 -0.023791758 0.024759082 0.00876617 0.022140142 -0.025640156
-0.009107738 0.01630848 0.0067742 0.041551314 -0.04385248 -0.0109888455 0.034933794 0.016313711
0.015544575 -0.023489172 0.013279391 -0.007921654 0.010778163 0.011013571 -0.029874837 -0.013857113
0.009920869 0.023017086 -0.018882263 0.011710423 0.015080417 -0.0071696206 -0.0053897896 -0.0406998
-0.029677968 0.036968406 0.014479092 -0.0015465844 0.0031354236 0.027497228 0.0025644852 -0.003569593
-0.03492907 -0.03672482 -0.00210032 0.04829097 -0.040066477 -0.035201058 -0.0112506505 -0.0076331724
0.008352532 0.058263037 0.008022108 -0.0063403808 0.029481258 -0.011672501 0.01560669 0.016157014
-0.036598623 0.015332032 0.04572721 0.029673286 0.030004462 0.0077428045 0.01023875 0.0023786696
0.026651725 -0.017491082 0.0012339082 0.039622564 -0.007146236 0.045786444 0.026621621 -0.035519153
-0.007389041 0.03207983 -0.0017358165 0.026519885 0.020710545 -0.0067873737 -0.010891311 -0.010312581
0.007969445 -0.010381902 0.031814087 -0.0011464467 0.04477299 -0.014310074 0.00437676 -0.008116883
0.030376703 -0.01173216 0.019609906 0.03489325 0.052086398 0.03274347 0.024124641 0.029229084
-0.01985201 0.013335601 0.08104076 -0.03853742 -0.0076901456 0.015591641 0.01726517 0.006990517
-0.021369616 -0.03723392 -0.032304317 0.0007492105 0.019239854 -0.023022823 0.08865507 0.034669545
0.010553811 -0.024910802 0.021239335 0.044274095 0.038347304 0.04362772 0.020468844 -0.030686058
0.0045486335 0.038561914 0.042858284 -0.02158527 0.07445305 0.012921885 -0.024919404 -0.00883119

network_body._body_endoder.seq_layers.2.weight f4 [256, 256]
00000000: 9f5e 52bc f902 3e3d faad 88bd e43e 263d
00000010: 7922 73ba 0203 35bd 3c4a b9bb d8c0 1b3e
00000020: 2414 203d 2da5 d1bd 0f88 06be 1be4 923d
00000030: 3b61 bfbc af7a 79bd ee1f 9ebc 7a9d a1bd
00000040: f059 5cbc 0b36 023e c691 833a 744a acbd
00000050: 702e d8bd 5594 3b3a f98c a03d 05cd 35bd
00000060: fbdd ebbd d51f 643d 7d46 e0bb ee4f fbbb
00000070: f5c1 553d 3d15 0b3c cbff 96bc 0d6a 603c
00000080: e233 0fbd fdf1 1ebc 1604 a3bc 4ad6 273d
00000090: 9529 8abd 95c7 863b f5cc f43c 8afa ee3c
000000a0: 1c0a f4bd e8bc 7b3d 7f70 053d 85a6 dcbc
000000b0: d8d4 783d 41ec e5bd 2548 1ebd 28b6 dbbc
000000c0: b1a8 bdbd 5660 043d 500d 8f3d fc8d 59bd
000000d0: 1a29 993d 15dc eb3d 4a46 353c f8f2 4bbb
000000e0: 2ef6 393d f4b0 213e c227 54bd 9c14 9cbd
000000f0: 8d85 a13c 49ca 23be 1520 12bc 7da3 0d3d
00000100: 2d6d 28bd 498d f13c d965 d33d 579c 98bc
00000110: a5e6 3e3d e179 033c 5398 d4bc 9ccd eebc
00000120: 6c57 853d ab06 6dbb b99a 8bbd 73b3 9b3c
00000130: 63f1 dd3c 386e 69bd e3e2 ac3d 9be2 f83d
00000140: 67bd 12bd 32fe e13a 0e6f bbbc a84a 87bd
00000150: 42c5 1fbd 2803 ed3c b652 5dbd 4ccc d23c
00000160: 4be7 4cbd ce08 453d 11f7 453d 6860 d1bd
00000170: dae2 543c 3c96 19be ed85 a0bc 4261 0c3d
00000180: 440e b33c e92b 8abc 4da7 273e 9676 2a3d
00000190: 48f2 483c 1ea9 46bd b022 eabc ac9c a6bc
000001a0: 42d6 be3d eaa1 1cbd 43b3 3abe 44c5 18bd
000001b0: d8f1 023d 0599 b4ba 55b6 5a3c 7513 cdbd
000001c0: 02ea 1d3e d2b6 c83c 828d 2f3d 65bb 563c
000001d0: 0abb 6c3d 1a4f b0bb 6b99 cf3c f124 45bc
000001e0: 3bef c03c b8de 71bd 17a0 8a3d d031 823d
000001f0: 3133 0a3e 38a6 89bc c5f9 3c3d 26f1 a6bd
00000200: 0c07 d63b 03ec 2fbd ae72 b2bc e0df 56bd
00000210: 3c94 c1bd e24f dcbc 5ecf e7bd bdaa 6bbd
00000220: 6682 323d 8a02 92bd 1432 a53d f033 af3c
00000230: 3c48 f4ba 27a1 9e3d ed6b 893b e1b4 e5bd
00000240: ee09 adbb a77b 02bd de82 ae3c 475c 29bd
00000250: b8a3 533b a7fb 883c f67a 51bc 9a51 00be
00000260: 666b d8bb e2b2 9fbd 47c8 44bd a346 16bd
00000270: 7d24 95bd 6875 c53d 0f49 0f3c dd52 913d
00000280: 0269 86bb e855 e2bc 7caa fabb bd5c 363d
00000290: 9609 183d 28a3 61bc 141f dc3d 89a0 50bc
000002a0: 99d2 bf3d a28f 84bd 1f17 d6bd 10e6 ab3d
000002b0: 2203 773d 0ef7 2cbd 1b28 fd3d 5c57 6bbd
000002c0: 1748 953c e980 803d 58d6 5bbd 9170 39bd
000002d0: ae42 f8bc 65fe acbb 2e03 13bc 2123 913c
000002e0: ba44 003d d894 1a3d 710c e4bd a521 d93c
000002f0: 014d 5fbd d1e2 f6bd fe1d 28bd 2f3b 31be
00000300: c186 a83d 3e3b b6bd c81e e23a 4070 03bd
00000310: 3a2e 2b3b 3622 c73d 5b14 b9bd 2e07 47bd
00000320: 9970 993c fd6e 9e3d fd9b 5abd 5ca3 c63d
00000330: b4c1 aabb c17c 84bd 54b3 983b dd4a 6a3d
00000340: 40be 6c3d 8980 8fbd 1db2 c2bb 51aa 563d
00000350: 4bac 063c 1740 80bd 3270 f1bd 4247 4ebd
00000360: 8f4b 053e 44bb f93d 6fca b23b 62c8 a63d
00000370: 6b4f 0abd 8027 a93c 6f33 753d a79b fabd
00000380: a161 70bd e9b2 42bd 0d13 2e3d ea42 10bc
00000390: 1abe b33d b56a f0ba 01d3 e0bd e364 9abd
000003a0: 2891 83bd 0507 043d 5fb6 a9bd 6577 e43c
000003b0: c8a7 8dbc bc9e f93a 50d9 843d f24f 88bb
000003c0: 9870 9c3b a924 bebd b5c9 b03d 75c3 9f3d
000003d0: 75df 90bd 20fc 083d b684 3fbc dfd7 4abc
000003e0: dbb2 1dbc 6bff 82be 852b b4bd f112 bf3d
000003f0: 23d8 9d3c d467 6fbc 3eae 83bc 8495 6abc
-0.012839942 0.046389554 -0.066738084 0.04058732 -0.0009274851 -0.04419232 -0.0056546014 0.15210283
0.039081708 -0.10236583 -0.1313784 0.07172414 -0.023361793 -0.060908016 -0.019302335 -0.078913644
-0.013449177 0.12715928 0.0010037951 -0.08412638 -0.10555732 0.0007155587 0.078393884 -0.044384975
-0.11516949 0.05569442 -0.0068443404 -0.0076694405 0.052186925 0.00848895 -0.018432518 0.0136971595
-0.03496159 -0.009701249 -0.01989941 0.040975846 -0.067462124 0.0041131475 0.029882887 0.0291722
-0.11915991 0.061459452 0.032577988 -0.026934871 0.06074986 -0.112267025 -0.03864302 -0.026820257
-0.09260691 0.032318436 0.06984961 -0.053113922 0.074785426 0.11516587 0.0110641215 -0.0031120162
0.04540079 0.15790159 -0.05179573 -0.076211184 0.019717002 -0.15995134 -0.008918782 0.034579743
-0.041119743 0.029486315 0.1032216 -0.018629236 0.04660668 0.008024664 -0.02595154 -0.029150777
0.06510815 -0.0036167304 -0.068166204 0.019006466 0.027092641 -0.05698988 0.08441713 0.121525966
-0.03582516 0.0017241894 -0.022880103 -0.066060364 -0.03900648 0.02893217 -0.054033957 0.025732182
-0.050025266 0.0481041 0.048331324 -0.10223466 0.012993539 -0.14998716 -0.01959511 0.03427244
0.021857388 -0.016866641 0.16372414 0.041617 0.012264796 -0.048501126 -0.028580993 -0.020338379
0.0931821 -0.03824035 -0.18232445 -0.037297502 0.03196892 -0.0013778514 0.013349135 -0.10013477
0.15421298 0.024501238 0.04285956 0.013106202 0.05779556 -0.0053805234 0.02534171 -0.012032733
0.023551574 -0.05905029 0.06768816 0.06357157 0.1349609 -0.016802892 0.046136636 -0.08151464
0.006531602 -0.042949688 -0.0217832 -0.052459598 -0.094521016 -0.02689356 -0.11318849 -0.057535876
0.04358139 -0.071293905 0.08066192 0.02138707 -0.001863725 0.07745581 0.004193774 -0.112161405
-0.0052807247 -0.031856205 0.021302637 -0.04134777 0.003229363 0.01672156 -0.012785664 -0.12531129
-0.0066045998 -0.07797791 -0.04804256 -0.03668846 -0.0728235 0.09641534 0.008745446 0.07095883
-0.0041018734 -0.027628854 -0.007649718 0.044522036 0.037118517 -0.01377181 0.10748115 -0.012733587
0.0936634 -0.06472708 -0.10453629 0.0839349 0.060305722 -0.042227797 0.12361165 -0.05745636
0.018222852 0.06274588 -0.05367121 -0.045273367 -0.030305233 -0.0052793496 -0.008972926 0.017716946
0.031315543 0.037739605 -0.111351855 0.0265053 -0.054516796 -0.120549805 -0.041044228 -0.17307733
0.08228827 -0.08898018 0.0017251605 -0.03208947 0.0026120082 0.09723322 -0.090370856 -0.04859083
0.018730449 0.07736013 -0.05337142 0.09699127 -0.0052110795 -0.064691074 0.0046600495 0.0572003
0.057798624 -0.07006938 -0.005941643 0.05240852 0.008219789 -0.06262224 -0.11788978 -0.050360925
0.13017105 0.12193921 0.005456261 0.08143689 -0.033767145 0.020648718 0.059863504 -0.122367196
-0.058686856 -0.047533903 0.042498637 -0.008805016 0.08776493 -0.0018342348 -0.10977746 -0.07538774
-0.06424171 0.032233257 -0.08286738 0.027888963 -0.017291918 0.0019044499 0.064867616 -0.004159921
0.0047741644 -0.09284336 0.086322226 0.07800952 -0.07073871 0.03344357 -0.011689356 -0.012380569
-0.009625162 -0.25585493 -0.08797363 0.09329785 0.019268101 -0.014612157 -0.016074296 -0.014317874

network_body._body_endoder.seq_layers.2.bias f4 [256]
00000000: 6160 913b bfcd 2f3d d82c c63c 75be 533b
00000010: f36b 1a3d e691 40bd f4d3 7fbc ac6d 0e3c
00000020: 0f14 6b3d 135d 7f3c 71e3 343d 91bd 2abd
00000030: cf2d cabb c758 cf3c 3183 733a 2210 24bc
00000040: 8029 f73c 3a66 cb3c 3237 283d 22f5 f43c
00000050: 4e9a 9b3a 5fca a13c c694 4cbc 1d6d 423c
00000060: 4132 b23c 4abd e63c f0bb 0bbd 5d61 a33c
00000070: 2464 9fbb 5957 133d ffe8 04bc b09c edbb
00000080: a3ab b0bc f303 bd3c af08 b2bc a77d 563d
00000090: d208 0e3c 3ed9 0b3d d856 73bc 49d6 943c
000000a0: 8e38 023d eae0 b03b 1da0 303d 90a4 d33c
000000b0: 2368 0fba 4541 23bd a61e cb3c ecff 013c
000000c0: 7e56 103d cfae 733b 311f 84bb 43d8 88bc
000000d0: 4d27 abbc e921 20bc 018c 44bc d762 5d3c
000000e0: 5667 a2bc 6d57 1bbd 507b 4f3c 0668 10bd
000000f0: cd2b 89bc 74ae 173c 54ec db3c 2de0 36bc
00000100: bf09 95bc 40ce 2d3a 0aad 43bb 050e a23c
00000110: 5820 dd3c 15d5 78bb eebe f9bb 20f4 59ba
00000120: e2ff 0dbc 1995 53bb 9361 e0ba 8416 1d3c
00000130: 1b4c 34bc ef2a 0dba 52ac 0d3d 19e7 19bc
00000140: 404d c4bc 59c4 0dbd 40e3 67bc d5a9 7c3b
00000150: f6e1 8b3c 0ce1 623a c0d9 2abc d843 b2bc
00000160: df62 d93c a27a ac3b 92e7 4a3d 879f b1bc
00000170: 13e1 f1bc 8835 83bc 452f d93c c8c9 87bc
00000180: d7c3 f3bb ca8a 663c 58a3 3f3c f2d7 4dbc
00000190: a085 c63b 16b7 12bd 5390 a03c c190 563d
000001a0: e1be 233b c3e6 21bc b4ea 6ebb 8cf1 97bc
000001b0: 2804 8bbc 4ee0 123d 5534 debb b214 203c
000001c0: f28b f7bb 41b1 e43c 3cfc 5d3c f678 e5ba
000001d0: 09aa 93bc d64b 85bc 9f2f ef3c e862 a7bc
000001e0: 538b afbc 6aaa 063d 49ea 18bb 6f9c abbc
000001f0: fa46 0a3d 13c7 3bbc 14c7 73bc 146a 06bc
00000200: a22a 30bb 5838 c8bc 4a7d 163d 0e98 85bc
00000210: a489 033d 6521 453c 6133 f0bc 86c5 033c
00000220: ef15 e63c 0b74 a23c 57a9 0e3c 7a9b 483c
00000230: 28a0 98bc cf53 bfbc 0e09 5a3c 312f 40bc
00000240: 1092 f2bc 211c 9e3c 124b 563a 4127 dcbb
00000250: b431 55bc 6ca1 5dbc af99 02bd b42d 25bd
00000260: ced4 07bd f0f2 b439 2b3c 56bd 0266 6fbc
00000270: 85f8 70bc 8e89 d93c 6c17 453d c61d 37bc
00000280: d608 4739 e589 1bbc d3b1 a93c 6ba1 913c
00000290: 89a1 be3a a560 1bbd 651f 963c 0e7b adbb
000002a0: 4fbb a7bb fa33 213d 4039 333d 4083 88bc
000002b0: e981 c0bc 85f0 963c d465 f1bc 1884 93bc
000002c0: a335 5cbc 3ba8 b23c f9dd 2dbd aa31 363c
000002d0: 7b1e d03c b88d 9ebc 4518 f5bc 95a4 9abc
000002e0: 2165 e73c db9b 77ba fe34 a4bc 9b9b c93c
000002f0: bcd2 12bd c9d5 66bb fbf2 883c 4f8e 7f3c
00000300: d4af 723c b5e4 02bb 78b4 ab3c 78d4 323d
00000310: 1e3b 1d3b 73e3 babc f11a febb 6817 a63b
00000320: 9f12 d0bc 5ef2 d43c b362 73bc 2685 16bd
00000330: c616 02bd ee9b a63c a618 30bd 4184 4fbc
00000340: 93f5 87bc 5517 763c 0a9a bcbc 4c56 033d
00000350: 658f 013d 4c11 20bc d4b6 bc3c 65a3 0a3c
00000360: 3237 cdbb 9b9b 153c ea4c 273c b414 f33c
00000370: 64d8 51bc aa6d 933c 6d38 3e3c 754f c63b
00000380: a588 86bc f46b 85bc b9df 71bb daba 45bb
00000390: 01bc c5bc 8381 88bc d863 21ba 960c 923b
000003a0: 2d33 d03c 43cb 203d 2343 b03b e4ce f4bc
000003b0: e7ea 89bc ead2 dd3b c70b b6bc fc15 ecbb
000003c0: 37b7 173d b197 a23c 56f0 323d 7092 8cbc
000003d0: 56cc 31bc e49c 0a3d 93dd 853b aaf8 3e3d
000003e0: 507c d2bc c439 cebb 59f6 8fbc 3a91 e2bc
000003f0: 4389 1cbd c6e1 21bb b438 dd3c fa3e d53b
0.004436538 0.042920824 0.024191305 0.0032309566 0.037700605 -0.04701414 -0.015614498 0.00869314
0.057392176 0.0155861555 0.044162218 -0.04168469 -0.0061700116 0.025310887 0.00092892634 -0.010013612
0.030171156 0.024829019 0.041068263 0.029902045 0.0011871548 0.019749818 -0.012486642 0.011866835
0.021752479 0.028166432 -0.034114778 0.019943887 -0.0048642326 0.035971973 -0.008112191 -0.0072513446
-0.021566218 0.023073172 -0.021732656 0.052365925 0.008669095 0.034142725 -0.014852248 0.018168585
0.031792216 0.0053979056 0.043121446 0.025835305 -0.00054705347 -0.039857168 0.024794888 0.007934552
0.035238735 0.0037183051 -0.0040320386 -0.016704684 -0.020892764 -0.00977371 -0.01199627 0.013512335
-0.019824665 -0.037925173 0.012663677 -0.035255454 -0.016744519 0.009257901 0.026846088 -0.011161846
-0.018193124 0.000663016 -0.0029857778 0.019782076 0.026992962 -0.0037968804 -0.0076216375 -0.00083142705
-0.008666964 -0.0032284914 -0.0017118923 0.009587888 -0.011004473 -0.0005385121 0.034588166 -0.009393477
-0.023962617 -0.03461108 -0.014153302 0.0038553376 0.01707552 0.00086547504 -0.010427892 -0.021760866
0.026536403 0.0052636424 0.04953725 -0.021682514 -0.029526269 -0.016016737 0.026511798 -0.016575709
-0.0074391174 0.014071176 0.011696659 -0.012563692 0.00605841 -0.035819136 0.01960007 0.05238414
0.00249856 -0.009881678 -0.0036455812 -0.018547796 -0.016969755 0.035858445 -0.006781141 0.009770559
-0.0075545246 0.027916552 0.013548907 -0.0017507363 -0.018025415 -0.016271513 0.029197512 -0.020432904
-0.02142874 0.032877363 -0.0023333004 -0.020948617 0.033759095 -0.011461037 -0.014879007 -0.008204002
-0.002688088 -0.02444093 0.03674058 -0.016307857 0.032113686 0.012031888 -0.029321374 0.008042699
0.02808663 0.019830724 0.008707366 0.0122441 -0.018631056 -0.023355393 0.013307823 -0.011730001
-0.029610664 0.019300522 0.00081746385 -0.0067185466 -0.013012338 -0.0135272555 -0.031884845 -0.04032679
-0.03316193 0.00034513278 -0.052303474 -0.014611723 -0.014707689 0.026554849 0.04811804 -0.011176532
0.0001898141 -0.009493326 0.020714676 0.017777165 0.0014543991 -0.037933964 0.018325517 -0.0052942103
-0.0051187645 0.03935621 0.04375577 -0.016664147 -0.023499446 0.018425236 -0.0294675 -0.018007323
-0.013440522 0.021808734 -0.042448018 0.011120239 0.02540516 -0.019354686 -0.0299188 -0.018877307
0.028246464 -0.00094455265 -0.0200448 0.024610331 -0.035845503 -0.003522264 0.016717425 0.015597894
0.0148124285 -0.0019972746 0.020960078 0.043659657 0.0023991535 -0.022813534 -0.0077546765 0.005068708
-0.025399504 0.025994476 -0.014855075 -0.036748074 -0.03176 0.020338025 -0.042992257 -0.012665809
-0.016596591 0.015020211 -0.02302267 0.03206472 0.031630892 -0.009769749 0.023036398 0.008461808
-0.0062626833 0.0091313375 0.010211209 0.029672958 -0.012807939 0.017996628 0.011610133 0.0060519525
-0.016422579 -0.016286828 -0.003690703 -0.0030171187 -0.024137499 -0.016663318 -0.00061565405 0.0044570668
0.025415028 0.039256345 0.005379097 -0.02988381 -0.016835643 0.0067695277 -0.022222413 -0.007204769
0.03703996 0.019847723 0.043686233 -0.01715967 -0.01085194 0.03384103 0.0040852516 0.046623863
-0.025694042 -0.0062935073 -0.017573522 -0.02765714 -0.03821684 -0.0024701222 0.027004577 0.0065077515

action_model._discrete_distribution.branches.0.weight f4 [2, 256]
00000000: 21e3 deba bf84 2f3d da82 2a3d c934 c1bb
00000010: cc06 8a3b f8ec c7bb 5504 2cb9 6848 813c
00000020: 729f a73b 59fc ba3c 7c02 c2bc 4335 a9bc
00000030: 0986 253b 8062 b2ba 1adb a4bc 2d90 8cbb
00000040: 6540 5fbc 6c7e 45bc e757 3c3d dc7b c83b
00000050: 9e25 083c c672 1d3d 0f31 f63a c8bf 383c
00000060: c44d 25bc 5402 4d3c 07d8 1dbc a03c 31bc
00000070: 5829 02bc ff55 1dbc 5f00 98bb 4050 30bc
00000080: 5b54 de3c 86fe b23c 9d46 b3bc 3ea3 483d
00000090: 5a6e dabc f545 a7bc 3e74 4c3b 1c4f 30bc
000000a0: b39f 1fbd cd4f eabc b1b8 a43c bb4a 01bc
000000b0: 1bc3 32bd def2 20bb 8d57 86bb b559 4bbd
000000c0: 70b6 5d3d 7b8b b0bc 1a19 ee3b 6c42 79bb
000000d0: f760 febc bef5 8fbc a933 87bc 1b1e 833c
000000e0: 6bcb 183c 452e 9fbc c9fd 8fb9 963d 1036
000000f0: 42cb 3cbb ac3e 573c 602d 8b3c 727f 5abc
00000100: 8002 02ba f831 de3b 51ed 11bc e3c1 073c
00000110: 5a5e d9bb ea56 d53b de7b 8bbc 4e91 523c
00000120: b4ab 6dbc 9735 1c3c 488d 01bd 85b4 223c
00000130: 6132 26bc fdc7 25bc f3b0 08bc bbe1 9ebc
00000140: fcfa 133c 7c3c bc3c 72c1 ba3c 16a0 81bc
00000150: 9bca e13c 7474 0abc a751 74bc 9035 443c
00000160: 666e 323d 8ca8 cc3c 3409 493d 7a6e 0ebc
00000170: 969b c9bc 12a7 02bc d63c b93c cfad bbbc
00000180: f560 0ebb 40bc 1ebd fc39 9cbb bc43 4b3c
00000190: 1733 e7bb 9eb2 743c b1a2 573d 30b8 ec3c
000001a0: cbd9 83bc 69e2 ce3b 87f6 80bb 7b3c a0b9
000001b0: 5843 cfbb 692a 9c3c 1249 603c 39ec 193d
000001c0: 0835 ffbb 7695 d3bc f6ea 4a3d 80f1 80bb
000001d0: 6fb0 d7ba 75a0 5cbb 948e 473d 6d2b a7ba
000001e0: 4307 2bbc de84 acbc ca7d 3ab8 76cf a1bb
000001f0: eb74 803a 64fd 943c f905 913b 87ee 98bb
00000200: 9ca5 8fbb f0fe 7fbc a161 8bbc 3216 b7bc
00000210: aec6 3c3c 788d d3ba 6bb6 523b 7bad 823c
00000220: 6744 75bb 4c7a 24bb 155f bbbb 6cd5 17bb
00000230: b3a4 1cbd 38c9 afbc e62e 0c3d 72aa 7abc
00000240: d497 a8ba ec38 073d 9d69 50bc 4231 9d3c
00000250: 7f5d 4b3c a6c7 1dbc 2061 203c 659e 0ebc
00000260: 6a53 ff3b c684 fdbc 101c 183c 25a9 36ba
00000270: 1e84 18bd a8de 023c 894a 583c 26c1 de3b
00000280: a414 0a3c 8755 52bb 7444 a43b 8aa6 e93c
00000290: 0985 713c f2f7 443c fd0d 96bc 780b 74bc
000002a0: fcf5 30bc 96da 78bc cb5a 07ba 0ff7 13bc
000002b0: f042 533b 2bd1 4ebc 56dd f638 8316 9c3c
000002c0: 269d 6fbc 1b4a 0e3c 18fe c1bb 756b 73ba
000002d0: 4505 043d 6b1a b1bc 2cd5 04bb a44f 24bc
000002e0: 3110 043d 1236 34bd a269 76bc cb96 c33d
000002f0: 6b36 383c bbb0 b43b cd1a 3e3b a597 88bb
00000300: 1cc4 473d a4a0 cbba 324a b43c ffa7 b23c
00000310: fa0c 2b3a 93b0 07bc 84cd 42bc a8b5 dd3c
00000320: 3369 88bc 131d 723d 840f d4bc 8fdd 96bc
00000330: 4fbc 13bc 555c c6bb 80eb 683a e4d1 b93b
00000340: 33c4 9abc 3611 a03c 861e e13b 6bb3 4a3c
00000350: cbb6 02bd d875 0bba 660d 6b3a c0a3 f6bb
00000360: aafa 27bd d3cb 16bc 2217 0a3d 96e3 813b
00000370: f34c eabb 1d81 7eba 29cd acbb 8c96 fc3c
00000380: 1c32 aabb 8e94 6ebc e54f 2c3b 5635 623c
00000390: 068a e43c fe66 023c 7f1a 8bbc 06ed 2f3c
000003a0: 028b 853a d52b ac3b b0e7 c03c a40d 8bbc
000003b0: 90fb d5bb d084 433c 3132 e3bb abfd 553b
000003c0: e95d 98bc 60f5 a5bc 077a 9e3d fb76 fcba
000003d0: 48d5 5d3c 50fc 4b3c a46f 9ebc 071f 673c
000003e0: 8153 a33b a669 b4bc e339 3bbb eb34 fdbc
000003f0: bbfa 65bc 1c3c 5cbc 129c 7eb9 4a35 eabb
-0.0017004946 0.042851206 0.041628696 -0.005896185 0.004212236 -0.006101247 -0.00016404812 0.015781596
0.005115443 0.022825407 -0.023682825 -0.02065528 0.0025256893 -0.0013609678 -0.020124007 -0.004289648
-0.013626193 -0.012054067 0.045982268 0.006118281 0.00830975 0.038439535 0.0018782931 0.011276193
-0.010089342 0.012512762 -0.009634024 -0.010817677 -0.007944427 -0.009603023 -0.004638716 -0.010761321
0.027139833 0.021849882 -0.021884257 0.048983805 -0.026663948 -0.0204191 0.0031197215 -0.010761049
-0.03897066 -0.028602505 0.020107599 -0.007891352 -0.0436431 -0.0024558823 -0.0040997923 -0.0496461
0.054129064 -0.021550884 0.007266176 -0.0038033975 -0.031052096 -0.017573234 -0.016504126 0.016005566
0.009325842 -0.019431243 -0.0002746417 2.149352e-06 -0.0028807675 0.013137501 0.01698941 -0.013336049
-0.0004959479 0.006780859 -0.008906678 0.008285972 -0.006633562 0.006510605 -0.017026838 0.012852026
-0.014506269 0.009534261 -0.031628877 0.0099307345 -0.010143847 -0.010118482 -0.008342969 -0.019394746
0.009032007 0.02297806 0.02279732 -0.015823405 0.02756243 -0.008450616 -0.014912046 0.011975661
0.043562315 0.024982713 0.049081042 -0.008693332 -0.024610322 -0.007974403 0.022612017 -0.022910027
-0.0021725271 -0.038753748 -0.0047676545 0.012406286 -0.007055651 0.014935164 0.05264539 0.028896421
-0.016095063 0.0063136113 -0.0039356383 -0.0003056264 -0.0063251667 0.019063191 0.013689296 0.037578795
-0.0077883042 -0.025828104 0.049540482 -0.003935039 -0.001645578 -0.0033664976 0.048719957 -0.0012754031
-0.010438743 -0.02105945 -4.4463006e-05 -0.0049380613 0.0009800469 0.018187232 0.004425761 -0.0046671066
-0.004383756 -0.015624747 -0.017014327 -0.02234945 0.011521978 -0.0016140183 0.0032152187 0.015951863
-0.0037424804 -0.0025097309 -0.005718122 -0.002316798 -0.038243007 -0.021458253 0.034224413 -0.015299426
-0.0012862631 0.03301327 -0.012720493 0.019188527 0.012412428 -0.009630119 0.009788781 -0.008704756
0.007791926 -0.0309471 0.009284034 -0.00069679535 -0.03723537 0.007987656 0.013201364 0.0067979274
0.008427773 -0.0032094435 0.005013043 0.028521795 0.014741191 0.012022005 -0.018317217 -0.0148953125
-0.010800835 -0.015188834 -0.00051633705 -0.009031071 0.0032235943 -0.012623112 0.00011771421 0.019053703
-0.014624869 0.00868466 -0.005920183 -0.00092857267 0.032231588 -0.021619042 -0.0020268662 -0.010028753
0.032242004 -0.043996878 -0.015039833 0.09550246 0.011243443 0.005514232 0.0029007674 -0.004168468
0.04877101 -0.0015535546 0.022008035 0.021808622 0.0006525066 -0.008281845 -0.011889819 0.02706416
-0.016651725 0.05910976 -0.025886305 -0.018416194 -0.009017064 -0.0060534873 0.000888519 0.005670773
-0.018892383 0.019539457 0.0068700938 0.012371878 -0.031912606 -0.0005319989 0.0008966535 -0.0075268447
-0.041010536 -0.009203869 0.033713467 0.003963898 -0.0071502863 -0.00097085704 -0.0052734804 0.030833505
-0.005193962 -0.014561785 0.0026292738 0.013806662 0.027897846 0.007959126 -0.016980408 0.010737663
0.0010188522 0.0052542486 0.023547977 -0.016974278 -0.0065302327 0.01193352 -0.0069334735 0.0032652419
-0.018599467 -0.020258605 0.077381186 -0.0019261533 0.01353962 0.012450293 -0.019340344 0.014106519
0.0049843197 -0.022023033 -0.0028568439 -0.030909022 -0.01403683 -0.013442066 -0.00024281468 -0.007147466

action_model._discrete_distribution.branches.0.bias f4 [2]
00000000: 3d95 7cbb 5995 7c3b
-0.0038541101 0.0038541167

action_model._discrete_distribution.branches.1.weight f4 [2, 256]
00000000: dacc 89bc 18f7 b1ba c9aa c93c 5b8a 033c
00000010: 2c24 043c 9234 783c 6dd7 8d3b 4636 ba3c
00000020: f84d 50bd 0cd1 d7bc 7f49 943d e635 39bc
00000030: ab99 86bc a629 97bc 5861 033b 307a db3b
00000040: 178a 173d 8791 373b a437 163d cdfe e6bb
00000050: 81c7 9c3b 8299 0d3c 2f4f 413b ee71 f13c
00000060: 4d32 1dbd 2cfc 83bd 023a 013d 6723 ec3b
00000070: 4a3e 463b 5ef3 933d 8e19 9e3c 4a46 ac3b
00000080: 3b28 303c 00c1 60bb 544c 1d3a 8862 03bd
00000090: e86c 8f3c 9296 1c3c b033 06bc ff18 9ebc
000000a0: 3518 f83c e554 61bc c853 67bd 9f10 163c
000000b0: c12e 753c 397c 4e3c 3031 bcbb 8547 273c
000000c0: 2204 b03c c6f5 673c 2268 b73b 0bd1 0ebc
000000d0: 1301 873b 9d85 5b3b b3b1 f7bb fe62 33bd
000000e0: 47ba bdbc 1eab e6bb e997 a63b e524 c939
000000f0: 1641 ac3c fc07 29bd 4ee4 acbc d85f b63c
00000100: dea7 57bc 5a4b e0bb a5a0 7bbc 8248 a33a
00000110: 7268 7abd 8319 ee3c 7e9e c33c 753b 2cbb
00000120: c2af 7dbc d38d d13c 679b 28bb 5390 fa3c
00000130: 243f 0e3d 79dc 01bd dfe1 483c 4814 933c
00000140: 8006 963b 0307 b03c 5c3f 12bc d003 4e3c
00000150: c58b c9bc e132 b03b 7957 d53c 25da a3ba
00000160: db7c ac3c 1bfb 14bc 27db c93c 8935 673c
00000170: fe8e 10bc 6d7a 893c 077d 06bd 7c60 693c
00000180: 621c e2bb 5cfa 383c 5843 93bc cb3d 09bc
00000190: 3ca9 583c d1b0 cf3a 9716 34bc 7e30 88bd
000001a0: 6591 bd3b fe79 a8bc ef3d 05bd cef7 773c
000001b0: 7b51 36bc 2979 093c 6914 503a 1605 7a3d
000001c0: 6bc0 c6bc 6fc2 8c3d 2e94 f2bb 16c9 3cbc
000001d0: 039f 1cbb 386a 9cbc b815 ac3c 692f 083d
000001e0: cfa9 8b3c ceb6 c039 749b eb3a 9e84 083b
000001f0: 9fba 7b3c 5279 803c 5614 523c 16b4 913c
00000200: c9c3 d73c 3a4a fb3b 2444 f93b bc43 fdbb
00000210: 73ba babb 86a6 6e3c 8012 543c 4786 62b9
00000220: 6d11 0b3d 60e9 443d 4db9 af3c ec9d 0f3d
00000230: cfe9 81bc 6e0e dbba dd6f 093c 76bd 393a
00000240: 3ca2 49bc 2474 bebc 365e 9ebc 8990 7bbc
00000250: bbc1 fabb 306a 82bc 0562 ad3c 45d9 913c
00000260: 9e49 cd3b 8d87 77bc bec9 eb3c fef2 cb3c
00000270: 35ab 2cbc 9555 75bc 32a4 0dbd 4d31 dfba
00000280: 044e b83b 19e8 8abb e59b 49bd 7460 6c3d
00000290: ea28 41bd a5ba 8e3c 49c4 063d 08c5 503c
000002a0: 455f 983c 18ea 503c 936f a93c 0f62 f8bb
000002b0: 4a22 7b3a 1a20 013d a6a6 ff3a d9ec f73c
000002c0: 3d83 00bc 6e91 c53c f810 6d3c 9d23 60bd
000002d0: fa2b a43d c481 41ba 7719 bc3b 1a50 4ebb
000002e0: 0c69 823b 6508 73bc 01f6 183d 1c10 5d3c
000002f0: 357e 903c 7377 463c f2a9 09bc a0ed 79bc
00000300: e849 f3bc bf6c a4bc 543d e2bb 2975 47bd
00000310: 5ab8 363c 88af 453c 9858 873b 3b5f b33c
00000320: c83c d23b 96f5 273d 662b 29bc 9488 dcbb
00000330: 95b7 aabb 54f6 58bb cf74 f23c 6c9e 113d
00000340: 68a2 e83c 8fd5 6abb 4140 db3a dced 1bbd
00000350: 4880 873d b950 6c3c 9924 883c 1465 dd3a
00000360: 6826 223d 0dce 8d3c eb9f 36bd 409e 4cbd
00000370: ddd8 3dbc 747e e53c bf56 9abc bdde 08bd
00000380: 11a7 48bc 32e9 823c 76a6 3dbc 0ce7 14ba
00000390: d613 c0bc fb09 63bc 05fd d03c 5528 cabb
000003a0: 4763 07bb d075 f33c 12c3 213d 08d6 783b
000003b0: e579 df39 b276 183c c779 3a3c 7d01 12bc
000003c0: d960 1ebc ab09 a7bc 8efb ad3b 4e91 2dbc
000003d0: 703f 153d e89d 81bd d218 223c ca58 b6bc
000003e0: 4b7c 8a3c 892d 1bbd 07dc 3dbc 6dca 063a
000003f0: 7233 d6bb cdf8 5f3c d30a 12bd a4dc 63bc
-0.016821314 -0.0013577668 0.02461757 0.008028592 0.008065265 0.0151492525 0.0043286593 0.022730958
-0.050855607 -0.026344799 0.07240581 -0.011304354 -0.016430696 -0.018452477 0.0020047035 0.0066979155
0.036996927 0.0028010325 0.036674157 -0.0070494176 0.004784525 0.008642556 0.002949666 0.029473271
-0.03837805 -0.06444582 0.03154946 0.0072063687 0.003024953 0.07224153 0.019299295 0.0052574025
0.010751779 -0.0034294724 0.00060004485 -0.03207639 0.017507985 0.009557383 -0.008191034 -0.019299028
0.03028498 -0.013753151 -0.056476384 0.009159236 0.01496476 0.012602859 -0.0057431683 0.010209923
0.021486346 0.014157718 0.0055971304 -0.008716832 0.004120001 0.0033496388 -0.007559025 -0.04379558
-0.023160113 -0.0070394417 0.005084027 0.00038365196 0.02102713 -0.04126738 -0.021104958 0.022262499
-0.013162581 -0.00684492 -0.015358125 0.0012457522 -0.061134763 0.0290649 0.023879286 -0.0026280556
-0.015483798 0.025580322 -0.0025727393 0.030586397 0.034728184 -0.0317044 0.012260883 0.017954007
0.0045784116 0.021487718 -0.008926239 0.012574151 -0.02460278 0.005377159 0.026042687 -0.0012500925
0.02105563 -0.009093071 0.024640633 0.014111885 -0.0088231545 0.01678201 -0.03283408 0.014244195
-0.006900356 0.011290159 -0.017976448 -0.008376549 0.013223942 0.0015845542 -0.010991714 -0.06649874
0.0057851546 -0.020565983 -0.032529768 0.015134765 -0.011127825 0.008390703 0.00079376117 0.061040007
-0.024261674 0.06873023 -0.0074029183 -0.011522552 -0.002389849 -0.019093618 0.02100645 0.03324834
0.017048744 0.00036757294 0.0017975406 0.0020831 0.015364318 0.01568285 0.012822231 0.017786067
0.026338475 0.0076687606 0.007607 -0.007729022 -0.005698496 0.0145660695 0.012943864 -0.00021603062
0.033952165 0.048074126 0.021450663 0.035062715 -0.015858559 -0.0016712674 0.008388487 0.0007085422
-0.012306746 -0.02324874 -0.019332033 -0.015354284 -0.007652489 -0.015919775 0.021164903 0.017803797
0.0062648794 -0.015108001 0.028782722 0.024896141 -0.010538866 -0.014974018 -0.034580417 -0.0017028243
0.0056245346 -0.004239094 -0.04922094 0.057709172 -0.04715816 0.017422983 0.032902036 0.012742288
0.018600116 0.012751125 0.020683086 -0.007580049 0.00095799996 0.031524755 0.0019504621 0.030264305
-0.00784379 0.024117198 0.014469378 -0.054721463 0.080162 -0.00073817023 0.0057403403 -0.003148085
0.0039798077 -0.014833544 0.037343983 0.01349261 0.017638305 0.01211344 -0.0084023345 -0.015254408
-0.029698327 -0.020071385 -0.0069042835 -0.048695717 0.011152351 0.012065776 0.0041304342 0.021895995
0.006415937 0.041005693 -0.010325288 -0.0067301486 -0.005209873 -0.0033105807 0.029596714 0.035551473
0.028397754 -0.0035832857 0.0016727523 -0.038068637 0.066162646 0.014423543 0.016619014 0.0016891086
0.03958741 0.017310167 -0.044586103 -0.049955606 -0.011587349 0.0280144 -0.018840192 -0.033415545
-0.012246863 0.015980337 -0.011575332 -0.00056801806 -0.023446959 -0.01385736 0.025511274 -0.0061693587
-0.002065854 0.029719263 0.039492674 0.003796937 0.00042624693 0.009305643 0.011381573 -0.008911488
-0.009666645 -0.020390352 0.0053095287 -0.010593725 0.03643745 -0.06328946 0.009893613 -0.022259135
0.01690497 -0.037885223 -0.011588103 0.0005141858 -0.0065368945 0.013670159 -0.035654854 -0.013907585

action_model._discrete_distribution.branches.1.bias f4 [2]
00000000: 5cd9 b73a 93d9 b7ba
0.001402657 -0.0014026634

action_model._discrete_distribution.branches.2.weight f4 [2, 256]
00000000: 7904 1f3c 6dbe 8a3d 3fd4 923c 0660 8a3a
00000010: 9228 273d eb18 5e3c a156 ef3a ee20 243d
00000020: dd5b 473d 5a23 5f3c 9f77 583c 3738 b3bc
00000030: 35b6 7bbc ea28 473d cfeb 303b efab 81bc
00000040: 0990 d93c 005a 703d eda8 803d bbc2 3e3d
00000050: 1b90 da3b b6f3 2d3b c03a 53bc 3133 ea3c
00000060: 416b 92bb dd56 9f3c 7c1f 563c 58e1 e03c
00000070: f494 033c 3162 65bc 1e2a 35bc d0be 18bd
00000080: b52c cfbc 08df 163d 7617 cebc 5930 b03c
00000090: 0a67 18bd 9a0c d93c 7382 a7ba c7c1 63bc
000000a0: b45d 3b3d ff7b 943b ab59 9c3d bd09 2abb
000000b0: 05e6 25bd 9620 8f3a 0678 1a39 27a1 4e3d
000000c0: 4c7e 5d3d 5cbe a2bb 12c9 4d3a 2d10 6339
000000d0: 7b8b 23bc f5b2 e93a 27d9 d0bc 77bf 42bc
000000e0: daa1 abbb 8a0a 2e3c 3c82 6f3a 4572 513b
000000f0: e45e bd3c be5b 9abb 8db6 67ba a5a3 0fbd
00000100: 71de c7bc 2b4b b83c 6f7b 7fbc b255 e43c
00000110: d749 af3c 7854 cc3c d4f1 e0bb ab12 cd3b
00000120: 9a46 9ebc 7d89 5f3c 4cd4 99bc 5822 e7bc
00000130: 2994 583a 2626 41bb ebe4 853d 3b34 b0bc
00000140: 90cb 4f3b b3ff b6bb b782 e538 e31a b1bc
00000150: ba12 6b3b 81bf f03b 7270 8ebc 801a 55bb
00000160: d004 683d 129f 373d fa82 473d 2315 8abc
00000170: dcf7 27bc 218c bd3b 970b 11bc 4f53 cb39
00000180: 3000 05bc 256d 643a 43d5 a43b da9e d73b
00000190: 5cac 073d 7676 1ebc 332d b93c 79b7 693d
000001a0: 1b24 7cbc ddee 703c 05c7 3bbc 93aa 5cbc
000001b0: e58a 19bb ea01 c13c fdda 73bc 678b 2e3c
000001c0: ca48 78bc 8897 b1bc c55f fd3b fca5 bdbb
000001d0: 07a7 2b3c a887 1a3c dcf6 573d d55c 88ba
000001e0: f7e0 29bc 4967 b43d 4fa2 10bc 1b25 43bc
000001f0: 37b0 9c3d e8fd c1bb c2a7 60bc 1d36 ad3b
00000200: da10 84bc 18c6 00bc b40d 2bbd 67cb 2dbc
00000210: 11a6 343d be6a 20bd 7379 0c3c 20ec 99bc
00000220: dc4b 633d 48ec d53c 93b6 24bd 1652 183c
00000230: bdd2 603a d40a 6abc 8291 b93b 2c2d 8bbc
00000240: 381c 80bc fb8e ed3c 19d6 99bc 8e46 4b3c
00000250: bb59 6abb 7ed2 cbbc 771c 183c ec93 72bc
00000260: 01fc 26bc 03dc eabc 2fa6 95bb 3802 eabb
00000270: daca 28bc d9de 393d c0c2 7a3d f341 c13c
00000280: 2dd5 953c 2cae db3b 3ea5 d1ba f93a 8839
00000290: bc49 4c3c f59d b1bb a95b 0dbd 7c0c a3bc
000002a0: f3cb 053c 4cb1 c63d cd18 8e3d bd47 133b
000002b0: 4950 ebbb cce4 24bd 67d0 9b3b 07b7 cabc
000002c0: 82d4 babc 80fa c83c bfc5 c5bc 33fb 913c
000002d0: 1f52 823b ee4c bdbb f2e9 c53b 9570 343c
000002e0: 4f42 a63d c23b 53bc 040e 7a3b bac2 583c
000002f0: 1d06 3dbb 5191 92bb 1c9f ae3c 5c01 e7bb
00000300: 2b39 883c 5499 b3bb c685 92bb 9a6a 033d
00000310: 3e84 f63a 886f e1b8 8af8 7d3b 73ab 273d
00000320: d309 15bc a525 6d3d ffb9 50bc 5816 dabb
00000330: 5f98 77bb 12f6 99bc 423a 043c 1f42 5e3c
00000340: 0b94 983b 4514 7f3c c097 623c 37b8 4c3b
00000350: 0d42 2a3d 6e33 013c 1976 1c3d 156b 1a3d
00000360: 2346 05bd 7921 d23c 39d1 ed3c f258 5e3d
00000370: 5a8a 5fbc 0fc5 353d f1d4 f5ba ddb6 ca3c
00000380: 2149 71bb a8a7 9cbb d8d5 e53a 8703 b73c
00000390: 1757 7cbc 4762 10bc 90c2 4ebc 2d9d f53c
000003a0: ede9 d13c aed9 993d b9e4 cb3c a125 b1bb
000003b0: ef57 69bc 2820 ab3c b3e1 dbba 6c4b d8bb
000003c0: aa59 713d 4d6b 83bb f06d 42bd e51d 95bb
000003d0: 5a52 afbb 1af1 bcba f262 703c 95c4 9e3d
000003e0: 0f29 78bb e04a 98bc 9935 0e3b 4f9f bcbc
000003f0: fb09 67bc 7b27 89bc fa08 b63c 0e7c 973c
0.009705656 0.06774602 0.017923472 0.0010557182 0.040810175 0.013555746 0.001826007 0.040070467
0.048671592 0.013619268 0.013212114 -0.021877391 -0.015363266 0.048623003 0.0026996022 -0.015829055
0.02655794 0.05867958 0.0628222 0.04657243 0.0066700107 0.0026542968 -0.012892425 0.028588863
-0.004468352 0.0194506 0.01306903 0.027451202 0.008031119 -0.014000461 -0.011057405 -0.037291348
-0.025289873 0.036833793 -0.025157671 0.021507429 -0.03720764 0.026495267 -0.0012779966 -0.013901181
0.04574366 0.004531383 0.0763429 -0.0025945746 -0.040502567 0.0010919746 0.00014731297 0.050446656
0.054075524 -0.0049665403 0.0007850091 0.00021654433 -0.009981985 0.0017829823 -0.025494171 -0.011886469
-0.0052378 0.01062263 0.0009136533 0.003195898 0.023116536 -0.0047106436 -0.0008839153 -0.035068173
-0.02439806 0.02249678 -0.015593394 0.027872894 0.021397514 0.024942622 -0.0068647657 0.006258329
-0.019320775 0.01364362 -0.018777989 -0.028214619 0.00082618237 -0.00294722 0.06537803 -0.02150928
0.0031707026 -0.005584681 0.000109439185 -0.021619266 0.0035869316 0.007347048 -0.017387602 -0.0032517016
0.056645215 0.044829436 0.048708893 -0.016855782 -0.010251965 0.005784527 -0.008852861 0.00038781247
-0.0081177205 0.00087137736 0.0050303056 0.006580216 0.03312336 -0.009671798 0.02260456 0.05705974
-0.015389468 0.014705387 -0.011461024 -0.013468402 -0.0023428735 0.023560483 -0.014883754 0.010653353
-0.015154073 -0.021678701 0.007732364 -0.005787609 0.010476834 0.009431757 0.052725658 -0.0010403643
-0.010368577 0.088087626 -0.00882776 -0.011910702 0.07650798 -0.0059201606 -0.013711872 0.005285992
-0.016121317 -0.007859729 -0.041761115 -0.010607577 0.044103686 -0.039164297 0.008573878 -0.018789351
0.055492267 0.026113644 -0.04021318 0.009296915 0.00085763243 -0.014284808 0.005663098 -0.016989313
-0.015638456 0.028998842 -0.018778848 0.012406958 -0.003575905 -0.024880644 0.00928413 -0.014805775
-0.010191918 -0.028669363 -0.00456693 -0.007141378 -0.01030227 0.04537854 0.061220884 0.023591017
0.018290127 0.0067041125 -0.001599468 0.0002598388 0.0124687515 -0.0054204413 -0.034511242 -0.019903414
0.008166301 0.097017854 0.06938324 0.002247318 -0.0071812016 -0.04025726 0.004755068 -0.024745477
-0.02280641 0.02453351 -0.024142144 0.017819976 0.0039770748 -0.005776993 0.0060398513 0.01101317
0.08118116 -0.012892665 0.0038155327 0.01323002 -0.0028842755 -0.0044728895 0.021316104 -0.0070497226
0.016628822 -0.0054809246 -0.0044715134 0.032084085 0.0018807722 -0.000107496104 0.0038752877 0.04093499
-0.009096581 0.05789723 -0.012739657 -0.0066554956 -0.003778003 -0.018794093 0.00807053 0.013565569
0.00465632 0.0155687975 0.013830125 0.003123773 0.041566897 0.007885797 0.038198564 0.037699778
-0.03253759 0.025650727 0.02903043 0.054284044 -0.013643825 0.044377383 -0.0018755478 0.0247454
-0.003681727 -0.0047807284 0.0017535044 0.02234055 -0.015401623 -0.008812494 -0.0126196295 0.029982174
0.02562424 0.07512222 0.024889337 -0.005406097 -0.014242156 0.020889357 -0.0016775638 -0.006600788
0.0589234 -0.004010594 -0.047468126 -0.004550683 -0.0053503932 -0.0014415116 0.014672028 0.07752339
-0.003786627 -0.01859039 0.0021699427 -0.023025183 -0.014101501 -0.016742459 0.022221077 0.018491771

action_model._discrete_distribution.branches.2.bias f4 [2]
00000000: df40 243b e040 24bb
0.002506308 -0.0025063083
