Assets/results/day4_0748/TrafficLightBrain/TrafficLightBrain-303463.onnx (onnx, 403823 bytes, 21 tensors)

discrete_act_size_vector f4 [1, 8]
000000 00 00 00 40 00 00 00 40 00 00 00 40 00 00 00 40
       2.0 2.0 2.0 2.0
000010 00 00 00 40 00 00 00 40 00 00 00 40 00 00 00 40
       2.0 2.0 2.0 2.0

network_body._body_endoder.seq_layers.0.weight f4 [256, 100]
000000 02 19 e7 bd bd b8 7a 3c 64 66 83 3d c4 24 9a 3d
       -0.11284067 0.015302834 0.06416014 0.07526544
000010 25 47 8c 3e 05 cf 58 3e d8 a0 21 3d 61 a8 83 3d
       0.2739803 0.21172722 0.039460033 0.064286
000020 c8 a6 fe 3d 48 59 cf bd 23 0e ee 3d 70 e6 20 3e
       0.12434155 -0.10124451 0.1162379 0.15712905
000030 ac f3 a8 bd 47 13 87 3c a9 50 bf bd 2d ba 44 3d
       -0.08249602 0.016488684 -0.093415566 0.048029114
000040 b9 2f 24 bd cc 80 44 bb b0 d1 05 bd fc f1 60 3d
       -0.040084574 -0.0029983995 -0.032670677 0.054918274
000050 d1 97 9e bc 21 72 c4 3d f3 2f 23 3e 51 e4 55 bd
       -0.019359501 0.09592081 0.1593626 -0.052219693
000060 8a 0a d7 3d 2d 19 94 be 81 8c 02 3e 1d 55 88 bd
       0.10500057 -0.28925458 0.1274891 -0.06656859
000070 26 e4 d6 3b b7 e1 a9 3c a0 3f b4 bc 15 e0 09 3d
       0.006557959 0.020737512 -0.022002995 0.033660967
000080 07 3d 4e 3e 6d c9 07 3d cb c9 b0 bd e7 d9 16 be
       0.20140468 0.03315108 -0.08632239 -0.1473156
000090 91 ec 09 3c d4 37 0d 3d 05 7d ed 3d 53 b7 e5 3c
       0.008418218 0.03447707 0.11596111 0.028041517
0000a0 09 88 92 3d 48 49 f8 3c 6d 58 06 be 33 d4 c0 bd
       0.07154853 0.03030838 -0.1311967 -0.09415474
0000b0 e7 57 18 3d cf 64 6f bd da d8 d5 3d 56 ea 97 3d
       0.037193205 -0.058445748 0.10441752 0.07417743
0000c0 b3 6c b1 bd 0b 7b 1c bd 52 16 29 bc 97 e4 c7 3d
       -0.08663311 -0.03820328 -0.010320263 0.09760397
0000d0 50 4e be bd 5c 86 40 bc 38 de 5f bc 2e 64 86 bc
       -0.09292281 -0.011750784 -0.013663821 -0.016405191
0000e0 17 72 eb bd ba d3 62 bd b9 10 90 be 67 a9 fe bd
       -0.1149637 -0.0553777 -0.28137758 -0.12434655
0000f0 9c bf 19 3d 7f 8f d3 bd 6b 21 86 3c 7b e6 4e 3d
       0.03753625 -0.10330104 0.016373357 0.050512772
000100 6f a8 eb 3d 79 65 0a 3e 12 c6 84 3d 17 4f 14 be
       0.115067355 0.13515271 0.064830914 -0.14483295
000110 52 f6 88 3d 27 45 46 3d c0 ff aa 3c 70 4a 79 bd
       0.06687607 0.048405793 0.020873904 -0.060862005
000120 ca 05 94 bd 8d bc d4 bd 56 cd c8 3c 9f 5f 75 bd
       -0.07227667 -0.10387526 0.024511974 -0.059905645
000130 de f1 33 be 41 60 ca bb fc 20 b2 3c b7 de 8a 3d
       -0.17572734 -0.006176025 0.021744244 0.06780761
000140 e5 69 fd bd 15 0d 91 3d 13 f2 d9 bc 9f 3a 7d bd
       -0.123737134 0.07082573 -0.026604688 -0.061823484
000150 ed 37 ba 3d d8 d3 07 3e 7b 70 36 3e cb d6 8b bd
       0.09092698 0.13264406 0.17816345 -0.06828078
000160 c8 fd 05 bd 42 2c e1 3d 37 0d 70 be c4 ee 1d 3e
       -0.032712728 0.1099477 -0.23442541 0.15423113
000170 b5 7e 4e bd ca 6c 5d 3d 97 bd 1e 3e 8a b8 14 bd
       -0.050413806 0.054058827 0.1550201 -0.036308803
000180 e8 9e 44 be 26 f8 0b 3c 78 a1 67 be ae f7 b3 bd
       -0.19201243 0.00854305 -0.22620189 -0.087874755
000190 6b 71 82 be 08 29 20 3e 6d db 0b 3d d4 8f 66 bd
       -0.25477156 0.15640652 0.034144808 -0.05628951
0001a0 8d d1 39 bd 67 4c 80 3d bd d4 b2 3d 60 34 f2 bc
       -0.04536586 0.062645726 0.08731983 -0.02956599
0001b0 bb 3e e4 bc cf 39 9d 3d a4 db 41 3e ab a8 5a 3d
       -0.027861943 0.07677042 0.18931442 0.05338351
0001c0 e4 52 10 bd 25 10 bf 3c 35 4d f1 bd be ee 55 3d
       -0.0352353 0.023323128 -0.11782304 0.052229635
0001d0 d6 12 70 be 7c f6 5b be cd 19 8d 3d 80 1e 36 ba
       -0.23444685 -0.21480745 0.06889687 -0.0006947294
0001e0 e7 af 67 3d 1a eb a4 3d d8 50 be 3c 1a a6 ee 3c
       0.056564238 0.080526546 0.023231909 0.029131938
0001f0 2d da 1d bd 69 86 90 bc 1a 80 12 bd 48 d5 e2 bc
       -0.038538147 -0.017642217 -0.0357667 -0.027689591
000200 6f bb 1c 3d 0e fd 92 3d c7 0c e0 bd 87 18 d7 3b
       0.038264688 0.071771726 -0.10939937 0.006564203
000210 ea 68 ae bd 88 34 f1 3d a5 af d5 bd 73 f1 2c bd
       -0.085161045 0.11777598 -0.10433892 -0.04222245
000220 58 fa e3 bc 5f ca c9 bc f7 85 ae 3d 1f ad c8 bd
       -0.027829334 -0.02463263 0.085216455 -0.09798645
000230 55 63 b7 bd f5 0b 7a bd da 70 34 be 07 a6 03 be
       -0.08954493 -0.06104656 -0.17621174 -0.12856303
000240 cf f7 94 3c 49 77 9d bd 35 06 f0 3c 65 6e 2a bd
       0.01818457 -0.076887675 0.029299835 -0.041609187
000250 b2 82 f4 3c a7 61 b6 bc b8 be d4 bd cb 3e a5 bb
       0.029847477 -0.022263361 -0.10387939 -0.005042886
000260 7f 15 c5 3c fb 8f 6b 3d 23 ad d1 3c c5 8f 6c 3c
       0.024058102 0.057510357 0.025595253 0.014438574
000270 8f be c1 bc 2f 0c 69 bd ea fe 31 bc 9f db 35 bd
       -0.023650436 -0.056896385 -0.010863999 -0.0443989
000280 ea d6 73 3d 39 b8 c0 3d 5c 03 c5 bd c3 6a af bd
       0.05953113 0.09410138 -0.096197814 -0.08565285
000290 8f 8b a7 3d 52 84 22 be c6 b6 22 be 88 c5 dc 3c
       0.081809156 -0.15870789 -0.15890035 0.026949659
0002a0 63 58 90 3d 1a d9 e6 3b e8 fb 89 bd 83 bb f6 bd
       0.070481084 0.0070449235 -0.067375004 -0.12047484
0002b0 a4 d8 36 3d 05 b1 7d 3d 90 a4 f4 bc 4f 75 71 bd
       0.0446402 0.061936397 -0.029863626 -0.058949765
0002c0 ca 4d ca bd 50 50 3d be ab d6 e7 bd b2 8f 20 bd
       -0.09878118 -0.18487668 -0.113202415 -0.03919954
0002d0 56 0a c4 3c 7d 5e 8d bd 7d d7 47 be fb 68 07 3c
       0.02393071 -0.06902788 -0.19515796 0.008264775
0002e0 df a9 08 3d 97 74 6d bc e1 2d a0 3b 50 62 bf bc
       0.033365127 -0.014493129 0.0048882817 -0.023362309
0002f0 e0 ee 7f be 71 bb 26 3d 63 d7 dc 3a cd a3 7c 3d
       -0.24993467 0.0407061 0.0016848858 0.06167965
000300 2f 1e 02 bc 51 43 14 be 83 75 e8 bd ed 78 bf bc
       -0.007941767 -0.14478804 -0.113505386 -0.023373092
000310 7f 1c 32 bd c3 cc 60 3d bb 2d fa bd 73 09 3b 3e
       -0.043484207 0.054882776 -0.12215754 0.18265323
000320 67 2b 00 3d 62 26 24 bd c5 ca 2a 3e b7 da 8f 3d
       0.03129139 -0.040075667 0.16678913 0.070241384
000330 4a 2b 59 be 5d 82 8a 3d a7 e8 36 be 9a 58 96 bd
       -0.2120792 0.06763146 -0.17862187 -0.07341118
000340 d2 f3 c9 3d c6 64 e7 bd 37 0d 64 be a9 06 0c 3c
       0.09860958 -0.11298518 -0.22270666 0.00854651
000350 dc f1 c6 bd 42 ef 55 3e 00 b5 44 be 08 a3 24 bd
       -0.097141 0.20892051 -0.19209671 -0.04019454
000360 21 9d 46 3d 9e 48 10 3d 76 fb 04 be 9a 61 ee 3c
       0.048489694 0.035225503 -0.1298655 0.029099274
000370 7c 95 6f bc f8 d1 ab be b6 71 b6 bc 41 69 0b 3c
       -0.014623042 -0.3355863 -0.022271018 0.008508981
000380 b2 0d 0b be 8f 68 db bd 37 10 e0 3c 32 ed 06 be
       -0.13579443 -0.10713302 0.027351482 -0.1317642
000390 d4 ed 12 bd 36 8d 26 3e e5 02 f8 bd ba c2 6f 3d
       -0.03587134 0.16264805 -0.12109927 0.058535315
0003a0 ff 03 80 3d 87 66 de 3c 78 20 7f bc 7f 80 d2 bc
       0.06250762 0.027148498 -0.015571706 -0.025696037
0003b0 b6 29 4c be 32 41 ce bd 7f 52 c5 bd da e3 26 bd
       -0.19937786 -0.10071029 -0.096348755 -0.04074464
0003c0 a9 0c c4 3b 07 4a 76 bc 60 11 7e bc a2 84 51 3d
       0.0059829545 -0.015032298 -0.015507072 0.05115188
0003d0 b7 93 08 3d 43 24 53 bd af 90 55 3d 36 89 11 3e
       0.033343997 -0.051548254 0.052139934 0.14212498
0003e0 05 52 0c 3e 99 aa b3 bd 39 df bb 3c 90 68 76 3d
       0.13703163 -0.08772773 0.02293359 0.060158312
0003f0 9c 81 3c 3d 4e 4d 09 3e eb f7 f3 3a 7d d8 2a 3b
       0.046022043 0.13408396 0.0018613314 0.0026068978

network_body._body_endoder.seq_layers.0.bias f4 [256]
000000 41 ad 74 bc 95 86 0e 3c fa ab 22 bd e4 4f 2a 3d
       -0.014933885 0.008699079 -0.03971479 0.041580096
000010 40 65 39 3a e3 25 67 3c e2 c1 79 3b 56 12 68 3d
       0.00070722774 0.014108154 0.0038109948 0.05665811
000020 5b 58 ee bb 2d 8a d0 3b ce 4d 3b bd d2 d9 2c bd
       -0.0072737164 0.006364128 -0.045728497 -0.042199917
000030 dc 20 82 3a fb b1 f2 3c 8f ed 1e bd eb d1 8b 3b
       0.0009928006 0.029625883 -0.038800772 0.0042669675
000040 71 d1 04 bc 90 a9 99 bc fa 2c 84 3d 0f 40 7d bc
       -0.008106575 -0.018757612 0.06453891 -0.015457167
000050 8c 61 4d 3b e0 69 76 bc ea b0 3f bb 83 50 2a 3b
       0.003133866 -0.015039891 -0.0029249736 0.002598793
000060 0d 86 87 bb 24 b3 5d bb 4c c9 9e 3c 8f 6c a0 3c
       -0.004135853 -0.00338287 0.019383095 0.019583015
000070 e7 7a 68 3d 18 0a ac bc 9b ef 30 bd 60 cd 2a 39
       0.056757834 -0.021000907 -0.043197256 0.00016288972
000080 9c 8e f5 bc 35 b5 69 39 d6 a2 16 bd 7a 6f 11 bd
       -0.029975228 0.00022288116 -0.036776386 -0.035506703
000090 3f 6f 2c 3d 07 39 5c 3d 47 22 9e bc 2a b7 66 3c
       0.04209828 0.053765323 -0.019303454 0.014081756
0000a0 fe e5 1e 3d 46 25 b5 ba ee 48 75 bc 80 29 ac bc
       0.038793556 -0.0013820312 -0.014971001 -0.021015882
0000b0 57 d6 5f bc 0d cc 19 bc 5e 86 30 bd 33 90 ea 3a
       -0.013661942 -0.009387028 -0.043096893 0.0017895758
0000c0 d5 2e 0a bd 13 00 3b 3c db 2e 5b bd 30 1d 76 3c
       -0.03373607 0.011413592 -0.05351148 0.015021607
0000d0 c7 96 f9 3c 79 be 8d bc 6d 37 a2 3c 16 0b 43 3d
       0.030467404 -0.017302739 0.01980182 0.047617994
0000e0 b2 cf 9d 3b a9 3d ca 3c 5b 92 33 3d 72 f0 52 bc
       0.004816019 0.024687605 0.043840747 -0.012874709
0000f0 d1 72 cb bc 64 b4 5c 3c 7e 3a 3e 3d 05 92 83 bc
       -0.024835022 0.013470743 0.0464425 -0.016060838
000100 a4 18 19 3c 9b a6 7e bb 3c b7 29 3d 2b c6 75 3d
       0.009344254 -0.0038856629 0.04143451 0.06000344
000110 c1 d7 c5 3b 2a 21 71 bc 62 62 d4 ba db cc 94 3b
       0.0060376828 -0.01471738 -0.0016203637 0.0045410222
000120 d6 fa a5 bc 77 65 29 bd 03 ae d0 3c d4 dd 19 bd
       -0.02026121 -0.04135653 0.0254736 -0.037565067
000130 e1 0d 44 3d 4d f5 70 3c dc b2 48 3d c7 97 d8 3c
       0.0478648 0.014706922 0.0489987 0.02643956
000140 40 64 99 3c 8b db 2f bd f0 4a 83 bb a1 00 67 3c
       0.01872456 -0.042933982 -0.004006736 0.014099271
000150 6e 49 81 bc a5 01 2b bc 34 a2 e9 b9 0d 4a 19 3c
       -0.015782084 -0.010437404 -0.00044562074 0.009356034
000160 50 34 cb bc 1c c6 43 bd aa e0 33 bd 6b de 06 bd
       -0.024805218 -0.047796354 -0.04391543 -0.032926958
000170 08 42 11 3d 3a 55 bd 3c db 6b 78 3c e6 d4 c0 ba
       0.035463363 0.023111928 0.0151624335 -0.0014711886
000180 0e 82 ae 3d 0f 75 3d 3b f2 6d 14 bd 31 f1 5e bd
       0.085209 0.0028908884 -0.036237665 -0.054429237
000190 85 a9 5b 3c b5 bd c9 3c eb c1 20 3d c8 9f d2 3c
       0.013407116 0.024626592 0.039247435 0.025710955
0001a0 c8 3b 3a 3c a9 39 20 bc e7 6e 22 3d 36 1f 7e 3c
       0.011366792 -0.009779372 0.039656546 0.015510371
0001b0 27 b8 2a 3d dc 82 5c 3d a5 c3 6f 3c 3e 3d 5a 3c
       0.041679528 0.053835735 0.014634048 0.013320265
0001c0 9c 81 45 3d 22 c7 79 3c ca dd e4 bc f6 19 0a bd
       0.04821931 0.015245231 -0.027937789 -0.033716165
0001d0 a7 55 39 3d 5e 1e 2d bc e5 17 0b bb 8d 7d ba bc
       0.0452477 -0.010566322 -0.002122396 -0.022764945
0001e0 b3 f0 9b bc be 32 01 3c b0 dd 26 ba 31 da f6 bc
       -0.019035673 0.007885633 -0.00063654315 -0.030133339
0001f0 e4 d2 f8 3c 75 49 4d bc 6f 8f 1b bd cc 53 37 bd
       0.030373998 -0.012529721 -0.037978586 -0.04475765
000200 5c 9f 4c 3c ec 25 22 bd 4e 7e 20 bc 60 9e ea bc
       0.012489166 -0.039586946 -0.009795738 -0.028639972
000210 43 c6 f4 3c fa a8 77 3b a2 cb 8b 3c 15 ed d8 bc
       0.029879695 0.0037789927 0.017064873 -0.026480237
000220 9c 9a 2c bc a5 b2 8d 3c 26 40 5c bb a7 36 67 3d
       -0.010534909 0.017297098 -0.0033607571 0.056448605
000230 dc fa 26 bd a9 af 46 bc 46 66 d9 3c a7 06 60 3c
       -0.040766582 -0.012126842 0.026538026 0.013673461
000240 ec 08 5b 3c d3 5c ce bc 6a 66 4a 3c ce 2e e2 bb
       0.013368826 -0.025190746 0.012353519 -0.006902552
000250 79 85 d6 3a ae 2b 46 3c 99 f1 03 bd 78 df 8d bc
       0.0016366682 0.012095375 -0.032212827 -0.017318472
000260 9f b6 85 3c f5 7f 69 3c 7b a0 ae bc f6 3c 3a 3c
       0.016322432 0.014251699 -0.021316757 0.011367073
000270 b0 ba 3f 3c 65 82 69 bb 17 e9 89 bb 07 31 4a bd
       0.011702225 -0.00356307 -0.0042086947 -0.049363162
000280 75 b1 c1 bc 5d 2d 41 3d 03 9b ca 3b 0f c0 3c bb
       -0.023644188 0.047162402 0.0061830296 -0.0028801
000290 86 e3 6a ba d6 73 f7 3c 1a 63 66 bb 12 b7 d4 bb
       -0.0008960295 0.030206602 -0.0035154284 -0.0064915502
0002a0 78 f6 09 bd 77 69 0f bd 4e f2 16 bc 41 c8 48 3d
       -0.033682317 -0.03501269 -0.009213043 0.049019102
0002b0 11 30 25 bd 95 bc 1b bd 08 9b 60 bb f0 81 03 bc
       -0.040329043 -0.038021643 -0.0034272093 -0.008026585
0002c0 1b 88 d3 3b e2 7b 6f 3d a0 cd 28 3a d4 69 9a bb
       0.006455434 0.058467753 0.0006439332 -0.0047123227
0002d0 cf 7f 90 3c 95 85 76 bc 8c b2 6f 3c 79 2d 37 3c
       0.017639069 -0.015046497 0.014629971 0.011180275
0002e0 27 9e 14 bd ec 28 2a 3c 90 b1 2d 3d bb 37 01 3d
       -0.03628364 0.010385733 0.042405665 0.03154729
0002f0 72 fb cc 3c 99 90 fe b9 db 0e fc 3b c2 0f 19 3b
       0.025022242 -0.0004855439 0.0076922006 0.002335534
000300 b6 ca 8b 3c d0 21 a4 bc 45 0f bc b9 77 c1 2d 3d
       0.017064434 -0.020035654 -0.0003586953 0.04242083
000310 90 01 f7 bb 88 3e 3e 3d b9 ec ab 3c 3e 9a 1c bd
       -0.007538028 0.046446353 0.020986902 -0.038233034
000320 c9 6c d7 bb 81 7f bc 3c cf d7 ab bb c1 e9 0b 3d
       -0.0065742475 0.023010017 -0.0052442322 0.034158472
000330 3d 7e 57 3c ab 87 9f bc e7 0e 40 bc 5b 6d 06 bc
       0.013152656 -0.019473871 -0.011722303 -0.008204783
000340 3e d1 50 3c 7e 72 82 bc af cc c7 3c a6 ab 05 bc
       0.0127452 -0.015923735 0.024389593 -0.0081586
000350 df 61 16 3d a2 60 68 bc ed 54 d9 3a 09 0c d3 bb
       0.03671443 -0.014183195 0.0016581096 -0.0064406437
000360 ed 3a fe 3c 9d df 94 bc cb 33 7f 3c 39 90 06 3d
       0.031033957 -0.018173033 0.015576313 0.032852385
000370 12 eb 3a 3d 07 c0 0b 3d 7b 81 6a 3c 63 ed c3 3c
       0.045634337 0.03411868 0.014313097 0.023916906
000380 95 46 00 bd f4 ff 29 3c 13 f8 a0 3d 78 8a 32 bd
       -0.031317312 0.010375965 0.078598164 -0.043589085
000390 e5 5e 0d bc 6b 2d 9c 3c 0e d8 66 3c 79 b3 c4 3b
       -0.008628582 0.019064626 0.014089597 0.00600284
0003a0 24 89 99 bc b7 cb 25 bd 13 5c 11 bd 96 1d bf 3b
       -0.018742152 -0.04047748 -0.0354882 0.0058323843
0003b0 87 3a be 3c c6 ad dd bc 9a 88 ad 3d 2a 34 17 3d
       0.023221267 -0.0270604 0.0847332 0.036914982
0003c0 10 c3 1c 3c 04 31 b3 bc 99 71 b7 3c 04 6f 2e 3d
       0.009567991 -0.021873958 0.022393035 0.04258634
0003d0 8c 15 24 3d 0f 77 43 3d dd bf 1f 3c 01 bc da bc
       0.04005961 0.047720965 0.009750334 -0.026700975
0003e0 53 d9 f0 3b 8a 36 01 3d e6 3b 2a 3d a2 29 b2 bc
       0.007350126 0.031546153 0.04156103 -0.021748368
0003f0 29 72 9c 3d 66 eb 53 3c d0 4b cd bc 2b 61 05 bc
       0.07638962 0.012934541 -0.025060564 -0.008140842

network_body._body_endoder.seq_layers.2.weight f4 [256, 256]
000000 6c 64 38 bc 88 ed 35 3d b6 4e 83 bd 21 fc 48 3d
       -0.011254411 0.04441598 -0.06411497 0.049068574
000010 1f ed 8f bb b2 5b 2c bd 30 74 94 bb 88 37 16 3e
       -0.0043922807 -0.042079635 -0.004530452 0.14669621
000020 71 70 23 3d 08 34 d4 bd 25 bc 04 be 10 4a 98 3d
       0.039902154 -0.10361487 -0.12962396 0.07436001
000030 43 cd e3 bc e0 08 81 bd 82 d2 ab bc e0 bf 9c bd
       -0.027807837 -0.06300521 -0.020974401 -0.07653785
000040 13 02 41 bc ee 79 03 3e 12 bf 71 bc 10 78 a9 bd
       -0.01178028 0.12839481 -0.014755027 -0.08274853
000050 cd f6 d5 bd eb 7c ab 3b 25 0d ac 3d 9f ae 35 bd
       -0.10447464 0.0052333972 0.084009446 -0.044355985
000060 bc 25 e7 bd c7 63 56 3d 8a 19 b7 bb dd e4 b5 bb
       -0.11286494 0.05234125 -0.0055877613 -0.0055509643
000070 9b c7 57 3d 08 97 16 3c cd 97 94 bc 64 29 7d 3c
       0.052680593 0.009191282 -0.01813879 0.015451763
000080 d4 c7 06 bd 54 a5 5f bc 05 3b 94 bc e5 ce 33 3d
       -0.032905415 -0.013650257 -0.018094549 0.043898482
000090 75 2c 83 bd c6 10 b4 3b 7b a3 ff 3c 2e 23 ef 3c
       -0.06404964 0.0054951636 0.031205883 0.02919158
0000a0 d1 98 fc bd 81 22 78 3d ed b5 0c 3d c7 20 e1 bc
       -0.12333835 0.06057978 0.034353185 -0.02748145
0000b0 e6 98 81 3d 03 d8 e6 bd 84 1e 22 bd 71 44 fd bc
       0.06327991 -0.1127167 -0.039579883 -0.030916424
0000c0 9e 4a b2 bd ef 57 08 3d 79 d3 8e 3d b2 6d 60 bd
       -0.08705638 0.033286985 0.06973929 -0.054792114
0000d0 e9 c2 8a 3d 94 b4 ec 3d 28 f1 69 3c ff ff d3 bb
       0.067754574 0.1155788 0.014278688 -0.006469726
0000e0 d6 d5 2a 3d 9b ea 1d 3e 39 69 4e bd 88 4a ab bd
       0.041707836 0.15421526 -0.050393317 -0.08363825
0000f0 20 aa 90 3c 6d 79 28 be 6b 77 36 bc 69 09 19 3d
       0.017659247 -0.1645257 -0.01113687 0.03736249
000100 3b a7 29 bd 9a 71 01 3d 77 36 d8 3d 52 76 86 bc
       -0.04141925 0.03160248 0.10557263 -0.016413841
000110 e2 ce 47 3d 65 81 16 3b c5 f5 9a bc 3b 0d e7 bc
       0.048781283 0.0022965309 -0.01891602 -0.028204551
000120 bd 28 88 3d a1 ea 01 bb 06 02 96 bd 94 f2 9c 3c
       0.06648395 -0.0019823688 -0.07324605 0.019158639
000130 68 f1 d5 3c d1 7e 70 bd 9d 00 ae 3d 40 5f e2 3d
       0.026116088 -0.05871469 0.08496211 0.11053324
000140 08 9a 12 bd 81 ae 8b 3b b6 75 a0 bc cc b4 7f bd
       -0.035791427 0.004262746 -0.019587379 -0.06242828
000150 97 5e 1b bd ea e3 e9 3c 55 d0 4e bd 48 3c d2 3c
       -0.037932005 0.02855106 -0.05049165 0.02566351
000160 44 78 58 bd 43 36 42 3d 96 53 49 3d 83 f7 cc bd
       -0.05284907 0.04741503 0.04915198 -0.100081466
000170 37 0a 3a 3c 48 3f 17 be 7f 0a a8 bc 94 36 1c 3d
       0.0113549745 -0.14770234 -0.020512817 0.038137987
000180 aa cc 8c 3c dd bd 42 bc 82 d9 2c 3e 87 af 34 3d
       0.017187435 -0.011886087 0.16879848 0.04411271
000190 3b 64 f9 3b 68 3a 45 bd f4 0e 0b bd d3 0b 86 bc
       0.0076108254 -0.048151404 -0.033949807 -0.01636306
0001a0 97 94 b7 3d db ba 09 bd 13 a1 3c be 7a 27 2c bd
       0.08963888 -0.033625465 -0.1842082 -0.042029835
0001b0 c0 98 f5 3c f9 db 8c bc 0b 03 80 3c 0a 1e cc bd
       0.029980063 -0.017194735 0.015626451 -0.09966667
0001c0 46 2d 1c 3e 03 d5 ae 3c 4f 34 46 3d 8d 40 89 3c
       0.15251645 0.021341806 0.04838973 0.016754413
0001d0 85 8f 6f 3d 0b d4 b6 ba b4 ec e0 3c 68 5d 54 bc
       0.05848648 -0.0013948692 0.027456619 -0.012961723
0001e0 63 bb b2 3c b4 8d 80 bd 34 3e 92 3d 49 e1 87 3d
       0.021817869 -0.06277028 0.071407706 0.066347666
0001f0 be 1c 03 3e 09 94 81 bc 5f 7e 3e 3d 99 dd a2 bd
       0.12803933 -0.015817659 0.046507236 -0.07952423
000200 d1 96 f5 3b 82 f3 2b bd 6b aa aa bc be 52 4d bd
       0.0074947854 -0.041980274 -0.020833215 -0.050127737
000210 30 b1 c8 bd 97 91 cd bc 8f 40 df bd d0 dd 67 bd
       -0.09799421 -0.025093837 -0.109009854 -0.05660802
000220 f9 01 3c 3d cc 11 93 bd 40 be 91 3d 5d 42 4f 3c
       0.04590032 -0.07181129 0.071163654 0.0126501
000230 24 37 80 3a 1e 97 a1 3d 6b 64 01 3c 53 ad ed bd
       0.0009782058 0.078901514 0.007897477 -0.116053246
000240 d6 d4 1d bc 80 a9 f9 bc 94 c7 be 3c 35 cf 20 bd
       -0.009633264 -0.030476332 0.023288526 -0.039260108
000250 7b 0f c9 bb 93 3a 8a 3c c8 7c 1f bc 9b 29 fd bd
       -0.0061358786 0.016873633 -0.00973434 -0.12361451
000260 a9 14 fb bb 14 12 ab bd f3 bc 3c bd fd 9b 18 bd
       -0.007662375 -0.083530575 -0.046078634 -0.037258137
000270 8e 5d 99 bd 35 3e cc 3d e6 9c 57 3c f2 d7 99 3d
       -0.07488547 0.099728025 0.013159966 0.075118914
000280 7b f9 2c bb 3d ad 0e bd 0a d0 60 bc cd 9d 3e 3d
       -0.002639382 -0.03483318 -0.013721475 0.04653721
000290 56 f7 07 3d 3d 0d a5 bc e5 e4 d0 3d 76 8f 04 bc
       0.033194862 -0.020147914 0.10199908 -0.008090844
0002a0 c7 08 c5 3d 70 3d 80 bd 15 ee d2 bd 38 64 a5 3d
       0.09620815 -0.06261718 -0.10299317 0.08075756
0002b0 7b 5c 7f 3d 9a d9 21 bd 04 cd ff 3d 48 f6 6d bd
       0.062344056 -0.03951416 0.124902755 -0.0580962
0002c0 b7 38 ad 3c a7 4e 85 3d 36 bd 5c bd 25 8e 36 bd
       0.021145208 0.06509142 -0.053891383 -0.044569153
0002d0 bc 79 03 bd 31 b4 ed b8 d5 23 1e bc 34 d1 7a 3c
       -0.032098517 -0.00011334604 -0.009652098 0.015308667
0002e0 57 d9 ff 3c fb f6 09 3d b5 71 dc bd 18 5d 0d 3d
       0.031231565 0.033682805 -0.107638754 0.03451261
0002f0 30 d1 7a bd d8 0e f1 bd 6a 86 30 bd 68 60 2f be
       -0.061234653 -0.11770409 -0.043096937 -0.1712662
000300 fa fb ab 3d aa 57 af bd 79 2d ca 3b 7b ed 2a bd
       0.0839767 -0.085616425 0.0061699715 -0.041730385
000310 54 1c bd 3b f0 30 c0 3d b3 d3 b5 bd b3 cf 41 bd
       0.0057711992 0.09384334 -0.08878269 -0.047317218
000320 c7 12 bb 3c a3 87 91 3d d7 30 70 bd 25 33 be 3d
       0.022836102 0.07105949 -0.058640327 0.09287099
000330 3d 86 04 bc 66 db 7f bd f4 c4 3f 3b 0b 70 7b 3d
       -0.0080886455 -0.062465094 0.002926168 0.06138615
000340 59 c6 68 3d a6 aa 8f bd b9 d8 3a bc 07 50 5a 3d
       0.056829784 -0.070149705 -0.01140421 0.053298976
000350 c3 fb 14 3c 0b bb 76 bd 96 86 e5 bd 70 8f 4c bd
       0.009093228 -0.06023697 -0.11207311 -0.04994148
000360 8d b5 06 3e 05 49 f4 3d 1a 13 2e 3c d2 4e a0 3d
       0.13155194 0.1192799 0.010624671 0.07827534
000370 17 5a 1f bd 58 73 b7 3c d4 c4 5c 3d 7e f8 f9 bd
       -0.038904276 0.022393867 0.053898647 -0.12205599
000380 2d a5 75 bd b9 2b 4b bd 82 d3 25 3d 23 08 d3 bb
       -0.059971977 -0.049602244 0.040484913 -0.006440179
000390 3e ee c0 3d d0 44 2a bb 24 8c df bd b9 84 a0 bd
       0.09420441 -0.0025980957 -0.109154016 -0.07837815
0003a0 b3 70 80 bd 16 81 0a 3d 81 71 a5 bd d9 fa f9 3c
       -0.06271496 0.033814512 -0.0807829 0.030515121
0003b0 ee ac 8c bc ac f8 7e 3b 9b 35 67 3d 07 ef 10 bc
       -0.017172303 0.0038905544 0.056447607 -0.008846051
0003c0 e5 b4 44 3b fe 83 c1 bd d1 9c b6 3d 89 f9 a5 3d
       0.0030015048 -0.09449004 0.08916629 0.08104236
0003d0 a2 ec 99 bd 6e 17 09 3d 47 39 91 bc 9c fb 48 bc
       -0.07515837 0.03346961 -0.017727507 -0.01226702
0003e0 2a 8c 35 bc 2f 78 81 be 55 6c b4 bd 57 ab c7 3d
       -0.011080781 -0.25287005 -0.08809725 0.09749477
0003f0 ae a3 f4 3b aa 60 2d bc 0e ed 5e bc d3 9e 80 bc
       0.007465801 -0.010582129 -0.013606323 -0.015700733

network_body._body_endoder.seq_layers.2.bias f4 [256]
000000 6a d6 c9 3a 5c ff 3d 3d b5 da de 3c 02 e8 dc 3a
       0.0015398983 0.046386108 0.027203897 0.0016853812
000010 d5 14 24 3d 1c dc dd bc 27 a0 9e bc 08 bb 72 3c
       0.04005893 -0.027082495 -0.019363476 0.0148151
000020 5d d9 6d 3d 6f 2a 86 3c 63 88 25 3d b3 31 4a bd
       0.058068622 0.016377656 0.04041327 -0.049363803
000030 c5 68 66 bc 6b 9b df 3c 20 c5 a7 bb 75 05 18 bc
       -0.014063065 0.027295789 -0.0051199347 -0.009278645
000040 36 36 04 3d 72 1a f1 3c 3a 1e 3c 3d 4f 65 f2 3c
       0.032278262 0.029431555 0.045927264 0.029589323
000050 71 5c b5 3b 31 e3 cb 3c 94 16 24 bb f1 f3 74 3c
       0.0055347015 0.024888607 -0.0025037872 0.014950738
000060 65 69 58 3c b2 28 ce 3c 25 89 b4 bc 85 95 c6 3c
       0.013208722 0.02516589 -0.022038052 0.024241218
000070 ad 4f 99 bb 00 ca 0b 3d 01 8d 1a bc 24 03 76 bc
       -0.0046786875 0.03412819 -0.009433032 -0.015015397
000080 79 7b a9 bc 2f 27 bb 3c d1 14 9e bc 18 c4 52 3d
       -0.02068876 0.022845833 -0.019297035 0.05145654
000090 70 21 4f b9 15 14 0c 3d 54 45 85 bc a0 c0 5f 3c
       -0.00019753515 0.03419884 -0.01626841 0.013656765
0000a0 e0 c0 09 3d 0f d6 12 3c df f4 28 3d c5 e4 b2 3c
       0.033631206 0.008962168 0.041249152 0.021837601
0000b0 7b dc 85 bb 3e f4 21 bd c5 dd 8f 3c f7 3e 9b 3b
       -0.004085121 -0.039539568 0.017561803 0.0047377306
0000c0 e0 97 25 3d 8a e1 81 3b 7c 55 9f 39 7e 42 a7 bc
       0.040428042 0.003963654 0.00030390534 -0.020417448
0000d0 a0 a9 dd bc 21 99 48 bc 03 dc 24 bc 96 a1 59 3c
       -0.027058423 -0.01224354 -0.0100622205 0.013283154
0000e0 e8 8e b6 bc 75 c6 0c bd f6 8e 6c 3c 5b e1 16 bd
       -0.02228494 -0.03436895 0.014438381 -0.03683601
0000f0 b5 8b 9d bc 2f c4 1a 3c 48 26 bb 3c e6 a2 4b bc
       -0.019231657 0.009446188 0.022845402 -0.012428975
000100 4c 1f a7 bc 49 18 91 3b df 13 23 bc fb cf 9a 3c
       -0.020400666 0.004427944 -0.009953468 0.018898001
000110 ea fb e0 3c 1e 73 11 3c d1 92 60 bc 75 50 ee 3a
       0.027463872 0.008877544 -0.013706879 0.0018181937
000120 7b f9 45 bc 42 fb ff 3b 30 e6 f0 ba 1e c5 29 3c
       -0.012083407 0.0078119347 -0.0018379148 0.010361938
000130 8f a9 c0 ba 8e 55 d0 bb 21 6a 1e 3d 21 d2 22 bc
       -0.001469897 -0.006357855 0.03867543 -0.009937794
000140 ae 8c 9c bc f2 68 c6 bc c0 39 d3 bb ea cf 45 3b
       -0.01911005 -0.024219964 -0.0064460933 0.003018374
000150 02 83 85 3c 17 57 4c 3b 2b 34 63 bc d6 3a cf bc
       0.016297821 0.003117984 -0.013867418 -0.02529661
000160 98 76 ec 3c a2 2a d4 3b 95 66 60 3d e3 60 a6 bc
       0.028865144 0.006474809 0.05478533 -0.020309871
000170 9e 72 13 bd 74 2a a6 bc ac 04 b8 3c 4e 38 85 bc
       -0.03599798 -0.020283915 0.022463165 -0.0162622
000180 56 d9 aa ba 0c f1 7f 3c ac 6f 07 3c aa dd e9 bb
       -0.0013034742 0.015621435 0.008266371 -0.00713702
000190 0c a0 82 3c f5 b1 34 bd 97 e4 b3 3c d4 79 59 3d
       0.015945457 -0.044115026 0.021959586 0.0530947
0001a0 cd 7f ae 3a 99 27 21 bc 25 8c b5 bb 68 ec 6d bc
       0.0013313234 -0.009836101 -0.005540388 -0.014521696
0001b0 8b ab a6 bc cb f0 17 3d 9b 48 83 bb fa 57 95 3c
       -0.02034547 0.037094872 -0.004006458 0.018230427
0001c0 2f 17 77 bc 2e 5f d5 3c eb a8 72 3c 96 d1 29 3a
       -0.015081211 0.026046362 0.014810781 0.0006478069
0001d0 b9 76 a9 bc 74 ed 94 bc 8f 29 e9 3c df 93 42 bc
       -0.020686494 -0.018179633 0.0284622 -0.0118760755
0001e0 8b 20 6a bc a7 03 10 3d 27 26 29 bb d4 47 af bc
       -0.014289985 0.035159733 -0.0025810094 -0.021396555
0001f0 ec 59 1c 3d 83 6c de bb 79 e2 61 bc a9 3a 28 bc
       0.038171694 -0.006787838 -0.013786905 -0.010267892
000200 fe 0f 00 3a 55 6d 6b bc 61 6c f4 3c 96 3b 78 bc
       0.00048851955 -0.0143693285 0.029836835 -0.015150925
000210 9d 63 09 3d a7 26 3b 3c 52 26 e0 bc 4c ca 87 3c
       0.033542264 0.01142279 -0.027362023 0.016575955
000220 ca e8 07 3d 6d 68 d3 3c 04 5c 66 3a 50 62 b4 3c
       0.03318099 0.02580663 0.0008787515 0.022019535
000230 6a 0b d4 bc 98 57 c1 bc b4 f3 65 3c 87 ee a6 bc
       -0.025884349 -0.023601338 0.014035154 -0.02037741
000240 9c 6b 17 bd af 18 c2 3c f8 d7 a0 bb a2 98 81 bb
       -0.03696786 0.02369341 -0.004908558 -0.003954963
000250 29 20 9e bc 92 de a2 bc ac 4d 7c bc 3a 2f 04 bd
       -0.019302445 -0.01988152 -0.015399378 -0.0322716
000260 53 fe f3 bc 8e b3 e2 ba 49 99 51 bd f6 d0 80 bb
       -0.029784357 -0.0017295943 -0.051171575 -0.00393116
000270 59 8e 99 bc be e2 f1 3c 88 62 4e 3d ba ef 29 bb
       -0.018744634 0.029527064 0.050386935 -0.0025930242
000280 8b 01 42 3c 67 12 34 bc ac 4a 83 3c 66 b7 dc 3c
       0.011841188 -0.010990716 0.016026817 0.02694292
000290 89 53 3d bb cc d8 e7 bc 0f 6e 74 3c df fb ec 3a
       -0.0028888902 -0.028301619 0.014918818 0.0018080435
0002a0 6f df 0c bc 6c cf 2b 3d 5d 63 50 3d ce bb 78 bc
       -0.008598193 0.04194586 0.05087601 -0.015181495
0002b0 7d 7b 98 bc aa 76 81 3c 89 c3 cf bc 19 3f 94 bc
       -0.018613571 0.015803654 -0.025361793 -0.018096494
0002c0 bf 9a 8f bc fc 84 dd 3c 99 29 56 bd bf ec 15 3c
       -0.017529843 0.027040951 -0.052285764 0.009150683
0002d0 31 43 f0 3c 03 ae b8 bc 45 5f d6 bc fc db 8d bc
       0.029328914 -0.022543913 -0.026168475 -0.01731681
0002e0 a2 71 00 3d 9d cd b6 bb 3d 02 84 bc e4 66 f0 3c
       0.03135837 -0.00557871 -0.016114349 0.029345937
0002f0 12 9b a6 bc 1f 1b 34 bb 0f fc 78 3c 35 78 f1 3b
       -0.020337615 -0.0027481986 0.015196814 0.007369066
000300 a7 91 7d 3c 5c 00 69 3b 17 e9 a6 3c c7 44 29 3d
       0.015476621 0.0035553193 0.020374818 0.041325357
000310 b0 1a 5a 3b b6 f7 bb bc d3 80 02 bc 9a 1a 00 3c
       0.0033280067 -0.022945266 -0.007965284 0.007818842
000320 27 c5 97 bc 68 3c fd 3c 62 e1 a1 bc ec 99 28 bd
       -0.018526627 0.030912593 -0.019760791 -0.041162416
000330 11 94 e3 bc a8 f3 d8 3c e6 74 38 bd 5e f0 8d 3b
       -0.027780565 0.026483372 -0.045033358 0.0043316325
000340 84 8c df bb ac 3e 6f 3c bb d6 c5 bc 6d 2f f4 3c
       -0.0068221707 0.0146023445 -0.024150243 0.02980777
000350 8e a5 f8 3c dc da 23 bc f2 d1 03 3d 70 1f 47 3c
       0.03035238 -0.010000911 0.03218264 0.012153491
000360 ab 3b 0d bc c5 75 7b 3c 3b 6c 2c 3c 6f 86 d4 3c
       -0.008620183 0.015347903 0.010523851 0.02594301
000370 f6 9b 8f bc fb 20 cc 3c 26 19 7f 3c f0 3b fa 3b
       -0.017530423 0.02491807 0.015569961 0.0076365396
000380 da 2b 9c bc 59 d6 91 bc dd a2 10 bc 7e 01 02 bc
       -0.019063879 -0.017802404 -0.008827892 -0.007934926
000390 3c 28 a7 bc 94 34 b0 bc fd 0f e5 ba 7c 18 a4 3b
       -0.020404927 -0.021509446 -0.0017476078 0.0050078016
0003a0 dc 3d a2 3c c1 d8 33 3d b3 55 94 3c 1d fe d0 bc
       0.019804887 0.043907885 0.01810727 -0.025511796
0003b0 d9 3f 7b bc fb 11 ce 3c bc 9a 9b bc 51 ca 07 bc
       -0.015335047 0.025155058 -0.018994682 -0.008287982
0003c0 eb cc 23 3d d3 fe ba 3c 3d 3e 3b 3d 13 d1 b2 bc
       0.039990347 0.022826588 0.045713652 -0.02182821
0003d0 fe 17 a1 3b 80 d8 f3 3c e6 25 1a 3b dd f5 4e 3d
       0.00491619 0.029766321 0.0023521124 0.050527442
0003e0 38 bd 9b bc ea 70 33 bc 03 12 a3 bc ca 44 0b bd
       -0.019011125 -0.010952214 -0.01990605 -0.03400115
0003f0 52 80 0f bd 1c 0e 63 bb 5c 25 e4 3c 56 a2 34 3a
       -0.035034485 -0.003464586 0.027849846 0.0006890645

action_model._discrete_distribution.branches.0.weight f4 [2, 256]
000000 72 4f ca ba 72 df 4b 3d 9c ef 27 3d 5e 2a 90 bb
       -0.0015435054 0.04977364 0.040999994 -0.004399582
000010 16 5e 57 3c 54 91 01 bc 8e 9a ac 3a d6 3a 93 3c
       0.01314499 -0.007908184 0.001316862 0.017972391
000020 45 e0 06 3c 5d 8c fa 3c 51 ad 92 bc e3 4f b7 bc
       0.008232181 0.030584509 -0.01790491 -0.02237696
000030 d2 e3 2c 3c d8 e1 9d 3b a0 d1 a5 bc 25 5c c3 bb
       0.0105523635 0.0048181824 -0.020241559 -0.005961912
000040 d6 fa 09 bc 49 bd eb bb db 01 58 3d 55 4a 02 3c
       -0.00842162 -0.0071941954 0.052736145 0.007952292
000050 cf b2 82 3c b8 6e 23 3d 31 28 d8 3b 1b cb a1 3c
       0.015954403 0.03990051 0.006596588 0.019750169
000060 fa 2e 1a bb 45 30 55 3c 44 92 36 bc 16 9b da ba
       -0.0023526535 0.013011997 -0.011143271 -0.0016678299
000070 05 cb d9 bb 9d 8e 3a 3a 43 54 a1 bb 93 4a ca bb
       -0.0066465163 0.0007116588 -0.004923375 -0.0061734407
000080 08 0f e1 3c f7 6d df 3c b0 d9 be bc 23 98 5f 3d
       0.027472988 0.027274115 -0.02329716 0.05458845
000090 6d 38 c5 bc 82 60 0b bd 2d 51 89 3b 8d 08 5e bb
       -0.024074757 -0.034027584 0.004190585 -0.0033879608
0000a0 18 70 02 bd ee 3c bf bc f7 88 cb 3c 36 3f da 3a
       -0.031845182 -0.023344483 0.024845583 0.0016650918
0000b0 aa 55 33 bd 60 fb 36 bb 2b d2 99 bb f5 79 1e bd
       -0.043782867 -0.0027920827 -0.0046942434 -0.038690526
0000c0 16 74 59 3d b2 7d 9a bc 64 aa 27 3c d2 92 b0 3a
       0.053089224 -0.018858764 0.010233495 0.001347149
0000d0 80 cc 01 bd 1d 1f a4 bc c0 73 2f bc f0 fd 99 3c
       -0.031689167 -0.020034367 -0.010708749 0.018797845
0000e0 32 39 3e 3c b7 ea ad bc 6a 03 9d 3b e1 78 da 39
       0.011610316 -0.021230085 0.0047916668 0.00041670262
0000f0 18 0e 3e ba fa b0 0f 3c bd cc c1 3c ee a5 24 bc
       -0.0007250025 0.008770222 0.023657197 -0.010049326
000100 a4 01 ae 3b 2b 31 09 3c 50 85 2a bc 10 a0 78 3c
       0.005310254 0.008373539 -0.010407761 0.015174881
000110 ff 82 ab bb 2f 1e fc 3b dd 98 85 bc 64 91 9d 3c
       -0.005234122 0.007694028 -0.016308242 0.019234367
000120 8f 98 59 bc ff 64 2e 3c c6 2e 25 bd c9 17 04 3c
       -0.013281002 0.0106441965 -0.04032781 0.008062311
000130 73 04 37 bc f2 5c 4d bc 42 28 5e ba 36 8d 9b bc
       -0.011170494 -0.012534367 -0.0008474627 -0.018988233
000140 9b 94 05 3c 30 f5 ab 3c e6 f8 de 3c 24 7e 9a bc
       0.008153106 0.020990938 0.027218293 -0.018858977
000150 1e b8 93 3c 83 d6 04 bc 9f 29 f1 bb 6a 22 f0 3b
       0.01803213 -0.008107784 -0.007359698 0.007328321
000160 25 22 3b 3d 31 2a c5 3c 86 e6 50 3d da 28 d5 bb
       0.04568686 0.02406797 0.051001094 -0.006505114
000170 79 e1 cd bc fa d6 bf bb c4 e4 e2 3c b3 d5 5d bc
       -0.025131928 -0.0058544846 0.027696975 -0.013539719
000180 5a 63 60 3b de 7b 31 bd e7 36 30 3b 68 f1 58 3c
       0.0034238906 -0.04333102 0.0026888193 0.0132411495
000190 1a bd 78 3a ed 84 26 3c 01 3b 47 3d 65 77 0a 3d
       0.00094886275 0.010163528 0.048640255 0.03380527
0001a0 dd f4 93 bc f5 8c 54 3b 72 15 1f 3b c4 66 ad ba
       -0.018061096 0.003243265 0.0024274257 -0.0013229479
0001b0 23 e8 d1 b9 3b 5f b5 3c c6 85 71 3c fa 9c 3b 3d
       -0.00040036542 0.022140136 0.014741367 0.045804
0001c0 b3 ce b4 ba 24 4d ad bc a9 97 67 3d ac 89 f2 3a
       -0.0013794511 -0.021154948 0.05654112 0.0018504164
0001d0 4c 45 38 bb 57 04 1a bb 0a 1a 4a 3d e7 7f 8d 3a
       -0.0028117476 -0.0023501122 0.04934124 0.0010795564
0001e0 31 d9 66 bc 06 a9 63 bc 0b 38 e6 3a 6d 94 e0 bb
       -0.014089868 -0.013895279 0.001756431 -0.006853631
0001f0 bd 14 40 3c 46 dc ba 3c 9b e9 dc bb 6d ee cb bb
       0.011723694 0.022810113 -0.006741715 -0.006223491
000200 1c ed 2c bb 29 54 8d bc 1d 53 7e bc 8f 72 dc bc
       -0.0026386445 -0.017252045 -0.015522745 -0.026910095
000210 b8 59 be 3c 20 d2 1b 3c fa 56 94 3a 3a 2a b0 3c
       0.02323614 0.009510547 0.0011317425 0.02150451
000220 c0 a1 05 3b 5a ee 57 3b b3 a1 5c 39 b5 82 6c 3b
       0.00203906 0.0032948465 0.00021041073 0.003608865
000230 ae 60 1c bd 88 ec b6 bc a4 49 1e 3d cc 58 5c bc
       -0.03817814 -0.022329584 0.038644448 -0.013448905
000240 a2 c6 16 bb 52 8b 1f 3d 4e 37 c0 bb bb 7a d0 3c
       -0.0023006578 0.038951226 -0.005865968 0.025449147
000250 f2 8a 17 3c ee 8e 00 bc cd 81 7b 3c 2c c2 25 bc
       0.009249436 -0.007846577 0.015350771 -0.010117095
000260 9e 3c ee 3b 8d 53 fe bc c9 7e cd 3b 2f 21 d5 3a
       0.0072704097 -0.0310457 0.0062712175 0.00162605
000270 2a 8e 13 bd c6 5a 54 3c 61 32 a7 3c 91 21 91 3c
       -0.03602425 0.012961095 0.020409765 0.017716201
000280 cc 4e 87 3c 96 a0 a8 bb 47 e1 c4 3b ab 8a 10 3d
       0.016517065 -0.0051460965 0.0060083005 0.035288494
000290 fa 95 a1 3c f3 97 56 3c 38 06 3d bc 99 63 b6 bc
       0.019724835 0.013097751 -0.011537127 -0.022264289
0002a0 2a e4 61 bc 24 cd 4c bc 5a d7 27 3c e1 46 0a bc
       -0.013787309 -0.012500081 0.010244215 -0.00843975
0002b0 d9 ca 9f 3b 5f 8e 0a bc f9 40 77 3b 1d 2f 8e 3c
       0.0048764762 -0.0084567955 0.0037727936 0.01735645
0002c0 40 31 8a bc 40 4c 07 3c 54 60 d6 bb 2d 07 e5 bb
       -0.016869187 0.0082579255 -0.006542245 -0.006989381
0002d0 2d 32 23 3d c7 fd 8e bc 2b 40 c0 39 2f 0d 0c bc
       0.039842773 -0.017454995 0.00036668903 -0.008548065
0002e0 83 57 1b 3d 76 b6 49 bd 7e 24 85 bc 94 3e cf 3d
       0.037925255 -0.049246274 -0.016252752 0.10119358
0002f0 f5 8e fc 3b 74 00 19 3b 4d 46 1d 3b fe 5f 08 3b
       0.0077074715 0.0023346217 0.0023998201 0.002080917
000300 8a ee 5c 3d 3a 9b cb 3b b5 3b e4 3c 12 51 b7 3c
       0.053938426 0.006213573 0.027860502 0.022377525
000310 6c 23 9c ba 85 f7 0e bc d8 07 05 bc 5a 44 e8 3c
       -0.0011912412 -0.008726005 -0.008119546 0.028352905
000320 08 96 8b bc 18 a2 75 3d 71 c3 d0 bc f9 68 84 bc
       -0.017039314 0.059969038 -0.025483819 -0.016163336
000330 16 72 3a bc 46 f6 5c bb db c7 ab ba c8 69 09 3c
       -0.011379739 -0.0033716126 -0.0013105826 0.008387037
000340 d9 8e 73 bc 43 07 d6 3c e3 91 2c 3c 2b 06 95 3c
       -0.0148656005 0.02612651 0.010532829 0.018191418
000350 46 4b c0 bc f1 46 87 3b 02 58 70 3c b1 b0 94 3b
       -0.023473393 0.00412833 0.01466942 0.004537665
000360 81 41 33 bd 13 c4 d6 3a 24 aa 1c 3d 2d ea f1 bb
       -0.04376364 0.0016385339 0.038248196 -0.0073826523
000370 5b 2f 0f bb 76 30 ea 3b 69 a5 b2 ba a8 12 23 3d
       -0.0021848294 0.0071468903 -0.0013629618 0.039812714
000380 35 cc a7 bb b6 8b 8d bc 9b 6d 1b 3b 72 40 76 3c
       -0.005120779 -0.017278533 0.0023716453 0.015030013
000390 97 2f c0 3c 6d 9d 62 3c be 7b 80 bc 93 51 6b 3c
       0.023460193 0.013831479 -0.015684005 0.0143627105
0003a0 b5 31 64 3a a8 1b 58 3c b5 8c ec 3c 13 8a 2f bc
       0.00087049167 0.0131901875 0.028875688 -0.010714072
0003b0 e8 75 b2 bb e9 19 c4 3c 78 0b e1 bb c7 99 26 3c
       -0.0054461844 0.023938136 -0.0068678223 0.010168499
0003c0 e8 4e 25 bc 1b 15 d8 bc ea 69 98 3d d7 e4 9b bb
       -0.0100896135 -0.026377251 0.074420765 -0.0047575044
0003d0 dd 28 75 3c 28 34 32 3c 11 56 a8 bc f8 e5 bd 3c
       0.014963356 0.010876693 -0.020548852 0.023180947
0003e0 ad bb a0 3b e4 dd d1 bc 7e 8e 6d bb 7a e0 ef bc
       0.004905185 -0.025618501 -0.0036248262 -0.029281843
0003f0 28 03 7d bc 1a 87 72 bc 93 25 1c 3c c9 8d ab bb
       -0.015442647 -0.014802719 0.009530443 -0.005235408

action_model._discrete_distribution.branches.0.bias f4 [2]
000000 1b 02 72 bb 35 02 72 3b
       -0.0036927524 0.0036927585

action_model._discrete_distribution.branches.1.weight f4 [2, 256]
000000 6e 9e 8a bc e0 69 22 3b d5 7a f8 3c 63 52 e7 3b
       -0.016921248 0.0024782345 0.030332008 0.007059382
000010 05 2e 57 3c 00 f4 1e 3c c1 5c 51 3b 62 f3 d4 3c
       0.0131335305 0.009701729 0.0031946155 0.02599496
000020 f0 02 45 bd 60 80 da bc 6e 97 8f 3d 3a e7 87 bc
       -0.048098505 -0.026672542 0.07011305 -0.01658975
000030 71 c4 65 bc 55 1d 8c bc 2f 22 19 37 f5 5c 33 3c
       -0.014023886 -0.01710383 9.12747e-06 0.010947456
000040 1e 4c 16 3d c5 17 eb 3b 4c 4f 34 3d 20 12 a7 bb
       0.036693685 0.0071744644 0.044020936 -0.005098596
000050 c7 40 ac 3b b9 61 2e 3c bf 2a 74 3a ce 8a fd 3c
       0.0052567455 0.010643416 0.0009314231 0.030949976
000060 c1 0a 0f bd df 46 71 bd 96 ff d4 3c 17 8a 0b 3c
       -0.034922365 -0.05890548 0.02600078 0.00851681
000070 ed 80 d2 ba 96 f3 9d 3d 75 8a 4a 3c d6 d0 e0 3b
       -0.0016060151 0.07712476 0.012362112 0.0068608327
000080 d1 29 1a 3c 58 94 0e 3b cb 2b b2 bb 96 bb d5 bc
       0.009409384 0.00217559 -0.0054373494 -0.026090425
000090 59 52 58 3c 79 bd 1a 3c 6f a3 01 bc d5 2b bb bc
       0.013203227 0.009444588 -0.007912501 -0.02284805
0000a0 a7 a0 09 3d 91 8d 31 bc 99 52 4e bd de c3 74 3c
       0.033600476 -0.010836975 -0.05037174 0.0149392765
0000b0 4b 51 68 3c 22 ab 41 3c bb 6a b8 bb ae 2f 10 3c
       0.014179538 0.011820586 -0.0056279576 0.00880043
0000c0 84 09 d0 3c d3 aa fb 3b fe b9 4d 3b 70 a8 0b bc
       0.025395162 0.007680276 0.0031391378 -0.008524045
0000d0 3b 21 7e ba 11 ee 03 3a 8b 9a db 3a 51 d1 28 bd
       -0.0009694283 0.0005032728 0.0016754431 -0.041215245
0000e0 47 7f d6 bc e6 08 13 bc a4 27 b1 3b ad d7 54 bb
       -0.026183737 -0.0089742895 0.005406337 -0.0032477186
0000f0 a7 cd 78 3c 44 c9 27 bd 56 28 aa bc 90 b0 c2 3c
       0.01518575 -0.040963426 -0.020771187 0.023765832
000100 f5 5a 5c bc 7d 62 21 bc 9c 21 ac bc f1 d9 a9 ba
       -0.01344942 -0.009850142 -0.02101212 -0.0012958628
000110 fd 11 5f bd 46 27 c6 3c ce ee a4 3c 8b bf 49 3a
       -0.054460514 0.024188649 0.020133402 0.00076960836
000120 5b 86 7a bc f2 15 a1 3c f7 d6 1d bc cd 70 f5 3c
       -0.015290822 0.019663785 -0.009633771 0.029961014
000130 77 12 e8 3c 7a c4 09 bd 79 49 a1 3c be d9 4a 3c
       0.028329117 -0.03363464 0.019688355 0.012381015
000140 35 78 87 bb c8 f0 47 3c 23 92 80 bb f9 e5 32 3c
       -0.004134203 0.012203403 -0.003923671 0.010919088
000150 d4 3b b9 bc 6d a5 15 ba e7 d4 e8 3c e6 1c f5 bb
       -0.022611536 -0.0005708549 0.028421832 -0.0074802516
000160 a1 c1 be 3c 91 9d d0 bb 7b 69 e9 3c e6 05 30 3c
       0.023285689 -0.0063664396 0.02849268 0.010743594
000170 a9 af 71 bc 49 b9 51 3c 57 0a d9 bc dd f0 42 3c
       -0.014751353 0.012800523 -0.026494188 0.011898247
000180 a9 1e 25 bb eb c0 b1 3b 5b d3 84 bc cc ca 05 3c
       -0.0025195277 0.005424609 -0.016214063 0.008166026
000190 62 fb 3f 3c 68 82 d9 bb 01 5c f0 bb 61 1d 76 bd
       0.011717649 -0.00663786 -0.0073351865 -0.06008661
0001a0 b7 6e bb 3b 23 f2 e4 bc dc 85 16 bd 64 f7 63 3c
       0.0057199853 -0.027947491 -0.036748752 0.013913963
0001b0 6b 79 07 bc ba 9b 3c 3c 5e 07 01 bb f4 24 87 3d
       -0.008268694 0.0115117375 -0.001968823 0.06598845
0001c0 1f 8c ab bc 0a db 8d 3d 9c 52 b6 bb a1 49 4b bc
       -0.020940838 0.06926544 -0.005564047 -0.012407691
0001d0 5e 00 a9 bb 4a ff d7 bc 57 e8 ba 3c d9 7d d8 3c
       -0.0051575145 -0.026366848 0.022815866 0.026427196
0001e0 6a e6 27 3c 33 16 ad 3b 57 b4 4e bb bb cf 21 bb
       0.010247806 0.0052821874 -0.0031540596 -0.0024690467
0001f0 89 43 ae 3c a6 aa 86 3c 37 1d 8b 3c f5 a7 37 3c
       0.021272438 0.016438793 0.016981704 0.011209478
000200 db e8 ae 3c c9 36 ca 3a f7 54 49 3c 52 a0 80 bc
       0.021351269 0.0015427704 0.012288324 -0.015701447
000210 fd 2e 8e bc 34 6e 9e 3c 5d 57 fb 3b 6f 5e 8c 3b
       -0.01735639 0.019339658 0.0076703266 0.0042837183
000220 01 7d 12 3d 5b 56 3d 3d 95 12 b1 3c 73 d5 0b 3d
       0.035763744 0.046224933 0.021615306 0.034139108
000230 3a 69 93 bc 31 97 95 bb 2f ea 85 3c 54 56 91 3a
       -0.017994512 -0.0045651426 0.016347019 0.001108835
000240 f2 2c 87 bc 3e 0a 9f bc ad ee bc bc 94 e8 48 bc
       -0.016500924 -0.019414064 -0.023063028 -0.012262482
000250 f2 0a 33 bc 16 8c a6 bc fd e1 bf 3c e5 f9 42 3c
       -0.010927903 -0.02033047 0.02342319 0.0119004
000260 3c 67 f3 39 18 f0 7a bc 36 00 a2 3c 10 a2 a7 3c
       0.00046425487 -0.015316032 0.019775491 0.02046302
000270 0a 11 7a bc 34 18 30 bc 5a 97 eb bc 24 ad 85 3a
       -0.0152628515 -0.010747958 -0.028758693 0.0010198695
000280 48 7f 95 3b c6 09 35 bc b7 80 36 bd c2 8c 7e 3d
       0.0045622922 -0.011049693 -0.044556346 0.062145956
000290 1b 1b 36 bd a3 a6 27 3c f3 e2 18 3d de 8c c6 3c
       -0.044459444 0.0102326 0.03732581 0.024237093
0002a0 99 33 16 3c 69 d0 63 3c d3 74 fe 3c 93 66 36 bc
       0.009167575 0.013904669 0.031061566 -0.011132854
0002b0 c7 33 39 bb c5 34 24 3d d4 4c 27 3b 33 ee d7 3c
       -0.0028259621 0.040089387 0.002552797 0.0263587
0002c0 72 dc 4d bc cc f3 db 3c 15 e7 c3 3b aa 53 58 bd
       -0.012564765 0.02684965 0.005978475 -0.052814163
0002d0 c6 6a b2 3d 61 39 31 3a 28 e0 c8 3b db 99 fa bb
       0.08711772 0.0006760564 0.006130237 -0.0076477355
0002e0 f8 8b b2 3b a1 a8 38 bc 63 f5 01 3d b5 bd 6a 3c
       0.0054488145 -0.011270673 0.03172816 0.014327456
0002f0 d5 f3 17 3c 1e e8 c0 3b 12 ff 8c bb 23 72 89 bc
       0.009274443 0.0058870455 -0.0043028677 -0.016778057
000300 d3 dc d2 bc 7e e9 d1 bc a2 d5 a4 bb 07 38 37 bd
       -0.025740063 -0.025624033 -0.00503035 -0.044731166
000310 4c 4d 06 3c b5 24 0c 3c 24 a8 48 ba c2 30 86 3c
       0.00819714 0.0085536735 -0.00076544494 0.016380671
000320 8d 46 ef b7 d3 83 31 3d cc fd 67 bc 30 b0 32 bc
       -2.8523873e-05 0.043338608 -0.014159631 -0.010906264
000330 a6 18 36 bc ef 32 c9 3b d7 a4 ad 3c 3c 8d f9 3c
       -0.011114275 0.006140105 0.021196766 0.030462854
000340 20 3b 02 3d 6c 2c 0c 3a 26 87 6f 3a 2a 1f 07 bd
       0.031794667 0.00053471955 0.0009137265 -0.032988705
000350 85 bf 85 3d dc e9 25 3c 09 97 e1 3c 2b bd 8c 3b
       0.0653067 0.010126557 0.02753784 0.0042950115
000360 05 7c 22 3d 02 1c b1 3c e1 b7 1f bd 29 9f 61 bd
       0.039669055 0.0216198 -0.03899372 -0.055083428
000370 f7 1a 39 bc de ee 09 3d 9c f3 83 bc b0 a2 dc bc
       -0.011297933 0.033675067 -0.016107373 -0.026933044
000380 cc 33 80 bc bc 37 3c 3c f3 b6 88 bc 00 89 3c bb
       -0.015649699 0.0114878975 -0.0166888 -0.0028768182
000390 ea bd 02 bd 39 58 54 bc 00 c2 94 3c bc 4c 2f b9
       -0.031919397 -0.012960487 0.018158913 -0.00016717886
0003a0 17 f3 21 bb 09 7c 13 3d 39 0e 3c 3d b2 2a 9a 3b
       -0.0024711543 0.03600696 0.045912 0.0047047967
0003b0 fd e7 99 bb d1 4b 07 3c 5b 63 15 3c 5d bf 3a bc
       -0.0046968446 0.008257822 0.0091179265 -0.011398164
0003c0 30 15 85 bb 6a c9 d0 bc 95 89 f3 3b 50 b9 8f bc
       -0.0040613636 -0.025486667 0.0074321725 -0.017544419
0003d0 b4 4a fa 3c 22 a8 6e bd 62 0a b1 ba 27 08 40 bc
       0.0305532 -0.058265813 -0.0013507123 -0.011720694
0003e0 8e 1f 6a 3c dc 19 39 bd ce 85 a0 bc 0b 9a 81 bb
       0.01428975 -0.045190677 -0.019595053 -0.003955131
0003f0 9c 0d 4a bc b1 ff 1f 3c 20 27 ee bc 04 94 08 bc
       -0.012332346 0.009765551 -0.02907139 -0.008336071

action_model._discrete_distribution.branches.1.bias f4 [2]
000000 b8 35 e1 3b c7 35 e1 bb
       0.006872859 -0.006872866
