Assets/results/day4_1208/TrafficLightBrain.onnx (onnx, 403823 bytes, 21 tensors)

discrete_act_size_vector f4 [1, 8]
2.0 2.0 2.0 2.0 2.0 2.0 2.0 2.0
00000000: 0000 0040 0000 0040 0000 0040 0000 0040
00000010: 0000 0040 0000 0040 0000 0040 0000 0040

network_body._body_endoder.seq_layers.0.weight f4 [256, 100]
0.047821 -0.08488234 -0.17663874 -0.17265354 -0.09977866 -0.17990273 -0.30800492 -0.0526643
0.03388599 -0.039603017 0.049793154 -0.086795986 -0.032011464 -0.12053548 -0.21379144 0.02452871
-0.094323896 0.0032033476 -0.3095287 -0.16069058 -0.026530948 0.051122796 0.014233467 -0.040883515
-0.19595759 -0.0364114 -0.0066856127 -0.12716801 -0.06076139 -0.044444587 0.06074933 -0.10346978
0.034490425 -0.060313772 -0.016599277 -0.062717274 -0.027384272 0.02563988 0.074328326 0.017624687
0.1381809 -0.047634926 -0.15784054 0.10837487 -0.096581995 0.21552609 0.0849104 -0.056447815
0.2306319 -0.11272808 -0.005046669 0.025186881 0.032866977 0.12796304 -0.0784679 0.027723059
-0.0100129265 0.08427353 0.05019396 0.013568384 -0.08153217 0.014666909 -0.07450601 0.12750751
-0.15174818 -0.14584081 0.017601654 0.12658396 0.039917536 0.0021095637 -0.09437247 0.02923794
-0.05493026 0.20975195 0.079059295 0.012377638 0.077989995 -0.066993535 0.2231146 -0.07523838
-0.012853212 -0.15703402 -0.02637048 0.087186106 0.032606345 0.03201204 0.0016104132 -0.08726784
0.039137635 0.11469555 -0.002453652 -0.0035338015 -0.01649726 -0.1844513 0.09224143 0.01004069
0.011756081 -0.0167112 -0.046058252 -0.08263159 0.07412732 -0.13454479 -0.13469832 -0.04455756
-0.116090685 -0.2301546 -0.16164602 -0.08738352 -0.17189324 0.062229104 0.21436545 -0.12200855
-0.12861772 0.101284534 0.022095451 0.058595054 -0.15854079 -0.2055414 -0.051237 -0.070113875
-0.08491661 -0.21292421 -0.039096527 -0.13475741 -0.13170002 -0.020306375 0.22684868 -0.05598236
0.020543806 0.044338137 0.009469234 -0.21587072 -0.092833124 0.080648415 0.100643754 0.12897913
0.09625628 0.13394791 0.0010832807 -0.13908693 -0.031511597 0.072101854 0.051089264 -0.091759674
-0.1134941 0.039768588 0.002411876 0.044954207 0.016795965 0.012531218 -0.06450087 0.094011106
-0.11898196 -0.17163382 -0.06460755 -0.13156445 0.057614144 0.058980204 0.03558882 0.006829778
0.12283593 -0.02521292 0.06453327 -0.083007716 -0.065354146 -0.08592453 0.04600373 -0.085634895
0.13565235 0.04733516 -0.047044955 0.058086168 0.11376589 0.11547738 0.035041343 0.021609072
-0.16313614 0.09982726 0.03578515 0.18157291 0.01766693 0.15732172 -0.11485112 -0.005305804
0.02329672 0.0044702017 0.058804262 -0.08025693 -0.011251115 -0.26600555 -0.017858803 -0.09334709
-0.107015096 -0.004387987 0.05829189 -0.041941166 0.0342819 0.049568042 0.054812636 0.08500604
-0.0406874 -0.039479315 -0.11802042 0.110696904 -0.08215909 -0.023091583 -0.0970618 0.05798329
-0.043816295 0.07500825 -0.084540956 -0.088970244 0.03965836 0.0188507 -0.15491134 0.0727052
-0.023798613 -0.42475215 -0.12763314 0.047006216 0.05198641 0.22139463 0.15256932 0.05352862
-0.04948474 0.11654474 -0.009349883 0.09914967 -0.057981607 0.072279796 0.024890108 -0.016448988
0.14705007 -0.010513314 -0.078905426 -0.015150427 -0.10093396 -0.06852304 0.05812939 -0.05029365
-0.026290307 0.010747772 0.13140884 -0.034587335 -0.01963683 -0.15447439 0.11192929 -0.016068727
0.10967765 -0.15881035 0.021370534 0.029315999 0.112611495 0.034150206 -0.014267909 0.088789955
00000000: f4df 433d cbd6 adbd c9e0 34be 17cc 30be
00000010: c158 ccbd 6c38 38be d2b2 9dbe 85b6 57bd
00000020: 09cc 0a3d c636 22bd e8f3 4b3d 18c2 b1bd
00000030: 741e 03bd 4edb f6bd 25ec 5abe 6ff0 c83c
00000040: e32c c1bd 41ef 513b 8c7a 9ebe 128c 24be
00000050: 6e57 d9bc 2366 513d 7d33 693c 7975 27bd
00000060: 1ba9 48be 1f24 15bd fc12 dbbb 5538 02be
00000070: efe0 78bd 870b 36bd 4ad4 783d f7e7 d3bd
00000080: d545 0d3d 930b 77bd 35fb 87bc ea71 80bd
00000090: fb54 e0bc ba0a d23c 7339 983d a661 903c
000000a0: 4b7f 0d3e d71c 43bd f3a0 21be a5f3 dd3d
000000b0: c8cc c5bd dfb2 5c3e 81e5 ad3d d335 67bd
000000c0: c52a 6c3e fbdd e6bd 875e a5bb b854 ce3c
000000d0: 869f 063d be08 033e c7b3 a0bd 781b e33c
000000e0: 420d 24bc 9a97 ac3d 2f98 4d3d ed4d 5e3c
000000f0: 57fa a6bd 7a4d 703c 9b96 98bd 5491 023e
00000100: e063 1bbe 4b57 15be 5831 903c 3a9f 013e
00000110: 9280 233d 9b40 0a3b 5b46 c1bd 6884 ef3c
00000120: 8dfe 60bd 37c9 563e d7e9 a13d 94cb 4a3c
00000130: 38b9 9f3d e833 89bd 2778 643e 9416 9abd
00000140: 4796 52bc 87cd 20be e806 d8bc a18e b23d
00000150: 3b8e 053d 0f1f 033d 8014 d33a 7bb9 b2bd
00000160: c94e 203d 80e5 ea3d 73cd 20bb 5a97 67bb
00000170: 4325 87bc cde0 3cbe 13e9 bc3d b581 243c
00000180: 949c 403c ede5 88bc 94a7 3cbd c03a a9bd
00000190: 10d0 973d 1cc6 09be 5bee 09be fd81 36bd
000001a0: f4c0 edbd a6ad 6bbe 8986 25be 22f6 b2bd
000001b0: c804 30be f2e3 7e3d 9e82 5b3e 9edf f9bd
000001c0: 5db4 03be 446e cf3d 8501 b53c 5e01 703d
000001d0: 8458 22be 7279 52be e3dd 51bd dd97 8fbd
000001e0: c2e8 adbd ce08 5abe ae23 20bd d9fd 09be
000001f0: 5fdc 06be 8e59 a6bc 054b 683e c24d 65bd
00000200: 7c4b a83c e89b 353d d924 1b3c 370d 5dbe
00000210: 4b1f bebd ff2a a53d 501e ce3d 1b13 043e
00000220: 0322 c53d a429 093e defc 8d3a ce6c 0ebe
00000230: 4e12 01bd 23aa 933d fa42 513d 7fec bbbd
00000240: 986f e8bd 63e4 223d 9110 1e3b e721 383d
00000250: b197 893c bd4f 4d3c 0819 84bd e588 c03d
00000260: d0ac f3bd c7c0 2fbe f750 84bd d5b8 06be
00000270: cffc 6b3d 3a95 713d 95c5 113d 55cc df3b
00000280: 6791 fb3d 538b cebc 052a 843d f3ff a9bd
00000290: 65d8 85bd 33f9 afbd 686e 3c3d 5961 afbd
000002a0: 73e8 0a3e 83e2 413d 36b2 40bd c3eb 6d3d
000002b0: 17fe e83d 687f ec3d 8387 0f3d 8205 b13c
000002c0: 290d 27be 3c72 cc3d 7393 123d 40ee 393e
000002d0: 3dba 903c f218 213e 1037 ebbd 4fdc adbb
000002e0: c3d8 be3c c57a 923b bddc 703d bf5d a4bd
000002f0: 9956 38bc e131 88be a04c 92bc c22c bfbd
00000300: bb2a dbbd 1ac9 8fbb 7ac3 6e3d 80ca 2bbd
00000310: 2d6b 0c3d dc07 4b3d 3783 603d a617 ae3d
00000320: d5a7 26bd 10b5 21bd b1b4 f1bd 0fb5 e23d
00000330: 0643 a8bd 8f2a bdbc 56c8 c6bd e37f 6d3d
00000340: b778 33bd ed9d 993d cf23 adbd 0836 b6bd
00000350: ce70 223d c96c 9a3c 14a1 1ebe 77e6 943d
00000360: 4ff5 c2bc 1d79 d9be 43b2 02be 9789 403d
00000370: b4ef 543d 46b5 623e 223b 1c3e d440 5b3d
00000380: 83b0 4abd 02af ee3d 4030 19bc fb0e cb3d
00000390: 1f7e 6dbd 6e07 943d 57e6 cb3c 07c0 86bc
000003a0: 4b94 163e 0940 2cbc 2b99 a1bd 7f39 78bc
000003b0: 77b6 cebd cf55 8cbd 1519 6e3d b700 4ebd
000003c0: c55e d7bc 6c17 303c 0a90 063e 73ab 0dbd
000003d0: 6bdd a0bc 892e 1ebe 2f3b e53d 90a2 83bc
000003e0: ad9e e03d 2e9f 22be 4211 af3c 1b28 f03c
000003f0: dba0 e63d 16e1 0b3d f3c3 69bc 82d7 b53d

network_body._body_endoder.seq_layers.0.bias f4 [256]
-0.043482676 -0.0272661 0.060693722 0.02732366 0.02320513 -0.025745992 -0.04514388 0.015236229
-0.007793609 -0.04255365 0.047521356 0.057493944 -0.029178686 0.03815797 -0.033484004 0.0044249743
0.10165843 -0.04471985 0.0047375318 0.00092992437 0.013100477 0.020903395 -3.4746212e-05 -0.033795927
-0.0513245 0.045469813 -0.00274698 -0.035248186 0.0023220947 -0.018611487 0.033758868 -0.0020567968
0.015661618 -0.021786686 0.013285439 -0.014991118 0.09662041 0.038282327 -0.019357104 0.022609092
0.012796604 0.023773761 -0.047425542 -0.048555925 0.040966306 0.030094622 0.005212028 -0.017470881
-0.011057676 0.05475499 -0.039808605 -0.05826684 -0.026764845 -0.017969351 -0.0022184807 0.01063238
-0.013351513 -0.018893234 -0.013093021 -0.015497548 0.04418546 -0.009979267 0.06771214 0.014990384
-0.00032346245 -0.005096386 0.0049473755 -0.024811467 0.016798658 0.015192336 -0.018541835 0.03411938
0.028386228 0.012974557 0.007022181 0.049110778 -0.0070392424 -0.0020677722 -0.010449119 0.00021761461
0.034344062 -0.004635193 -0.008276344 0.019905144 -0.033442367 0.021972006 0.050682124 0.032104608
0.03185876 -0.02494936 -0.014598448 0.010276215 0.08662871 0.034387063 0.067690596 0.004042867
-0.031700272 0.000605673 -0.032357465 0.030374601 0.038357187 0.008729123 0.037177227 0.005405754
0.011442088 0.031123966 -0.03907925 -0.010637904 0.008897328 0.027424995 -0.011621445 -0.029330267
-0.042284835 -0.0134712765 0.01846113 0.024741068 -0.025807736 -0.0066833575 0.023278393 -0.032697707
-0.06194281 0.036425065 0.050816346 -0.03563651 0.028081723 0.05762554 0.013940215 0.01860313
0.033297136 0.02762306 0.0052414127 0.0004962454 -0.012771014 0.0012701694 -0.0055717165 0.010562596
-0.0056667556 -0.025952326 0.005551865 -0.02148384 0.046325803 0.013611826 0.101049766 0.036581423
0.025410403 0.028217489 0.060201775 -0.015232593 0.04177987 0.022222573 0.04894629 -0.01723768
0.05790849 -0.0073207095 0.020297255 0.0044412883 0.035117067 0.0059485775 -0.0054723504 -0.003006965
0.08174944 0.006782792 0.014325198 0.032624852 0.05948844 0.02012311 -0.022491772 -0.055074908
0.008710364 -0.0056308066 0.020869233 -0.024619825 0.04181842 0.03964241 -0.012737745 0.051369924
-0.05812775 -0.015033335 -0.008660015 -0.010403416 0.01700934 -0.0071832943 -0.021992348 0.030620648
-0.05350661 -0.023879709 0.0139392065 0.041702773 -0.015590569 0.01693759 0.020896228 0.0037169186
-0.018939622 0.02480016 -0.058181234 0.05768892 0.048575208 0.0040705493 0.036909625 -0.006439764
-0.0007152867 -0.009452704 0.07699052 -0.03171406 0.0028782059 -0.036672644 -0.024730593 0.023059998
0.052389316 0.02582323 -0.021428885 0.006525321 0.03095183 -0.042026844 0.024888325 -0.030029517
0.036052562 0.004558984 -0.031477023 -0.028579738 -0.002399544 0.03144446 0.017863981 -0.008384383
0.03638592 0.058078583 0.047035422 -0.066933684 0.020723574 -0.01935777 0.034124978 -0.010137998
0.035386797 -0.023572212 0.05898745 -0.04234577 0.022871241 0.017139686 -0.07662624 0.046129946
-0.033066496 -0.0027477054 0.05332216 -0.02410041 0.08208223 0.058338862 0.026489459 -0.0016597667
-0.039511796 0.027027922 0.03395444 -0.018934863 0.024713013 0.005442012 0.055658054 -0.030883813
00000000: e41a 32bd 285d dfbc fb99 783d ded5 df3c
00000010: af18 be3c 42e9 d2bc cae8 38bd 60a1 793c
00000020: 8861 ffbb bc4c 2ebd c1a5 423d c57e 6b3d
00000030: 2408 efbc 884b 1c3d 8626 09bd 60ff 903b
00000040: 4c32 d03d 292c 37bd 4c3d 9b3b 2bc6 733a
00000050: 62a3 563c 993d ab3c 76bc 11b8 996d 0abd
00000060: a439 52bd 8e3e 3a3d ad06 34bb 6760 10bd
00000070: 492e 183b 1e77 98bc bd46 0a3d 53cb 06bb
00000080: cb4c 803c fe79 b2bc 2cab 593c 4e9d 75bc
00000090: ece0 c53d eecd 1c3d ca92 9ebc b436 b93c
000000a0: d9a8 513c 31c1 c23c 4941 42bd 94e2 46bd
000000b0: 49cc 273d ff88 f63c a9c9 aa3b 181f 8fbc
000000c0: 412b 35bc c546 603d 590e 23bd 36a9 6ebd
000000d0: f341 dbbc 7634 93bc ee63 11bb 6f33 2e3c
000000e0: 4ec0 5abc fcc5 9abc 1c84 56bc 6de9 7dbc
000000f0: d0fb 343d 1480 23bc aaac 8a3d 3a9a 753c
00000100: 6596 a9b9 96ff a6bb 981d a23b 6b41 cbbc
00000110: 579d 893c 47e9 783c 0ce5 97bc c3c0 0b3d
00000120: 3c8a e83c 3c93 543c 531a e63b 6228 493d
00000130: 72a9 e6bb 7683 07bb c832 2bbc 7a2f 6439
00000140: 5cac 0c3d d1e2 97bb 8199 07bc 1d10 a33c
00000150: ddfa 08bd a3fe b33c 0f98 4f3d 1f80 033d
00000160: 557e 023d 9a62 ccbc 542e 6fbc 925d 283c
00000170: 656a b13d 73d9 0c3d 5ea1 8a3d 077a 843b
00000180: 25d8 01bd 07c6 1e3a 4389 04bd 28d4 f83c
00000190: 6d1c 1d3d 9804 0f3c 2647 183d c022 b13b
000001a0: 9877 3b3c b0f7 fe3c 9011 20bd 9a4a 2ebc
000001b0: 19c6 113c 62aa e03c e067 3ebc 0746 f0bc
000001c0: dd32 2dbd a1b6 5cbc cc3b 973c c8ad ca3c
000001d0: bf6a d3bc 1100 dbbb 54b2 be3c 08ee 05bd
000001e0: beb7 7dbd 7332 153d cd24 503d 97f7 11bd
000001f0: a40b e63c c208 6c3d 8065 643c 9765 983c
00000200: 9462 083d c149 e23c 28c0 ab3b 7716 023a
00000210: 843d 51bc d07b a63a f292 b6bb bd0e 2d3c
00000220: 31b0 b9bb f999 d4bc 6bec b53b e1fe afbc
00000230: 20c0 3d3d 2304 5f3c 2ef3 ce3d 67d6 153d
00000240: 7a29 d03c 5d28 e73c 2396 763d 2092 79bc
00000250: 5e21 2b3d 1d0c b63c e87b 483d 0936 8dbc
00000260: 7431 6d3d 90e2 efbb 6e46 a63c 3a88 913b
00000270: ead6 0f3d 49ec c23b 6751 b3bb 8010 45bb
00000280: 406c a73d 2f42 de3b 3cb4 6a3c a3a1 053d
00000290: 27aa 733d 38d9 a43c aa40 b8bc 3a96 61bd
000002a0: eab5 0e3c a182 b8bb f4f5 aa3c 84af c9bc
000002b0: cb49 2b3d 1460 223d fab1 50bc 4569 523d
000002c0: 5d17 6ebd 614e 76bc bce2 0dbc 1773 2abc
000002d0: 2c57 8b3c d761 ebbb 4c29 b4bc 27d8 fa3c
000002e0: bf29 5bbd 619f c3bc 4561 643c 87d0 2a3d
000002f0: 966f 7fbc b3c0 8a3c 912e ab3c 8c97 733b
00000300: 4427 9bbc b529 cb3c 724f 6ebd 384b 6c3d
00000310: ccf6 463d 3e62 853b 8c2e 173d a804 d3bb
00000320: 1482 3bba 84df 1abc 35ad 9d3d 9ae6 01bd
00000330: 48a0 3c3b 0e36 16bd d097 cabc 52e8 bc3c
00000340: 2e96 563d 3d8b d33c a18b afbc 5cd2 d53b
00000350: b18e fd3c 5724 2cbd 9ae2 cb3c 7600 f6bc
00000360: daab 133d 8863 953b 0dee 00bd 0e20 eabc
00000370: ab41 1dbb e8cb 003d 7c57 923c a75e 09bc
00000380: 6709 153d cfe3 6d3d 37a8 403d 8714 89bd
00000390: 7cc4 a93c 3094 9ebc a2c6 0b3d d819 26bc
000003a0: bff1 103d 831a c1bc d39c 713d c272 2dbd
000003b0: 785c bb3c 8768 8c3c 38ee 9cbd c1f2 3c3d
000003c0: bc70 07bd d912 34bb 5668 5a3d 396e c5bc
000003d0: ba1a a83d bbf4 6e3d 6c00 d93c 878c d9ba
000003e0: 1fd7 21bd a969 dd3c d013 0b3d 491d 9bbc
000003f0: f272 ca3c e852 b23b b3f9 633d 0d00 fdbc

network_body._body_endoder.seq_layers.2.weight f4 [256, 256]
-0.0334757 -0.106884725 0.07589098 0.06392352 0.09067418 0.012232952 -0.022606222 0.024542069
-0.017587528 -0.04994455 0.09616206 -0.0014983993 -0.010680626 -0.1396832 -0.04723106 -0.04638826
0.06931466 0.10755434 -0.06847799 0.1147067 0.007732238 -0.036265608 -0.030790035 -0.077292606
-0.11399091 -0.004623384 0.11321004 0.10075373 0.018681614 -0.044682655 0.02945597 -0.046243344
-0.15605174 0.0027724192 -0.111977436 0.16858675 0.036132388 -0.036672495 0.01786011 0.037040632
-0.03634243 -0.09030806 -0.13560092 0.033268426 -0.07575085 0.014565821 -0.02356361 -0.09616023
-0.0077846376 0.07464683 -0.014364705 -0.010035037 0.0013941476 0.12607138 -0.07977015 -0.1858599
-0.08429373 -0.02968064 -0.06581842 -0.15067364 -0.048500918 0.069085844 0.019939436 -0.023892554
-0.013590703 -0.031609178 0.032645695 0.07660691 -0.11048103 -0.012452929 -0.15950957 -0.18245985
-0.032652404 -0.061214782 0.020137638 0.017992081 -0.04956861 0.0027559658 0.0010940959 0.012355123
0.025725346 0.053001482 0.05977765 -0.0035165723 -0.025786279 -0.0834325 0.053623468 0.15225348
0.10163275 0.05094238 -0.028080339 0.05617373 -0.12876275 -0.17935298 -0.06112714 -0.024536017
0.062320508 -0.057740737 -0.058950774 -0.0015447261 0.0144965835 -0.0027800677 -0.20777339 0.0057140747
-0.06236535 0.011750093 -0.021316146 0.026241366 0.03579103 0.10826618 0.035044905 0.053939342
-0.12066889 0.05188644 -0.14122795 -0.0057826033 0.081598125 -0.07156891 0.061817694 -0.043353606
-0.017760554 -0.14532927 -0.063740306 0.010997503 -0.10517014 0.13180768 -0.008587235 -0.13616164
0.04913226 0.0081774695 -0.021368023 0.063080534 -0.06547183 -0.15582265 0.13616982 -0.025773557
0.075468704 -0.25797695 0.08039207 0.015454131 -0.018063422 0.03923911 -0.022733845 0.012513321
-0.04929644 0.039849125 0.0022040776 0.06438734 -0.040974285 0.03578758 0.04788665 -0.04331079
0.031041773 0.013862428 -0.009854801 -0.055695053 0.15616597 0.060375627 -0.047870092 0.08957149
-0.10595543 0.09555513 -0.10118606 0.057845768 -0.06439971 -0.058234524 -0.047822036 -0.053833913
-0.036006797 0.11694843 0.072075725 -0.030801294 0.10695605 0.04644629 -0.12339613 0.043672618
0.029416528 -0.11508717 -0.07493048 -0.008181246 -0.13717283 -0.023770133 -0.14857516 -0.0108806025
0.048722647 -0.06276869 -0.15977189 -0.0659554 0.04772357 0.017776689 0.02095095 0.024790255
-0.0054978025 0.086456135 0.013265112 -0.04930834 -0.088102244 -0.0015701066 -0.045279387 0.0006580834
-0.04935097 0.03785081 -0.040081184 -0.0018597835 -0.028019818 -0.033644468 -0.17238504 -0.06950621
-0.0152120665 -0.10740277 -0.07443842 0.03588798 0.1110866 -0.009499585 -0.13265829 -0.06094286
0.046056926 0.027164932 0.052449554 -0.0057637747 -0.011493926 -0.11001593 0.12348007 -0.017521264
-0.07555345 -0.050424974 -0.06771659 0.02232483 0.031970162 -0.034153834 0.06780655 0.117614366
0.023075458 0.053924933 -0.034067675 -0.058304004 -0.09221566 -0.08365503 -0.060387485 0.07834054
-0.02528787 -0.015194771 -0.026479924 0.13776389 -0.13880402 -0.05535986 0.015994223 -0.022581624
0.050820425 0.046326276 0.0808046 -0.044856958 -0.020696374 0.10120412 -0.021980958 -0.0024189816
00000000: d11d 09bd 61e6 dabd bb6c 9b3d 56ea 823d
00000010: 62b3 b93d b86c 483c af30 b9bc 730c c93c
00000020: b813 90bc a892 4cbd 9df0 c43d f065 c4ba
00000030: cbfd 2ebc 1d09 0fbe 5b75 41bd 9e01 3ebd
00000040: d8f4 8d3d 7345 dc3d 303e 8cbd 59eb ea3d
00000050: b75e fd3b 3f8b 14bd 623b fcbc 964b 9ebd
00000060: 1174 e9bd c27f 97bb aada e73d f957 ce3d
00000070: 2f0a 993c 2905 37bd a54d f13c a969 3dbd
00000080: 07cc 1fbe 7ab1 353b 6d54 e5bd 01a2 2c3e
00000090: 8eff 133d e635 16bd 5e4f 923c ebb7 173d
000000a0: cddb 14bd 6ff3 b8bd f8da 0abe 7944 083d
000000b0: 4323 9bbd 7ba5 6e3c 7908 c1bc a8ef c4bd
000000c0: 4616 ffbb 70e0 983d f159 6bbc ff69 24bc
000000d0: d5bb b63a db18 013e 885e a3bd 0f52 3ebe
000000e0: 31a2 acbd d024 f3bc cfcb 86bd 314a 1abe
000000f0: e6a8 46bd e17c 8d3d 0758 a33c 51ba c3bc
00000100: 8aab 5ebc a078 01bd 7eb7 053d 15e4 9c3d
00000110: e143 e2bd 5f07 4cbc 7a56 23be c1d6 3abe
00000120: 87be 05bd 5abc 7abd b0f7 a43c 2164 933c
00000130: 7408 4bbd 6f9d 343b c467 8f3a 246d 4a3c
00000140: f6bd d23c 1518 593d 69d9 743d 4b76 66bb
00000150: bf3d d3bc a9de aabd 48a4 5b3d 56e8 1b3e
00000160: d524 d03d f5a8 503d bd08 e6bc 6d16 663d
00000170: 62da 03be 4fa8 37be 7460 7abd c2ff c8bc
00000180: ca43 7f3d 8d81 6cbd 5e76 71bd 6878 caba
00000190: 1483 6d3c cc31 36bb 8cc2 54be 223d bb3b
000001a0: cf72 7fbd 7683 403c 339f aebc 22f8 d63c
000001b0: 9d99 123d a9ba dd3d 3f8b 0f3d 80ef 5c3d
000001c0: 4021 f7bd e086 543d 0f9e 10be fe7b bdbb
000001d0: eb1c a73d b892 92bd 8d34 7d3d 8d93 31bd
000001e0: 957e 91bc 32d1 14be 478a 82bd df2e 343c
000001f0: 7163 d7bd 98f8 063e 79b1 0cbc f56d 0bbe
00000200: e93e 493d cbfa 053c fe0b afbc 5e30 813d
00000210: 1816 86bd f98f 1fbe 1a70 0b3e 1123 d3bc
00000220: 568f 9a3d 8e15 84be 99a4 a43d 5333 7d3c
00000230: bef9 93bc 30b9 203d 543c babc ac04 4d3c
00000240: 10eb 49bd d638 233d 4972 103b 82dd 833d
00000250: a7d4 27bd ff95 123d cb24 443d a866 31bd
00000260: 514b fe3c 3d1f 633c 0876 21bc 7f20 64bd
00000270: f9e9 1f3e 6f4c 773d 6e13 44bd 4271 b73d
00000280: 29ff d8bd 68b2 c33d a33a cfbd afef 6c3d
00000290: ffe3 83bd 5387 6ebd 0ae1 43bd f380 5cbd
000002a0: dd7b 13bd a982 ef3d 709c 933d ff52 fcbc
000002b0: c60b db3d 773e 3e3d 1cb7 fcbd 0fe2 323d
000002c0: eefa f03c d2b2 ebbd 2775 99bd a20a 06bc
000002d0: 0977 0cbe 95b9 c2bc 1624 18be 8e44 32bc
000002e0: 6691 473d df8c 80bd 3e9b 23be a013 87bd
000002f0: ca79 433d 6ba0 913c 54a1 ab3c ef14 cb3c
00000300: e926 b4bb ea0f b13d ea55 593c 8bf7 49bd
00000310: f36e b4bd 09cc cdba e176 39bd 3b83 2c3a
00000320: 3e24 4abd 7309 1b3d 2b2c 24bd fbc3 f3ba
00000330: d189 e5bc c8ce 09bd b485 30be 4659 8ebd
00000340: 083c 79bc fcf5 dbbd 2c73 98bd 46ff 123d
00000350: 5f81 e33d 26a4 1bbc 93d7 07be 389f 79bd
00000360: 30a6 3c3d fe88 de3c 58d5 563d 0cde bcbb
00000370: 0551 3cbc 0850 e1bd 1ee3 fc3d c188 8fbc
00000380: c4bb 9abd 6b8a 4ebd ffae 8abd 90e2 b63c
00000390: 25f3 023d e4e4 0bbd 29de 8a3d cddf f03d
000003a0: be08 bd3c 64e0 5c3d 8c8a 0bbd 2ed0 6ebd
000003b0: 90db bcbd 5453 abbd de58 77bd 0171 a03d
000003c0: 8228 cfbc 7df3 78bc 6dec d8bc fa11 0d3e
000003d0: a422 0ebe 05c1 62bd 5106 833c 19fd b8bc
000003e0: 1429 503d 9fc0 3d3d e27c a53d eebb 37bd
000003f0: 718b a9bc 1b44 cf3d 6911 b4bc c787 1ebb

network_body._body_endoder.seq_layers.2.bias f4 [256]
0.023413409 -0.008079619 -0.0192581 -0.034993976 0.0023865798 -0.015390896 -0.001963791 0.01306243
-0.007043151 -0.009297561 0.004347145 0.004474279 0.0011907746 -0.055640824 -0.02051022 0.031020172
-0.053940147 -0.045258533 -0.051971156 0.029531226 -0.004674594 -0.020405155 -0.007934194 -0.014366174
0.010683398 -0.016060064 0.0112658 -0.026584491 0.007882876 -0.0045393375 -0.06320326 -0.051989093
-0.039493248 0.010097235 0.008021267 -0.056527913 -0.044184595 -0.036982317 -0.0125952065 0.003037468
0.042340502 -0.05507972 0.016888104 -0.0009013341 0.0075691906 0.023680886 -0.002180143 -0.0022252318
0.00439877 0.029446002 -0.038757715 -0.006877775 -0.03036594 -0.038763594 0.004506859 -0.010185884
0.020767583 0.02132398 -0.030154381 -0.033529934 -0.014709209 -0.057586208 0.011323298 -0.026506966
-0.0059249983 0.0055572786 -0.030838704 0.013581403 0.0046120076 0.034934953 0.0059069097 -0.045722775
-0.013667515 -0.030531172 -0.037950724 0.02499963 -0.02176469 -0.020954523 -0.004495512 -0.029711593
0.014880092 0.016817259 -0.017831415 0.0032331648 -0.005382014 -0.033002257 0.01859907 0.003673651
-0.009135581 -0.017808512 -0.009714373 -0.006022071 0.011877039 -0.01111447 -0.07555808 -0.04640924
0.0006048961 -0.023002854 -0.019610906 -0.0050075618 -0.01185099 0.02255177 0.0202879 0.0008144163
0.011933848 -0.033035547 0.0013016749 0.001654063 0.02826974 0.0059201084 -0.046017468 -0.059060093
-0.019397307 -0.039291643 0.006968015 -0.047990777 -0.01698911 0.023541432 0.012522681 -0.0375784
0.033631653 -0.032778878 -0.042486776 -0.05534994 -0.00096857856 0.03777059 -0.010192612 0.02883547
0.003946263 -0.03727752 -0.031397916 -0.013283443 0.027717896 -0.0055679632 0.015249164 -0.01981585
-0.028081814 0.005476358 -0.02093991 -0.017269628 -0.0131489895 -0.011081517 0.029922482 0.0044322833
-0.018452037 -0.00900488 -0.0142343445 0.048528448 0.013075927 -0.017765393 -0.026056543 -0.0038364264
-0.042198364 -0.0082016 0.018289208 0.006414816 -0.029666571 -0.020149883 -0.056441724 -0.003005803
-0.07012707 0.028306073 -0.001802086 0.025201412 0.00035767443 -0.005615562 -0.014153368 -0.005186696
-0.040220216 0.021895004 0.038686592 -0.039322358 -0.043488238 0.03578264 -0.036541615 -0.036197037
-0.050684478 -0.01541656 0.022757428 -0.012521435 -0.011336746 -0.021720061 0.0399606 0.009060377
-0.017298384 0.015094711 0.05477429 -0.00016492633 -0.07358541 -0.05637606 0.007360794 -0.0045632
-0.012538988 -0.048600342 -0.05392941 -0.012645284 -0.03641118 0.012376309 0.0061766184 -0.004103957
0.015578925 0.005976565 -0.030772721 -0.014160499 -0.010386071 0.019912701 -0.012444903 -0.03746873
0.011103312 -0.0018402991 0.034975693 -0.018356074 -0.006543132 -0.06409677 -0.021361846 -0.01015381
0.012768458 -0.010776142 -0.01753972 0.0038758547 -0.03447714 -0.017155308 0.01245325 -0.02804426
-0.0045533576 -0.02316665 0.018727185 -0.025142834 0.013154765 -0.029620208 -0.006197291 0.042234845
-0.036033306 0.037206724 -0.004546126 -0.012670628 -0.0017185311 0.061463196 -0.04319293 -0.047408618
-0.01820372 -0.016022021 0.00305886 0.0043019936 0.0031288008 -0.049298223 -0.02129562 -0.022044577
0.006643375 -0.00390642 -0.014644177 -0.023123339 -0.03346451 -0.030863345 0.010421956 -0.06723758
00000000: 7acd bf3c 6160 04bc 2ac3 9dbc d855 0fbd
00000010: 2a68 1c3b 192a 7cbc f2b2 00bb cd03 563c
00000020: 3cca e6bb cc54 18bc 7f72 8e3b f99c 923b
00000030: c413 9c3a a2e7 63bd 0d05 a8bc 041e fe3c
00000040: 58f0 5cbd 0361 39bd b5df 54bd 78eb f13c
00000050: 562d 99bb b628 a7bc 6cfe 01bc 1a60 6bbc
00000060: 6b09 2f3c 6590 83bc 3194 383c b8c7 d9bc
00000070: 2e27 013c b9be 94bb b670 81bd 84f2 54bd
00000080: acc3 21bd e06e 253c a26b 033c d089 67bd
00000090: e8fa 34bd c57a 17bd 205c 4ebc 4210 473b
000000a0: 3c6d 2d3d 469b 61bd ec58 8a3c 8247 6cba
000000b0: f906 f83b 6bfe c13c bbe0 0ebb 32d5 11bb
000000c0: 8f23 903b be38 f13c 69c0 1ebd f55e e1bb
000000d0: fec1 f8bc 93c6 1ebd 46ae 933b b2e2 26bc
000000e0: c720 aa3c a1af ae3c 5206 f7bc af56 09bd
000000f0: e5fe 70bc 84df 6bbd 5b85 393c 2325 d9bc
00000100: 7d26 c2bb d519 b63b 73a1 fcbc 8884 5e3c
00000110: 5320 973b f417 0f3d c08e c13b ce47 3bbd
00000120: b6ed 5fbc 821c fabc 3872 1bbd 06cc cc3c
00000130: dd4b b2bc d2a8 abbc 174f 93bb ba65 f3bc
00000140: a1cb 733c 59c4 893c 3013 92bc 81e3 533b
00000150: 9b5b b0bb 602d 07bd 145d 983c a3c1 703b
00000160: 67ad 15bc 28e3 91bc 0929 1fbc cb54 c5bb
00000170: ea97 423c 7719 36bc 32be 9abd 9e17 3ebd
00000180: e491 1e3a 7b70 bcbc 0da7 a0bc 7916 a4bb
00000190: a82a 42bc 7dbe b83c cf32 a63c 8d7e 553a
000001a0: 3086 433c 4850 07bd f69c aa3a 25cd d83a
000001b0: f195 e73c 78fd c13b d07c 3cbd ffe8 71bd
000001c0: 1ae7 9ebc 46f0 20bd f253 e43b fa91 44bd
000001d0: bf2c 8bbc f6d9 c03c ee2b 4d3c cfeb 19bd
000001e0: 58c1 093d 2543 06bd 9d06 2ebd 9eb6 62bd
000001f0: 35e8 7dba 56b5 1a3d eafe 26bc 5d38 ec3c
00000200: a74f 813b 50b0 18bd 1a9b 00bd cca2 59bc
00000210: a410 e33c 7673 b6bb a1d7 793c d954 a2bc
00000220: d50b e6bc 0573 b33b 2d8a abbc 0979 8dbc
00000230: dc6e 57bc 408f 35bc fe1f f53c b03c 913b
00000240: ba28 97bc 3489 13bc 2b37 69bc c4c5 463d
00000250: 6a3c 563c bb88 91bc 8874 d5bc 8e6c 7bbb
00000260: 31d8 2cbd 0160 06bc 40d3 953c 6033 d23b
00000270: 4f07 f3bc 5e11 a5bc 702f 67bd 02fd 44bb
00000280: c89e 8fbd 23e2 e73c f933 ecba 3173 ce3c
00000290: 4086 bb39 c002 b8bb 87e3 67bc 29f5 a9bb
000002a0: f4bd 24bd 275d b33c d575 1e3d 7b10 21bd
000002b0: b920 32bd d190 123d a9ac 15bd 5843 14bd
000002c0: 879a 4fbd bd95 7cbc c96d ba3c b426 4dbc
000002d0: c2bd 39bc 45ee b1bc baad 233d fa71 143c
000002e0: 57b5 8dbc cf4f 773c 025b 603d 13f0 2cb9
000002f0: f3b3 96bd 95ea 66bd d132 f13b e586 95bb
00000300: 5470 4dbc 2711 47bd 16e5 5cbd 2a2e 4fbc
00000310: e423 15bd 01c6 4a3c 3b65 ca3b 7d7a 86bb
00000320: bf3e 7f3c 10d7 c33b 1317 fcbc 7001 68bc
00000330: 572a 2abc f61f a33c b5e5 4bbc d078 19bd
00000340: aaea 353c 3136 f1ba ac42 0f3d 7a5f 96bc
00000350: c567 d6bb 2b45 83bd 0aff aebc 2a5c 26bc
00000360: cb32 513c 6a8e 30bc 75af 8fbc 0d02 7e3b
00000370: e737 0dbd 4a89 8cbc b708 4c3c 13bd e5bc
00000380: 5534 95bb fdc7 bdbc c169 993c 58f8 cdbc
00000390: 1587 573c 14a6 f2bc a512 cbbb 72fe 2c3d
000003a0: a997 13bd 1466 183d abf7 94bb 7798 4fbc
000003b0: 5640 e1ba d5c0 7b3d 12eb 30bd 8a2f 42bd
000003c0: f81f 95bc 9d40 83bc 2877 483b bdf7 8c3b
000003d0: 910c 4d3b efec 49bd 2774 aebc d496 b4bc
000003e0: abb0 d93b 6d01 80bb 21ee 6fbc 286d bdbc
000003f0: 1512 09bd 20d5 fcbc dac0 2a3c dbb3 89bd

action_model._discrete_distribution.branches.0.weight f4 [2, 256]
0.02175352 0.009937791 -0.004917351 0.011162083 0.0280459 -0.041591026 0.05760504 0.030125573
0.045927875 0.03688944 -0.012631765 0.007138173 -0.009204004 -0.028096423 0.023868611 0.027242504
0.00547254 -0.022639314 -0.0031112756 0.055092644 -0.010089711 0.020329706 -0.031166727 -0.0061229873
0.02996574 0.040143475 0.051150035 0.05154213 -0.053018644 0.057697963 -0.0067740795 -0.0009400762
0.04711873 0.0732678 -0.0075528407 -0.00211342 0.0046459916 -0.07590766 0.035494436 -0.02052302
0.061354477 -0.01722791 -0.028655825 0.014420917 -0.017279796 0.017108206 -0.020952674 0.061142746
0.019886848 0.022316216 0.035385348 0.011000709 -0.050188232 0.018867593 0.00058438734 0.010438031
-0.0016632365 0.023318633 0.025915835 -0.024988249 0.0055937343 -0.010346061 -0.0053102192 0.054663688
0.03773057 -0.020900005 -0.0066459007 0.007798349 0.014315816 0.012884134 0.035574377 0.0398705
0.018330907 -0.01618886 0.012108696 0.03740927 0.030281411 0.03000395 0.02420019 -0.046426695
-0.008674081 -0.00789012 0.023965256 0.004205507 0.022073349 -0.023357648 0.03581095 0.01703525
0.0124974325 0.05175471 0.040264294 -0.01182589 -0.021253958 -0.02044766 0.01342183 0.0055747163
0.0021208674 0.06744597 0.036279414 0.022163 -0.045197565 0.063962005 0.02981596 0.04789981
-0.0078929635 0.038127128 0.036052413 0.0056940787 0.033471532 0.032988332 0.0024438559 -0.012583716
0.004532626 -0.017066011 -0.004112587 -0.0123750325 0.054227527 0.027430179 0.032194443 0.023404347
0.03854327 -0.01488667 -0.004773891 -0.057455845 0.00032767266 0.021170938 0.04139475 0.037166514
0.04537338 0.0011507089 -0.0027358087 0.023213938 0.043632153 0.027279343 0.014814216 0.008395809
-0.00693629 -0.0007890517 -0.0062272404 0.0917095 -0.050360918 0.03883791 0.03755346 -0.018895378
-0.01262551 0.009127273 -0.002080295 -0.018816536 0.03342341 0.040619243 0.013275658 0.006758219
0.005642067 0.033631828 -0.03484974 0.004768243 -0.01940472 -0.006857798 0.014636216 0.0021313957
0.00490586 0.044900928 -0.033433802 -0.0059692226 0.003433732 0.0069238683 0.03313334 0.0312515
-0.048467405 0.03214364 -0.018586323 0.0027458551 -0.018651308 0.08019511 0.036864396 -0.020694487
-0.016957147 -0.002599862 0.017950943 0.014847101 0.009852233 -0.050486997 0.03841036 -0.03065645
-0.030066457 -0.0402977 -0.005398393 -0.0061987075 -0.0248836 0.0046731033 0.026755663 0.07479063
-0.015703576 -0.015825428 0.0010868155 0.007498334 -0.0036701178 0.036432043 0.013338621 -0.008022889
-0.03552543 0.04015187 0.020475999 -0.058446415 0.004000713 0.02795257 0.036207918 -0.03610621
-0.006335638 0.019450296 -0.05476068 -0.02007888 -0.01877692 0.0032325352 0.033863664 -0.011487772
-0.015064784 -0.012416915 0.0074721104 -0.031710993 -0.05010475 0.009941444 -0.005956056 -0.019330837
-0.0021060635 0.024236606 0.06680246 0.015875852 0.046181887 0.018728476 0.031335767 0.03484415
-0.008826486 0.064709805 0.005452185 -0.008431212 -0.019393886 0.050671235 -0.024988862 0.023041263
0.009370018 0.06693622 0.027038366 0.03833206 0.0073454506 -0.028654154 0.007382252 0.017667348
0.021333706 0.014361171 0.0021060032 0.022957206 0.019767761 0.0014379862 -0.0019410426 -0.008933629
00000000: 7034 b23c 1ed2 223c bb21 a1bb 2be1 363c
00000010: 84c0 e53c 5a5b 2abd 43f3 6b3d e8c9 f63c
00000020: de1e 3c3d 6219 173d 76f5 4ebc 56e7 e93b
00000030: 64cc 16bc 782a e6bc 1b88 c33c ac2b df3c
00000040: fe52 b33b 1576 b9bc 8be6 4bbb d3a8 613d
00000050: 514f 25bc 7c8a a63c 5d51 ffbc 57a3 c8bb
00000060: b67a f53c 7c6d 243d b382 513d d71d 533d
00000070: 142a 59bd b354 6c3d 19f9 ddbb 726f 76ba
00000080: 92ff 403d 6e0d 963d d27d f7bb 4e81 0abb
00000090: 673d 983b 7a75 9bbd 9d62 113d e41f a8bc
000000a0: d54e 7b3d 8c21 8dbc 9fbf eabc b645 6c3c
000000b0: 5c8e 8dbc 8226 8c3c f1a4 abbc d170 7a3d
000000c0: bee9 a23c 7fd0 b63c 3af0 103d 513c 343c
000000d0: 2d92 4dbd 3690 9a3c 9231 193a 4604 2b3c
000000e0: f500 daba b806 bf3c 724d d43c 28b4 ccbc
000000f0: a54b b73b 8682 29bc 5901 aebb 08e7 5f3d
00000100: 5f8b 1a3d 7d36 abbc dbc5 d9bb 4b89 ff3b
00000110: e28c 6a3c fa17 533c 70b6 113d 404f 233d
00000120: b32a 963c 809e 84bc 8d63 463c 763a 193d
00000130: b910 f83c d8ca f53c 7a3f c63c eb29 3ebd
00000140: bc1d 0ebc 9045 01bc c952 c43c 5ace 893b
00000150: 2bd3 b43c 8a58 bfbc 81ae 123d 828d 8b3c
00000160: 08c2 4c3c bffc 533d 2cec 243d 61c1 41bc
00000170: c81c aebc da81 a7bc 3ce7 5b3c 1cac b63b
00000180: 40fe 0a3b 1d21 8a3d b999 143d 2e8f b53c
00000190: 1521 39bd 83fe 823d 9a40 f43c 9732 443d
000001a0: 7d51 01bc 312b 1c3d b2ab 133d 6595 ba3b
000001b0: 7219 093d c61e 073d 1929 203b ee2b 4ebc
000001c0: 6c86 943b 05ce 8bbc e1c2 86bb a6c0 4abc
000001d0: af1d 5e3d 41b5 e03c 52de 033d 79ba bf3c
000001e0: 8cdf 1d3d 38e7 73bc 4d6e 9cbb d256 6bbd
000001f0: 7bcb ab39 ad6e ad3c 8b8d 293d ea3b 183d
00000200: 70d9 393d 62d3 963a 414b 33bb 282b be3c
00000210: a1b7 323d ee78 df3c 53b7 723c 938e 093c
00000220: d149 e3bb 5dd8 4eba e10d ccbb 31d2 bb3d
00000230: 4047 4ebd 8014 1f3d a8d1 193d 7bca 9abc
00000240: 3adb 4ebc 8f8a 153c 8f55 08bb 2325 9abc
00000250: fce6 083d 5d60 263d 2582 593c 0d74 dd3b
00000260: 17e1 b83b 87c1 093d 9abe 0ebd ec3e 9c3b
00000270: a6f6 9ebc 61b7 e0bb bdcc 6f3c e3ae 0b3b
00000280: 56c1 a03b 09ea 373d e2f1 08bd 7899 c3bb
00000290: 7708 613b 9ee1 e23b d3b6 073d 9301 003d
000002a0: c285 46bd 0da9 033d 5842 98bc cef3 333b
000002b0: a1ca 98bc 553d a43d 1fff 163d 7c87 a9bc
000002c0: b7e9 8abc 7262 2abb db0d 933c 4141 733c
000002d0: 436b 213c 74cb 4ebd 2f54 1d3d 3c23 fbbc
000002e0: ee4d f6bc 330f 25bd 01e5 b0bb 871e cbbb
000002f0: b1d8 cbbc d520 993b b12e db3c d42b 993d
00000300: c9a4 80bc 54a4 81bc 7a73 8e3a 96b4 f53b
00000310: 5c86 70bb c439 153d 3b8a 5a3c 6f72 03bc
00000320: 1d83 11bd 4a76 243d 48bd a73c 8265 6fbd
00000330: 6a18 833b cafc e43c c14e 143d 1be4 13bd
00000340: 2f9b cfbb 3a56 9f3c bc4c 60bd 777c a4bc
00000350: 0ed2 99bc f1d8 533b a0b4 0a3d 3537 3cbc
00000360: 49d2 76bc 5170 4bbc 9bd8 f43b 63e3 01bd
00000370: a33a 4dbd 70e1 223c 052b c3bb b45b 9ebc
00000380: e205 0abb d98b c63c bacf 883d 130e 823c
00000390: 3829 3d3d 766c 993c ef59 003d bdb8 0e3d
000003a0: f79c 10bc 9386 843d 3ea8 b23b 1123 0abc
000003b0: eddf 9ebc a48c 4f3d 71b5 ccbc 08c1 bc3c
000003c0: b484 193c db15 893d 907f dd3c 1402 1d3d
000003d0: 1bb2 f03b 1ebc eabc d1e6 f13b 1dbb 903c
000003e0: 06c4 ae3c 1e4b 6b3c df04 0a3b c010 bc3c
000003f0: 00f0 a13c cf7a bc3a 956a feba 5b5e 12bc

action_model._discrete_distribution.branches.0.bias f4 [2]
-0.01672493 0.016724924
00000000: b802 89bc b502 893c

action_model._discrete_distribution.branches.1.weight f4 [2, 256]
-0.020530188 -0.025005205 -0.028707184 0.016389176 -0.026934762 -0.0034290524 0.025938947 0.02430833
0.027776467 0.026999503 -0.015126766 -0.0066410275 -0.05461349 -0.0020844624 0.023384308 0.013368006
0.01011403 0.01228323 0.011716093 0.016312374 0.03385316 0.0050833006 0.03541013 0.0461971
0.022272464 -0.002286617 0.008285399 0.029001048 -0.007621569 0.038210157 -0.007835413 0.012733755
0.010043438 0.04368797 0.00934025 0.022452515 0.010250402 0.019277707 -0.0027922103 0.017589886
0.06414484 -0.009117453 -0.0054107425 0.007945881 -0.04235248 -0.008919338 0.0622162 0.06616318
0.005873366 0.024521546 0.01726863 0.043209076 0.015020138 0.045188393 0.044253744 -0.004789209
-0.0359081 0.017085474 0.033693004 -0.029068163 0.0047361287 0.0024954022 -0.0006178076 0.07046592
0.03501583 -0.021386934 -0.07981377 -0.005010376 0.05496654 -0.00031677738 -0.028712714 0.032834206
-0.020849418 -0.025633454 -0.0031265845 0.07139871 0.052316736 0.050642177 0.03424873 -0.0014272145
-0.05206024 -0.016292304 0.005821209 -0.015496846 0.0223328 -0.013277974 0.047833335 -0.02508085
0.029487276 0.02456535 0.016318845 0.06478783 0.0015369187 -0.01359749 0.020571241 0.025666488
0.042602494 0.035471156 -0.020655546 0.05426354 0.038687028 0.009716106 -0.0081161605 0.0045527453
0.0010992647 -0.005243694 -0.003900458 0.036470845 -0.004567552 -0.010920048 -0.019534234 -0.0051694587
0.022979002 0.0072085653 -0.024982812 0.05839779 0.024977371 0.0626079 0.051303796 -0.015366196
0.083293065 0.0113110915 0.0071960078 -0.015902374 -0.026878707 0.102106996 0.040410362 -0.03795307
0.0023441585 0.037543215 -0.00034690934 0.010912196 0.026135929 -0.013303613 0.014577145 -0.01851656
-0.01398008 -0.023990082 -0.014333677 0.038941577 -0.029569823 0.03611998 0.02920396 0.02792503
-0.007849927 0.018229501 0.014463347 0.009629288 0.003112353 0.06579701 0.012264121 0.0654772
0.0035677592 0.023068016 -0.019286284 0.032823678 -0.008023272 0.0129619865 -0.020777827 0.019565362
0.00041309258 0.013345337 0.024356503 0.050481364 -0.01617435 0.0057345945 0.030433979 0.037706904
0.0047586146 0.011089415 0.018946659 -0.0043288157 0.0028858904 0.0264793 0.029602593 -0.009352307
-0.008385441 -0.0050590597 -0.0038043011 0.022229472 0.044650145 -0.010267173 0.09411034 -0.016805423
0.024830518 -0.03610497 0.027044678 0.014830299 -0.003414817 -0.022716232 0.040507898 0.036395937
-0.00076750555 0.017247066 0.012780612 0.031624217 0.021958154 0.0050274506 -0.02509368 -0.0331469
-0.03929869 0.05042204 -0.014743985 0.02884819 -0.03075338 0.051629383 -0.0048984517 -0.012244858
0.016417798 0.006470168 -0.0524695 0.03907659 -0.008860498 0.00095689285 0.0024272595 -0.028043956
0.010539144 0.018286815 0.01550277 0.036354486 -0.007035937 0.06538102 0.0071333726 -0.015200521
-0.013972688 0.020991597 0.0068105888 0.0068392726 0.02121346 -0.012270697 0.002075695 0.034615044
0.0022665837 0.05027767 0.031290255 0.0155143915 -0.02474025 0.050805423 0.0002309128 0.020961357
0.0024033736 0.032417826 -0.029544042 0.029630328 0.04561281 0.012020394 0.057130344 0.03227174
-0.018961767 -0.0056089517 -0.028536577 -0.0109005645 -0.009574362 -0.024229795 0.0121577345 5.713475e-05
00000000: ed2e a8bc b7d7 ccbc 542b ebbc 9842 863c
00000010: 4aa6 dcbc f4b9 60bb ea7d d43c 4322 c73c
00000020: 798b e33c 102e dd3c 41d6 77bc fa9c d9bb
00000030: 65b2 5fbd 7a9b 08bb 7390 bf3c 7b05 5b3c
00000040: 51b5 253c 9a3f 493c dbf4 3f3c 87a1 853c
00000050: 9ca9 0a3d d191 a63b 360a 113d 2c39 3d3d
00000060: be74 b63c 11db 15bb 7bbf 073c 9b93 ed3c
00000070: 5bbe f9bb 4182 1c3d 1b60 00bc 3da1 503c
00000080: 3b8d 243c 28f2 323d d907 193c 56ee b73c
00000090: 4df1 273c 48ec 9d3c 84fd 36bb aa18 903c
000000a0: 5f5e 833d 5f61 15bc 994c b1bb 712f 023c
000000b0: cb79 2dbd 6a22 12bc 6ad6 7e3d 9080 873d
000000c0: 5d75 c03b 69e1 c83c f176 8d3c 00fc 303d
000000d0: 0617 763c 7717 393d 6a43 353d ccee 9cbb
000000e0: 5f14 13bd d6f6 8b3c ad01 0a3d 5b20 eebc
000000f0: 8731 9b3b e789 233b 5ef4 21ba 7050 903d
00000100: c26c 0f3d a733 afbc 6775 a3bd 152e a4bb
00000110: 9824 613d 2415 a6b9 ed36 ebbc 297d 063d
00000120: 66cc aabc 40fd d1bc 62e7 4cbb 7d39 923d
00000130: 134a 563d 2c6e 4f3d 6548 0c3d 5f11 bbba
00000140: 1e3d 55bd 7077 85bc d7bf be3b 7ce6 7dbc
00000150: 47f3 b63c dc8b 59bc e3ec 433d 5b76 cdbc
00000160: 4d8f f13c 463d c93c 19af 853c 7baf 843d
00000170: 6f72 c93a 02c8 5ebc 0585 a83c 8742 d23c
00000180: f47f 2e3d 344a 113d d235 a9bc 7243 5e3d
00000190: 4a76 1e3d 4d30 1f3c a5f9 04bc 322f 953b
000001a0: 3415 903a 4bd3 abbb d49e 7fbb 7462 153d
000001b0: 67ab 95bb 00ea 32bc 4206 a0bc 9064 a9bb
000001c0: 763e bc3c d435 ec3b c1a8 ccbc 8532 6f3d
000001d0: 589d cc3c 9238 803d ee23 523d 7fc2 7bbc
000001e0: 8e95 aa3d 2852 393c 7dcc eb3b b245 82bc
000001f0: bc30 dcbc 791d d13d 5685 253d ae74 1bbd
00000200: 74a0 193b eac6 193d 62e1 b5b9 11c9 323c
00000210: 041b d63c 66f7 59bc fad4 6e3c 0ab0 97bc
00000220: b50c 65bc d986 c4bc ccd7 6abc 3481 1f3d
00000230: 6a3c f2bc 8bf2 133d 253d ef3c 08c3 e43c
00000240: fb9c 00bc 0956 953c adf7 6c3c 29c4 1d3c
00000250: 9ef8 4b3b 95c0 863d 74ef 483c e918 863d
00000260: 11d1 693b 23f9 bc3c 45fe 9dbc 1f72 063d
00000270: 0b74 03bc 835e 543c 4336 aabc 8a47 a03c
00000280: 5994 d839 66a6 5a3c 4a87 c73c 8cc5 4e3d
00000290: 1280 84bc 44e9 bb3b ae50 f93c 8e72 1a3d
000002a0: 27ee 9b3b 61b0 353c 0636 9b3c bdd8 8dbb
000002b0: 3521 3d3b 1eeb d83c 2381 f23c 6b3a 19bc
000002c0: 1763 09bc 78c6 a5bb 9551 79bb 951a b63c
000002d0: 12e3 363d a537 28bc ecbc c03d 87ab 89bc
000002e0: 5f69 cb3c cee2 13bd cd8c dd3c c8fa 723c
000002f0: 1fcb 5fbb 6417 babc 9ceb 253d e813 153d
00000300: 6d32 49ba b849 8d3c c665 513c 6588 013d
00000310: 96e1 b33c 50bd a43b 4391 cdbc 0bc5 07bd
00000320: aaf7 20bd 5787 4e3d c190 71bc 0a53 ec3c
00000330: 83ee fbbc 5579 533d 3183 a0bb a89e 48bc
00000340: 9e7e 863c b403 d43b 42ea 56bd c60e 203d
00000350: 9f2b 11bc fed7 7a3a a812 1f3b 70bc e5bc
00000360: 60ac 2c3c 3bce 953c 55ff 7d3c 71e8 143d
00000370: b88d e6bb 7ce6 853d 11bf e93b 9b0b 79bc
00000380: b3ed 64bc 92f6 ab3c 5c2b df3b fa1b e03b
00000390: dac7 ad3c 090b 49bc 6208 083b 81c8 0d3d
000003a0: f78a 143b f5ef 4d3d 362a 003d 1330 7e3c
000003b0: 11ac cabc 5919 503d 2f21 7239 27b7 ab3c
000003c0: eb81 1d3b 8ec8 043d 5906 f2bc 4dbb f23c
000003d0: 7fd4 3a3d 30f1 443c 8201 6a3d 5f2f 043d
000003e0: b555 9bbc 4ccb b7bb 8ac5 e9bc 4898 32bc
000003f0: c9dd 1cbc 907d c6bc 3c31 473c f8a3 6f38

action_model._discrete_distribution.branches.1.bias f4 [2]
-0.022052111 0.022052113
00000000: a1a6 b4bc a2a6 b43c

action_model._discrete_distribution.branches.2.weight f4 [2, 256]
0.028721966 -0.014133207 0.029884005 -0.002966115 -0.035686716 0.023749568 -0.02112807 -0.032267027
0.007949814 0.03199193 0.0056659793 -0.0051014903 -0.004530712 -0.01599551 0.037512355 -0.020670198
0.007954106 0.015384609 -0.0016130197 0.0033656426 0.013833889 0.009020909 0.026568888 -0.0047205864
0.015373501 -0.0019852384 -0.01575883 0.0062085716 0.019162992 -0.0010473714 -0.015949486 -0.0088292835
0.004684981 -0.03355774 -0.01963625 0.037111815 -5.7787936e-05 -0.0063962108 -0.03357566 -0.0076771816
-0.018218495 0.0006818409 0.0656737 -0.042235028 0.035289925 -0.03233863 0.033128213 0.032683823
0.053270843 -0.041492004 -0.0044562602 0.012943366 -0.0015723712 0.019034278 0.0286831 0.0039591007
0.007710663 -0.0056923903 0.002106061 -0.015532357 -0.0017191553 0.0070585483 0.00058195327 0.016391732
0.010631565 -0.044742607 0.03389039 -0.0068168 -0.0018883416 0.050585397 -0.0013766225 -0.005923156
0.017448027 -0.005599623 0.0058374438 -0.016322194 0.004781002 0.02003752 0.0056171203 -0.014329972
0.04505264 -0.041070074 -0.026845228 7.3741234e-05 0.016663177 0.0033747156 0.005716526 0.041141342
0.005341484 0.010400211 0.036620986 0.005145649 0.06079677 -0.027428614 0.040064134 -0.005269064
0.015984733 0.01404876 -0.003980175 -0.022611445 0.011551427 -0.042419918 0.015898157 0.031233715
-0.03441817 0.0036314866 -0.019985668 -0.01937537 -0.022309013 -0.0188844 0.011119141 0.006607848
0.0056840763 0.015323528 -0.019958973 0.018207794 0.017562019 0.01620796 0.0036248916 0.0036237424
-0.014478916 0.010155669 -0.009635565 0.0135100065 -0.045188136 -0.017943205 0.007618989 0.013099277
-0.013238035 -0.01666317 0.003233341 0.0110363215 0.008249549 0.0033527396 -0.026774317 -0.024042675
0.009593146 0.027718928 0.011451462 -0.0061756233 0.023526791 0.030672098 0.036877576 0.03703814
0.041619714 0.0021198865 -0.018715408 0.062434804 0.014443637 0.0061028786 -0.00091747515 0.042839088
-0.010240033 0.02867106 -0.0053449785 0.07188293 -0.030609513 0.026148679 0.025812546 0.0011946954
-0.010577257 -0.0220182 0.030527495 0.03261942 0.0700991 -0.010640786 0.015255318 0.01729148
-0.013985795 -0.0062349252 -0.04548869 0.047251098 -0.0051323115 -0.033368755 -0.010116608 -0.013921539
-0.008124188 0.012762057 -0.013909439 0.03164862 0.02414979 0.0017217161 0.005007095 0.036609326
-0.0076603936 -0.019494887 -0.034001432 0.01676827 -0.017304035 0.00661924 0.015529674 0.017584277
0.030586263 0.025379675 -0.009287796 0.008244746 -0.0047860057 0.035366032 -0.054181453 0.015496068
0.046952788 0.014169248 0.00968573 0.011060663 0.016028574 0.016137026 -0.019463096 -0.007872747
-0.008781999 0.01918634 0.040943827 0.009296608 -0.03748011 -0.0066292556 0.016245043 0.0020796596
0.0047779526 -0.030201728 -0.010826493 -0.00894436 -0.009327317 0.0056311456 0.0027841164 0.0011983776
-0.00012244725 0.01649263 -0.007972903 -0.008155216 -0.012012317 0.0009795295 -0.0062997537 -0.036334995
0.00015515131 -0.003901698 0.022403438 -0.0003652149 0.0035624686 -0.05127257 0.008928501 0.017274696
0.010355058 0.032339662 -0.024393938 0.018681804 -0.038994588 -0.0016649851 0.029614268 0.012776863
0.014724086 -0.022518525 0.03893689 0.025819859 0.01179524 -0.034967322 -0.011583449 0.002157711
00000000: 544a eb3c f78e 67bc 4dcf f43c 2763 42bb
00000010: 3c2c 12bd 748e c23c c614 adbc 6e2a 04bd
00000020: f03f 023c f809 033d aea9 b93b 672a a7bb
00000030: 5e76 94bb 0409 83bc 8ea6 193d 8c54 a9bc
00000040: f051 023c ba0f 7c3c f66b d3ba 1d92 5c3b
00000050: 89a7 623c 6fcc 133c ffa6 d93c 26af 9abb
00000060: 23e1 7b3c c61a 02bb a918 81bc 4671 cb3b
00000070: b5fb 9c3c f447 89ba 7fa8 82bc b3a8 10bc
00000080: 7884 993b d773 09bd 33dc a0bc 8f02 183d
00000090: 5361 72b8 4e97 d1bb a286 09bd de90 fbbb
000000a0: f43e 95bc 91bd 323a ef7f 863d a3fe 2cbd
000000b0: 2b8c 103d 8375 04bd 73b1 073d 79df 053d
000000c0: 8732 5a3d 85f3 29bd d205 92bb 6910 543c
000000d0: 0618 ceba c6ed 9b3c d2f8 ea3c 58bb 813b
000000e0: bba9 fc3b 3b87 babb d705 0a3b 6d7b 7ebc
000000f0: 4855 e1ba 654b e73b 398e 183a f447 863c
00000100: 0430 2e3c 0644 37bd a6d0 0a3d 775f dfbb
00000110: 3b82 f7ba a232 4f3d c96f b4ba 0917 c2bb
00000120: 2aef 8e3c 0b7d b7bb 0748 bf3b 1fb6 85bc
00000130: f4a9 9c3b ba25 a43c d20f b83b 42c8 6abc
00000140: 1e89 383d 1839 28bd 86ea dbbc 86a5 9a38
00000150: 3781 883c 552a 5d3b b251 bb3b d383 283d
00000160: 9e07 af3b a665 2a3c e3ff 153d d59c a83b
00000170: 0906 793d f9b1 e0bc 4a1a 243d 1da8 acbb
00000180: 6af2 823c c52c 663c 216c 82bb a33b b9bc
00000190: 3242 3d3c 82c0 2dbd da3c 823c d9dd ff3c
000001a0: 11fa 0cbd 3cfe 6d3b fcb8 a3bc 19b9 9ebc
000001b0: 64c1 b6bc 75b3 9abc 0f2d 363c a686 d83b
000001c0: 7d41 ba3b 890f 7b3c 0081 a3bc 8328 953c
000001d0: 39de 8f3c 8ec6 843c 978f 6d3b 4f7c 6d3b
000001e0: fa38 6dbc f763 263c 7dde 1dbc 1359 5d3c
000001f0: 3217 39bd a1fd 92bc b6a8 f93b 5a9e 563c
00000200: 58e4 58bc 3381 88bc 76e6 533b b0d1 343c
00000210: 1e29 073c a3b9 5b3b d055 dbbc 25f5 c4bc
00000220: 922c 1d3c ce12 e33c ea9e 3b3c e25c cabb
00000230: 42bb c03c 0d44 fb3c f10c 173d 4eb5 173d
00000240: 6f79 2a3d cbed 0a3b 0e51 99bc a3bb 7f3d
00000250: 01a5 6c3c a8fa c73b b782 70ba 0a78 2f3d
00000260: d0c5 27bc 92df ea3c ee24 afbb 5c37 933d
00000270: cdc0 fabc c135 d63c d574 d33c 5397 9c3a
00000280: 3b4c 2dbc 835f b4bc cc14 fa3c f19b 053d
00000290: 1e90 8f3d b156 2ebc 71f1 793c dda6 8d3c
000002a0: ad24 65bc 584e ccbb 5952 3abd 5e8a 413d
000002b0: f32c a8bb adad 08bd 21c0 25bc 2b17 64bc
000002c0: 501b 05bc f217 513c 6ae4 63bc fca1 013d
000002d0: c8d5 c53c 35ab e13a 8f12 a43b a9f3 153d
000002e0: 0a04 fbbb beb3 9fbc 1645 0bbd 9c5d 893c
000002f0: 31c1 8dbc 36e6 d83b 2c70 7e3c e70c 903c
00000300: 0b90 fa3c 09e9 cf3c d72b 18bc f914 073c
00000310: edd3 9cbb f9db 103d 5fed 5dbd 38e3 7d3c
00000320: 9151 403d 2226 683c e5b0 1e3c c837 353c
00000330: 5b4e 833c cc31 843c 1271 9fbc b2fc 00bc
00000340: 60e2 0fbc ac2c 9d3c b7b4 273d cd50 183c
00000350: be84 19bd 3a3a d9bb 5314 853c e64a 083b
00000360: 5f90 9c3b 9d69 f7bc 9a61 31bc 5d8b 12bc
00000370: 9ad1 18bc 7985 b83b b975 363b e112 9d3a
00000380: 2f65 00b9 8d1b 873c c7a0 02bc 759d 05bc
00000390: 4fcf 44bc 8e63 803a 2a6e cebb 01d4 14bd
000003a0: 1db0 2239 a1b3 7fbb 6a87 b73c 507a bfb9
000003b0: 4e78 693b 3003 52bd d948 123c aa83 8d3c
000003c0: 43a8 293c 9876 043d ccd5 c7bc 950a 993c
000003d0: cab8 1fbd a13b daba 9f99 f23c 0c56 513c
000003e0: 4b3d 713c c578 b8bc 4a7c 1f3d 2b84 d33c
000003f0: d340 413c e539 0fbd 82c8 3dbc 6268 0d3b

action_model._discrete_distribution.branches.2.bias f4 [2]
-0.019408286 0.019408286
00000000: 20fe 9ebc 20fe 9e3c
