Assets/results/1719/TrafficLightBrain/TrafficLightBrain-1667.onnx (onnx, 295631 bytes, 9 tensors)

discrete_act_size_vector f4 [1, 4]
2.0 2.0 2.0 2.0
00000000: 0000 0040 0000 0040 0000 0040 0000 0040

network_body._body_endoder.seq_layers.0.weight f4 [256, 12]
0.29244375 0.19479358 0.055999044 0.35768378 0.35936674 0.18470113 -0.061728086 -0.399523
0.005386146 -0.46200028 -0.19057578 -0.026884288 0.72500294 0.12956768 -0.019692311 -0.41840613
0.4312779 -0.39716962 -0.10677618 0.17242861 -0.34122705 -0.4568532 -0.013547469 0.2628707
-0.12204507 -0.27753788 0.022111619 0.089746304 -0.14534959 0.13700707 -0.17874432 0.73188025
-0.55303323 -0.0949425 -0.16400112 -0.05774522 0.116323225 -0.21868779 -0.015553969 -0.03435787
-0.21796905 0.27234042 -0.12589584 -0.4614493 -0.2257114 -0.17857648 0.09416391 -0.15981473
-0.07585647 0.26719886 0.18229866 -0.28929225 -0.07552016 -0.0020955503 -0.4370355 -0.46070763
0.034010977 -0.29217085 -0.02563494 0.27960265 0.30040237 -0.2313542 0.5199943 -0.41419554
-0.05703063 -0.17424399 0.4095821 0.18079408 -0.23161694 -0.11409075 0.16011187 -0.5392447
-0.039345615 -0.08596075 0.021191955 0.18170533 0.09954484 0.09766516 0.1715637 0.5947199
-0.48782927 -0.31973684 -0.29569584 -0.046529632 0.078253075 0.2578317 0.05683878 0.0755415
-0.002212693 -0.30498677 -0.25521126 0.124116324 -0.014725678 0.1792121 0.15591443 -0.062478576
0.06713281 0.30028957 -0.2260099 -0.17975794 0.34120035 0.19711804 -0.072948724 0.0057876613
0.14116707 0.19456016 0.3884872 0.023729568 0.0735037 -0.22598997 0.18908225 0.039341725
0.44161156 -0.3322709 0.054774296 -0.1509835 -0.36909086 0.44693717 0.62441885 0.076367706
-0.0739443 0.09878262 0.116337426 0.16743541 0.20894212 -0.069318764 -0.045045793 -0.535604
-0.17002544 -0.16188352 0.6627817 -0.22307655 0.37346807 -0.50336605 -0.5853309 -0.49884176
0.029188821 0.504269 0.09558997 -0.43783024 0.34713635 -0.3432735 0.26091114 -0.11156201
-0.21041371 -0.3805009 0.78809357 -0.008493697 -0.04210009 -0.18419284 0.2863019 -0.025864242
0.26084158 -0.5392185 0.15134211 -0.1459503 0.4970416 -0.60883474 -0.014975975 -0.21285844
0.13411841 -0.69059616 0.018052632 0.18760394 0.42715314 -0.06679954 0.018816562 0.108522385
-0.26170152 -0.090603195 -0.17893048 0.20069848 0.06450675 -0.502907 0.31038365 -0.47266874
0.14570442 0.081344984 -0.07082424 -0.073154494 -0.043590534 0.31470263 0.07495766 -0.45861712
0.46271843 -0.24726681 -0.47169074 0.21885699 0.08819205 0.11762686 -0.0048279664 -0.15718833
-0.47508577 0.33141136 0.03767591 -0.46535572 -0.19078374 -0.13395624 -0.0947552 -0.22444996
-0.088377096 0.07585519 0.018551491 0.10313132 0.18573308 -0.055062804 -0.522195 0.22572656
-0.16487528 -0.117619865 -0.22290835 0.050096877 0.3952693 0.011551077 -0.015312609 0.2453509
-0.22503926 -0.3356508 0.45651376 0.34506902 -0.08489196 -0.20832792 0.26175964 -0.17224649
-0.30458397 -0.5217254 0.25034705 0.20802398 0.07601262 0.45347962 -0.49494898 0.047985893
0.15148665 0.13377391 -0.1904562 0.43799704 -0.811609 -0.08755507 -0.21357663 0.22392005
0.27172282 0.16914895 0.16213411 -0.11493718 0.30958074 -0.4826254 -0.21016489 -0.42597643
-0.34984168 0.3495156 -0.27872825 -0.064853355 -0.06719177 -0.16334581 0.11756629 0.24387798
00000000: 30bb 953e f877 473e 415f 653d 5422 b73e
00000010: ebfe b73e 4b22 3d3e 97d6 7cbd 478e ccbe
00000020: 447e b03b 4d8b ecbe 4c26 43be 703c dcbc
00000030: cb99 393f 64ad 043e c551 a1bc 5439 d6be
00000040: 75d0 dc3e d159 cbbe 78ad dabd 2091 303e
00000050: 50b5 aebe aae8 e9be 34f6 5dbc fd96 863e
00000060: c4f2 f9bd 7219 8ebe 6d23 b53c e9cc b73d
00000070: 86d6 14be 954b 0c3e c008 37be 815c 3b3f
00000080: 9693 0dbf 3771 c2bd e9ef 27be 4086 6cbd
00000090: df3a ee3d b1ef 5fbe 13d6 7ebc d7ba 0cbd
000000a0: 4733 5fbe 3470 8b3e d7ea 00be 1543 ecbe
000000b0: e420 67be c1dc 36be 02d9 c03d 79a6 23be
000000c0: a35a 9bbd 4ace 883e 80ac 3a3e 1d1e 94be
000000d0: 50aa 9abd 8055 09bb 1ec3 dfbe dfe1 ebbe
000000e0: 184f 0b3d 6b97 95be 5e00 d2bc 1428 8f3e
000000f0: 57ce 993e 1ee8 6cbe 591e 053f 7011 d4be
00000100: f398 69bd 046d 32be bfb4 d13e 1522 393e
00000110: fe2c 6dbe 69a8 e9bd 5ef4 233e f10b 0abf
00000120: de28 21bd 310c b0bd c09a ad3c f610 3a3e
00000130: 2ade cb3d ac04 c83d 65ae 2f3e 903f 183f
00000140: c2c4 f9be 8cb4 a3be 7265 97be db95 3ebd
00000150: 2643 a03d 8402 843e c8cf 683d 80b5 9a3d
00000160: d402 11bb 3a27 9cbe 0dab 82be b330 fe3d
00000170: f843 71bc 6083 373e 08a8 1f3e 89e9 7fbd
00000180: ed7c 893d 8ebf 993e 246f 67be 7712 38be
00000190: d0b1 ae3e 50d9 493e 2466 95bd 6ca6 bd3b
000001a0: 1a8e 103e c73a 473e cbe7 c63e 8364 c23c
000001b0: 1c89 963d ea69 67be c79e 413e ca24 213d
000001c0: e91a e23e 691f aabe 035b 603d 6b9b 1abe
000001d0: 7af9 bcbe f3d4 e43e ead9 1f3f ac66 9c3d
000001e0: 1c70 97bd 8b4e ca3d 5142 ee3d 3074 2b3e
000001f0: ecf4 553e fff6 8dbd f081 38bd 581d 09bf
00000200: 261b 2ebe cbc4 25be 10ac 293f 2e6e 64be
00000210: 3537 bf3e 99dc 00bf 3fd8 15bf 3068 ffbe
00000220: 651d ef3c c617 013f adc4 c33d 492b e0be
00000230: dbbb b13e 8bc1 afbe 2596 853e a07a e4bd
00000240: b176 57be 04d1 c2be 80c0 493f 2629 0bbc
00000250: 2571 2cbd 0c9d 3cbe 2a96 923e 3fe1 d3bc
00000260: 078d 853e 390a 0abf 6df9 1a3e ff73 15be
00000270: 3d7c fe3e 98dc 1bbf cb5d 75bc 90f7 59be
00000280: 5656 093e e9ca 30bf 1de3 933c 3f1b 403e
00000290: d1b3 da3e 32ce 88bd 3125 9a3c fc40 de3d
000002a0: befd 85be 2b8e b9bd 8d39 37be e783 4d3e
000002b0: 1d1c 843d 83be 00bf 9bea 9e3e a301 f2be
000002c0: 8a33 153e 3398 a63d 4d0c 91bd 06d2 95bd
000002d0: fd8b 32bd b420 a13e 6783 993d ddcf eabe
000002e0: 6ee9 ec3e 8333 7dbe 7381 f1be 0c1c 603e
000002f0: 099e b43d 5ae6 f03d eb33 9ebb faf5 20be
00000300: 713e f3be c0ae a93e 0e52 1a3d 1b43 eebe
00000310: d05c 43be d32b 09be 040f c2bd 36d6 65be
00000320: 0dff b4bd f759 9b3d 4cf9 973c 8336 d33d
00000330: d030 3e3e 8989 61bd 92ae 05bf dd24 673e
00000340: 11d5 28be afe2 f0bd 1642 64be 6232 4d3d
00000350: bd60 ca3e ba40 3d3c bde1 7abc 443d 7b3e
00000360: b170 66be 6cda abbe 2cbc e93e e3ac b03e
00000370: d6db adbd ea53 55be 5c05 863e 6261 30be
00000380: 6ef2 9bbe cc8f 05bf 7d2d 803e 3d04 553e
00000390: 81ac 9b3d 7b2e e83e f469 fdbe db8c 443d
000003a0: 511f 1b3e 07fc 083e f306 43be 2641 e03e
000003b0: 9cc5 4fbf 1350 b3bd d5b3 5abe 4c4b 653e
000003c0: 411f 8b3e 6235 2d3e 7c06 263e 2f64 ebbd
000003d0: 5e81 9e3e ad1a f7be 7735 57be 9519 dabe
000003e0: 731e b3be b5f3 b23e 78b5 8ebe d6d1 84bd
000003f0: d79b 89bd 2044 27be 98c6 f03d 26bb 793e

network_body._body_endoder.seq_layers.0.bias f4 [256]
0.0 0.0 0.0 0.0 0.0 0.0 0.0 0.0
0.0 0.0 0.0 0.0 0.0 0.0 0.0 0.0
0.0 0.0 0.0 0.0 0.0 0.0 0.0 0.0
0.0 0.0 0.0 0.0 0.0 0.0 0.0 0.0
0.0 0.0 0.0 0.0 0.0 0.0 0.0 0.0
0.0 0.0 0.0 0.0 0.0 0.0 0.0 0.0
0.0 0.0 0.0 0.0 0.0 0.0 0.0 0.0
0.0 0.0 0.0 0.0 0.0 0.0 0.0 0.0
0.0 0.0 0.0 0.0 0.0 0.0 0.0 0.0
0.0 0.0 0.0 0.0 0.0 0.0 0.0 0.0
0.0 0.0 0.0 0.0 0.0 0.0 0.0 0.0
0.0 0.0 0.0 0.0 0.0 0.0 0.0 0.0
0.0 0.0 0.0 0.0 0.0 0.0 0.0 0.0
0.0 0.0 0.0 0.0 0.0 0.0 0.0 0.0
0.0 0.0 0.0 0.0 0.0 0.0 0.0 0.0
0.0 0.0 0.0 0.0 0.0 0.0 0.0 0.0
0.0 0.0 0.0 0.0 0.0 0.0 0.0 0.0
0.0 0.0 0.0 0.0 0.0 0.0 0.0 0.0
0.0 0.0 0.0 0.0 0.0 0.0 0.0 0.0
0.0 0.0 0.0 0.0 0.0 0.0 0.0 0.0
0.0 0.0 0.0 0.0 0.0 0.0 0.0 0.0
0.0 0.0 0.0 0.0 0.0 0.0 0.0 0.0
0.0 0.0 0.0 0.0 0.0 0.0 0.0 0.0
0.0 0.0 0.0 0.0 0.0 0.0 0.0 0.0
0.0 0.0 0.0 0.0 0.0 0.0 0.0 0.0
0.0 0.0 0.0 0.0 0.0 0.0 0.0 0.0
0.0 0.0 0.0 0.0 0.0 0.0 0.0 0.0
0.0 0.0 0.0 0.0 0.0 0.0 0.0 0.0
0.0 0.0 0.0 0.0 0.0 0.0 0.0 0.0
0.0 0.0 0.0 0.0 0.0 0.0 0.0 0.0
0.0 0.0 0.0 0.0 0.0 0.0 0.0 0.0
0.0 0.0 0.0 0.0 0.0 0.0 0.0 0.0
00000000: 0000 0000 0000 0000 0000 0000 0000 0000
00000010: 0000 0000 0000 0000 0000 0000 0000 0000
00000020: 0000 0000 0000 0000 0000 0000 0000 0000
00000030: 0000 0000 0000 0000 0000 0000 0000 0000
00000040: 0000 0000 0000 0000 0000 0000 0000 0000
00000050: 0000 0000 0000 0000 0000 0000 0000 0000
00000060: 0000 0000 0000 0000 0000 0000 0000 0000
00000070: 0000 0000 0000 0000 0000 0000 0000 0000
00000080: 0000 0000 0000 0000 0000 0000 0000 0000
00000090: 0000 0000 0000 0000 0000 0000 0000 0000
000000a0: 0000 0000 0000 0000 0000 0000 0000 0000
000000b0: 0000 0000 0000 0000 0000 0000 0000 0000
000000c0: 0000 0000 0000 0000 0000 0000 0000 0000
000000d0: 0000 0000 0000 0000 0000 0000 0000 0000
000000e0: 0000 0000 0000 0000 0000 0000 0000 0000
000000f0: 0000 0000 0000 0000 0000 0000 0000 0000
00000100: 0000 0000 0000 0000 0000 0000 0000 0000
00000110: 0000 0000 0000 0000 0000 0000 0000 0000
00000120: 0000 0000 0000 0000 0000 0000 0000 0000
00000130: 0000 0000 0000 0000 0000 0000 0000 0000
00000140: 0000 0000 0000 0000 0000 0000 0000 0000
00000150: 0000 0000 0000 0000 0000 0000 0000 0000
00000160: 0000 0000 0000 0000 0000 0000 0000 0000
00000170: 0000 0000 0000 0000 0000 0000 0000 0000
00000180: 0000 0000 0000 0000 0000 0000 0000 0000
00000190: 0000 0000 0000 0000 0000 0000 0000 0000
000001a0: 0000 0000 0000 0000 0000 0000 0000 0000
000001b0: 0000 0000 0000 0000 0000 0000 0000 0000
000001c0: 0000 0000 0000 0000 0000 0000 0000 0000
000001d0: 0000 0000 0000 0000 0000 0000 0000 0000
000001e0: 0000 0000 0000 0000 0000 0000 0000 0000
000001f0: 0000 0000 0000 0000 0000 0000 0000 0000
00000200: 0000 0000 0000 0000 0000 0000 0000 0000
00000210: 0000 0000 0000 0000 0000 0000 0000 0000
00000220: 0000 0000 0000 0000 0000 0000 0000 0000
00000230: 0000 0000 0000 0000 0000 0000 0000 0000
00000240: 0000 0000 0000 0000 0000 0000 0000 0000
00000250: 0000 0000 0000 0000 0000 0000 0000 0000
00000260: 0000 0000 0000 0000 0000 0000 0000 0000
00000270: 0000 0000 0000 0000 0000 0000 0000 0000
00000280: 0000 0000 0000 0000 0000 0000 0000 0000
00000290: 0000 0000 0000 0000 0000 0000 0000 0000
000002a0: 0000 0000 0000 0000 0000 0000 0000 0000
000002b0: 0000 0000 0000 0000 0000 0000 0000 0000
000002c0: 0000 0000 0000 0000 0000 0000 0000 0000
000002d0: 0000 0000 0000 0000 0000 0000 0000 0000
000002e0: 0000 0000 0000 0000 0000 0000 0000 0000
000002f0: 0000 0000 0000 0000 0000 0000 0000 0000
00000300: 0000 0000 0000 0000 0000 0000 0000 0000
00000310: 0000 0000 0000 0000 0000 0000 0000 0000
00000320: 0000 0000 0000 0000 0000 0000 0000 0000
00000330: 0000 0000 0000 0000 0000 0000 0000 0000
00000340: 0000 0000 0000 0000 0000 0000 0000 0000
00000350: 0000 0000 0000 0000 0000 0000 0000 0000
00000360: 0000 0000 0000 0000 0000 0000 0000 0000
00000370: 0000 0000 0000 0000 0000 0000 0000 0000
00000380: 0000 0000 0000 0000 0000 0000 0000 0000
00000390: 0000 0000 0000 0000 0000 0000 0000 0000
000003a0: 0000 0000 0000 0000 0000 0000 0000 0000
000003b0: 0000 0000 0000 0000 0000 0000 0000 0000
000003c0: 0000 0000 0000 0000 0000 0000 0000 0000
000003d0: 0000 0000 0000 0000 0000 0000 0000 0000
000003e0: 0000 0000 0000 0000 0000 0000 0000 0000
000003f0: 0000 0000 0000 0000 0000 0000 0000 0000

network_body._body_endoder.seq_layers.2.weight f4 [256, 256]
-0.07756839 -0.015879376 0.042160876 -0.01113355 -0.095377654 -0.038643233 0.056152068 -0.018526014
0.076162994 -0.0024967494 -0.17179029 -0.06474748 0.03548548 0.07335204 0.12864293 -0.04465898
-0.074731156 0.038329802 0.03222062 0.07073143 -0.020369584 0.08064974 -0.0015211599 0.06864466
0.1440415 -0.09496013 -0.08880414 0.14021535 0.17663449 0.044899188 -0.035406906 0.013052592
-0.008178516 -0.1448486 0.05597531 -0.02035747 -0.021272134 0.12172298 0.04732623 -0.08766782
-0.006069083 0.00393054 -0.013761654 0.08866007 -0.11156442 0.06759664 0.049030516 -0.04011488
0.0005699205 0.007589309 -0.006652394 -0.06832363 -0.025491104 0.10792204 0.0013698997 0.061805453
-0.024597494 0.13360527 -0.0457752 0.08022679 -0.07829216 -0.08820253 0.004897277 -0.06216945
-0.027913563 -0.05630113 -0.0021033268 0.09198429 0.0047985334 -0.0029590537 -0.020040091 0.028683927
0.020428974 0.10391809 -0.04789818 0.038074065 -0.12944658 0.045219265 0.031755697 -0.035237655
0.01916276 0.04752494 0.10024577 -0.14196956 0.041542012 -0.03871645 -0.0751706 0.095187455
0.056467317 -0.052385196 -0.058625568 -0.10819707 -0.039372817 0.06249509 -0.069347605 0.023017101
0.023766553 0.0006331754 0.005604742 0.0036713986 -0.058691856 -0.0023791299 0.052696694 -0.049713083
0.03683722 0.044279214 -0.009938912 0.055654984 0.08920196 -0.046910457 -0.034072917 0.015256619
-0.014866973 -0.04913118 -0.048400365 0.051802814 0.02255446 0.08606195 -0.05449232 0.08899684
-0.033460405 -0.053977516 0.052893277 -0.00010912236 -0.12621571 -0.07089007 0.07861992 -0.02005312
-0.003970441 -0.11440347 -0.015683146 0.051192358 0.062491294 0.03803171 -0.007594782 0.023035346
0.04233267 -0.07728313 0.034411702 -0.03553242 -0.03073305 0.01670481 -0.104917936 0.08938266
-0.09466373 0.0091258185 -0.018073816 -0.010651543 -0.047643296 0.023300976 0.0016690476 0.12696996
0.0751669 0.10910099 -0.067335784 -0.05429432 -0.041846704 0.06568577 -0.031171449 0.050334785
-0.08287073 -0.070415236 -0.013720778 0.06746102 -0.010134184 0.140462 -0.019018514 -0.055187263
0.011918025 0.104323536 0.006619718 0.09738326 -0.05150531 0.07581025 0.03018064 0.029907443
-0.053301435 -0.018736027 0.06609529 0.03977834 0.02558854 -0.09520953 -0.004630799 -0.011886029
-0.11999575 0.011806401 -0.03549959 0.02996833 0.013814366 0.041466396 0.039584823 0.023817558
-0.066195294 -0.017383328 -0.0138462875 0.084513836 -0.050671082 0.04522477 0.1452068 0.07967717
0.05922583 -0.06704908 -0.008586081 0.0842778 -0.08935196 0.0005789551 -0.090573706 0.06359498
0.1424595 -0.03430697 0.036118504 -0.012862638 -0.09157841 -0.017424377 -0.012038753 -0.029584084
-0.009071075 -0.0041283714 0.006470966 0.005036459 -0.049714893 -0.015917044 -0.14208156 0.026459945
0.035392962 -0.0076477234 0.005903533 0.028054593 0.029242601 0.05056494 0.07101277 -0.01145414
-0.023111157 0.044903494 -0.02401488 -0.030928971 0.11275961 -0.092369355 -0.052401412 -0.10063766
-0.010008989 -0.030162992 0.014648101 -0.09119826 -0.013265357 0.06445263 -0.03365879 -0.0909209
-0.05193128 -0.040357616 -0.01864953 -0.012023472 -0.14393167 0.08803875 0.07821575 -0.006920277
00000000: 2ddc 9ebd 7715 82bc e2b0 2c3d 7e69 36bc
00000010: 5c55 c3bd 5e48 1ebd b6ff 653d dec3 97bc
00000020: 58fb 9b3d 81a0 23bb cbe9 2fbe 549a 84bd
00000030: 3959 113d 9839 963d f9ba 033e 56ec 36bd
00000040: a60c 99bd b6ff 1c3d c5f9 033d a4db 903d
00000050: 1dde a6bc b12b a53d a861 c7ba 9295 8c3d
00000060: 9d7f 133e 757a c2bd f2de b5bd 9d94 0f3e
00000070: acdf 343e 36e8 373d d506 11bd 8ada 553c
00000080: 2fff 05bc 3153 14be 5e46 653d b5c4 a6bc
00000090: e642 aebc e649 f93d 26d9 413d 308b b3bd
000000a0: 29df c6bb c2cb 803b 8f78 61bc 6993 b53d
000000b0: e37b e4bd 1b70 8a3d 39d4 483d 804f 24bd
000000c0: b866 153a bdaf f83b 53fc d9bb 42ed 8bbd
000000d0: b8d2 d0bc 3b06 dd3d 358e b33a b727 7d3d
000000e0: af80 c9bc d2cf 083e c77e 3bbd f14d a43d
000000f0: a457 a0bd 87a3 b4bd 5679 a03b 65a5 7ebd
00000100: fcaa e4bc 049c 66bd f8d7 09bb 4262 bc3d
00000110: 043d 9d3b afec 41bb 1e2b a4bc 8efa ea3c
00000120: aa5a a73c 02d3 d43d e230 44bd 8df3 1b3d
00000130: a58d 04be d637 393d 4312 023d 5c55 10bd
00000140: 38fb 9c3c 83a9 423d a74d cd3d 7860 11be
00000150: f527 2a3d 2495 1ebd 0bf3 99bd a4f1 c23d
00000160: 464a 673d dc91 56bd 5d21 70bd 6d96 ddbd
00000170: 6445 21bd dafa 7f3d 1e06 8ebd 5c8e bc3c
00000180: 13b2 c23c affb 253a fca7 b73b d99b 703b
00000190: df66 70bd 2deb 1bbb 7dd8 573d f29f 4bbd
000001a0: a0e2 163d 1f5e 353d d1d6 22bc 7bf6 633d
000001b0: 84af b63d 2e25 40bd 0b90 0bbd e6f6 793c
000001c0: 9b94 73bc c73d 49bd 763f 46bd 302f 543d
000001d0: 22c4 b83c 3f41 b03d 5733 5fbd fa43 b63d
000001e0: c70d 09bd 8717 5dbd 9fa6 583d 9fd8 e4b8
000001f0: b13e 01be d02e 91bd 7b03 a13d 7146 a4bc
00000200: 791a 82bb 5e4c eabd f179 80bc 14af 513d
00000210: dff6 7f3d 23c7 1b3d a6dd f8bb 9fb4 bc3c
00000220: 0665 2d3d 9e46 9ebd 49f3 0c3d 718a 11bd
00000230: e1c3 fbbc 87d8 883c 37df d6bd 420e b73d
00000240: 0fdf c1bd 7584 153c 8a0f 94bc cf83 2ebc
00000250: 9e25 43bd b0e1 be3c f2c3 da3a 6a04 023e
00000260: 1bf1 993d 5770 df3d 58e7 89bd b963 5ebd
00000270: 7367 2bbd 4386 863d 445b ffbc d92b 4e3d
00000280: 21b8 a9bd dd35 90bd 1dcd 60bc 0129 8a3d
00000290: d909 26bc 45d5 0f3e b7cc 9bbc 0a0c 62bd
000002a0: d243 433c 94a7 d53d 38ea d83b e070 c73d
000002b0: 3bf7 52bd 6842 9b3d 643d f73c 7400 f53c
000002c0: 9b52 5abd 4c7c 99bc f85c 873d 9dee 223d
000002d0: 0f9f d13c 37fd c2bd f5bd 97bb 9ebd 42bc
000002e0: 55c0 f5bd a36f 413c 0568 11bd 2580 f53c
000002f0: a755 623c abd8 293d b223 223d 0a1d c33c
00000300: 6691 87bd 7b67 8ebc 8adb 62bc 9715 ad3d
00000310: 7b8c 4fbd 9c3d 393d 17b1 143e c92d a33d
00000320: c996 723d 0751 89bd a2ac 0cbc d799 ac3d
00000330: 29fe b6bd 05c5 173a b57e b9bd 163e 823d
00000340: e7e0 113e 7785 0cbd fff0 133d d0bd 52bc
00000350: 768d bbbd 91bd 8ebc 313e 45bc 525a f2bc
00000360: d99e 14bc 4a47 87bb 660a d43b e108 a53b
00000370: d8a1 4bbd 7664 82bc d47d 11be 87c2 d83c
00000380: 36f8 103d c199 fabb 6d72 c13b bfd2 e53c
00000390: 2e8e ef3c 2f1d 4f3d 256f 913d 25aa 3bbc
000003a0: 9c53 bdbc baec 373d dbba c4bc c15e fdbc
000003b0: 83ee e63d 252c bdbd dda2 56bd 1e1b cebd
000003c0: befc 23bc 6118 f7bc 97fe 6f3c 27c6 babd
000003d0: f156 59bc beff 833d cddd 09bd bd34 babd
000003e0: e5b5 54bd 074e 25bd e6c6 98bc 19fe 44bc
000003f0: d362 13be a94d b43d 942f a03d 7ec3 e2bb

action_model._discrete_distribution.branches.0.weight f4 [2, 256]
0.00055954687 -0.0057055415 0.004728203 -0.006939318 -0.0037371104 -0.0012597378 0.006978774 0.00037370648
-0.00017258224 0.0036857135 0.0134962825 -0.00804265 0.000507459 -0.0036495642 0.0028537612 0.0037994876
0.0071953735 -0.00039814366 0.0065435865 0.0059142923 -0.005888473 0.008194039 -0.00049072574 0.009002926
-0.0043040006 -0.001823062 0.0023198458 0.010715466 -0.00023770808 0.004792354 0.004789468 -0.01022281
0.0019275568 0.0006630609 -0.00013050158 -0.00087175233 -0.0026766816 0.0070044394 0.0032245927 -0.0032002502
-0.0024446156 -0.016454585 0.0054489556 0.007954653 -8.944376e-05 0.007309541 0.0012720794 -0.0031409455
-0.007135903 0.002974314 -0.0019723063 0.007507282 -0.0043777595 -0.002198681 -0.0032236904 -0.0007528348
-0.0001732813 -0.01103879 0.0074515427 -0.013326501 -0.0037298203 0.006081611 -0.0076892967 0.005935311
0.006207883 0.0039640022 -0.004091773 -0.0067675584 -0.004126335 -0.00676131 -0.0005248519 0.0026438183
0.006461923 -0.003161601 0.004218418 0.0085835885 -0.0054322216 -0.002012491 0.00066374097 -0.0028677639
0.0006812251 -0.002077365 -0.0015916806 -0.009750056 0.0028767574 0.0034289684 0.00947302 0.001508837
0.011145111 -0.0078772865 -0.004434073 -0.006434407 0.002910362 0.0025151472 -0.00094325695 -0.00086045667
0.004177326 -0.0051112464 0.0013319325 -0.0038110693 -0.007600614 -0.0044666263 -0.0034107117 0.005678724
0.011999332 -0.00960746 0.0046604117 0.0049292534 -0.0047215032 -0.004169367 -0.010336584 0.0001176905
0.0029557801 0.00975412 -0.0041275923 -0.0036355627 0.005637869 0.0021965718 0.007403002 0.0063221985
0.006113672 0.0045522484 -0.0078079826 0.009784301 0.009379464 0.010435555 0.003934868 0.00055356947
-0.005160464 -0.0008967446 -0.0038968225 -0.0080128005 0.00016174995 0.0042211683 -0.0009698257 0.004318631
-0.002062005 -0.0049185175 0.008386441 0.0069502345 0.01104362 -0.0058145355 0.0018143086 0.0045194216
-0.011361237 0.0067021954 0.00072174624 -0.013371467 0.004055309 0.006280908 -0.0069961124 -0.0010221297
-0.013849996 -0.0068970933 -0.0005334577 0.0010188451 0.006628075 0.009054683 0.0016870911 -0.0022761307
0.0058514527 0.00073375925 -0.006114522 0.0024896117 0.0074127945 -0.0024773872 0.0030681554 0.00519474
-0.007049878 0.003762085 -0.001896652 -0.0027348327 -0.0015103302 0.0016272909 0.011357305 0.0038630168
-0.009397258 -0.0016498115 0.010991939 -0.0005895254 0.0133109335 0.00534027 0.0027162142 -0.0018278614
0.0056498456 0.0043926714 0.010674904 0.012532875 0.004485459 0.0023403014 0.006888691 -0.012198506
-0.0016153421 0.0098435795 0.0011502543 0.0048827077 0.0052694883 0.009788997 -0.0068625 -0.0017479018
0.006261093 0.00634062 0.0015209578 0.009184661 -8.802169e-05 0.0036032635 -0.00045378646 0.004606346
0.0029267778 0.0026838633 -0.009822197 0.0064232023 -0.0012110122 -0.0022276419 0.0019237958 0.010927989
-0.001566911 -0.0005586752 -0.002669978 -0.01168662 -0.004468013 -0.0069925333 -0.005369665 -0.005561133
0.0018617728 -0.014970474 -0.010629358 -0.007997628 -0.009899754 0.006439194 -0.007918789 0.00057305524
-0.0012276218 0.0041521303 0.0033761659 -0.0015230716 0.006906317 -0.0024923438 0.012084863 -0.005091961
-0.0047315094 0.0011858451 0.00513291 0.0033886258 0.0026648648 -0.00499736 0.010964118 0.00031310556
-0.01134602 -0.005348236 -0.0011067023 0.01654478 -0.0037142436 0.023778517 0.0024352395 0.007699571
00000000: 8eae 123a 8df5 babb 0bef 9a3b 3863 e3bb
00000010: 4fea 74bb c91d a5ba 33ae e43b 09ee c339
00000020: 31f7 34b9 038c 713b 831f 5d3c 52c5 03bc
00000030: ff06 053a 872d 6fbb 2b06 3b3b d300 793b
00000040: 2bc7 eb3b f0bd d0b9 956b d63b aecc c13b
00000050: 17f4 c0bb 4a40 063c 0ca4 00ba 0281 133c
00000060: 9308 8dbb cff3 eeba 8e08 183b ec8f 2f3c
00000070: 4741 79b9 2e09 9d3b f8f0 9c3b 937d 27bc
00000080: 13a6 fc3a 44d1 2d3a 40d7 08b9 4f86 64ba
00000090: 446b 2fbb 7f85 e53b b053 533b 4abb 51bb
000000a0: d835 20bb c4cb 86bc 278d b23b 3c54 023c
000000b0: c193 bbb8 e084 ef3b e7bb a63a 52d8 4dbb
000000c0: 4bd4 e9bb b5ec 423b cf41 01bb a5ff f53b
000000d0: 4f73 8fbb bf17 10bb 8d44 53bb e359 45ba
000000e0: d8b2 35b9 0bdc 34bc 122c f43b 6557 5abc
000000f0: 0070 74bb 4048 c73b 7ff6 fbbb ff7c c23b
00000100: 7f6b cb3b 76e4 813b 4814 86bb 65c2 ddbb
00000110: 3536 87bb fb8d ddbb 3796 09ba e943 2d3b
00000120: 8abe d33b dd32 4fbb a83a 8a3b 2ea2 0c3c
00000130: c700 b2bb ffe3 03bb e7fe 2d3a 18f1 3bbb
00000140: 3e94 323a 6724 08bb f09f d0ba b3be 1fbc
00000150: fb87 3c3b 8bb8 603b ba34 1b3c 2bc4 c53a
00000160: fc99 363c bc0f 01bc b34b 91bb b8d7 d2bb
00000170: c6bb 3e3b 2bd5 243b e744 77ba 4590 61ba
00000180: f3e1 883b 3e7c a7bb 3d94 ae3a 22c3 79bb
00000190: 920e f9bb c75c 92bb 3f86 5fbb 9714 ba3b
000001a0: d998 443c 9c68 1dbc 5eb6 983b 9385 a13b
000001b0: d7b6 9abb 2f9f 88bb c75a 29bc 9bd0 f638
000001c0: c3b5 413b bfcf 1f3c c140 87bb 9f42 6ebb
000001d0: dfbd b83b 5cf4 0f3b e294 f23b 722a cf3b
000001e0: 3355 c83b 072b 953b 1bda ffbb 554e 203c
000001f0: 53ac 193c e4f9 2a3c 11f0 803b 6b1d 113a
00000200: 1c19 a9bb 8313 6bba d561 7fbb 1f48 03bc
00000210: 6c9b 2939 ba51 8a3b e73b 7eba 4d83 8d3b
00000220: b422 07bb 842b a1bb 4867 093c cbbe e33b
00000230: 4df0 343c dc87 bebb 18ce ed3a a817 943b
00000240: 7b24 3abc 179e db3b 9233 3d3a ff13 5bbc
00000250: 66e2 843b 13d0 cd3b a53f e5bb fbf8 85ba
00000260: 18eb 62bc 0301 e2bb bed7 0bba c58a 853a
00000270: 5330 d93b 185a 143c 6221 dd3a 232b 15bb
00000280: 8bbd bf3b c059 403a 545c c8bb c128 233b
00000290: 07e7 f23b a95b 22bb 1b13 493b a338 aa3b
000002a0: aa02 e7bb 508d 763b 1599 f8ba e13a 33bb
000002b0: 46f6 c5ba d24a d53a fd13 3a3c ab2a 7d3b
000002c0: f5f6 19bc 7d3e d8ba 8917 343c 618a 1aba
000002d0: 1a16 5a3c 6ffd ae3b 8302 323b da94 efba
000002e0: 5722 b93b 66f0 8f3b cbe5 2e3c b056 4d3c
000002f0: c2fa 923b be5f 193b 87ba e13b 3edc 47bc
00000300: e3b9 d3ba f746 213c 21c4 963a 1fff 9f3b
00000310: acab ac3b 0762 203c d3de e0bb da19 e5ba
00000320: db29 cd3b fac4 cf3b e05a c73a 437b 163c
00000330: 4998 b8b8 bb24 6c3b 30ea edb9 d5f0 963b
00000340: 2fcf 3f3b c1e3 2f3b 48ed 20bc ba79 d23b
00000350: d4ba 9eba a1fd 11bb e027 fc3a 4f0b 333c
00000360: cf60 cdba 0f74 12ba ccfa 2ebb 3d79 3fbc
00000370: 6968 92bb 9f21 e5bb 04f4 afbb 2a3a b6bb
00000380: bb06 f43a b846 75bc c226 2ebc 7c08 03bc
00000390: 9432 22bc e0ff d23b cfbd 01bc 1639 163a
000003a0: 27e8 a0ba 980e 883b aa42 5d3b cda1 c7ba
000003b0: 634e e23b 9756 23bb 97ff 453c 77da a6bb
000003c0: c70a 9bbb 5c6e 9b3a f831 a83b b513 5e3b
000003d0: 03a5 2e3b e5c0 a3bb d8a2 333c 5128 a439
000003e0: a8e4 39bc 4140 afbb c40e 91ba eb88 873c
000003f0: ab6a 73bb 2acb c23c 8a98 1f3b af4c fc3b

action_model._discrete_distribution.branches.0.bias f4 [2]
0.0 0.0
00000000: 0000 0000 0000 0000

action_model._discrete_distribution.branches.1.weight f4 [2, 256]
0.0032581284 0.001594974 -0.00030804586 0.0024644898 -0.007191588 -0.0006270818 0.004569735 -0.0031157613
-0.0035680123 -0.008546791 0.0006456513 -0.0010994908 0.0028128556 -0.010193091 0.0071980595 -0.0019000499
0.0017481132 0.0018315768 0.0016190266 -0.0020091916 0.0046583074 -0.0064244936 0.0016017795 -0.0076393746
0.0024201125 -0.0055754776 -0.0042990297 -0.0022021048 -0.0022989844 0.00067905936 -0.00755751 0.004363378
0.0009893884 -0.004046976 -0.007322028 -0.004687901 -0.010696546 0.0017812329 -0.008181948 -0.006789519
-0.021130232 0.003963318 -0.0041993964 0.0033589292 -0.004257865 -0.004907954 -0.010707326 0.004933383
0.011299389 0.015204049 0.006726423 -0.014126494 0.0015737603 -0.00229945 -0.0016792043 -0.0045578703
0.0015729809 -0.009027305 0.0020426034 -0.0005277928 0.005191163 -0.00802236 0.0017951165 0.0039050945
-0.010852712 0.0025196816 -0.008113819 -0.0032628344 0.0053770333 -0.0009083949 -0.004551591 -0.0060592066
0.0024150284 -0.002625438 0.002312149 0.0008614516 0.007709266 0.0007234462 0.0031397336 0.009682777
-0.005837278 -4.584457e-05 -0.0034894694 -0.003903952 0.0059862183 0.00080390536 0.018496502 0.0046781865
0.004849333 -0.0027382395 0.0053954707 0.0013088982 0.0004787865 0.008728281 0.0041343453 -0.0062859724
0.0055315974 -0.00031054986 0.0016988136 -0.014943122 -0.00591722 0.0076666074 -0.003498869 1.9842142e-05
-0.016956052 0.0027070818 -0.0021481349 0.0037668196 -0.0040164962 0.01132507 0.0010981126 -0.0005566996
-0.002786931 -0.011147487 0.0013988506 -0.0047587138 0.00011879838 0.0008930725 0.0065688617 0.0011811432
0.009488886 0.0035536306 8.736326e-06 -0.002209409 -0.0019147013 -0.00126347 -0.00454857 0.009653852
0.0042986474 -0.0037611846 -0.00022037233 0.010229111 0.00078601734 -0.0013479418 0.0008201934 -0.0047396277
-0.007080152 -0.0047875247 -0.004903371 0.0076961047 -0.0071282536 -0.008826523 0.01828307 -0.011777442
-0.004870546 -0.00035326916 -0.013419727 -0.0010614401 0.0021751092 -0.0016373069 -0.010787963 0.0009623562
0.0015685728 -0.003919196 0.011204033 0.0029077122 -0.003347095 0.0021758005 0.0021706242 0.0015914867
0.0041740364 0.0024830557 -0.0029194725 0.0020254774 0.005711537 -0.004659114 8.386225e-05 0.0038071002
0.0045594405 0.0059355646 -0.0027507856 0.0056801913 -0.008877517 -0.008693244 -0.0003549432 -0.008206542
0.007169065 -0.010860592 0.0005335556 -0.0059868917 0.0053389235 -0.0044221026 -0.0043188105 0.0058601648
0.0020309195 -0.0071892897 -0.003191543 -0.0005219633 0.003075144 0.0031145446 0.006029964 0.0077729407
-0.001269954 -0.0035374684 0.0050350693 0.0021163274 -0.0017306146 -0.0041188416 0.0049328734 0.010646253
0.0003614304 0.0018753762 0.002061028 -0.0069351383 -0.0036835165 -0.005849901 9.8144774e-05 0.0069722715
0.0038171206 0.0014812838 -0.0012790848 0.0018485319 0.008230018 0.0015770469 0.018965496 -0.0021682947
0.005935961 0.008367146 -0.0087915 0.00661662 -0.012416583 -0.002356128 -0.0011932232 0.008651023
0.009232536 -0.0018358352 0.00048358328 0.0022509103 -0.005831792 0.012324514 0.0041126288 -0.0037854926
-0.0022983188 0.0024539356 -0.0024412272 -0.00054055563 0.009445584 0.0075307223 -0.0037910517 0.005344532
0.0005615212 -0.0042842375 -0.0019737799 0.0048615523 -0.005699669 -0.002886606 -0.005252344 0.006998195
0.019312019 -0.01560153 0.013914636 -0.0064986567 -0.009768254 -0.00023723324 0.010201753 0.0023677384
00000000: 5386 553b 720e d13a 3781 a1b9 4783 213b
00000010: 6aa7 ebbb bf62 24ba b7bd 953b cd31 4cbb
00000020: 50d5 69bb d707 0cbc ed40 293a ca1c 90ba
00000030: e357 383b ec00 27bc b3dd eb3b 180b f9ba
00000040: f220 e53a 8511 f03a 8535 d43a a4ac 03bb
00000050: b7a4 983b 8f84 d2bb cdf2 d13a b853 fabb
00000060: c09a 1e3b 7fb2 b6bb e0de 8cbb 3051 10bb
00000070: 8faa 16bb e702 323a fda4 f7bb abfa 8e3b
00000080: 5eae 813a 7f9c 84bb 9fed efbb f79c 99bb
00000090: 9140 2fbc 4278 e93a 940d 06bc 9d7a debb
000000a0: 4f19 adbc b9de 813b 179b 89bb 7b21 5c3b
000000b0: 8f85 8bbb e7d2 a0bb c86d 2fbc 37a8 a13b
000000c0: 1321 393c 671a 793c 5369 dc3b cf72 67bc
000000d0: a246 ce3a 5fb2 16bb bf18 dcba 305a 95bb
000000e0: 7b2c ce3a 43e7 13bc 33dd 053b 935b 0aba
000000f0: a21a aa3b 3770 03bc 1d4a eb3a 9dec 7f3b
00000100: 93cf 31bc 3e21 253b d3ef 04bc 47d5 55bb
00000110: d331 b03b 5a21 6eba 8325 95bb 4f8c c6bb
00000120: 7445 1e3b 8a0f 2cbb 6c87 173b 0ad3 613a
00000130: 039e fc3b a7a5 3d3a fdc3 4d3b 83a4 1e3c
00000140: a346 bfbb 3b49 40b8 95af 64bb 72d9 7fbb
00000150: 0a28 c43b 2dbd 523a fa85 973c 794b 993b
00000160: 27e7 9e3b 0974 33bb 7dcc b03b 568f ab3a
00000170: a305 fb39 1001 0f3c 6779 873b 8ffa cdbb
00000180: 6742 b53b 4cd1 a2b9 baaa de3a ffd3 74bc
00000190: 3de5 c1bb 2a38 fb3b 484d 65bb ad72 a637
000001a0: 6be7 8abc 4c69 313b b9c7 0cbb bfdc 763b
000001b0: d09c 83bb c98c 393c 8bee 8f3a 7aef 11ba
000001c0: f2a4 36bb f3a3 36bc a359 b73a fcee 9bbb
000001d0: 6523 f938 151d 6a3a 9b3f d73b 97d0 9a3a
000001e0: 4677 1b3c 07e4 683b 3c92 1237 bbcb 10bb
000001f0: b7f6 faba 059b a5ba 2c0c 95bb 312b 1e3c
00000200: abdb 8c3b 357e 76bb bf13 67b9 0098 273c
00000210: bb0c 4e3a 6cad b0ba 3f02 573a e14e 9bbb
00000220: 9f00 e8bb abe0 9cbb 75ac a0bb 9b2f fc3b
00000230: 2094 e9bb 1f9d 10bc 60c6 953c 2cf6 40bc
00000240: 1a99 9fbb fc36 b9b9 6ade 5bbc 0520 8bba
00000250: 478c 0e3b e79a d6ba ffbf 30bc a246 7c3a
00000260: 9298 cd3a 996c 80bb 1f91 373c 518f 3e3b
00000270: f05a 5bbb e097 0e3b 0841 0e3b 6f99 d03a
00000280: 5bc6 883b c3ba 223b 9f54 3fbb dfbd 043b
00000290: d827 bb3b 7bab 98bb 34df af38 8b80 793b
000002a0: 5c67 953b 207f c23b 8646 34bb e620 ba3b
000002b0: 0173 11bc 1c6e 0ebc ab17 bab9 bb74 06bc
000002c0: 7aea ea3b a0f0 31bc 4fde 0b3a b02d c4bb
000002d0: 23f2 ae3b 49e7 90bb cf84 8dbb a006 c03b
000002e0: 2d19 053b 2294 ebbb 3529 51bb 5dd4 08ba
000002f0: 5b88 493b 631d 4c3b 0197 c53b 27b4 fe3b
00000300: 9674 a6ba dfd4 67bb 39fd a43b 15b2 0a3b
00000310: cad5 e2ba 59f7 86bb f1a3 a13b 9f6d 2e3c
00000320: 5e7e bd39 2fcf f53a 5012 073b 2840 e3bb
00000330: 2767 71bb 87b0 bfbb 13d3 cd38 a777 e43b
00000340: a828 7a3b a327 c23a f7a6 a7ba 704a f23a
00000350: 33d7 063c eab4 ce3a 875d 9b3c f319 0ebb
00000360: 7382 c23b 5b16 093c 390a 10bc 3bd0 d83b
00000370: ec6e 4bbc 4569 1abb ed65 9cba 05bd 0d3c
00000380: 1044 173c 68a0 f0ba 7389 fd39 0284 133b
00000390: 9e18 bfbb c2ec 493c 3bc3 863b 0716 78bb
000003a0: 649f 16bb 35d2 203b fffc 1fbb 13b4 0dba
000003b0: a7c1 1a3c 47c4 f63b 4b73 78bb 2f21 af3b
000003c0: 0d33 133a ca62 8cbb 885a 01bb a84d 9f3b
000003d0: 4ac4 babb 362d 3dbb db1b acbb 1d51 e53b
000003e0: 3d34 9e3c 8f9d 7fbc 37fa 633c aff2 d4bb
000003f0: 070b 20bc d0c1 78b9 4125 273c 0f2c 1b3b

action_model._discrete_distribution.branches.2.weight f4 [2, 256]
0.0060714604 -0.00014683754 0.009010343 -0.008765866 0.0021358316 0.003817513 0.0069543445 -0.013939053
-0.0118967015 -0.0061944574 0.0067671165 0.012658353 -0.0093493415 -0.004385214 0.0031849835 0.008374989
0.0025916714 0.0017312848 -0.00534415 0.009844175 -0.0069064214 0.0039384128 -0.0048843957 -0.008040737
-0.00047841622 -0.003976247 0.01158458 0.012238747 -0.0067435973 -0.0038030725 0.010282297 0.005295572
-0.004070559 0.011040077 0.00011106126 -0.01576738 0.010910276 0.007322635 0.00414737 -0.008656944
-0.0025426352 0.00900772 0.008061765 0.0030725473 -0.00014917653 0.009815897 -0.010383595 0.00085968897
0.0032305398 0.0023522298 0.00044799215 0.01405385 0.001011015 -0.006624812 -0.011761488 -0.0012106261
-0.010062815 0.00039310573 -0.0003652935 0.020474106 -0.0014890124 -0.0006847056 -0.0055311704 -0.0013427498
0.012278648 0.00036345475 0.0070451833 0.0046045873 0.0016898817 0.003884601 0.0013976208 -0.010931365
-0.0007991308 0.0036353164 -0.00039245328 -0.0092534935 -0.0014293512 0.014756493 -0.0017979244 -0.006738044
-0.00057601853 -0.008797786 0.002821765 0.004182128 0.0070610526 0.005882401 -0.009522758 -0.0019084718
-0.006460956 -0.0028608607 0.001436941 0.004673242 0.00089100207 0.0014728117 -0.004248711 -0.005760589
-0.0061139455 -0.0012641997 0.002809519 -0.0025677567 -0.0060701873 -0.0031790684 0.0035509735 0.0010325867
-0.008304715 -0.00085201376 0.00034450775 -0.004004081 0.004645837 0.0044884193 0.004792194 -0.0045351186
-0.00025874097 0.002860233 -0.010743374 0.0057027885 -0.004506286 -0.0053017433 -0.00039559585 -0.009869862
-0.015582128 0.010701875 0.0050532403 0.0067840465 -0.0014036883 0.0009909224 0.004113823 -0.009005832
-0.014392423 -0.003340352 2.4314591e-05 0.0033170262 0.0024672735 -0.0036704894 0.0019735256 0.006637084
0.008628107 0.0026838628 0.004388801 0.0039329375 -0.004397645 0.0061491877 0.010965885 -0.005518296
0.0016400162 0.0024836243 -0.005067796 0.007005967 0.0012210901 0.0036791563 -0.002681814 0.0065991743
-0.0023123499 0.0023844398 0.0022587199 0.0022979176 -0.0047635897 0.0036564835 -0.0014993717 -0.0070235557
0.00049316435 0.0033489633 0.011057566 0.0045195194 0.0061090933 0.0058061946 -0.0041741147 0.0036458229
0.009070571 -0.0029551468 -0.0004277289 -0.009279224 0.009146419 0.007254751 -0.0049057254 6.180193e-05
-0.003056986 0.00438497 0.0032843107 0.0010966851 0.004259302 -0.00059266394 -0.0011283786 0.006063725
0.00044838173 -0.009574677 0.013231458 -0.008047493 0.0073642866 -0.013036353 -0.0073242323 0.008172476
-0.0024070158 -0.002738147 0.007281009 0.01301135 0.0029766394 0.008446531 -0.0020076446 -0.0038854068
0.005340775 -0.0037126027 -0.0029407055 -0.005072989 -0.0038080525 -0.011142 0.0019760928 -0.0035865058
-0.0035360537 -0.00022324419 -0.007951914 0.0059952694 -0.002757417 0.009565317 -0.0021634663 -0.0010744788
0.011261279 -0.0007580158 -0.00829264 0.00029845178 0.007845528 -0.0025411039 -0.004799127 -0.0001571503
0.00821816 -0.0064320187 0.013617012 0.0068510543 0.012430343 0.000275647 0.0053800414 0.0086558545
0.00444856 -0.012423472 -0.001093099 0.004837658 -0.0113204885 -0.00411883 -0.0025509812 -0.0015851811
-0.010214506 -0.011450317 -0.005622212 -0.005317818 -0.008465937 -0.004634354 -0.00492255 0.0027234561
-0.0012420414 -0.0038286808 0.0039751376 0.013839706 -0.0027005316 -8.5594715e-05 0.0057872627 -0.002167734
00000000: 1af3 c63b 67f8 19b9 1ea0 133c b59e 0fbc
00000010: 4ff9 0b3b 3d2f 7a3b 45e1 e33b a060 64bc
00000020: 62ea 42bc e0fa cabb b0be dd3b fb64 4f3c
00000030: fb2d 19bc d7b1 8fbb 28bb 503b 4037 093c
00000040: 08d9 293b 47ec e23a fb1d afbb 7649 213c
00000050: 434f e2bb cd0d 813b 480d a0bb 4cbd 03bc
00000060: f0d3 fab9 2d4b 82bb 40cd 3d3c 0785 483c
00000070: 65f9 dcbb f83c 79bb 1477 283c 7a86 ad3b
00000080: 5362 85bb 70e1 343c 8fe9 e838 982a 81bc
00000090: 04c1 323c b7f2 ef3b a9e6 873b dbd5 0dbc
000000a0: 57a2 26bb 1e95 133c 7e15 043c ca5c 493b
000000b0: 456c 1cb9 dbd2 203c f41f 2abc c05c 613a
000000c0: 77b7 533b de27 1a3b 7de0 ea39 1f42 663c
000000d0: 0984 843a f314 d9bb 42b3 40bc dfad 9eba
000000e0: 81de 24bc c219 ce39 dd84 bfb9 50b9 a73c
000000f0: f72a c3ba d17d 33ba d23e b5bb 35ff afba
00000100: 622c 493c 128e be39 48db e63b 14e2 963b
00000110: 057f dd3a ca94 7e3b 5f30 b73a 7819 33bc
00000120: c37c 51ba 7d3e 6e3b 30c2 cdb9 f79b 17bc
00000130: 1159 bbba 38c5 713c 55a8 ebba cfca dcbb
00000140: f3ff 16ba 9724 10bc 5ced 383b 3b0a 893b
00000150: 6760 e73b 28c1 c03b 5805 1cbc b025 faba
00000160: 6db6 d3bb 477d 3bbb bd57 bc3a ff21 993b
00000170: 2392 693a 5c0b c13a c538 8bbb 53c3 bcbb
00000180: 7e57 c8bb 81b3 a5ba e81f 383b cf47 28bb
00000190: 6ce8 c6bb eb57 50bb 73b7 683b dc57 873a
000001a0: 8010 08bc ad59 5fba 0c9f b439 aa34 83bb
000001b0: 1b3c 983b 9713 933b d607 9d3b 559b 94bb
000001c0: a0a7 87b9 bf72 3b3b fa04 30bc 75de ba3b
000001d0: 77a9 93bb 3fba adbb fa67 cfb9 34b5 21bc
000001e0: 2f4c 7fbc eb56 2f3c a795 a53b b54c de3b
000001f0: f7fb b7ba d7e1 813a 40cd 863b 328d 13bc
00000200: 33ce 6bbc cfe9 5abb 30f7 cb37 7762 593b
00000210: fbb1 213b 988c 70bb 4456 013b e57b d93b
00000220: e75c 0d3c bfe3 2f3b eecf 8f3b dfdf 803b
00000230: 1f1a 90bb 207f c93b 41aa 333c d2d2 b4bb
00000240: d0f5 d63a 4dc4 223b c10f a6bb 5092 e53b
00000250: fc0c a03a 001e 713b 5fc1 2fbb e33d d83b
00000260: cb8a 17bb 4344 1c3b 0807 143b a998 163b
00000270: e317 9cbb 9da1 6f3b 9186 c4ba db25 e6bb
00000280: b347 013a 487a 5b3b cb2a 353c 7a18 943b
00000290: ca2e c83b e441 be3b 03c7 88bb c2ee 6e3b
000002a0: bb9c 143c 23ab 41bb cd40 e0b9 e307 18bc
000002b0: ddda 153c 43b9 ed3b 35c0 a0bb a99b 8138
000002c0: b757 48bb cbaf 8f3b 973d 573b a5be 8f3a
000002d0: 9d91 8b3b 015d 1bba 1ae6 93ba 36b2 c63b
000002e0: c714 eb39 1bdf 1cbc c2c8 583c a2d9 03bc
000002f0: 1d50 f13b 6d96 55bc 1d00 f0bb d9e5 053c
00000300: 06bf 1dbb 7c72 33bb 8895 ee3b 8f2d 553c
00000310: b913 433b 5263 0a3c b092 03bb 4fa2 7ebb
00000320: ab01 af3b 234f 73bb dab8 40bb 513b a6bb
00000330: 8590 79bb ef8c 36bc 5681 013b 950b 6bbb
00000340: 23bd 67bb a816 6ab9 bf48 02bc f773 c43b
00000350: c8b5 34bb d9b7 1c3c f1c8 0dbb 87d5 8cba
00000360: 3a81 383c 94b5 46ba dadd 07bc 8579 9c39
00000370: 888a 003c a688 26bb ff41 9dbb b6c8 24b9
00000380: 76a5 063c afc3 d2bb e319 5f3c cf7e e03b
00000390: a3a8 4b3c b784 9039 0f4b b03b 49d1 0d3c
000003a0: 3ac5 913b d18b 4bbc 5146 8fba 3785 9e3b
000003b0: 9279 39bc 40f7 86bb 5d2e 27bb dac5 cfba
000003c0: be5a 27bc 1c9a 3bbc 883a b8bb 1741 aebb
000003d0: b7b4 0abc c7db 97bb 584d a1bb 037c 323b
000003e0: fecb a2ba 9bea 7abb df41 823b efbf 623c
000003f0: 67fb 30bb 5081 b3b8 14a3 bd3b 8b10 0ebb

action_model._discrete_distribution.branches.3.weight f4 [2, 256]
-0.0014640873 -0.0057094917 0.006244852 0.006226079 -0.0034302403 0.010820687 -0.003190425 0.007455068
-0.0039010502 -0.0063271485 0.0065528713 0.0028906844 -0.0056981305 0.00037857774 0.0076927566 0.0024375042
-0.0024904858 -0.0064857597 0.0036119947 -0.003340729 -0.0017548992 -0.0069939285 0.012102408 0.00569713
0.0056167697 0.004824756 0.009192399 0.0025759179 0.0010711865 -0.0110660605 0.002106196 -0.011796762
0.0010327973 0.014157972 0.011235249 0.003925317 -0.0018316023 -0.0030536598 0.0066278786 -0.0038575807
0.014301841 -0.0019953705 -0.0047828816 -0.0013158153 0.012457859 0.0068912515 -0.005636863 0.0007836545
0.006749795 0.0032349247 -0.0027086772 0.0077525824 -0.0023994483 -0.010720245 -0.0049289945 0.0028716738
0.0055212094 -6.951818e-05 0.010019213 0.005488262 0.010703206 -0.004620617 -0.0033709246 0.013164706
0.011965232 -0.006063011 0.009042934 0.004111081 -0.010457964 0.0016261376 0.015391159 -0.007833099
-0.00386585 -0.0027705561 -0.0014805145 0.011013919 0.0016029759 0.0037001334 0.0044566058 0.0039377147
0.0084790755 -0.0052942107 0.0016142188 -0.0004281833 -0.0036832446 0.009647044 0.010258056 -0.004416661
-0.015798848 0.0052323597 -0.008594365 0.0033784625 -0.006833706 -0.009376063 -0.0011764055 0.0033880048
0.012273844 0.0013670359 0.008628283 -0.0011199071 0.006843029 0.0073830746 0.0057032607 0.0013191049
0.009245583 0.003701326 -0.005101059 -0.0006111541 -0.005464874 0.0015870867 -0.0052447612 0.004028286
0.005652628 -0.010017086 -0.0035269011 -0.0045289705 -0.0066623203 -0.009764585 -0.0024453339 0.0035075843
-0.0052055065 -0.0073610577 0.0022551017 -0.0022939802 -0.0054977904 -0.008902251 0.006910795 0.007059717
0.0029700256 1.6528846e-05 -0.010737664 0.0025433085 -0.0123414295 0.013971232 0.0010615519 -0.006214948
-0.010117927 -0.0069354265 0.0010877877 -0.0027956553 -0.008022022 0.008342077 -0.0025108557 -0.011586865
0.013061856 -0.0010886788 0.0046361433 7.033824e-06 -0.002303416 -0.0010225818 -0.00047176247 0.00029093158
-0.007106425 0.0028675338 -0.00061218406 -0.010513708 0.0016891327 0.0043499838 -0.008146586 -0.0033127547
-0.00096456317 0.00066252414 0.0073207095 -0.007261451 -0.0038061526 -0.0068188026 -0.004668765 0.0034625053
-0.007379399 -0.0042446093 -0.0069549507 0.004622084 -0.007693765 -0.0045507583 0.0033989572 -0.0041218377
0.0076658153 0.0021924484 -0.007423845 -0.012329334 -0.0048195804 0.0034046583 0.0022397458 -0.004433316
-0.0015066273 -0.00817564 0.0050463676 0.0068689673 -0.0032686554 -0.005550071 0.00028072493 0.0011093147
0.003223603 0.011660822 -0.00038224863 0.005576507 0.0042141806 -0.00015761558 0.00088746654 -0.005559087
0.0066366964 -0.00055514707 -0.002601263 -0.0009600236 0.0021325853 -0.0014726961 0.0063068233 0.0005111738
-0.0052013327 -0.001357905 -0.0032911678 0.006571207 0.004127934 -0.0028350425 -0.003106138 0.0136059215
-0.0072149294 0.0004585674 0.004572889 0.001301958 0.009370106 -0.0009561537 0.00086083746 -0.004329043
-0.003401837 -0.014909901 -0.0012974779 0.006808452 0.0053638467 0.00973745 -0.009173897 0.0003324226
0.0036177337 0.009883669 -0.0033104864 -0.0043352433 0.0042189606 -0.0055922074 -0.0015486835 -0.0003224949
-0.0006409324 -0.0046531903 -0.0022531683 0.011932713 0.0057930085 -0.0025987928 0.0032332619 -0.008099774
-0.004805397 0.003967683 0.0015706046 0.0025831568 0.0018205195 -0.00084583694 -0.005940234 0.006093848
00000000: 9ee6 bfba b016 bbbb 9ea1 cc3b 2304 cc3b
00000010: e2cd 60bb 4049 313c 7316 51bb a549 f43b
00000020: c3a8 7fbb f853 cfbb 78b9 d63b a371 3d3b
00000030: 62b7 babb d87b c639 8513 fc3b 89be 1f3b
00000040: 6b37 23bb 7f86 d4bb 37b7 6c3b 22f0 5abb
00000050: a504 e6ba 532d e5bb 2e49 463c feae ba3b
00000060: e10c b83b fd18 9e3b b79b 163c bbd0 283b
00000070: 0e67 8c3a 6c4e 35bc 1b08 0a3b 3547 41bc
00000080: ed5e 873a d7f6 673c 0d14 383c f29f 803b
00000090: 6012 f0ba e91f 48bb ad2e d93b 77cf 7cbb
000000a0: 4552 6a3c c3c4 02bb b8b9 9cbb 6f77 acba
000000b0: 0c1c 4c3c 02d0 e13b 6fb5 b8bb 2a6e 4d3a
000000c0: 622d dd3b 0801 543b 1084 31bb 6009 fe3b
000000d0: 1040 1dbb f7a3 2fbc 6783 a1bb b132 3c3b
000000e0: 43eb b43b 4aca 91b8 a027 243c e1d6 b33b
000000f0: 805c 2f3c 8b68 97bb bbea 5cbb c7b0 573c
00000100: d209 443c 39ac c6bb d028 143c 3fb6 863b
00000110: e157 2bbc 2024 d53a 332b 7c3c 6656 00bc
00000120: 335a 7dbb 3892 35bb d30d c2ba b973 343c
00000130: f21a d23a f07d 723b b808 923b f207 813b
00000140: d2eb 0a3c 0f7b adbb 3294 d33a ca7d e0b9
00000150: 9762 71bb a30e 1e3c 6811 283c a3b9 90bb
00000160: 966c 81bc 3774 ab3b 61cf 0cbc 3269 5d3b
00000170: 48ed dfbb 0f9e 19bc 9e31 9aba 4a09 5e3b
00000180: 3c18 493c 1d2e b33a a45d 0d3c d9c9 92ba
00000190: 7d3b e03b b8ed f13b 6be2 ba3b d1e5 ac3a
000001a0: c97a 173c f291 723b c926 a7bb db35 20ba
000001b0: b012 b3bb cb05 d03a 3fdc abbb b6ff 833b
000001c0: ae39 b93b b41e 24bc 9523 67bb c267 94bb
000001d0: 984f dabb a3fb 1fbc e541 20bb 80df 653b
000001e0: f492 aabb 0735 f1bb 54ca 133b 9a56 16bb
000001f0: cf26 b4bb bfda 11bc f373 e23b 3355 e73b
00000200: c3a4 423b 6da7 8a37 07ed 2fbc a3ad 263b
00000210: b533 4abc 98e7 643c c523 8b3a c3a6 cbbb
00000220: a9c5 25bc 9342 e3bb 1994 8e3a 5037 37bb
00000230: cd6e 03bc 35ad 083c 2b8d 24bb d6d6 3dbc
00000240: 6501 563c 00b2 8eba caea 973b 1704 ec36
00000250: e8f4 16bb 2708 86ba e356 f7b9 2d88 9839
00000260: 03dd e8bb 3ced 3b3b fa7a 20ba b041 2cbc
00000270: e365 dd3a 4f8a 8e3b 4279 05bc cd1a 59bb
00000280: bdda 7cba 3ead 2d3a 90e2 ef3b 77f1 edbb
00000290: a570 79bb 4370 dfbb 70fc 98bb 33eb 623b
000002a0: e3ce f1bb 5d16 8bbb 5be6 e3bb da74 973b
000002b0: fb1b fcbb 871e 95bb 0ac1 5e3b 7b10 87bb
000002c0: 8531 fb3b 2eaf 0f3b ba43 f3bb fa00 4abc
000002d0: 92ed 9dbb b020 5f3b b3c8 123b 5a45 91bb
000002e0: 067a c5ba 1ff3 05bc 005c a53b 1315 e13b
000002f0: f036 56bb 5fdd b5bb 432e 9339 6d66 913a
00000300: 1543 533b 080d 3f3c 8b68 c8b9 22bb b63b
00000310: 1c17 8a3b 9c45 25b9 dfa4 683a 0029 b6bb
00000320: a578 d93b 4a87 11ba f479 2abb 18aa 7bba
00000330: d8c2 0b3b 7b07 c1ba 78a9 ce3b 4b00 063a
00000340: f16f aabb bbfb b1ba a2b0 57bb 4853 d73b
00000350: 9f43 873b 1fcc 39bb 5990 4bbb 5feb 5e3c
00000360: 376b ecbb e06b f039 2cd8 953b 76a6 aa3a
00000370: 1385 193c 63a6 7aba d3a9 613a a5da 8dbb
00000380: 5bf1 5ebb a848 74bc 2210 aaba 6f19 df3b
00000390: 35c3 af3b d389 1f3c 1d4e 16bc 0249 ae39
000003a0: 8017 6d3b 1def 213c bff4 58bb a80e 8ebb
000003b0: 353f 8a3b d63e b7bb 32fd caba 8814 a9b9
000003c0: 3f04 28ba ca79 98bb e4a9 13bb 6d81 433c
000003d0: 47d3 bd3b 8250 2abb 22e5 533b eab4 04bc
000003e0: 9776 9dbb 5603 823b bfdc cd3a 2e4a 293b
000003f0: 7f9e ee3a 28bb 5dba 4ba6 c2bb e7ae c73b
