Assets/results/1719/saveBeforeDisaster.onnx (onnx, 296406 bytes, 13 tensors)

discrete_act_size_vector f4 [1, 4]
2.0 2.0 2.0 2.0
00000000: 0000 0040 0000 0040 0000 0040 0000 0040

network_body._body_endoder.seq_layers.0.weight f4 [256, 12]
0.15660891 0.021032467 0.07136395 -0.31261972 0.24647127 -0.1694412 -0.30736756 0.564569
0.4447072 0.36492437 0.016932918 0.049173426 0.26112205 -0.41433382 0.28646564 0.70968103
-0.68265545 -0.11053676 -0.38207743 0.27640045 0.41856238 -0.084368065 -0.16725406 0.33535746
0.2083055 0.19529454 -0.33270815 0.071529076 -0.03971586 0.22082804 -0.10608516 -0.07723804
-0.13649282 0.2058833 0.2619956 -0.38781372 0.03955963 -0.15471204 -0.112381674 -0.13878524
-0.059051327 -0.16232848 0.32682392 -0.13219602 -0.2589617 -0.04361019 0.053617578 0.12210694
-0.03400841 -0.2544155 0.21333654 -0.0019027645 0.3309218 0.12660101 0.10288843 0.0077716247
-0.047437016 0.043171015 -0.3102712 -0.25040805 -0.25172266 0.050191592 0.044100057 0.12651397
-0.41121918 -0.070950836 0.29905185 -0.19528556 -0.18413265 0.16448589 -0.05921574 0.40002543
0.079114266 -0.526644 -0.19032517 -0.61947244 -0.14263077 -0.14238249 -0.086193696 -0.25874633
0.20097719 0.015158445 -0.41898984 -0.0928567 0.45160156 0.022913732 -0.08558413 0.08814948
0.037994783 -0.21891628 0.111472145 -0.3368705 -0.35425898 -0.42461795 0.21601275 -0.39645407
0.45994842 -0.5336352 -0.22068681 -0.09322094 -0.0064083072 -0.33155507 -0.009858854 -0.27260482
-0.2696239 -0.10977052 -0.06393079 -0.08520823 -0.2848161 -0.26154768 0.3751327 -0.27863914
0.12066837 0.28746885 0.34837303 0.62148184 -0.027445257 0.6666077 0.18926467 -0.08723179
-0.1605983 0.09694707 -0.16137329 0.07809502 0.4062709 -0.2869921 -0.32900724 -0.12180884
-0.15418403 0.33103612 0.24166359 -0.19456157 -0.021053817 -0.014475675 -0.14330325 0.80915374
0.25590932 -0.21797939 0.008688356 0.3327787 0.23118638 0.2948763 -0.6194504 -0.52233505
0.08909657 0.20802546 -0.62244153 0.120700985 -0.30226925 -0.40043756 0.23670086 -0.24575005
-0.19994874 0.12875205 -0.42595202 -0.1376765 0.021842372 -0.10203849 -0.05135083 -0.014014654
0.027659083 -0.19742508 0.47174343 0.4594167 0.8186592 0.040277217 -0.49295866 0.04347277
-0.06704988 0.020814093 -0.59452367 -0.37659383 -0.6985238 0.42926726 -0.0087081315 0.17534842
0.19573225 0.4043138 -0.43788236 0.3382767 -0.6245948 -0.21573557 -0.32013342 -0.063297406
-0.22439456 -0.43630952 0.5910757 0.6015707 -0.010156811 -0.062402952 0.29444394 0.076337725
0.09212293 0.19215944 -0.1443309 -0.27698976 -0.22533724 -0.28443947 0.35701945 -0.30809847
0.15669641 0.056513563 -0.36349624 -0.054770153 -0.016989375 -0.035213616 -0.1943493 0.09021007
-0.0029330885 0.26408455 0.04866184 0.29776338 -0.11364148 0.09668186 0.32653996 -0.358892
-0.31261998 0.27761304 -0.090254955 0.022780944 -0.34463948 0.010186606 -0.071404666 0.37460238
0.2628467 0.34755844 -0.20148526 0.08268536 -0.10337496 0.2095578 0.021509191 0.29275858
0.39649767 0.08171876 -0.04104823 -0.45554623 -0.09964666 0.11717319 -0.027950116 -0.6574557
0.06937573 0.03871997 0.43781757 0.29123902 -0.6163334 -0.11640694 0.56093156 -0.21372043
0.5204766 -0.12882894 0.48232654 0.05001445 0.47474134 -0.09218651 0.29073253 0.20538683
00000000: 165e 203e 484c ac3c 4327 923d b10f a0be
00000010: f762 7c3e fe81 2dbe 485f 9dbe 9887 103f
00000020: aab0 e33e 5ed7 ba3e e7b6 8a3c 136a 493d
00000030: cab1 853e 9023 d4be a0ab 923e a8ad 353f
00000040: 82c2 2ebf 1961 e2bd a79f c3be 5c84 8d3e
00000050: cf4d d63e 2ac9 acbd a644 2bbe f9b3 ab3e
00000060: 094e 553e 4bfb 473e b958 aabe d67d 923d
00000070: 19ad 22bd bf20 623e 2d43 d9bd fa2e 9ebd
00000080: c6c4 0bbe 12d3 523e 4a24 863e 858f c6be
00000090: 4709 223d d56c 1ebe 5d28 e6bd b81d 0ebe
000000a0: cedf 71bd 7039 26be 7755 a73e 655e 07be
000000b0: a196 84be 99a0 32bd 1b9e 5b3d 3413 fa3d
000000c0: 674c 0bbd c042 82be e574 5a3e 2f66 f9ba
000000d0: 956e a93e b2a3 013e 2bb7 d23d 1da9 fe3b
000000e0: 514d 42bd 17d4 303d dedb 9ebe 7c35 80be
000000f0: cbe1 80be b395 4d3d 43a2 343d e18c 013e
00000100: 528b d2be ac4e 91bd 531d 993e f0f8 47be
00000110: 458d 3cbe fd6e 283e 348c 72bd 22d0 cc3e
00000120: a906 a23d 24d2 06bf 9ae4 42be bf95 1ebf
00000130: cd0d 12be b7cc 11be 5286 b0bd 667a 84be
00000140: f7cc 4d3e 205b 783c d685 d6be a72b bebd
00000150: 5238 e73e 94b5 bb3c bb46 afbd b787 b43d
00000160: 6ba0 1b3d 972b 60be 824b e43d 4a7a acbe
00000170: 6f61 b5be 8667 d9be 7232 5d3e 07fc cabe
00000180: 5c7e eb3e 519c 08bf b9fb 61be 9fea bebd
00000190: c7fc d1bb 96c1 a9be 0887 21bc dc92 8bbe
000001a0: 250c 8abe 5ecf e0bd 25ee 82bd a781 aebd
000001b0: 6ad3 91be 94e9 85be 6511 c03e caa9 8ebe
000001c0: fa20 f73d 1e2f 933e f35d b23e 6f19 1f3f
000001d0: e0d4 e0bc cda6 2a3f 99ce 413e 95a6 b2bd
000001e0: e173 24be 2f8c c63d 0a3f 25be 48f0 9f3d
000001f0: bd02 d03e a1f0 92be a373 a8be ea76 f9bd
00000200: 6be2 1dbe 917d a93e a976 773e 263b 47be
00000210: 0e79 acbc 622b 6dbc 16be 12be b324 4f3f
00000220: 8c06 833e fd35 5fbe 9b59 0e3c f861 aa3e
00000230: 1fbc 6c3e 07fa 963e 4d94 1ebf c0b7 05bf
00000240: 4378 b63d a004 553e 5458 1fbf 1432 f73d
00000250: 09c3 9abe 2706 cdbe b661 723e e7a5 7bbe
00000260: 5dbf 4cbe 94d7 033e 6216 dabe 12fb 0cbe
00000270: c6ee b23c 8ef9 d0bd 3f55 52bd b89d 65bc
00000280: 4d95 e23c cd29 4abe 5b88 f13e aa38 eb3e
00000290: a693 513f b9f9 243d 1465 fcbe 8110 323d
000002a0: 7351 89bd 5182 aa3c b432 18bf e8d0 c0be
000002b0: 75d2 32bf ebc8 db3e 8dac 0ebc 898e 333e
000002c0: 096e 483e 3802 cf3e 1e32 e0be 9b32 ad3e
000002d0: 72e5 1fbf c9e9 5cbe 87e8 a3be 12a2 81bd
000002e0: b0c7 65be f663 dfbe bd50 173f 8a00 1a3f
000002f0: c168 26bc 3d9a 7fbd 5bc1 963e f456 9c3d
00000300: f2aa bc3d 72c5 443e 7bcb 13be 9ad1 8dbe
00000310: cebe 66be 0da2 91be 41cb b63e 15bf 9dbe
00000320: 0675 203e c47a 673d 2e1c babe ab56 60bd
00000330: 4d2d 8bbc 273c 10bd 8103 47be 0fc0 b83d
00000340: 0f39 40bb 1736 873e a351 473d 7174 983e
00000350: ddbc e8bd 2401 c63d 3f30 a73e b1c0 b7be
00000360: ba0f a0be 4c23 8e3e 97d7 b8bd 1a9f ba3c
00000370: 9674 b0be b9e5 263c 9c3c 92bd e2cb bf3e
00000380: d893 863e 2ef3 b13e 2752 4ebe f156 a93d
00000390: 40b6 d3bd 5296 563e 0b34 b03c 74e4 953e
000003a0: be01 cb3e 2a5c a73d 3022 28bd 5b3d e9be
000003b0: 8c13 ccbd 7ff8 ef3d a4f7 e4bc 044f 28bf
000003c0: dd14 8e3d d598 1e3d a029 e03e 481d 953e
000003d0: 07c8 1dbf c366 eebd 3699 0f3f 87d9 5abe
000003e0: f43d 053f bceb 03be 81f3 f63e f4db 4c3d
000003f0: 4c11 f33e 48cc bcbd e5da 943e ed50 523e

network_body._body_endoder.seq_layers.0.bias f4 [256]
0.0027487788 0.014402354 0.005063662 0.005303429 -0.013735676 -0.018602123 0.0405713 0.008997087
-0.04729856 0.014584208 -0.029089104 0.009344194 -0.012667923 0.000184335 0.012046743 -0.02677876
-0.009550466 0.038031287 0.016755886 -0.018585745 -0.018543335 -0.017642474 -0.02875748 -0.015270458
-0.011690411 -0.043778125 -0.02903212 -0.009279032 0.01013175 -0.006046247 0.013121284 -0.00967727
0.005044809 -0.0034999126 0.017558604 0.030541522 0.019104064 -0.031307764 0.042753115 0.015856475
0.0026376615 0.0072395364 0.02785668 -0.00044420548 -0.0156801 -0.00868266 -0.020319995 0.002197282
-0.001263221 -0.01250445 -0.018862158 -0.00040160233 -0.02529547 0.010683476 0.022386499 -0.0116581395
0.04410269 0.0015456609 -0.02953713 -0.0061043496 -0.019288518 -0.013532222 0.009065506 0.024825705
-0.01867871 -0.02021451 -0.02021685 0.009043075 -0.011445255 0.065197594 -0.0031093243 0.0052531012
-0.022111455 0.08910773 0.032092333 -0.036497183 -0.021732425 -0.034428228 -0.02086021 -0.028733972
-0.022695644 -0.0029772937 -0.0071445378 -0.0059946007 0.021453422 -0.05094552 0.013052796 -0.0024573402
0.0050900374 -0.016936341 -0.015763389 -0.032596637 -0.008772301 0.013894589 -0.013615499 -0.062498815
0.06093933 -0.020424621 -0.008007763 -0.012191617 -0.014377094 0.00024578092 -0.00994177 -0.0057519847
0.017256461 0.007738973 0.024691058 -0.0058343085 -0.012174325 -0.03157403 -0.04306519 -0.021961866
-0.0059137377 0.021375611 -0.016172633 0.018377328 0.0074399537 0.040709943 -0.03882152 0.035000186
-0.015269171 -0.0062879375 0.004606401 -0.014266672 -0.0049462155 -0.025444614 -0.0402697 0.023658128
-0.017685128 -0.022060148 0.008425979 -0.023759048 -0.022041317 -0.053348687 -0.019492555 -0.025893802
0.014715877 0.030090086 0.0072125164 -0.012195808 0.015796067 0.0177321 0.00968717 -0.03408104
-0.0003379478 0.02503377 0.013088671 -0.047834955 -0.038260575 -0.0090463925 -0.021931414 -0.026182353
0.024075305 -0.00548086 -0.026651684 0.035379812 0.075563796 -0.018386204 -0.027711177 0.005510207
-0.021392724 -0.0063603725 -0.016581632 -0.027782127 0.06288414 -0.004613207 -0.01187107 -0.030883469
0.017188726 -0.02708094 0.0055393837 0.0068500172 -0.03880567 0.01919434 -0.021719722 0.016581463
-0.0067002675 -0.013426564 -0.006069201 0.007737997 0.028372236 -0.015582027 -0.016731802 -0.014289894
-0.009026624 -0.010211122 -0.010776305 0.013795536 -0.0013765764 -0.044150285 -0.024256147 -0.0076860413
-0.0024022404 0.021501403 -0.009834541 0.056037538 0.0842278 -0.034809083 -0.0041500027 -0.002367157
-0.007474095 0.013752818 -0.010052845 -0.03057922 0.07340179 -0.019250033 -0.029687682 -0.017008202
0.050803836 0.020433357 -0.03242797 0.0020413052 0.001151928 -0.04747486 -0.019930545 0.012888678
-0.011037764 0.0026365614 -0.026029643 0.031928875 0.03440134 0.017949443 -0.0064241774 -0.01323554
0.010083108 -0.016303165 -0.0012293012 0.013450227 -0.0118960645 0.033418532 -0.025593631 0.015154921
0.018798482 -0.0122274095 0.073633224 -0.006001737 0.00010422867 0.012644013 0.01902118 0.02120374
-0.01875423 -0.03428122 0.002588518 -0.012825147 -0.017720683 -0.02148794 -0.02765424 -0.03379519
-0.042877115 0.009530167 -0.02063254 0.0021963597 -0.0077312314 0.057808142 -0.029518772 -0.006830479
00000000: db24 343b daf7 6b3c 13ed a53b 63c8 ad3b
00000010: 9a0b 61bc 7b63 98bc 172e 263d 8568 133c
00000020: 23bc 41bd 9af2 6e3c 464c eebc 6418 193c
00000030: 1f8d 4fbc 0d4a 4139 b45f 453c 215f dbbc
00000040: 8f79 1cbc b2c6 1b3d a443 893c 2241 98bc
00000050: 31e8 97bc f386 90bc cf94 ebbc f130 7abc
00000060: 2389 3fbc b150 33bd c5d4 edbc 1507 18bc
00000070: a4ff 253c 991f c6bb a7fa 563c 6a8d 1ebc
00000080: ed4e a53b ca5e 65bb 10d7 8f3c 3732 fa3c
00000090: 2080 9c3c 923c 00bd e41d 2f3d 70e5 813c
000000a0: 9edc 2c3b a239 ed3b b133 e43c 40e4 e8b9
000000b0: 8e73 80bc b741 0ebc 1e76 a6bc 4600 103b
000000c0: aa92 a5ba 77df 4cbc d084 9abc 278e d2b9
000000d0: 7238 cfbc bf09 2f3c e463 b73c c801 3fbc
000000e0: 06a5 343d c697 ca3a daf7 f1bc ff06 c8bb
000000f0: f402 9ebc 41b6 5dbc 7d87 143c 475f cb3c
00000100: 1804 99bc e698 a5bc cf9d a5bc 6829 143c
00000110: e184 3bbc 5186 853d cec5 4bbb 3522 ac3b
00000120: 1523 b5bc 1d7e b63d 4073 033d 127e 15bd
00000130: 3308 b2bc 9d04 0dbd 08e3 aabc 8263 ebbc
00000140: 37ec b9bc b31e 43bb ba1c eabb 5b6e c4bb
00000150: 16bf af3c 40ac 50bd 65db 553c 540b 21bb
00000160: 54ca a63b 15be 8abc 3922 81bc 0d84 05bd
00000170: b2b9 0fbc 21a6 633c 8b13 5fbc c2fe 7fbd
00000180: 859b 793d 8951 a7bc fe32 03bc 59bf 47bc
00000190: e78d 6bbc 28dc 8039 cee2 22bc 257b bcbb
000001a0: 6c5d 8d3c 3697 fd3b e744 ca3c ba2d bfbb
000001b0: d276 47bc c553 01bd 2065 30bd 5fe9 b3bc
000001c0: 07c8 c1bb e81b af3c 787c 84bc 0d8c 963c
000001d0: dbca f33b 78bf 263d 5003 1fbd 5b5c 0f3d
000001e0: 8c2b 7abc 0b0b cebb 4bf1 963b c2be 69bc
000001f0: dd13 a2bb 3971 d0bc d7f1 24bd b1ce c13c
00000200: 67e0 90bc 7cb7 b4bc 1e0d 0a3c 56a2 c2bc
00000210: fe8f b4bc 2784 5abd daae 9fbc 3d1f d4bc
00000220: dd1a 713c 7c7f f63c f956 ec3b edd0 47bc
00000230: c166 813c e942 913c f0b6 1e3c 9098 0bbd
00000240: 962e b1b9 9f13 cd3c dd71 563c 96ee 43bd
00000250: 1fb7 1cbd 5237 14bc 82a9 b3bc 607c d6bc
00000260: 9339 c53c c998 b3bb a254 dabc 6cea 103d
00000270: 31c1 9a3d aa9e 96bc 8d02 e3bc f78e b43b
00000280: cb3f afbc ac6a d0bb 34d6 87bc 5897 e3bc
00000290: 66c9 803d 632a 97bb e07e 42bc 54ff fcbc
000002a0: 5fcf 8c3c d9d8 ddbc b883 b53b 1c76 e03b
000002b0: b2f2 1ebd 733d 9d3c 8fed b1bc d9d5 873c
000002c0: eb8d dbbb 17fb 5bbc 26e0 c6bb 068f fd3b
000002d0: e46c e83c c24b 7fbc 2211 89bc 2920 6abc
000002e0: 68e4 13bc 8d4c 27bc 198f 30bc ac06 623c
000002f0: 3d6e b4ba eed6 34bd d4b4 c6bc 30db fbbb
00000300: e86e 1dbb b623 b03c 0e21 21bc 9e87 653d
00000310: a07f ac3d f893 0ebd bffc 87bb 4e22 1bbb
00000320: 41e9 f4bb 8053 613c b0b4 24bc 4681 fabc
00000330: ad53 963d 3fb2 9dbc 9533 f3bc c954 8bbc
00000340: af17 503d db63 a73c 31d3 04bd 6bc7 053b
00000350: 4afc 963a 0075 42bd 6245 a3bc 092b 533c
00000360: bdd7 34bc 29ca 2c3b 1e3c d5bc dac7 023d
00000370: 6be8 0c3d b60a 933c e881 d2bb e1d9 58bc
00000380: 9f33 253c 378e 85bc 8120 a1ba 575e 5c3c
00000390: b6e7 42bc dfe1 083d bca9 d1bc 594c 783c
000003a0: 46ff 993c 7955 48bc 04cd 963d 38aa c4bb
000003b0: 5795 da38 d628 4f3c 4ed2 9b3c 77b3 ad3c
000003c0: 79a2 99bc 776a 0cbd 20a4 293b 9120 52bc
000003d0: f72a 91bc 7a07 b0bc 258b e2bc d36c 0abd
000003e0: ea9f 2fbd 6b24 1c3c 9305 a9bc cdf0 0f3b
000003f0: 4556 fdbb 3bc8 6c3d 5ad1 f1bc 36d2 dfbb

network_body._body_endoder.seq_layers.2.weight f4 [256, 256]
-0.07801914 0.027163742 -0.015265493 0.048531417 -0.076263085 -0.03174289 0.07112755 -0.09728899
0.051859457 0.053420622 -0.027022596 0.11642685 0.08969908 0.08317897 -0.09009146 -0.08700811
-0.023135077 0.03176555 0.09431508 -0.11281501 0.0065080137 0.07399785 -0.036284685 0.010043346
0.054673363 -0.00899575 -0.04474235 -0.056455728 0.035896577 -0.0063977917 0.03673705 -0.04194007
-0.028634518 -0.031677514 -0.06896662 -0.047268115 0.053207856 -0.039314844 -0.040269658 0.022565318
-0.11350472 -0.1465674 -0.013791431 0.03811463 -0.041118715 0.04989624 0.05728375 0.0015324985
0.001537004 0.0075812577 -0.009246287 0.039961264 -0.11889315 -0.13351798 0.062312778 -0.032575227
0.041336928 0.05425926 -0.008745308 -0.032098856 -0.0052248226 -0.06956509 0.02581132 -0.011140339
0.03544602 -0.08309506 -0.01258621 -0.06022283 0.04876496 0.0818933 0.007049586 -0.04424029
-0.105111 0.057461567 -0.080310576 -0.052504964 0.037878666 0.08650602 0.03852482 0.009304816
0.0085506225 -0.089474685 0.08179347 -0.016285049 -0.04750266 -0.026018368 0.04932376 0.040718734
0.042783286 0.010955288 -0.038969953 0.115558386 0.093632735 0.06833729 -0.08256426 0.047767017
0.071388766 0.11136998 -0.084020376 -0.056377057 0.020764334 -0.034674414 -0.074322335 -0.075301446
-0.054253276 -0.04439794 -0.045685854 -0.02023333 0.09125852 -0.08158413 -0.022649731 -0.02223691
-0.10133368 -0.07616633 0.039630886 0.020212712 0.020433066 -0.013970462 -0.11273366 -0.047362633
0.012978979 0.078844845 -0.08555125 -0.010200104 0.06085736 0.112108245 -0.061715763 -0.0008101562
0.083161436 0.041890506 -0.034154836 0.012240609 0.031335082 -0.08129834 0.030641591 -0.009738984
0.06378209 -0.07223613 -0.02192339 -0.0057875547 -0.026540864 0.023283849 -0.054992743 0.022466263
-0.10831675 -0.042487334 0.007879505 0.009400576 0.07364909 -0.010332344 -0.0009829326 -0.028040214
-0.010299505 -0.092883624 -0.08294868 0.010652729 -0.04105698 -0.09311736 -0.071065284 0.15580553
-0.02742901 0.08407283 -0.08219443 0.05319697 -0.03571303 -0.044703506 -0.003689823 -0.08858514
0.0012224483 -0.015806478 0.0018957102 -0.045022096 0.008215979 -0.07234034 0.01739592 0.09796339
-0.00615508 -0.016480071 -0.04538705 -0.008114583 0.033910498 -0.06530542 -0.06970635 -0.011063439
-0.009857158 -0.042102262 -0.100064114 -0.029174522 0.016807357 0.037579376 0.032579273 0.0150191
0.04783575 0.018175734 -0.007843873 -0.013337782 0.0567901 0.0033687626 0.103822105 -0.02723894
0.04062829 0.025353095 -0.01697656 -0.04238811 -0.007420933 0.13372055 0.012349257 -0.058618426
-0.032616466 0.09853798 0.018139524 0.01783408 0.09182882 -0.013340186 0.07057748 -0.079790786
-0.020131772 0.03814739 0.04141455 0.14178711 0.094260685 0.03940918 0.036023166 0.002320799
-0.0013624768 0.04540466 0.007995928 0.012266594 -0.02711717 0.016326094 -0.0020587645 0.032162987
-0.15201904 0.081938095 -0.028194994 -0.0329343 0.0036521612 0.114767805 0.0020300257 0.098410025
-0.023860324 0.09068672 0.022285657 -0.0258637 0.0234032 0.069052376 0.02463166 -0.11227662
0.043809343 0.093996525 -0.05913683 0.09016143 0.09435896 0.005720141 0.108754836 0.003567099
00000000: 80c8 9fbd 7f86 de3c 1e1c 7abc e1c8 463d
00000010: d22f 9cbd d504 02bd 52ab 913d 733f c7bd
00000020: 956a 543d 95cf 5a3d 7e5e ddbc 3371 ee3d
00000030: 27b4 b73d bc59 aa3d df81 b8bd 4f31 b2bd
00000040: c685 bdbc 981c 023d 4428 c13d 8e0b e7bd
00000050: 2d41 d53b 2f8c 973d 409f 14bd d98c 243c
00000060: 2df1 5f3d e962 13bc c143 37bd 1f3e 67bd
00000070: 4a08 133d 91a4 d1bb 9779 163d 5ac9 2bbd
00000080: f092 eabc 48c0 01bd 5f3e 8dbd 369c 41bd
00000090: 7bf0 593d 9a08 21bd ccf1 24bd e7da b83c
000000a0: 2a75 e8bd c415 16be 74f5 61bc 161e 1c3d
000000b0: 196c 28bd 0060 4c3d 5ea2 6a3d 1ede c83a
000000c0: 4c75 c93a 336c f83b bd7d 17bc 6cae 233d
000000d0: 407e f3bd f0b8 08be af3b 7f3d 9a6d 05bd
000000e0: e950 293d f53e 5e3d 7b48 0fbc 177a 03bd
000000f0: fd34 abbb 2478 8ebd 4372 d33c f885 36bc
00000100: d92f 113d be2d aabd 6436 4ebc 37ac 76bd
00000110: c4bd 473d adb7 a73d 3700 e73b 4e35 35bd
00000120: 7044 d7bd d25c 6b3d df79 a4bd 720f 57bd
00000130: a926 1b3d 112a b13d 34cc 1d3d 3a73 183c
00000140: e917 0c3c 813e b7bd 5683 a73d 3968 85bc
00000150: 2692 42bd 7924 d5bc b607 4a3d b0c8 263d
00000160: 873d 2f3d cf7d 333c f59e 1fbd e0a9 ec3d
00000170: 85c2 bf3d 6cf4 8b3d 7317 a9bd 59a7 433d
00000180: 4634 923d f215 e43d e012 acbd a1eb 66bd
00000190: f719 aa3c c206 0ebd 4f36 98bd a537 9abd
000001a0: af38 5ebd 9dda 35bd 1721 3bbd 5ec0 a5bc
000001b0: bfe5 ba3d 9515 a7bd ee8b b9bc 2e2a b6bc
000001c0: 0888 cfbd 18fd 9bbd ff53 223d 2195 a53c
000001d0: 3f63 a73c 5de4 64bc e8e0 e6bd 52ff 41bd
000001e0: c9a5 543c 6879 a13d 7e35 afbd 561e 27bc
000001f0: 9145 793d 0299 e53d abc9 7cbd aa60 54ba
00000200: 8b50 aa3d 6195 2b3d f1e5 0bbd d68c 483c
00000210: 3759 003d be7f a6bd 1304 fb3c 4290 1fbc
00000220: 2fa0 823d 89f0 93bd ae98 b3bc 87a5 bdbb
00000230: 3a6c d9bc c5bd be3c 1240 61bd 2b0b b83c
00000240: 2cd5 ddbd 3307 2ebd 0a19 013c e004 1a3c
00000250: 56d5 963d fe48 29bc bfd5 80ba 97b4 e5bc
00000260: 41bf 28bc c539 bebd ffe0 a9bd c988 2e3c
00000270: 5d2b 28bd 50b4 bebd ad8a 91bd 7c8b 1f3e
00000280: ceb2 e0bc 602e ac3d 8e55 a8bd 11e5 593d
00000290: d347 12bd 061b 37bd f5d0 71bb 206c b5bd
000002a0: 8f3a a03a 967c 81bc 7b79 f83a 1769 38bd
000002b0: 509c 063c 2c27 94bd e381 8e3c 08a1 c83d
000002c0: 8eb0 c9bb 3701 87bc c5e7 39bd 07f3 04bc
000002d0: bce5 0a3d d9be 85bd 34c2 8ebd 6d43 35bc
000002e0: eb7f 21bc 6c73 2cbd 6aee ccbd 68ff eebc
000002f0: 95af 893c d5ec 193d d871 053d ac12 763c
00000300: 6bef 433d 47e5 943c 9783 00bc b686 5abc
00000310: bc9c 683d 75c6 5c3b afa0 d43d 3324 dfbc
00000320: da69 263d 4bb1 cf3c 6d12 8bbc 289f 2dbd
00000330: 4c2b f3bb 0aee 083e 8a54 4a3c e019 70bd
00000340: d898 05bd 48ce c93d 5799 943c c718 923c
00000350: c010 bc3d cc90 5abc ed8a 903d 5a69 a3bd
00000360: 63eb a4bc 7040 1c3d 4ea2 293d a430 113e
00000370: bf0b c13d 856b 213d 078d 133d 8c18 183b
00000380: 2395 b2ba 3dfa 393d 5a01 033c d3f9 483c
00000390: d424 debc 4dbe 853c 56ec 06bb 56bd 033d
000003a0: e1aa 1bbe 29cf a73d 30f9 e6bc 1ee6 06bd
000003b0: 1959 6f3b 620b eb3d 2e0a 053b 328b c93d
000003c0: ba76 c3bc f6b9 b93d 6990 b63c 1ce0 d3bc
000003d0: 11b8 bf3c 556b 8d3d 56c8 c93c 49f1 e5bd
000003e0: 6d71 333d 4081 c03d 7639 72bd 8ea6 b83d
000003f0: 453f c13d 0570 bb3b dbba de3d fec5 693b

network_body._body_endoder.seq_layers.2.bias f4 [256]
0.0039494014 -0.013263619 0.0063094487 0.046866097 0.013371494 -0.011367035 0.029016515 -0.009551964
0.016936349 0.021521924 -0.005889661 0.0150879985 0.008089288 -0.0005213308 0.005801715 0.013325129
0.0066621583 0.018441955 -0.0014474822 0.0008317206 0.030674662 0.025880462 0.022398636 -0.003087482
0.0052705887 0.0011338474 -0.0049687987 -0.01595488 0.044356126 -0.0130874235 0.03553363 0.0073726648
0.0010454422 0.035663567 0.025328938 0.007666747 0.021508744 -0.025688052 0.01858479 0.002569918
0.028368678 -0.011388825 0.042797364 0.029909072 0.009248038 -0.0037592659 0.010298268 0.020604728
-0.0045557185 -0.008094083 0.042529635 0.04227966 0.013122319 0.001750493 0.011815821 0.025782453
0.022153443 0.029665407 0.012769732 0.026211655 0.007336953 0.018493118 -0.0053477697 0.019969406
0.017830024 0.022229295 0.014178635 -0.006627274 -0.0018375284 0.015106204 -0.010117611 0.019281622
0.0003391938 0.06785412 0.0014540879 0.015428245 -0.02617346 0.013010419 0.009280631 0.019508414
-0.004771673 0.015732815 0.012510307 0.019858671 -0.0065634856 -0.008358022 0.029264273 0.035716385
0.009267153 0.0047946773 0.0044354987 0.021552753 0.055856626 0.011875853 -0.020587334 0.03327812
-0.014256099 0.0369287 0.0076287976 -0.025316205 -0.010593763 0.017646674 0.0034733014 0.0173708
-0.017420692 0.033840206 -0.016734336 0.028012928 0.0028696428 0.029086541 -0.012766207 -0.01945979
-0.008116213 0.014268294 0.02844161 0.0143089015 -0.00430004 0.01543283 -0.028129496 0.017572965
0.03184479 -0.0017560334 -0.007485685 0.007981746 0.023559375 0.018259116 0.008176971 -0.002021977
-0.0032979385 0.0012979568 0.003413803 0.015525943 -0.012906057 -0.009426225 -0.013236727 0.024683706
0.0037898938 -0.012558552 -0.0054205633 0.01696038 0.022833457 0.023817712 0.002927619 0.022121599
-1.2898148e-05 -0.007169519 0.020354098 0.032337103 0.021962063 0.012613515 -0.005681447 0.00081485085
-0.0033094215 -0.007241115 -0.0025064738 0.014968 0.031626895 -0.002438407 0.006309394 0.012200902
0.0043082596 -0.001653462 0.0016465706 -0.019068882 0.026680669 0.017874375 -0.006147346 -0.0023787331
0.031226117 0.033146497 0.012493457 0.014183582 0.014081686 -0.020192849 0.0023097126 0.010042512
0.012129289 0.031672694 0.0075637694 -0.0030301393 -0.016665926 0.008327176 0.025235556 -0.007134038
0.02101013 0.009968306 0.026516123 0.0014474201 0.002496957 0.0124491695 0.037393052 0.016482687
0.001548927 -0.01956454 0.026792813 0.04368579 0.02533752 0.016429806 0.0076713306 0.00090287236
0.0032767237 0.036959115 0.025709424 0.035697836 -0.0067215865 0.060810495 0.010715498 -0.0033168916
-0.006149548 0.005833431 0.040769335 0.028256582 -0.025487388 0.039838374 0.0018066317 -0.014725734
-0.0045908894 0.0007684751 -0.020571897 0.0038125527 0.012671326 0.009880515 -0.01003335 0.035535276
-0.0045721964 0.013090099 0.011921534 0.00070899253 0.04122208 0.013916351 0.034723338 0.005149434
0.0059764017 0.021344777 -0.0021791554 0.012639393 -0.021891199 0.018883638 0.016763996 0.006744479
-0.0006837769 -0.0046947086 0.043849822 0.025196252 0.011992793 -0.008009954 0.0053525493 0.0060062264
-0.0016419947 0.012265983 0.032932524 0.023657454 0.015161384 0.006752913 -0.025217503 0.018777523
00000000: fb69 813b a64f 59bc 7ebf ce3b aaf6 3f3d
00000010: 1c14 5b3c cd3c 3abc 0bb4 ed3c d77f 1cbc
00000020: 19be 8a3c bf4e b03c 0ffe c0bb a733 773c
00000030: ef88 043c eba9 08ba 501c be3b a451 5a3c
00000040: 3c4e da3b 9513 973c 71b9 bdba d307 5a3a
00000050: 6e49 fb3c 4303 d43c 587d b73c 5a57 4abb
00000060: e7b4 ac3b 9b9d 943a 4ed1 a2bb cfb3 82bc
00000070: c5ae 353d a26c 56bc b68b 113d 6596 f13b
00000080: 3807 893a f613 123d a27e cf3c 5639 fb3b
00000090: 1b33 b03c c06f d2bc 213f 983c 126c 283b
000000a0: 6e65 e83c 3298 3abc 4a4c 2f3d df03 f53c
000000b0: 1585 173c 045e 76bb 11ba 283c 3fcb a83c
000000c0: 2348 95bb 0b9d 04bc 8e33 2e3d 702d 2d3d
000000d0: fffe 563c cc70 e53a 2597 413c b935 d33c
000000e0: 237b b53c de04 f33c 2338 513c d3b9 d63c
000000f0: d36a f03b e17e 973c 583c afbb e196 a33c
00000100: 4510 923c 361a b63c 814d 683c 9b29 d9bb
00000110: 39d9 f0ba 0380 773c 56c4 25bc 7ef4 9d3c
00000120: d2d5 b139 1af7 8a3d 1897 be3a c0c6 7c3c
00000130: b969 d6bc a729 553c ca0d 183c 1cd0 9f3c
00000140: b25b 9cbb 1be2 803c 08f8 4c3c a7ae a23c
00000150: 8212 d7bb 16f0 08bc a1bb ef3c 584b 123d
00000160: 42d5 173c ab1c 9d3b a957 913b 668f b03c
00000170: ebc9 643d f092 423c c5a6 a8bc a34e 083d
00000180: 6a92 69bc 8c42 173d fefa f93b ee63 cfbc
00000190: 7691 2dbc c28f 903c 54a0 633b 354d 8e3c
000001a0: d7b5 8ebc 079c 0a3d 7216 89bc 5e7b e53c
000001b0: 9e10 3c3b e646 ee3c 5a29 51bc 236a 9fbc
000001c0: ddf9 04bc 90c5 693c 61fe e83c e26f 6a3c
000001d0: 5ae7 8cbb fbd9 7c3c d46f e6bc 2ef5 8f3c
000001e0: af6f 023d b42a e6ba 7a4a f5bb dfc5 023c
000001f0: 97ff c03c 2494 953c b4f8 053c 2583 04bb
00000200: 3a22 58bb 3420 aa3a 1cba 5f3b 8660 7e3c
00000210: ed73 53bc 7470 1abc dbde 58bc 7c35 ca3c
00000220: de5f 783b 63c2 4dbc fb9e b1bb 7ff0 8a3c
00000230: 3b0d bb3c 5d1d c33c 4cdd 3f3b 5b38 b53c
00000240: 2065 58b7 49ee eabb a3bd a63c e973 043d
00000250: c9e9 b33c eba8 4e3c 6f2b babb b79b 553a
00000260: e1e2 58bb e046 edbb a743 24bb 583c 753c
00000270: 348b 013d aecd 1fbb 08bf ce3b 4be6 473c
00000280: 4d2c 8d3b fab8 d8ba bed1 d73a 5836 9cbc
00000290: 6b91 da3c 486d 923c ad6f c9bb 85e4 1bbb
000002a0: eacd ff3c 9fc4 073d 5bb1 4c3c 4162 683c
000002b0: dfb6 663c 796b a5bc 8c5e 173b 5989 243c
000002c0: edb9 463c 3abb 013d 7fd9 f73b 4d95 46bb
000002d0: fb86 88bc b56e 083c ccba ce3c a6c4 e9bb
000002e0: 701d ac3c 1b52 233c 5738 d93c 5cb7 bd3a
000002f0: fda3 233b 9af7 4b3c 7529 193d b306 873c
00000300: 5e05 cb3a d045 a0bc 9a7c db3c dfef 323d
00000310: a190 cf3c cd97 863c c95f fb3b bdae 6c3a
00000320: 4dbe 563b 7162 173d 929c d23c e537 123d
00000330: c140 dcbb 6d14 793d 0e90 2f3c 3560 59bb
00000340: 2682 c9bb 5e26 bf3b bffd 263d 597a e73c
00000350: edca d0bc 902d 233d 80cc ec3a 3444 71bc
00000360: 2c6f 96bb 7e73 493a 6586 a8bc 05dc 793b
00000370: 659b 4f3c e2e1 213c ec62 24bc 708d 113d
00000380: 5dd2 95bb db77 563c 8a52 433c afdb 393a
00000390: 7cd8 283d 6801 643c 0f3a 0e3d 95bc a83b
000003a0: b1d5 c33b 3edb ae3c 29d0 0ebb 7515 4f3c
000003b0: 2c55 b3bc dcb1 9a3c a654 893c ca00 dd3b
000003c0: 7e3f 33ba 12d6 99bb df9b 333d 5f68 ce3c
000003d0: 6b7d 443c 2f3c 03bc 7064 af3b e1cf c43b
000003e0: 3338 d7ba 43f7 483c 41e4 063d 47cd c13c
000003f0: 7467 783c 8a47 dd3b f094 cebc 52d3 993c

action_model._discrete_distribution.branches.0.weight f4 [2, 256]
-0.005220624 0.024389423 0.0027394083 0.05538322 -0.002940479 -0.0024701569 0.021688001 -0.0037769831
-0.0031410018 -0.01771851 0.0046643997 -0.01547456 -0.0068082022 0.07969304 0.060992915 -0.0010993726
0.0042569456 -0.0044294302 0.038440846 0.014640137 -0.0030658997 0.049057283 0.05991955 0.0075822757
-0.002103506 0.00017013458 0.016823411 -0.0034836987 0.05408078 0.0025125085 0.026914008 0.013206923
0.0026478546 0.013450734 -0.014130537 -0.0059924503 -0.0027655775 0.0033613318 0.00097009743 0.01068005
0.030455707 0.0010693262 0.04743751 0.056656107 0.0011388239 0.0030337765 -0.0013556755 0.038484663
-0.004543395 0.0048965453 0.07222504 -0.02701399 -0.011966452 0.004646341 -0.017666146 -0.009212042
-0.011671047 0.0638719 -0.00084785826 -0.013013279 0.0055569056 -0.016033918 0.0036063432 0.006952641
0.052585043 0.02235584 -0.011047852 0.028587159 0.0052723144 0.019926576 -7.5323e-05 -0.0050119194
0.053256728 0.024810785 -0.0032810974 -0.0029804325 0.0101171145 -0.013852794 -0.005564283 -0.00893464
0.022342011 -0.018475134 0.008301459 -0.013199812 0.005880329 0.016878305 -0.008916204 0.048733667
-0.0032610146 0.004539196 -0.0011666565 -0.00700074 0.046879776 0.0028685136 0.0058804806 -0.0051506804
0.017474068 0.039635133 0.0037949532 0.022393668 0.004190981 0.015791072 -0.0069650705 -0.005526441
4.1771473e-06 0.043178 -0.007545617 -0.010576271 0.02465818 -0.002187802 0.0034182824 0.006015927
0.0029780176 -0.009234797 0.05098582 -0.0005135668 -0.0029931788 -0.00787618 -0.0016505923 -0.014132023
0.012609325 -0.0018157572 0.029846622 0.010698868 -0.00076882035 0.023787415 0.03069049 0.013092017
0.004519467 -0.008812869 0.0367225 0.04275505 0.003180687 -0.0014956951 0.010085569 0.040440846
-0.0043146275 0.024397112 0.017605484 0.008630196 0.05471104 -0.003207012 0.015762305 -0.008724071
-0.0037037332 0.006158418 0.02408094 -0.00037037235 0.053194426 0.047928974 -0.005613927 0.012213169
0.0015095336 0.03651375 -0.005044066 -0.009587249 0.0497544 -0.0039381273 0.025197068 -0.008549518
0.06553539 0.0015961642 -0.009121107 0.0013494279 -0.0019066329 0.042783394 -0.0011510665 -0.007906048
0.047868587 -0.0046785735 0.03884035 0.0015921971 0.023909029 0.020796213 0.045843113 0.065783046
0.0285848 0.015452973 0.025290683 0.00802489 -0.008442982 -0.009762908 -0.013418968 -0.005287035
-0.017533882 -0.008921602 0.003402796 -0.0011992251 0.039360765 -0.019874353 -0.010119247 -0.0050061424
0.0069054095 0.0405373 0.004167497 0.02904268 0.037911758 -0.0035596523 0.00023976971 0.012141975
0.022749074 0.050023668 -0.0037369893 0.043324277 -0.004094607 0.03349867 0.007712258 0.041424777
0.006156997 0.0014373969 0.05333733 0.04576893 0.006507913 -0.020603582 0.0064471816 0.0069647203
-0.0016635963 0.0056627053 -0.0011734482 0.01658626 -0.0023531583 0.013210182 0.01249432 0.07983493
-0.0009896863 -0.007741419 -0.007951633 0.014735171 0.04261232 -0.0055234544 -0.020516168 0.0036508464
0.042686474 0.038190134 0.03456955 -0.0038526733 0.004510696 0.00545183 0.053339336 -0.009252035
0.037661813 0.038369395 0.05422462 -0.010722828 -0.008430372 0.045224354 0.00720349 0.069028296
0.026721034 0.023617001 -0.045837592 -0.015818391 -0.036092326 0.018687198 -0.0018445771 0.0024130412
00000000: c511 abbb 54cc c73c a587 333b 84d9 623d
00000010: 0db5 40bb 5be2 21bb 09ab b13c 4387 77bb
00000020: 44d9 4dbb 6926 91bc d2d7 983b 0289 7dbc
00000030: 5717 dfbb 1b36 a33d b5d3 793d d318 90ba
00000040: d97d 8b3b c124 91bb 2674 1d3d 2fdd 6f3c
00000050: 43ed 48bb 4af0 483d 346e 753d bd74 f83b
00000060: f9da 09bb 2766 3239 40d1 893c c44e 64bb
00000070: cf83 5d3d e6a8 243b c47a dc3c da61 583c
00000080: a187 2d3b 7860 5c3c c583 67bc 515c c4bb
00000090: b13e 35bb ca49 5c3b 234e 7e3a 60fb 2e3c
000000a0: 3f7e f93c a228 8c3a d64d 423d 3c10 683d
000000b0: 9744 953a 53d2 463b ecb0 b1ba 18a2 1d3d
000000c0: c2e0 94bb 3373 a03b b9ea 933d 714c ddbc
000000d0: f00e 44bc 5540 983b 98b8 90bc 1bee 16bc
000000e0: eb37 3fbc 45cf 823d ce42 5eba a635 55bc
000000f0: b416 b63b 9059 83bc 6658 6c3b fbd2 e33b
00000100: 6a63 573d 9823 b73c 0d02 35bc 9e2f ea3c
00000110: 61c3 ac3b 0f3d a33c baf6 9db8 073b a4bb
00000120: ba23 5a3d fd3f cb3c ae07 57bb 5c53 43bb
00000130: 41c2 253c d4f6 62bc 9754 b6bb 9962 12bc
00000140: 9806 b73c 2a59 97bc d802 083c 0644 58bc
00000150: c6af c03b 5f44 8a3c 4515 12bc f49c 473d
00000160: bfb6 55bb 89bd 943b 7fea 98ba 7766 e5bb
00000170: 0205 403d acfd 3b3b 0cb1 c03b 0ac7 a8bb
00000180: c725 8f3c 7358 223d c0b4 783b ed72 b73c
00000190: 7f54 893b 475c 813c 3f3b e4bb 2617 b5bb
000001a0: 6c29 8c36 6adb 303d 3941 f7bb 1948 2dbc
000001b0: f4ff c93c 3a61 0fbb 4305 603b 4121 c53b
000001c0: d82a 433b 8c4d 17bc 82d6 503d e2a0 06ba
000001d0: 3529 44bb 180b 01bc b058 d8ba 008a 67bc
000001e0: 5897 4e3c b4fe edba e780 f43c 4e4a 2f3c
000001f0: a98a 49ba d3dd c23c 9f6a fb3c e67f 563c
00000200: 0918 943b da63 10bc 556a 163d eb1f 2f3d
00000210: 1373 503b 330b c4ba f13d 253c 4da5 253d
00000220: b861 8dbb 74dc c73c 6039 903c aa65 0d3c
00000230: af18 603d bc2c 52bb f31f 813c 68ef 0ebc
00000240: 55ba 72bb 8ecc c93b 6445 c53c 892e c2b9
00000250: 66e2 593d 2c51 443d 08f5 b7bb be19 483c
00000260: 8bdb c53a 718f 153d b148 a5bb d613 1dbc
00000270: 45cb 4b3d 680b 81bb 156a ce3c 4713 0cbc
00000280: 6b37 863d 6236 d13a b270 15bc 49df b03a
00000290: fce7 f9ba a43d 2f3d 62df 96ba 5e88 01bc
000002a0: da11 443d b84e 99bb 0f17 1f3d 45b1 d03a
000002b0: dedc c33c d25c aa3c fdc5 3b3d 43b9 863d
000002c0: ac2a ea3c 772e 7d3c 682e cf3c d47a 033c
000002d0: 6f54 0abc 9bf4 1fbc 3bdb 5bbc dd3e adbb
000002e0: 37a3 8fbc e92b 12bc 7201 5f3b 512f 9dba
000002f0: c138 213d 8acf a2bc 33cb 25bc 910a a4bb
00000300: c646 e23b 710a 263d 808f 883b eaea ed3c
00000310: 5c49 1b3d 0e49 69bb b16a 7b39 22ef 463c
00000320: 445c ba3c 9ee5 4c3d 47e8 74bb cc74 313d
00000330: 0e2c 86bb e735 093d 1cb7 fc3b 07ad 293d
00000340: a2c0 c93b 0967 bc3a 3f78 5a3d 3478 3b3d
00000350: 5540 d53b d8c8 a8bc e142 d33b 4f38 e43b
00000360: 070d daba 378e b93b 63ce 99ba e9df 873c
00000370: 7237 1abb 856f 583c fab4 4c3c 7f80 a33d
00000380: 5db8 81ba bbab fdbb 9147 02bc c96b 713c
00000390: 428a 2e3d 18fe b4bb 8611 a8bc 0a43 6f3b
000003a0: 03d8 2e3d 426d 1c3d cd98 0d3d 227d 7cbb
000003b0: 76ce 933b 44a5 b23b 597a 5a3d d995 17bc
000003c0: 4643 1a3d 3a29 1d3d a31a 5e3d cdae 2fbc
000003d0: 8b1f 0abc 2c3d 393d 410b ec3b b55e 8d3d
000003e0: 12e6 da3c 7178 c13c 33c0 3bbd 9295 81bc
000003f0: 8cd5 13bd e515 993c bdc5 f1ba 1d24 1e3b

action_model._discrete_distribution.branches.0.bias f4 [2]
-0.019555062 0.019555064
00000000: f031 a0bc f131 a03c

action_model._discrete_distribution.branches.1.weight f4 [2, 256]
-0.006759179 0.012388677 -0.0020642797 0.07613794 -0.0032929648 -0.0019118154 0.022725448 0.00088740175
-0.0046198345 -0.0012105687 -0.0019516732 -0.030854182 -0.019581977 0.046662737 0.022794986 0.005578894
0.012502788 -0.0021424112 0.03718428 0.018136648 -0.024448851 0.05014773 0.05653078 -0.0037084166
0.0034304853 -0.003358719 0.023803644 -0.0059557375 0.06520352 0.0020816596 0.022307912 0.013985954
-0.0014288491 0.027750185 -0.0008155769 -0.0061050076 -0.006806821 -0.002233909 -0.0032944337 0.00078960846
0.042458706 0.003583303 0.050442386 0.04275745 0.0019501135 0.008645844 0.0003771146 0.0150091015
0.004898221 -0.010098548 0.07302341 -0.0046865754 -0.020411111 -0.0040646093 -0.009414016 -0.015648328
-0.010669109 0.06690039 0.0014720304 -0.008499639 0.003314772 -0.0032333315 0.019258523 -0.009178541
0.050201263 0.026369542 -0.009255119 0.0025246672 0.004289358 0.017745664 0.0053643486 -0.027505293
0.03459424 0.037973396 -0.009278427 -0.013744214 -0.022811327 -0.0019688571 -0.0044245697 -0.010049786
0.036229994 -0.007919488 0.004935496 -0.017598573 0.011503244 0.01607681 -0.031247873 0.029857816
-0.0033131114 -0.00074357697 -0.005097479 -0.020749828 0.06505357 0.0056581195 -0.003376472 -0.02019262
0.011562282 0.07623768 0.0008017341 -0.008061513 0.0038030243 0.031679496 0.0027856682 0.0035316912
0.01942976 0.060046945 0.008481167 -0.017623072 0.07244565 0.002385574 0.012614609 0.0009301439
-0.002456049 0.0043271715 0.047992595 -0.010854551 0.005346623 0.001746219 0.006957043 -0.014743687
0.0009025461 -0.005095537 0.022636417 -0.0025665346 -0.0015126447 0.015001693 -0.004018128 0.010938359
0.004449718 -0.018707009 0.048189968 0.028191002 -0.0007918249 -0.0008045338 0.0033832695 0.049189404
0.0077153817 0.050808758 0.01280629 0.0018853702 0.031025283 0.0048639746 0.01498045 -0.008452424
-0.021776622 0.016548125 0.031337198 -0.028584199 0.03947453 0.07119001 0.0014810108 0.000432135
0.0027369033 0.030956596 -0.007584545 -0.012725417 0.034570113 0.006154965 0.050011594 -0.01868185
0.056041155 0.00036504125 0.0028412116 -0.004510301 -0.0012834005 0.041961618 -0.0017385656 0.0030389943
0.045996666 -0.014543848 0.070783444 0.0094569735 0.00955985 -0.011388962 0.04093286 0.062160213
0.029000198 0.019151947 0.032886352 -0.0014501881 0.006177749 -0.0116504 -0.016556552 -0.007976319
-0.011014304 -0.004664472 0.01633909 0.009881612 0.022513805 -0.0003634032 -0.021672312 -0.011970064
0.006209731 0.011638728 -0.004551437 0.037533168 0.021173334 -0.016330421 0.007208224 0.040150788
0.012685161 0.04101064 -0.02125138 0.065207005 -0.0037644093 0.04984569 0.026002938 0.034012277
0.01922503 0.002809611 0.038769424 0.04340797 0.0009373096 -0.035971284 0.0019776898 0.002870446
0.0054403213 -0.003845903 -0.0067658722 0.018357046 -0.0040883296 -0.012208956 -0.0057328236 0.07115538
0.011128882 -0.0066959816 -0.010345647 0.0052771606 0.06019749 0.0029783677 -0.026183655 -0.011309929
0.022426423 0.0550244 0.043984726 -0.015612144 -0.012706225 -0.009657731 0.048386153 0.011571192
0.0339176 0.015915178 0.06492257 -0.00804099 -0.022059498 0.0141185215 0.0092917215 0.05632435
0.03343918 0.03897793 0.0300241 -0.024864808 -2.7555652e-05 0.02117007 0.0041578645 0.01667654
00000000: 1a7c ddbb e1f9 4a3c de48 07bb 35ee 9b3d
00000010: c8ce 57bb e195 faba b82a ba3c 86a0 683a
00000020: fb61 97bb f2ab 9eba 49cf ffba e9c1 fcbc
00000030: 626a a0bc 6d21 3f3d 8dbc ba3c 28cf b63b
00000040: 7ed8 4c3c b267 0cbb 8b4e 183d 4f93 943c
00000050: f548 c8bc b567 4d3d d28c 673d e808 73bb
00000060: fed1 603b f41d 5cbb dcff c23c 5928 c3bb
00000070: 6c89 853d 746c 083b 15bf b63c 5825 653c
00000080: 3848 bbba 5b54 e33c 70cc 55ba 840c c8bb
00000090: c10b dfbb c666 12bb 6de7 57bb bafd 4e3a
000000a0: 2ee9 2d3d d9d5 6a3b ad9c 4e3d 7022 2f3d
000000b0: f39a ff3a 4ca7 0d3c 77b7 c539 bce8 753c
000000c0: 4281 a03b 6174 25bc 4c8d 953d d891 99bb
000000d0: 3435 a7bc 6a30 85bb 3f3d 1abc ec30 80bc
000000e0: 7dcd 2ebc 1203 893d 25f1 c03a 1242 0bbc
000000f0: a53c 593b 4de6 53bb 0dc4 9d3c 9761 16bc
00000100: d79f 4d3d f004 d83c c8a2 17bc e374 253b
00000110: be8d 8c3b 5b5f 913c 6bc7 af3b c852 e1bc
00000120: b1b2 0d3d fe89 1b3d 8b04 18bc 692f 61bc
00000130: d2de babc f107 01bb fbfb 90bb dca7 24bc
00000140: e765 143d bdc0 01bc f1b9 a13b e22a 90bc
00000150: 1a78 3c3c 84b3 833c 8afb ffbc 6198 f43c
00000160: c920 59bb 9bec 42ba c108 a7bb 8bfb a9bc
00000170: ce3a 853d bf67 b93b cd47 5dbb fe6a a5bc
00000180: ba6f 3d3c 8022 9c3d 772b 523a 7014 04bc
00000190: 293c 793b 5cc2 013d c28f 363b f273 673b
000001a0: 292b 9f3c c9f3 753d 98f4 0a3c 435e 90bc
000001b0: 635e 943d 4a57 1c3b 81ad 4e3c e7d4 733a
000001c0: aaf5 20bb f2ca 8d3b e293 443d 49d7 31bc
000001d0: b932 af3b 63e1 e43a e8f7 e33b 818f 71bc
000001e0: d898 6c3a 76f8 a6bb 0270 b93c 4e33 28bb
000001f0: ef43 c6ba a9c9 753c 80aa 83bb ce36 333c
00000200: f1ce 913b 713f 99bc d862 453d d1f0 e63c
00000210: 7892 4fba 59e7 52ba d8b9 5d3b d47a 493d
00000220: 50d1 fc3b d81c 503d 79d1 513c 871e f73a
00000230: bc28 fe3c fa61 9f3b 9070 753c 097c 0abc
00000240: e364 b2bc ef8f 873c 6f5b 003d 6929 eabc
00000250: 0bb0 213d 11cc 913d 7a1e c23a 2e90 e239
00000260: 9e5d 333b b098 fd3c c687 f8bb 447e 50bc
00000270: 6499 0d3d 97af c93b f5d8 4c3d ae0a 99bc
00000280: 698b 653d 0263 bf39 9f33 3a3b 26cb 93bb
00000290: c637 a8ba f2df 2b3d 95e0 e3ba dd29 473b
000002a0: 0067 3c3d 5249 6ebc e9f6 903d 6cf1 1a3c
000002b0: eba0 1c3c c598 3abc 37a9 273d b59b 7e3d
000002c0: d391 ed3c 8be4 9c3c d7b3 063d 3d14 beba
000002d0: b76e ca3b 52e1 3ebc 9ba1 87bc 1baf 02bc
000002e0: 5775 34bc 6dd8 98bb 8ed9 853c 7ce6 213c
000002f0: df6e b83c 2787 beb9 228a b1bc 161e 44bc
00000300: 007b cb3b 5db0 3e3c 3924 95bb 61bc 193d
00000310: b373 ad3c 60c7 85bc f732 ec3b 2775 243d
00000320: 6cd5 4f3c c6fa 273d 6017 aebc 408b 853d
00000330: 4fb4 76bb ff2a 4c3d 1d04 d53c 7550 0b3d
00000340: cf7d 9d3c 7321 383b b0cc 1e3d 8ecc 313d
00000350: c8b5 753a a056 13bd 219c 013b 181e 3c3b
00000360: b944 b23b 8c0b 7cbb 40b4 ddbb 8461 963c
00000370: 65f7 85bb 1308 48bc 69da bbbb e9b9 913d
00000380: ea55 363c f769 dbbb ca80 29bc 08ec ac3b
00000390: a591 763d b830 433b 1b7f d6bc 484d 39bc
000003a0: 9eb7 b73c 4461 613d 5429 343d 14ca 7fbc
000003b0: c52d 50bc 763b 1ebc 8f30 463d 1995 3d3c
000003c0: 2eed 0a3d 8c60 823c 20f6 843d 5bbe 03bc
000003d0: 1fb6 b4bc 5f51 673c 4e3c 183c 5db4 663d
000003e0: 86f7 083d 52a7 1f3d 1af5 f53c 48b1 cbbc
000003f0: 5027 e7b7 db6c ad3c b23e 883b 3d9d 883c

action_model._discrete_distribution.branches.1.bias f4 [2]
-0.01562951 0.0156295
00000000: 7509 80bc 7009 803c

action_model._discrete_distribution.branches.2.weight f4 [2, 256]
-0.0009720755 0.017130809 0.0019628939 0.063183 0.002617381 -0.011401326 0.03471149 0.00096779136
-0.0053613815 -0.002370195 0.005061557 0.0035381457 -0.009794671 0.026311995 -0.01106454 -0.012529904
0.008101578 -0.0037663374 0.013137151 -0.0015335586 -0.017148737 0.058586556 0.056928087 0.009583834
0.013521209 0.0012650286 0.027678486 0.007943531 0.06652484 1.146879e-05 0.036739133 0.016837096
-0.0061735096 0.052117538 -0.0132049825 0.004131912 -0.013788741 -0.0035463113 -0.013599037 0.010727081
0.051103145 0.0073521687 0.07291626 0.06479955 -0.008605081 -0.0018789351 0.018849107 0.027924793
0.0014923144 0.0009657781 0.06871182 -0.034369648 0.004854857 -0.0008724243 -0.0071724225 -0.0009434233
-0.0035964227 0.07314202 -0.005577658 -0.016983718 0.00041071002 -0.0023664632 0.00068929396 -0.003658806
0.040810376 0.030510485 -0.011959923 0.02187589 0.0036946815 0.0130758 0.010909802 -0.012224684
0.010475344 0.055840675 -0.009801015 -0.0077297487 0.0006012605 -0.0001039329 -0.009836554 -0.0055401656
0.037468098 0.00023450366 0.0009895121 -0.0065896316 -0.010081237 0.008389466 -0.015056481 0.02827271
-0.004431171 -0.0023273015 -0.0019025722 0.008837167 0.08715727 -0.005869935 -0.0019416625 -0.01750353
0.002680916 0.07692559 -0.01427065 -0.003306088 -0.004556245 0.02619278 -0.0017204186 0.008410908
0.008517509 0.04802576 0.02308572 -0.005537394 0.02875717 -0.0073721 0.0042912383 -0.00016399371
0.002359872 -0.00540214 0.056414183 -0.004807669 0.008383185 -0.0086322175 -0.004585386 -0.00043979505
0.017433563 -0.01572443 0.04309072 -0.0015274124 -0.014829725 0.015227793 0.029536828 -0.014548706
0.0018259925 -0.0015084903 -0.01818513 0.011901533 0.01538163 0.0038792815 -0.009107415 0.06267216
0.0065512415 0.03294803 0.018787822 -0.0067794905 0.038605478 -0.010639485 0.010007719 0.013468048
0.010863056 0.025024377 0.057072878 -0.013099704 -0.010972222 0.040043004 0.006480284 0.03148723
0.012862563 0.016421305 0.0014219196 -0.014814119 0.053846456 -0.0038105962 0.027187493 0.00805818
0.034624375 0.0013054331 0.0012542177 0.0024280122 -0.022745322 0.061772756 -0.010833634 -0.0059036007
0.040869307 -0.011430154 0.012340201 -0.013622531 -0.052356694 0.01666847 0.04375444 0.04501041
0.021863803 0.026432928 0.03410631 0.0065066954 -0.0049529094 -0.0064130863 0.00084414135 0.0031998327
0.0041802386 0.0034035011 0.034489088 -0.0012362133 0.026031716 -0.014577657 -0.010083825 -0.008353357
-0.014275007 0.004924467 -0.01787475 0.038090836 0.025442226 0.012950962 -0.009455185 0.056005843
0.02942878 0.058780294 -0.020573724 0.079850815 0.001888323 0.110880084 0.026602266 0.031140817
-0.012900262 0.006129083 0.06534121 0.021217238 0.0035061324 0.004590336 -0.0049385168 0.0007228061
0.0052773613 0.021241995 0.01602908 0.040782392 -0.0054436335 -0.018023055 0.008297574 0.08336434
0.0075249905 -0.0072228103 -0.0028298663 0.017607654 0.045357574 -0.008653249 -0.009919013 -0.0016779911
0.037794556 0.050673556 0.04320891 -0.0013213081 -0.008029047 -0.0012369624 0.037189167 0.004344945
0.014581065 0.02765251 0.06257076 -0.0053216694 -0.008143859 -0.010134649 0.024625665 0.051099572
0.054792903 0.02586184 0.019660303 0.010238076 0.030017385 0.019266449 0.0021864253 0.032410145
00000000: e2d2 7eba e955 8c3c e5a3 003b 1766 813d
00000010: 5e88 2b3b a1cc 3abc a32d 0e3d 61b3 7d3a
00000020: 87ae afbb 4655 1bbb 6bdb a53b 3ce0 673b
00000030: d479 20bc 418c d73c 0b48 35bc 3a4a 4dbc
00000040: 7bbc 043c a8d4 76bb 343d 573c b001 c9ba
00000050: 827b 8cbc 75f8 6f3d 6d2d 693d 8305 1d3c
00000060: 1088 5d3c 51cf a53a febd e23c 9525 023c
00000070: 2d3e 883d 146a 4037 c67b 163d f3ed 893c
00000080: 274b cabb 3379 553d b659 58bc fd64 873b
00000090: 2cea 61bc 3b69 68bb 7fce 5ebc a4c0 2f3c
000000a0: 8851 513d 76ea f03b 1f55 953d a0b5 843d
000000b0: 53fc 0cbc 9a46 f6ba 7169 9a3c 89c2 e43c
000000c0: c399 c33a 452c 7d3a c8b8 8c3d 30c7 0cbd
000000d0: 7e15 9f3b 67b3 64ba a406 ebbb 1150 77ba
000000e0: f6b1 6bbb 7ccb 953d c9c4 b6bb 7021 8bbc
000000f0: 9154 d739 aa16 1bbb bcb1 343a 94c8 6fbb
00000100: c828 273d 20f1 f93c 8ef3 43bc 1135 b33c
00000110: 7822 723b e13b 563c 07bf 323c 0a4a 48bc
00000120: c7a0 2b3c 31b9 643d 7094 20bc d549 fdbb
00000130: e99d 1d3a 8df6 d9b8 7f29 21bc 478a b5bb
00000140: 2678 193d 19e5 7539 84b2 813a d6ed d7bb
00000150: c62b 25bc f973 093c 75af 76bc 2c9c e73c
00000160: 5b33 91bb a485 18bb bb5f f9ba c4c9 103c
00000170: 837f b23d 9558 c0bb 627f feba 9063 8fbc
00000180: 4fb2 2f3b 2a8b 9d3d 72cf 69bc f4aa 58bb
00000190: 8e4c 95bb 3e92 d63c ab7f e1ba e8cd 093c
000001a0: 068d 0b3c a9b6 443d 441e bd3c 0773 b5bb
000001b0: 2894 eb3c a891 f1bb 849d 8c3b baf5 2bb9
000001c0: 15a8 1a3b 6f04 b1bb 8f12 673d a789 9dbb
000001d0: a059 093c 256e 0dbc 0141 96bb 4b94 e6b9
000001e0: d5d0 8e3c 85d0 80bc e57f 303d 7533 c8ba
000001f0: 60f8 72bc fe7d 793c 38f7 f13c b25d 6ebc
00000200: 2456 ef3a 89b8 c5ba fbf8 94bc a6fe 423c
00000210: 3b03 7c3c 8b3b 7e3b 4437 15bc 435a 803d
00000220: ccab d63b 83f4 063d ebe8 993c 7d26 debb
00000230: c720 1e3d 3c51 2ebc 6af7 233c 16a9 5c3c
00000240: f6fa 313c ecff cc3c 40c5 693d 24a0 56bc
00000250: d6c4 33bc 2204 243d 9058 d43b c1f8 003d
00000260: 80bd 523c f985 863c b45f ba3a ebb6 72bc
00000270: 1a8e 5c3d 32bb 79bb 4eb8 de3c 7506 043c
00000280: 4ad2 0d3d 111b ab3a 9064 a43a 491f 1f3b
00000290: 6654 babc 6e05 7d3d 8e7f 31bc fe72 c1bb
000002a0: 9366 273d 8a45 3bbc 8e2e 4a3c 0931 5fbc
000002b0: f973 56bd 518c 883c db37 333d d65c 383d
000002c0: b81b b33c de89 d83c 0fb3 0b3d 1e36 d53b
000002d0: 044c a2bb de24 d2bb 5e49 5d3a 49b4 513b
000002e0: 62fa 883b 460d 5f3b 6e44 0d3d 6f08 a2ba
000002f0: 7740 d53c 20d7 6ebc a136 25bc 85dc 08bc
00000300: b8e1 69bc 6c5d a13b 116e 92bc 2305 1c3d
00000310: 376c d03c 4630 543c ece9 1abc 6266 653d
00000320: a014 f13c 9bc3 703d 3a8a a8bc d388 a33d
00000330: 9b81 f73a 1915 e33d ffec d93c 071b ff3c
00000340: 9f5b 53bc 7ad6 c83b 9dd1 853d c6cf ad3c
00000350: 24c7 653b 876a 963b 48d3 a1bb b27a 3d3a
00000360: b7ed ac3b b103 ae3c 6b4f 833c 700b 273d
00000370: 8260 b2bb 16a5 93bc 8cf2 073c ecba aa3d
00000380: 3294 f63b 53ad ecbb 4775 39bb ed3d 903c
00000390: ddc8 393d 5bc6 0dbc 5b83 22bc 0af0 dbba
000003a0: 77ce 1a3d 138f 4f3d d3fb 303d be2f adba
000003b0: 448c 03bc 9221 a2ba ab53 183d 0a60 8e3b
000003c0: 6be5 6e3c 8487 e23c 1925 803d 6661 aebb
000003d0: d26d 05bc cd0b 26bc c3bb c93c c94d 513d
000003e0: 866e 603d 36dc d33c a50e a13c 9abd 273c
000003f0: 05e7 f53c acd4 9d3c 214a 0f3b 80c0 043d

action_model._discrete_distribution.branches.2.bias f4 [2]
-0.018851582 0.018851586
00000000: a26e 9abc a46e 9a3c
