Assets/results/0719day2/TrafficLightBrain/TrafficLightBrain-0.pt (torch, 754060 bytes, 18 tensors)

discrete_act_size_vector f4 [1, 4]
2.0 2.0 2.0 2.0
00000000: 0000 0040 0000 0040 0000 0040 0000 0040

network_body._body_endoder.seq_layers.0.weight f4 [256, 100]
0.11185854 0.022751484 -0.08068483 -0.023046454 0.03161837 -0.11693787 0.007089282 -0.10709526
-0.26647127 0.12621254 -0.055041768 -0.04102306 -0.05739209 0.031037701 -0.015281116 -0.0053819907
0.0859611 -0.14482462 0.045454163 -0.022721352 -0.22718494 0.073246054 0.008607149 -0.032282118
0.07314835 0.015992247 -0.09251221 -0.15771644 -0.07188315 0.0440619 -0.1009148 -0.11562276
0.09878667 -0.04075424 0.0055412743 -0.14559451 0.095640704 0.08395841 0.03942799 0.07678687
-0.08412822 -0.10494063 0.10805725 0.15387675 0.064954594 -0.08471493 -0.008930956 0.17468424
-0.29650924 0.033712298 -0.023355637 -0.031363547 0.085231625 -0.0846894 0.12974463 0.0028535663
-0.043991435 -0.054353632 -0.0125012575 -0.2772046 0.18073298 -0.015937893 0.038066484 -0.020400906
0.01058771 -0.0074150856 0.13738517 0.05623584 0.0077486425 -0.1945768 -0.038974937 -0.21445122
0.009500911 0.0032935336 0.02031605 0.15105246 0.060525615 -0.04234684 -0.08316781 0.08753591
-0.18738547 0.12879385 0.24363725 -0.013185086 -0.13029462 0.0053986893 -0.055297513 0.017969003
-0.0065379473 -0.044608697 0.0151576195 -0.16561897 -0.0053136805 -0.020412197 -0.049740907 -0.07770023
0.021032138 -0.023935687 0.030762745 0.010399545 0.032598507 -0.031886358 0.0826007 -0.14499311
0.07289384 -0.017897176 0.07843243 0.053301323 -0.019020678 -0.047088422 0.06989014 -0.011678263
-0.0859614 0.1911168 -0.012954565 -0.11599641 0.076246016 -0.07983006 -0.101050794 -0.06722687
0.18984081 0.012867509 -0.027343107 -0.041181847 0.034274545 -0.06383749 0.17199837 0.022369169
-0.025608236 0.04060177 -0.02759551 -0.1475598 -0.005358859 0.06157547 -0.01166919 0.064574525
-0.08625323 -0.068347014 0.009347312 -0.050851006 0.074593 0.11757107 -0.1651907 0.09472164
-0.055096358 0.032750685 -0.03521018 0.124247335 -0.24231286 0.14971234 0.048164498 -0.14639272
0.20190513 -0.04897819 0.1907606 -0.10465857 -0.0087371 0.029623523 -0.06540139 -0.08996057
-0.026163667 0.059700098 -0.018992182 0.028585702 0.042564057 -0.060449608 -0.06333524 -0.07451147
-0.0007864111 -0.036375247 0.07894934 0.0075977454 0.032047376 -0.03813666 -0.015983125 0.03158286
-0.024117338 -0.11249745 -0.051182937 0.046716277 -0.076672666 -0.028747791 0.06558465 -0.13389762
0.038227376 0.00600289 -0.07728697 -0.14086744 0.043920275 0.00012335318 0.014663751 0.058567207
0.10757738 -0.099409625 -0.0027921533 -0.0045144665 -0.23606434 -0.04721033 -0.2926774 0.006947023
-0.15894262 0.17368251 0.12590884 -0.100205675 0.26583278 0.17057066 0.1045018 -0.042773493
-0.033237934 -0.09933483 0.024953982 0.052639175 -0.020835333 -0.06992454 0.10580944 0.01191049
-0.04710984 0.08496597 0.14906472 0.07828912 0.12249905 0.15979518 0.07762158 0.18372542
-0.083128735 0.197417 -0.08124896 -0.0011918503 0.16604468 -0.045128882 -0.12436791 0.117313676
4.0322146e-05 -0.071515985 0.15273695 -0.059637066 0.056226887 0.020708239 0.0051689623 0.08706364
0.16325983 -0.050864168 0.11437493 -0.11487601 -0.13189644 -0.045476053 -0.025308985 -0.05331367
-0.028810237 -0.10868811 0.1653394 0.09525166 -0.0007153168 0.03139997 -0.016766218 0.09001025
00000000: 1716 e53d 5261 ba3c 173e a5bd ebcb bcbc
00000010: 4482 013d 1f7d efbd 354d e83b c254 dbbd
00000020: ec6e 88be dc3d 013e 7a73 61bd cc07 28bd
00000030: f813 6bbd c742 fe3c a55d 7abc 695b b0bb
00000040: 600c b03d e84c 14be 252e 3a3d 2122 babc
00000050: 2ba3 68be 0702 963d 0005 0d3c 413a 04bd
00000060: cdce 953d 2c02 833c 0b77 bdbd 6b80 21be
00000070: 7937 93bd 407a 343d 6bac cebd a0cb ecbd
00000080: aa50 ca3d ebed 26bd 9493 b53b ba16 15be
00000090: 46df c33d 63f2 ab3d 3e7f 213d 6f42 9d3d
000000a0: 6b4b acbd 1deb d6bd 1f4d dd3d de91 1d3e
000000b0: ea06 853d 057f adbd 2553 12bc 6de0 323e
000000c0: 0fd0 97be e815 0a3d 5254 bfbc 1077 00bd
000000d0: eb8d ae3d a371 adbd c7db 043e e602 3b3b
000000e0: 5d30 34bd eaa1 5ebd 13d2 4cbc c3ed 8dbe
000000f0: 1112 393e 2f90 82bc 9aeb 1b3d cd1f a7bc
00000100: 1378 2d3c 3ffa f2bb b3ae 0c3e 8d57 663d
00000110: 53e8 fd3b 243f 47be 2fa4 1fbd 1a99 5bbe
00000120: b6a9 1b3c 53d8 573b d86d a63c 7fad 1a3e
00000130: b5e9 773d e173 2dbd e353 aabd 0746 b33d
00000140: fae1 3fbe 89e2 033e 0b7c 793e 4206 58bc
00000150: f46b 05be 7de7 b03b a57f 62bd bb33 933c
00000160: 473c d6bb 9cb7 36bd aa57 783c 0598 29be
00000170: 621e aebb 7b37 a7bc 1fbd 4bbd 4c21 9fbd
00000180: 974b ac3c c614 c4bc 2702 fc3c da62 2a3c
00000190: 0386 053d 459b 02bd 8e2a a93d 1379 14be
000001a0: 5e49 953d 199d 92bc 2fa1 a03d 7d52 5a3d
000001b0: 41d1 9bbc cadf 40bd 9022 8f3d 2f56 3fbc
000001c0: 880c b0bd 1fb4 433e 623f 54bc 878f edbd
000001d0: df26 9c3d f17d a3bd b8f3 cebd 3eae 89bd
000001e0: a165 423e 3fd2 523c a7fe dfbc 4cae 28bd
000001f0: 7763 0c3d 3bbd 82bd 5720 303e 8c3f b73c
00000200: 5dc8 d1bc 0b4e 263d fb0f e2bc eb19 17be
00000210: 5e99 afbb 8f36 7c3d 2130 3fbc a63f 843d
00000220: 89a5 b0bd 85f9 8bbd 7825 193c 2549 50bd
00000230: 37c4 983d 1ac9 f03d c027 29be 6bfd c13d
00000240: b8ac 61bd 9525 063d 8d38 10bd 6375 fe3d
00000250: dd20 78be 314e 193e 2348 453d f9e7 15be
00000260: 38c0 4e3e 5b9d 48bd bf56 433e 3b57 d6bd
00000270: 0e26 0fbc 08ad f23c 2af1 85bd 3f3d b8bd
00000280: 3055 d6bc 1788 743d 7e95 9bbc 902c ea3c
00000290: a657 2e3d 029a 77bd e8b5 81bd 7899 98bd
000002a0: 2827 4eba 36fe 14bd 31b0 a13d 82f6 f83b
000002b0: 1c44 033d 3035 1cbd 0bef 82bc 075d 013d
000002c0: b991 c5bc 1065 e6bd 33a5 51bd 9159 3f3d
000002d0: 8f06 9dbd 7d80 ebbc 3f51 863d 751c 09be
000002e0: 4f94 1c3d e4b3 c43b a248 9ebd 8e3f 10be
000002f0: bfe5 333d 5e58 0139 3b40 703c 2be4 6f3d
00000300: 8851 dc3d 4697 cbbd 8ffc 36bb 17ee 93bb
00000310: daba 71be 9e5f 41bd d0d9 95be daa3 e33b
00000320: dbc1 22be d4d9 313e 3fee 003e a238 cdbd
00000330: 3c1b 883e 13aa 2e3e 0a05 d63d 4233 2fbd
00000340: 8024 08bd 0f70 cbbd 4b6c cc3c 2d9c 573d
00000350: dcae aabc 9934 8fbd 9fb2 d83d 3724 433c
00000360: 3ff6 40bd a302 ae3d 6ca4 183e 0c56 a03d
00000370: c8e0 fa3d 59a1 233e 10f8 9e3d 8422 3c3e
00000380: 663f aabd af27 4a3e db65 a6bd dc37 9cba
00000390: 9e07 2a3e 10d9 38bd 9ab4 febd 2742 f03d
000003a0: 931f 2938 f976 92bd 1367 1c3e ff45 74bd
000003b0: 2a4e 663d 53a4 a93c 6660 a93b 6c4e b23d
000003c0: 962d 273e f256 50bd 673d ea3d 1d44 ebbd
000003d0: dc0f 07be 1945 3abd ca54 cfbc 6f5f 5abd
000003e0: 7203 ecbc df97 debd bb4e 293e 4d13 c33d
000003f0: 1984 3bba 419d 003d 4f59 89bc 4b57 b83d

network_body._body_endoder.seq_layers.0.bias f4 [256]
0.0 0.0 0.0 0.0 0.0 0.0 0.0 0.0
0.0 0.0 0.0 0.0 0.0 0.0 0.0 0.0
0.0 0.0 0.0 0.0 0.0 0.0 0.0 0.0
0.0 0.0 0.0 0.0 0.0 0.0 0.0 0.0
0.0 0.0 0.0 0.0 0.0 0.0 0.0 0.0
0.0 0.0 0.0 0.0 0.0 0.0 0.0 0.0
0.0 0.0 0.0 0.0 0.0 0.0 0.0 0.0
0.0 0.0 0.0 0.0 0.0 0.0 0.0 0.0
0.0 0.0 0.0 0.0 0.0 0.0 0.0 0.0
0.0 0.0 0.0 0.0 0.0 0.0 0.0 0.0
0.0 0.0 0.0 0.0 0.0 0.0 0.0 0.0
0.0 0.0 0.0 0.0 0.0 0.0 0.0 0.0
0.0 0.0 0.0 0.0 0.0 0.0 0.0 0.0
0.0 0.0 0.0 0.0 0.0 0.0 0.0 0.0
0.0 0.0 0.0 0.0 0.0 0.0 0.0 0.0
0.0 0.0 0.0 0.0 0.0 0.0 0.0 0.0
0.0 0.0 0.0 0.0 0.0 0.0 0.0 0.0
0.0 0.0 0.0 0.0 0.0 0.0 0.0 0.0
0.0 0.0 0.0 0.0 0.0 0.0 0.0 0.0
0.0 0.0 0.0 0.0 0.0 0.0 0.0 0.0
0.0 0.0 0.0 0.0 0.0 0.0 0.0 0.0
0.0 0.0 0.0 0.0 0.0 0.0 0.0 0.0
0.0 0.0 0.0 0.0 0.0 0.0 0.0 0.0
0.0 0.0 0.0 0.0 0.0 0.0 0.0 0.0
0.0 0.0 0.0 0.0 0.0 0.0 0.0 0.0
0.0 0.0 0.0 0.0 0.0 0.0 0.0 0.0
0.0 0.0 0.0 0.0 0.0 0.0 0.0 0.0
0.0 0.0 0.0 0.0 0.0 0.0 0.0 0.0
0.0 0.0 0.0 0.0 0.0 0.0 0.0 0.0
0.0 0.0 0.0 0.0 0.0 0.0 0.0 0.0
0.0 0.0 0.0 0.0 0.0 0.0 0.0 0.0
0.0 0.0 0.0 0.0 0.0 0.0 0.0 0.0
00000000: 0000 0000 0000 0000 0000 0000 0000 0000
00000010: 0000 0000 0000 0000 0000 0000 0000 0000
00000020: 0000 0000 0000 0000 0000 0000 0000 0000
00000030: 0000 0000 0000 0000 0000 0000 0000 0000
00000040: 0000 0000 0000 0000 0000 0000 0000 0000
00000050: 0000 0000 0000 0000 0000 0000 0000 0000
00000060: 0000 0000 0000 0000 0000 0000 0000 0000
00000070: 0000 0000 0000 0000 0000 0000 0000 0000
00000080: 0000 0000 0000 0000 0000 0000 0000 0000
00000090: 0000 0000 0000 0000 0000 0000 0000 0000
000000a0: 0000 0000 0000 0000 0000 0000 0000 0000
000000b0: 0000 0000 0000 0000 0000 0000 0000 0000
000000c0: 0000 0000 0000 0000 0000 0000 0000 0000
000000d0: 0000 0000 0000 0000 0000 0000 0000 0000
000000e0: 0000 0000 0000 0000 0000 0000 0000 0000
000000f0: 0000 0000 0000 0000 0000 0000 0000 0000
00000100: 0000 0000 0000 0000 0000 0000 0000 0000
00000110: 0000 0000 0000 0000 0000 0000 0000 0000
00000120: 0000 0000 0000 0000 0000 0000 0000 0000
00000130: 0000 0000 0000 0000 0000 0000 0000 0000
00000140: 0000 0000 0000 0000 0000 0000 0000 0000
00000150: 0000 0000 0000 0000 0000 0000 0000 0000
00000160: 0000 0000 0000 0000 0000 0000 0000 0000
00000170: 0000 0000 0000 0000 0000 0000 0000 0000
00000180: 0000 0000 0000 0000 0000 0000 0000 0000
00000190: 0000 0000 0000 0000 0000 0000 0000 0000
000001a0: 0000 0000 0000 0000 0000 0000 0000 0000
000001b0: 0000 0000 0000 0000 0000 0000 0000 0000
000001c0: 0000 0000 0000 0000 0000 0000 0000 0000
000001d0: 0000 0000 0000 0000 0000 0000 0000 0000
000001e0: 0000 0000 0000 0000 0000 0000 0000 0000
000001f0: 0000 0000 0000 0000 0000 0000 0000 0000
00000200: 0000 0000 0000 0000 0000 0000 0000 0000
00000210: 0000 0000 0000 0000 0000 0000 0000 0000
00000220: 0000 0000 0000 0000 0000 0000 0000 0000
00000230: 0000 0000 0000 0000 0000 0000 0000 0000
00000240: 0000 0000 0000 0000 0000 0000 0000 0000
00000250: 0000 0000 0000 0000 0000 0000 0000 0000
00000260: 0000 0000 0000 0000 0000 0000 0000 0000
00000270: 0000 0000 0000 0000 0000 0000 0000 0000
00000280: 0000 0000 0000 0000 0000 0000 0000 0000
00000290: 0000 0000 0000 0000 0000 0000 0000 0000
000002a0: 0000 0000 0000 0000 0000 0000 0000 0000
000002b0: 0000 0000 0000 0000 0000 0000 0000 0000
000002c0: 0000 0000 0000 0000 0000 0000 0000 0000
000002d0: 0000 0000 0000 0000 0000 0000 0000 0000
000002e0: 0000 0000 0000 0000 0000 0000 0000 0000
000002f0: 0000 0000 0000 0000 0000 0000 0000 0000
00000300: 0000 0000 0000 0000 0000 0000 0000 0000
00000310: 0000 0000 0000 0000 0000 0000 0000 0000
00000320: 0000 0000 0000 0000 0000 0000 0000 0000
00000330: 0000 0000 0000 0000 0000 0000 0000 0000
00000340: 0000 0000 0000 0000 0000 0000 0000 0000
00000350: 0000 0000 0000 0000 0000 0000 0000 0000
00000360: 0000 0000 0000 0000 0000 0000 0000 0000
00000370: 0000 0000 0000 0000 0000 0000 0000 0000
00000380: 0000 0000 0000 0000 0000 0000 0000 0000
00000390: 0000 0000 0000 0000 0000 0000 0000 0000
000003a0: 0000 0000 0000 0000 0000 0000 0000 0000
000003b0: 0000 0000 0000 0000 0000 0000 0000 0000
000003c0: 0000 0000 0000 0000 0000 0000 0000 0000
000003d0: 0000 0000 0000 0000 0000 0000 0000 0000
000003e0: 0000 0000 0000 0000 0000 0000 0000 0000
000003f0: 0000 0000 0000 0000 0000 0000 0000 0000

network_body._body_endoder.seq_layers.2.weight f4 [256, 256]
-0.015833335 0.06087085 -0.005452066 0.09383151 -0.017520672 -0.059688177 0.13908044 -0.042049665
0.016144933 0.025803233 -0.055596214 -0.016577361 -0.055287346 0.0437058 -0.086159796 0.05105285
0.01638585 -0.1124595 -0.052620176 -0.02046924 -0.10251551 -0.052845128 -0.05398142 -0.19787061
-0.08984024 0.030821212 -0.061839737 0.09941162 0.0556467 -0.019344127 0.0028744377 -0.06687884
-0.05686711 0.05729168 0.13366583 -0.19199653 0.018476311 -0.11220845 -0.11383581 -0.0070838267
-0.048319634 0.16740847 -0.056475483 -0.11247015 -0.08129417 0.038885254 0.040496297 0.04752434
-0.033360165 0.03632884 -0.045705296 -0.023057608 0.008117689 0.007823523 -0.08221907 0.0010122797
-0.044441428 -0.108193256 0.1313598 0.021317197 -0.073153555 -0.10895043 -0.024966618 -0.0132225165
-0.046884358 0.041733768 0.015477572 -0.04091215 -0.16637823 0.07014746 0.07160949 -0.055449974
0.08607796 -0.011855949 0.02519719 -0.054837205 -0.019999817 0.10066175 -0.002890654 -0.0037074967
0.07199931 -0.059161935 0.06862734 -0.005569591 -0.058045354 -0.030950993 -0.047638305 0.06435682
-0.062563755 0.0030396732 -0.03670757 0.104218625 -0.013679586 -0.017670618 -0.034434814 0.100744545
-0.01916139 -0.034407455 0.1284158 0.0355544 -0.0021921187 -0.050406408 -0.04636781 -0.10716721
0.016380945 0.065771654 0.03733229 0.0029459628 -0.072149485 0.059557337 -0.1026951 -0.049607586
-0.017524712 -0.044657532 0.01941245 0.005856327 -0.027866742 -0.08578631 0.013111534 0.040471744
-0.027809318 -0.07831327 0.044406354 0.042678814 0.17137489 0.01365536 -0.060302347 -0.05540551
-0.03687376 0.0706854 -0.07671011 -0.050272 0.020010466 -0.027473427 0.13372435 -0.041807976
0.052033924 -0.07481695 -0.033613887 -0.019643806 0.0711529 -0.067260295 -0.045632377 0.07936649
0.0030197282 -0.02317131 -0.021180993 -0.032964673 0.06915634 0.018370686 -0.06760279 -0.074001685
0.006937817 0.011970719 -0.029747035 -0.024929907 -0.0011604134 0.08011535 0.010724896 -0.103239626
-0.0017243628 0.0629371 0.011582444 -0.021104215 -0.004936644 -0.036468625 -0.066809915 -0.056526423
-0.01034923 0.039858524 -0.033779714 0.02214133 -0.09058302 0.048702482 -0.004964019 0.0028195693
0.028460069 0.0076853745 -0.07259059 0.070826344 -0.09236346 -0.09015179 -0.003529844 -0.07358346
0.092522815 -0.115570866 0.013379065 -0.075453036 -0.08486981 -0.044759084 -0.079242416 0.00055856747
-0.0423747 0.07619678 -0.05602225 -0.08755495 0.096435286 0.011300642 0.02866717 -0.08111432
0.064634606 -0.03636671 0.053295154 -0.018660352 -0.030758224 -0.034927525 -0.0937282 0.0013813709
0.030050311 0.044140402 -0.03491299 0.056165148 -0.038520377 -0.025680186 0.047050472 0.048999634
-0.013564674 0.07156779 -0.04774412 0.058403563 0.1011158 -0.035211254 0.077807 0.058845382
-0.04102612 0.011062889 0.1015415 0.03379666 -0.041699883 -0.056676097 0.092678756 -0.013688777
0.0506711 -0.027606832 -0.035935935 -0.12103028 -0.022585789 0.040358927 -0.05644348 0.06752967
0.043564085 -0.008624373 -0.03360456 0.020850483 -0.10605097 -0.033805665 -0.10942987 -0.014911394
0.020653578 -0.047932286 -0.12586048 -0.011203298 0.04850566 0.027359974 0.0876406 -0.033919763
00000000: e9b4 81bc b653 793d 3fa7 b2bb bc2a c03d
00000010: 8387 8fbc 977b 74bd 1a6b 0e3e 453c 2cbd
00000020: 6142 843c 4d61 d33c dbb8 63bd 3fcd 87bc
00000030: fc74 62bd da04 333d 8c74 b0bd cb1c 513d
00000040: 9e3b 863c 2b51 e6bd 4188 57bd 1caf a7bc
00000050: a7f3 d1bd 2274 58bd 9f1b 5dbd 989e 4abe
00000060: 29fe b7bd c47c fc3c aa4b 7dbd 5298 cb3d
00000070: cbed 633d 9377 9ebc 1061 3c3b c6f7 88bd
00000080: 7ded 68bd aeaa 6a3d b2df 083e bd9a 44be
00000090: a25b 973c 8bcd e5bd c022 e9bd 721f e8bb
000000a0: cfea 45bd 206d 2b3e d652 67bd c056 e6bd
000000b0: 8f7d a6bd 2546 1f3d 72df 253d e2a8 423d
000000c0: aba4 08bd 8dcd 143d 7a35 3bbd 4fe3 bcbc
000000d0: 0e00 053c 3c2e 003c 7962 a8bd 78ae 843a
000000e0: 3708 36bd 6d94 ddbd 2f83 063e 67a1 ae3c
000000f0: 88d1 95bd 6721 dfbd cb86 ccbc 41a3 58bc
00000100: d009 40bd 07f1 2a3d a495 7d3c 8093 27bd
00000110: 0e5f 2abe 79a9 8f3d ffa7 923d 831f 63bd
00000120: a449 b03d 743f 42bc 566a ce3c fa9c 60bd
00000130: a8d6 a3bc bf27 ce3d 2071 3dbb 79f9 72bb
00000140: 6074 933d c953 72bd 7e8c 8c3d 1e81 b6bb
00000150: f7c0 6dbd f08c fdbc 6220 43bd 82cd 833d
00000160: 6d21 80bd 4135 473b ad5a 16bd 9370 d53d
00000170: 5820 60bc f9c1 90bc 850b 0dbd 2853 ce3d
00000180: 59f8 9cbc d5ee 0cbd 6e7f 033e 7ea1 113d
00000190: a6a9 0fbb f376 4ebd 2cec 3dbd 7b7a dbbd
000001a0: 5531 863c 4ab3 863d bee9 183d 0e11 413b
000001b0: 1cc3 93bd 65f2 733d cf51 d2bd 5331 4bbd
000001c0: fc8f 8fbc d1ea 36bd dc06 9f3c 6ee6 bf3b
000001d0: cb48 e4bc bcb0 afbd c2d1 563c b3c5 253d
000001e0: 5ed0 e3bc b562 a0bd 70e3 353d fbcf 2e3d
000001f0: e67c 2f3e bbba 5f3c 98ff 76bd e3f0 62bd
00000200: f108 17bd 82c3 903d 311a 9dbd 03ea 4dbd
00000210: fdec a33c f40f e1bc 09ef 083e d73e 2bbd
00000220: 8621 553d a139 99bd b7ae 09bd 0cec a0bc
00000230: 9db8 913d c4bf 89bd 04e9 3abd e68a a23d
00000240: a2e6 453b c2d1 bdbc c383 adbc f705 07bd
00000250: d7a1 8d3d 1f7e 963c 5573 8abd 328e 97bd
00000260: a156 e33b d620 443c 0eb0 f3bc ce39 ccbc
00000270: 0319 98ba 8413 a43d 79b7 2f3c 4c6f d3bd
00000280: 0404 e2ba 2be5 803d 4bc4 3d3c bfe2 acbc
00000290: 92c3 a1bb 2060 15bd a3d3 88bd 4088 67bd
000002a0: d18f 29bc b142 233d 995c 0abd bc61 b53c
000002b0: 9783 b9bd 417c 473d 36a9 a2bb 86c8 383b
000002c0: 1725 e93c 98d5 fb3b 60aa 94bd 670d 913d
000002d0: 0e29 bdbd 80a1 b8bd f554 67bb edb2 96bd
000002e0: 9a7c bd3d 6bb0 ecbd de33 5b3c 1f87 9abd
000002f0: 39d0 adbd 4d55 37bd d949 a2bd d46c 123a
00000300: 1891 2dbd 0f0d 9c3d 9677 65bd 0250 b3bd
00000310: dd7f c53d 5426 393c 6ad7 ea3c 441f a6bd
00000320: 265f 843d 42f5 14bd 054c 5a3d 98dd 98bc
00000330: acf8 fbbc 2a10 0fbd 92f4 bfbd 1e0f b53a
00000340: 122c f63c 91cc 343d ec00 0fbd 6d0d 663d
00000350: 8bc7 1dbd 415f d2bc ffb7 403d d7b3 483d
00000360: 5e3e 5ebc 2292 923d 578f 43bd 9338 6f3d
00000370: cd15 cf3d ad39 10bd 4759 9f3d db07 713d
00000380: 010b 28bd 1f41 353c fdf4 cf3d 5e6e 0a3d
00000390: 7fcd 2abd 3225 68bd 5cce bd3d e446 60bc
000003a0: 808c 4f3d b927 e2bc 8f31 13bd b9de f7bd
000003b0: d505 b9bc 674f 253d 4731 67bd ff4c 8a3d
000003c0: 4170 323d 3e4d 0dbc efa4 09bd a2ce aa3c
000003d0: 4031 d9bd cf77 0abd c51c e0bd eb4e 74bc
000003e0: b131 a93c a554 44bd 92e1 00be 0a8e 37bc
000003f0: dfad 463d 0622 e03c ea7c b33d 73ef 0abd

network_body._body_endoder.seq_layers.2.bias f4 [256]
0.0 0.0 0.0 0.0 0.0 0.0 0.0 0.0
0.0 0.0 0.0 0.0 0.0 0.0 0.0 0.0
0.0 0.0 0.0 0.0 0.0 0.0 0.0 0.0
0.0 0.0 0.0 0.0 0.0 0.0 0.0 0.0
0.0 0.0 0.0 0.0 0.0 0.0 0.0 0.0
0.0 0.0 0.0 0.0 0.0 0.0 0.0 0.0
0.0 0.0 0.0 0.0 0.0 0.0 0.0 0.0
0.0 0.0 0.0 0.0 0.0 0.0 0.0 0.0
0.0 0.0 0.0 0.0 0.0 0.0 0.0 0.0
0.0 0.0 0.0 0.0 0.0 0.0 0.0 0.0
0.0 0.0 0.0 0.0 0.0 0.0 0.0 0.0
0.0 0.0 0.0 0.0 0.0 0.0 0.0 0.0
0.0 0.0 0.0 0.0 0.0 0.0 0.0 0.0
0.0 0.0 0.0 0.0 0.0 0.0 0.0 0.0
0.0 0.0 0.0 0.0 0.0 0.0 0.0 0.0
0.0 0.0 0.0 0.0 0.0 0.0 0.0 0.0
0.0 0.0 0.0 0.0 0.0 0.0 0.0 0.0
0.0 0.0 0.0 0.0 0.0 0.0 0.0 0.0
0.0 0.0 0.0 0.0 0.0 0.0 0.0 0.0
0.0 0.0 0.0 0.0 0.0 0.0 0.0 0.0
0.0 0.0 0.0 0.0 0.0 0.0 0.0 0.0
0.0 0.0 0.0 0.0 0.0 0.0 0.0 0.0
0.0 0.0 0.0 0.0 0.0 0.0 0.0 0.0
0.0 0.0 0.0 0.0 0.0 0.0 0.0 0.0
0.0 0.0 0.0 0.0 0.0 0.0 0.0 0.0
0.0 0.0 0.0 0.0 0.0 0.0 0.0 0.0
0.0 0.0 0.0 0.0 0.0 0.0 0.0 0.0
0.0 0.0 0.0 0.0 0.0 0.0 0.0 0.0
0.0 0.0 0.0 0.0 0.0 0.0 0.0 0.0
0.0 0.0 0.0 0.0 0.0 0.0 0.0 0.0
0.0 0.0 0.0 0.0 0.0 0.0 0.0 0.0
0.0 0.0 0.0 0.0 0.0 0.0 0.0 0.0
00000000: 0000 0000 0000 0000 0000 0000 0000 0000
00000010: 0000 0000 0000 0000 0000 0000 0000 0000
00000020: 0000 0000 0000 0000 0000 0000 0000 0000
00000030: 0000 0000 0000 0000 0000 0000 0000 0000
00000040: 0000 0000 0000 0000 0000 0000 0000 0000
00000050: 0000 0000 0000 0000 0000 0000 0000 0000
00000060: 0000 0000 0000 0000 0000 0000 0000 0000
00000070: 0000 0000 0000 0000 0000 0000 0000 0000
00000080: 0000 0000 0000 0000 0000 0000 0000 0000
00000090: 0000 0000 0000 0000 0000 0000 0000 0000
000000a0: 0000 0000 0000 0000 0000 0000 0000 0000
000000b0: 0000 0000 0000 0000 0000 0000 0000 0000
000000c0: 0000 0000 0000 0000 0000 0000 0000 0000
000000d0: 0000 0000 0000 0000 0000 0000 0000 0000
000000e0: 0000 0000 0000 0000 0000 0000 0000 0000
000000f0: 0000 0000 0000 0000 0000 0000 0000 0000
00000100: 0000 0000 0000 0000 0000 0000 0000 0000
00000110: 0000 0000 0000 0000 0000 0000 0000 0000
00000120: 0000 0000 0000 0000 0000 0000 0000 0000
00000130: 0000 0000 0000 0000 0000 0000 0000 0000
00000140: 0000 0000 0000 0000 0000 0000 0000 0000
00000150: 0000 0000 0000 0000 0000 0000 0000 0000
00000160: 0000 0000 0000 0000 0000 0000 0000 0000
00000170: 0000 0000 0000 0000 0000 0000 0000 0000
00000180: 0000 0000 0000 0000 0000 0000 0000 0000
00000190: 0000 0000 0000 0000 0000 0000 0000 0000
000001a0: 0000 0000 0000 0000 0000 0000 0000 0000
000001b0: 0000 0000 0000 0000 0000 0000 0000 0000
000001c0: 0000 0000 0000 0000 0000 0000 0000 0000
000001d0: 0000 0000 0000 0000 0000 0000 0000 0000
000001e0: 0000 0000 0000 0000 0000 0000 0000 0000
000001f0: 0000 0000 0000 0000 0000 0000 0000 0000
00000200: 0000 0000 0000 0000 0000 0000 0000 0000
00000210: 0000 0000 0000 0000 0000 0000 0000 0000
00000220: 0000 0000 0000 0000 0000 0000 0000 0000
00000230: 0000 0000 0000 0000 0000 0000 0000 0000
00000240: 0000 0000 0000 0000 0000 0000 0000 0000
00000250: 0000 0000 0000 0000 0000 0000 0000 0000
00000260: 0000 0000 0000 0000 0000 0000 0000 0000
00000270: 0000 0000 0000 0000 0000 0000 0000 0000
00000280: 0000 0000 0000 0000 0000 0000 0000 0000
00000290: 0000 0000 0000 0000 0000 0000 0000 0000
000002a0: 0000 0000 0000 0000 0000 0000 0000 0000
000002b0: 0000 0000 0000 0000 0000 0000 0000 0000
000002c0: 0000 0000 0000 0000 0000 0000 0000 0000
000002d0: 0000 0000 0000 0000 0000 0000 0000 0000
000002e0: 0000 0000 0000 0000 0000 0000 0000 0000
000002f0: 0000 0000 0000 0000 0000 0000 0000 0000
00000300: 0000 0000 0000 0000 0000 0000 0000 0000
00000310: 0000 0000 0000 0000 0000 0000 0000 0000
00000320: 0000 0000 0000 0000 0000 0000 0000 0000
00000330: 0000 0000 0000 0000 0000 0000 0000 0000
00000340: 0000 0000 0000 0000 0000 0000 0000 0000
00000350: 0000 0000 0000 0000 0000 0000 0000 0000
00000360: 0000 0000 0000 0000 0000 0000 0000 0000
00000370: 0000 0000 0000 0000 0000 0000 0000 0000
00000380: 0000 0000 0000 0000 0000 0000 0000 0000
00000390: 0000 0000 0000 0000 0000 0000 0000 0000
000003a0: 0000 0000 0000 0000 0000 0000 0000 0000
000003b0: 0000 0000 0000 0000 0000 0000 0000 0000
000003c0: 0000 0000 0000 0000 0000 0000 0000 0000
000003d0: 0000 0000 0000 0000 0000 0000 0000 0000
000003e0: 0000 0000 0000 0000 0000 0000 0000 0000
000003f0: 0000 0000 0000 0000 0000 0000 0000 0000

action_model._discrete_distribution.branches.0.weight f4 [2, 256]
0.011629125 -0.0061978055 -0.0013155349 0.0010255462 0.0015678976 0.016598953 0.007098348 -0.00201119
0.0015521212 -0.000803861 0.0054461057 -0.0045116115 0.00013744195 0.0012513621 0.0014615853 -0.0008059847
-0.0016614245 -0.0031857819 0.004177515 -0.00725484 -0.00012190787 0.0041069053 0.0009515347 0.0075203176
0.0022661965 0.0016070874 0.00011707542 0.0034968078 -0.004305092 -0.005898693 -0.005717277 0.0013038603
-0.0025469435 0.004125463 0.009605054 -0.0047090612 0.0047760876 0.0041759335 0.0020186317 0.002801487
0.002752951 -0.010887457 0.0039979653 -0.0021405586 0.00020367546 0.008915797 -0.00829917 0.0027927512
-0.014150917 -0.0010838498 -0.003959959 -0.008301466 -0.0046189222 -0.0032936172 0.0015106933 0.00884231
0.0029384336 -0.009228886 0.0010092186 -0.0017108402 0.0076567614 0.0006316278 0.0061879214 0.0054422314
0.0060013696 -0.00047145924 -0.0054407874 -0.0046349433 0.0034430379 -0.0031855372 0.007845405 -0.0031131387
0.0063034124 0.0051500346 -0.006529686 0.011948006 0.0015297978 -0.0038044844 0.0068359026 0.0071189567
0.00014685324 -0.0025579173 0.0101503 0.008382107 0.006874308 0.008156839 0.0008831994 0.00031517862
-0.013082429 -0.0029499307 0.009288616 -0.00071787386 -0.0022788788 0.0059850113 0.009624432 0.0042383005
0.004344615 -0.0001360461 -0.008423205 -0.0014973301 0.0021047224 8.849185e-05 0.005842811 -0.0027795907
0.0017923306 -0.0026408168 0.0064813034 0.002854715 -0.0053684018 -0.007261818 -0.009546447 -0.0028987075
-0.004278374 -0.0003543982 0.0046660895 -0.0012590725 -0.007494951 -0.0033195035 -0.0003443837 -0.0038730798
-0.00094709994 0.0001605075 0.0015296576 0.0009579529 0.0064024376 -0.0003105879 -0.005563934 0.0075185546
0.0024710975 -0.0024981657 -0.00094845454 -0.006266311 -0.003531963 0.012931603 0.00058447913 0.00038973623
0.0064041256 0.0035178103 0.0017893192 0.0046011624 -0.0017558562 -0.0155369295 0.007279628 -0.006661014
-0.0013636218 0.0057720705 -0.0011844203 0.00072598143 -0.005776678 -0.0030230975 0.0028445914 0.002188859
0.008164636 0.002419251 0.012841277 0.0032864015 -0.0020050055 0.007960466 0.0072266944 0.0006490356
-0.0004280257 0.006548974 -0.011620921 -0.006267289 -0.0061541544 -0.0003905572 0.0004716348 0.0026525564
-0.0012267852 0.002125605 -0.0025484408 -0.0024100065 -0.0031825476 -0.0009559377 -0.006921861 0.00689203
-0.0059831906 -0.0005822836 0.0031625025 0.013126018 -0.0047703986 -0.003922943 0.0075555756 -0.0014552878
-0.002488163 -0.0065251626 0.004849474 0.011544175 0.008871749 0.0059271916 0.008289726 0.006699727
-0.005842076 0.011578407 0.006287889 0.0034371817 0.0051011215 -0.0009779969 -0.000521691 0.0075089396
-0.005282992 -0.007472243 -0.0010721772 -0.0032333396 -0.0084190555 -0.0068434873 0.010259497 -0.0046198736
-0.002130557 -0.0047995313 -0.00016091431 -0.005132613 0.0010130821 -0.002349065 -0.009436946 0.004170318
0.0022230484 -0.00083308015 -0.0011211977 0.010503622 -0.0035153173 -4.3433218e-05 0.0022176297 0.0023704919
0.006585385 0.0043307175 -0.0023307323 0.0026778623 -6.9891445e-05 -2.1601034e-05 0.0004632472 0.00076610787
-0.0053582634 -0.0027559227 0.00083006406 -0.0004382806 0.0017989185 0.001117424 0.0071302257 -0.0077582235
-0.004693252 -0.0041498546 0.0023761166 -0.0064250836 -0.0019176146 -0.0052937306 0.00039754916 0.008997592
0.001300374 -0.0020133497 -0.00041243457 -0.00020857372 -0.0023477755 0.0051976475 -0.0063444683 -0.0034886727
00000000: 1688 3e3c f616 cbbb 076e acba 9f6b 863a
00000010: ea81 cd3a 87fa 873c 4299 e83b 2bce 03bb
00000020: 8c70 cb3a 33ba 52ba 3f75 b23b 24d6 93bb
00000030: 4b1e 1039 bf04 a43a aa92 bf3a b848 53ba
00000040: 28c4 d9ba 8dc8 50bb 89e3 883b 02ba edbb
00000050: caa8 ffb8 3893 863b 6a70 793a ff6c f63b
00000060: 7884 143b e8a4 d23a 6386 f538 b32a 653b
00000070: bb11 8dbb d349 c1bb ff57 bbbb 4be6 aa3a
00000080: 9fea 26bb e42e 873b 845e 1d3c 784e 9abb
00000090: ba80 9c3b 45d6 883b 054b 043b 2799 373b
000000a0: db6a 343b 4e61 32bc 5d01 833b 9d48 0cbb
000000b0: b791 5539 9013 123c 3ef9 07bc 9706 373b
000000c0: 3fd9 67bc f70f 8eba 8bc2 81bb df02 08bc
000000d0: 545a 97bb bad9 57bb 7502 c63a 56df 103c
000000e0: bc92 403b c134 17bc c247 843a 453e e0ba
000000f0: 92e5 fa3b d393 253a 0cc4 ca3b bf54 b23b
00000100: 23a7 c43b 302e f7b9 a248 b2bb b9e0 97bb
00000110: 97a4 613b 72c4 50bb 038a 003c cd05 4cbb
00000120: db8c ce3b 9fc1 a83b faf6 d5bb 92c1 433c
00000130: 7f83 c83a a854 79bb b5ff df3b 2346 e93b
00000140: 9efc 1939 bba2 27bb 724d 263c 1b55 093c
00000150: e041 e13b 43a4 053c 8286 673a 8f3e a539
00000160: af57 56bc a053 41bb 472f 183c b32f 3cba
00000170: 3e59 15bb ea1d c43b cbaf 1d3c 71e1 8a3b
00000180: 465d 8e3b 99a7 0eb9 7c01 0abc 1042 c4ba
00000190: 62ef 093b b394 b938 0d75 bf3b cb29 36bb
000001a0: a3ec ea3a 8e11 2dbb 1d61 d43b 2c16 3b3b
000001b0: 6be9 afbb 8bf4 edbb b368 1cbc 3ef8 3dbb
000001c0: 9a31 8cbb 85ce b9b9 ffe5 983b 7607 a5ba
000001d0: 3598 f5bb 078c 59bb 668e b4b9 7fd3 7dbb
000001e0: cd46 78ba e74d 2839 cb7e c83a 221f 7b3a
000001f0: 8acb d13b 67d6 a2b9 a951 b6bb 355e f63b
00000200: 23f2 213b 44b8 23bb b5a1 78ba a055 cdbb
00000210: 8278 67bb 13df 533c bb37 193a 8355 cc39
00000220: b3d9 d13b 108b 663b 9787 ea3a 59c5 963b
00000230: c224 e6ba 9b8e 7ebc f289 ee3b a344 dabb
00000240: 8ebb b2ba a323 bd3b 8d3e 9bba ca4f 3e3a
00000250: 4a4a bdbb 291f 46bb 536c 3a3b f672 0f3b
00000260: f7c4 053c 4c8c 1e3b 3864 523c ab60 573b
00000270: 6966 03bb 9d6c 023c e8cd ec3b 0b24 2a3a
00000280: a368 e0b9 c798 d63b ad65 3ebc d55d cdbb
00000290: caa8 c9bb b3c3 ccb9 c045 f739 83d6 2d3b
000002a0: 15cc a0ba bc4d 0b3b be03 27bb 33f1 1dbb
000002b0: 4a92 50bb e597 7aba c7d0 e2bb 8ad6 e13b
000002c0: a40e c4bb 64a4 18ba fd41 4f3b 830e 573c
000002d0: 0151 9cbb 088c 80bb c394 f73b 5bbf beba
000002e0: 7310 23bb 08d1 d5bb 56e8 9e3b c823 3d3c
000002f0: d05a 113c e338 c23b a2d1 073c 6289 db3b
00000300: e36e bfbb 5cb3 3d3c a30a ce3b 5742 613b
00000310: 4f27 a73b 2130 80ba 17c2 08ba 8d0d f63b
00000320: f31c adbb b8d9 f4bb 4c88 8cba 70e6 53bb
00000330: 14f0 09bc 553f e0bb 7317 283c 4f62 97bb
00000340: d1a0 0bbb 6345 9dbb 1bbb 28b9 7a2f a8bb
00000350: 65c9 843a c5f2 19bb 6c9d 1abc 2aa7 883b
00000360: 90b0 113b 1063 5aba 27f5 92ba 6217 2c3c
00000370: 3d61 66bb 102c 36b8 a755 113b 415a 1b3b
00000380: 37ca d73b b1e8 8d3b 33bf 18bb 137f 2f3b
00000390: af92 92b8 de33 b5b7 fddf f239 a1d4 483a
000003a0: 5f94 afbb b69c 34bb a898 593a 07c9 e5b9
000003b0: b0c9 eb3a 8776 923a aba4 e93b b238 febb
000003c0: dac9 99bb 81fb 87bb 9fb8 1b3b 8289 d2bb
000003d0: 7858 fbba 0877 adbb 256e d039 a36a 133c
000003e0: 5071 aa3a 67f2 03bb 083c d8b9 95b4 5ab9
000003f0: 23dd 19bb 0751 aa3b 42e5 cfbb 37a2 64bb

action_model._discrete_distribution.branches.0.bias f4 [2]
0.0 0.0
00000000: 0000 0000 0000 0000

action_model._discrete_distribution.branches.1.weight f4 [2, 256]
0.0012476027 -0.006087383 0.008907126 -0.0052715708 0.0053628157 0.006235403 -0.0061467965 -0.0053215004
-0.009646686 0.0020526752 -0.0124422 0.0022789564 0.0071570496 -0.0026986368 0.0075191646 0.0021130387
-0.007744707 -0.0043643336 -0.0026704988 -0.004662091 -0.0030601572 0.0011900022 0.008771273 -0.0055894256
-0.00058887526 -0.009683262 0.002345396 -0.00040373584 0.011730317 -0.0015770817 0.00025493393 -0.0031546296
0.016174573 0.014320358 0.0017741894 0.0041694418 0.0014049554 -0.0035128265 0.002740379 -0.0025566972
-0.0073988508 0.004587961 -0.0015259081 -0.0040280405 -0.0011141136 -0.014991805 0.0012980973 -0.008375137
0.0032557682 -0.007328828 -0.0012603457 0.010393906 0.003603813 0.0043376936 -0.005582172 0.0022284144
0.009600338 -0.004638476 0.0041264407 0.00601145 -0.0029679993 0.00446576 0.0052472404 0.005510622
-0.010639628 0.010456172 -0.0066571976 -0.0020602532 0.0057025603 0.00044865356 -0.0066442834 0.0006160123
-0.0040339795 0.002299572 0.0025586684 -0.0050854175 -0.007996012 -0.00031511576 0.008669342 -0.004953045
-0.002880127 0.0041979193 -0.0003802021 -0.0034016762 -0.007450975 -0.0024989226 -0.0065413094 0.012402893
-0.0018449316 -0.005082833 0.0036076342 0.0010653043 0.007558393 -0.0071794167 0.001657887 0.017183935
-0.0052004526 -0.0025769656 0.006985388 -0.0037406485 -0.0060146437 0.0024544755 0.003979187 0.0014909094
-0.008609062 0.0012520176 0.0029945488 0.00550164 0.0023765366 -0.0037488663 0.0005705001 -0.005666365
-0.010922863 -0.012160358 0.008989649 0.003093573 -0.0012417898 -0.009693473 -0.0017919372 -0.00027806187
0.0025684396 0.0019273574 -0.0025969727 -0.0026608382 -0.00461315 -0.000113940834 0.013899465 0.0063112923
0.002582371 -0.0034680404 0.0045726495 -0.008432853 0.0015333904 -0.0073032877 0.0008637744 -0.0024815784
-0.01119439 -0.002387197 0.00716403 -0.0005221238 0.0011967266 0.00504723 -0.003489617 -0.002596272
-0.0015782999 -0.008951244 0.008905422 0.012154349 0.0016664058 0.0021095015 -0.0054516946 -0.0048377877
-0.004089761 -0.0036654149 -0.0018998748 -0.0016973049 -0.00021000004 0.003283901 -0.0020242545 0.0021355124
-0.008681885 -0.00876124 -0.004193843 -0.00271219 -0.0004550924 -0.007114616 0.004092075 0.002703691
0.0025372652 -0.009261555 0.00021395518 -0.0008278386 0.0035191358 0.0012391495 -0.003272159 -0.0030897083
-0.006206183 -0.004653359 0.005103696 0.015288032 -0.0031467122 -0.0069481987 -0.0070369034 0.00366493
-0.00048701125 0.0074917264 0.0072991997 -0.0008681942 -0.0015427024 0.00025726226 -0.0017437069 -0.008741438
-0.0017400514 0.010256547 -0.004326313 0.0055867783 0.0022858363 -0.0044555482 0.004659228 -0.011759696
0.00029592242 0.0058300192 -0.0045499834 0.01468716 0.010092436 -0.0049242536 0.0014598201 0.00067324156
-0.0045227446 -0.005871502 0.010850192 0.00734756 0.003654876 0.006453117 -0.0027549923 -0.0068998234
-0.0030317155 -0.0115443645 -0.0026587006 -0.002004173 -0.0008265978 -0.008057337 0.008666478 0.0031261488
-0.0032467928 -0.0061186417 0.00558597 6.272916e-05 0.0043087876 0.0011783451 0.0034307633 -0.0063597835
0.0067844833 -0.00060213555 0.011696127 0.00053797226 -0.012034378 0.006255086 -0.007848369 -0.011953128
0.0021864676 0.0075591854 0.009740908 -0.0071335137 -0.0062284465 -0.00091547146 0.0018226242 -0.0066881897
-0.0071634823 0.007077541 0.0021054249 -0.0007080073 -4.8573926e-05 -0.006499958 -0.0061770775 0.010191739
00000000: 9a86 a33a ab78 c7bb 32ef 113c 24bd acbb
00000010: 8fba af3b 5a52 cc3b 116b c9bb fb5f aebb
00000020: 220d 1ebc 2d86 063b 5fda 4bbc 8b5a 153b
00000030: af85 ea3b 9ddb 30bb 5363 f63b e87a 0a3b
00000040: 50c7 fdbb af02 8fbb 8903 2fbb 74c4 98bb
00000050: eb8c 48bb d9f9 9b3a 63b5 0f3c 8027 b7bb
00000060: c05e 1aba 8ba6 1ebc 37b5 193b 82ac d3b9
00000070: 8430 403c 15b6 ceba a7a8 8539 e7bd 4ebb
00000080: 8a80 843c ef9f 6a3c eb8b e83a d09f 883b
00000090: 7b26 b83a 7337 66bb ee97 333b 438e 27bb
000000a0: 0f72 f2bb 9b56 963b fb00 c8ba a7fd 83bb
000000b0: 7307 92ba 30a0 75bc eb24 aa3a df37 09bc
000000c0: ba5e 553b aa26 f0bb 2f32 a5ba 344b 2a3c
000000d0: f32d 6c3b 3623 8e3b a7ea b6bb 970a 123b
000000e0: bc4a 1d3c 5bfe 97bb 1837 873b b3fb c43b
000000f0: c482 42bb 8355 923b 0bf1 ab3b 7392 b43b
00000100: d651 2ebc 5d50 2b3c 9f24 dabb 5005 07bb
00000110: 8bdc ba3b 4339 eb39 4ab8 d9bb e37b 213a
00000120: 792f 84bb 6bb4 163b 55af 273b 93a3 a6bb
00000130: b501 03bc 1f36 a5b9 db09 0e3c 274d a2bb
00000140: 83c0 3cbb b38e 893b dd55 c7b9 a8ee 5ebb
00000150: 4f27 f4bb f7c4 23bb 7b58 d6bb 8135 4b3c
00000160: a2d1 f1ba e58d a6bb 0f6e 6c3b aea1 8b3a
00000170: 65ac f73b 5041 ebbb 754d d93a 53c5 8c3c
00000180: 8f68 aabb 4fe2 28bb afe5 e43b ab25 75bb
00000190: 7d16 c5bb 44db 203b d763 823b 9e6a c33a
000001a0: 060d 0dbc bd1a a43a 3140 443b 1a47 b43b
000001b0: abbf 1b3b 8aaf 75bb 9d8d 153a eaac b9bb
000001c0: cff5 32bc 3d3c 47bc 5249 133c 8bbd 4a3b
000001d0: 8dc3 a2ba 5fd1 1ebc 6fdf eaba d5c8 91b9
000001e0: 4453 283b 629f fc3a f931 2abb 7561 2ebb
000001f0: e829 97bb 85f3 eeb8 95ba 633c f5ce ce3b
00000200: ff3c 293b 1048 63bb 2ad6 953b f329 0abc
00000210: 0bfc c83a 6b50 efbb eb6e 623a faa1 22bb
00000220: ad68 37bc 8572 1cbb 3dc0 ea3b 23df 08ba
00000230: 7bdb 9c3a 3c63 a53b 0fb2 64bb 3726 2abb
00000240: f5de ceba 3da8 12bc 0ce8 113c 0923 473c
00000250: 4d6b da3a 903f 0a3b 21a4 b2bb 4e86 9ebb
00000260: 6703 86bb 7537 70bb 3805 f9ba 1a78 deba
00000270: 7533 5cb9 b736 573b 5ba9 04bb f4f3 0b3b
00000280: 773e 0ebc 4e8b 0fbc 816c 89bb ffbe 31bb
00000290: 7899 eeb9 ba21 e9bb d016 863b 6830 313b
000002a0: 3f48 263b c7bd 17bc 2859 6039 4f03 59ba
000002b0: 4da1 663b f56a a23a b871 56bb b47c 4abb
000002c0: 3d5d cbbb 347b 98bb e83c a73b a77a 7a3c
000002d0: 1239 4ebb b7ad e3bb d395 e6bb 522f 703b
000002e0: 8b55 ffb9 287d f53b 202e ef3b 8797 63ba
000002f0: 8134 caba 28e1 8639 188d e4ba 4038 0fbc
00000300: 7012 e4ba 130b 283c bec3 8dbb 4b11 b73b
00000310: f8cd 153b d9ff 91bb 70ac 983b bdab 40bc
00000320: 0926 9b39 bf09 bf3b 0718 95bb 6aa2 703c
00000330: bf5a 253c a25b a1bb 6f57 bf3a 7a7c 303a
00000340: 8833 94bb bb65 c0bb 01c5 313c cdc3 f03b
00000350: a586 6f3b ab74 d33b 1a8d 34bb ea17 e2bb
00000360: bfaf 46bb 9324 3dbc 983d 2ebb 7158 03bb
00000370: 0ab0 58ba ec02 04bc d8fd 0d3c 13e0 4c3b
00000380: 25c8 54bb e37e c8bb 830a b73b 768d 8338
00000390: bb30 8d3b b372 9a3a a8d6 603b bb65 d0bb
000003a0: 5f50 de3b a2d8 1dba 1da1 3f3c b506 0d3a
000003b0: d72b 45bc 77f7 cc3b 7296 00bc 0dd7 43bc
000003c0: d74a 0f3b 0bb3 f73b 5498 1f3c 40c0 e9bb
000003d0: ff17 ccbb 40fc 6fba 1fe5 ee3a 9a28 dbbb
000003e0: a5bb eabb b8ea e73b 2bfb 093b 9199 39ba
000003f0: dbbb 4bb8 9afd d4bb 1569 cabb 40fb 263c

action_model._discrete_distribution.branches.1.bias f4 [2]
0.0 0.0
00000000: 0000 0000 0000 0000

action_model._discrete_distribution.branches.2.weight f4 [2, 256]
-0.009205322 -0.004310514 0.01137849 -0.0052077426 -0.011612313 0.0070350417 0.0069016567 -0.0058284807
-0.0030724416 0.00060655683 0.010355232 0.0015798074 0.0007254862 0.00784471 0.0024172254 0.0010934034
-0.0011380453 -0.009187292 -0.011178556 0.007877481 -0.0012194769 -0.0011966554 -0.0069145397 -0.002717196
-0.0040128506 0.0010031414 -0.002392916 0.0015410803 0.0022126837 0.0030972185 -0.017989326 0.0042810277
0.006385063 0.00014718848 0.002689896 -0.008228588 -0.0034199252 0.010019546 -0.0073026433 0.005601977
0.011701061 0.0014632521 0.0077208853 -0.0007335981 0.0063027865 -0.004655091 0.0036492094 -0.008610502
-0.0012359269 0.0064632497 -0.0075761946 0.011527618 0.006120601 -0.00017915864 -0.0047105784 0.005760216
0.007318502 0.00029635848 -0.007127131 -0.0039726114 -0.019700717 -0.004288502 -0.0009860772 -0.0017762162
-0.0007601054 -0.008179002 0.002310561 -0.0037861129 0.0035368004 2.9289795e-05 -0.0014396458 0.008418112
-0.0077091972 0.005024979 -0.0023697743 -0.0044392305 0.0077970694 -0.00082549464 -0.011011498 0.0046150247
0.0040014586 -0.0042955237 0.0075025694 0.001275864 0.0034054324 -0.0030290163 -0.005171829 -0.0068037347
-0.0005409524 0.008055666 0.008666373 0.0022390564 -0.0028995562 -0.0013673271 -0.0032925908 -0.010932242
-0.0057745683 0.00073644693 0.006052229 0.0013234997 0.011694595 -0.0019505903 -0.0021846604 0.008010487
-0.0030785904 -0.00021839282 -2.4193481e-05 -0.0014805862 -0.009672895 -0.00926677 -0.010467285 -0.011992775
-0.0065285056 0.0016755982 0.007460139 -0.0011572496 -0.009431269 -0.0033007965 0.0041745165 -0.0014449423
0.0048044627 0.0038089864 0.00060900167 -0.008067992 -0.0008215489 0.013985248 -0.003982013 -0.005668869
0.01522358 0.00479697 0.009028119 -0.0069282115 0.0033720916 0.009277663 -0.004059882 0.0027245928
0.005121693 0.006959135 0.0034179117 -0.0041507576 -0.010159157 0.001965682 -0.0043915035 -0.0031449988
-0.008855471 -0.0005683751 -0.002273366 -0.0024031373 0.001005046 0.0015037004 0.010834246 -0.011753815
-0.00050936645 0.0027519031 0.0008571166 -0.001038789 -0.0038751487 -0.010021767 -0.0041163145 0.0016752919
0.00023738116 0.0017683806 -0.011164456 0.005593918 0.005013666 0.005836173 -0.0039311736 -0.0030276265
0.0035061073 -0.0016045276 0.0024280334 -0.0015943109 -0.0007440355 -0.002780167 -0.00029054665 0.0024981599
0.007948 -0.0048530796 -0.001233197 0.008591983 -0.006767201 -0.0123412125 -0.012356827 -0.00038351445
0.007806861 0.009681821 0.010313852 -0.0029914703 -0.006372864 0.0033560544 -0.0148212975 -0.0065145046
-0.0072802426 0.0009179848 0.0029025592 -0.0003573952 0.00561835 -0.011189142 -0.0061066034 -0.005048563
0.006086062 -0.000119976154 0.0017699864 0.0013296878 -0.008372984 0.003216751 -0.011412307 -0.0026750516
-0.009507324 -0.0075440826 -0.00054321636 0.01018026 -0.0017696851 -0.008091215 0.0065454924 -4.681316e-05
-0.008459258 0.0033397023 0.004016013 0.006462764 -0.0041396916 -0.007803806 -0.0015593257 -0.00034990776
-0.0035343107 0.0041795364 -0.0058130925 0.0048803124 0.0045193164 0.002838283 -0.0011243745 0.004196283
0.0005217676 -0.0171824 -0.005301291 -0.004891564 -0.005995634 -0.0040275673 0.00466197 -0.00216518
-0.0018161194 -0.0047315876 0.018542184 0.006410384 -0.0007297053 -0.0056249886 0.00041664587 0.014500178
-0.012045926 0.006491394 0.006624296 -0.008592007 0.005068565 0.010243631 -0.0021403648 -0.0023836258
00000000: ebd1 16bc 363f 8dbb d96c 3a3c b6a5 aabb
00000010: 9241 3ebc 3586 e63b 4b27 e23b d7fc bebb
00000020: 045b 49bb 5701 1f3a fea8 293c 8a11 cf3a
00000030: 8e2e 3e3a 1987 003c 506a 1e3b 8850 8f3a
00000040: 772a 95ba 4c86 16bc 4326 37bc 8d10 013c
00000050: dbd6 9fba 18d9 9cba 5d93 e2bb fc12 32bb
00000060: 3b7e 83bb d77b 833a 78d2 1cbb 13fe c93a
00000070: ac02 113b b4fa 4a3b 5a5e 93bc dd47 8c3b
00000080: ca39 d13b 9b56 1a39 f748 303b 33d1 06bc
00000090: d320 60bb 0629 243c 034b efbb ca90 b73b
000000a0: cfb5 3f3c 98ca bf3a 7bff fc3b ef4e 40ba
000000b0: 9b87 ce3b bc89 98bb 9327 6f3b 1013 0dbc
000000c0: d3fe a1ba abc9 d33b ba41 f8bb 56de 3c3c
000000d0: 538f c83b 88dc 3bb9 325b 9abb 32c0 bc3b
000000e0: 0bd0 ef3b 9060 9b39 b58a e9bb ae2c 82bb
000000f0: 6663 a1bc 9086 8cbb 433f 81ba edcf e8ba
00000100: cf41 47ba 3901 06bc c86c 173b 6f20 78bb
00000110: aac9 673b 5bb3 f537 7fb2 bcba 1fec 093c
00000120: 6f9d fcbb 94a8 a43b 374e 1bbb f776 91bb
00000130: 8f7e ff3b 0266 58ba 9269 34bc a239 973b
00000140: ab1e 833b 77c1 8cbb 1dd8 f53b e43a a73a
00000150: ad2d 5f3b 7682 46bb 7278 a9bb ddf1 debb
00000160: b3ce 0dba eafb 033c 67fd 0d3c 22bd 123b
00000170: 7b06 3ebb e237 b3ba 82c8 57bb 251d 33bc
00000180: 9738 bdbb 1e0e 413a c751 c63b 4879 ad3a
00000190: b09a 3f3c f3aa ffba 852c 0fbb 6b3e 033c
000001a0: 2dc2 49bb 6000 65b9 1bf3 cab7 3b10 c2ba
000001b0: 107b 1ebc a7d3 17bc fa7e 2bbc 587d 44bc
000001c0: 13ed d5bb bf9f db3a 2f74 f43b daae 97ba
000001d0: 9c85 1abc 2d52 58bb 62ca 883b 3864 bdba
000001e0: c16e 9d3b 30a0 793b 69a5 1f3a 9c2f 04bc
000001f0: 375d 57ba 6222 653c 8c7b 82bb ebc1 b9bb
00000200: 536c 793c e72f 9d3b adea 133c 0d06 e3bb
00000210: 4ffe 5c3b 5701 183c c208 85bb 158f 323b
00000220: e0d3 a73b 7509 e43b 0bff 5f3b 1403 88bb
00000230: 9872 26bc acd2 003b 9ae6 8fbb 531c 4ebb
00000240: 8a16 11bc 02ff 14ba c1fc 14bb f47d 1dbb
00000250: bfbb 833a d017 c53a 1f82 313c 1393 40bc
00000260: 0187 05ba 4659 343b 1fb0 603a fa27 88ba
00000270: 35f6 7dbb 5632 24bc 26e2 86bb 7895 db3a
00000280: 85e9 7839 02c9 e73a 1feb 36bc 2f4d b73b
00000290: ae49 a43b 5e3d bf3b 13d1 80bb 256b 46bb
000002a0: b8c6 653b 034f d2ba a41f 1f3b 32f8 d0ba
000002b0: 610b 43ba 7633 36bb 8354 98b9 2bb8 233b
000002c0: 5438 023c 9506 9fbb 3aa3 a1ba 63c5 0c3c
000002d0: 65bf ddbb cc32 4abc 4a74 4abc 7012 c9b9
000002e0: b2d0 ff3b 80a0 1e3c 6efb 283c 8b0c 44bb
000002f0: 75d3 d0bb 40f1 5b3b 07d5 72bc a077 d5bb
00000300: 1a8f eebb eba4 703a dd38 3e3b c660 bbb9
00000310: 231a b83b aa52 37bc e719 c8bb 6a6e a5bb
00000320: 976d c73b b59b fbb8 e3fe e73a eb48 ae3a
00000330: d72e 09bc 20d0 523b affa 3abc eb4f 2fbb
00000340: 9bc4 1bbc 5a34 f7bb a266 0eba 1bcb 263c
00000350: c7f4 e7ba 0491 04bc 927b d63b 3f59 44b8
00000360: b398 0abc e8de 5a3b c298 833b 98c5 d33b
00000370: 40a6 87bb 12b7 ffbb 4a62 ccba d373 b7b9
00000380: e59f 67bb 7ef4 883b c17b bebb 07eb 9f3b
00000390: c616 943b 7d02 3a3b bf5f 93ba f980 893b
000003a0: 3bc7 083a 1bc2 8cbc 74b6 adbb 6a49 a0bb
000003b0: 0677 c4bb aff9 83bb 70c3 983b b1e5 0dbb
000003c0: db0a eeba 6f0b 9bbb c7e5 973c 330e d23b
000003d0: b249 3fba d351 b8bb 4371 da39 2892 6d3c
000003e0: 475c 45bc c2b5 d43b 9f10 d93b 7dc5 0cbc
000003f0: 3416 a63b e7d4 273c 5d45 0cbb 9b36 1cbb

action_model._discrete_distribution.branches.2.bias f4 [2]
0.0 0.0
00000000: 0000 0000 0000 0000

action_model._discrete_distribution.branches.3.weight f4 [2, 256]
-0.0021409458 -0.009555581 -0.0035566543 0.011076193 0.0006917416 -0.0058513386 0.0041423226 0.003840842
0.00023823626 -0.0025388633 0.0006323327 0.001995963 -0.0068087424 0.0019967593 0.011794833 -0.011572121
0.0034752272 -0.006759904 -0.0026210686 0.00023493054 0.0023657454 -0.0012774159 -0.0037041516 0.00026321656
-0.0029386003 -0.0073201703 0.0012130417 -0.0037340738 0.0018004403 -0.00012961506 -0.0062028836 0.0076973806
-0.0072544864 -0.00066948944 -0.0062420047 0.0013073452 -0.0023549167 -0.0016823289 -0.0041390853 0.00720204
-0.004610908 -0.01336613 -0.005896684 0.0018995488 -0.0018332921 0.004295749 0.0015354438 0.0016035987
-0.000565183 0.0017576356 -0.004132952 0.0038435508 0.0032642197 -0.0031034069 0.0009253703 -0.007065393
0.015287292 0.0076065096 -0.011050122 0.0086476365 -0.002733762 -0.00016088133 0.008046551 0.0028515204
0.0056012366 -0.00048908015 -0.0038544633 0.00875344 -0.004210857 -0.017383467 -0.010603922 0.002829745
9.3061746e-05 0.0067406907 -0.0015716428 0.0009196889 0.008897094 0.0022471757 -0.008074647 -0.00020409135
-0.009074183 0.014794855 -0.009528658 0.00040132576 0.0014759337 0.0012666563 -0.0049514743 0.002362862
-0.01135746 -0.0037601849 0.0050091837 -0.002397316 0.0036858486 0.0010134004 -0.0038597882 -0.00065294345
-0.0051599117 -1.47325e-05 -0.0016870647 -0.0026326694 0.007360996 0.0033338086 -0.001184737 -0.0033356473
0.008685394 0.0056539546 0.008623437 -0.006896118 -0.008196293 0.013514146 0.019358153 0.0040074876
0.0070190267 0.0067591295 -0.007909866 0.0012065751 0.007882975 0.006715134 -0.0182261 -0.00773571
-0.0035913659 0.002989068 -0.0017718173 -0.00018592103 0.00258513 0.0047882376 -0.0012575503 0.0071629994
-0.007367606 -0.000466582 -0.0013287956 0.0017789241 0.0032536227 -0.0056598475 0.007986139 0.0024245621
-0.0041200975 0.00091563835 0.0042294976 0.00856145 0.007518382 0.00049039937 -0.0064572035 0.0048347875
0.006432285 0.0051881648 -0.0068394775 -0.00089321454 0.006652 0.0020365275 -0.0029176925 0.00042312202
-0.0065938146 0.0096906135 0.0027379603 -0.0010354238 -0.0059281867 0.0071300655 0.0005361656 -0.0011307738
0.0013321956 0.0002688628 -0.00063275563 -0.008287132 0.0010374057 -0.004095446 -0.0040528625 0.0037099551
-0.0026287108 -0.009885972 -0.009953818 0.0012173863 -0.0074868 0.01450872 0.00624103 0.00545687
0.011078759 -0.011452994 0.0046888925 0.0012716546 0.006178861 -0.00734232 0.0059145493 0.00038880404
0.007108087 -0.00023430698 -0.004429516 -0.007077367 0.00045827762 -0.005027511 -0.0011887765 -0.0030943255
0.0013065834 0.0034196165 0.0050983923 0.002646657 -0.0011090642 0.0013987029 0.011129264 -0.0023598715
0.0130360825 0.0018294584 -0.00023913702 0.0015552015 0.0025959408 0.0008010569 -0.007364776 -0.0015424973
-0.011793146 0.0008352191 -0.0051347814 0.0008885884 0.012014008 -0.0038667356 -0.004297399 -0.0037251047
0.0058414526 0.004402892 0.0038738064 -0.009158371 0.005608926 -6.905005e-05 0.0087768575 -0.0019916126
-0.004540139 -0.0013590485 -0.00934055 0.012202466 0.0060123974 -0.008205143 -0.010253381 0.011529965
0.0019397388 0.004107508 -0.00067706703 0.00063445437 0.0013365042 -0.007241782 0.001566021 0.011297273
-0.0006770431 -0.005924204 -0.0012825186 0.004027248 0.013509721 0.008008402 0.01012977 0.010485593
0.013075379 -0.0053551993 -0.003003388 0.009860446 -0.005893645 -0.011801215 -0.0029536337 0.0057825926
00000000: 1c4f 0cbb 038f 1cbc c216 69bb ec78 353c
00000010: fe55 353a 96bc bfbb 52bc 873b a3b6 7b3b
00000020: 0fcf 7939 0f63 26bb 21c3 253a b4ce 023b
00000030: df1b dfbb 10dc 023b 1d3f 413c fe98 3dbc
00000040: a3c0 633b 2f82 ddbb 3cc6 2bbb b057 7639
00000050: 9f0a 1b3b f76e a7ba 5ac1 72bb 5400 8a39
00000060: 8895 40bb 0ade efbb edfe 9e3a 5db7 74bb
00000070: c0fc eb3a 47e9 07b9 8f41 cbbb 4f3a fc3b
00000080: 0bb7 edbb ad80 2fba bb89 ccbb 3a5b ab3a
00000090: f254 1abb 9781 dcba 2aa1 87bb 17ff eb3b
000000a0: 1a17 97bb 9dfd 5abc f838 c1bb 48fa f83a
000000b0: 134b f0ba 5bc3 8c3b f240 c93a d82f d23a
000000c0: ca28 14ba 7760 e63a b76d 87bb 15e4 7b3b
000000d0: 85ec 553b 8762 4bbb 8d94 723a d084 e7bb
000000e0: 8d77 7a3c 0740 f93b 920b 35bc d1ae 0d3c
000000f0: ea28 33bb 41b2 28b9 aed5 033c 93e0 3a3b
00000100: 948a b73b 9d35 00ba 2a9b 7cbb 976a 0f3c
00000110: 3bfb 89bb c667 8ebc 13bc 2dbc 3e73 393b
00000120: 252a c338 03e1 dc3b 95ff cdba 4717 713a
00000130: 1ec5 113c 5a45 133b 864b 04bc 5b01 56b9
00000140: e2ab 14bc 1f66 723c 171e 1cbc 0869 d239
00000150: 1e74 c13a ef05 a63a fa3f a2bb 3fda 1a3b
00000160: a414 3abc 6f6d 76bb 1424 a43b 4a1c 1dbb
00000170: 478e 713b 13d4 843a 80f4 7cbb 4b2a 2bba
00000180: 7a14 a9bb 9b2b 77b7 7f20 ddba dd88 2cbb
00000190: 8334 f13b 077c 5a3b 2d49 9bba e09a 5abb
000001a0: 2f4d 0e3c cf44 b93b 5149 0d3c d5f8 e1bb
000001b0: bf49 06bc 706a 5d3c fd94 9e3c 3e51 833b
000001c0: ddff e53b b07b dd3b 6298 01bc f125 9e3a
000001d0: 9827 013c a00a dc3b e74e 95bc d77b fdbb
000001e0: 1f5d 6bbb 3de4 433b 533c e8ba ccf3 42b9
000001f0: 496b 293b a6e6 9c3b 63d4 a4ba 98b7 ea3b
00000200: f56b f1bb 939f f4b9 fb2a aeba ca2a e93a
00000210: bb3a 553b 3e76 b9bb 4bd8 023c 67e5 1e3b
00000220: e201 87bb 7307 703a 9997 8a3b 5345 0c3c
00000230: c25c f63b 258e 003a f396 d3bb 236d 9e3b
00000240: ebc5 d23b 7b01 aa3b b21d e0bb 9d26 6aba
00000250: 05f9 d93b 4377 053b c236 3fbb 7ad6 dd39
00000260: ed10 d8bb 61c5 1e3c 5a6f 333b 0fb7 87ba
00000270: 3c41 c2bb 53a3 e93b 778d 0c3a 7936 94ba
00000280: 119d ae3a 27f6 8c39 83df 25ba c0c6 07bc
00000290: 8ff9 873a 1733 86bb e0cd 84bb b822 733b
000002a0: 7346 2cbb c6f8 21bc 5715 23bc b590 9f3a
000002b0: d553 f5bb fbb5 6d3c 8e81 cc3b 8bcf b23b
000002c0: af83 353c 57a5 3bbc 48a5 993b a6ad a63a
000002d0: 0b78 ca3b d897 f0bb d6ce c13b 65d8 cb39
000002e0: f5ea e83b 4db0 75b9 7925 91bb 42e9 e7bb
000002f0: fb44 f039 d2bd a4bb b8d0 9bba 2bca 4abb
00000300: aa41 ab3a a51b 603b 6a10 a73b 8973 2d3b
00000310: 055e 91ba ae54 b73a 8457 363c 13a8 1abb
00000320: 4b95 553c 70ca ef3a dbc0 7ab9 e7d7 cb3a
00000330: a920 2a3b 05fe 513a 3854 f1bb 9f2d caba
00000340: 0a38 41bc 9bf2 5a3a ab41 a8bb 28f0 683a
00000350: 67d6 443c 0f69 7dbb 32d1 8cbb e320 74bb
00000360: a869 bf3b 2346 903b b0df 7d3b fe0c 16bc
00000370: 15cb b73b f7ce 90b8 cfcc 0f3c b785 02bb
00000380: 72c5 94bb 1a22 b2ba 1b09 19bc daec 473c
00000390: a503 c53b dd6e 06bc ccfd 27bc 2ee8 3c3c
000003a0: d53e fe3a 4698 863b 337d 31ba 8351 263a
000003b0: a42d af3a 784c edbb f242 cd3a 3318 393c
000003c0: 987b 31ba d31f c2bb 2f1a a8ba 01f7 833b
000003d0: e057 5d3c ac35 033c 56f7 253c c4cb 2b3c
000003e0: 1d3a 563c ab7a afbb 7dd4 44bb b58d 213c
000003f0: 7a1f c1bb e259 41bc c091 41bb e77b bd3b

action_model._discrete_distribution.branches.3.bias f4 [2]
0.0 0.0
00000000: 0000 0000 0000 0000
