Assets/results/0719day2/TrafficLightBrain/TrafficLightBrain-529961.onnx (onnx, 386520 bytes, 13 tensors)

discrete_act_size_vector f4 [1, 4]
000000 00 00 00 40 00 00 00 40 00 00 00 40 00 00 00 40
       2.0 2.0 2.0 2.0

network_body._body_endoder.seq_layers.0.weight f4 [256, 100]
000000 0f 4d e6 3c b3 d1 1c 3e fd cb 44 be f2 c4 cf 3d
       0.028112916 0.15314369 -0.1921844 0.10144986
000010 a1 ef e1 bd 73 a2 93 bd e7 92 57 ba fb a2 29 be
       -0.11032034 -0.07208719 -0.0008223489 -0.16566078
000020 0c 88 14 bd 71 e2 05 bd a4 5c 97 bd 70 d5 7d 3d
       -0.036262557 -0.032686654 -0.07390717 0.061971128
000030 12 5c 42 bd f0 f2 ed 3d cb b6 4c bc ea 53 40 3e
       -0.047451086 0.11618602 -0.012494753 0.1878201
000040 62 10 fa 3d 3b a1 44 be e2 bb 01 3e 55 af ed 3d
       0.12210156 -0.1920213 0.12669328 0.116057076
000050 a2 a1 62 3c 02 d1 8e bd ca 0d 8a 3d 47 ed f7 3d
       0.013832482 -0.06973459 0.06740911 0.12105804
000060 2b c5 47 3c d5 6f 74 bd 67 70 ba bc b6 81 82 bd
       0.012193005 -0.059676964 -0.022758676 -0.06372397
000070 41 51 41 3d 67 b7 d4 3c db cc de bd 52 46 44 bd
       0.04719663 0.02596636 -0.10878917 -0.047918625
000080 aa 43 85 3d 1b 0f 1b be 97 80 ff 3d e7 d9 13 3b
       0.065070465 -0.15142481 0.124756984 0.00225603
000090 fd 43 4d 3e 4d b1 f7 bd 4b e6 ce bd fe af 8f 3b
       0.20045467 -0.12094364 -0.10102519 0.0043849936
0000a0 88 7a 21 be 35 99 2f bb 68 5c 5d 3c 83 74 0b 3d
       -0.15769398 -0.00267942 0.013510801 0.03404666
0000b0 76 f0 c4 bc 06 e3 26 3e af 3d bb 3d a0 fc fe bb
       -0.024040442 0.1629754 0.091426246 -0.00778158
0000c0 ef 3f ce 3d 2b 4d 90 bd b5 f2 97 3d 8b 4c 8c 3c
       0.10070788 -0.070459686 0.074193396 0.017126342
0000d0 aa d6 32 bd 6b 0d dd 3d e6 d6 82 3d a7 13 b3 3d
       -0.04366175 0.10793575 0.06388645 0.08743983
0000e0 1b 6f 69 be 7f a5 a9 bc 88 21 0a 3d 97 bd cb 3d
       -0.2279629 -0.020708797 0.033723384 0.09948271
0000f0 7c 1f 21 bd dd 28 df bd 4b bd fb 3d 60 22 f2 3b
       -0.039336666 -0.10896466 0.12291964 0.0073893517
000100 f9 82 ac 3c 6b 12 8b 3b 14 22 c8 bb ed b0 6c 3d
       0.021058546 0.004244139 -0.006107578 0.057785917
000110 9c 66 c5 3c ee 9e 81 3d c1 2d 4a 3e 19 7a 92 bd
       0.02409678 0.063291416 0.19744016 -0.071521945
000120 ca 32 79 3c 0e 86 36 be 32 cd 81 bc 03 20 4b 3e
       0.015209863 -0.17824575 -0.015844915 0.1983643
000130 e0 3a e3 3b ca a7 f4 3d ff cb a2 3b a7 60 2e be
       0.0069345087 0.11946066 0.004968166 -0.17029057
000140 f5 ed e4 3c 3a a2 fe 3c eb cf 8a 3c a5 62 71 bc
       0.027945498 0.031083215 0.016944846 -0.014732991
000150 c3 b4 82 bc a2 66 83 3d 43 19 60 3d ff 23 a5 3d
       -0.015955335 0.0641606 0.05471159 0.08063506
000160 9d 1c 80 3d f1 de 21 bb 2a 1c 78 be 1d 65 d0 3d
       0.062554576 -0.0024699534 -0.24229494 0.10175536
000170 af 8c 15 be 1a d3 3f be bd 9e cd bb 23 9d 3a 3e
       -0.14604448 -0.18732873 -0.0062750266 0.18224005
000180 fb 04 44 bd d3 53 60 bd 3e 7b 1f be 8d 7c 4d bd
       -0.047856312 -0.05476744 -0.15574357 -0.05016761
000190 c2 ed 6d 3d ab 21 3a bd 66 00 27 3e 8d b5 ce 3d
       0.05808807 -0.045442265 0.16308746 0.10093222
0001a0 cc 84 5c bd 6a 46 b7 3c 78 1a ce bd 4d 4f d4 3d
       -0.053837582 0.022372443 -0.10063642 0.10366688
0001b0 40 4f 26 3d 3c b7 3e 3e 99 76 3f bd dc 9c a1 3c
       0.040602922 0.18624586 -0.046743963 0.019728117
0001c0 c8 4e ce bc e0 f9 c2 bd 84 e9 b5 3d 18 b4 91 bd
       -0.02518405 -0.09520316 0.0888243 -0.07114428
0001d0 4b bd 7b 3e 68 10 b8 bd b3 01 1d bd 6b 35 62 3d
       0.24583928 -0.08987504 -0.0383317 0.055226725
0001e0 3b d9 81 3d 77 94 b6 3b 5b ac bc bd 7f b7 2e 3e
       0.063402615 0.0055718976 -0.09212562 0.17062186
0001f0 5f f7 15 3e b3 22 09 3e e8 c1 01 3d 26 5b 8b bd
       0.14645146 0.13392143 0.031679064 -0.068044946
000200 2d c4 54 3d e1 0c 9b bc de 5b a3 3d 68 ba 5d 3d
       0.0519449 -0.01892704 0.07976507 0.05413285
000210 83 18 75 bd 89 ba a4 3b ca bd 52 bb e1 b3 10 be
       -0.05983783 0.0050271195 -0.003215658 -0.14131118
000220 b5 2e 27 3d 60 c5 87 bd bb 54 06 be af 84 ef bc
       0.040816028 -0.06629443 -0.1311826 -0.029238073
000230 ef f7 7e bc 95 4e 03 be 78 81 33 3d d2 3b 3a bb
       -0.015562042 -0.12822945 0.043824643 -0.0028417003
000240 5a 01 26 3d 81 3b c8 3d b6 43 0b bd 41 90 2a 3e
       0.040528633 0.097769745 -0.03400012 0.16656591
000250 80 1d 79 be 4d df 87 bc 4f 26 9d 3d fa 00 bd bd
       -0.2432766 -0.01658597 0.076733224 -0.09228702
000260 f2 14 1c 3e d8 cf 19 be bf bb dc bd 99 7c 00 3e
       0.15242365 -0.15020692 -0.10777997 0.1254753
000270 08 74 5f 3d e3 21 63 be 9d b3 a7 3d 08 4b fe 3c
       0.054554015 -0.22180896 0.081885554 0.031041637
000280 0a 72 71 bd cb 03 65 bd 33 3b 18 3d 5f 76 2a bd
       -0.058946647 -0.05591182 0.03716583 -0.041616794
000290 af bb 07 bd 92 bb e8 3d 45 62 12 bc d1 8a 24 3d
       -0.033137973 0.11363901 -0.008934562 0.04017145
0002a0 5f 6f 97 be a1 84 32 3e 09 32 13 3d 3b 74 2a be
       -0.29577157 0.17433406 0.03593639 -0.16645901
0002b0 c7 27 7e 3d 9f 5c 1a 3e 9d 70 cc 3d 51 87 46 3e
       0.062049653 0.15074395 0.09982417 0.19387557
0002c0 bd f6 ea bc 72 20 54 3e 74 0b af 3d eb 3b ef 3d
       -0.028682107 0.20715502 0.085471064 0.1168135
0002d0 0d 53 79 3c c3 5c 81 bc a7 89 f1 bd 23 ad 01 bc
       0.015217555 -0.015791303 -0.11793833 -0.007914814
0002e0 0e c0 a5 bc 44 01 ba 3c 2a 35 30 3d e2 2a 9d bc
       -0.02023318 0.022705682 0.04301945 -0.019185487
0002f0 4d 6b c8 3b 51 c0 04 3d 27 bd f4 3d bf 0e 68 be
       0.006116307 0.03240997 0.119501404 -0.22661875
000300 91 83 44 3d ad 20 da bc 94 f8 b3 bd f8 33 de bd
       0.047977034 -0.02662691 -0.08787647 -0.10849756
000310 ac 2c 90 bd 97 4a 06 3e 64 45 92 3d bf 47 4a bd
       -0.070397705 0.13114391 0.071421415 -0.04938483
000320 86 c4 96 3d d4 e8 07 3e a5 bc 8f 3e b0 f8 76 3d
       0.073617026 0.1327241 0.28073612 0.06029576
000330 80 8b ed bd 7c af c2 bd 6d da 10 3e e1 a3 83 3c
       -0.11598873 -0.09506127 0.14145823 0.016069354
000340 52 ac 3a 3e a9 8f d8 3d 5a 12 92 3d fc 84 9c bd
       0.18229797 0.10574276 0.071324065 -0.07642552
000350 4f 1c 3f bd 2f b9 4a be 91 0e 04 3e cc e5 42 be
       -0.046657857 -0.19797204 0.12896182 -0.19032973
000360 ba d9 4b 3d d9 8d 9e 3d d2 96 57 3e 25 47 f1 bc
       0.049768187 0.07741899 0.21053627 -0.02945287
000370 f3 4c 11 bd fa 2a dc 3c 76 9a 0e 3e 44 8f 8a bd
       -0.035473775 0.026875962 0.1392611 -0.06765607
000380 94 71 40 be 5f d1 e5 3c 05 5c 30 bc 07 f0 b8 3d
       -0.18793327 0.028053937 -0.010764127 0.090301566
000390 4d a7 76 bd e2 18 ca 3d a6 99 a5 3d 4c b3 94 3d
       -0.060218144 0.09868027 0.08085947 0.07260761
0003a0 bc 56 05 bd b5 8c a0 bd 5d 75 5d be 7f 03 e3 3d
       -0.03255342 -0.07839338 -0.21626802 0.11084651
0003b0 c7 f5 df 3c eb 3b d8 bc 94 db a3 3c 8b 73 af bd
       0.027338875 -0.026395759 0.020002164 -0.0856696
0003c0 e0 58 d9 3b 1c 24 8a bd c5 1d eb 3d 85 47 67 bd
       0.006632909 -0.067451686 0.114802875 -0.05646469
0003d0 9c d9 83 be 96 87 24 be 59 e9 86 3c 8f 8f f9 ba
       -0.2575196 -0.16067347 0.01646869 -0.0019039976
0003e0 71 22 41 bd ba e5 e6 3d 32 4d 18 be 55 7c ca bd
       -0.047151987 0.112742856 -0.14873198 -0.09886996
0003f0 78 e3 0b be 31 c5 13 3e 0d aa f8 3d 4b 92 d1 bd
       -0.13660991 0.14430691 0.121418096 -0.10232981

network_body._body_endoder.seq_layers.0.bias f4 [256]
000000 44 02 71 bc a1 dd 8c 3b 6f 05 13 3d 11 94 27 bd
       -0.014710013 0.004298881 0.035893854 -0.04091269
000010 e1 25 07 3d 1a af 04 be c6 5c 4d 3d 2e 57 e8 3c
       0.03299511 -0.12957421 0.050137304 0.028361883
000020 ce b6 20 be 3f 37 20 3d 72 88 73 bb c3 4e 7b bc
       -0.15694734 0.039115187 -0.0037160185 -0.0153386025
000030 a0 2b 04 bd ca 42 09 bc 8c ba 0e 3a a1 a6 1a be
       -0.032268167 -0.00837774 0.0005444668 -0.15102626
000040 05 a9 ce 3a a6 1f e0 bd 4a b8 31 3c aa 67 59 bd
       0.0015766924 -0.109435365 0.010847161 -0.053077377
000050 b3 4f 84 3d b1 9a 25 3b e0 b7 2b bd 4f d5 78 bb
       0.06460514 0.0025269205 -0.041923404 -0.0037968939
000060 a0 4e 77 bc d7 95 8e bd 8c 20 f4 bb b4 bd d8 3c
       -0.015094429 -0.069621734 -0.007450169 0.026457645
000070 d6 79 71 3c 37 8b df 3c 42 9e 07 be 9a 13 7a bd
       0.014738521 0.027288062 -0.13243964 -0.06105385
000080 4d 4f 22 bb 76 76 57 3c fc 40 35 3d ef 25 06 be
       -0.0024766505 0.013150802 0.044251427 -0.13100408
000090 10 a0 0d be fb 5e 57 bd 02 7e d7 bb 53 ca 61 3c
       -0.1383059 -0.052580815 -0.0065763006 0.013781148
0000a0 8f ac 10 be 4a 64 8a 3d 97 0f c1 3c d9 fe 96 bc
       -0.14128326 0.0675741 0.023567004 -0.018432068
0000b0 44 0b 1a 3d c3 c5 08 3d dc 31 d1 3c 88 fc 60 3d
       0.0376084 0.033391725 0.02553647 0.054928333
0000c0 84 45 66 bc 8c a2 fa 3b b5 ac 42 3d 0a 74 07 3d
       -0.01405466 0.0076487716 0.047527988 0.033069648
0000d0 d9 f2 3c 3d e7 95 3f bd 85 31 3a 3c 90 63 04 bd
       0.046130035 -0.046773817 0.011364345 -0.032321513
0000e0 9e 59 0f 3c 38 d9 0e 3d f3 2a 57 bb eb 05 0f bd
       0.008749394 0.034875125 -0.0032831996 -0.034917753
0000f0 f4 9c 87 3b 7e ca 03 bd 1a 00 30 3d ce fb e8 39
       0.0041385833 -0.032175533 0.042968847 0.00044438097
000100 a8 0c b2 bc 19 ee 5e 3c e4 32 21 bd 95 ac e2 bc
       -0.02173455 0.013606572 -0.039355174 -0.027670184
000110 c2 44 48 3d e8 27 06 3c 8b 2c 2e be 8f c7 2b bd
       0.048893698 0.008188225 -0.1700918 -0.04193836
000120 3d 6e 82 3c ce bd 0f be 85 d4 0c 3c 9a 89 04 3d
       0.015921706 -0.14037248 0.0085955905 0.03235779
000130 2e 58 84 bd f0 24 9b bd 2c 18 0e be 7d 5f 46 3d
       -0.064621314 -0.07575405 -0.13876408 0.04843091
000140 f7 15 22 be 6d 2a 25 bd 6e 81 d4 3d ed 00 a2 3c
       -0.15828691 -0.040323664 0.10376249 0.019775832
000150 aa b7 f7 3c 29 8d d1 bc cf 4d 68 ba e2 a8 8b bc
       0.030238945 -0.025580006 -0.0008861692 -0.017048303
000160 f8 b4 8e 3c 60 24 2c 3c 71 a2 ed bd 84 bd 1b be
       0.017420277 0.010506719 -0.11603249 -0.15209013
000170 b6 67 62 3d 7e ee 8c bd 62 6d 42 3d ce 50 94 3c
       0.055274688 -0.06881426 0.047467597 0.018104937
000180 68 d0 17 bd c4 ce ca bd 71 dd 2f be 24 70 4c bd
       -0.037063986 -0.09902719 -0.17174317 -0.049911633
000190 7a c0 81 3c b6 ac c9 bd 9a 7a 84 3c 6c 72 37 3c
       0.01583885 -0.09847395 0.016171742 0.011196714
0001a0 13 c6 2e 3c 30 1f 9d bb e2 ae f8 bd 34 da f0 3c
       0.010667342 -0.0047949776 -0.12142731 0.029400922
0001b0 f1 ef e8 3c 44 a7 09 bd 03 0c 05 bc b9 15 0c be
       0.028434725 -0.033606783 -0.00812054 -0.13680162
0001c0 7b 81 21 3d cc ef 42 bd 55 53 8e 3d df b0 61 3d
       0.039430123 -0.04759197 0.06949488 0.055100318
0001d0 8e 96 47 3d 3a b1 b3 3c 4a 80 fb 3c bb 50 d6 bc
       0.048727565 0.021935094 0.030700821 -0.026161542
0001e0 40 05 86 3d 8d ff 58 bd 8e 84 a6 3c 72 ee 51 3d
       0.0654397 -0.052978087 0.020326879 0.05125279
0001f0 0b ef 8e bc 24 4e fd bd 72 c1 88 3c 89 18 a1 bd
       -0.017447969 -0.1236842 0.016693804 -0.07866008
000200 2b c6 07 3d d1 07 03 bd 01 86 54 3d 97 c6 24 bd
       0.033147972 -0.031989876 0.05188561 -0.040228453
000210 cf eb cb bc e7 f0 e8 bc 54 03 72 3d 2d 86 3e 3a
       -0.024892716 -0.028435184 0.059085205 0.00072679186
000220 51 5e 76 bd 49 73 da bb 23 2a 05 bd 67 eb 62 bd
       -0.06014854 -0.006666575 -0.032510888 -0.05540028
000230 d1 c4 5d 3c 3d 67 58 bd 94 86 1c 3d 93 b7 5b bd
       0.013535694 -0.05283283 0.03821428 -0.053641867
000240 f5 78 72 bd c8 fd e8 bc 4d 56 02 3c 44 6e 1b bb
       -0.059197385 -0.028441325 0.007955146 -0.0023716846
000250 66 3c 9c bc a3 41 97 3d a0 f6 88 bb ec af 4a b9
       -0.019071769 0.07385566 -0.0041797906 -0.00019329757
000260 54 ea a1 bc 53 80 fa 3c 32 0d 2b 3c d6 7e 9a bd
       -0.019765057 0.030578768 0.010440158 -0.07543723
000270 65 7e 8e 3b ce bc 4a bd 9f 9b 21 3c 5a 94 41 bd
       0.0043485635 -0.049496464 0.009863763 -0.04726062
000280 64 aa 16 3c 17 b5 22 bd fb 83 61 3c 67 d6 5e 3b
       0.009195898 -0.039723482 0.013764377 0.0034002305
000290 7b 00 de 3c 6e 88 b4 bb 70 49 51 bc 14 2f ea bc
       0.027099838 -0.0055094277 -0.0127738565 -0.028586902
0002a0 ee f2 87 3d b1 3d 17 3d 4b 04 31 be ac 0d 50 3d
       0.06638132 0.036924068 -0.17286794 0.05079429
0002b0 90 a9 07 3b 67 81 77 3d fe e9 b2 3c 69 aa 32 bc
       0.0020700432 0.060426142 0.021840092 -0.010904887
0002c0 91 86 d1 bd 13 d4 69 bc 7c 7a dd bc d7 3f 49 3d
       -0.10230745 -0.014271754 -0.027035944 0.049133148
0002d0 a4 52 dd 3c 16 05 6b bb 7d 55 c3 3c dd e6 6f 3a
       0.027016945 -0.0035861186 0.023844475 0.0009151528
0002e0 b0 72 3b bb 75 96 ff bb 9f e0 f6 3c 71 72 3e 3b
       -0.0028602295 -0.0077999183 0.030136405 0.0029059912
0002f0 4b c0 80 bc 48 10 00 bd 3e 02 e5 bc 9b 2e 8e bc
       -0.015716692 -0.031265527 -0.02795517 -0.017356208
000300 79 23 8d bd b3 ac 32 bc ec 02 38 3d b3 47 4f bc
       -0.068915315 -0.0109054325 0.04492466 -0.012651372
000310 62 e2 fb bb 16 9d 57 3d 3d 92 37 3c f0 5f 91 bd
       -0.007686899 0.052640043 0.0112042995 -0.07098377
000320 33 c8 15 be e5 2d da 3c 28 c8 66 b9 af 83 12 bc
       -0.14627151 0.026633212 -0.00022009073 -0.008942529
000330 4d af da bd 41 b9 81 bd 80 f9 79 3c e4 0c 10 bd
       -0.10677967 -0.063341625 0.015257239 -0.035168543
000340 27 8e d1 bc d3 7f ae 3b 67 d9 9c 3c 7d 69 de 3b
       -0.025580479 0.0053252964 0.019146634 0.0067874775
000350 c4 21 3e bd 65 65 4e 3d 8c 6c 26 be ba f5 2f be
       -0.04641892 0.050389666 -0.16252345 -0.17183581
000360 c8 0d 00 be b9 fb ad 39 95 64 ac bd 66 bc 18 bd
       -0.12505257 0.0003318468 -0.08417622 -0.037289046
000370 cc 85 eb bd 15 51 de bc 11 2e 67 bc 5f d0 a6 bc
       -0.11500129 -0.027138272 -0.014110104 -0.020363031
000380 9d f6 ad bd c3 98 30 3b be 15 0a 3d 0e 07 af bb
       -0.084943034 0.0026946522 0.03371214 -0.005341417
000390 6a 69 6c bd f1 20 31 be 91 27 b5 bd 2b 10 81 bd
       -0.05771772 -0.17297722 -0.08845437 -0.06301912
0003a0 1c 66 91 bb 12 e4 f2 bb ee e8 4e 3c 25 d6 31 bd
       -0.004437221 -0.007412442 0.012628777 -0.043417115
0003b0 30 ef 85 3d eb 1a 1e bd 95 80 db bb a0 b9 28 bd
       0.06539762 -0.03859989 -0.006698678 -0.04119265
0003c0 2e f3 13 3d 8a 00 44 3d 66 08 1d be f0 bf 82 bc
       0.036120586 0.047852077 -0.15335235 -0.015960664
0003d0 a0 b3 3c be 99 d3 e2 3b cb 82 da ba 06 f5 75 bd
       -0.18427896 0.006922197 -0.001667106 -0.060048126
0003e0 e2 68 e6 bc b0 5a 81 3d ea aa 1d 3c 3d 9f e6 bd
       -0.028126184 0.063161254 0.009623269 -0.11260841
0003f0 97 8b 7a 3b bc 9f 00 3c fc fa 3d 3d 6e c0 19 be
       0.0038230175 0.007850584 0.046381935 -0.15014812

network_body._body_endoder.seq_layers.2.weight f4 [256, 256]
000000 e3 54 d8 3c 4e 8d 4f bd ad c9 87 bd 6d 40 83 bc
       0.026407665 -0.050671868 -0.066302635 -0.016021932
000010 d1 d8 3f 3d 60 b6 57 bd 29 33 f2 bd d0 36 a6 3d
       0.04683763 -0.05266416 -0.11826164 0.081159234
000020 8c ca 19 bd 84 d5 a8 3c 5c 63 1a bd c2 ce a0 bb
       -0.03754668 0.020609625 -0.037692413 -0.00490746
000030 87 a3 d9 bb 8f d7 71 bd 49 ca c8 3d de b9 ac bd
       -0.0066418084 -0.059043463 0.09804208 -0.08433889
000040 2b 66 d0 bd 6d 45 dc bd a9 89 94 bb b3 06 6d bc
       -0.10175737 -0.107554294 -0.004533012 -0.014466929
000050 f5 79 ed 3d 20 4c cc bd 3b 44 07 3d 03 03 6b bb
       0.11595527 -0.09975457 0.033024054 -0.003585995
000060 c8 d4 19 bc 65 19 1b be c7 36 de bb 81 78 b7 3b
       -0.00938911 -0.15146406 -0.0067814323 0.005599082
000070 05 54 60 bd e4 0b b2 bd 4b 6b 91 bd e2 2f 64 bd
       -0.054767627 -0.08693674 -0.07100543 -0.055709727
000080 3b 8d 4e be 00 34 2b 3d b1 74 f2 bd 0f a7 6d 3c
       -0.20171063 0.041797638 -0.11838663 0.014505162
000090 c4 3b f5 bd 5c e4 67 bc 2f ed 1e 3d ce 8b 4a 3d
       -0.1197429 -0.014153566 0.038800415 0.049449734
0000a0 b7 50 bc bd 23 b4 c7 3d ab 38 be bc 0a dc a6 3d
       -0.09195083 0.09751155 -0.02322038 0.08147438
0000b0 f5 75 d8 3d 40 77 0e 3e 8c 04 91 3d c5 75 93 3e
       0.105693735 0.13912678 0.070809454 0.2880079
0000c0 43 e1 26 3d 42 35 16 3e e1 19 c4 bd 1c cf 08 bd
       0.04074217 0.14668754 -0.095752485 -0.03340064
0000d0 24 47 42 bc 51 bd e1 3c 5c 6a 14 3e ab 67 31 3d
       -0.011857782 0.027556093 0.14493698 0.043311756
0000e0 6a 9d bb 3d cd 48 04 3d 01 4a b9 3d f3 0c 07 3b
       0.09160884 0.03229599 0.09047318 0.0020607084
0000f0 13 2d 72 bc a6 9b 83 bc 8a c0 90 bd 49 5e 1b be
       -0.014781254 -0.01606543 -0.07067974 -0.15172686
000100 53 5c f7 3b 0e 4e a6 bc 50 4f 7c bd ec 10 bb bc
       0.0075488477 -0.020300891 -0.061599076 -0.022835217
000110 48 52 90 3c d7 a2 41 bd 84 8e 75 3d 96 6c b2 3d
       0.01761736 -0.047274437 0.059950367 0.087121174
000120 09 12 bf 3d ca 6f a4 bd be 8a 6f bd b3 2b 94 bd
       0.09329612 -0.080291346 -0.058481924 -0.072348975
000130 54 6c 50 bd 05 76 21 be ef a8 bf bc c2 ad 85 bd
       -0.05088456 -0.15767677 -0.023395984 -0.06527282
000140 d4 46 99 bd ab 1f 75 3d 76 f9 91 3e 25 b3 7f 3b
       -0.074842125 0.059844654 0.28510636 0.003901669
000150 01 29 5a 3d fd 34 a2 bd 4d f1 8a bc e3 91 03 bd
       0.05326176 -0.07920263 -0.016960764 -0.03212155
000160 6c 2e 1e bc e0 48 b0 3d 59 7d 63 bc 1f f2 b5 bd
       -0.0096546225 0.0860765 -0.013884866 -0.088840716
000170 88 f8 84 3b 5f 8d 91 bd bd 77 24 be fa 1e d0 bd
       0.0040579475 -0.071070425 -0.16061302 -0.10162158
000180 89 e0 ea 3c a6 67 41 3d 4a 86 c8 bc 66 1b f3 bd
       0.02867152 0.047217987 -0.024478097 -0.1187046
000190 6b 86 0b 3e d3 0e cd bd d8 a9 e0 3c ce 32 9c 3a
       0.13625495 -0.10012593 0.027424738 0.0011916996
0001a0 8e 63 9b 3d 95 4d 0b be 9a ef 0c be 50 9d 6a 3d
       0.07587348 -0.13603814 -0.13763276 0.05727893
0001b0 16 7f 20 be 0c f1 0a 3e be f5 45 3d 7f 01 f6 bd
       -0.1567348 0.13568515 0.04833006 -0.12012004
0001c0 a4 8d 97 3b fb b9 a9 3c 6c 79 73 be b2 c1 67 3e
       0.004625039 0.020718565 -0.23776788 0.22632483
0001d0 ae d6 a9 3d d1 4c 17 3d 55 69 72 bd bf f1 93 bd
       0.082929 0.036938492 -0.059182484 -0.07223844
0001e0 79 7a 60 3e ce 68 4f bd 70 76 28 3d 71 fc 86 bd
       0.2192172 -0.05063706 0.041128576 -0.06591118
0001f0 53 a7 a9 3d 3c ca ae bd 48 63 3c bd 43 1e c3 3b
       0.08283868 -0.08534667 -0.04599312 0.005954535
000200 51 71 f9 bd ed 24 85 3d 49 9b 1a be a6 41 4d bd
       -0.121798165 0.06501184 -0.15098299 -0.050111435
000210 ba c6 15 bc e0 2f 18 3c 03 88 22 3e 78 a2 d4 bd
       -0.009141618 0.009288758 0.15872197 -0.10382551
000220 cf fb fc 3c 2b 9e 21 bd fb 30 a0 bd 86 cb bc 3d
       0.03088179 -0.03945748 -0.07821842 0.092185065
000230 e5 71 1f 3e 23 62 86 bc ae 06 9a bc 0e 2e 8c bd
       0.15570791 -0.016404217 -0.018802013 -0.06844722
000240 69 40 04 3e a8 b6 0b 3d 5e 3f 81 3d ca 3b 1b 3d
       0.12915196 0.03410974 0.063109145 0.037898816
000250 28 7e 00 3e 1e 90 51 bd 96 94 bc 3d d7 a5 bb bc
       0.12548125 -0.05116283 0.09208028 -0.022906227
000260 4b 78 d8 bd 38 10 15 3e 3b 5c 83 bd c7 e1 fc 3c
       -0.10569819 0.14556968 -0.06414076 0.030869378
000270 17 46 92 bc f4 01 47 3d 37 0c 98 3d 68 e3 9a bd
       -0.017855687 0.048585847 0.07424205 -0.075629056
000280 98 6a 02 3d bd 6a 6d bd d1 c2 08 bb f3 e6 ab bd
       0.031839937 -0.05796312 -0.0020868073 -0.083936594
000290 93 20 c9 3c 29 e2 90 bc ea 68 54 bd 7e 10 15 bd
       0.024551665 -0.017685967 -0.051857866 -0.03639268
0002a0 90 17 0b be 0c 32 95 3d 8d da 24 bd c7 57 f9 bd
       -0.13583207 0.07284936 -0.04024749 -0.12174945
0002b0 79 81 3f 3a a3 f5 d1 bd d7 02 aa bd 02 fc 83 3d
       0.00073053647 -0.102519296 -0.08301323 0.06444551
0002c0 e8 cf 39 bd d1 ab d1 bd cd 46 0c bd 12 1b 50 bc
       -0.04536429 -0.102378495 -0.03424721 -0.012701767
0002d0 d8 c7 02 be a0 ec 17 bd 58 3d 2c bb b9 70 34 3d
       -0.12771547 -0.037090898 -0.002628168 0.044052813
0002e0 b7 cf 04 be e3 d9 32 3d 07 a3 81 bd e1 7a db 3c
       -0.12969862 0.043664824 -0.06329923 0.026791992
0002f0 c2 73 4d 3d 1f e3 16 3d c4 76 71 bc 42 6f 8f bc
       0.050159223 0.036837693 -0.014737789 -0.017509107
000300 d9 f2 9a bb 11 9e 5e 3d 35 06 92 bd 1a 79 eb bd
       -0.0047286567 0.054349963 -0.0713009 -0.11497708
000310 a6 4d 4e 3d 61 b6 05 bd ab 7d 13 bc d8 25 9b 3d
       0.05036702 -0.032644633 -0.00900213 0.075755775
000320 2d c0 ea 3b 35 51 e4 3d 84 2a e2 3c 18 db 62 bd
       0.0071640224 0.111483015 0.027608164 -0.055384725
000330 05 ed 14 3d bc 86 cd bd f1 31 e1 bb a4 dc 5d bc
       0.036358852 -0.10035464 -0.0068724086 -0.013541374
000340 8e 85 d2 3c ab 45 a1 bd 2b d7 24 bd 77 9f cf bc
       0.02569845 -0.07874616 -0.040244263 -0.025344593
000350 1b 4f b7 bd 6e 2d 01 3d ae 8e 5c 3d 7b 29 aa 3c
       -0.08950635 0.031537466 0.053847007 0.020771733
000360 98 6f 33 ba 71 0f ea 3d 35 18 ea bc 72 d3 a3 bd
       -0.0006844937 0.114287265 -0.028575996 -0.07999314
000370 e3 44 47 bd 1c 73 9d bd 59 7f 22 be 4e a0 01 be
       -0.04864968 -0.07687971 -0.15868892 -0.12658808
000380 43 e9 59 3c b3 fb 54 bc 6b f5 f6 3c 17 a7 82 3a
       0.013300243 -0.012999463 0.030146321 0.000996801
000390 3f cf 79 bb 51 a0 8a bd ad 3e 35 3c a3 6f 43 3c
       -0.0038117913 -0.06768859 0.011062306 0.011928472
0003a0 30 ac fb 3b c7 de bd bc 7c 5f e8 bc d4 db 15 bd
       0.0076804385 -0.023177518 -0.028365843 -0.036586598
0003b0 ab ef 47 3d 45 c0 8a bd e3 b6 d6 3d 6d 37 c6 bb
       0.04881255 -0.06774954 0.104841016 -0.0060490877
0003c0 c9 50 06 be 8c 79 0e 3e 6b 43 9f 3c 18 26 a3 3d
       -0.13116755 0.13913554 0.019441327 0.0796625
0003d0 3f 47 13 be 97 a7 26 bc d8 ce c1 3c 03 a0 89 bc
       -0.14382647 -0.0101717925 0.023658201 -0.016799932
0003e0 d8 08 9a 3c 5b 40 af bd 9a 0b a5 bd dc 77 d3 bc
       0.018803045 -0.08557197 -0.080588534 -0.02581399
0003f0 15 37 c9 3c 1b 3c 5f 3b bc 6b 3d 3e cf 1a c9 3d
       0.024562398 0.0034062925 0.18498129 0.098195665

network_body._body_endoder.seq_layers.2.bias f4 [256]
000000 4f 57 12 3d 50 59 11 bc b3 d4 16 3c 4a cf 23 3d
       0.035727795 -0.008871391 0.009205985 0.039992608
000010 17 13 0e bd 15 e7 32 bd 1b 8f fc 3b eb b8 07 bd
       -0.034686174 -0.04367741 0.007707489 -0.033135336
000020 39 91 18 3d e7 52 b7 3c b4 1f d0 3c dd 91 fc 3c
       0.03724787 0.022378398 0.025405742 0.030831272
000030 ae 6c 55 3d 43 d1 4e 3d 57 26 6d bc 23 19 2b 3d
       0.0521056 0.050492536 -0.014474473 0.04177202
000040 87 e8 80 3d eb 4c 12 3d aa 08 1c 3d 86 c4 d1 3c
       0.06294351 0.035717886 0.0380942 0.025606405
000050 54 9a 77 bc 05 84 16 3d 23 ad 38 3b dd 4d d7 3c
       -0.015112478 0.036746997 0.002817937 0.026282245
000060 6a c7 0f 3d 09 94 b3 3c 63 ee 71 ba ca 7b 05 bd
       0.035102285 0.021921175 -0.0009228943 -0.032588758
000070 de 2b 18 3c 75 47 81 3d d2 7b 54 3d 41 de 8c 3c
       0.0092878025 0.063124575 0.051875897 0.017195823
000080 f1 7c 65 3d d8 ff 80 3d 37 7f 9f 3c 9a bf 5a 3c
       0.056027357 0.06298798 0.01946984 0.013351345
000090 d3 a9 5f 3d 24 ae d4 3c c8 bd fd 3c 75 3b a9 3c
       0.054605316 0.025961943 0.030974284 0.020658234
0000a0 29 e6 74 3c 53 70 22 3d f2 9e 17 3d f9 64 0f 3d
       0.014947453 0.039657902 0.037016816 0.035008404
0000b0 cc 0b 82 ba 79 1d 17 3d 32 55 3d 3d 9a 57 1e 3c
       -0.0009921729 0.03689334 0.046223827 0.0096644405
0000c0 d4 25 4e 3d 35 3b a5 3d 61 01 9b 3c 63 da aa 3c
       0.050329044 0.080679335 0.018921556 0.020856088
0000d0 46 b1 05 bd fc 00 b8 3c 02 21 01 bd 9b 8f 16 3c
       -0.032639764 0.022461407 -0.03152562 0.009189512
0000e0 17 7e 67 3d a8 5d c2 3c bf f2 3e bb 8e ee 7b 3d
       0.056516733 0.0237263 -0.0029136387 0.0615068
0000f0 2b 42 2e 3d 71 eb d8 3c 3b 3c 00 3c 80 e8 64 3d
       0.04254357 0.026479455 0.00782686 0.05588579
000100 92 e1 12 3d c2 1c aa 3c 60 26 b5 bb bc bb 1e 3b
       0.035859652 0.020765666 -0.0055282563 0.0024220785
000110 c4 47 2a 3d af 2d 07 3d d3 a3 95 3c 89 f9 69 3d
       0.041572347 0.03300255 0.018266594 0.05712274
000120 ca 46 50 3d 97 af 43 3d 02 2f c7 3c 92 b2 1c 3d
       0.05084876 0.047774877 0.024314407 0.038256235
000130 a9 8f 92 3c 5d 01 08 3d 9b 66 e0 3c 73 84 d8 3c
       0.017890768 0.033204425 0.027392676 0.026430344
000140 0f 6b 06 3d 03 c8 28 3d 4c 76 dd 3c 44 64 a4 3b
       0.032816943 0.04120637 0.027033947 0.0050168354
000150 6c 96 39 3a 2f 21 87 3c 36 cb b3 3b 31 4c f1 3c
       0.00070796045 0.016495315 0.005486871 0.029455276
000160 30 e6 77 3d 11 f9 a3 3b 13 08 63 3c 2c 0d 1a 3d
       0.06052226 0.0050040563 0.0138569055 0.037610218
000170 a2 69 7d 3a d3 b6 b3 3c 82 53 b9 3c 75 b7 b8 3c
       0.00096669246 0.021937763 0.022622827 0.022548417
000180 b5 44 24 3a 04 fb 80 3d 55 3c 4c 3d 60 40 2a 3d
       0.00062663417 0.062978774 0.049862225 0.0415653
000190 60 a8 15 3d dc 92 57 bc 60 88 46 3d 75 ac 3c 3d
       0.036537528 -0.013157573 0.0484699 0.046062905
0001a0 a8 10 37 3d 4b b0 6e 3c c0 9f 90 3c 6b 43 59 3d
       0.04469362 0.014568399 0.0176543 0.05304281
0001b0 6d b7 5d bc ea 5c ec 3b 6e fd 42 3c 73 6e 37 3d
       -0.013532502 0.0072132247 0.011901243 0.044783067
0001c0 29 2f 6c 3d fe 28 6b 3d 0c 82 f6 3c 64 21 e7 3c
       0.057662163 0.05741214 0.030091308 0.028214164
0001d0 48 aa 07 3d 07 bc 1a 3b 2f 60 6a 3d b3 3a 35 3c
       0.033121377 0.0023610608 0.057220634 0.011061358
0001e0 47 58 de 3c eb 9c 01 3d 33 07 07 3b c8 c5 4b 3d
       0.027141703 0.03164379 0.0020603656 0.049749166
0001f0 4a 7c 5a 3b 08 96 cb 3c a6 a3 8b 3b 8a 6d 9f bb
       0.0033338242 0.024851814 0.004261452 -0.004865353
000200 ac e4 4d 3c 8b 1f 34 3d ea a2 ff ba 6f 28 8b 3d
       0.012566727 0.043975394 -0.0019503508 0.067948215
000210 c0 57 19 bc 66 5b 4f 3d ce 11 ac 3c 6b 07 24 3d
       -0.0093593 0.050624274 0.021004584 0.040046137
000220 05 68 86 3c b6 6a 22 3d fd f5 07 3d 83 e9 c4 3c
       0.016407022 0.03965255 0.033193577 0.024037128
000230 0b 3e 46 3d fd c5 30 3d 2b 0f 6a 3b 9a b4 c4 3c
       0.048399013 0.043157566 0.0035714607 0.024011899
000240 42 c7 0c bd 88 cc 36 3d 83 f7 22 bc c7 31 cf 3c
       -0.034369715 0.04462865 -0.009946707 0.02529229
000250 5d fc 15 3d 99 ca f4 bc 75 63 0c 3d 8e 14 ae bb
       0.036617626 -0.029881762 0.034274537 -0.005312509
000260 2d a0 8e 3b 5d 76 7e 3c 66 a3 dc bb 79 f7 88 bc
       0.0043525905 0.01553115 -0.006733346 -0.016719567
000270 dc a5 20 bc 5c 00 19 3d 71 5c 6b 3d 21 d9 29 3d
       -0.009805169 0.03735386 0.057461206 0.041466836
000280 42 14 8d 3c e8 e2 37 3c 3a 0a fc 3c 3b 94 38 bd
       0.017221574 0.011223532 0.030766595 -0.04506324
000290 93 c5 2c 3d 50 bb 96 3c d1 df 3b 3b f4 99 63 3d
       0.04218061 0.018399864 0.002866734 0.055566743
0002a0 cb 85 c0 bc f7 68 87 3d 50 f0 60 3d 77 52 27 bb
       -0.023501297 0.06611817 0.05491668 -0.002553133
0002b0 7d 1d 06 3d 5c 88 44 3d 5c b4 2d 3c f0 6e 2e 3d
       0.032742966 0.047981605 0.010602083 0.042586267
0002c0 34 30 e7 3c e3 c0 03 3d a2 4c 9c 3c 62 d9 41 3c
       0.028221227 0.032166373 0.01907951 0.011831613
0002d0 a2 79 42 3d 51 ff 4c 3d f6 28 f3 3c 5f ea 62 ba
       0.04747928 0.050048176 0.029682618 -0.000865614
0002e0 cc e6 80 3b ba 7e 05 3c 0b 9d 71 3d d8 bd 21 3d
       0.003933763 0.00814789 0.05898766 0.03948769
0002f0 08 98 39 3c 9f 38 46 3d 5d 41 81 3b 02 19 3c 3c
       0.011327751 0.04839384 0.0039445595 0.011480572
000300 de a0 59 3d 11 a6 73 3d 74 67 4b 3d 63 55 a0 3c
       0.05313193 0.059484545 0.049659207 0.019571966
000310 8c 3d 17 bd b7 0f 35 3c fc 7b 10 3d 64 d4 5d 3d
       -0.03692393 0.01105111 0.03527449 0.05415763
000320 3b 05 82 3c 19 a0 0d 3d dc 3d 5d bc 92 e7 21 3d
       0.015871635 0.03457651 -0.013503518 0.039527483
000330 54 77 0a 3d dd 1c 0f 3d d0 6d 2b 3d d0 08 08 3c
       0.033805206 0.034939636 0.041852772 0.008302882
000340 96 00 33 3d 83 63 15 3d 41 9e ad bb 1f 74 33 3d
       0.04370173 0.036471855 -0.0052984064 0.043811914
000350 a6 a4 93 3d 7b cd 2b 3d 5c e8 42 3d 0a a8 38 3d
       0.072091386 0.04194401 0.047584876 0.04508213
000360 3d 53 18 3d 39 72 8f 3d 55 83 64 3d a7 5a c4 3c
       0.037188757 0.07004208 0.05578931 0.023969008
000370 60 51 40 3d 94 6c 10 3d 14 66 31 3d 48 6c 9d 3c
       0.046952605 0.0352598 0.04331024 0.019216672
000380 7d 62 12 bb b1 5c 11 39 d4 33 10 3d 5b ab 91 3d
       -0.0022336536 0.00013862808 0.035205677 0.071127616
000390 e0 30 32 3c ae 3c 86 3d 51 97 11 3d e4 9f 6e 3d
       0.0108759105 0.065545425 0.035544697 0.058257952
0003a0 13 1c a7 3c 91 0f 9a 3c 74 20 f1 3c 26 98 2a 3d
       0.020399129 0.01880625 0.02943442 0.041649006
0003b0 15 09 e3 3c de 0c 24 3d d8 85 03 bd 68 d8 34 3d
       0.027714292 0.040051334 -0.032110065 0.044151694
0003c0 ca 60 a3 3c f4 21 35 3d 00 75 c8 3c 55 ee 3d 3d
       0.019943614 0.044221833 0.024469852 0.04636987
0003d0 46 db cd 3a 19 a8 03 3c 2f b2 dd 3b e7 5f 6c 3b
       0.0015705607 0.008035683 0.006765626 0.0036067904
0003e0 bf 8d 74 3d ea b1 3d bc 79 66 e0 3c 9f 85 da 3b
       0.059705492 -0.011578063 0.027392613 0.006668761
0003f0 65 fd 9a 3c 0d 61 1d 3d a6 3c 12 3c 7a e8 59 bb
       0.018919656 0.038422633 0.0089255925 -0.003325014

action_model._discrete_distribution.branches.0.weight f4 [2, 256]
000000 95 c9 5f bd 9e c2 8f 3c 6d 17 15 3d 41 4d 2c bd
       -0.054635603 0.017548855 0.036399294 -0.042065863
000010 bd bc 7c bb f4 3f 33 3a 81 30 50 3d 13 9a 8e bc
       -0.0038564645 0.0006837838 0.050827507 -0.017407453
000020 7e 2d 53 3b 73 7e 92 3d 1d 17 4f 3d 4a fa 7c 3d
       0.003222316 0.071530245 0.050559152 0.06176213
000030 dd 55 93 bd 86 ca 83 3d 87 e6 6e 3c 91 33 a0 3d
       -0.071941115 0.06435113 0.014581329 0.078223355
000040 32 9b 36 3d b4 45 cb 3b 3c 2f d1 3c ad 9e c0 3c
       0.0445816 0.0062033776 0.025535218 0.023513163
000050 b1 3a 79 3b c9 b1 a3 3d 5e 35 e0 3c b0 cd 1e 3d
       0.0038029368 0.07992894 0.027369197 0.038770378
000060 4e 02 0a bd 7d 11 39 bd 28 d8 ac 3c b2 0a d9 3b
       -0.033693604 -0.045182694 0.021099165 0.0066235894
000070 ae f3 2e 3d ac 21 ce bc 86 fb 5d 3d 48 c4 15 3d
       0.04271286 -0.02516254 0.05419495 0.03656414
000080 5a 66 29 3d a0 c3 e9 3c fe 6f 2e 3d b7 0c 06 bd
       0.041357376 0.028535664 0.042587273 -0.03272697
000090 d5 d7 9b 3d 0d 5b 2d 3d 14 98 a4 3d ac 23 1e 3c
       0.07609526 0.04232316 0.08036819 0.0096520595
0000a0 18 40 e1 bc 7a 3b c1 bc a9 bb 25 bc 16 c5 0f 3d
       -0.027496383 -0.023587931 -0.010115542 0.035100065
0000b0 19 25 a8 3c 79 a1 94 3d 98 eb 51 bd 33 8b 9e 3c
       0.020525502 0.07257361 -0.05125007 0.019353485
0000c0 e1 b2 98 bd 89 5a 95 3c 53 f3 07 3d 01 a6 70 bd
       -0.074559934 0.018231647 0.033191036 -0.058752064
0000d0 0b 93 9b bc f2 4b 73 bd 85 19 96 bc 2c 24 07 3d
       -0.018991014 -0.0593986 -0.018322716 0.03299348
0000e0 d7 c3 10 bc 28 00 00 3c 5b f0 af bc e7 26 1b bc
       -0.008835754 0.007812537 -0.021476915 -0.009469724
0000f0 89 1f 24 bd 4b 78 52 bc b0 38 e3 bc 4f e5 87 bd
       -0.040069137 -0.012846063 -0.027736992 -0.06635534
000100 60 d1 83 bd 1a 0d fc 3c 33 24 d2 bc b4 71 0a 3a
       -0.064364195 0.030767966 -0.025652027 0.00052812253
000110 bb b9 5f bd fa f7 c6 3c 80 6d 65 bc 28 15 1a 3d
       -0.054620486 0.024288166 -0.014003158 0.037617832
000120 2f ad ff 3c b5 b0 a2 3d 93 74 35 3d 43 33 8a 3d
       0.03121051 0.079438604 0.044300627 0.06748059
000130 a9 61 8c bd 05 42 87 bd 01 19 87 3d 69 e3 84 3d
       -0.06854565 -0.06604389 0.06596566 0.064886875
000140 fc 4a a9 3b 42 fb b5 3d fe 76 72 3a f2 15 d7 3c
       0.0051664095 0.08885814 0.00092492986 0.026255582
000150 45 72 01 bd 8c e2 0c 3d 68 a4 37 bd b6 4c 18 bd
       -0.031603117 0.03439574 -0.044834524 -0.037182532
000160 e2 7c 90 3d 12 69 a2 bc a7 eb 60 3d c6 14 92 bc
       0.070550695 -0.019825492 0.054912236 -0.017832171
000170 7f 3b 43 3c d2 ec 6c 3d 5e ba 79 3d 85 d9 b7 3c
       0.01191604 0.057843037 0.06096875 0.022442589
000180 8e 18 da bc 06 96 62 3d c7 e0 b9 3d 0d ac 63 bd
       -0.026623037 0.055318855 0.09076076 -0.055584002
000190 7b 74 09 bd f6 f4 aa bc 79 7e 9d 3b 8e 7e 4b bd
       -0.03355835 -0.02086876 0.0048063365 -0.04968124
0001a0 f8 27 5d 3d 31 4a 3e 3d e5 fd df 3c 74 fe 6d 3d
       0.053993195 0.046457473 0.027342746 0.058103994
0001b0 8b 7c 64 3c 7c 9e d0 3c 77 9a 13 3d 04 90 9f 3d
       0.013945709 0.025466196 0.03603598 0.07791141
0001c0 33 53 a9 3d 0b c0 85 ba f5 4e 7d bd d8 65 2e 3d
       0.08267822 -0.0010204328 -0.061842877 0.042577595
0001d0 8b 9a e4 bb 64 5c ac 3c ea 96 3b 3d cd be da 3c
       -0.006976431 0.021040149 0.04579822 0.026702309
0001e0 73 fd 97 bc 99 c5 d1 3c 02 28 32 3c 21 e2 3a 3d
       -0.018553471 0.025606917 0.010873796 0.04562581
0001f0 4f 57 f3 3c 14 fd 77 3d fe 67 81 bc ce 2c 3f 3c
       0.029704718 0.06054409 -0.015796658 0.011668397
000200 37 93 9c 39 21 6b 14 bd 77 16 1f 3b db 69 f3 3c
       0.00029864322 -0.03623498 0.0024274865 0.029713562
000210 27 3e 20 3c a0 07 92 bd 4e 92 c8 bd 5e c9 22 bd
       0.009780443 -0.071303606 -0.097935304 -0.03974282
000220 80 28 3a bd 56 6b a5 3d 8d 9c 6e 3d 11 c1 7a 3d
       -0.04544878 0.08077113 0.058254767 0.06121928
000230 50 5c 89 3d 45 5d 33 bd f4 c6 c6 3c 71 5f 92 bc
       0.0670706 -0.04379012 0.02426479 -0.017867776
000240 42 a0 2a ba 57 54 7b bd a0 a7 f6 3c f1 bf 75 bd
       -0.00065088656 -0.06135973 0.030109227 -0.059997503
000250 c8 79 1a 3c 47 42 19 3c d7 dc 64 3d 26 33 70 3c
       0.009428449 0.009354181 0.05587467 0.014660632
000260 36 21 17 bd 04 82 2e 3c f3 5f c1 3c 66 06 50 3c
       -0.036896907 0.010651115 0.023605322 0.012696838
000270 06 fc ff 3c fb bf e4 bc 24 37 e3 bc e2 bf b2 bc
       0.031248104 -0.027923575 -0.027736254 -0.021820012
000280 f4 26 60 3d 6b 0c 30 bd ec dc 82 bd c4 6d 86 bc
       0.05472465 -0.042980593 -0.06389794 -0.016409762
000290 b7 46 7a bc 65 20 c1 bb 6f a7 8f 3c 54 16 8d bd
       -0.015275649 -0.0058937543 0.017535893 -0.068890244
0002a0 bd ba 0b 3b 23 bf 08 bd 5c d7 0e 3c a2 b3 f8 3b
       0.0021321021 -0.033385407 0.008718338 0.0075897733
0002b0 6d 53 79 3d 03 af 37 bd 00 4d 83 3c 29 f9 8a bd
       0.060870577 -0.04484464 0.016027927 -0.06785805
0002c0 ce 53 3b 3d 75 f8 49 bd 70 52 6a 3d 45 10 04 3d
       0.04573422 -0.049309213 0.057207525 0.03224208
0002d0 1a 31 90 bc b7 6c a7 bd 59 d7 88 3d 66 0d a9 3c
       -0.017601538 -0.081750326 0.06681699 0.020636272
0002e0 d8 e3 3f bb ed a7 16 3d 16 21 1a 3c 1c e4 98 3d
       -0.0029280093 0.03678124 0.009407302 0.074653834
0002f0 9f 39 cb bc a3 be 1c 3d a2 5d 34 bd b5 9e 51 bd
       -0.02480775 0.038267743 -0.044034608 -0.051176745
000300 aa 4a ab 3d fd eb 89 bd 76 46 6c bc 63 c8 5c 3d
       0.083638504 -0.06734464 -0.014421096 0.05390204
000310 02 05 81 bc 73 90 f0 bc 74 fe b6 3c 9e 40 58 bd
       -0.015749458 -0.029365754 0.02233813 -0.052796
000320 30 a5 2a 3b 21 76 99 3c 7d ee e4 3c 04 aa 2f 3d
       0.00260384 0.018733086 0.027945751 0.04288675
000330 87 d8 5c 3d ae 50 b9 3d 99 ab 9c 3b 8f 42 38 3d
       0.053917434 0.090485916 0.004781198 0.04498535
000340 1a 40 52 bd 9b 56 06 bc f3 f6 02 3b fe e4 f4 bc
       -0.051330663 -0.008199359 0.001998362 -0.029894348
000350 ef 15 0a bd a7 92 3b 3d 1a c7 98 bd 93 83 f2 bb
       -0.033712324 0.045794155 -0.074598506 -0.007400939
000360 2c fd 51 3d 94 c7 b7 3d 5a 10 a9 3c 2a 9c 03 3d
       0.051266834 0.089736134 0.02063768 0.03213135
000370 87 36 e2 bc 90 37 64 3d 5a b6 89 bd 98 68 6a 3d
       -0.027613891 0.05571705 -0.06724234 0.057228655
000380 59 2a d5 3c 19 fe 3b 3c f6 20 22 bd 33 2f c9 bc
       0.02602117 0.011474156 -0.039582215 -0.02455864
000390 43 60 33 3d e9 cc 65 bc 62 95 49 3c dc ca d6 3c
       0.043792974 -0.014025905 0.012303682 0.026219778
0003a0 49 81 8b bd b5 49 0e 3d f4 59 7d bd 96 04 a1 3d
       -0.068117686 0.03473826 -0.061853364 0.07862203
0003b0 84 0f 86 bc e6 25 8e 3d 87 bd 91 bc d9 b1 1c bd
       -0.01636482 0.06940822 -0.017790569 -0.038255546
0003c0 fe a1 a6 3c 01 bc 70 bd 9f fb 5a 3d a2 f6 32 3d
       0.020340916 -0.058773044 0.05346262 0.04369224
0003d0 3f 63 ef 3b 34 31 f2 ba c3 df 2b 3d 52 28 10 3d
       0.007305532 -0.0018477798 0.041961443 0.035194702
0003e0 fc c0 9f 3c b3 b7 90 3c d1 80 9d 3a c2 07 e8 bc
       0.019501202 0.01766572 0.001201654 -0.028324012
0003f0 1d 09 c3 3b f8 13 8b 3d 91 c1 e7 3c da f6 5c 3b
       0.005952014 0.06790918 0.028290542 0.003371647

action_model._discrete_distribution.branches.0.bias f4 [2]
000000 1c ef 40 3b 85 ee 40 bb
       0.0029439395 -0.0029439044

action_model._discrete_distribution.branches.1.weight f4 [2, 256]
000000 bd 6e 5c bd 75 f6 80 3c 92 8e 1b 3d 51 d1 cb bc
       -0.053816546 0.01574252 0.037977763 -0.024880083
000010 43 dd 96 3b c2 00 0d bc f3 56 2a 3d 21 53 33 3c
       0.004604013 -0.008606138 0.041586827 0.010945112
000020 27 76 84 3d 15 36 56 3d f7 98 7c 3b 96 a8 bd 3c
       0.06467848 0.05229767 0.0038543323 0.023151677
000030 7c b6 07 bd 08 07 9b 3d eb 52 0e 3b 10 df a7 3d
       -0.033133015 0.075697005 0.0021716903 0.08196843
000040 c1 ed ad 3d 0a 5c fb 3c 30 8c e9 3c 3b a7 52 3d
       0.084926136 0.030683536 0.02850923 0.051429015
000050 1a 90 69 3c e5 80 58 3d 9b 0c 1e 3d 6c 1a 97 3d
       0.014255548 0.0528573 0.03858624 0.073780864
000060 ce f1 21 bd 80 dd 19 bd ba b1 da 3c 07 59 df 3b
       -0.039537244 -0.037564754 0.026696075 0.006816033
000070 53 80 d9 3c 09 90 0e 3d 8c 36 94 3d d4 d5 26 3d
       0.026550448 0.03480533 0.072369665 0.040731266
000080 b3 08 31 3d e1 3c 9b 3d e2 c0 68 3d 12 28 ab 3c
       0.043221187 0.07579971 0.056824572 0.02089313
000090 5f c3 dc 3d 74 6f 25 3d d4 aa 2a 3d de 7b 87 bd
       0.107794516 0.040389493 0.04166682 -0.06615423
0000a0 01 b1 c2 bc eb 32 b1 3a 75 95 3c bd 20 e5 06 3d
       -0.023766043 0.0013519203 -0.04604097 0.032933354
0000b0 24 42 19 3c e7 e1 61 3d 5d 5f 6c bb b4 be 45 3b
       0.009354148 0.055147078 -0.0036067583 0.0030173482
0000c0 e5 ea 31 bd 69 b6 6a 3d 5f 41 66 bc 41 b1 f4 bc
       -0.043436904 0.057302866 -0.014053672 -0.029869677
0000d0 4e a8 b4 3b e5 f3 6f 39 ed ae 20 3c 8b 8b 04 3d
       0.0055132275 0.00022883674 0.009807331 0.03235964
0000e0 73 d4 4a 3d 47 7e 8d bc d5 fa 81 3c 9c 5a a4 3c
       0.049519014 -0.017272128 0.015866676 0.020062737
0000f0 b0 7f 5d bc bb 50 ec bc e0 9a 9c bc 41 12 8a bd
       -0.013519213 -0.028847089 -0.019116819 -0.06741763
000100 1c 95 d6 bc d2 d3 28 3d 23 83 c0 bc 43 a5 03 bd
       -0.026194148 0.041217633 -0.02350003 -0.032140028
000110 ef 16 52 bd 98 f6 60 3d a6 8c ef bb 57 cf 2f 3c
       -0.051291402 0.05492267 -0.007310468 0.010730586
000120 d3 f7 0a 3d c1 b8 95 3d 93 16 4b 3d 22 a5 c8 3d
       0.03392775 0.0731063 0.049582075 0.097971216
000130 2c f4 ce bc e8 b8 5f bd eb e3 7c 3d 99 20 a3 3d
       -0.025262915 -0.0546197 0.061740797 0.07965202
000140 0d ee 86 3c a0 35 75 3d 28 71 a7 bc 70 8e cc 3c
       0.016470933 0.059865594 -0.0204397 0.024970263
000150 80 c7 db bc db 71 c3 3c b9 2a f2 bc 95 8f b6 bc
       -0.026828527 0.023858001 -0.029561387 -0.022285262
000160 4a 1d 18 3d 6b 41 89 3c 8d 15 36 3d 74 c5 87 bd
       0.037137307 0.016754827 0.044454146 -0.06629458
000170 d4 29 96 3c a0 13 4f 3d 9a 09 1a 3d 61 41 10 3d
       0.018330492 0.050555825 0.037606813 0.0352186
000180 31 68 9a bc 50 0e cb 3d 9e c5 b3 3d 13 04 17 bd
       -0.01884851 0.09914839 0.08777927 -0.03686912
000190 1e be bd bc 85 94 1b bd 55 ba 22 3d 55 7c d0 bb
       -0.023161944 -0.037983436 0.03972848 -0.006362478
0001a0 69 64 15 3d 33 5a 2c 3c 37 04 27 3d 82 70 92 3d
       0.03647271 0.010519552 0.040775504 0.071503654
0001b0 20 b6 c6 3b 31 ff 44 3d bc 36 b0 3c ef 63 a0 3d
       0.0060641915 0.048094932 0.021510474 0.07831561
0001c0 e4 de 93 3c fc 14 08 3c f4 84 4b bd fa c0 72 bc
       0.018050618 0.008305784 -0.04968734 -0.014816517
0001d0 15 71 b7 3c 41 aa 52 3d 2a 2c 98 3d 33 8e 6b 3c
       0.022392789 0.051431898 0.074302986 0.014377165
0001e0 64 96 8f bc b1 fa 05 3d c5 57 f6 3c 58 5a 85 3d
       -0.017527767 0.03270978 0.030071149 0.06511372
0001f0 2b 0f 00 3d 0e 01 08 3a 23 11 36 bd 5e a7 36 3d
       0.031264465 0.00051881454 -0.044449937 0.044593208
000200 fa 2f 8c bc ae 44 a5 bc b5 8b 99 3c 75 f0 40 3d
       -0.01711272 -0.02017435 0.018743375 0.047104318
000210 10 4c 4e 3b c6 3d 92 bd 88 49 23 bd 67 06 53 bd
       0.0031478442 -0.071406886 -0.039865047 -0.051519778
000220 a7 ca 2a bd 99 92 46 3d 93 6b bc 3d 7f 05 2d 3d
       -0.04169717 0.04847965 0.09200206 0.04224157
000230 6f 46 80 3d 69 03 13 bd c8 84 12 3d 93 00 b0 3c
       0.06263434 -0.035891924 0.03577116 0.021484649
000240 bf 93 49 bc b4 5d 6b bd 61 91 cd 3c 41 65 2f bd
       -0.012303292 -0.05746241 0.025093736 -0.042821173
000250 c8 1e 44 3d d8 38 8c 39 ba 8f 3f 3d 95 cf ad 3c
       0.047880918 0.00026745233 0.046767928 0.021217147
000260 67 d3 21 bd 83 9b ce 3c 67 ef 39 3d e3 b6 30 bc
       -0.03950825 0.025220638 0.045394327 -0.010785791
000270 70 af a0 3c 6d 5f 30 bd 03 1f 3c bd b8 bb 21 bd
       0.019614905 -0.043059755 -0.045928013 -0.039485663
000280 21 95 58 3d b9 b2 9a bc a2 2d 35 bd 7f f0 58 bc
       0.052876595 -0.01888405 -0.044232972 -0.0132409325
000290 32 d5 44 bd 0b 21 78 3c ea 75 30 3d 60 fe 28 bd
       -0.04805488 0.015144597 0.0430812 -0.041258216
0002a0 0f 23 95 bc 1a 7b 6f 3c 2d 4e 26 3c 31 c9 bf 3b
       -0.018205194 0.014616752 0.0101504745 0.0058528413
0002b0 20 d9 89 3d be a1 2e bd 87 a2 2d ba 42 ce c9 bb
       0.067308664 -0.042634718 -0.0006623645 -0.006158621
0002c0 94 8c 3f 3d 25 77 2b bd e5 9a ac 3b e4 22 4a 3d
       0.046764925 -0.041861672 0.0052674883 0.04934968
0002d0 b4 c1 13 3d e1 c1 56 bd 19 01 28 3d 9a 22 cc 3b
       0.0360734 -0.05243099 0.04101667 0.0062297108
0002e0 c0 06 ec ba ab 01 3f 3d ab 39 73 3d 3f 2c 90 3d
       -0.0018007383 0.04663245 0.05938117 0.07039689
0002f0 e2 76 6d bb 95 05 86 3d 89 31 e6 bc f0 88 43 3b
       -0.003623419 0.065440334 -0.028099792 0.002983626
000300 61 fa 3c 3d 88 cb 6d bd 1d 41 35 bd 88 ac 62 3d
       0.046137217 -0.05805543 -0.04425155 0.05534032
000310 25 82 02 bc 87 49 fd bc 4b 2d 9a 3d 8a da 70 bd
       -0.007965599 -0.03091885 0.0752817 -0.058802165
000320 93 14 13 bd 57 99 13 3d 63 9a 29 3c 6a 7a 7e 3d
       -0.035908293 0.03603491 0.01035175 0.062128462
000330 b8 cc 7d 3d ee e4 9e 3d 62 a0 fe 3c d5 2d 3a 3d
       0.061962813 0.077585086 0.031082336 0.045453865
000340 d9 e1 1a bd 83 de 4e 3c 0c e3 82 3c 5d 98 f5 bc
       -0.03781304 0.012626293 0.015977405 -0.029979879
000350 a1 0e cd 3b d7 17 09 3d 98 13 8e bd bb 29 1e bd
       0.0062578474 0.03347 -0.06937331 -0.038614016
000360 e4 a6 15 3d 79 30 c8 3d 75 2f 46 3d 36 cd 3e 3d
       0.036536112 0.097748704 0.048385102 0.046582423
000370 33 4e da bc ea 6e eb 3c f0 9a 24 bd 09 59 c7 3c
       -0.026648616 0.028739411 -0.040186822 0.024334447
000380 af 41 56 3c 76 25 06 bc cd 2f 39 bd be 55 0e 3d
       0.013077184 -0.008187642 -0.045211602 0.03474974
000390 41 02 35 3d 8f 08 f2 3c 5c 5d 51 3d ab d6 c9 3d
       0.044191603 0.029545097 0.051114425 0.09855398
0003a0 69 e5 2c bd 33 11 2b bd 89 b1 3f bd d3 b4 fa 3c
       -0.04221097 -0.04176445 -0.04680017 0.030603802
0003b0 76 53 29 bd 47 89 8c 3d 37 d7 23 3c 6a cd 8c 3c
       -0.04133936 0.06862121 0.010000042 0.017187793
0003c0 29 7f 8f 3c b2 35 8e bd 30 f8 7a 3d fc 2c e1 3c
       0.01751669 -0.06943835 0.061271846 0.02748727
0003d0 f4 18 2d 3d 11 61 c1 bc ff f8 9d 3d 3b 95 69 3d
       0.042260125 -0.023605855 0.07713508 0.057027083
0003e0 ab cf 98 3d 34 66 5e 3b 27 28 be 3c 18 00 f6 3b
       0.074614845 0.003393543 0.023212506 0.0075073354
0003f0 a7 98 10 bd 95 f2 1d 3d e8 b2 d3 3c 74 dc ac 3c
       -0.03530183 0.038561422 0.025842145 0.021101214

action_model._discrete_distribution.branches.1.bias f4 [2]
000000 6e 0a cd bb d4 0a cd 3b
       -0.006257347 0.0062573943

action_model._discrete_distribution.branches.2.weight f4 [2, 256]
000000 0b a3 2f 3d 85 ba 56 bd 5a 1b 0b bd ce d6 60 3d
       0.0428801 -0.052423973 -0.03396163 0.054892354
000010 71 2b 19 bd 4e 12 9d bc 97 77 84 bd 4c f3 2c bd
       -0.037394945 -0.019173767 -0.064681225 -0.042224213
000020 c2 a6 48 3c 6f 28 9b bd 53 7d 0e bc 17 ec 50 bd
       0.012246789 -0.075760715 -0.008696872 -0.051006403
000030 84 6e ad 3d 92 0c 4c bb 0d 35 26 bd 7f f3 63 bd
       0.08468345 -0.0031135422 -0.040577937 -0.055652138
000040 1f ec 1a 3c 17 42 e7 3c 44 91 27 3d d5 2b f7 bc
       0.00945571 0.028229756 0.04091002 -0.030172268
000050 78 42 36 bd ae d8 49 bd 01 81 5f bd cb 6d be bd
       -0.044496983 -0.049278907 -0.054566387 -0.09298285
000060 1a 3e 0b 3d bc de 18 3d aa 68 32 bd 7b f2 01 bd
       0.03399477 0.03732179 -0.043556847 -0.031725388
000070 ba 1b a7 bc 25 b6 7b 3d ef d1 e1 bc 29 ca b0 bd
       -0.020398963 0.061453003 -0.027565924 -0.08632309
000080 eb 85 f4 3c bd c4 a6 3c 42 ce 28 bd f0 c9 0d 3d
       0.029849013 0.020357484 -0.041212328 0.03461641
000090 0d 46 16 bd 15 8b 67 bc de 0f 95 bc 8c 07 73 3c
       -0.0366879 -0.014132281 -0.018196043 0.014833342
0000a0 d9 27 bc bc a0 de a0 3d eb 85 07 3d a9 5c 85 3c
       -0.02296822 0.07854962 0.0330867 0.016279535
0000b0 e3 1f b1 bb 78 e6 7e bd 77 6b 85 3c d7 47 45 3c
       -0.0054054125 -0.06223151 0.016286595 0.012041054
0000c0 fb 92 80 3d 1a cd 41 3d 3c 50 02 3d 6a 35 da 3c
       0.06278034 0.04731474 0.0318148 0.026636798
0000d0 28 70 48 bc c8 d8 43 3d 3c ce 14 bc ab 83 db bc
       -0.012233771 0.04781416 -0.009082373 -0.026796183
0000e0 0a e1 a4 3c c8 e6 99 3c ee 66 72 3c 7a b4 20 3d
       0.020126838 0.018786803 0.014795048 0.039234616
0000f0 1a 88 52 3d 73 dc 42 3d 6a 61 8d 3c 06 a3 68 3d
       0.051399328 0.047573518 0.017258365 0.056796096
000100 5c 21 58 3d 33 8c dc bc 43 a7 84 bc 32 01 8d bc
       0.05276619 -0.026922321 -0.016193038 -0.017212484
000110 c3 64 21 3d 2e 4f 9f 3c 4b 56 1c bd aa 18 52 3d
       0.039402734 0.019446936 -0.038168233 0.051293053
000120 b1 6c b5 3c cb bb a4 bd 5b f5 57 bd 28 a8 ef bc
       0.022146555 -0.08043631 -0.052724224 -0.029254988
000130 39 d8 00 3d 56 c0 d3 3c 19 79 9b bd 45 53 8a bd
       0.031456206 0.025848549 -0.07591457 -0.06754164
000140 bc 6c 85 3c b2 88 ec bc f8 69 0b 3d 17 7e 9a bd
       0.0162872 -0.028873775 0.034036607 -0.07543581
000150 49 ea e4 3c ef 1f 44 bd 48 63 06 3b d4 cc 43 3d
       0.027943747 -0.047882017 0.0020505954 0.04780276
000160 31 5c c3 3c 45 a1 7e bc a8 6a 9b bd 56 69 56 3d
       0.023847671 -0.015541379 -0.075887024 0.05234655
000170 f5 39 ad bc 86 38 a5 bd 15 12 4d bd 45 12 5b bb
       -0.0211458 -0.080674216 -0.050066072 -0.0033427638
000180 e9 d1 b8 3b ef 7a b1 39 ac 9c 51 bd 6f 84 25 3d
       0.0056402576 0.00033851663 -0.051174805 0.0404095
000190 83 9a 5b 3d e1 5b ae bb 0f 32 7b 3c f6 b3 78 3d
       0.05361415 -0.0053210114 0.015331759 0.0607185
0001a0 d3 e2 86 bb fe f0 17 bc 5d 07 2a bd 7a 3d 45 3b
       -0.004116395 -0.009273766 -0.04151093 0.0030096457
0001b0 16 59 49 bd a2 9d 28 bd 02 49 f4 bc c8 f6 09 bd
       -0.049157225 -0.041165955 -0.02981997 -0.033682615
0001c0 3c 89 dd bb 12 c6 97 3c 02 01 80 3d de eb e6 bb
       -0.0067607444 0.018527064 0.06250192 -0.0070471605
0001d0 5c 94 ad 3c 49 88 39 bd f3 01 5a bd 29 9d 45 bd
       0.021188907 -0.045295987 -0.053224515 -0.048245583
0001e0 62 cf 25 3c 70 e2 ef bb 3e 8d 08 bd 9c 4b 60 3b
       0.010120245 -0.0073206946 -0.033337824 0.0034224754
0001f0 c4 a3 c6 bc c4 4e 74 bc 1e f0 6c 3c 15 25 4f bd
       -0.024248011 -0.014911357 0.014461545 -0.050572474
000200 65 c6 31 3d 91 61 36 3d 7f 80 95 bc 71 74 3c 3d
       0.043402094 0.04452664 -0.018249748 0.046009485
000210 1b 70 a6 bb b7 e3 95 3d 3a 64 25 3d 3a 9e 62 3d
       -0.005079282 0.07318824 0.040378787 0.055326678
000220 98 03 6c 3c 9f 63 89 bd e7 a8 82 bd 39 ed c4 bc
       0.014405154 -0.06708454 -0.06379872 -0.024038898
000230 0a b4 fd bb c5 f6 6d 3d 84 9f 99 bd 91 b6 55 3d
       -0.0077424096 0.058096666 -0.07501128 0.052176062
000240 c0 11 9f bc 2d 2f 78 3d af 79 3b bd 87 8f 38 3d
       -0.019417644 0.060591865 -0.045770343 0.045058753
000250 7a e6 e4 bc c2 e4 c2 bb cd 38 17 bd e2 f8 61 bd
       -0.027941931 -0.00594768 -0.036919404 -0.055168994
000260 0b 12 1d 3c 64 74 94 bd ed 11 92 bc 24 c4 1d bd
       0.009586821 -0.07248762 -0.017830813 -0.038517132
000270 a0 29 fc bc ab 18 0c 3d 54 24 27 3d 37 22 f0 3c
       -0.030781567 0.034203213 0.04080613 0.02931319
000280 0e fb 4b bd d2 11 ed 3b 31 cb 4c 3d 93 ca ea bc
       -0.04979997 0.0072347904 0.049998466 -0.028661048
000290 da 4c 05 3d 10 8e 86 3c 2c 65 82 bd 9b be 90 3d
       0.032543994 0.016425163 -0.06366953 0.07067605
0002a0 e4 9a 1e bd 42 6a 77 3d b2 d5 60 3d c2 18 91 bc
       -0.038721934 0.06040407 0.054891296 -0.017712
0002b0 0f d7 5e bd 67 70 62 3d f7 fb 20 3c 10 be 86 3d
       -0.054404315 0.055282976 0.009825698 0.0657922
0002c0 37 23 8d bd a9 f8 64 3d 9e 24 33 bd 7c 01 97 bb
       -0.06891482 0.055901203 -0.043736093 -0.0046083312
0002d0 39 65 eb 3c 63 96 b3 3d 95 34 e7 bc d0 94 f7 bc
       0.02873479 0.08768918 -0.028223315 -0.030222327
0002e0 d9 6b 48 3c 84 67 46 bd f9 1b 9e 3c 14 9d 98 bd
       0.012232744 -0.048438564 0.019300448 -0.07451835
0002f0 56 bf 07 bb 40 5b 7a 3c c8 89 82 3c 60 43 0c 3c
       -0.002071341 0.015280545 0.01593484 0.008560985
000300 49 0c 68 bd 1a ef 8d 3d 87 fb 50 3d f9 b3 48 bd
       -0.05665234 0.06930371 0.051021125 -0.04899976
000310 aa 11 ab bc f2 b1 a9 3c a8 88 07 bc ce 3f 99 3d
       -0.020882446 0.020714734 -0.0082723275 0.07482873
000320 eb 4e 88 3b 04 a8 60 ba ab 9c 01 bd 50 6a 01 3b
       0.0041597984 -0.0008569958 -0.03164355 0.0019747205
000330 aa 2a 73 bd c6 fe 8a bd 9c f8 66 3b 60 75 39 bd
       -0.05936686 -0.067868754 0.0035243398 -0.045277953
000340 11 a4 2f 3d 88 27 e1 bb dd 12 b1 bc d1 4d f5 3c
       0.042881075 -0.0068711676 -0.02161544 0.029944332
000350 e3 9e 97 3d bb bd ee bb c3 b1 7e 3d 11 52 fa 3c
       0.07403352 -0.007285801 0.062181246 0.03055671
000360 f1 c2 c0 3b 49 cb 8d bc ae f4 0f 3c 31 0e 80 bd
       0.005882614 -0.017308848 0.0087863635 -0.06252707
000370 77 b5 19 3d 7a a5 3b bd 69 84 59 3d dc b3 06 bd
       0.037526574 -0.045812108 0.05310479 -0.03288637
000380 e2 e1 c2 bc dd 91 d3 39 fb 50 79 3d bd 2e 5f 3d
       -0.02378935 0.00040353733 0.060868245 0.054487932
000390 6c 4e 3a bd 11 e4 51 3d f9 02 62 3c 84 6c 11 3c
       -0.045484945 0.05124289 0.013794654 0.00887597
0003a0 02 d4 e4 3c 32 81 78 3c 18 fa 55 3d 48 cf 40 3c
       0.027933124 0.015167521 0.05224046 0.01176817
0003b0 c3 3c 45 3d 6d 7d 8f bc 2e ac f7 bc b4 85 33 3d
       0.04815365 -0.017515862 -0.030233469 0.04382868
0003c0 4d cc 75 bc 89 b5 1f 3d 1a 80 40 bd 53 60 e3 3c
       -0.015002322 0.038991485 -0.046997167 0.027755892
0003d0 c3 0a 8c bd a8 94 a5 bc 7a 05 6d bd 84 ca 4e bd
       -0.0683799 -0.020212486 -0.05786655 -0.050486103
0003e0 85 fd d1 3c 6e 75 5e bd a8 43 09 bd fe c4 e0 bb
       0.025633583 -0.05431121 -0.033511788 -0.006859421
0003f0 9d 05 03 3d 7d b3 f3 bc 45 95 6d bd 66 52 f5 bc
       0.031987775 -0.029748673 -0.058003683 -0.029946517

action_model._discrete_distribution.branches.2.bias f4 [2]
000000 a6 b7 80 3c 8f b7 80 bc
       0.01571257 -0.015712528
