Assets/results/0719day2/TrafficLightBrain/TrafficLightBrain-349969.onnx (onnx, 386520 bytes, 13 tensors)

discrete_act_size_vector f4 [1, 4]
0	0x40000000	2.0
1	0x40000000	2.0
2	0x40000000	2.0
3	0x40000000	2.0

network_body._body_endoder.seq_layers.0.weight f4 [256, 100]
0	0x3cfef45f	0.031122385
1	0x3e1ca3c2	0.15296844
2	0xbe3ab8aa	-0.18234506
3	0x3dc650d0	0.096833825
4	0xbdde2c12	-0.108482495
5	0xbd972080	-0.07379246
6	0x3b652f7f	0.0034970937
7	0xbe32669f	-0.1742196
8	0xbd2d8283	-0.042360794
9	0xbd1eeb12	-0.0387984
10	0xbd8f2891	-0.06990159
11	0x3d78b64c	0.060720727
12	0xbd4dee37	-0.050276008
13	0x3deb14bd	0.11478565
14	0xbbcba53a	-0.006214765
15	0x3e4a4a3d	0.19754882
16	0x3dfa1062	0.12210156
17	0xbe43b923	-0.19113593
18	0x3e01bbe2	0.12669328
19	0x3dedaf55	0.116057076
20	0x3c62a1a2	0.013832482
21	0xbd8ed102	-0.06973459
22	0x3d8a0dca	0.06740911
23	0x3df7ed47	0.12105804
24	0x3c47c52b	0.012193005
25	0xbd746fd5	-0.059676964
26	0xbcba7067	-0.022758676
27	0xbd8281b6	-0.06372397
28	0x3d415141	0.04719663
29	0x3cd4b767	0.02596636
30	0xbddeccdb	-0.10878917
31	0xbd444652	-0.047918625
32	0x3d8543aa	0.065070465
33	0xbe1b0f1b	-0.15142481
34	0x3dff8097	0.124756984
35	0x3b13d9e7	0.00225603
36	0x3e4d43fd	0.20045467
37	0xbdf7b14d	-0.12094364
38	0xbdcee64b	-0.10102519
39	0x3b8faffe	0.0043849936
40	0xbe217a88	-0.15769398
41	0xbb2f9935	-0.00267942
42	0x3c5d5c68	0.013510801
43	0x3d0b7483	0.03404666
44	0xbcc4f076	-0.024040442
45	0x3e26e306	0.1629754
46	0x3dbb3daf	0.091426246
47	0xbbfefca0	-0.00778158
48	0x3dce3fef	0.10070788
49	0xbd904d2b	-0.070459686
50	0x3d97f2b5	0.074193396
51	0x3c8c4c8b	0.017126342
52	0xbd32d6aa	-0.04366175
53	0x3ddd0d6b	0.10793575
54	0x3d82d6e6	0.06388645
55	0x3db313a7	0.08743983
56	0xbe696f1b	-0.2279629
57	0xbca9a57f	-0.020708797
58	0x3d0a2188	0.033723384
59	0x3dcbbd97	0.09948271
60	0xbd211f7c	-0.039336666
61	0xbddf28dd	-0.10896466
62	0x3dfbbd4b	0.12291964
63	0x3bf22260	0.0073893517
64	0x3cac82f9	0.021058546
65	0x3b8b126b	0.004244139
66	0xbbc82214	-0.006107578
67	0x3d6cb0ed	0.057785917
68	0x3cc5669c	0.02409678
69	0x3d819eee	0.063291416
70	0x3e4a2dc1	0.19744016
71	0xbd927a19	-0.071521945
72	0x3c7932ca	0.015209863
73	0xbe36860e	-0.17824575
74	0xbc81cd32	-0.015844915
75	0x3e4b2003	0.1983643
76	0x3be33ae0	0.0069345087
77	0x3df4a7ca	0.11946066
78	0x3ba2cbff	0.004968166
79	0xbe2e60a7	-0.17029057
80	0x3ce4edf5	0.027945498
81	0x3cfea23a	0.031083215
82	0x3c8acfeb	0.016944846
83	0xbc7162a5	-0.014732991
84	0xbc82b4c3	-0.015955335
85	0x3d8366a2	0.0641606
86	0x3d601943	0.05471159
87	0x3da523ff	0.08063506
88	0x3d801c9d	0.062554576
89	0xbb21def1	-0.0024699534
90	0xbe781c2a	-0.24229494
91	0x3dd0651d	0.10175536
92	0xbe158caf	-0.14604448
93	0xbe3fd31a	-0.18732873
94	0xbbcd9ebd	-0.0062750266
95	0x3e3a9d23	0.18224005
96	0xbd4404fb	-0.047856312
97	0xbd6053d3	-0.05476744
98	0xbe1f7b3e	-0.15574357
99	0xbd4d7c8d	-0.05016761
100	0x3d6fa6dc	0.05850874
101	0xbd321a3f	-0.04348206
102	0x3e27ed04	0.16399008
103	0x3dcdc57a	0.10047431
104	0xbd52185d	-0.051292766
105	0x3cdc4719	0.02688937
106	0xbdcc40af	-0.09973275
107	0x3de5f060	0.112274885
108	0x3d36af8d	0.044601012
109	0x3e46647d	0.1937427
110	0xbd3dac4a	-0.046306886
111	0x3cc3730a	0.023858566
112	0xbcbe70e4	-0.02324719
113	0xbdbdae46	-0.09261756
114	0x3db5fdea	0.08886321
115	0xbd96202a	-0.073303536
116	0x3e7bbd4b	0.24583928
117	0xbdb659ee	-0.089038715
118	0xbd1d01b3	-0.0383317
119	0x3d62356b	0.055226725
120	0x3d81d93b	0.063402615
121	0x3bb69477	0.0055718976
122	0xbdbcac5b	-0.09212562
123	0x3e2eb77f	0.17062186
124	0x3e15f75f	0.14645146
125	0x3e0922b3	0.13392143
126	0x3d01c1e8	0.031679064
127	0xbd8b5b26	-0.068044946
128	0x3d54c42d	0.0519449
129	0xbc9b0ce1	-0.01892704
130	0x3da35bde	0.07976507
131	0x3d5dba68	0.05413285
132	0xbd751883	-0.05983783
133	0x3ba4ba89	0.0050271195
134	0xbb52bdca	-0.003215658
135	0xbe10b3e1	-0.14131118
136	0x3d272eb5	0.040816028
137	0xbd87c560	-0.06629443
138	0xbe0654bb	-0.1311826
139	0xbcef84af	-0.029238073
140	0xbc7ef7ef	-0.015562042
141	0xbe034e95	-0.12822945
142	0x3d338178	0.043824643
143	0xbb3a3bd2	-0.0028417003
144	0x3d26015a	0.040528633
145	0x3dc83b81	0.097769745
146	0xbd0b43b6	-0.03400012
147	0x3e2a9041	0.16656591
148	0xbe791d80	-0.2432766
149	0xbc87df4d	-0.01658597
150	0x3d9d264f	0.076733224
151	0xbdbd00fa	-0.09228702
152	0x3e1c14f2	0.15242365
153	0xbe19cfd8	-0.15020692
154	0xbddcbbbf	-0.10777997
155	0x3e007c99	0.1254753
156	0x3d5f7408	0.054554015
157	0xbe6321e3	-0.22180896
158	0x3da7b39d	0.081885554
159	0x3cfe4b08	0.031041637
160	0xbd71720a	-0.058946647
161	0xbd6503cb	-0.05591182
162	0x3d183b33	0.03716583
163	0xbd2a765f	-0.041616794
164	0xbd07bbaf	-0.033137973
165	0x3de8bb92	0.11363901
166	0xbc126245	-0.008934562
167	0x3d248ad1	0.04017145
168	0xbe976f5f	-0.29577157
169	0x3e3284a1	0.17433406
170	0x3d133209	0.03593639
171	0xbe2a743b	-0.16645901
172	0x3d7e27c7	0.062049653
173	0x3e1a5c9f	0.15074395
174	0x3dcc709d	0.09982417
175	0x3e468751	0.19387557
176	0xbceaf6bd	-0.028682107
177	0x3e542072	0.20715502
178	0x3daf0b74	0.085471064
179	0x3def3beb	0.1168135
180	0x3c79530d	0.015217555
181	0xbc815cc3	-0.015791303
182	0xbdf189a7	-0.11793833
183	0xbc01ad23	-0.007914814
184	0xbca5c00e	-0.02023318
185	0x3cba0144	0.022705682
186	0x3d30352a	0.04301945
187	0xbc9d2ae2	-0.019185487
188	0x3bc86b4d	0.006116307
189	0x3d04c051	0.03240997
190	0x3df4bd27	0.119501404
191	0xbe680ebf	-0.22661875
192	0x3d448391	0.047977034
193	0xbcda20ad	-0.02662691
194	0xbdb3f894	-0.08787647
195	0xbdde33f8	-0.10849756
196	0xbd902cac	-0.070397705
197	0x3e064a97	0.13114391
198	0x3d924564	0.071421415
199	0xbd4a47bf	-0.04938483
200	0x3d989236	0.074497625
201	0x3e0896bd	0.13338752
202	0x3e8fc3fc	0.28079212
203	0x3d77ccf4	0.060498193
204	0xbdeb6e84	-0.114956886
205	0xbdb91a8c	-0.090382665
206	0x3e13ec33	0.14445572
207	0x3cd91321	0.02649838
208	0x3e3d7d8d	0.18504925
209	0x3de62676	0.112378046
210	0x3d9a0e7b	0.07522293
211	0xbd910a54	-0.07082048
212	0xbd34c637	-0.044134345
213	0xbe481baa	-0.19541803
214	0x3e04699e	0.12930915
215	0xbe42a9e4	-0.1901012
216	0x3d4bd9ba	0.049768187
217	0x3da1265d	0.07868645
218	0x3e5796d2	0.21053627
219	0xbcf14725	-0.02945287
220	0xbd114cf3	-0.035473775
221	0x3cdc2afa	0.026875962
222	0x3e0e9a76	0.1392611
223	0xbd8a8f44	-0.06765607
224	0xbe407194	-0.18793327
225	0x3ce5d15f	0.028053937
226	0xbc305c05	-0.010764127
227	0x3db8f007	0.090301566
228	0xbd76a74d	-0.060218144
229	0x3dca18e2	0.09868027
230	0x3da599a6	0.08085947
231	0x3d94b34c	0.07260761
232	0xbd0556bc	-0.03255342
233	0xbda08cb5	-0.07839338
234	0xbe5d755d	-0.21626802
235	0x3de3037f	0.11084651
236	0x3cdff5c7	0.027338875
237	0xbcd83beb	-0.026395759
238	0x3ca3db94	0.020002164
239	0xbdaf738b	-0.0856696
240	0x3bd958e0	0.006632909
241	0xbd8a241c	-0.067451686
242	0x3deb1dc5	0.114802875
243	0xbd674785	-0.05646469
244	0xbe83d99c	-0.2575196
245	0xbe248796	-0.16067347
246	0x3c86e959	0.01646869
247	0xbaf98f8f	-0.0019039976
248	0xbd412271	-0.047151987
249	0x3de6e5ba	0.112742856
250	0xbe184d32	-0.14873198
251	0xbdca7c55	-0.09886996
252	0xbe0be378	-0.13660991
253	0x3e13c531	0.14430691
254	0x3df8aa0d	0.121418096
255	0xbdd1924b	-0.10232981

network_body._body_endoder.seq_layers.0.bias f4 [256]
0	0xbc2edd9b	-0.010672952
1	0x3b7cd779	0.003858058
2	0x3d12af41	0.035811666
3	0xbd18fe8f	-0.03735214
4	0x3d0ff944	0.035149828
5	0xbdfa945c	-0.122353286
6	0x3d48d04b	0.04902677
7	0x3cfcfa43	0.030881053
8	0xbe1985b5	-0.14992411
9	0x3d149929	0.036278877
10	0xbb233e66	-0.0024909019
11	0xbc5dd2ec	-0.013539057
12	0xbce74866	-0.028232764
13	0xbc2e646d	-0.010644061
14	0x39f10779	0.0004597267
15	0xbe13d0b2	-0.1443508
16	0xba93f0d0	-0.0011286978
17	0xbdc9ffb5	-0.09863225
18	0x3c0ca113	0.008583325
19	0xbd5bd285	-0.053667564
20	0x3d891624	0.06693676
21	0x39dc8ac5	0.0004206506
22	0xbd255dd0	-0.04037267
23	0xba7de1e2	-0.0009684843
24	0xbc8102e3	-0.015748447
25	0xbd92aed7	-0.07162254
26	0xbc1e1802	-0.009649279
27	0x3cc21669	0.023692327
28	0x3c594f9d	0.01326361
29	0x3cd07574	0.025446631
30	0xbe047f5e	-0.12939212
31	0xbd61b4ae	-0.05510395
32	0xbb9007c3	-0.0043954565
33	0x3c825799	0.01591091
34	0x3d324755	0.04352506
35	0xbe04d12a	-0.12970415
36	0xbe086aed	-0.13322039
37	0xbd57e2c8	-0.05270651
38	0xbbdf7b64	-0.006820129
39	0x3c52302b	0.012828867
40	0xbe0eb9d6	-0.13938078
41	0x3d8ef1f6	0.06979744
42	0x3cb9df39	0.022689449
43	0xbc81c070	-0.015838832
44	0x3d23d288	0.0399957
45	0x3d10fae3	0.035395514
46	0x3cdd4c35	0.027013877
47	0x3d67b94e	0.056573205
48	0xbc646859	-0.013940894
49	0x3c100bda	0.008791888
50	0x3d3ddef4	0.046355203
51	0x3d02ce5f	0.031935092
52	0x3d3fba29	0.046808396
53	0xbd436698	-0.047705263
54	0x3c5de0cb	0.013542364
55	0xbd06c0ef	-0.03289884
56	0x3c4814ef	0.012212022
57	0x3d16b71e	0.036795728
58	0xbaff45a9	-0.0019475716
59	0xbd2c9e38	-0.042143077
60	0x3c191112	0.009342449
61	0xbcc71eae	-0.024306621
62	0x3d27fea8	0.041014344
63	0xb98d508b	-0.00026953625
64	0xbc912b84	-0.017720945
65	0x3c76fdd4	0.015075166
66	0xbd2f577b	-0.042808037
67	0xbcff8b50	-0.031194359
68	0x3d3f8bd8	0.046764225
69	0x3c0d0f49	0.008609601
70	0xbe2c8cd8	-0.16850603
71	0xbd1f06c7	-0.038824823
72	0x3c9c4d3f	0.019079803
73	0xbe0c0473	-0.13673572
74	0x3bc0131d	0.0058616535
75	0x3ce6769a	0.028132726
76	0xbd7aa0f2	-0.061188646
77	0xbd9dc42f	-0.07703435
78	0xbe0ebd85	-0.13939483
79	0x3d426c66	0.047466658
80	0xbe1bab45	-0.15202053
81	0xbd275c4e	-0.040859513
82	0x3dd52496	0.10407369
83	0x3c9bbeaa	0.019011814
84	0x3ce1c32e	0.02755889
85	0xbcb5ca12	-0.022191081
86	0xbba1d4b4	-0.0049386863
87	0xbc415552	-0.011800127
88	0x3c87d3b4	0.01658044
89	0x3c4a8f2b	0.0123632355
90	0xbdce840e	-0.10083781
91	0xbe15b031	-0.14617993
92	0x3d681c9c	0.05666791
93	0xbd84ef0a	-0.064909056
94	0x3d3afcba	0.045651175
95	0x3c87d291	0.016579898
96	0xbd0b870c	-0.034064338
97	0xbdcca952	-0.09993233
98	0xbe296f9f	-0.16546486
99	0xbd5cbb63	-0.053889643
100	0x3c960286	0.01831175
101	0xbdc77130	-0.09738386
102	0x3c726c48	0.014796324
103	0x3c1fa918	0.009744905
104	0x3c56a119	0.013099932
105	0xbc06c6e3	-0.008226129
106	0xbdebabf8	-0.1150741
107	0x3d0907cd	0.033454705
108	0x3cda4be0	0.026647508
109	0xbced6d5a	-0.028982807
110	0xbbad9b64	-0.005298065
111	0xbe099686	-0.13436326
112	0x3d1bcd51	0.0380376
113	0xbd41053d	-0.047124136
114	0x3d8bfa67	0.0683487
115	0x3d6863e1	0.056735877
116	0x3d4d5ee5	0.050139327
117	0x3cb1734e	0.021661427
118	0x3cf33922	0.029690329
119	0xbce6331e	-0.028100546
120	0x3d87bed8	0.066281974
121	0xbd21ae01	-0.039472584
122	0x3ca7a344	0.020463593
123	0x3d36f424	0.044666424
124	0xbca16f62	-0.019706432
125	0xbde41a7c	-0.11137864
126	0x3c697006	0.0142479
127	0xbda0d977	-0.07853978
128	0x3d007a72	0.031366773
129	0xbd0a32d0	-0.033739865
130	0x3d43b54a	0.047780313
131	0xbd2ef65d	-0.04271542
132	0xbcc77f59	-0.024352716
133	0xbd0417fa	-0.03224943
134	0x3d7ecda9	0.06220785
135	0x3b4649d8	0.0030256417
136	0xbd73012e	-0.059327297
137	0xbc0ddb04	-0.008658174
138	0xbcd936bb	-0.026515355
139	0xbd465af5	-0.048426587
140	0x3c6eba4a	0.014570782
141	0xbd4d4d32	-0.050122447
142	0x3d174061	0.03692663
143	0xbd41de58	-0.047331184
144	0xbd82befc	-0.06384084
145	0xbcab19e4	-0.020886369
146	0x3c072421	0.00824836
147	0x38a83e78	8.0225e-05
148	0xbbe01376	-0.0068382574
149	0x3d92f007	0.07174688
150	0xbb93ec6d	-0.004514268
151	0x3a47a6d1	0.0007616105
152	0xbc952e37	-0.018210514
153	0x3d03b06e	0.03215068
154	0x3c0e601c	0.008689906
155	0xbda29bf0	-0.07939899
156	0x3baa38f4	0.0051947776
157	0xbd55ca57	-0.05219492
158	0x3c3bc32b	0.011460106
159	0xbd34a175	-0.04409929
160	0x3c1fa242	0.009743275
161	0xbd25629f	-0.040377256
162	0x3c50e9c8	0.01275105
163	0xbb00a890	-0.001963172
164	0x3d0043f1	0.031314794
165	0xbc0141fe	-0.007889269
166	0xbc6d5559	-0.0144856805
167	0xbcd0f2c9	-0.025506394
168	0x3d7f0e07	0.062269237
169	0x3d13227e	0.035921566
170	0xbe222621	-0.15834858
171	0x3d4d11ca	0.050065793
172	0x3a768fea	0.00094056
173	0x3d6e78f3	0.058220815
174	0x3c9d2088	0.019180551
175	0xbc13242b	-0.008980791
176	0xbdd1996b	-0.1023434
177	0xbc75f4a6	-0.015011942
178	0xbcb86fc0	-0.022514224
179	0x3d45587a	0.04818008
180	0x3cd794c9	0.026316063
181	0xbc55bbb6	-0.013045242
182	0x3cd4a50a	0.025957603
183	0xb8cd3aab	-9.7860895e-05
184	0xbba00698	-0.0048835985
185	0xbbc53a1f	-0.0060188915
186	0x3cdd7425	0.027032921
187	0x3bad24b5	0.005283917
188	0xbc69f45d	-0.014279452
189	0xbc8e003a	-0.017334092
190	0xbcc8e664	-0.024523921
191	0xbc77abf6	-0.015116682
192	0xbd90af1f	-0.07064652
193	0xbc11b220	-0.008892566
194	0x3d356dcc	0.044294164
195	0xbc5c4989	-0.0134452665
196	0xbbee0d67	-0.0072647813
197	0x3d3d3f34	0.046202853
198	0x3c57fb44	0.013182465
199	0xbd6fbca2	-0.058529504
200	0xbe11d15b	-0.14240019
201	0x3ce638dc	0.028103285
202	0xb9f22cab	-0.00046191117
203	0xbc09efc7	-0.008418984
204	0xbdcb6645	-0.09931616
205	0xbd8218a5	-0.06352357
206	0x3c8b96c0	0.017039657
207	0xbd0fec3c	-0.0351374
208	0xbcb7a7ce	-0.022418883
209	0x3b9c9f16	0.0047797067
210	0x3c9206df	0.017825542
211	0x3c3e5c26	0.01161865
212	0xbd522726	-0.051306866
213	0x3d44fd47	0.048093107
214	0xbe1cd77d	-0.15316577
215	0xbe2dffb8	-0.1699208
216	0xbe038649	-0.12844194
217	0x3ae6a292	0.0017596057
218	0xbdb9e1c0	-0.090762615
219	0xbd03942a	-0.032123722
220	0xbdeb3042	-0.11483814
221	0xbcf2cff0	-0.029640168
222	0xbc837b31	-0.016049953
223	0xbc89b0a3	-0.01680786
224	0xbda5d2ff	-0.08096885
225	0xbbe632ac	-0.0070250835
226	0x3d0b006e	0.033935957
227	0xba80b848	-0.0009820545
228	0xbd57110d	-0.052506495
229	0xbe27d3fd	-0.16389461
230	0xbdb11896	-0.086472675
231	0xbd74dbba	-0.05977986
232	0x3c541e52	0.012946682
233	0xbc298218	-0.010345958
234	0x3c1fff53	0.009765464
235	0xbd264155	-0.04058965
236	0x3d8a861d	0.06763861
237	0xbcd932e5	-0.026513526
238	0xbb6f6184	-0.003652663
239	0xbd1824ab	-0.037144344
240	0x3d074612	0.03302581
241	0x3d508250	0.050905526
242	0xbe0f0cc3	-0.13969712
243	0xbc15f37b	-0.009152289
244	0xbe37c24a	-0.17945209
245	0x3bedd32c	0.0072578397
246	0xbb1f9ef0	-0.0024356209
247	0xbd6ee8fb	-0.058327656
248	0xbcd9efeb	-0.02660366
249	0x3d70da1f	0.058801766
250	0x3c231a70	0.009955034
251	0xbdd94288	-0.10608393
252	0x3b408c01	0.0029380324
253	0x3bb57bf4	0.005538458
254	0x3d421c8c	0.047390506
255	0xbe12c5e6	-0.14333305

network_body._body_endoder.seq_layers.2.weight f4 [256, 256]
0	0x3ce14ff1	0.02750394
1	0xbd4a7a04	-0.04943277
2	0xbd83495b	-0.06410476
3	0xbc9106ba	-0.017703403
4	0x3d5fabdc	0.054607257
5	0xbd616b16	-0.055033766
6	0xbdec06fd	-0.115247704
7	0x3da225ba	0.07917352
8	0xbd26773a	-0.040641047
9	0x3caa182b	0.020763477
10	0xbd10747d	-0.035267342
11	0xbb715bf7	-0.0036828497
12	0xbbe9d4d3	-0.0071359663
13	0xbd4bfcea	-0.049801745
14	0x3dd94a1b	0.106098376
15	0xbdb4bf87	-0.088255934
16	0xbdda20f3	-0.10650816
17	0xbde3319e	-0.11093448
18	0xbb82b655	-0.003989021
19	0xbc8a9641	-0.01691735
20	0x3df28e7a	0.118435815
21	0xbdccfbb9	-0.1000895
22	0x3d137519	0.036000345
23	0xb9ac8c18	-0.00032910774
24	0xbbd9096b	-0.006623437
25	0xbe1861f0	-0.1488111
26	0xbc3b4be7	-0.011431671
27	0x3b1795c6	0.0023130043
28	0xbd65dcf3	-0.056118917
29	0xbdb49ca1	-0.08818937
30	0xbd97f52a	-0.07419808
31	0xbd6bae0a	-0.057539023
32	0xbe4b3d57	-0.19847618
33	0x3d401903	0.046898853
34	0xbdecdd86	-0.1156569
35	0x3c329949	0.010900804
36	0xbdfaa344	-0.12238172
37	0xbc1bab25	-0.009501253
38	0x3d37026f	0.044680055
39	0x3d451e0a	0.04812435
40	0xbdc25b7d	-0.09490106
41	0x3dcc5408	0.09976965
42	0xbca0a439	-0.019609557
43	0x3dad5dc1	0.08465148
44	0x3dd91426	0.10599546
45	0x3e0c11e6	0.13678703
46	0x3d8b08dc	0.06788799
47	0x3e94f9d3	0.2909685
48	0x3cd1e2b4	0.025620796
49	0x3e16cd9a	0.14726868
50	0xbdbfc859	-0.09364385
51	0xbcf7634a	-0.030198712
52	0xbbf0c9fc	-0.007348297
53	0x3cbd488f	0.023105888
54	0x3e172369	0.14759602
55	0x3d21e103	0.03952123
56	0x3dbe32a8	0.09287006
57	0x3d11f7f1	0.035636846
58	0x3dbd920b	0.09256371
59	0x3b5ea428	0.0033972356
60	0xbc65cb56	-0.01402553
61	0xbc391885	-0.01129735
62	0xbd8748d5	-0.066056885
63	0xbe1f7906	-0.1557351
64	0x3bae8578	0.0053259693
65	0xbc8aeac7	-0.016957654
66	0xbd85c5b9	-0.06531853
67	0xbd06a7ac	-0.032874748
68	0x3cba065d	0.022708112
69	0xbd3f0571	-0.04663605
70	0x3d68d432	0.05684299
71	0x3dac74fc	0.084207505
72	0x3dc71753	0.097212456
73	0xbda9b932	-0.08287276
74	0xbd57db98	-0.052699655
75	0xbda1d112	-0.07901205
76	0xbd49c969	-0.049264345
77	0xbe204d47	-0.15654479
78	0xbcd1915e	-0.025582012
79	0xbd80b367	-0.06284218
80	0xbda14264	-0.07873991
81	0x3d74d0b9	0.059769366
82	0x3e934081	0.2876015
83	0x3bc542d9	0.0060199318
84	0x3d411298	0.047136873
85	0xbd98c67c	-0.07459733
86	0xbcb151cb	-0.021645447
87	0xbd007234	-0.031358913
88	0xbc051aed	-0.008124095
89	0x3db4d11b	0.08828946
90	0xbc90b0f0	-0.017662495
91	0xbdbf4903	-0.09340098
92	0x3bfd81c6	0.0077364175
93	0xbd98be14	-0.074581295
94	0xbe250ad0	-0.16117406
95	0xbdd06ae1	-0.101766355
96	0x3cec2708	0.028827205
97	0x3d38afc0	0.045089483
98	0xbce461ff	-0.02787876
99	0xbdf73e1e	-0.12072395
100	0x3e0c18f6	0.13681397
101	0xbdd2e6f9	-0.10297961
102	0x3cea37ec	0.028591119
103	0x3b9a50f4	0.0047093574
104	0x3d929cf0	0.0715884
105	0xbe0ff20f	-0.14057182
106	0xbe10be70	-0.14135146
107	0x3d764159	0.060120914
108	0xbe1caf23	-0.15301184
109	0x3e0a0c38	0.13481224
110	0x3d5299c8	0.05141619
111	0xbdfca246	-0.12335639
112	0x3bfafc33	0.007659459
113	0x3c962050	0.018325955
114	0xbe770b79	-0.2412547
115	0x3e6c164a	0.23055378
116	0x3da5128c	0.08060178
117	0x3d18e4b1	0.037327472
118	0xbd69b901	-0.0570612
119	0xbd96de08	-0.07366568
120	0x3e5c647b	0.21522705
121	0xbd4893f6	-0.04896923
122	0x3d334ff4	0.04377742
123	0xbd92f884	-0.07176307
124	0x3da50e9e	0.08059429
125	0xbdb6ed67	-0.08932
126	0xbd50ed87	-0.051007774
127	0x3b418935	0.0029531245
128	0xbdf33c6a	-0.118767574
129	0x3d540c6b	0.051769655
130	0xbe1870e6	-0.14886817
131	0xbd425cf3	-0.047451925
132	0xbbb39ecb	-0.005481576
133	0x3c7d70a7	0.015468753
134	0x3e240c4b	0.16020314
135	0xbdcfd1ea	-0.1014746
136	0x3cf5a59d	0.029986197
137	0xbd2033bb	-0.039111834
138	0xbda781c8	-0.08179051
139	0x3dbe3f70	0.092894435
140	0x3e23addc	0.15984291
141	0xbcb448b8	-0.022007331
142	0xbc8cd7e6	-0.017192792
143	0xbd8f064f	-0.06983625
144	0x3e04b99d	0.12961431
145	0x3d1ddc3e	0.038540117
146	0x3d839240	0.06424379
147	0x3d1fd283	0.03901912
148	0x3e0267b5	0.12734874
149	0xbd4ba20a	-0.04971508
150	0x3dbb8f0b	0.09158143
151	0xbc97157a	-0.018442858
152	0xbdde9b3d	-0.10869453
153	0x3e16b2a7	0.14716588
154	0xbd88b914	-0.06675926
155	0x3d0f2f48	0.0349572
156	0xbc62cbad	-0.013842505
157	0x3d612b33	0.05497284
158	0x3d98c494	0.07459369
159	0xbd8f0caa	-0.06984837
160	0x3cfc8733	0.030826187
161	0xbd864711	-0.065565236
162	0xba6dd98d	-0.000907325
163	0xbdaac785	-0.083388366
164	0x3cddb3a1	0.027063193
165	0xbcb4246b	-0.021990022
166	0xbd63fa1c	-0.055658445
167	0xbd0f4670	-0.034979284
168	0xbe08b6ef	-0.13351034
169	0x3d994aa7	0.07484942
170	0xbd2feed3	-0.04295237
171	0xbdf63161	-0.12021137
172	0x3914c5e8	0.00014188106
173	0xbdd8be96	-0.105832264
174	0xbda73887	-0.081650786
175	0x3d83f533	0.064432524
176	0xbd4502d6	-0.048098408
177	0xbdd58dde	-0.1042745
178	0xbd0e3735	-0.03472062
179	0xbca3e82e	-0.020008173
180	0xbe011516	-0.126057
181	0xbd234966	-0.03986492
182	0x39272a5b	0.0001594214
183	0x3d405fdf	0.04696643
184	0xbdffe86b	-0.12495502
185	0x3d1edb16	0.038783155
186	0xbd6df07e	-0.05809068
187	0x3cf3bf85	0.02975441
188	0x3d314ebe	0.043287985
189	0x3d0f5479	0.03499267
190	0xbc81814b	-0.015808722
191	0xbcb9adf7	-0.02266596
192	0xbc077c77	-0.008269421
193	0x3d68b538	0.05681345
194	0xbd909c02	-0.07061006
195	0xbdee5dfb	-0.11639019
196	0x3d53be60	0.051695228
197	0xbd103f66	-0.03521671
198	0xbbc5cf5b	-0.0060366816
199	0x3d94527b	0.072422944
200	0x3b621129	0.0034495092
201	0x3dea42cb	0.11438521
202	0x3cf45772	0.029826853
203	0xbd50497c	-0.05085133
204	0x3d04aded	0.03239243
205	0xbdcc193d	-0.09965751
206	0xbb08942d	-0.0020840273
207	0xbc4d3d50	-0.012526825
208	0x3ccfebf5	0.025381068
209	0xbda3659f	-0.07978367
210	0xbd3107db	-0.043220382
211	0xbca2f15c	-0.01989048
212	0xbdb9b1b0	-0.09067094
213	0x3d1152d0	0.035479367
214	0x3d4f64b3	0.050633144
215	0x3c938d8a	0.018011827
216	0xbb26c366	-0.0025446056
217	0x3df35992	0.118823186
218	0xbcf9f1da	-0.030510832
219	0xbda035e3	-0.07822778
220	0xbd52904d	-0.051407147
221	0xbda507e6	-0.08058147
222	0xbe2167fc	-0.15762323
223	0xbe0093b0	-0.12556338
224	0x3c46f655	0.012143691
225	0xbc801b26	-0.015637945
226	0x3d062294	0.03274782
227	0x3b84ae22	0.0040490786
228	0xbbc330e6	-0.005956757
229	0xbd93230b	-0.07184418
230	0x3bfb9ba4	0.007678466
231	0x3c194713	0.009355324
232	0x3c330edf	0.0109288385
233	0xbca40d31	-0.020025821
234	0xbc9c253d	-0.019060725
235	0xbd023982	-0.031793125
236	0x3d4e1a8c	0.050318286
237	0xbd855d75	-0.06511966
238	0x3ddc5d73	0.107600115
239	0xbb4c9a6e	-0.0031219977
240	0xbdfe5799	-0.12419052
241	0x3e0d29be	0.13785455
242	0x3c8332d4	0.016015448
243	0x3d96f277	0.07370465
244	0xbe16cf5b	-0.14727537
245	0xbc790daf	-0.015201016
246	0x3cb9c46a	0.022676665
247	0xbc9fabee	-0.019491162
248	0x3c996280	0.018723726
249	0xbdadce1e	-0.08486579
250	0xbdac0e7f	-0.084012024
251	0xbcf71ec0	-0.03016603
252	0x3ce0f732	0.027461622
253	0xbc133fe5	-0.008987402
254	0x3e3bfc1b	0.1835789
255	0x3dc2c1d9	0.0950963

network_body._body_endoder.seq_layers.2.bias f4 [256]
0	0x3d230e09	0.039808307
1	0xbc17d93f	-0.009268104
2	0x3c2a8e0f	0.010409846
3	0x3d282b80	0.04105711
4	0xbd0e69ec	-0.034768984
5	0xbd2214ea	-0.039570726
6	0x3bd093c4	0.0063652713
7	0xbd10b6c4	-0.03533055
8	0x3cd68613	0.026186978
9	0x3cb3e0f4	0.021957852
10	0x3cee77d7	0.029109878
11	0x3cf58817	0.02997212
12	0x3d55575f	0.052085277
13	0x3d44cf1d	0.04804908
14	0xbc51e455	-0.012810786
15	0x3d29331f	0.04130852
16	0x3d5ea283	0.054354202
17	0x3c8cd34c	0.017190598
18	0x3ccb8732	0.02484474
19	0x3cc5b7bf	0.024135469
20	0xbc82bf0a	-0.015960235
21	0x3d17ef62	0.037093528
22	0x3aa4099c	0.0012515071
23	0x3cc2a671	0.023761006
24	0x3d21a6a7	0.039465573
25	0x3ccfcd08	0.025366321
26	0xba3fce8e	-0.0007316851
27	0xbcfffcc3	-0.031248456
28	0x3c2e396a	0.010633806
29	0x3d4e2057	0.05032381
30	0x3d49ac94	0.04923685
31	0x3c770e6d	0.015079123
32	0x3d412ac5	0.04715993
33	0x3d610abf	0.05494189
34	0x3c98601b	0.018600514
35	0x3bc3e83b	0.0059786118
36	0x3d599c99	0.05312786
37	0x3cc6dedc	0.02427619
38	0x3d02a339	0.031893943
39	0x3cc38f86	0.023872148
40	0x3c74d6d3	0.014943796
41	0x3d1342ad	0.03595226
42	0x3d2b05b5	0.04175349
43	0x3cee4558	0.0290858
44	0xbad9b275	-0.001660897
45	0x3d166130	0.03671378
46	0x3d417b07	0.04723647
47	0x3bab0e36	0.0052202
48	0x3d556cae	0.0521056
49	0x3d8a6b4f	0.06758749
50	0x3c5d3db0	0.013503477
51	0x3cc01fc2	0.023452643
52	0xbd06f231	-0.032945815
53	0x3c72bafe	0.01481509
54	0xbcf93424	-0.03042037
55	0x3c2b22b0	0.010445282
56	0x3d3e0285	0.04638912
57	0x3cea64ef	0.028612582
58	0xbc57266f	-0.013131722
59	0x3d49bd50	0.049252808
60	0x3d3411ed	0.043962408
61	0x3cf41a58	0.029797718
62	0x3c39cb75	0.011340012
63	0x3d7071b0	0.05870217
64	0x3d13f0e0	0.03611839
65	0x3c9a877e	0.018863436
66	0xba11bf65	-0.0005559831
67	0x3ba40fcc	0.005006766
68	0x3d3890ad	0.04505985
69	0x3cc17e2d	0.023619736
70	0x3c74bb0c	0.014937174
71	0x3d3a65a3	0.045507085
72	0x3d2c05cf	0.041997727
73	0x3d3e3c4b	0.04644422
74	0x3cc21b54	0.023694672
75	0x3d0c0650	0.034185708
76	0x3c9f635b	0.019456556
77	0x3d1810b9	0.037125323
78	0x3cdfa552	0.02730051
79	0x3cce0bdd	0.025152141
80	0x3c3bf212	0.011471288
81	0x3d26d4bc	0.040730223
82	0x3d0ae74d	0.033911992
83	0x3b6f57f3	0.0036520928
84	0x3b97385e	0.004614874
85	0x3c7c3024	0.015392337
86	0x3c1db668	0.009626009
87	0x3d0821be	0.033235304
88	0x3d5fcd45	0.05463912
89	0x3b16b793	0.0022997602
90	0x3c556b3a	0.013026053
91	0x3d2af0e0	0.041733623
92	0xbae51b87	-0.0017479517
93	0x3cabddb3	0.020979738
94	0x3cb651f0	0.022255868
95	0x3c8bea4b	0.017079493
96	0x3bb186a4	0.0054176617
97	0x3d6d2ddd	0.057905067
98	0x3d4d18fc	0.050072655
99	0x3d39498a	0.045236148
100	0x3d2051a4	0.03914036
101	0xbc04c848	-0.008104391
102	0x3d0af54a	0.033925332
103	0x3d3eedc9	0.04661349
104	0x3d314584	0.043279186
105	0x3c601e51	0.013679103
106	0x3c8016b0	0.015635818
107	0x3d457728	0.04820934
108	0xbc575c3a	-0.013144547
109	0x3bdadb69	0.0066789878
110	0x3c363c0a	0.011122713
111	0x3d31f258	0.043444008
112	0x3d6bde50	0.05758506
113	0x3d64c258	0.055849403
114	0x3d01aec3	0.031660806
115	0x3d0e926a	0.0348076
116	0x3d034ff6	0.03205868
117	0x3b3d647b	0.0028899002
118	0x3d63c9b3	0.055612277
119	0x3c25129a	0.010075236
120	0x3d032461	0.032017116
121	0x3cda8584	0.026674993
122	0x3b472d9f	0.0030392183
123	0x3d325596	0.043538652
124	0x3b1e2169	0.00241288
125	0x3cddd629	0.027079659
126	0x3c149cc4	0.009070579
127	0xbbcfda35	-0.006343151
128	0x3c1b2e22	0.009471448
129	0x3d422034	0.047393993
130	0xbb71cb8c	-0.0036895005
131	0x3d58b295	0.052904684
132	0xbc2e3dbe	-0.010634838
133	0x3d56edb8	0.0524728
134	0x3ca51bb4	0.020154811
135	0x3d2ee296	0.042696558
136	0x3caa44bb	0.020784726
137	0x3d21bc84	0.039486423
138	0x3d04d26d	0.03242724
139	0x3cc8cb1e	0.024510916
140	0x3d446e27	0.047956612
141	0x3d34ed6a	0.04417173
142	0x3b085eaa	0.0020808377
143	0x3c26bfbf	0.010177552
144	0xbd0869a2	-0.033303864
145	0x3d3f5812	0.04671485
146	0xbc05cbb1	-0.00816624
147	0x3ce08289	0.027405994
148	0x3d02cd7c	0.031934246
149	0xbceb4e61	-0.028723897
150	0x3d09be66	0.033628844
151	0xbbc3db2c	-0.005977055
152	0x3c0a0b4b	0.008425544
153	0x3c5bfc7d	0.013426897
154	0xbbe93577	-0.007116969
155	0xbc803201	-0.015648844
156	0xbbe38004	-0.006942751
157	0x3d2a30e1	0.04155052
158	0x3d7bb097	0.061447706
159	0x3d3da0c2	0.04629589
160	0x3c8f7d92	0.017515931
161	0x3c4d3201	0.012524129
162	0x3d09f5ab	0.033681553
163	0xbd2cf55f	-0.04222619
164	0x3d3f02b0	0.046633422
165	0x3c96f632	0.018427942
166	0x3927a01a	0.00015986004
167	0x3d68e51c	0.05685912
168	0xbcb5308d	-0.022117877
169	0x3d74b450	0.059742272
170	0x3d26991e	0.040673368
171	0xbb654d07	-0.0034988539
172	0x3d039802	0.032127388
173	0x3d54ab37	0.051921096
174	0x3b92052c	0.004456183
175	0x3d310bec	0.04322426
176	0x3cd8278c	0.026386045
177	0x3d1165de	0.03549754
178	0x3c9aabe4	0.018880792
179	0x3c1a146c	0.009404283
180	0x3d0041de	0.031312816
181	0x3d51553b	0.051106673
182	0x3cf25b35	0.029584507
183	0xb6e4517d	-6.804416e-06
184	0xbc1b202e	-0.009468121
185	0x3bf4676a	0.007458617
186	0x3d4046ae	0.046942405
187	0x3d21094d	0.03931551
188	0x3c826e31	0.015921684
189	0x3d29ec2f	0.041485008
190	0x3be5f38c	0.0070175584
191	0x3c47df18	0.012199186
192	0x3d59da1c	0.05318652
193	0x3d7e8a5e	0.062143676
194	0x3d594426	0.053043507
195	0x3c9213c4	0.01783169
196	0xbd19a028	-0.037506253
197	0x3c80eb90	0.015737325
198	0x3d03754c	0.032094285
199	0x3d698396	0.057010256
200	0x3cb319de	0.02186292
201	0x3cd2b00c	0.025718711
202	0xbc675bd4	-0.014121015
203	0x3d1a4b61	0.037669543
204	0x3d05260f	0.032507
205	0x3d0c8aa8	0.03431192
206	0x3d0ee237	0.034883704
207	0x3bdd9be2	0.0067629674
208	0x3d41e0ae	0.047333412
209	0x3d0b97e7	0.034080412
210	0xbbb4d3c0	-0.0055184066
211	0x3d477091	0.048691336
212	0x3d8a2aa0	0.06746411
213	0x3d2b2a77	0.041788545
214	0x3d4d8546	0.050175928
215	0x3d4dde5d	0.05026089
216	0x3d0795a9	0.03310171
217	0x3d888e8a	0.06667812
218	0x3d33d19f	0.043901082
219	0x3cb6d0b4	0.022316314
220	0x3d502b48	0.050822526
221	0x3d0ab949	0.033868108
222	0x3d365df0	0.04452318
223	0x3ca75f1f	0.0204311
224	0xbb475151	-0.0030413459
225	0x3b4b2918	0.0030999836
226	0x3d1d35c9	0.03838137
227	0x3d6d7fda	0.057983257
228	0x3c3479af	0.01101534
229	0x3d63726e	0.05552905
230	0x3ce0cc0c	0.027441047
231	0x3d435f66	0.0476984
232	0x3cb54942	0.022129659
233	0x3cbca169	0.023026185
234	0x3d030188	0.031983882
235	0x3d23277a	0.03983257
236	0x3d03c1e8	0.032167345
237	0x3d207c11	0.03918082
238	0xbd00d7fa	-0.03145597
239	0x3d2a8dff	0.041639324
240	0x3ca53384	0.020166166
241	0x3d450c61	0.04810751
242	0x3cc42668	0.023944095
243	0x3d23e833	0.040016364
244	0xba7cb303	-0.0009639712
245	0x3c4eebff	0.012629508
246	0x3bdd4baa	0.0067534046
247	0x3b833e37	0.0040052193
248	0x3d479279	0.04872367
249	0xbc1ee91f	-0.009699135
250	0x3cea8552	0.028628025
251	0x3be466ea	0.006970276
252	0x3cba3605	0.022730837
253	0x3d1b3548	0.03789261
254	0x3c217441	0.009854377
255	0xbbc5a271	-0.0060313274

action_model._discrete_distribution.branches.0.weight f4 [2, 256]
0	0xbd532185	-0.05154564
1	0x3cd79433	0.026315784
2	0x3d32840e	0.04358297
3	0xbd2306a0	-0.03980124
4	0x3bf33bc1	0.0074228947
5	0x3a83859d	0.0010034327
6	0x3d61c999	0.0551239
7	0xbc087851	-0.008329467
8	0x3b397862	0.0028300514
9	0x3d9b7f21	0.07592607
10	0x3d3f0173	0.04663224
11	0x3d839383	0.0642462
12	0xbd8f9ca3	-0.07012298
13	0x3d7b0e33	0.06129284
14	0x3cbed43c	0.02329456
15	0x3da8c5cf	0.08240854
16	0x3d32c24b	0.043642323
17	0xbba41c7e	-0.0050082793
18	0x3c9ca749	0.019122737
19	0x3ce4770a	0.027888793
20	0x3cac9f6f	0.021072118
21	0x3da5bfc7	0.08093219
22	0x3d0bb01e	0.034103505
23	0x3d397dae	0.045285873
24	0xbcf6e44f	-0.030138163
25	0xbd33d4b9	-0.04390404
26	0x3cd78bfe	0.02631187
27	0x3c549fbf	0.01297754
28	0x3d405a2f	0.046961006
29	0xbcc60c9e	-0.024175938
30	0x3d649542	0.055806406
31	0x3d297043	0.041366827
32	0x3cfc34a2	0.030786816
33	0x3d0187a6	0.031623505
34	0x3d406831	0.046974365
35	0xbd03d428	-0.03218475
36	0x3da35e04	0.079769164
37	0x3d3e3135	0.046433646
38	0x3da990a1	0.08279539
39	0x3c068825	0.00821117
40	0xbcb2a127	-0.021805359
41	0xbce9989f	-0.028515158
42	0xbc2948d0	-0.010332301
43	0x3d0a615f	0.033784267
44	0x3cc0e2b0	0.023545593
45	0x3da2146c	0.079140514
46	0xbd413c45	-0.047176618
47	0x3c6a652c	0.014306348
48	0xbd9523ae	-0.07282196
49	0x3c6206c7	0.013795561
50	0x3cc4b694	0.024012841
51	0xbd5bc9e0	-0.05365932
52	0xbc50a8d0	-0.012735561
53	0xbd6bca0d	-0.057565738
54	0xbc1b7d5f	-0.00949034
55	0x3d21ef98	0.039535135
56	0xbbf075f8	-0.0073382817
57	0x3b9da075	0.0048103877
58	0xbc8fd3b2	-0.017556999
59	0xbc0a927d	-0.008457777
60	0xbd1b94b0	-0.037983596
61	0xbc784719	-0.01515367
62	0xbcd2b56f	-0.02572128
63	0xbd8349c2	-0.064105526
64	0xbd7e510a	-0.062089004
65	0x3d07e81e	0.03318035
66	0xbcb7e18f	-0.022446422
67	0x3b7d015d	0.003860555
68	0xbd517626	-0.051138066
69	0x3cbee794	0.023303784
70	0xbb94045c	-0.0045171212
71	0x3d0d77fe	0.03453826
72	0x3ce7253a	0.028215993
73	0x3dad9486	0.08475594
74	0x3d4c33e2	0.049854167
75	0x3d8a7cf6	0.06762116
76	0xbd82ee06	-0.063930556
77	0xbd785ec3	-0.060637247
78	0x3d9007bf	0.070327275
79	0x3d8ca782	0.06867887
80	0x3a3b315e	0.000714084
81	0x3db0434f	0.08606588
82	0x3b257996	0.0025249473
83	0x3cfbafa5	0.030723402
84	0xbcfb1781	-0.030650856
85	0x3d194bda	0.037425853
86	0xbd23ce52	-0.039991684
87	0xbd1633b1	-0.03667039
88	0x3d861b18	0.065481365
89	0xbc9350c3	-0.017982846
90	0x3d72374f	0.059134778
91	0xbc9b1fca	-0.018936057
92	0x3bcc04d0	0.0062261596
93	0x3d834f8c	0.06411657
94	0x3d79275d	0.060828555
95	0x3ca39795	0.01996974
96	0xbcba9f8e	-0.02278116
97	0x3d5cd849	0.053917203
98	0x3dbe176b	0.092818104
99	0xbd4f71b2	-0.050645538
100	0xbd0281f0	-0.0318622
101	0xbc92cd1c	-0.01792007
102	0x3bf8df0e	0.0075949496
103	0xbd459943	-0.048241865
104	0x3d531162	0.05153025
105	0x3d4405f6	0.047857247
106	0x3cba7abc	0.022763602
107	0x3d684ed1	0.05671579
108	0x3ca6b317	0.020349069
109	0x3cf8746e	0.030328956
110	0x3d1b861d	0.037969697
111	0x3da1d41f	0.07901787
112	0x3d97210b	0.07379349
113	0x3b9c594b	0.0047713867
114	0xbd738986	-0.059457324
115	0x3d1cf893	0.038322996
116	0xbb659b44	-0.0035035172
117	0x3cdfa16e	0.027298655
118	0x3d5a097e	0.05323171
119	0x3cfc2b66	0.030782413
120	0xbca40cb2	-0.020025585
121	0x3ce3f398	0.027826115
122	0x3cb2d11e	0.02182823
123	0x3d3f5620	0.046712995
124	0x3d080b52	0.03321392
125	0x3d75967c	0.059957966
126	0xbc7fe92c	-0.015619557
127	0x3c856691	0.016284259
128	0xbbf46b93	-0.007459113
129	0xbd077770	-0.03307289
130	0x3c8949df	0.016758857
131	0x3cabcf85	0.020972976
132	0x3c87afb5	0.016563276
133	0xbd8b6dbb	-0.06808039
134	0xbdbc2c18	-0.09188098
135	0xbd1952ed	-0.0374326
136	0xbd25a7b9	-0.040443156
137	0x3dacc944	0.08436826
138	0x3d83d146	0.064364
139	0x3d6e2be8	0.05814734
140	0x3d897182	0.06711103
141	0xbd291752	-0.041282006
142	0x3cf7a625	0.030230591
143	0xbcb2dffe	-0.021835323
144	0xbbc354e9	-0.00596105
145	0xbd757e7e	-0.059935085
146	0x3d16c2df	0.036806937
147	0xbd66a4bc	-0.056309447
148	0x3c77562c	0.015096229
149	0x3bcdd260	0.006281182
150	0x3d7aa416	0.06119164
151	0x3c9b7398	0.018976018
152	0xbd0887f2	-0.033332773
153	0x3c663800	0.014051437
154	0x3cefe496	0.029283803
155	0x3c8c7c39	0.017149078
156	0x3d07bf1d	0.033141244
157	0xbcdb1058	-0.026741192
158	0xbcdaad69	-0.026694017
159	0xbcc03d96	-0.023466866
160	0x3d740b29	0.059580956
161	0xbd1983e9	-0.037479315
162	0xbd762859	-0.060097072
163	0xbc04a365	-0.008095597
164	0xbc74cc76	-0.014941325
165	0xbb8fdbda	-0.004390222
166	0x3cd17df5	0.025572756
167	0xbd8b6ff8	-0.06808466
168	0x3bf59d4c	0.007495558
169	0xbcfe7b19	-0.031064557
170	0x3bc3b53f	0.005972534
171	0x3c3e7dd3	0.0116266785
172	0x3d84a1c6	0.06476168
173	0xbd500c3b	-0.050792914
174	0x3c52844e	0.012848927
175	0xbd89f817	-0.067367725
176	0x3d477095	0.04869135
177	0xbd492702	-0.049109466
178	0x3d799060	0.060928702
179	0x3cfedf2b	0.031112274
180	0xbc590675	-0.013246168
181	0xbda38d0d	-0.07985888
182	0x3d8f05c7	0.06983524
183	0x3cd8e709	0.026477354
184	0xb82680c6	-3.9697414e-05
185	0x3d247845	0.04015376
186	0x3bfd0bd4	0.0077223573
187	0x3da0f5d3	0.07859387
188	0xbcb3dd9a	-0.021956254
189	0x3d131925	0.03591265
190	0xbd24ecff	-0.04026508
191	0xbd43074c	-0.04761438
192	0x3da9e154	0.08294931
193	0xbd86959d	-0.06571505
194	0xbc8d7a51	-0.01727024
195	0x3d6607dd	0.056159843
196	0xbc100bd5	-0.0087918835
197	0xbce1b782	-0.027553324
198	0x3cd3093e	0.025761243
199	0xbd4ca199	-0.0499588
200	0x3afdce10	0.001936378
201	0x3ca54476	0.020174246
202	0x3d0b3b47	0.03399208
203	0x3d340aab	0.043955486
204	0x3d70f932	0.0588314
205	0x3dc57c9c	0.09642908
206	0x3bdbe948	0.006711159
207	0x3d49bb89	0.049251113
208	0xbd3d6d16	-0.04624661
209	0xba5c97f5	-0.00084149773
210	0x3c2eae71	0.010661707
211	0xbcf7c70a	-0.030246276
212	0xbcfb36da	-0.030665804
213	0x3d3becc8	0.04588011
214	0xbd901432	-0.07035102
215	0xbc2bf02a	-0.010494271
216	0x3d4a26c7	0.049353387
217	0x3db50512	0.08838858
218	0x3c9e70ae	0.01934084
219	0x3d160738	0.036627978
220	0xbccd4bf6	-0.025060635
221	0x3d501fd0	0.05081159
222	0xbd81e4b5	-0.063424505
223	0x3d7b9d31	0.061429206
224	0x3cfba175	0.030716637
225	0x3c80b70e	0.015712287
226	0xbd15ec47	-0.036602285
227	0xbca53496	-0.020166676
228	0x3d4ba645	0.049719114
229	0xbc1b47d9	-0.009477579
230	0x3c52c31a	0.012863899
231	0x3cd6faf0	0.026242703
232	0xbd7ca860	-0.061684012
233	0x3cd94def	0.02652642
234	0xbd6e58b7	-0.058190074
235	0x3d9adac4	0.075612575
236	0xbcac7fa5	-0.02105696
237	0x3d8ea22b	0.06964525
238	0xbc2d18a5	-0.010564958
239	0xbd0d7d7a	-0.034543492
240	0x3cb1ffe1	0.021728458
241	0xbd629fbb	-0.055328112
242	0x3d6ff9ee	0.05858796
243	0x3d25ed20	0.040509343
244	0x3c85ffb4	0.01635728
245	0x3b28a1cd	0.0025731206
246	0x3d42c899	0.047554586
247	0x3d236ee8	0.03990069
248	0x3c9a406f	0.018829552
249	0x3cd30283	0.025758034
250	0x3c6b5ef1	0.0143658975
251	0xbcca9fa1	-0.02473432
252	0xb9d2df75	-0.0004022081
253	0x3d8a1e03	0.067440055
254	0x3d09a88d	0.03360801
255	0x3c27b980	0.010237098

action_model._discrete_distribution.branches.0.bias f4 [2]
0	0x3beaf3b0	0.007170163
1	0xbbeaf393	-0.0071701496

action_model._discrete_distribution.branches.1.weight f4 [2, 256]
0	0xbd62b2b6	-0.055346213
1	0x3c99f937	0.018795593
2	0x3d16ef8c	0.036849543
3	0xbcdee2bf	-0.02720773
4	0x3bbfaaff	0.0058492417
5	0xbb20910e	-0.0024500522
6	0x3d307fb7	0.04309055
7	0x3c1227aa	0.008920589
8	0x3d652edf	0.055952903
9	0x3d5c393e	0.053765528
10	0x3bebe528	0.0071989484
11	0x3cd92ce8	0.02651067
12	0xbd1d0af8	-0.03834054
13	0x3d8636f1	0.06553448
14	0x3bed2de7	0.007238138
15	0x3da21f7c	0.079161614
16	0x3d90d560	0.07071948
17	0x3cd03578	0.02541612
18	0x3d11c08b	0.035584014
19	0x3d52393a	0.051324107
20	0x3c710adf	0.0147120645
21	0x3d64ceed	0.055861402
22	0x3d2266d0	0.03964883
23	0x3d96a3a2	0.07355429
24	0xbd2a1a0a	-0.04152874
25	0xbd24490d	-0.04010873
26	0x3ccea89d	0.025226885
27	0x3c35c062	0.011093231
28	0x3cc18a13	0.02362541
29	0x3c9ef731	0.01940498
30	0x3d77cd05	0.060498256
31	0x3d2fb8d9	0.042900894
32	0x3d18fa2b	0.037347954
33	0x3d7fd02c	0.062454388
34	0x3d6c6314	0.057711676
35	0x3c66dae9	0.014090278
36	0x3dd63fc3	0.1046138
37	0x3d26ab83	0.04069091
38	0x3d3308de	0.04370963
39	0xbd7d6151	-0.061860386
40	0xbc9711ed	-0.018441165
41	0xbc234b36	-0.009966662
42	0xbd302f7c	-0.043014035
43	0x3d114ed0	0.035475552
44	0x3c82c40b	0.015962621
45	0x3d5f57fd	0.05452727
46	0xbc13dcb0	-0.009024784
47	0x3c36ac87	0.011149532
48	0xbd43e026	-0.047821186
49	0x3d433035	0.047653396
50	0xbc03acf3	-0.00803684
51	0xbd0b7cc3	-0.03405453
52	0x3bb31f60	0.0054663867
53	0xbbebffda	-0.0072021307
54	0x3c13c016	0.009017965
55	0x3d11e04f	0.035614308
56	0x3d2c6ea0	0.042097688
57	0xbc9436b5	-0.018092493
58	0x3be1ade1	0.006887183
59	0x3c64b0e5	0.013958191
60	0xbc95992e	-0.018261518
61	0xbcee8321	-0.029115262
62	0xbcc1e8d4	-0.023670591
63	0xbd8c5ab1	-0.068532355
64	0xbcf03131	-0.029320331
65	0x3d2dd13e	0.042435877
66	0xbc9bba65	-0.019009778
67	0xbcea50ed	-0.028603042
68	0xbd5c73ad	-0.053821255
69	0x3d59e91a	0.05320082
70	0xbb4d7eef	-0.0031356176
71	0x3cc03253	0.023461496
72	0x3d1807b5	0.037116725
73	0x3d959ed3	0.07305684
74	0x3d41d67f	0.0473237
75	0x3db02871	0.086014636
76	0xbced1513	-0.028940713
77	0xbd6ac1e0	-0.0573138
78	0x3d70e4e9	0.058812056
79	0x3da3de4d	0.08001385
80	0x3c31cc12	0.010851877
81	0x3d5eeaea	0.05442325
82	0xbce3add5	-0.02779285
83	0x3ce53559	0.02797954
84	0xbce0883f	-0.027408717
85	0x3cd3515a	0.025795627
86	0xbcfb4235	-0.030671218
87	0xbd0722cf	-0.03299218
88	0x3d289d2d	0.04116552
89	0x3bf89603	0.007586242
90	0x3d39125a	0.045183517
91	0xbd87200a	-0.06597908
92	0x3c8891ac	0.016671024
93	0x3d525d4b	0.051358502
94	0x3d14613d	0.036225546
95	0x3ce9b892	0.028530393
96	0xbca7b847	-0.020473612
97	0x3db92275	0.09039775
98	0x3dac7443	0.08420613
99	0xbd1dd02d	-0.03852861
100	0xbcd02cac	-0.025411926
101	0xbd0f21cd	-0.034944344
102	0x3ce891bd	0.028389806
103	0xbc9eec29	-0.01939972
104	0x3cf1a1b0	0.029496044
105	0x3c7a70af	0.015285655
106	0x3d1de4dd	0.03854834
107	0x3d8912c2	0.06693031
108	0x3c6ae87e	0.014337657
109	0x3d4c5d0b	0.04989342
110	0x3cbbca62	0.022923652
111	0x3d9d9000	0.076934814
112	0x3cafe479	0.021471249
113	0x3b9df142	0.00482002
114	0xbd53ad6a	-0.051679052
115	0xbc704d32	-0.014666842
116	0x3c378a4d	0.011202407
117	0x3d641ddc	0.05569254
118	0x3d8e50fb	0.069490395
119	0x3c958957	0.018253965
120	0xbccca0de	-0.024979051
121	0x3d0adb02	0.03390027
122	0x3cd96e2f	0.026541797
123	0x3d484ee9	0.04890338
124	0x3d04e951	0.03244907
125	0x3b2d27a1	0.0026421326
126	0xbd255da5	-0.04037251
127	0x3d3ef2b4	0.04661818
128	0xbc86669b	-0.016406348
129	0xbcdeeb19	-0.027211713
130	0x3c1912ef	0.009342893
131	0x3d1a517c	0.037675366
132	0x3c1d6c4d	0.00960834
133	0xbd976a02	-0.07393266
134	0xbd47b6eb	-0.04875843
135	0xbd597839	-0.05309317
136	0xbd390608	-0.045171767
137	0x3d49a49e	0.049229257
138	0x3db55ad8	0.08855218
139	0x3d1f1a44	0.03884341
140	0x3d6f1d56	0.058377586
141	0xbd23b109	-0.039963756
142	0x3d259184	0.040421978
143	0x3cb01528	0.021494463
144	0xbbf31aa9	-0.0074189496
145	0xbd722bef	-0.05912393
146	0x3ce7a42d	0.028276527
147	0xbd383e37	-0.044981208
148	0x3d1a0d2d	0.03761022
149	0x3ba4fa1f	0.0050346996
150	0x3d41578a	0.047202624
151	0x3ceb7c41	0.028745772
152	0xbd2c5a2c	-0.042078182
153	0x3cdd7c58	0.02703683
154	0x3d29798d	0.041375685
155	0x38fe703e	0.000121325706
156	0x3cd1eef0	0.02562663
157	0xbd3a9557	-0.045552578
158	0xbd3c942f	-0.046039756
159	0xbd2639ca	-0.040582456
160	0x3d63252a	0.055455364
161	0xbcd6e852	-0.026233826
162	0xbd4d7929	-0.050164375
163	0xbc4a907f	-0.012363552
164	0xbd4a8224	-0.049440518
165	0x3bebaae2	0.0071920017
166	0x3d2fa4b2	0.042881675
167	0xbd397d18	-0.045285314
168	0xbc629b80	-0.013831019
169	0x3ad2bf1a	0.0016078681
170	0x3cff3c98	0.031156823
171	0x3c1dc70b	0.009629975
172	0x3d8c77ec	0.06858811
173	0xbd36986c	-0.044578955
174	0x3bbc6dd8	0.005750399
175	0xbc874514	-0.016512431
176	0x3d43c095	0.047791082
177	0xbd37a965	-0.04483928
178	0x3c248bc6	0.01004309
179	0x3d278687	0.04089978
180	0x3cb335cb	0.021876236
181	0xbd6979fe	-0.057001106
182	0x3d2eeed3	0.04270823
183	0x3c37524f	0.0111890575
184	0x3c175643	0.009236875
185	0x3d4bc701	0.04975033
186	0x3d3d1770	0.04616493
187	0x3d940850	0.07228148
188	0xbc50a73e	-0.012735186
189	0x3d75dd9a	0.06002579
190	0xbcf56785	-0.029956589
191	0xbbdfa962	-0.006825612
192	0x3d343e2b	0.0440046
193	0xbd81c802	-0.063369766
194	0xbd3cc62c	-0.04608743
195	0x3d65d565	0.056111712
196	0xbbf1da9a	-0.0073807957
197	0xbd0d9e04	-0.034574524
198	0x3d8c3f94	0.06848064
199	0xbd7b8be4	-0.061412707
200	0xbd0ae61f	-0.033910867
201	0x3cd6d724	0.026225634
202	0x3c74a39b	0.014931585
203	0x3d6cfe6d	0.057859827
204	0x3d77e017	0.060516443
205	0x3da13fc5	0.07873491
206	0x3cbe8f7e	0.023261782
207	0x3d44c3ce	0.048038296
208	0xbd331895	-0.043724615
209	0x3bf7b9af	0.007559977
210	0x3c5e85c6	0.013581699
211	0xbd0f6814	-0.035011366
212	0xbb9c6da4	-0.0047738124
213	0x3ce1c6bd	0.027560586
214	0xbd967096	-0.07345693
215	0xbd1eabe2	-0.03873814
216	0x3d0b0c4e	0.03394728
217	0x3db3b7c0	0.08775282
218	0x3d294ab3	0.041331004
219	0x3d3fcf6c	0.046828672
220	0xbcfe1285	-0.03101469
221	0x3ce4473a	0.027865995
222	0xbd34de8a	-0.044157542
223	0x3cde6a0d	0.027150178
224	0x3c804b32	0.015660856
225	0xbae826cd	-0.0017711759
226	0xbd36bd20	-0.044613957
227	0x3cab48c6	0.020908725
228	0x3d283c99	0.041073415
229	0x3c90cbc1	0.017675282
230	0x3d4821ea	0.048860468
231	0x3da4880e	0.08033763
232	0xbd40c4c3	-0.047062647
233	0xbcf39165	-0.029732415
234	0xbd4b5252	-0.049639054
235	0x3caa627b	0.020798912
236	0xbd1e86f8	-0.038702935
237	0x3d86ff36	0.065916464
238	0x3c4f8246	0.012665337
239	0x3a877ce1	0.00103369
240	0x3ca11f0a	0.01966812
241	0xbd950bf7	-0.07277673
242	0x3d732c8e	0.059368663
243	0x3ccf00a9	0.02526887
244	0x3d2c642d	0.042087723
245	0xbc86817e	-0.016419169
246	0x3d963e19	0.07336063
247	0x3d63b2d2	0.05559046
248	0x3d784ae9	0.060618315
249	0x3c4a92cd	0.012364102
250	0x3ccb8e88	0.024848238
251	0xbb2942d2	-0.0025827182
252	0xbcdd956f	-0.027048795
253	0x3d11982a	0.035545506
254	0x3cf2e8b1	0.029651972
255	0x3c9e6e56	0.019339722

action_model._discrete_distribution.branches.1.bias f4 [2]
0	0xbc5949ec	-0.013262253
1	0x3c5949ff	0.013262271

action_model._discrete_distribution.branches.2.weight f4 [2, 256]
0	0x3d5c23af	0.053744968
1	0xbd3fd91c	-0.04683791
2	0xbd02f59a	-0.031972505
3	0x3d6070fe	0.054795258
4	0xbd0f5dba	-0.035001494
5	0xbca0b885	-0.019619236
6	0xbd6bf011	-0.057601992
7	0xbd1ceb33	-0.03831024
8	0x38da1ddd	0.000104006125
9	0xbd8e3d24	-0.069452554
10	0x3b58aec4	0.0033063153
11	0xbd3f94ba	-0.046772696
12	0x3dac0bae	0.08400665
13	0xbc4874d3	-0.012234884
14	0xbcb9ecb7	-0.022695882
15	0xbd5debd6	-0.05417999
16	0xba4cbe06	-0.0007810298
17	0x3b73eaec	0.0037218882
18	0x3cb1e748	0.021716729
19	0xbd0404f3	-0.032231282
20	0xbcfb6117	-0.030685944
21	0xbd3c872b	-0.046027344
22	0xbd40cd9a	-0.047071077
23	0xbdaf4c2c	-0.085594505
24	0x3d40bade	0.04705321
25	0x3d37b24f	0.044847783
26	0xbd20211f	-0.039094087
27	0xbcd88c03	-0.02643395
28	0xbcc2a7c4	-0.023761638
29	0x3d46c3db	0.048526626
30	0xbd039894	-0.03212793
31	0xbd9b153e	-0.07572411
32	0x3c368b98	0.01114168
33	0x3c5f7322	0.01363829
34	0xbd2cbf7e	-0.04217481
35	0x3cb9bba3	0.02267248
36	0xbd229901	-0.039696697
37	0xbc9ab013	-0.018882787
38	0xbcac1284	-0.021004923
39	0x3ce37179	0.027764069
40	0xbb82f22f	-0.0039961557
41	0x3d85783c	0.065170735
42	0x3d27a305	0.040926952
43	0xbb9ed5d5	-0.004847268
44	0xbc1e744d	-0.009671283
45	0xbd6a52ce	-0.057207875
46	0x3cc10ae4	0.023564763
47	0x3a263612	0.00063404546
48	0x3d875fb9	0.066100545
49	0x3d05ec05	0.03269579
50	0x3c8a74b3	0.01690135
51	0x3d1529ac	0.036416695
52	0xbc63358e	-0.013867749
53	0x3d1ba081	0.037994865
54	0xbc4d8ed0	-0.012546256
55	0xbcc09b6d	-0.023511613
56	0x3c8db2d3	0.017297184
57	0x3ca6d0bd	0.020363206
58	0x3b24b937	0.002513481
59	0x3ce512ca	0.02796306
60	0x3d58d0fc	0.052933678
61	0x3d45fb76	0.048335515
62	0x3cc424e6	0.023943376
63	0x3d827ec2	0.063718334
64	0x3d57d2c4	0.052691236
65	0xbd012812	-0.031532355
66	0x3b3978ac	0.0028300686
67	0xbbfe39cb	-0.0077583543
68	0x3d4a974d	0.049460698
69	0x3bb4c207	0.005516294
70	0xbca371f4	-0.019951798
71	0x3d01a0f9	0.031647656
72	0x3b25e5ca	0.0025313967
73	0xbd978bfb	-0.07399746
74	0xbd57c493	-0.052677702
75	0xbd073082	-0.033005245
76	0x3d1ed26b	0.03877489
77	0x3d16766e	0.036734037
78	0xbd967180	-0.07345867
79	0xbd8a46e4	-0.067518026
80	0x3ba8fec8	0.0051573254
81	0xbd07f9c0	-0.033197165
82	0x3d1df4c4	0.038563505
83	0xbd86abf7	-0.065757684
84	0x3d02d70c	0.031943366
85	0xbd2d4233	-0.04229946
86	0x3c70c3ad	0.01469509
87	0x3d598cce	0.053112797
88	0x3c0545f3	0.008134353
89	0xbc9649c3	-0.01834572
90	0xbd91820d	-0.07104883
91	0x3d7feb00	0.062479973
92	0xbcf9c491	-0.030489238
93	0xbd9700f9	-0.073732324
94	0xbd21931a	-0.039446928
95	0xbc4594ff	-0.012059449
96	0x3c8c00fa	0.01709031
97	0xbbef875a	-0.0073098363
98	0xbd568b81	-0.052379135
99	0x3d5566bf	0.05209994
100	0x3d75fc95	0.060055334
101	0x3b74e156	0.0037365756
102	0x3b7a6909	0.0038209578
103	0x3d692d5f	0.056928035
104	0xbbc5bfc5	-0.0060348236
105	0xbc5ac925	-0.013353621
106	0xbd513f2e	-0.051085643
107	0xbc022ce9	-0.007945278
108	0xbd164db6	-0.036695205
109	0xbd2b9e76	-0.041899167
110	0xbcf1d3bc	-0.029519908
111	0xbd27c18b	-0.04095606
112	0xbbd55459	-0.006510299
113	0x3c8591d1	0.016304882
114	0x3d83e832	0.06440772
115	0x3c28c227	0.010300196
116	0x3caa9d15	0.020826856
117	0xbd364a10	-0.044504225
118	0xbd524ebb	-0.051344614
119	0xbd36cfc1	-0.044631723
120	0x3cb9899b	0.022648623
121	0xbc80f71c	-0.015742831
122	0xbd01f585	-0.031728286
123	0xbb52f339	-0.003218843
124	0xbcce5878	-0.02518867
125	0xbb2350e3	-0.0024920038
126	0x3cd6c6bf	0.026217816
127	0xbd47db7b	-0.048793297
128	0x3d05a04f	0.032623585
129	0x3d5e8bbb	0.054332476
130	0xbca67e77	-0.020323975
131	0x3cc795b0	0.024363369
132	0xbc133ba5	-0.008986388
133	0x3d9b01fd	0.075687386
134	0x3d2ec1b0	0.042665184
135	0x3d797c44	0.060909525
136	0x3cdf3ab0	0.027249664
137	0xbd84add7	-0.0647847
138	0xbd858ad1	-0.06520618
139	0xbcdf055f	-0.02722424
140	0xbc5222c4	-0.012825672
141	0x3d656637	0.056005683
142	0xbd867614	-0.0656549
143	0x3d133590	0.035939753
144	0xbc8dba8e	-0.01730087
145	0x3d8a3281	0.06747914
146	0xbd3bb32b	-0.045825165
147	0x3d4c1416	0.049823843
148	0xbcfd5cb0	-0.030927986
149	0xbc456ce0	-0.012049884
150	0xbd1ce3b1	-0.03830308
151	0xbd448093	-0.04797418
152	0x3ca0a809	0.019611375
153	0xbd832d0e	-0.06405078
154	0xbc954e6d	-0.018225873
155	0xbcaadaba	-0.02085625
156	0xbd0217bd	-0.03176092
157	0x3d2c7fbf	0.042114016
158	0x3d5163ff	0.051120754
159	0x3d30d555	0.0431722
160	0xbd3200dd	-0.043457855
161	0x3ba01c4c	0.0048861858
162	0x3d63eefa	0.055647828
163	0xbc540b58	-0.012942158
164	0x3d3510f8	0.044205636
165	0x3c988da2	0.018622223
166	0xbd603941	-0.0547421
167	0x3d8a92ef	0.067663066
168	0xbce6b571	-0.02816269
169	0x3d5014bc	0.050801024
170	0x3d102113	0.035187792
171	0xbc9375a5	-0.018000433
172	0xbd4e0aae	-0.050303154
173	0x3d7795d1	0.06044561
174	0xbb27c44c	-0.002559918
175	0x3d866a77	0.06563275
176	0xbd82ec1c	-0.063926905
177	0x3d7c3050	0.061569512
178	0xbd1ddfae	-0.038543396
179	0xbcaf6ae6	-0.021413278
180	0x3cb5f4b3	0.022211408
181	0x3db0cd94	0.08632961
182	0xbcf225ae	-0.029558983
183	0xbccc333d	-0.024926776
184	0xbaaabc23	-0.001302604
185	0xbd344a8d	-0.04401641
186	0x3c5db618	0.013532184
187	0xbd8d9ce1	-0.06914688
188	0x3c4a7c8b	0.012358795
189	0x392ad263	0.00016290839
190	0x3cd0b59a	0.02547722
191	0x3c4c818b	0.012482057
192	0xbd4ef6be	-0.05052828
193	0x3d976647	0.07392555
194	0x3d57174c	0.052512452
195	0xbd4ecfe1	-0.050491218
196	0xbc67d95e	-0.0141509455
197	0x3d007ca9	0.031368885
198	0xbc5502f4	-0.013001192
199	0x3dab9f30	0.08379972
200	0x3cbc50e7	0.022987796
201	0xbc716bcb	-0.0147351725
202	0xbcde05a9	-0.027102308
203	0xbb256ac1	-0.0025240632
204	0xbd74abfb	-0.059734326
205	0xbd7e96a9	-0.0621554
206	0xbb5387d9	-0.0032277016
207	0xbd33af58	-0.043868393
208	0x3d5cef11	0.05393893
209	0xbb47447e	-0.0030405815
210	0xbcbcd8e6	-0.023052644
211	0x3d268b50	0.040660203
212	0x3d8b08ea	0.067888096
213	0xbc5bcf47	-0.013416118
214	0x3d8b2e9b	0.06795999
215	0x3d292eeb	0.04130451
216	0xbb8d8dee	-0.004319898
217	0xbcc0f128	-0.023552492
218	0xb9efe52a	-0.00045756373
219	0xbd6942e1	-0.056948546
220	0x3d3e18f7	0.046410527
221	0xbd2a0007	-0.041503932
222	0x3d68dd78	0.056851834
223	0xbceb6a3c	-0.02873718
224	0xbcbe6020	-0.023239195
225	0xbb2c13a4	-0.0026256824
226	0x3d905e95	0.0704929
227	0x3d310fea	0.043228067
228	0xbd384974	-0.044991925
229	0x3d1856d5	0.037192184
230	0x393c1219	0.00017935819
231	0x3aedbfab	0.0018138787
232	0x3d099095	0.03358515
233	0x3cad0f00	0.021125317
234	0x3d6dd6ed	0.058066297
235	0x3bede55a	0.007260007
236	0x3d37ad4d	0.044843007
237	0xbcae9f62	-0.021316234
238	0xbd038870	-0.03211254
239	0x3d223d18	0.039609045
240	0xbc9d462f	-0.019198505
241	0x3d4c9635	0.049947936
242	0xbd44f144	-0.04808165
243	0x3c6ae167	0.014335967
244	0xbd787e1b	-0.06066714
245	0xbbd23d47	-0.0064159962
246	0xbd78194e	-0.060571007
247	0xbd5d0cd2	-0.053967305
248	0x3cab3f36	0.020904165
249	0xbd0b4089	-0.033997092
250	0xbcd25237	-0.025673969
251	0x3af738df	0.0018861553
252	0x3cdd476a	0.027011592
253	0xbcda4df6	-0.026648503
254	0xbd2108d4	-0.03931506
255	0xbcfeb3d6	-0.031091612

action_model._discrete_distribution.branches.2.bias f4 [2]
0	0x3c5f63dc	0.013634648
1	0xbc5f63c2	-0.013634624
