Assets/results/0719day2/TrafficLightBrain/TrafficLightBrain-357568.onnx (onnx, 386520 bytes, 13 tensors)

discrete_act_size_vector f4 [1, 4]
00000000: 0000 0040 0000 0040 0000 0040 0000 0040
2.0 2.0 2.0 2.0

network_body._body_endoder.seq_layers.0.weight f4 [256, 100]
00000000: c77b 053d 056b 1c3e 50c1 3bbe 49a9 c93d
00000010: c4a4 e1bd c63f 94bd 6d51 563b 96fa 2ebe
00000020: 4211 19bd d41a 12bd c508 9dbd 28c3 813d
00000030: daad 4fbd 92aa ea3d c5eb cdbb 8627 4a3e
00000040: 6210 fa3d b12e 44be e2bb 013e 55af ed3d
00000050: a2a1 623c 02d1 8ebd ca0d 8a3d 47ed f73d
00000060: 2bc5 473c d56f 74bd 6770 babc b681 82bd
00000070: 4151 413d 67b7 d43c dbcc debd 5246 44bd
00000080: aa43 853d 1b0f 1bbe 9780 ff3d e7d9 133b
00000090: fd43 4d3e 4db1 f7bd 4be6 cebd feaf 8f3b
000000a0: 887a 21be 3599 2fbb 685c 5d3c 8374 0b3d
000000b0: 76f0 c4bc 06e3 263e af3d bb3d a0fc febb
000000c0: ef3f ce3d 2b4d 90bd b5f2 973d 8b4c 8c3c
000000d0: aad6 32bd 6b0d dd3d e6d6 823d a713 b33d
000000e0: 1b6f 69be 7fa5 a9bc 8821 0a3d 97bd cb3d
000000f0: 7c1f 21bd dd28 dfbd 4bbd fb3d 6022 f23b
00000100: f982 ac3c 6b12 8b3b 1422 c8bb edb0 6c3d
00000110: 9c66 c53c ee9e 813d c12d 4a3e 197a 92bd
00000120: ca32 793c 0e86 36be 32cd 81bc 0320 4b3e
00000130: e03a e33b caa7 f43d ffcb a23b a760 2ebe
00000140: f5ed e43c 3aa2 fe3c ebcf 8a3c a562 71bc
00000150: c3b4 82bc a266 833d 4319 603d ff23 a53d
00000160: 9d1c 803d f1de 21bb 2a1c 78be 1d65 d03d
00000170: af8c 15be 1ad3 3fbe bd9e cdbb 239d 3a3e
00000180: fb04 44bd d353 60bd 3e7b 1fbe 8d7c 4dbd
00000190: cd05 6e3d cf08 33bd 87a3 283e bc41 cb3d
000001a0: 3f39 50bd 8be8 cf3c 8890 cbbd 1d9c e13d
000001b0: 75a0 273d 3d08 423e 6a18 1fbd 1ac0 b93c
000001c0: 5a16 bcbc bb2c bdbd a4f0 b53d 363e 96bd
000001d0: 4bbd 7b3e 38f9 b5bd b301 1dbd 6b35 623d
000001e0: 3bd9 813d 7794 b63b 5bac bcbd 7fb7 2e3e
000001f0: 5ff7 153e b322 093e e8c1 013d 265b 8bbd
00000200: 2dc4 543d e10c 9bbc de5b a33d 68ba 5d3d
00000210: 8318 75bd 89ba a43b cabd 52bb e1b3 10be
00000220: b52e 273d 60c5 87bd bb54 06be af84 efbc
00000230: eff7 7ebc 954e 03be 7881 333d d23b 3abb
00000240: 5a01 263d 813b c83d b643 0bbd 4190 2a3e
00000250: 801d 79be 4ddf 87bc 4f26 9d3d fa00 bdbd
00000260: f214 1c3e d8cf 19be bfbb dcbd 997c 003e
00000270: 0874 5f3d e321 63be 9db3 a73d 084b fe3c
00000280: 0a72 71bd cb03 65bd 333b 183d 5f76 2abd
00000290: afbb 07bd 92bb e83d 4562 12bc d18a 243d
000002a0: 5f6f 97be a184 323e 0932 133d 3b74 2abe
000002b0: c727 7e3d 9f5c 1a3e 9d70 cc3d 5187 463e
000002c0: bdf6 eabc 7220 543e 740b af3d eb3b ef3d
000002d0: 0d53 793c c35c 81bc a789 f1bd 23ad 01bc
000002e0: 0ec0 a5bc 4401 ba3c 2a35 303d e22a 9dbc
000002f0: 4d6b c83b 51c0 043d 27bd f43d bf0e 68be
00000300: 9183 443d ad20 dabc 94f8 b3bd f833 debd
00000310: ac2c 90bd 974a 063e 6445 923d bf47 4abd
00000320: f566 973d bd70 083e 0105 903e fa4c 733d
00000330: 7172 eabd 00c9 bbbd b0ea 133e 7d44 c33c
00000340: 15b8 393e c200 de3d 29f2 a63d d595 93bd
00000350: a5cc 33bd 6ce4 47be 9015 043e 77fe 42be
00000360: bad9 4b3d 8b5a a13d d296 573e 2547 f1bc
00000370: f34c 11bd fa2a dc3c 769a 0e3e 448f 8abd
00000380: 9471 40be 5fd1 e53c 055c 30bc 07f0 b83d
00000390: 4da7 76bd e218 ca3d a699 a53d 4cb3 943d
000003a0: bc56 05bd b58c a0bd 5d75 5dbe 7f03 e33d
000003b0: c7f5 df3c eb3b d8bc 94db a33c 8b73 afbd
000003c0: e058 d93b 1c24 8abd c51d eb3d 8547 67bd
000003d0: 9cd9 83be 9687 24be 59e9 863c 8f8f f9ba
000003e0: 7122 41bd bae5 e63d 324d 18be 557c cabd
000003f0: 78e3 0bbe 31c5 133e 0daa f83d 4b92 d1bd
0.032588746 0.152752 -0.18335462 0.09846742 -0.11017755 -0.07238726 0.0032702342 -0.17087778
-0.037369974 -0.035670117 -0.07667688 0.06336051 -0.050702907 0.11458315 -0.0062842094 0.1974164
0.12210156 -0.19158436 0.12669328 0.116057076 0.013832482 -0.06973459 0.06740911 0.12105804
0.012193005 -0.059676964 -0.022758676 -0.06372397 0.04719663 0.02596636 -0.10878917 -0.047918625
0.065070465 -0.15142481 0.124756984 0.00225603 0.20045467 -0.12094364 -0.10102519 0.0043849936
-0.15769398 -0.00267942 0.013510801 0.03404666 -0.024040442 0.1629754 0.091426246 -0.00778158
0.10070788 -0.070459686 0.074193396 0.017126342 -0.04366175 0.10793575 0.06388645 0.08743983
-0.2279629 -0.020708797 0.033723384 0.09948271 -0.039336666 -0.10896466 0.12291964 0.0073893517
0.021058546 0.004244139 -0.006107578 0.057785917 0.02409678 0.063291416 0.19744016 -0.071521945
0.015209863 -0.17824575 -0.015844915 0.1983643 0.0069345087 0.11946066 0.004968166 -0.17029057
0.027945498 0.031083215 0.016944846 -0.014732991 -0.015955335 0.0641606 0.05471159 0.08063506
0.062554576 -0.0024699534 -0.24229494 0.10175536 -0.14604448 -0.18732873 -0.0062750266 0.18224005
-0.047856312 -0.05476744 -0.15574357 -0.05016761 0.058111 -0.043709572 0.1646863 0.09924647
-0.050835844 0.02537944 -0.099396765 0.11016104 0.040924508 0.18948455 -0.038841642 0.022674609
-0.022959877 -0.09237047 0.08883789 -0.073360845 0.24583928 -0.08885425 -0.0383317 0.055226725
0.063402615 0.0055718976 -0.09212562 0.17062186 0.14645146 0.13392143 0.031679064 -0.068044946
0.0519449 -0.01892704 0.07976507 0.05413285 -0.05983783 0.0050271195 -0.003215658 -0.14131118
0.040816028 -0.06629443 -0.1311826 -0.029238073 -0.015562042 -0.12822945 0.043824643 -0.0028417003
0.040528633 0.097769745 -0.03400012 0.16656591 -0.2432766 -0.01658597 0.076733224 -0.09228702
0.15242365 -0.15020692 -0.10777997 0.1254753 0.054554015 -0.22180896 0.081885554 0.031041637
-0.058946647 -0.05591182 0.03716583 -0.041616794 -0.033137973 0.11363901 -0.008934562 0.04017145
-0.29577157 0.17433406 0.03593639 -0.16645901 0.062049653 0.15074395 0.09982417 0.19387557
-0.028682107 0.20715502 0.085471064 0.1168135 0.015217555 -0.015791303 -0.11793833 -0.007914814
-0.02023318 0.022705682 0.04301945 -0.019185487 0.006116307 0.03240997 0.119501404 -0.22661875
0.047977034 -0.02662691 -0.08787647 -0.10849756 -0.070397705 0.13114391 0.071421415 -0.04938483
0.07392684 0.13324256 0.28128818 0.059399582 -0.11447609 -0.09169197 0.14444995 0.023836369
0.18136628 0.10839988 0.08151657 -0.072063126 -0.043896336 -0.1952073 0.1289885 -0.19042383
0.049768187 0.07878598 0.21053627 -0.02945287 -0.035473775 0.026875962 0.1392611 -0.06765607
-0.18793327 0.028053937 -0.010764127 0.090301566 -0.060218144 0.09868027 0.08085947 0.07260761
-0.03255342 -0.07839338 -0.21626802 0.11084651 0.027338875 -0.026395759 0.020002164 -0.0856696
0.006632909 -0.067451686 0.114802875 -0.05646469 -0.2575196 -0.16067347 0.01646869 -0.0019039976
-0.047151987 0.112742856 -0.14873198 -0.09886996 -0.13660991 0.14430691 0.121418096 -0.10232981

network_body._body_endoder.seq_layers.0.bias f4 [256]
00000000: 6785 2fbc 8b7a 7c3b 2a07 123d 9271 1dbd
00000010: d932 0f3d d941 f9bd c071 493d 5554 fa3c
00000020: 6814 18be 8870 183d 4773 17bb f234 63bc
00000030: 1658 e9bc c9e9 27bc 5e08 a7b8 773d 14be
00000040: 8c30 9cba cffa c9bd b1ed 0c3c 0728 5bbd
00000050: 7b9e 883d 62cd 063a 60db 25bd 749e 91ba
00000060: a53f 80bc 8d66 95bd 15a2 1cbc 38c8 c63c
00000070: e248 5e3c 0241 d33c 73d2 03be 3739 66bd
00000080: a613 92bb e4a8 813c dc63 323d 1500 05be
00000090: f22a 08be 839d 5abd 30d9 d5bb f143 553c
000000a0: 75df 0dbe 6c77 8e3d a4d8 b93c f9f9 82bc
000000b0: 067c 223d 02d2 0f3d 49fe d83c d967 673d
000000c0: ac36 5ebc 3749 063c d1ca 3d3d b9e9 023d
000000d0: e22e 3f3d e16e 42bd 1e54 5a3c d3ff 04bd
000000e0: 86c5 3f3c ad9c 163d cbd9 07bb 9426 2dbd
000000f0: 5d08 123c 300d cabc 3046 283d 50b0 17b9
00000100: 6430 95bc 3007 753c 1a11 2dbd 75a6 01bd
00000110: 7f3f 403d 9d50 0d3c fd72 2bbe 60db 21bd
00000120: 21c0 983c 9e8f 0bbe fb50 cd3b 273a e63c
00000130: 4da8 7ebd 9dc7 9dbd 31f6 0dbe 8e97 423d
00000140: de4d 1abe cd98 25bd 2210 d53d 7ea1 9a3c
00000150: 351c de3c ea20 b9bc 22dd 96bb ad93 45bc
00000160: 1c25 893c 2cbe 4c3c c1d4 cebd 917d 15be
00000170: 5543 693d 3df6 83bd 2959 3b3d b52d 8a3c
00000180: b85f 0ebd f885 cbbd 4c12 28be 16e4 59bd
00000190: 47cb 933c 4189 c7bd 09c9 723c 3d1b 263c
000001a0: f301 4f3c d5bf 09bc 0136 eabd 4c3a 073d
000001b0: 81e0 db3c 07be f1bc c970 b9bb dfba 09be
000001c0: d197 1c3d eccd 3fbd ab4a 8c3d b752 683d
000001d0: 89cf 4b3d 6c34 b33c 3345 f33c ab26 e4bc
000001e0: 971d 873d 6509 24bd 1883 a73c 256e 393d
000001f0: 7147 a4bc 6b6c e3bd 2a51 6f3c 06d0 9ebd
00000200: 1675 003d 1cbc 0cbd d8c3 423d b95b 2ebd
00000210: f4dc cabc a794 04bd 9268 7d3d c08f 243b
00000220: caf4 73bd 0447 0bbc 635f e1bc 51bd 46bd
00000230: 9a0e 6e3c f229 4abd 4f82 173d 34f6 41bd
00000240: 3005 82bd 6e97 b4bc 52a6 033c 863e aab9
00000250: 8324 12bc a44b 933d a882 a0bb b40f 213a
00000260: 8601 92bc 1e3a 033d e6c9 103c fe4c a4bd
00000270: cac6 963b c0ad 57bd fbf5 363c a141 37bd
00000280: 6c3a 223c e4d5 2abd a521 523c df70 f6ba
00000290: 8cfb fe3c 3353 f6bb f6c2 6ebc 0910 d0bc
000002a0: 6f5e 7f3d a845 133d dbca 21be 7a5c 4d3d
000002b0: 83f8 273a c22d 703d 3d0a a03c 8702 1bbc
000002c0: d714 d0bd 921b 73bc 8db2 bdbc 9623 473d
000002d0: bb2d d83c e87b 47bc 174c d33c d19b eab8
000002e0: 5d20 9dbb 462e debb b35e de3c bb95 a63b
000002f0: 98e9 72bc 02a7 8ebc 613e c3bc 52c0 74bc
00000300: c7b3 90bd c872 13bc 3f4e 353d f41a 55bc
00000310: d020 edbb 1afd 3e3d 6db9 573c af20 75bd
00000320: 141b 11be ffba e53c 7b74 b2b9 c69b 0dbc
00000330: 4f57 cbbd 9501 82bd 1adc 8e3c e226 10bd
00000340: 8298 bdbc 2d07 9a3b 1103 943c 5186 363c
00000350: 21f5 4ebd 66fa 443d 63e5 1cbe 9d55 2dbe
00000360: 9db2 01be 04af b63a 79b0 babd 7c97 03bd
00000370: efd1 ebbd 0bfd f1bc 829a 7fbc 236b 90bc
00000380: a40e a8bd d141 c8bb 7176 0a3d 97c7 99ba
00000390: e659 59bd 5ab0 26be b74b b3bd 4a39 78bd
000003a0: af4f 463c a8d3 2abc ebe1 283c b19e 29bd
000003b0: 65ac 8a3d 98cd dbbc 4255 80bb 563d 19bd
000003c0: 6e68 083d 472c 4f3d 99f3 0dbe a919 17bc
000003d0: 99f2 36be e9df 023c 2e0e 24bb 6dbc 71bd
000003e0: d3d0 ddbc a3f8 763d 631e 273c 5589 d8bd
000003f0: 7898 483b a352 a13b 8c66 403d 6a4e 11be
-0.010712958 0.003852519 0.035651363 -0.038438387 0.0349606 -0.121707626 0.049180746 0.03055779
-0.14851534 0.037216693 -0.0023109482 -0.013867604 -0.028484385 -0.01024861 -7.964739e-05 -0.14476572
-0.0011916324 -0.09862291 0.008601592 -0.05350497 0.06670853 0.0005142299 -0.040492415 -0.0011109845
-0.015655348 -0.07294951 -0.009560128 0.024265394 0.013567181 0.025787834 -0.12873249 -0.056206908
-0.0044579087 0.015827604 0.043552265 -0.12988313 -0.13297632 -0.05337287 -0.006526135 0.013016687
-0.13854773 0.06956372 0.02268631 -0.015988337 0.03966906 0.03511239 0.02648844 0.05649552
-0.0135628395 0.008196167 0.046336 0.031961177 0.04667557 -0.047469024 0.013325719 -0.032470535
0.011704808 0.03677051 -0.002072918 -0.04227312 0.008913127 -0.024664491 0.04108256 -0.00014466164
-0.018211551 0.014955327 -0.042252637 -0.031652886 0.046935555 0.008625177 -0.16743083 -0.039515853
0.018646302 -0.13629004 0.006265757 0.028103901 -0.062172223 -0.07704089 -0.13863446 0.047507815
-0.15068766 -0.040428925 0.10403468 0.018875834 0.02711306 -0.022598702 -0.004603998 -0.012059134
0.016741328 0.012496512 -0.10099173 -0.14598681 0.05694898 -0.064434506 0.045739327 0.016867498
-0.034759253 -0.09937662 -0.1641323 -0.053196035 0.018041266 -0.09742976 0.014818438 0.01013833
0.012634742 -0.008407553 -0.11436082 0.03301458 0.02684045 -0.029509557 -0.005659197 -0.13450192
0.03823072 -0.04682724 0.06850179 0.056719508 0.049758468 0.021875583 0.029696083 -0.02785047
0.06597441 -0.04004802 0.020448253 0.045271058 -0.020053597 -0.111046635 0.014606753 -0.07754521
0.03136166 -0.034359083 0.047550052 -0.042567942 -0.024763562 -0.03236833 0.061867304 0.0025110096
-0.05955962 -0.008500818 -0.027511304 -0.04852039 0.0145298485 -0.04935641 0.036989506 -0.04735394
-0.06348646 -0.022044864 0.008035259 -0.0003247151 -0.008919838 0.07192162 -0.004898388 0.00061440025
-0.017822992 0.032037847 0.008837199 -0.080224976 0.004601334 -0.052655935 0.011167045 -0.044740323
0.009901624 -0.04170789 0.012825404 -0.0018801949 0.031125806 -0.0075172423 -0.0145728495 -0.025398271
0.06234592 0.0359551 -0.1580004 0.05013702 0.00064075756 0.058637388 0.019536132 -0.009461052
-0.10160225 -0.014838116 -0.023156429 0.04861792 0.026388993 -0.012175538 0.025793118 -0.000111870126
-0.004795118 -0.0067804186 0.027144765 0.005083767 -0.014826201 -0.01741362 -0.023833456 -0.014938431
-0.0706554 -0.008999534 0.044264074 -0.013006914 -0.0072365776 0.046628095 0.013166768 -0.059845623
-0.14170486 0.028043268 -0.0003403759 -0.008643096 -0.09928762 -0.06347958 0.017438937 -0.03519333
-0.02314401 0.0047005625 0.018067868 0.011140422 -0.050526742 0.04809036 -0.15321879 -0.1692719
-0.12665792 0.0013937657 -0.09115691 -0.03212689 -0.11514651 -0.029539606 -0.015600802 -0.017629212
-0.082059175 -0.0061113616 0.03380436 -0.0011732456 -0.05306425 -0.1627821 -0.08754676 -0.06060151
0.012103959 -0.010426439 0.010307769 -0.041411106 0.06771163 -0.026831433 -0.0039164135 -0.03741201
0.033302717 0.050579336 -0.13862456 -0.009222426 -0.17865981 0.007987955 -0.0025032866 -0.059017587
-0.027077114 0.060295712 0.010200116 -0.10573069 0.0030608457 0.004923181 0.046972796 -0.14190069

network_body._body_endoder.seq_layers.2.weight f4 [256, 256]
00000000: a7ca ef3c 67b5 46bd c991 83bd 6702 80bc
00000010: 4bfe 5b3d 2840 62bd 8875 ecbd b42e a03d
00000020: ea6e 25bd abbb b33c cb3f 1abd b2b7 92bb
00000030: dd59 9fbb a058 55bd 7b3a d63d 118f b4bd
00000040: 8975 d9bd b428 e3bd 4269 9dbb 030c 8abc
00000050: a3cc f23d 47e1 c9bd eb78 123d 698a 8b39
00000060: c351 f3bb 8855 18be c99a 37bc a021 4d3a
00000070: 5b8a 66bd eda4 b5bd 8f91 97bd 6af1 6dbd
00000080: 3411 4abe 8dc2 433d efaa ebbd af3f 343c
00000090: d46b fabd 2954 1dbc 57ff 343d cb55 453d
000000a0: 57bf c1bd 6559 cd3d fb37 9abc 1955 ac3d
000000b0: 9f3d d73d df75 0b3e 5528 893d 361a 953e
000000c0: a4b4 d03c 35ce 143e 23b5 bfbd 9b12 eebc
000000d0: 8b2e 01bc 4360 bd3c c1ac 173e 8d57 193d
000000e0: 9c7d bc3d 6086 143d 505b ba3d 64e4 4f3b
000000f0: a6e4 75bc caff 4abc 0eb2 85bd d844 1fbe
00000100: 307d 913b 9d38 8abc a393 86bd fcb8 05bd
00000110: 5081 bf3c 11bc 3fbd 57dc 693d e1fe ad3d
00000120: 362f c53d 5883 a9bd bb06 5fbd b248 9ebd
00000130: c5d9 4ebd 488a 1fbe 7ca1 d1bc 577f 80bd
00000140: d407 a1bd 0223 733d 94c6 923e 4cfd d93b
00000150: 268a 433d e4b5 96bd 85b4 abbc b645 05bd
00000160: b734 dabb 02d5 b83d 2836 90bc d3b6 bebd
00000170: 50a6 233c 3bf0 98bd b634 25be ff63 d0bd
00000180: 5f93 e23c 1d3e 373d b6fa e1bc c52e f7bd
00000190: 7f8f 0b3e 7fdd d2bd d6fd f53c 5b26 bd3b
000001a0: eab9 903d c086 0fbe 5384 10be 86d6 703d
000001b0: 61af 1cbe 4801 093e 76ad 4f3d a09a fcbd
000001c0: 879d ed3b cbb0 953c 9345 77be ffab 6c3e
000001d0: 8447 a33d 16e2 193d cc89 6dbd 0325 97bd
000001e0: 3ef2 5b3e 2574 4abd 8829 343d dab5 92bd
000001f0: 5654 a33d 519e b6bd 6b10 55bd d110 4c3b
00000200: 2159 f3bd 56b7 523d 3fbe 17be 8ce9 40bd
00000210: edf5 b2bb 97ae 873c da85 233e ea8f d1bd
00000220: e974 f23c 706e 23bd 909d a7bd fd8b bc3d
00000230: dad0 223e 1de8 b9bc 7c50 82bc d705 90bd
00000240: c74c 043e 078c 173d 7eaf 823d 9d0d 1b3d
00000250: 13ec 023e b755 4bbd b679 bd3d f413 9bbc
00000260: d580 debd 669d 163e 1c08 88bd 6c72 143d
00000270: 1733 70bc ebdf 5f3d 9a69 973d f8fa 8ebd
00000280: 8219 f63c d7bd 87bd a2eb 1fb9 5920 abbd
00000290: 2027 d53c 9a1d afbc 2859 61bd 7f93 12bd
000002a0: db37 08be 099f 9a3d 97f8 2fbd f2e4 f5bd
000002b0: 3b3c 8fb9 bc72 d9bd 8a2d a9bd 6439 813d
000002c0: 9269 44bd c822 d2bd f36e 0fbd 6114 a7bc
000002d0: b819 01be 988d 24bd e917 c8ba ad43 433d
000002e0: 8a8d febd 1a80 1b3d 1037 6cbd 1b03 f73c
000002f0: 20f9 2e3d 0cfa 0b3d 32c9 8dbc d0fc b7bc
00000300: 8320 09bc 28bd 663d 9ca7 8ebd 06fe eebd
00000310: 147a 503d bbe8 11bd 6134 b0bb b0ff 943d
00000320: 37a8 6a3b 6bb8 eb3d 5721 f43c 1343 50bd
00000330: 27f8 043d 7bf5 ccbd 6933 35ba 0b00 56bc
00000340: 7b01 cd3c 7077 a3bd 17f1 32bd aa1a a1bc
00000350: 367c b9bd 26ce 133d 5dc3 4f3d d150 953c
00000360: decc 33bb e9e6 f13d 7b76 f9bc 9457 a0bd
00000370: ee8b 52bd dff9 a4bd 24de 22be 5809 febd
00000380: 9fc3 463c f30c 82bc a0f8 063d f9fe 7a3b
00000390: 87ff b9bb 6094 92bd 7e19 f73b 70ef 1a3c
000003a0: 1618 293c a728 98bc 3ded acbc 251d fdbc
000003b0: 910b 4c3d e456 85bd 72f3 da3d 3061 3dbb
000003c0: 9f06 01be bdff 0b3e b0a7 853c 17ec 963d
000003d0: 1b80 16be 1fef 85bc e591 bb3c 88a4 9dbc
000003e0: 6eac 953c 09eb adbd a2ad abbd 739c f4bc
000003f0: 3627 e63c 293e 14bc 05c2 3a3e 5c4a c33d
0.029271437 -0.048512843 -0.06424291 -0.015626146 0.05370931 -0.055236965 -0.11545855 0.07821408
-0.04038898 0.021940073 -0.037658494 -0.0044774646 -0.0048630075 -0.052086473 0.10460373 -0.0881635
-0.10618121 -0.11091748 -0.0048038075 -0.01685143 0.118554376 -0.09857421 0.035759848 0.0002661527
-0.0074255182 -0.14876378 -0.011206337 0.000782514 -0.05628429 -0.08869348 -0.0740081 -0.05809156
-0.19733125 0.04779296 -0.11507212 0.0110015115 -0.12227598 -0.009602585 0.044188824 0.04817752
-0.09460323 0.10026816 -0.018825522 0.084146686 0.105098 0.13619183 0.06697146 0.2912156
0.025476761 0.14531787 -0.09360721 -0.029061606 -0.007884632 0.02311719 0.14811994 0.03743701
0.092036456 0.036260962 0.09099448 0.0031721825 -0.015008127 -0.012390086 -0.06528102 -0.15553606
0.0044399723 -0.016872698 -0.06571128 -0.032647118 0.02337709 -0.046810213 0.057094898 0.0849588
0.096281454 -0.08277005 -0.054449778 -0.07728709 -0.05050065 -0.15580094 -0.025589697 -0.06274288
-0.07862821 0.059359558 0.28667128 0.00665251 0.04773917 -0.07358912 -0.020960102 -0.032537185
-0.006659116 0.09025003 -0.017603949 -0.09312215 0.009988382 -0.07467695 -0.16133389 -0.10175323
0.027658163 0.04473697 -0.027585369 -0.120694675 0.13628958 -0.10296153 0.030028265 0.0057723946
0.0706671 -0.14016247 -0.14112978 0.058798335 -0.15301277 0.13379395 0.050702535 -0.1233418
0.0072514447 0.018272778 -0.24147634 0.23112486 0.07972625 0.037569128 -0.05799274 -0.07380106
0.21479127 -0.04942717 0.04398492 -0.07163592 0.0797507 -0.08916915 -0.05201761 0.0031137953
-0.11882234 0.051444374 -0.14818667 -0.047097728 -0.0054614455 0.016562743 0.15969029 -0.102325276
0.029596763 -0.039900243 -0.081843495 0.09206388 0.15899983 -0.022693688 -0.015907519 -0.07032364
0.12919913 0.036998775 0.06381129 0.03785478 0.12785368 -0.04964229 0.0925173 -0.018930413
-0.108644165 0.1470848 -0.06642172 0.036241934 -0.014660618 0.054656904 0.07393189 -0.06981462
0.03004146 -0.06628006 -0.00015251202 -0.08355779 0.026019633 -0.02137642 -0.055016667 -0.035785194
-0.13302557 0.07549865 -0.042961683 -0.120065585 -0.0002731996 -0.10617587 -0.08260639 0.063097745
-0.047952242 -0.1026054 -0.03501792 -0.02039546 -0.12607467 -0.040174097 -0.0015265915 0.047671963
-0.1242934 0.037963964 -0.0576697 0.030152848 0.042718053 0.03417401 -0.017307851 -0.022459418
-0.008369568 0.056332737 -0.06965563 -0.11669545 0.050897673 -0.03562234 -0.005377338 0.07275331
0.003580583 0.11509784 0.029801054 -0.050845217 0.03246322 -0.10007759 -0.0006912263 -0.013061534
0.02502512 -0.07981765 -0.043686952 -0.019666035 -0.090568945 0.03608527 0.050723422 0.018227013
-0.0027435343 0.11811621 -0.030452004 -0.07829204 -0.05140298 -0.08055472 -0.15905052 -0.12404126
0.012131601 -0.015875315 0.03295195 0.0038298948 -0.005676213 -0.071572065 0.0075408807 0.0094565
0.010320684 -0.018574072 -0.021109218 -0.030897686 0.049815718 -0.06510714 0.10690965 -0.002889704
-0.12600182 0.13671775 0.016315311 0.07369249 -0.14697306 -0.016349373 0.022896716 -0.019243494
0.018270697 -0.08492095 -0.08382727 -0.029859757 0.02809487 -0.009048023 0.18238075 0.09535667

network_body._body_endoder.seq_layers.2.bias f4 [256]
00000000: 2d88 223d 74ea 1fbc 3071 2d3c 4330 293d
00000010: 05c6 11bd fb4d 23bd c8c7 cd3b daec 13bd
00000020: 5e0d e33c 154e b33c 2d4f f03c 8f4b f43c
00000030: 137b 563d 141e 483d 7236 5fbc 3b9e 2a3d
00000040: e318 643d 8e10 ae3c 4d77 d93c dc8e c83c
00000050: b0ba 81bc 4ec7 193d 6bd4 8f3a 19f9 c13c
00000060: c628 213d 7ad4 cd3c 9c5e 77ba 1e54 03bd
00000070: 764a 303c 0320 533d b931 4c3d 2600 743c
00000080: 8dfe 463d a283 663d bf79 9a3c 4b10 003c
00000090: 9a05 5c3d e1c9 ca3c 0fbf 033d 982c ba3c
000000a0: 86d9 6e3c fb00 173d ca8e 293d 7873 f23c
000000b0: 3338 d1ba 5cdb 163d 39f2 413d 2814 bc3b
000000c0: 88b4 553d cac5 8e3d 8fdd 5c3c 99db bf3c
000000d0: b184 06bd 5f4a 833c 09bf 03bd 8c9c 303c
000000e0: dd0f 443d cca6 ea3c 17fd 34bc 7b19 4e3d
000000f0: bb64 353d 65ec f43c eff1 383c ce31 6f3d
00000100: 76d1 143d ac5a 9d3c 536c acba 18ce 693b
00000110: 1463 383d c028 cc3c b2d5 723c 6c86 3f3d
00000120: f87c 303d 407c 3e3d e5ed c33c cee4 0f3d
00000130: 83a6 9f3c 20d4 163d e1b0 e03c 40a8 cf3c
00000140: a1a0 553c 56e4 273d e1db 093d 524e 573b
00000150: c3cd 8a3b cef6 783c c481 163c aa38 083d
00000160: 84ab 623d 0412 003b 6ef9 533c 9290 293d
00000170: 45b2 05bb c657 ab3c b265 b83c ff08 8d3c
00000180: 513c a33b e2ba 713d ff8d 4e3d d23c 393d
00000190: 6032 213d f18a 17bc f6a6 0d3d 7a0f 413d
000001a0: b4d1 333d 60a9 603c 783d 793c a625 493d
000001b0: e7fd 52bc d42c df3b c7dc 343c f2b8 333d
000001c0: f4ad 6c3d 7024 653d 0e1e 013d 4fc7 0c3d
000001d0: 2c6e 043d af56 4c3b 7e04 663d b66e 213c
000001e0: 1841 013d 1011 df3c 9ed4 343b 0235 373d
000001f0: 655c 263b 637f d93c f85b 0a3c 64b6 ccbb
00000200: 4523 243c 6dc7 413d 4a5c 6bbb aa9d 633d
00000210: 3b68 32bc 86c9 553d d57a a43c f87c 2e3d
00000220: e119 a73c 9b97 213d 3545 063d b488 cc3c
00000230: 5543 483d 1c72 353d 1705 e03a 1f92 473c
00000240: a979 0abd 5729 3f3d cdf0 07bc 4a36 df3c
00000250: d113 043d d28e efbc ce28 0a3d 6e4c b7bb
00000260: e071 023c 4327 573c bc23 dbbb 2bc4 85bc
00000270: 1465 e4bb 606d 293d 8fa6 7a3d 3380 3c3d
00000280: 399b 923c da41 483c 4436 093d ce95 35bd
00000290: 0801 3e3d 9566 9a3c 80a3 8c39 3c57 693d
000002a0: 677b bcbc 3ceb 753d b2b0 2f3d 7ed2 6fbb
000002b0: fbab 043d 526e 543d 8a2b 983b cf89 323d
000002c0: 3fcd d73c 333f 113d 4b4b 973c 4d11 1e3c
000002d0: 4577 043d b23d 513d 5b10 f43c 9841 1aba
000002e0: f894 0fbc 07da f73b 9568 473d c34b 213d
000002f0: fe92 813c 59da 2f3d 7762 db3b 84eb 473c
00000300: ad24 5c3d 304e 7e3d a801 593d f24f 943c
00000310: 7561 1dbd c0c6 7c3c ce4c 073d d84e 693d
00000320: 95cb ab3c 4193 d03c 3013 6bbc b016 1f3d
00000330: 0632 063d 1fbd 0d3d 643f 153d 0d9d e23b
00000340: 1d9f 413d f0c5 0b3d 8c03 babb 3fda 463d
00000350: 65dd 8a3d ee02 2e3d 367f 4c3d 9497 4c3d
00000360: e5bc 093d f50e 8a3d 839a 373d 447d b53c
00000370: d678 503d b331 0a3d 4d80 363d da26 a63c
00000380: 33f1 4dbb fb97 ff3a 0bb0 1c3d 5b10 733d
00000390: 0dfe 343c 18b6 663d d916 ec3c 6bc0 483d
000003a0: 19eb b03c e079 b23c 5971 023d 6220 253d
000003b0: 6214 033d a71e 233d a78c 04bd dd51 2b3d
000003c0: c9ff a83c 1108 433d 4985 c63c 3721 293d
000003d0: 0258 90ba ac46 473c c219 e53b 374d 873b
000003e0: a706 4e3d c78e 20bc 689e ec3c fec0 dc3b
000003f0: 4836 b83c b150 1e3d 2a79 233c e6b2 c5bb
0.03968065 -0.009760488 0.010586068 0.04130579 -0.035589237 -0.03986929 0.0062799193 -0.03611455
0.027716335 0.021887818 0.029334629 0.029821185 0.052363466 0.04885681 -0.013623821 0.041654807
0.055687796 0.021248128 0.026546145 0.024482183 -0.01583609 0.037543587 0.001097334 0.02367835
0.039345525 0.02512573 -0.00094364 -0.032062642 0.01075994 0.0515442 0.049852107 0.0148926135
0.048582602 0.05627788 0.018856881 0.007816385 0.05371628 0.024754466 0.03216463 0.022726342
0.014578229 0.03686617 0.04139594 0.029596075 -0.0015962183 0.03683029 0.047350142 0.0057397075
0.05217412 0.06971319 0.013480558 0.023420142 -0.032841388 0.016026674 -0.032164607 0.010779511
0.04786669 0.028643988 -0.011046669 0.05031727 0.044285517 0.029897878 0.01128815 0.058397107
0.03633257 0.019208275 -0.0013154842 0.003567582 0.045016363 0.024921775 0.014821457 0.046759054
0.04308793 0.046505213 0.023917148 0.035130315 0.019488579 0.036823392 0.027428092 0.025348783
0.013038785 0.040989242 0.03365696 0.003285308 0.0042359545 0.015195562 0.009186212 0.033257164
0.05533935 0.0019541988 0.012937887 0.04139764 -0.0020400446 0.020915877 0.02250943 0.017216204
0.0049815555 0.059016116 0.050428387 0.04522402 0.039354682 -0.009249435 0.034583054 0.0471339
0.04390116 0.013712257 0.015212409 0.04910817 -0.012877918 0.006810764 0.011038966 0.04387755
0.057783082 0.055942953 0.031522803 0.034369763 0.03233163 0.0031179597 0.056156628 0.009853056
0.03155622 0.027229816 0.002759255 0.044728287 0.0025384661 0.02655 0.008444779 -0.0062473286
0.010018175 0.047309328 -0.0035913163 0.055570282 -0.010889108 0.05219414 0.020078102 0.04259965
0.020398082 0.039451223 0.032780845 0.024967529 0.048892338 0.044298276 0.0017091361 0.012180834
-0.03380743 0.046670284 -0.0082971575 0.027247567 0.03224546 -0.029242907 0.03373032 -0.005593828
0.00796172 0.013131919 -0.0066876095 -0.016328892 -0.0069700573 0.041364074 0.061194 0.046020698
0.017896282 0.0122227315 0.033499017 -0.044332318 0.046387702 0.018847743 0.00026824698 0.05696796
-0.023008062 0.06003879 0.04289312 -0.003659397 0.032390576 0.051863022 0.004643862 0.043588456
0.026342986 0.035460662 0.01846852 0.0096476795 0.032340307 0.051084228 0.029792955 -0.0005884408
-0.008763544 0.0075638327 0.04868372 0.039378893 0.015817162 0.042932842 0.0066950875 0.012202147
0.053745914 0.062086284 0.052980095 0.018104527 -0.03842302 0.015428245 0.03303223 0.056959957
0.020971099 0.025460841 -0.014347836 0.038839996 0.03276255 0.034604188 0.036437407 0.0069156946
0.047270883 0.034124315 -0.0056766924 0.04854798 0.06780509 0.042483263 0.049926005 0.049949244
0.03362741 0.06741134 0.04482509 0.022154458 0.050896488 0.033738803 0.04455595 0.020282198
-0.0031424284 0.001950025 0.038253825 0.05934177 0.011046899 0.056326002 0.028819488 0.04901163
0.021596478 0.02178663 0.031846378 0.040314086 0.03200186 0.039824154 -0.0323607 0.041826118
0.02062978 0.047615115 0.024233477 0.04129144 -0.0011012556 0.012162846 0.006991596 0.004129078
0.050299313 -0.009799666 0.028884128 0.0067368736 0.02248682 0.038651172 0.009977618 -0.0060332892

action_model._discrete_distribution.branches.0.weight f4 [2, 256]
00000000: c41e 51bd 8844 cd3c 9e83 353d 7fff 22bd
00000010: 0abd b63b 48ad 373a 5a85 5f3d 88d6 0cbc
00000020: e7c2 e83a 8c69 9b3d e696 453d 17cd 823d
00000030: 8060 8fbd f56c 7b3d 46a2 be3c 5fad a83d
00000040: b583 373d e0ef 9cbb 6306 963c dd01 dd3c
00000050: 987e b43c 52a3 a63d 9b5f 0b3d c406 393d
00000060: 5432 f5bc d6be 33bd 6ab9 d33c 1632 453c
00000070: 9618 403d 7b45 bdbc bd77 663d 61f7 283d
00000080: bb02 013d ebdd 053d 07f0 3c3d bb6d 04bd
00000090: 731e a43d 20b2 393d 824c a93d 2091 0b3c
000000a0: a23a a7bc dc47 e2bc 1ab0 27bc b6c0 043d
000000b0: b0bd b43c ec8c a13d 7830 3dbd f365 603c
000000c0: 81c0 94bd 551d 813c 9a7a ba3c d3cc 5abd
000000d0: a3b7 57bc b825 71bd 4529 47bc 095b 233d
000000e0: 365e 9fbb faab bd3b 524f 83bc 8d4d 06bc
000000f0: 1866 1abd 50fa 78bc 69fc cfbc fcd7 82bd
00000100: 9b0b 7fbd 63a6 023d 9f3d b3bc 3a7b 4c3b
00000110: 66a3 4fbd 6ae8 ba3c bdf4 80bb 2258 093d
00000120: b749 de3c d800 ad3d 7c6e 493d 2dee 8b3d
00000130: c963 82bd 8a6b 76bd 28fe 8f3d aba3 8b3d
00000140: 1a23 ae3a 877a b03d ffb3 a73b f106 fb3c
00000150: 2bc7 01bd e8dd 173d 4ecc 20bd 9adb 12bd
00000160: 2e83 853d 42ac 8ebc 651f 713d 7e1d 96bc
00000170: 462c d03b dcbb 823d 8cab 783d 4876 9f3c
00000180: 1c88 b9bc 0753 603d c1a9 bd3d 7af5 4dbd
00000190: 2b88 01bd a1d4 9cbc 24f8 f63b 532e 44bd
000001a0: 4a5a 573d 5e3c 3f3d fd6e bb3c 15af 683d
000001b0: 3151 b73c dadd ed3c f506 173d d5b9 9f3d
000001c0: c979 983d e950 923b aff7 74bd a5cf 253d
000001d0: 85f0 31bb f9a7 df3c ecbd 5b3d 23c2 f63c
000001e0: 5e77 9dbc d02c d43c 7db9 a73c 08f3 423d
000001f0: ac4b 043d 0486 7a3d debf 7abc 6210 803c
00000200: cd96 fcbb c093 04bd b1fe 823c 1e4f ae3c
00000210: 62c4 6c3c 1407 8cbd 4297 bdbd a606 19bd
00000220: 4bc5 26bd 7f9b ab3d db82 823d 7d9a 6e3d
00000230: fc6b 8b3d c334 2abd 9aa6 f13c c21a bcbc
00000240: 7578 c6bb 0f35 74bd 1afa 193d 41d6 67bd
00000250: b38e 773c 4d9b be3b 0be1 763d 4dec a03c
00000260: a82a 09bd 674e 643c 7058 f03c c772 903c
00000270: ac5f 053d 5ff7 dabc fdd6 d7bc ec5a b9bc
00000280: b77d 763d 4b82 1bbd fbcb 74bd e907 1abc
00000290: 2c2a 6bbc 9a77 54bb dc53 d63c 3d80 8bbd
000002a0: 6fb3 cf3b f0f2 ecbc 37dc c63b fc14 2c3c
000002b0: 14bb 843d fa7c 50bd ec7b 3b3c 45d8 88bd
000002c0: d50c 463d 28fa 48bd ef10 763d 5fae ef3c
000002d0: dfc4 4dbc f6ee a3bd 1054 8e3d 6960 d23c
000002e0: c78c 05bb 25d0 223d 3e31 223c babc a03d
000002f0: 76ee a9bc a712 123d d1b9 25bd 2502 3fbd
00000300: bce5 ab3d 126e 86bd c2bf 8dbc e1e6 633d
00000310: 3dfb 17bc 5d93 dbbc cc6c d63c 130a 4dbd
00000320: 1504 503b c982 a23c 5de0 063d 0310 3b3d
00000330: da71 6e3d 49fe c53d 5f5f ff3b 6144 473d
00000340: 5cf3 3bbd a81d c1b9 5eb4 1c3c 924d f2bc
00000350: 898f f8bc c7fc 3c3d dca0 90bd b1f4 23bc
00000360: c75a 4a3d df8b b53d f1fb 9a3c b769 153d
00000370: f4b1 c5bc e85f 4e3d b3f0 81bd 635a 793d
00000380: a206 f13c e959 733c a6d3 14bd 1c12 a1bc
00000390: 52e3 483d 2ebc 19bc d9f4 463c c61c df3c
000003a0: 31eb 7fbd b2d6 db3c ffd9 6ebd 6f2c 9b3d
000003b0: 45b9 b2bc b6dc 8f3d ae4b 38bc 8a2a 09bd
000003c0: 9677 b63c 56ab 61bd 129f 6e3d eb68 273d
000003d0: e2bb 833c 2f50 5a3b a642 433d 4a4c 203d
000003e0: 7740 a23c 27e1 db3c 0ed1 7a3c 277d babc
000003f0: 2b24 56ba 6ffa 8a3d 0435 0e3d ea5b 0e3c
-0.05105473 0.025057092 0.044314973 -0.03979444 0.0055767344 0.0007006717 0.054570533 -0.00859607
0.0017758281 0.07588491 0.04823961 0.06386774 -0.07000828 0.061383206 0.023270737 0.08236193
0.04480334 -0.0047893375 0.018313592 0.026978428 0.02203302 0.0813662 0.034026723 0.045172468
-0.029931225 -0.043883167 0.025845248 0.012035867 0.046898447 -0.02310442 0.056266535 0.041251544
0.031496745 0.03268234 0.046127345 -0.03233121 0.0801362 0.04533589 0.08266546 0.008518487
-0.0204137 -0.027622156 -0.010234857 0.032410346 0.022063106 0.07888207 -0.0461888 0.013696182
-0.0726328 0.015761057 0.02276354 -0.05341799 -0.013166341 -0.058873862 -0.0121558355 0.03988174
-0.0048635257 0.0057883235 -0.016029034 -0.0081972005 -0.03769502 -0.015196398 -0.025388913 -0.06388852
-0.062266927 0.03189696 -0.02187997 0.0031201378 -0.05069294 0.022815902 -0.003935425 0.033531316
0.02713476 0.084474266 0.04917763 0.06832538 -0.06366689 -0.06016115 0.07030898 0.068183266
0.0013285608 0.0861712 0.0051178928 0.030642958 -0.031684082 0.03707686 -0.03925734 -0.03585396
0.06519161 -0.017416123 0.05886783 -0.01832461 0.006352934 0.063834876 0.060710475 0.01946558
-0.02264791 0.05476668 0.092608936 -0.050282933 -0.031624 -0.019144358 0.007536905 -0.04789574
0.05257634 0.04668843 0.022880072 0.056807596 0.022377582 0.029036451 0.03687187 0.077991165
0.07445104 0.0044652116 -0.059806522 0.04048123 -0.0027151417 0.027301775 0.05364792 0.030121868
-0.019221958 0.025900275 0.02047419 0.047595054 0.03229873 0.061162964 -0.015304534 0.015632812
-0.0077084065 -0.032367468 0.015990587 0.02127796 0.014451118 -0.068372875 -0.09257366 -0.037359856
-0.040715497 0.08379268 0.06372615 0.0582528 0.06807706 -0.041554224 0.029498387 -0.022961978
-0.00605684 -0.059620913 0.03759203 -0.056600813 0.015109706 0.005816853 0.06027321 0.019643927
-0.033487946 0.013934708 0.029339045 0.017632855 0.032561943 -0.026729284 -0.026347632 -0.022626363
0.060178485 -0.037966054 -0.059764843 -0.0094013 -0.014353316 -0.003241992 0.026163034 -0.06811569
0.006338529 -0.028924435 0.006068732 0.01050305 0.06480995 -0.050900437 0.0114431195 -0.06681875
0.04835208 -0.049066693 0.060074743 0.029257951 -0.012559145 -0.080045626 0.069496274 0.025680738
-0.00203781 0.039749283 0.009899436 0.07848497 -0.02074359 0.03566232 -0.04046041 -0.046632905
0.08393428 -0.06563963 -0.017303351 0.055640105 -0.0092762085 -0.026803667 0.026174925 -0.050058436
0.0031740714 0.019837754 0.032928813 0.045669567 0.058214046 0.09667642 0.0077933515 0.048649196
-0.045886382 -0.00036833924 0.009564487 -0.029578004 -0.03034188 0.046139505 -0.070619315 -0.010007069
0.04940298 0.08864569 0.018918963 0.03647777 -0.024132706 0.050384432 -0.06344738 0.060877215
0.029422108 0.014852979 -0.036334656 -0.019661956 0.049044915 -0.009383244 0.012143337 0.0272354
-0.062480155 0.026835773 -0.058313366 0.075768344 -0.021816859 0.07024519 -0.011248512 -0.033487834
0.02227382 -0.05509504 0.05825717 0.040871542 0.0160808 0.0033311953 0.047670983 0.039135255
0.01980613 0.02684076 0.015308632 -0.022764755 -0.00081688416 0.06786048 0.03471853 0.008688906

action_model._discrete_distribution.branches.0.bias f4 [2]
00000000: f154 e53b d354 e5bb
0.006998651 -0.006998637

action_model._discrete_distribution.branches.1.weight f4 [2, 256]
00000000: 750d 5bbd 3663 ab3c 7bf3 173d 68bb cdbc
00000010: ee93 053c 0664 86bb 5f9b 383d cfb5 263c
00000020: d39d 723d b49a 623d d216 ea3b 39d2 e83c
00000030: 0548 14bd 5e35 893d 6ae7 093c e02e a53d
00000040: e917 923d 194b db3c e670 1d3d 1dd6 5b3d
00000050: 4f89 6b3c 09d3 683d c249 283d 67ba 993d
00000060: 234c 22bd 5cef 1bbd 9726 dc3c 63dc 573c
00000070: 0fcb cf3c ffbd 9f3c 85ce 7a3d e407 353d
00000080: b8d0 1a3d 85fa 803d 4c41 763d c345 923c
00000090: c128 d83d 55ee 303d ae6f 3a3d 2559 74bd
000000a0: 7c4e 96bc 8ae5 efbb 25bc 28bd d71a 173d
000000b0: 9cbe 9b3c cc26 663d ef93 04bc 087b 543c
000000c0: 7956 3bbd 59b6 463d 0275 a9bb 50e7 03bd
000000d0: 0f76 bb3b ed71 79bb d38f 373c b562 133d
000000e0: ceba 283d e5f3 92bc b89e f43b 2905 583c
000000f0: 572d 8bbc 32e5 dabc 77e3 adbc 4572 88bd
00000100: 6881 dcbc 2b4b 393d ccf6 8ebc 805f d6bc
00000110: c924 55bd 29d9 623d 370d 46bb 093b cf3c
00000120: 3a4f 233d dd47 993d 9c2b 4a3d 7080 b23d
00000130: d869 dbbc 5413 64bd 4725 773d ee5e a73d
00000140: 1204 223c fff0 633d 61f5 dfbc 60da f33c
00000150: b6f1 c0bc de78 e23c 04c0 ebbc 96fe febc
00000160: addb 2f3d a55e d83b 53c1 403d a8c8 83bd
00000170: 380a 803c 4d76 593d cde9 133d eeec df3c
00000180: ffd0 96bc 9bf2 ba3d 222d b03d 7e50 17bd
00000190: c7fe c1bc ca4b f9bc 7ad7 e03c 7e7c 91bc
000001a0: 6d87 f13c 5006 923c 5101 1c3d 0226 8d3d
000001b0: b306 523c 092c 563d 55cf d03c 1d81 a23d
000001c0: 16ba b93c 0906 733b d846 4abd 7704 6cbc
000001d0: 1ee0 383c 901a 6b3d 1124 8f3d 5205 a53c
000001e0: d155 c9bc 4def 173d 3026 ec3c 5840 4c3d
000001f0: 34aa 0f3d 2872 8a3b 752b 1bbd e605 473d
00000200: 0918 64bc 903a d6bc b6a2 1a3c d62f 1b3d
00000210: f191 513c b265 92bd 128c 3cbd 85be 4fbd
00000220: 717c 2ebd 7e74 513d 6273 b93d 6e5a 253d
00000230: f1d8 713d 42d9 19bd ca50 2e3d e2e1 ca3c
00000240: 8f48 16bc fb57 6bbd c45c e83c 679f 2dbd
00000250: ac2e 173d cdb6 9d3b 85b0 493d e151 de3c
00000260: b979 22bd 80d3 e93c b126 323d 6f31 a43a
00000270: 775f e03c 362e 32bd f3b6 35bd d301 21bd
00000280: c198 663d 5de5 c5bc eae3 45bd 2d2e 21bc
00000290: 260b 44bd 3af7 f03b bf8b 303d 0b96 32bd
000002a0: 61b5 38bc 9c44 153b df07 013d 0378 4b3c
000002b0: bc33 8f3d 8383 2ebd ff36 0a3c faed 7abc
000002c0: c702 4b3d a833 2ebd 89e3 493c d201 353d
000002d0: 77d4 ab3c fa15 5fbd eebb 373d 8373 533c
000002e0: 56d8 443c f06a 523d c0f8 3b3d 27d1 963d
000002f0: 5fd4 39bc f573 7f3d db24 e0bc e1bc bcbb
00000300: 0798 373d 3c69 7bbd 76fc 32bd 9c1e 6e3d
00000310: 2729 11bc dea7 05bd 60e5 8e3d 3c3f 73bd
00000320: 42f2 04bd b0b9 cf3c 02a8 8e3c 146b 6e3d
00000330: 8074 803d 3665 a33d d74f b23c 674e 4d3d
00000340: bda4 2bbd 58bc ea3b 8d6b 833c 4781 0abd
00000350: ac14 8ebb 8a99 e53c 8a46 91bd fb9f 17bd
00000360: d154 0d3d 84d8 b53d 3410 253d 3ee9 463d
00000370: 09fc f1bc cbfd df3c a3fc 2bbd 7ab4 ee3c
00000380: 341a 983c 1cea 07bb f4d2 2ebd f1ad a83c
00000390: 5c58 303d fe38 903c f9f3 533d 9723 a63d
000003a0: 09fa 34bd 7096 e9bc e711 42bd b6e5 ae3c
000003b0: c1bb 13bd 2986 893d 5e19 4a3c 53b9 c33a
000003c0: 5c42 953c 1620 91bd 58b8 7b3d 2a69 ce3c
000003d0: 5997 323d 02f1 83bc 754a 993d 79ce 6d3d
000003e0: be20 793d 8ab1 493c e459 c63c 6eb2 3ebb
000003f0: cf21 c8bc 4fc6 113d 014d f03c 4eba b83c
-0.05347963 0.02092133 0.037097435 -0.025113776 0.008152945 -0.004101279 0.04507005 0.0101751825
0.059232544 0.055323318 0.0071438337 0.028420554 -0.036201496 0.06699632 0.00841699 0.08065581
0.07133467 0.026769208 0.038437746 0.05367099 0.014375999 0.056841884 0.041085966 0.075062566
-0.03962339 -0.038070068 0.02687387 0.013175103 0.02536538 0.019499777 0.06123211 0.04419698
0.037796706 0.06297783 0.060120866 0.01785553 0.10554648 0.04319604 0.045516662 -0.059655327
-0.018347971 -0.0073210644 -0.041195054 0.03689083 0.019011788 0.056189343 -0.008091911 0.012968786
-0.045736764 0.048513744 -0.005171419 -0.03220302 0.005720861 -0.003806229 0.011203724 0.035982806
0.041193776 -0.017938564 0.00746521 0.013184824 -0.016989393 -0.026720617 -0.021226628 -0.0666242
-0.026917174 0.0452377 -0.017451666 -0.026168585 -0.052037034 0.05538288 -0.003022028 0.025296705
0.03987048 0.0748441 0.049357995 0.08715904 -0.026783869 -0.055682495 0.060338285 0.08172403
0.009888666 0.055649754 -0.027338685 0.029767215 -0.023552757 0.027645525 -0.028778084 -0.031127255
0.04293411 0.0066030794 0.04705937 -0.064347565 0.015629873 0.053091336 0.03611164 0.027334657
-0.018410204 0.091283046 0.086023584 -0.036941998 -0.023681058 -0.030431647 0.027446497 -0.017759558
0.029483521 0.017825276 0.038087193 0.06892015 0.01281898 0.05228809 0.025489489 0.07934783
0.02267174 0.0037082455 -0.049383968 -0.014405361 0.011283902 0.05739838 0.06989301 0.020144138
-0.024577053 0.03709345 0.028826803 0.04986605 0.035074428 0.0042250343 -0.03788324 0.04858961
-0.013921746 -0.026150972 0.009438207 0.037887417 0.012791143 -0.07148303 -0.04603202 -0.050718803
-0.042599145 0.051136486 0.09055211 0.040369444 0.059044782 -0.03756071 0.042557515 0.024765912
-0.009172573 -0.05745695 0.028364547 -0.042388346 0.036909744 0.0048130513 0.049240608 0.027138652
-0.039666865 0.028543234 0.04349393 0.0012526939 0.027389271 -0.0435011 -0.044363927 -0.03930838
0.05629802 -0.02415722 -0.04831306 -0.009837669 -0.047862194 0.0073536905 0.043102022 -0.043600123
-0.011273713 0.002277649 0.031501647 0.01241875 0.069922894 -0.042605888 0.008435964 -0.015315527
0.049563196 -0.042529732 0.012322315 0.04419119 0.020975335 -0.054464318 0.044856958 0.012905958
0.012014469 0.051371515 0.045891523 0.073641114 -0.011342137 0.062366445 -0.027361324 -0.005759821
0.04482272 -0.061379656 -0.043697797 0.05813466 -0.008859909 -0.032630794 0.069773436 -0.059386477
-0.032457598 0.025357097 0.017414097 0.058207586 0.062722206 0.07978289 0.021766586 0.0501236
-0.041905154 0.0071635656 0.016042495 -0.033814695 -0.0043359604 0.028027315 -0.070935324 -0.037017804
0.034504715 0.08879188 0.040298656 0.04856228 -0.029539125 0.027342698 -0.04198898 0.029138792
0.018567182 -0.0020738905 -0.04268165 0.020590754 0.043053016 0.017605301 0.051746342 0.08112257
-0.044183765 -0.028514117 -0.047380354 0.02134977 -0.036067728 0.06715042 0.01233515 0.001493255
0.01822012 -0.07086198 0.0614551 0.02519663 0.043601368 -0.016106132 0.07484905 0.058058236
0.06082224 0.012310395 0.024212785 -0.0029098052 -0.024430184 0.035589512 0.029333593 0.022549774

action_model._discrete_distribution.branches.1.bias f4 [2]
00000000: e025 3fbc f425 3f3c
-0.011666745 0.011666764

action_model._discrete_distribution.branches.2.weight f4 [2, 256]
00000000: 343d 5f3d e9e2 38bd 0e8c fbbc c7ae 673d
00000010: 5e34 05bd f2de a6bc fe7b 67bd 80fe 17bd
00000020: 063a 3e3b 7a3d 8cbd 587f 193b 9e63 3bbd
00000030: 4bfd ae3d 1511 3ebc 8a60 b9bc 21f5 59bd
00000040: c743 14b9 50e9 cb3b 004d c13c 74d1 fabc
00000050: 9aee ffbc 8372 3bbd 75fd 3cbd 49a2 adbd
00000060: 35f3 423d 9b5f 3d3d 1a34 1dbd a4f1 c8bc
00000070: e45d b8bc 8f25 4d3d 245f febc 3628 9abd
00000080: b893 433c 7a95 6b3c dea7 25bd 366d d83c
00000090: 34b5 1ebd 850c 8abc 33b0 a2bc be23 e73c
000000a0: 6afb aebb 391f 893d 94b9 2b3d edc1 7ebb
000000b0: 9e55 fdbb 83ae 67bd 0e6e c53c b17d 083b
000000c0: c0a9 8a3d 6f17 083d 81f7 993c 05a9 183d
000000d0: 6373 57bc 927c 283d 26be 1fbc 0ca2 c1bc
000000e0: 282d 6f3c 4387 a53c 9302 6b3b af6e ee3c
000000f0: caaf 5d3d b44c 4d3d 969d cd3c 82dc 843d
00000100: 67fb 5f3d 453e f1bc 3db7 293b 3c76 d4bb
00000110: 6e6f 4e3d cc11 003c 3714 aabc fa2d 063d
00000120: 6a35 a43b e0b0 95bd 762e 51bd f52f 07bd
00000130: 3c51 233d 5fd8 183d 82ec 94bd e3e4 87bd
00000140: acf3 af3b 8960 05bd 6f37 1d3d c769 85bd
00000150: 7c5b 0d3d 5e31 29bd f938 7d3c c251 5e3d
00000160: ca22 183c cfaa 90bc 156f 8fbd e12a 813d
00000170: 08ee f1bc bf78 95bd 3f54 24bd 7716 4cbc
00000180: e913 913c 7ce1 dcbb 6e63 52bd 340f 573d
00000190: f49f 7a3d 8e1e b63b ecae bf3b b00d 6f3d
000001a0: ff5e a5bb a61c 44bc a6a1 49bd c8b7 d2bb
000001b0: 1ab1 1dbd dd70 25bd 9ac9 e3bc 6bc7 1fbd
000001c0: 9d81 d1bb a53e 813c 6527 873d a897 183c
000001d0: 07df af3c 0d34 2fbd ef3a 50bd 482d 32bd
000001e0: 649f ba3c b910 58bc 3879 fbbc dba4 34bb
000001f0: 76d4 c1bc bd6a 26bb cb51 db3c e664 42bd
00000200: 9a17 0b3d 1872 5f3d fdee 9cbc d9c7 dc3c
00000210: f222 d8bb 5956 9e3d 47a2 363d 282f 803d
00000220: 0578 e93c bd31 82bd 6d30 82bd 74b1 ddbc
00000230: ba49 4cbc aa0f 6d3d 2781 83bd fd0f 1f3d
00000240: 4073 93bc 9890 8b3d 6d43 38bd d3fe 533d
00000250: 67f3 f8bc 21a5 3ebc 9feb 18bd 4acf 4abd
00000260: 8f50 a93c 2afe 81bd 4755 8fbc 6067 adbc
00000270: 9a09 febc 7997 313d d06e 543d 4818 323d
00000280: 5b65 31bd 69b7 f03b a33b 673d b5da 34bc
00000290: db38 383d eb15 9b3c d355 61bd 71e5 8d3d
000002a0: 6b27 dbbc f414 583d 3751 183d bf40 84bc
000002b0: 9fbf 4abd e6f9 7b3d 6010 2bba abf5 873d
000002c0: 8c06 81bd 64c0 803d 27f4 18bd a68e 8dbc
000002d0: 5e22 c53c 6f94 b43d f950 e7bc addb c4bc
000002e0: 2bc2 193b e843 31bd ea93 4d3c 40ce 8bbd
000002f0: db9c 3f3c c8ea 293b 092b db3c 354d 573c
00000300: b77a 4dbd 1bc6 993d cebe 5d3d 66ef 48bd
00000310: e4b9 64bc 34a2 043d b7ef 44bc f888 ad3d
00000320: fa25 bb3c f22b 54bc 2317 d2bc 4e2a 24bb
00000330: cd5b 6ebd d5d1 7cbd 1122 7abb 020a 2ebd
00000340: 2052 5f3d 3719 24bb e69e a9bc 0010 283d
00000350: 0c1c 8c3d 3300 59bc 095e 8e3d 0189 2b3d
00000360: 6c9e 24bb bab7 b8bc 0bc5 3cba c02c 66bd
00000370: dc17 413d 6891 27bd 5869 6f3d d362 e5bc
00000380: abd0 afbc 8340 75ba 1be8 913d f9e1 353d
00000390: 6831 33bd 622c 1f3d 4e3c 473b b36a 323b
000003a0: 1e29 103d 774b ae3c 4f94 733d aa03 f43b
000003b0: 9cd7 3f3d 3a40 adbc 611c fdbc 7d6b 243d
000003c0: 6a48 a2bc 4009 4f3d 1821 3fbd eb54 7b3c
000003d0: 6e84 75bd e5b9 dabb ad9e 72bd 0b40 55bd
000003e0: 87e8 a73c 6253 10bd c429 d0bc 4f92 a63a
000003f0: 57b1 ea3c d8d5 dabc 221a 26bd 68cf ecbc
0.054501727 -0.045138273 -0.030706432 0.056563165 -0.032520644 -0.02036998 -0.056514733 -0.037107944
0.0029026284 -0.06847663 0.002342185 -0.0457493 0.085444055 -0.011600752 -0.022629041 -0.05321229
-0.00014139629 0.0062228814 0.023596287 -0.030617453 -0.031241704 -0.045763504 -0.046140153 -0.08478219
0.04759522 0.046233755 -0.038379766 -0.024529286 -0.022505708 0.050084647 -0.031051226 -0.07527201
0.011937074 0.0143789 -0.040443294 0.026419263 -0.038747028 -0.016851673 -0.019859409 0.028215285
-0.0053400295 0.066954084 0.041925028 -0.0038872913 -0.0077311536 -0.05656291 0.02410033 0.002082687
0.067706585 0.033225473 0.018794777 0.037270565 -0.013150069 0.041134425 -0.009749925 -0.02363684
0.014598168 0.0202061 0.0035859689 0.029105512 0.054122724 0.050121978 0.025099557 0.06487371
0.054683115 -0.029448638 0.0025896572 -0.006483821 0.050399236 0.007816743 -0.020761592 0.03275869
0.0050112503 -0.07309127 -0.0510697 -0.03300472 0.039872393 0.037315723 -0.07271673 -0.066354536
0.005369624 -0.032562766 0.038382944 -0.06514316 0.034511074 -0.041306846 0.015455478 0.05427719
0.009285638 -0.017659573 -0.07003609 0.063070066 -0.029532447 -0.07298421 -0.040119406 -0.012456528
0.01770969 -0.006740747 -0.051364355 0.052504733 0.0611877 0.0055578416 0.0058497097 0.058362663
-0.005046725 -0.011969721 -0.049226426 -0.0064306 -0.038498975 -0.040390838 -0.027806092 -0.03900854
-0.006393625 0.015776942 0.06599311 0.009313501 0.021468652 -0.04277425 -0.050837453 -0.043500215
0.022781081 -0.013187581 -0.03069745 -0.0027564082 -0.02366088 -0.002539321 0.0267724 -0.047459505
0.033958055 0.054552168 -0.019156927 0.026950764 -0.0065959627 0.07731313 0.044588353 0.06258994
0.028499613 -0.06357143 -0.06356893 -0.027062155 -0.01246875 0.057876267 -0.06421118 0.038833607
-0.017999291 0.068146884 -0.044986177 0.05175669 -0.0303895 -0.0116360495 -0.03733408 -0.049514093
0.020668296 -0.06347306 -0.017496718 -0.021167457 -0.031010438 0.043357346 0.05186349 0.043480188
-0.04330955 0.007346083 0.05645336 -0.011038472 0.044976097 0.01893135 -0.05501349 0.06928528
-0.026752194 0.052754357 0.037186828 -0.016144155 -0.04949915 0.06151762 -0.00065255724 0.06638654
-0.06300077 0.062866956 -0.037342217 -0.017279934 0.02406424 0.08817374 -0.028236853 -0.02403053
0.002346168 -0.04327765 0.0125474725 -0.068264484 0.011695112 0.0025927294 0.02675392 0.013140966
-0.050165858 0.07508489 0.054137044 -0.049056433 -0.013960335 0.03238125 -0.012020043 0.0847339
0.022845257 -0.0129499305 -0.025645798 -0.002504963 -0.058193017 -0.06172355 -0.0038167278 -0.042490013
0.05452168 -0.0025039443 -0.020705651 0.041030884 0.06841287 -0.013244676 0.069515295 0.041878704
-0.002511884 -0.022548545 -0.00072009925 -0.05619502 0.047141895 -0.040910155 0.058450073 -0.028001225
-0.021461805 -0.00093556213 0.07124349 0.044404957 -0.04374829 0.038860686 0.0030400935 0.0027224242
0.035195462 0.021276219 0.05946761 0.007446726 0.04683648 -0.02114879 -0.030897321 0.04014157
-0.01980992 0.05054593 -0.04666242 0.01534007 -0.059940748 -0.0066749924 -0.059233356 -0.05206303
0.02049662 -0.03523577 -0.02541054 0.0012708398 0.028649015 -0.026713297 -0.040552266 -0.028907493

action_model._discrete_distribution.branches.2.bias f4 [2]
00000000: 2722 6e3c 0c22 6ebc
0.01453451 -0.014534485
