Assets/results/0719day2/TrafficLightBrain/TrafficLightBrain-352984.onnx (onnx, 386520 bytes, 13 tensors)

discrete_act_size_vector f4 [1, 4]
000000 00 00 00 40 00 00 00 40 00 00 00 40 00 00 00 40
       2.0 2.0 2.0 2.0

network_body._body_endoder.seq_layers.0.weight f4 [256, 100]
000000 d2 5b 03 3d 79 a2 1c 3e b8 b8 3b be e7 dc c8 3d
       0.03206999 0.15296353 -0.18332183 0.09807759
000010 d2 8b e1 bd 63 c9 95 bd 6b 29 5c 3b 73 9e 2e be
       -0.11012997 -0.07313802 0.0033594023 -0.17052631
000020 a0 dc 18 bd ae 32 14 bd 38 e0 96 bd 0a 92 82 3d
       -0.03731978 -0.036181144 -0.07366985 0.06375511
000030 2f 11 51 bd fb e8 e9 3d b2 1c cc bb 96 03 4a 3e
       -0.05104178 0.114213906 -0.0062290067 0.1972793
000040 62 10 fa 3d aa 1a 44 be e2 bb 01 3e 55 af ed 3d
       0.12210156 -0.19150797 0.12669328 0.116057076
000050 a2 a1 62 3c 02 d1 8e bd ca 0d 8a 3d 47 ed f7 3d
       0.013832482 -0.06973459 0.06740911 0.12105804
000060 2b c5 47 3c d5 6f 74 bd 67 70 ba bc b6 81 82 bd
       0.012193005 -0.059676964 -0.022758676 -0.06372397
000070 41 51 41 3d 67 b7 d4 3c db cc de bd 52 46 44 bd
       0.04719663 0.02596636 -0.10878917 -0.047918625
000080 aa 43 85 3d 1b 0f 1b be 97 80 ff 3d e7 d9 13 3b
       0.065070465 -0.15142481 0.124756984 0.00225603
000090 fd 43 4d 3e 4d b1 f7 bd 4b e6 ce bd fe af 8f 3b
       0.20045467 -0.12094364 -0.10102519 0.0043849936
0000a0 88 7a 21 be 35 99 2f bb 68 5c 5d 3c 83 74 0b 3d
       -0.15769398 -0.00267942 0.013510801 0.03404666
0000b0 76 f0 c4 bc 06 e3 26 3e af 3d bb 3d a0 fc fe bb
       -0.024040442 0.1629754 0.091426246 -0.00778158
0000c0 ef 3f ce 3d 2b 4d 90 bd b5 f2 97 3d 8b 4c 8c 3c
       0.10070788 -0.070459686 0.074193396 0.017126342
0000d0 aa d6 32 bd 6b 0d dd 3d e6 d6 82 3d a7 13 b3 3d
       -0.04366175 0.10793575 0.06388645 0.08743983
0000e0 1b 6f 69 be 7f a5 a9 bc 88 21 0a 3d 97 bd cb 3d
       -0.2279629 -0.020708797 0.033723384 0.09948271
0000f0 7c 1f 21 bd dd 28 df bd 4b bd fb 3d 60 22 f2 3b
       -0.039336666 -0.10896466 0.12291964 0.0073893517
000100 f9 82 ac 3c 6b 12 8b 3b 14 22 c8 bb ed b0 6c 3d
       0.021058546 0.004244139 -0.006107578 0.057785917
000110 9c 66 c5 3c ee 9e 81 3d c1 2d 4a 3e 19 7a 92 bd
       0.02409678 0.063291416 0.19744016 -0.071521945
000120 ca 32 79 3c 0e 86 36 be 32 cd 81 bc 03 20 4b 3e
       0.015209863 -0.17824575 -0.015844915 0.1983643
000130 e0 3a e3 3b ca a7 f4 3d ff cb a2 3b a7 60 2e be
       0.0069345087 0.11946066 0.004968166 -0.17029057
000140 f5 ed e4 3c 3a a2 fe 3c eb cf 8a 3c a5 62 71 bc
       0.027945498 0.031083215 0.016944846 -0.014732991
000150 c3 b4 82 bc a2 66 83 3d 43 19 60 3d ff 23 a5 3d
       -0.015955335 0.0641606 0.05471159 0.08063506
000160 9d 1c 80 3d f1 de 21 bb 2a 1c 78 be 1d 65 d0 3d
       0.062554576 -0.0024699534 -0.24229494 0.10175536
000170 af 8c 15 be 1a d3 3f be bd 9e cd bb 23 9d 3a 3e
       -0.14604448 -0.18732873 -0.0062750266 0.18224005
000180 fb 04 44 bd d3 53 60 bd 3e 7b 1f be 8d 7c 4d bd
       -0.047856312 -0.05476744 -0.15574357 -0.05016761
000190 52 6c 6d 3d 38 79 32 bd 33 7c 28 3e d1 80 cb 3d
       0.05796463 -0.043572634 0.16453628 0.09936679
0001a0 fc 73 4f bd 0c 99 d8 3c 45 49 cc bd ee 35 de 3d
       -0.05064772 0.026440166 -0.099749126 0.1085013
0001b0 73 4d 22 3d 26 5a 43 3e 92 5d 33 bd 72 cc ab 3c
       0.039624643 0.19077358 -0.043790407 0.02097151
0001c0 44 b8 bc bc 37 70 bd bd 4c 61 b6 3d 97 75 95 bd
       -0.023037083 -0.09249919 0.08905277 -0.07297819
0001d0 4b bd 7b 3e df fa b5 bd b3 01 1d bd 6b 35 62 3d
       0.24583928 -0.088857405 -0.0383317 0.055226725
0001e0 3b d9 81 3d 77 94 b6 3b 5b ac bc bd 7f b7 2e 3e
       0.063402615 0.0055718976 -0.09212562 0.17062186
0001f0 5f f7 15 3e b3 22 09 3e e8 c1 01 3d 26 5b 8b bd
       0.14645146 0.13392143 0.031679064 -0.068044946
000200 2d c4 54 3d e1 0c 9b bc de 5b a3 3d 68 ba 5d 3d
       0.0519449 -0.01892704 0.07976507 0.05413285
000210 83 18 75 bd 89 ba a4 3b ca bd 52 bb e1 b3 10 be
       -0.05983783 0.0050271195 -0.003215658 -0.14131118
000220 b5 2e 27 3d 60 c5 87 bd bb 54 06 be af 84 ef bc
       0.040816028 -0.06629443 -0.1311826 -0.029238073
000230 ef f7 7e bc 95 4e 03 be 78 81 33 3d d2 3b 3a bb
       -0.015562042 -0.12822945 0.043824643 -0.0028417003
000240 5a 01 26 3d 81 3b c8 3d b6 43 0b bd 41 90 2a 3e
       0.040528633 0.097769745 -0.03400012 0.16656591
000250 80 1d 79 be 4d df 87 bc 4f 26 9d 3d fa 00 bd bd
       -0.2432766 -0.01658597 0.076733224 -0.09228702
000260 f2 14 1c 3e d8 cf 19 be bf bb dc bd 99 7c 00 3e
       0.15242365 -0.15020692 -0.10777997 0.1254753
000270 08 74 5f 3d e3 21 63 be 9d b3 a7 3d 08 4b fe 3c
       0.054554015 -0.22180896 0.081885554 0.031041637
000280 0a 72 71 bd cb 03 65 bd 33 3b 18 3d 5f 76 2a bd
       -0.058946647 -0.05591182 0.03716583 -0.041616794
000290 af bb 07 bd 92 bb e8 3d 45 62 12 bc d1 8a 24 3d
       -0.033137973 0.11363901 -0.008934562 0.04017145
0002a0 5f 6f 97 be a1 84 32 3e 09 32 13 3d 3b 74 2a be
       -0.29577157 0.17433406 0.03593639 -0.16645901
0002b0 c7 27 7e 3d 9f 5c 1a 3e 9d 70 cc 3d 51 87 46 3e
       0.062049653 0.15074395 0.09982417 0.19387557
0002c0 bd f6 ea bc 72 20 54 3e 74 0b af 3d eb 3b ef 3d
       -0.028682107 0.20715502 0.085471064 0.1168135
0002d0 0d 53 79 3c c3 5c 81 bc a7 89 f1 bd 23 ad 01 bc
       0.015217555 -0.015791303 -0.11793833 -0.007914814
0002e0 0e c0 a5 bc 44 01 ba 3c 2a 35 30 3d e2 2a 9d bc
       -0.02023318 0.022705682 0.04301945 -0.019185487
0002f0 4d 6b c8 3b 51 c0 04 3d 27 bd f4 3d bf 0e 68 be
       0.006116307 0.03240997 0.119501404 -0.22661875
000300 91 83 44 3d ad 20 da bc 94 f8 b3 bd f8 33 de bd
       0.047977034 -0.02662691 -0.08787647 -0.10849756
000310 ac 2c 90 bd 97 4a 06 3e 64 45 92 3d bf 47 4a bd
       -0.070397705 0.13114391 0.071421415 -0.04938483
000320 d3 2c 97 3d 5e 86 08 3e 0b f7 8f 3e 91 94 73 3d
       0.073815964 0.13332507 0.28118166 0.059467856
000330 f2 4a ea bd 7a 29 ba bd e8 c4 13 3e 83 46 b8 3c
       -0.11440076 -0.09089942 0.14430583 0.02249456
000340 ed 84 38 3e 4d 38 e0 3d 81 56 9e 3d b2 d3 96 bd
       0.18019457 0.109482385 0.07731343 -0.073645964
000350 24 f4 33 bd e4 f9 47 be 81 4d 04 3e c0 ab 42 be
       -0.043934003 -0.1952892 0.1292019 -0.1901083
000360 ba d9 4b 3d 58 4e a1 3d d2 96 57 3e 25 47 f1 bc
       0.049768187 0.07876271 0.21053627 -0.02945287
000370 f3 4c 11 bd fa 2a dc 3c 76 9a 0e 3e 44 8f 8a bd
       -0.035473775 0.026875962 0.1392611 -0.06765607
000380 94 71 40 be 5f d1 e5 3c 05 5c 30 bc 07 f0 b8 3d
       -0.18793327 0.028053937 -0.010764127 0.090301566
000390 4d a7 76 bd e2 18 ca 3d a6 99 a5 3d 4c b3 94 3d
       -0.060218144 0.09868027 0.08085947 0.07260761
0003a0 bc 56 05 bd b5 8c a0 bd 5d 75 5d be 7f 03 e3 3d
       -0.03255342 -0.07839338 -0.21626802 0.11084651
0003b0 c7 f5 df 3c eb 3b d8 bc 94 db a3 3c 8b 73 af bd
       0.027338875 -0.026395759 0.020002164 -0.0856696
0003c0 e0 58 d9 3b 1c 24 8a bd c5 1d eb 3d 85 47 67 bd
       0.006632909 -0.067451686 0.114802875 -0.05646469
0003d0 9c d9 83 be 96 87 24 be 59 e9 86 3c 8f 8f f9 ba
       -0.2575196 -0.16067347 0.01646869 -0.0019039976
0003e0 71 22 41 bd ba e5 e6 3d 32 4d 18 be 55 7c ca bd
       -0.047151987 0.112742856 -0.14873198 -0.09886996
0003f0 78 e3 0b be 31 c5 13 3e 0d aa f8 3d 4b 92 d1 bd
       -0.13660991 0.14430691 0.121418096 -0.10232981

network_body._body_endoder.seq_layers.0.bias f4 [256]
000000 61 96 36 bc bf 03 86 3b 04 e2 12 3d be 02 1d bd
       -0.011144252 0.004089802 0.035860077 -0.038332693
000010 de 2f 0d 3d ea 16 f8 bd 4e 9a 4a 3d 5d e1 f8 3c
       0.034469478 -0.121137455 0.049463563 0.0303809
000020 37 4a 19 be 81 b3 17 3d 27 38 0c bb d8 cb 65 bc
       -0.14969717 0.037036423 -0.0021395774 -0.014025651
000030 e6 d0 eb bc 09 88 22 bc 81 5c 00 ba a6 f2 12 be
       -0.028786134 -0.009920129 -0.00048965967 -0.14350376
000040 4b 1f 0b ba e5 36 c9 bd da 07 08 3c 82 dd 59 bd
       -0.0005307092 -0.098249234 0.008302653 -0.053189762
000050 d6 2b 88 3d 9f 58 46 3a 22 86 27 bd 4b bf a9 ba
       0.06648986 0.0007566306 -0.040899403 -0.0012950687
000060 a5 3a 7d bc 28 4f 95 bd b9 f3 13 bc 38 1d c8 3c
       -0.0154558765 -0.072904885 -0.009030276 0.024427995
000070 55 56 63 3c d3 54 d6 3c 40 00 05 be dc 89 67 bd
       0.013875564 0.026163494 -0.12988377 -0.056527957
000080 3f 5d 8a bb 6d 6a 80 3c e7 92 33 3d c9 1b 05 be
       -0.0042225416 0.015675748 0.04384127 -0.1299888
000090 66 94 07 be 15 75 5a bd 6d 8a e0 bb a1 6b 59 3c
       -0.13240203 -0.053334314 -0.006852439 0.01327029
0000a0 ef 5e 0e be bc 01 8e 3d fa 8d bb 3c 9a d4 84 bc
       -0.13903402 0.069339246 0.022894848 -0.016214658
0000b0 4b d8 21 3d 0f 27 0f 3d ea 51 d7 3c e2 62 66 3d
       0.039512914 0.03494936 0.026284177 0.056246646
0000c0 2e 8a 55 bc b2 ac 05 3c 8d e8 3e 3d f8 32 04 3d
       -0.013033433 0.00815885 0.046608496 0.03227517
0000d0 e7 a6 3d 3d 9a 72 3f bd e7 92 56 3c 45 8b 04 bd
       0.04630175 -0.046740152 0.013096548 -0.03235938
0000e0 a4 fd 3d 3c 5a 8f 15 3d a9 76 22 bb f2 74 2c bd
       0.011596117 0.036513664 -0.0024789965 -0.042103715
0000f0 1d ae 11 3c 26 a2 c9 bc 1c a0 29 3d 68 aa 55 3a
       0.0088916095 -0.024613451 0.041412458 0.00081506977
000100 dc 81 96 bc 70 ff 6f 3c 37 e2 2b bd 7b e4 00 bd
       -0.018372469 0.014648303 -0.041963782 -0.031467896
000110 2a 31 41 3d ce 1d 12 3c 29 fe 2b be 59 85 21 bd
       0.047166027 0.008918239 -0.16796173 -0.03943381
000120 d2 37 96 3c df e3 0b be df 81 d6 3b 34 99 e8 3c
       0.018337164 -0.13661145 0.0065462436 0.028393365
000130 2a 6b 7f bd 9a c7 9e bd db 19 0e be c2 c5 43 3d
       -0.06235806 -0.07752915 -0.1387705 0.04779602
000140 50 12 1b be a6 59 24 bd 72 71 d4 3d 4d 78 9c 3c
       -0.15143704 -0.040124558 0.103732005 0.019100333
000150 b1 e3 e2 3c e0 1c ba bc 75 42 ae bb 77 f8 43 bc
       0.027696462 -0.022718847 -0.005317981 -0.011961094
000160 42 af 8a 3c 7d 2e 48 3c 74 f9 cc bd f7 e8 14 be
       0.016929273 0.012218115 -0.10008517 -0.14541994
000170 2d 0d 68 3d bf ad 82 bd 0f 62 3c 3d db 16 8e 3c
       0.05665319 -0.06380796 0.045991953 0.017344883
000180 36 a7 0e bd 0a f8 cb bd 96 4b 29 be c6 b5 58 bd
       -0.034827434 -0.09959419 -0.1653274 -0.052907728
000190 d2 08 92 3c 91 6d c6 bd 3f 49 76 3c 1a 93 27 3c
       0.017826471 -0.09688867 0.015032112 0.010227943
0001a0 f2 92 4b 3c 72 15 01 bc cf 30 eb bd 1d 3d 06 3d
       0.012425171 -0.007878648 -0.11483919 0.032773126
0001b0 b0 89 de 3c f0 b8 ee bc 7e 6e be bb e7 36 0a be
       0.027165264 -0.02914092 -0.0058115115 -0.13497506
0001c0 3a 75 1d 3d 1a bd 3b bd 74 f3 8c 3d 30 24 67 3d
       0.038441874 -0.04583464 0.068823725 0.056430995
0001d0 89 74 4a 3d 03 35 b5 3c b3 ca f4 3c 1b 1f e1 bc
       0.049427543 0.022120005 0.02988181 -0.027480653
0001e0 9b 92 86 3d 09 14 24 bd b1 a6 a9 3c aa e6 34 3d
       0.065709315 -0.04005817 0.020709367 0.04416529
0001f0 4d 95 a7 bc 78 84 e4 bd 6a fa 74 3c 7b f5 9e bd
       -0.020456934 -0.11158079 0.0149522815 -0.077616654
000200 c4 4c 01 3d 73 41 0d bd 20 37 44 3d 70 e4 2c bd
       0.03156735 -0.034486245 0.047904134 -0.042210042
000210 c6 b6 c8 bc 25 10 04 bd 45 d9 7b 3d d6 4a 1b 3b
       -0.024501216 -0.03224196 0.0614865 0.0023695729
000220 15 9f 70 bd 29 f2 06 bc 82 06 e6 bc 7a 6f 46 bd
       -0.058745462 -0.008236446 -0.028079275 -0.048446156
000230 58 fd 69 3c e0 b5 49 bd d4 90 18 3d e6 8e 41 bd
       0.014281593 -0.049245715 0.037247494 -0.04725542
000240 d1 64 81 bd c3 8b b2 bc 29 b5 fe 3b 05 04 03 ba
       -0.06318057 -0.02179516 0.007773061 -0.00049978524
000250 32 17 0d bc 3a ad 93 3d d6 33 97 bb 3d 4a 16 39
       -0.008611487 0.07210775 -0.0046143336 0.0001433277
000260 2a 7e 8a bc 56 83 02 3d 10 16 17 3c ff cd a3 bd
       -0.016905863 0.031863533 0.009221569 -0.07998275
000270 84 12 8b 3b f5 49 59 bd 31 86 33 3c 2b ee 35 bd
       0.0042441506 -0.053049047 0.010957287 -0.044416588
000280 fe 4b 27 3c fc 5b 2b bd 2d ee 57 3c 65 c5 c0 ba
       0.010210989 -0.04183577 0.013179344 -0.0014707266
000290 a0 fb 00 3d be 6a ea bb c5 8b 65 bc be c3 cb bc
       0.03148997 -0.007153838 -0.014010374 -0.02487361
0002a0 62 3d 80 3d 73 55 14 3d 4c 5c 21 be e6 69 4e 3d
       0.06261708 0.036214303 -0.15757865 0.05039396
0002b0 98 68 4b 39 97 ef 71 3d 83 63 a1 3c e2 65 1d bc
       0.00019398553 0.05906638 0.019700771 -0.00960681
0002c0 0e 44 cf bd 93 7b 78 bc b0 ca bf bc cf ff 48 3d
       -0.10120402 -0.015166181 -0.023412079 0.049072083
0002d0 8f a2 da 3c 7a ab 3e bc c6 a8 cf 3c 6b 05 13 39
       0.026688842 -0.011637563 0.025349032 0.00014021031
0002e0 78 b3 93 bb 38 63 df bb df 13 e1 3c f2 4e 9f 3b
       -0.0045074783 -0.0068172477 0.027475296 0.004861706
0002f0 97 95 75 bc a8 98 8b bc 40 75 c1 bc 01 63 6b bc
       -0.014989278 -0.017040566 -0.02361548 -0.014366866
000300 1d 01 90 bd 71 45 0e bc e4 6c 36 3d da 62 4c bc
       -0.07031462 -0.008683548 0.04453744 -0.01247474
000310 d1 a7 e6 bb 35 cd 40 3d 8d 80 53 3c a5 1f 6e bd
       -0.0070390482 0.0470707 0.012909067 -0.058135647
000320 3c b5 11 be 9a e8 e3 3c e2 25 ba b7 e0 12 14 bc
       -0.14229292 0.027820874 -2.2190568e-05 -0.009037703
000330 f2 bd c9 bd db 91 81 bd b8 da 89 3c 03 d5 0e bd
       -0.09850682 -0.06326648 0.016827926 -0.034871113
000340 5d b1 c0 bc 64 b4 89 3b d1 8f 98 3c 1b e5 30 3c
       -0.023522073 0.0042024124 0.018623265 0.0107968105
000350 06 13 4e bd 9a 79 45 3d 29 06 1d be 0b 8b 2e be
       -0.05031111 0.04821167 -0.15334381 -0.17045228
000360 a9 72 02 be 49 11 8e 3a c3 67 ba bd e6 b0 00 bd
       -0.12739052 0.0010838892 -0.09101822 -0.031418703
000370 32 43 ec bd fc 17 ea bc fc 2d 78 bc dd 52 8d bc
       -0.11536254 -0.02857589 -0.015147682 -0.017251426
000380 64 f1 a6 bd e6 ff b8 bb 4d b0 0b 3d 8c 11 b8 ba
       -0.0815151 -0.00564574 0.03410368 -0.0014043315
000390 c3 ea 59 bd 21 cc 27 be f6 08 b2 bd ec ff 77 bd
       -0.0532024 -0.16386463 -0.086931154 -0.0605468
0003a0 91 09 44 3c 5e 4c 27 bc fa 4a 30 3c 0d b6 2a bd
       0.011965171 -0.010211078 0.010760063 -0.041677523
0003b0 93 26 8a 3d 14 e7 da bc 9a b3 86 bb 8c e9 19 bd
       0.06745639 -0.026721515 -0.0041107656 -0.037576243
0003c0 3b e3 09 3d f1 8d 4e 3d 57 bb 0e be 94 05 13 bc
       0.03366397 0.050428335 -0.13938652 -0.008973498
0003d0 65 86 37 be d2 27 09 3c 3c d3 3d bb 69 07 72 bd
       -0.17922361 0.00837131 -0.0028965017 -0.059089098
0003e0 a8 e6 df bc 62 fd 76 3d dd 1e 34 3c 3a f1 d8 bd
       -0.027331665 0.06030024 0.0109936865 -0.10592885
0003f0 60 f8 53 3b 49 01 b5 3b 35 1c 3f 3d 5a 98 12 be
       0.0032344088 0.005523835 0.04665776 -0.1431593

network_body._body_endoder.seq_layers.2.weight f4 [256, 256]
000000 ee 3d ed 3c d1 b9 46 bd b6 30 83 bd 75 ba 7f bc
       0.028960194 -0.048517052 -0.06405775 -0.01560842
000010 9a a4 5a 3d d4 5b 60 bd d8 aa ec bd 56 eb a0 3d
       0.053379633 -0.054775074 -0.11556023 0.07857387
000020 1b 16 24 bd 19 f4 b0 3c d7 fb 18 bd 70 09 9a bb
       -0.040060144 0.02160077 -0.03734955 -0.004700832
000030 85 a3 a9 bb 85 ef 53 bd 80 57 d6 3d 4b 0d b4 bd
       -0.0051769638 -0.051742096 0.10465908 -0.08791598
000040 40 c3 d9 bd a5 24 e2 bd 1d 56 9e bb 35 0e 89 bc
       -0.10632944 -0.11042146 -0.004832043 -0.016730407
000050 40 a3 f2 3d cf c2 c8 bd da 00 11 3d cd d3 ec 37
       0.11847544 -0.09802782 0.035401203 2.823202e-05
000060 d9 a6 f5 bb 32 41 18 be 92 7f 37 bc 07 52 cf 3a
       -0.0074966964 -0.1486862 -0.011199849 0.0015817293
000070 58 da 67 bd 9d 4e b6 bd 08 10 97 bd c4 fd 6c bd
       -0.056604713 -0.08901713 -0.073761046 -0.057859197
000080 fd 1b 4a be 3d 5a 45 3d ac 47 eb bd 4d 39 39 3c
       -0.19737239 0.04818176 -0.1148828 0.0113051655
000090 e6 77 f9 bd f4 ee 21 bc 2e 6f 36 3d 27 3a 44 3d
       -0.12181072 -0.009883631 0.044539623 0.04790702
0000a0 6e ee c0 bd ce fd cc 3d 72 36 9b bc a4 cb ab 3d
       -0.09420477 0.10009347 -0.01894686 0.08388451
0000b0 90 7e d7 3d 07 c2 0b 3e 86 de 88 3d 21 09 95 3e
       0.10522187 0.13648234 0.06683068 0.29108527
0000c0 65 72 ca 3c 2c fe 15 3e 57 e1 bf bd a3 e6 f2 bc
       0.02471275 0.1464774 -0.09369152 -0.029650992
0000d0 89 63 03 bc 97 28 bb 3c a3 b0 17 3e 9c bc 1c 3d
       -0.0080193365 0.022846503 0.14813475 0.03826581
0000e0 21 9b bc 3d d4 cc 13 3d 3e a1 ba 3d 49 a6 4a 3b
       0.09209276 0.03608401 0.09112786 0.0030921868
0000f0 fe 91 72 bc a3 de 4c bc dd a7 86 bd 26 31 1f be
       -0.014805315 -0.012504253 -0.06574986 -0.15546092
000100 f0 3f 8f 3b b5 6c 8c bc 1a ed 85 bd 63 85 05 bd
       0.0043716356 -0.01714168 -0.06539364 -0.03259791
000110 d2 0d be 3c 69 e9 3f bd b7 6b 6b 3d f6 25 ae 3d
       0.02319995 -0.046853457 0.05747577 0.08503334
000120 9d 1d c5 3d 87 e9 a8 bd e3 d8 5b bd 78 1b 9f bd
       0.09624789 -0.08247667 -0.053673636 -0.07768911
000130 f1 01 4f bd 87 b9 1f be 8c b3 cf bc 48 3a 80 bd
       -0.05053896 -0.15598117 -0.02535417 -0.06261116
000140 28 fa 9f bd ea ef 72 3d eb 0d 93 3e 3d 6d cd 3b
       -0.078113854 0.05931083 0.28721556 0.0062691257
000150 b4 8a 41 3d 4b 88 96 bd 33 f6 b1 bc be 35 06 bd
       0.04725142 -0.073502146 -0.021723842 -0.032766096
000160 01 a0 eb bb 1c a2 b7 3d 0e 7a 8c bc a2 3e be bd
       -0.007190705 0.08966467 -0.017148044 -0.0928929
000170 1a db 1a 3c 3b 0e 98 bd e1 c6 24 be e4 ed d1 bd
       0.009451652 -0.07424589 -0.16091491 -0.10250452
000180 c6 01 e1 3c 97 f7 38 3d 14 56 df bc d3 d3 f6 bd
       0.027466666 0.045157995 -0.027262725 -0.12052121
000190 5f eb 0b 3e af 89 d2 bd a4 f2 f5 3c d9 60 b4 3b
       0.13664006 -0.10280167 0.030022927 0.005504709
0001a0 2e b7 90 3d 3a 76 0f be 23 04 10 be bb 97 70 3d
       0.07066189 -0.14009944 -0.14064078 0.05873845
0001b0 05 16 1d be 4b 7c 09 3e 7c 5f 50 3d 31 b7 fb bd
       -0.15340431 0.1342632 0.05087231 -0.122908
0001c0 04 9e f7 3b fd f4 97 3c 81 f8 76 be 3e 97 6c 3e
       0.0075566787 0.018549437 -0.24118234 0.2310457
0001d0 aa ef a2 3d 71 06 19 3d dd be 6d bd 33 2f 98 bd
       0.079558685 0.03735966 -0.05804335 -0.074308775
0001e0 22 94 5b 3e 24 6c 4a bd 25 c8 33 3d 13 a9 93 bd
       0.21443227 -0.049419537 0.043892045 -0.07209983
0001f0 07 6c a3 3d e2 79 b5 bd 15 51 55 bd 26 12 61 3b
       0.07979589 -0.08861138 -0.05207928 0.0034343093
000200 e9 5c f0 bd 76 90 51 3d 8a c1 17 be 70 b8 42 bd
       -0.11736471 0.05116316 -0.14819923 -0.047539175
000210 da 0e b6 bb 21 ff 86 3c d8 11 23 3e c4 d9 d0 bd
       -0.0055559697 0.016479077 0.15924776 -0.101977855
000220 59 12 f6 3c fe f2 21 bd 9a 1e a7 bd a3 af bc 3d
       0.030038046 -0.039538376 -0.08160134 0.092131875
000230 a0 88 23 3e bd 1e b8 bc 23 a0 86 bc 38 6c 8f bd
       0.15970087 -0.022475595 -0.016433781 -0.07003063
000240 17 5b 04 3e cd 92 16 3d de d8 82 3d 6e 1a 1d 3d
       0.12925373 0.036761094 0.063890204 0.038355283
000250 22 c7 02 3e 7e 62 4b bd 87 91 bd 3d d0 8a 9d bc
       0.12771276 -0.049654476 0.09256273 -0.01923123
000260 26 f5 dd bd d2 d7 16 3e 3c 64 89 bd f5 83 13 3d
       -0.10837774 0.14730766 -0.06708571 0.036014516
000270 86 a8 6d bc 62 e2 60 3d 49 10 97 3d e0 75 8f bd
       -0.014505511 0.054903395 0.07376153 -0.07004905
000280 91 57 f6 3c 60 f6 87 bd 9d 05 4c ba 3a ac aa bd
       0.030071052 -0.06638789 -0.0007782819 -0.08333631
000290 e8 93 d2 3c 13 a5 b6 bc 33 fa 62 bd 27 40 13 bd
       0.025705293 -0.02229551 -0.05541439 -0.035949852
0002a0 ae 6d 08 be 73 2a 9a 3d b6 8f 2e bd 58 15 f6 bd
       -0.1332309 0.07527628 -0.042617522 -0.1201579
0002b0 a9 e2 b2 b9 de 6a da bd 44 d0 a8 bd ac 88 81 3d
       -0.0003411968 -0.106649145 -0.082428485 0.06324896
0002c0 51 87 43 bd 2b ab d1 bd ff 61 0f bd ff 5c a8 bc
       -0.04773647 -0.10237726 -0.035005566 -0.020552156
0002d0 95 44 01 be a2 98 23 bd 76 9a ad ba a7 93 42 3d
       -0.12623818 -0.039940484 -0.0013244885 0.047504093
0002e0 d2 52 fe bd f7 99 1e 3d c3 74 6d bd c3 7c f6 3c
       -0.124181405 0.03872105 -0.05797268 0.030088788
0002f0 fb c4 2d 3d 0d 93 0b 3d ff b8 8d bc 93 ef b6 bc
       0.042424183 0.034075785 -0.017300127 -0.022331035
000300 bf 21 07 bc af 21 66 3d 53 5e 8e bd 81 c4 ef bd
       -0.008247792 0.056184467 -0.06951585 -0.11707402
000310 48 c0 50 3d f6 dd 14 bd 8f ef b3 bb 1d 58 95 3d
       0.050964624 -0.03634449 -0.005491204 0.07292197
000320 6f 7f 7f 3b c7 ad ec 3d 7d cc f3 3c 50 ec 50 bd
       0.0038985868 0.11556583 0.029760594 -0.051006615
000330 3a e4 05 3d bc 2e cc bd e8 0b dc ba 58 0d 58 bc
       0.032688357 -0.099698514 -0.0016788216 -0.013186775
000340 5a a0 cf 3c 52 a1 a3 bd 7e 79 37 bd 08 70 a1 bc
       0.025345016 -0.07989754 -0.0447936 -0.019706741
000350 fe d8 b9 bd cd 15 13 3d eb d7 51 3d 60 f5 97 3c
       -0.09074591 0.035909463 0.051231306 0.018549621
000360 70 76 0f bb bf 19 f2 3d 41 a2 f7 bc a9 25 a0 bd
       -0.0021890663 0.11821317 -0.030228736 -0.07819683
000370 53 05 51 bd 0e d6 a4 bd 9b 24 23 be 64 5c fe bd
       -0.05103047 -0.0804864 -0.15931933 -0.12419966
000380 a2 0c 49 3c 33 e3 81 bc 01 60 06 3d dc 22 75 3b
       0.012271078 -0.015855407 0.0328064 0.003740481
000390 1a c1 b1 bb 65 a7 91 bd ad 9f 01 3c bc f2 1d 3c
       -0.005424631 -0.07112006 0.007911605 0.009640392
0003a0 25 e7 27 3c b3 9c 99 bc 95 b4 ab bc d7 93 fc bc
       0.01024798 -0.018751478 -0.020960132 -0.030832214
0003b0 47 96 4c 3d 8f f6 85 bd 3e 2e db 3d a2 ef 4b bb
       0.049948003 -0.06541168 0.10702179 -0.0031118174
0003c0 ee fa 00 be 09 ad 0c 3e 51 38 88 3c 90 ac 95 3d
       -0.12595722 0.13737883 0.016628416 0.07308304
0003d0 e6 26 16 be 07 70 87 bc f8 a1 b9 3c 22 66 9c bc
       -0.14663276 -0.016532911 0.02266024 -0.01909167
0003e0 7c 37 93 3c fe 40 ae bd 4d 90 ab bd b0 51 f2 bc
       0.017970793 -0.0850849 -0.083771326 -0.029579967
0003f0 4e 87 e5 3c fc 2a 20 bc a2 95 3a 3e 22 de c3 3d
       0.02801862 -0.009775873 0.18221143 0.09563853

network_body._body_endoder.seq_layers.2.bias f4 [256]
000000 34 37 21 3d a2 11 19 bc 36 87 35 3c 55 70 27 3d
       0.039359286 -0.009342583 0.0110796 0.040878613
000010 8a e3 0e bd f4 d8 20 bd 02 dc d8 3b 6c be 10 bd
       -0.034884967 -0.039269403 0.006618024 -0.03533785
000020 1d 1f e3 3c ee e4 b5 3c 58 00 ef 3c a6 17 f6 3c
       0.027724797 0.022203889 0.029174969 0.030040573
000030 e5 a9 54 3d f3 8a 48 3d eb 80 5a bc b0 b7 2b 3d
       0.051919837 0.048960637 -0.0133364005 0.041923225
000040 2a ee 63 3d 7a 83 a4 3c f0 fd d5 3c e2 9d ca 3c
       0.055647053 0.020082224 0.026122063 0.024733488
000050 62 79 78 bc ef 87 1a 3d 41 19 cd 3a 84 2c c6 3c
       -0.015165659 0.037727293 0.0015647785 0.024191149
000060 6a cf 1f 3d f2 8c cb 3c d5 c5 09 ba 5e 8d 01 bd
       0.039016165 0.024847481 -0.00052556145 -0.03162896
000070 dd 5b 33 3c a8 b1 4e 3d c4 d1 4d 3d 87 e3 7a 3c
       0.010947195 0.050462395 0.050248876 0.015313036
000080 24 13 46 3d 33 1c 65 3d 89 94 9c 3c c1 f0 f5 3b
       0.048358098 0.055935096 0.019113796 0.0075055067
000090 6d 34 5d 3d fa 84 cb 3c fa e6 03 3d 5c 01 b7 3c
       0.054005075 0.024843682 0.0322027 0.022339515
0000a0 59 a4 70 3c 56 66 13 3d e6 c3 27 3d b9 66 f3 3c
       0.014687621 0.035986267 0.040958308 0.029712068
0000b0 ca a7 c1 ba 89 dc 17 3d 7d 36 41 3d f1 49 ba 3b
       -0.0014774736 0.037075553 0.047171105 0.005685084
0000c0 ec 41 54 3d 50 3b 8d 3d 0b 0a 58 3c 86 c9 bd 3c
       0.05182068 0.068960786 0.013185988 0.023167383
0000d0 c8 d6 03 bd a3 c0 80 3c 84 b0 00 bd 1a ba 36 3c
       -0.032187253 0.015716856 -0.03141834 0.0111527685
0000e0 2c 36 43 3d 59 58 e4 3c a9 3e 2f bc 32 74 49 3d
       0.047659084 0.027874159 -0.010696092 0.049183078
0000f0 3f 0a 34 3d ab 11 f0 3c cc 6d 35 3c 8c 16 6e 3d
       0.043955084 0.0293053 0.011073541 0.05812697
000100 29 63 13 3d da c6 9e 3c fb fb ae ba cf 54 6e 3b
       0.03598324 0.01938193 -0.0013350243 0.0036366468
000110 1a f5 36 3d 51 f4 ca 3c b6 66 77 3c 0b d9 3d 3d
       0.04466734 0.024774702 0.015100172 0.046349566
000120 ac d4 2f 3d c8 b9 3f 3d 2c 4b c6 3c ed b5 10 3d
       0.04292743 0.046808034 0.024205767 0.035329748
000130 15 61 9e 3c ba 07 16 3d 9d af e3 3c 5a 30 d2 3c
       0.019333402 0.036628462 0.0277937 0.025657821
000140 89 78 56 3c 0e 03 29 3d 74 60 06 3d a5 cd 71 3b
       0.013090261 0.04126268 0.03280683 0.0036896255
000150 a0 96 7e 3b d8 87 7e 3c 08 2b 16 3c f6 4d 06 3d
       0.0038847104 0.015535317 0.009165533 0.032789193
000160 40 bf 61 3d 48 39 26 3b da 26 59 3c eb 7f 27 3d
       0.05511403 0.0025363732 0.013253892 0.040893476
000170 55 4d 4b ba 9a 2b ae 3c eb 23 be 3c 62 7d 94 3c
       -0.0007755359 0.021261025 0.023210486 0.018126193
000180 58 ed 9c 3b 01 bb 71 3d 15 64 4f 3d 65 19 38 3d
       0.004789036 0.05901623 0.050632555 0.044946093
000190 3b 83 1f 3d 8e 98 17 bc ee 53 0e 3d 34 9d 3e 3d
       0.03894351 -0.00925268 0.03474801 0.04653664
0001a0 6c 6c 34 3d 45 b7 62 3c 2f 53 86 3c b4 c5 48 3d
       0.04404871 0.01383764 0.016397087 0.04901667
0001b0 3a 0b 48 bc 9d bb e8 3b 7e 44 38 3c f9 32 34 3d
       -0.012209708 0.0071024434 0.011246799 0.043993924
0001c0 ce e9 6c 3d 10 a3 63 3d 3a 97 ff 3c b2 36 0b 3d
       0.05784016 0.05557543 0.03120004 0.03398771
0001d0 59 e3 03 3d c1 78 69 3b a5 f2 67 3d 78 43 27 3c
       0.032199237 0.0035624953 0.05662789 0.010208957
0001e0 cf 2b 00 3d 67 2c e0 3c 4a 0f 4f 3b 08 46 37 3d
       0.03129178 0.027364923 0.0031594806 0.04474452
0001f0 78 0b 34 3b 67 b2 d9 3c ce 88 05 3c 9e ca bf bb
       0.0027472656 0.026574327 0.008150293 -0.0058530113
000200 ce 51 19 3c 4c 81 40 3d e4 ba 4c bb 2b ca 5e 3d
       0.009357883 0.046998307 -0.0031239325 0.05439202
000210 68 7c 2e bc d5 5b 54 3d 08 ac a2 3c 7e c9 2c 3d
       -0.010649778 0.05184539 0.019857422 0.042184345
000220 06 4e a5 3c fd ee 22 3d 4f 86 07 3d 06 c5 ce 3c
       0.020178806 0.0397787 0.03308707 0.025240432
000230 b8 15 48 3d ac bd 33 3d 25 10 0d 3b 13 0e 3f 3c
       0.048848838 0.043882057 0.0021524515 0.01166107
000240 6e 43 07 bd 7c df 3d 3d 70 0c fa bb 62 d1 dc 3c
       -0.03302329 0.04635571 -0.007630877 0.02695531
000250 a4 09 07 3d 9a 45 ea bc f3 1f 0b 3d 49 6a a1 bb
       0.03296818 -0.028597642 0.033966016 -0.0049260003
000260 78 13 ff 3b 49 1a 5f 3c 0d c9 d1 bb 69 64 84 bc
       0.0077843033 0.013617107 -0.006402141 -0.01616116
000270 f6 29 d7 bb 5f b9 27 3d 3e e4 78 3d e6 b5 3a 3d
       -0.0065662814 0.040948268 0.060764544 0.045583628
000280 99 fc 94 3c 9f 84 49 3c 86 e0 07 3d 3e 44 34 bd
       0.018186854 0.012299686 0.033173107 -0.044010393
000290 25 49 3c 3d 79 4b 98 3c b7 89 56 3a 7f ff 67 3d
       0.045968194 0.018590676 0.0008183973 0.056640144
0002a0 04 d9 b9 bc 51 74 73 3d d3 d0 2a 3d 88 3d 63 bb
       -0.022686489 0.0594371 0.041703057 -0.0034674127
0002b0 29 9b 05 3d 65 e4 52 3d 93 d0 98 3b 26 f1 30 3d
       0.032618675 0.051487345 0.004663536 0.043198727
0002c0 5f a1 da 3c 01 c1 0f 3d 53 e6 98 3c 14 1d 22 3c
       0.026688276 0.035096172 0.018664515 0.009894628
0002d0 77 91 02 3d 80 9c 4f 3d 09 d2 f4 3c 6c 44 b5 b9
       0.031877007 0.05068636 0.029885309 -0.00034573989
0002e0 e9 fd 12 bc 8d af 00 3c a1 43 46 3d 76 91 22 3d
       -0.00897167 0.007854355 0.04840434 0.039689504
0002f0 f0 53 80 3c eb 45 2f 3d c1 ae d6 3b 43 c8 47 3c
       0.015665025 0.04279129 0.006551594 0.012193742
000300 8b 1f 5e 3d 39 c0 7c 3d 99 a5 56 3d b1 38 96 3c
       0.0542293 0.061706755 0.05240402 0.01833758
000310 a0 0f 1a bd 02 c2 77 3c ed 27 08 3d c4 bb 67 3d
       -0.037612557 0.015121939 0.0332412 0.05657555
000320 4d b5 a8 3c dd 48 d9 3c f7 2d 67 bc ea 9c 1e 3d
       0.020594263 0.026524002 -0.01411008 0.038723864
000330 b0 4e 07 3d 8d f8 0e 3d d0 bb 15 3d 28 93 ea 3b
       0.033034027 0.034905005 0.036556065 0.0071586557
000340 03 4f 40 3d fe 37 0c 3d e6 d1 ab bb da 58 45 3d
       0.04695035 0.034233086 -0.0052435277 0.04818044
000350 6f 1d 89 3d 7f b6 2e 3d 8b 1f 4b 3d 46 8f 4a 3d
       0.06695067 0.04265451 0.04959063 0.049453042
000360 08 ba 09 3d f6 57 8a 3d de 39 39 3d 35 20 b9 3c
       0.03362468 0.067550585 0.045221202 0.022598365
000370 65 e5 4e 3d 09 16 0e 3d 62 09 35 3d 59 f5 a7 3c
       0.050511736 0.034688983 0.0441984 0.020502733
000380 e8 24 42 bb c2 49 0a 3b 96 34 1b 3d 55 37 6e 3d
       -0.0029624049 0.0021101092 0.037891947 0.058158237
000390 9f f1 3a 3c 70 e0 63 3d e7 a9 eb 3c c1 b5 48 3d
       0.011410146 0.055633962 0.02876754 0.04900146
0003a0 5b 12 b0 3c 8d 9b b0 3c 04 3e 01 3d ba 49 25 3d
       0.021493128 0.021558547 0.031553283 0.040353514
0003b0 48 02 01 3d e7 82 23 3d ce be 01 bd 6e 54 2a 3d
       0.031496316 0.03991976 -0.031676106 0.041584425
0003c0 5d 07 ad 3c 11 04 42 3d 05 b6 c8 3c 39 c1 25 3d
       0.021121675 0.04736716 0.024500856 0.040467475
0003d0 6f 7b 14 ba 87 4b 48 3c f7 7a f2 3b ad 05 94 3b
       -0.0005664145 0.012225038 0.0073999125 0.004517278
0003e0 57 4f 4d 3d f8 f5 15 bc 67 f5 f1 3c 97 e8 e3 3b
       0.050124492 -0.009152882 0.029535962 0.006955217
0003f0 cf 6a b2 3c 1f b9 1f 3d cb fb 2a 3c 10 77 bc bb
       0.021779446 0.038994905 0.010436009 -0.005751498

action_model._discrete_distribution.branches.0.weight f4 [2, 256]
000000 e6 bf 53 bd ee de cb 3c 13 81 32 3d 13 37 26 bd
       -0.05169668 0.024886575 0.043580126 -0.040579867
000010 70 e0 ac 3b 16 85 9c 3a 0f 4b 5e 3d b4 29 1b bc
       0.0052757785 0.0011941518 0.0542708 -0.009470392
000020 e5 3a 8a 3a 55 5f 9a 3d a4 8d 43 3d 52 15 82 3d
       0.0010546116 0.075377144 0.0477425 0.06351723
000030 8a ca 90 bd fc 17 7a 3d 6c a7 bd 3c 2c 03 a8 3d
       -0.07069881 0.06105803 0.023151122 0.0820373
000040 e6 a3 33 3d 0f 31 ac bb 2d b8 93 3c a9 9e d9 3c
       0.043857478 -0.0052548717 0.018032158 0.026564913
000050 a3 ef b1 3c 3b e2 a5 3d 61 43 09 3d cb fb 36 3d
       0.021720713 0.08099791 0.033511523 0.044673722
000060 5d 76 f8 bc 54 f6 35 bd d2 bd d1 3c bf 55 3d 3c
       -0.030329878 -0.04442437 0.025603209 0.011556088
000070 49 46 3e 3d fe 80 c1 bc 2d 5c 65 3d af 0b 28 3d
       0.046453748 -0.023621079 0.05599611 0.041026767
000080 4e f9 fe 3c 6d 42 02 3d 94 e9 3a 3d b0 fa 0a bd
       0.031124737 0.03180163 0.045632914 -0.03393048
000090 bb fd a2 3d f7 03 38 3d b1 70 a8 3d 16 da 04 3c
       0.079585515 0.044925656 0.08224619 0.008108636
0000a0 32 79 aa bc 0d 21 eb bc ab a3 2e bc 8d c6 06 3d
       -0.020809744 -0.028702283 -0.010659139 0.032904197
0000b0 52 87 b2 3c f8 f9 a0 3d c9 9f 40 bd 1a 63 5c 3c
       0.021793041 0.07860178 -0.047027383 0.013451362
0000c0 d2 3d 96 bd 9a a5 68 3c 18 21 ba 3c 04 3a 5d bd
       -0.0733601 0.014199639 0.022720858 -0.054010406
0000d0 f7 c5 5b bc 71 6a 74 bd 12 28 49 bc f8 65 22 3d
       -0.013413898 -0.059671823 -0.01227762 0.039648026
0000e0 53 02 d5 bb f2 cd bb 3b de 1c 91 bc 47 e5 00 bc
       -0.006500521 0.0057313377 -0.01771396 -0.007867164
0000f0 48 13 1d bd ee 4d 81 bc 53 70 d7 bc e2 1f 84 bd
       -0.038348466 -0.01578423 -0.026298678 -0.06451394
000100 35 67 81 bd 70 8c 01 3d c8 3e b5 bc bc e2 40 3b
       -0.06318513 0.031628072 -0.022124663 0.002943202
000110 ce 53 52 bd 42 45 b6 3c f5 c5 7f bb 33 22 0b 3d
       -0.051349454 0.022249822 -0.0039027904 0.03396816
000120 eb 24 dc 3c 46 53 ac 3d a2 aa 47 3d 09 8f 8a 3d
       0.026873073 0.08414321 0.048746713 0.06765563
000130 c2 27 84 bd d2 0e 79 bd 6f 54 8f 3d 65 cb 8a 3d
       -0.06452896 -0.06080515 0.06998526 0.06777076
000140 79 89 85 3a b2 28 b0 3d 48 4d 95 3b 11 51 f7 3c
       0.0010188065 0.08601512 0.004556332 0.030190023
000150 6f f1 03 bd c0 69 16 3d 59 36 24 bd 0f 1e 16 bd
       -0.03221267 0.036721945 -0.040090892 -0.03664976
000160 3e 66 85 3d cb fc 90 bc ca 3d 6f 3d b5 c7 99 bc
       0.06513642 -0.017698666 0.058408536 -0.018771986
000170 8c 17 d7 3b 15 f9 81 3d 1f cb 7b 3d a8 1a a6 3c
       0.0065640863 0.06346337 0.06147301 0.020276383
000180 15 7f be bc c6 0e 5d 3d fe ec bc 3d 80 ef 4f bd
       -0.023253957 0.053969167 0.0922489 -0.050765514
000190 d2 dc 03 bd dd e7 a0 bc 5c 95 00 3c 13 d8 45 bd
       -0.032193013 -0.019641811 0.00784811 -0.048301768
0001a0 b5 16 56 3d 69 e3 3e 3d d3 01 ba 3c 03 a0 65 3d
       0.05226775 0.046603594 0.022705948 0.056060802
0001b0 da bf b2 3c 79 ec eb 3c fd 89 16 3d a1 38 9f 3d
       0.021819998 0.028799282 0.03675269 0.07774473
0001c0 56 01 98 3d 14 b8 aa 3b 9c 5a 77 bd c0 9d 22 3d
       0.0742213 0.005209932 -0.060389146 0.039701223
0001d0 c9 d4 58 bb cd 2a d8 3c df 88 5a 3d 3a dc f3 3c
       -0.0033085814 0.026387597 0.053353187 0.029768098
0001e0 d7 e4 9e bc 42 3a d3 3c da a6 a6 3c 6f 94 3f 3d
       -0.019396229 0.025784615 0.020343233 0.046772417
0001f0 b6 56 02 3d d3 82 78 3d 43 21 82 bc c3 86 77 3c
       0.031820975 0.06067164 -0.015885001 0.015107813
000200 59 6e 05 bc 7f 70 06 bd a1 11 84 3c ef cb ad 3c
       -0.008143985 -0.03282213 0.016121687 0.021215407
000210 9e d7 69 3c 03 2b 8d bd e1 c8 be bd 7f f3 1b bd
       0.014272599 -0.068929695 -0.09315658 -0.038074013
000220 42 46 28 bd 16 4b ab 3d 50 8f 81 3d b8 96 6e 3d
       -0.041082628 0.08363931 0.06326163 0.058249205
000230 c1 3c 8a 3d 06 21 2d bd fe 47 ef 3c 64 1f c0 bc
       0.06749869 -0.04226782 0.029209133 -0.023452468
000240 25 d5 b8 bb ce 96 76 bd 85 56 17 3d 1a ac 6a bd
       -0.005640643 -0.060202412 0.036947746 -0.057293035
000250 63 af 78 3c 63 71 cf 3b ab 10 76 3d 53 69 a2 3c
       0.015178534 0.0063306554 0.06007449 0.019825613
000260 ca 67 0b bd 70 cf 5d 3c 42 6a ea 3c 57 c8 8e 3c
       -0.034034528 0.0135382265 0.02861512 0.017429514
000270 7d 51 05 3d 24 bf dd bc 22 69 db bc 84 12 bd bc
       0.032548416 -0.027068682 -0.02678353 -0.023080118
000280 0a 6c 74 3d b6 f9 1e bd 2d 5f 77 bd c1 8e 1c bc
       0.059673347 -0.03881236 -0.0603935 -0.00955552
000290 dd 49 73 bc cc 74 87 bb 8d 14 d1 3c 91 b8 8c bd
       -0.014849153 -0.0041337963 0.025522495 -0.06871141
0002a0 2b 1b d0 3b 2a 2b fa bc b8 14 c5 3b 1a ce 24 3c
       0.006350895 -0.03053816 0.0060144328 0.010058904
0002b0 02 d1 83 3d 36 b4 51 bd 50 33 39 3c 41 ff 89 bd
       0.064363495 -0.051197253 0.011303738 -0.06738139
0002c0 e7 75 44 3d 7b 39 4b bd fe 66 75 3d 00 58 ea 3c
       0.047964003 -0.049615365 0.059912674 0.028606415
0002d0 0a 1d 52 bc 1f 65 a5 bd 84 61 8d 3d f8 d4 d0 3c
       -0.012824306 -0.08075928 0.06903365 0.025492176
0002e0 41 04 17 bb e4 a5 21 3d f3 9e 06 3c 3a 45 a0 3d
       -0.0023043307 0.039464846 0.008216607 0.07825704
0002f0 34 8f b1 bc 1b 21 0f 3d 41 38 28 bd 27 76 43 bd
       -0.02167473 0.03494368 -0.041069273 -0.0477201
000300 57 8f ab 3d fe 6a 87 bd 5c 3c 92 bc b1 99 61 3d
       0.08376949 -0.06612204 -0.017851047 0.055078212
000310 23 d3 13 bc f3 a9 e1 bc bf 4f cf 3c a9 73 4e bd
       -0.009022507 -0.027546858 0.02530658 -0.05040327
000320 c9 e4 23 3b ec 25 a6 3c 02 0f 06 3d 99 6e 35 3d
       0.0025008193 0.020281754 0.032729156 0.044294927
000330 c7 31 6c 3d e1 5e c5 3d 3f ae e9 3b 21 a7 45 3d
       0.05766466 0.09637237 0.0071313675 0.04825509
000340 86 24 3e bd 04 32 12 ba 43 21 14 3c 88 6f f6 bc
       -0.04642155 -0.0005576911 0.009041133 -0.03008248
000350 1e 32 f6 bc ee 20 3d 3d 93 cc 91 bd cd 75 2b bc
       -0.030053195 0.046173982 -0.071190976 -0.010465098
000360 4d 2d 49 3d 41 c0 b4 3d 6f 35 a0 3c bc 36 13 3d
       0.049115468 0.08825732 0.01955673 0.03594087
000370 0c 7d cc bc 9c 13 51 3d 11 6c 83 bd ba f1 78 3d
       -0.02496197 0.05104409 -0.064170964 0.060777403
000380 50 74 ef 3c 71 83 6d 3c a3 72 17 bd 99 33 a1 bc
       0.029230267 0.01449667 -0.03697456 -0.019677924
000390 c0 e4 47 3d 16 3d 15 bc e8 09 38 3c 13 46 d6 3c
       0.048802137 -0.009108802 0.011232831 0.02615646
0003a0 f4 c5 80 bd 25 e9 d7 3c 8b 5f 71 bd 6a 14 9c 3d
       -0.062877566 0.02635629 -0.058929008 0.07621081
0003b0 bf 9a b5 bc 3c 63 8e 3d 88 a0 43 bc 7e be 0c bd
       -0.022168515 0.06952521 -0.011940129 -0.034361355
0003c0 95 04 b8 3c 28 c3 63 bd 48 cc 6b 3d 1a 75 28 3d
       0.022463122 -0.055606037 0.057567865 0.0411273
0003d0 d1 6b 7e 3c 93 93 5f 3b 15 11 40 3d 69 d8 1d 3d
       0.015528635 0.003411506 0.04689129 0.038536463
0003e0 7b 5a 9d 3c 7c 7f dd 3c ee 97 6d 3c f6 c5 c5 bc
       0.019208184 0.027038328 0.014501555 -0.024142247
0003f0 bf dd 9f ba bd 79 8b 3d 26 2a 0d 3d 01 8b 08 3c
       -0.0012196823 0.06810329 0.034464024 0.008333922

action_model._discrete_distribution.branches.0.bias f4 [2]
000000 92 6f df 3b 74 6f df bb
       0.00681872 -0.006818706

action_model._discrete_distribution.branches.1.weight f4 [2, 256]
000000 bb 4d 5a bd 9e 1f b0 3c 8e 3e 1a 3d 12 d4 cd bc
       -0.053296786 0.021499451 0.037657313 -0.025125537
000010 19 7d 0f 3c 97 d6 85 bb 14 b9 39 3d d1 58 30 3c
       0.008757853 -0.004084419 0.04534252 0.010763363
000020 22 41 71 3d 4d 86 63 3d 91 89 f0 3b 30 11 ea 3c
       0.058900006 0.055548 0.007340618 0.028572649
000030 89 a4 14 bd 47 a3 89 3d ff 17 12 3c aa 61 a5 3d
       -0.036289725 0.06720596 0.008916854 0.080752686
000040 3b e6 92 3d 58 9a d7 3c 3e 88 1b 3d ed 3a 5c 3d
       0.07172819 0.026318714 0.037971728 0.053767134
000050 1c 65 6e 3c 27 c9 69 3d 60 79 2a 3d bf 84 9a 3d
       0.014550474 0.0570766 0.04161966 0.075448506
000060 88 ce 21 bd cc c6 1b bd d1 ae dd 3c 28 2f 66 3c
       -0.039503604 -0.038031384 0.027060898 0.014049329
000070 b1 00 d2 3c e0 65 a2 3c e6 80 7b 3d 2c 26 37 3d
       0.025635095 0.019823968 0.061402224 0.044714138
000080 98 d0 1c 3d fa 6d 81 3d 93 0b 77 3d 55 dc 8f 3c
       0.038284868 0.063198045 0.060313772 0.017561117
000090 89 a5 d8 3d 35 43 31 3d 03 87 3a 3d b0 0d 74 bd
       0.10578448 0.043276984 0.045538913 -0.059583366
0000a0 16 03 95 bc 87 06 fb bb d0 ae 28 bd 5c 0c 16 3d
       -0.018189948 -0.00766069 -0.04118234 0.03663288
0000b0 54 fa 9c 3c 33 fd 66 3d 23 06 02 bc f4 0d 56 3c
       0.019162335 0.056393813 -0.007936033 0.01306485
0000c0 0b 75 3b bd 5f f0 47 3d c6 c9 b5 bb 22 3e 03 bd
       -0.045765918 0.04881322 -0.005547735 -0.032041676
0000d0 c0 4c c6 3b 9f d4 87 bb 8c c5 44 3c 62 96 14 3d
       0.00605163 -0.0041452195 0.0120099895 0.03627623
0000e0 2f 19 2b 3d 6d f6 92 bc 63 9a f4 3b fd 13 5d 3c
       0.041772064 -0.01793977 0.0074646934 0.013493535
0000f0 02 53 8b bc 88 c5 db bc 70 4d ad bc f8 4e 88 bd
       -0.017007355 -0.026827589 -0.02115509 -0.06655687
000100 41 c3 dd bc 17 77 39 3d 7e f1 8b bc ca 0e d5 bc
       -0.027070643 0.04527959 -0.017082926 -0.026008029
000110 ea 97 54 bd a3 49 62 3d da c1 43 bb 4a e0 cb 3c
       -0.05190269 0.055246007 -0.0029870183 0.024887223
000120 04 c3 21 3d 2d c8 99 3d 46 2f 4b 3d 04 0c b3 3d
       0.039492622 0.075088836 0.04960563 0.08742526
000130 30 39 da bc 45 7c 63 bd bb d7 77 3d 74 d1 a7 3d
       -0.026638597 -0.055538435 0.06050847 0.08194247
000140 8e 05 25 3c ce 79 64 3d 7c 0b e0 bc 7b d4 f6 3c
       0.010072125 0.055780225 -0.027349226 0.030130615
000150 4b 7c c1 bc d7 4f e4 3c 8a e0 e9 bc c2 7c ff bc
       -0.023618838 0.027870102 -0.028549451 -0.031187419
000160 cf 1d 2f 3d 75 14 da 3b 06 fc 41 3d 4d a4 83 bd
       0.042753037 0.0066552707 0.04735949 -0.06427822
000170 dd 9e 80 3c de 77 5a 3d 15 e5 15 3d ba c5 e1 3c
       0.015700752 0.05333697 0.036595423 0.027560104
000180 e3 ae 95 bc 96 cf bb 3d 09 64 b0 3d 18 b3 16 bd
       -0.018271869 0.09170453 0.0861283 -0.03679189
000190 7f 49 c1 bc 37 78 f7 bc a6 38 e4 3c cd 7c 92 bc
       -0.023594616 -0.03020869 0.027859043 -0.017881775
0001a0 6f 09 f4 3c 70 09 92 3c 1a 76 1d 3d c9 10 8d 3d
       0.029789655 0.017826766 0.03844271 0.06887967
0001b0 41 b0 5d 3c 24 d5 57 3d fd 83 d1 3c 60 70 a2 3d
       0.013530792 0.0526935 0.025575632 0.0793159
0001c0 9e 60 ba 3c 47 3e 83 3b 34 1d 4a bd 10 95 68 bc
       0.022751149 0.004005227 -0.049344257 -0.0141956955
0001d0 60 63 3a 3c 1b d3 6e 3d 23 cd 8f 3d 80 64 a7 3c
       0.011376232 0.058306795 0.070215486 0.020433664
0001e0 f9 d0 c8 bc 1c 7c 17 3d 72 37 eb 3c 54 2f 4d 3d
       -0.024513708 0.036983594 0.028712962 0.050093964
0001f0 46 b0 10 3d 75 13 90 3b 2e 52 1a bd d3 d3 48 3d
       0.035324357 0.0043968507 -0.03767603 0.049030136
000200 c0 32 67 bc c0 20 d6 bc 5a 81 1b 3c 22 25 1b 3d
       -0.014111221 -0.026138663 0.009491289 0.03787721
000210 bc 93 55 3c 9a a7 92 bd 57 f4 3c bd 06 db 4f bd
       0.013035711 -0.07160874 -0.046131458 -0.050745986
000220 30 fe 2d bd f4 0b 52 3d 8d cb b9 3d de 65 26 3d
       -0.04247874 0.05128093 0.09072027 0.040624492
000230 86 67 72 3d 9e a9 1a bd 73 29 30 3d 5a e9 c6 3c
       0.05918076 -0.037759416 0.04300828 0.024281193
000240 22 6b 16 bc 94 4b 6b bd be d5 ec 3c 1b 74 2d bd
       -0.009180816 -0.057445124 0.028910514 -0.042347055
000250 a7 4d 18 3d c1 8d 9c 3b 0a 3e 4a 3d ca 74 e1 3c
       0.03718343 0.0047776406 0.04937557 0.02752151
000260 0e ec 21 bd d4 88 ec 3c b1 3e 33 3d 67 8e 0a 3b
       -0.03953176 0.028873838 0.04376096 0.0021142007
000270 e0 8a e4 3c d3 1c 32 bd 46 60 35 bd d2 e2 20 bd
       0.027898252 -0.04348452 -0.044281267 -0.039278813
000280 6b 7d 68 3d cf 99 c6 bc 80 b1 45 bd 83 2e 16 bc
       0.056760233 -0.024243264 -0.04826498 -0.009166363
000290 df 02 44 bd 96 dc f2 3b 5c 91 32 3d f4 e2 32 bd
       -0.0478543 0.00741155 0.043595657 -0.04367347
0002a0 6f 41 31 bc c9 1b 1c 3b 2d 46 ff 3c 2c e0 4d 3c
       -0.010818823 0.0023820272 0.031161392 0.012565654
0002b0 b8 cf 8f 3d 74 ea 2e bd 70 be 07 3c e9 c8 7a bc
       0.07022041 -0.04270406 0.00828515 -0.01530669
0002c0 77 fb 4b 3d c3 e2 2d bd 02 c7 4a 3c 2c 76 34 3d
       0.049800362 -0.042452585 0.012376549 0.04405801
0002d0 ab 61 af 3c c0 a5 5f bd dd 0c 38 3d 38 99 59 3c
       0.021408876 -0.05460143 0.044934142 0.013281159
0002e0 cf e2 3d 3c f7 e0 53 3d 22 0f 3e 3d 6b 44 97 3d
       0.01158972 0.051728215 0.04640115 0.073860966
0002f0 b9 d6 3a bc c8 38 80 3d 44 aa df bc 53 fb bc bb
       -0.011403733 0.0626083 -0.027302869 -0.005767265
000300 ca 97 38 3d eb 4a 7b bd d8 45 33 bd 15 2d 6f 3d
       0.045066632 -0.061350744 -0.04376778 0.058392603
000310 dc cb 0c bc e9 32 05 bd 77 76 8f 3d b0 12 73 bd
       -0.008593526 -0.032519255 0.07005017 -0.059343994
000320 3e 0b 04 bd c4 9d d3 3c 16 db 92 3c 1f 88 6f 3d
       -0.032237284 0.025832064 0.017926734 0.058479425
000330 41 98 80 3d 4a fb a3 3d c1 f2 b7 3c d2 41 4e 3d
       0.0627904 0.08006914 0.022454621 0.05035574
000340 eb 91 2b bd b8 3a eb 3b ed 58 84 3c 0d 6c 0a bd
       -0.041887205 0.0071786307 0.016155684 -0.03379445
000350 21 6a 85 bb 5d 9a e7 3c d0 71 91 bd d9 80 17 bd
       -0.0040714894 0.028271848 -0.07101786 -0.036988113
000360 29 d0 0d 3d 34 28 b6 3d bb 47 26 3d 04 05 48 3d
       0.034622345 0.08894387 0.04059575 0.04883291
000370 e0 dc f0 bc fb 3e e2 3c 5a 25 2c bd 55 46 ef 3c
       -0.029402196 0.027617922 -0.04202781 0.029208342
000380 9d f1 98 3c 0d 23 f6 ba 20 37 2e bd 21 b5 ac 3c
       0.018669898 -0.0018778756 -0.04253304 0.021082463
000390 3b da 30 3d d2 b0 93 3c e8 26 53 3d e3 5c a6 3d
       0.04317687 0.01802865 0.051550776 0.081231855
0003a0 b2 3e 35 bd 87 fb e8 bc 54 df 41 bd 03 52 b0 3c
       -0.044249244 -0.02844025 -0.047332123 0.021523481
0003b0 7f 55 14 bd 06 2c 8a 3d 0b 36 5a 3c 99 59 c7 3a
       -0.036214348 0.06746678 0.013318549 0.0015209197
0003c0 e0 93 99 3c 71 09 91 bd 92 37 7c 3d df 5f cf 3c
       0.01874727 -0.07081879 0.061576433 0.02531427
0003d0 4c 4b 35 3d 5d 02 82 bc f8 ba 99 3d c0 7c 6e 3d
       0.04426126 -0.015870268 0.075063646 0.05822444
0003e0 7f b5 7b 3d ee d7 54 3c ea 44 cd 3c 6b 37 40 bb
       0.061452385 0.012990935 0.025057275 -0.0029329907
0003f0 5a d6 c9 bc dc 2e 13 3d ee 85 f3 3c 8e 2d b8 3c
       -0.024638344 0.03593336 0.029726949 0.02248266

action_model._discrete_distribution.branches.1.bias f4 [2]
000000 1e 5d 3e bc 32 5d 3e 3c
       -0.011618881 0.011618899

action_model._discrete_distribution.branches.2.weight f4 [2, 256]
000000 ba d2 5d 3d 09 1a 39 bd 57 19 04 bd 5c 0a 65 3d
       0.054156043 -0.045190845 -0.03225073 0.055918083
000010 c3 bf 03 bd 43 9d a0 bc 2a 60 68 bd da a9 14 bd
       -0.0321653 -0.019606238 -0.056732334 -0.036294796
000020 e4 14 e4 3a 42 ec 8c bd 7a f4 09 3b 13 5c 3c bd
       0.0017401245 -0.06881 0.002105026 -0.045986246
000030 64 71 ad 3d 64 8a 4e bc 60 f7 b7 bc 5d 92 5d bd
       0.08468893 -0.012606237 -0.022456825 -0.05409466
000040 80 14 e0 ba 46 24 73 3b 4e e0 b8 3c ba 89 fc bc
       -0.0017095953 0.0037100478 0.022567894 -0.030827392
000050 04 9a 02 bd 75 2d 3e bd 3d 40 3e bd 9d 03 ae bd
       -0.031885162 -0.04643007 -0.04644798 -0.08496783
000060 a2 66 42 3d 72 03 3b 3d 1a c0 1d bd ee 74 c8 bc
       0.04746116 0.045657583 -0.03851328 -0.024469819
000070 b1 2f c1 bc 06 1e 42 3d e8 1e 07 bd 9f 7f 9a bd
       -0.023582311 0.047391914 -0.03298846 -0.07543873
000080 c5 fb 22 3c 1a 43 52 3c ab cb 26 bd 83 cb ce 3c
       0.009947722 0.012833381 -0.040721577 0.025243526
000090 3c 66 23 bd f0 31 8e bc 62 a1 a8 bc 49 b8 e6 3c
       -0.03989242 -0.017357796 -0.020584766 0.028164046
0000a0 af ca a4 bb dd 87 85 3d ca 8f 2a 3d a5 10 9a bb
       -0.0050290446 0.065200545 0.041641034 -0.004701691
0000b0 ba b8 fe bb b0 f3 68 bd 22 69 bf 3c 3a 70 b8 3a
       -0.007773486 -0.056873024 0.02336556 0.0014071532
0000c0 c6 f1 88 3d 4f 40 01 3d cb c7 95 3c 65 44 17 3d
       0.066867396 0.03155547 0.018283745 0.03693046
0000d0 65 fa 4d bc a1 0a 25 3d 08 f1 14 bc 98 02 c5 bc
       -0.012571906 0.04029334 -0.009090669 -0.024049088
0000e0 9f bf 83 3c 6c ff 9c 3c 0e cc 39 3b d2 72 dd 3c
       0.016082583 0.019164763 0.0028350386 0.02703229
0000f0 33 e5 5a 3d 1f df 49 3d a7 06 cd 3c 51 cf 83 3d
       0.053441238 0.04928505 0.025027586 0.06436027
000100 71 fd 5d 3d 58 88 f5 bc 83 d9 37 3b 80 52 d7 bb
       0.05419678 -0.02997224 0.002805323 -0.006571114
000110 c4 86 4c 3d eb 0b cf 3b 20 c5 aa bc e5 64 02 3d
       0.04993321 0.0063185594 -0.02084595 0.0318345
000120 75 9f 67 3b e1 97 96 bd 4d d5 53 bd 5f 0f 0a bd
       0.0035342847 -0.07353187 -0.05171709 -0.033706065
000130 cb 90 22 3d 4e cf 17 3d c3 70 96 bd f9 78 88 bd
       0.039688867 0.037062936 -0.07345726 -0.06663699
000140 6d d9 98 3b db 4d 09 bd 58 fe 16 3d 3c 54 85 bd
       0.004664591 -0.033521514 0.036863655 -0.06510207
000150 24 17 0b 3d fa f7 29 bd 34 16 77 3c 57 c0 59 3d
       0.033957615 -0.041496255 0.015080977 0.053161945
000160 34 a1 04 3c a8 cf 9b bc d1 14 90 bd 64 ce 7f 3d
       0.008095074 -0.019019917 -0.070352204 0.06245269
000170 b2 69 fe bc 81 c3 95 bd 04 7f 27 bd 03 f8 4f bc
       -0.031056259 -0.0731268 -0.040892616 -0.012693408
000180 4a 0c 94 3c 53 30 01 bc ab d7 55 bd fe 65 56 3d
       0.018072266 -0.007885057 -0.05220763 0.05234336
000190 40 54 78 3d 70 36 c7 3b 5d d7 4f 3b 1d 79 68 3d
       0.060627222 0.0060794875 0.003171406 0.056756128
0001a0 8c 9d ed bb 5f 12 47 bc a7 1b 52 bd 60 e8 fa bb
       -0.007251447 -0.012150376 -0.051295903 -0.007657096
0001b0 2c df 1c bd 69 01 25 bd 40 59 e8 bc 78 4e 23 bd
       -0.03829877 -0.040284548 -0.02836287 -0.039869756
0001c0 37 93 ea bb 49 ec 80 3c 92 6f 86 3d 55 9a 12 3c
       -0.0071586627 0.01573767 0.06564249 0.008947928
0001d0 85 65 a5 3c da f1 31 bd 62 19 55 bd 32 d1 31 bd
       0.02019001 -0.04344354 -0.05202616 -0.043412395
0001e0 9d c3 b2 3c 4b 13 61 bc a1 b6 f8 bc 4d 5e 83 bb
       0.021821791 -0.01373751 -0.030360522 -0.0040090443
0001f0 ed 4f c2 bc 35 98 49 bb ec 73 dd 3c 1d f7 41 bd
       -0.023719752 -0.0030760888 0.027032815 -0.047354806
000200 07 0c 09 3d 3c ba 5c 3d 6a a6 a2 bc 9b eb c1 3c
       0.033458736 0.053888544 -0.019854743 0.023671916
000210 01 07 d3 bb 77 60 9d 3d c7 ec 34 3d a9 c3 7d 3d
       -0.006440044 0.07684415 0.04417112 0.061954174
000220 1d 4e e7 3c 0b 7d 83 bd 83 ad 83 bd d4 cc e4 bc
       0.02823549 -0.064203344 -0.06429579 -0.0279297
000230 1c 12 60 bc fd 85 6a 3d f6 d9 83 bd b1 57 1a 3d
       -0.013676193 0.057256687 -0.06438057 0.037681285
000240 8b 8e 8e bc 16 22 8b 3d 71 53 3d bd 6e e4 51 3d
       -0.017401954 0.06793611 -0.046222154 0.05124324
000250 c0 b4 01 bd 43 4b 45 bc 2c 35 19 bd 0c 4d 49 bd
       -0.031666517 -0.01204187 -0.037404224 -0.049145743
000260 50 ec a9 3c c6 d6 81 bd 2c 09 92 bc 49 ab a8 bc
       0.020742565 -0.06339793 -0.01782664 -0.020589488
000270 e4 82 01 bd 7e 08 2f 3d ae 9d 52 3d ae 9f 2f 3d
       -0.031618968 0.04273271 0.051419906 0.04287689
000280 9d 74 33 bd b5 94 db 3b e0 46 65 3d 61 42 2e bc
       -0.043812383 0.006701077 0.055975795 -0.010635943
000290 1c 4c 35 3d 19 02 95 3c 92 54 60 bd 89 26 8c 3d
       0.044262037 0.018189477 -0.054768153 0.068432875
0002a0 61 5c db bc ec 63 4c 3d af 7e 0e 3d 2c 3a 84 bc
       -0.026777448 0.04989998 0.034788784 -0.01614102
0002b0 e1 9c 4c bd 09 e0 79 3d 99 4d 85 ba 5f fd 85 3d
       -0.0499543 0.061004672 -0.0010170221 0.06542467
0002c0 e1 44 81 bd 67 1e 7f 3d 9e 2c 19 bd 45 b3 9c bc
       -0.06311966 0.062284853 -0.037396066 -0.019128451
0002d0 83 ec ad 3c a6 40 b3 3d fe e2 eb bc 0d a5 c2 bc
       0.021230942 0.08752565 -0.028794762 -0.023760343
0002e0 97 8c c6 3a 3f 99 31 bd a0 ad 47 3c 08 4c 8d bd
       0.00151481 -0.043359037 0.0121873915 -0.068992674
0002f0 dd 5d 49 3c 0d 8d 5a 3a 5e 83 db 3c d4 9a 50 3c
       0.012290445 0.0008337058 0.02679604 0.012732226
000300 c2 2d 54 bd 95 63 98 3d 78 a7 5a 3d 0a 13 4a bd
       -0.05180145 0.07440869 0.053382367 -0.049334563
000310 6b ab 5c bc 41 a8 01 3d 6e 46 50 bc b4 df ac 3d
       -0.013468604 0.0316546 -0.012712104 0.084411055
000320 ac 24 bb 3c 20 cb 77 bc 68 20 d2 bc a3 09 53 bb
       0.022844635 -0.015124112 -0.025650218 -0.003220179
000330 6b dc 6f bd 41 89 7f bd 63 7b 88 bb 14 84 2f bd
       -0.058559816 -0.062386755 -0.0041650995 -0.04285057
000340 be c4 5d 3d 30 75 70 bb 38 44 ad bc 46 55 26 3d
       0.054142706 -0.0036690943 -0.021150693 0.040608667
000350 89 02 89 3d ae fd 70 bc 71 63 8d 3d fd 06 2a 3d
       0.06689937 -0.014708919 0.069037326 0.04151057
000360 81 af 8b bb 85 40 c4 bc 05 ac 61 ba 4c fc 65 bd
       -0.004262865 -0.023956547 -0.0008608702 -0.056148812
000370 c4 6f 3e 3d 2e 7b 2c bd 7c 38 6d 3d ed 2e e8 bc
       0.046493307 -0.04210966 0.057915196 -0.028342688
000380 a8 82 b1 bc 34 0e 6b ba 3c e7 91 3d e9 b7 2c 3d
       -0.021668747 -0.0008966655 0.071241826 0.042167578
000390 c5 95 35 bd 9e 0f 16 3d 12 cf f3 3a 17 a8 a6 3a
       -0.044332284 0.036635987 0.001860114 0.001271489
0003a0 d2 9c 0f 3d e1 29 b1 3c e7 05 72 3d 4d 7f cc 3b
       0.035061665 0.021626415 0.05908766 0.0062407614
0003b0 bf ec 3d 3d df 9b b0 bc f3 73 f1 bc d6 a0 1f 3d
       0.046368357 -0.0215587 -0.029474234 0.038971744
0003c0 ca 69 aa bc 49 63 4e 3d 4e e1 40 bd 37 5b 53 3c
       -0.020802397 0.050387654 -0.047089867 0.012900165
0003d0 a4 a4 73 bd 25 b8 f0 bb 82 01 76 bd e8 a1 57 bd
       -0.059483185 -0.0073461705 -0.06006003 -0.05264464
0003e0 ee 23 a0 3c e6 64 12 bd cb 10 d2 bc 9d 37 b9 3a
       0.019548383 -0.035740755 -0.025642773 0.0014130954
0003f0 a1 32 e8 3c d5 5d e4 bc 3c 34 26 bd aa 89 ee bc
       0.028344454 -0.027876774 -0.04057716 -0.029118378

action_model._discrete_distribution.branches.2.bias f4 [2]
000000 39 61 62 3c 1f 61 62 bc
       0.013817125 -0.013817101
