Assets/results/traffic_1531/TrafficLightBrain/TrafficLightBrain-2059.pt (torch, 476729 bytes, 60 tensors)

discrete_act_size_vector f4 [1, 4]
000000 00 00 00 40 00 00 00 40 00 00 00 40 00 00 00 40
       2.0 2.0 2.0 2.0

network_body.observation_encoder.processors.0.normalizer.running_mean f4 [11]
000000 87 53 68 40 4f 73 68 40 4d ca 73 40 9b 45 6c 40
       3.630098 3.6320379 3.8092225 3.6917484
000010 9b 10 8e 40 a3 1d 7e 40 35 8a ce 3e f1 0a ce 3e
       4.439527 3.970559 0.4033982 0.40242723
000020 7e 03 d3 3e a0 94 c7 3e 00 00 00 00
       0.41213602 0.3898058 0.0

network_body.observation_encoder.processors.0.normalizer.running_variance f4 [11]
000000 8a 1c 47 46 5c 18 58 46 17 5c 70 46 0a 09 5b 46
       12743.135 13830.09 15383.022 14018.26
000010 fc 29 0a 47 14 4b ce 46 59 63 f8 43 a0 31 f8 43
       35369.984 26405.54 496.77615 496.3877
000020 5b 0c fa 43 38 7e f5 43 00 00 80 3f
       500.09653 490.98608 1.0

network_body.processors.0.normalizer.running_mean f4 [11]
000000 87 53 68 40 4f 73 68 40 4d ca 73 40 9b 45 6c 40
       3.630098 3.6320379 3.8092225 3.6917484
000010 9b 10 8e 40 a3 1d 7e 40 35 8a ce 3e f1 0a ce 3e
       4.439527 3.970559 0.4033982 0.40242723
000020 7e 03 d3 3e a0 94 c7 3e 00 00 00 00
       0.41213602 0.3898058 0.0

network_body.processors.0.normalizer.running_variance f4 [11]
000000 8a 1c 47 46 5c 18 58 46 17 5c 70 46 0a 09 5b 46
       12743.135 13830.09 15383.022 14018.26
000010 fc 29 0a 47 14 4b ce 46 59 63 f8 43 a0 31 f8 43
       35369.984 26405.54 496.77615 496.3877
000020 5b 0c fa 43 38 7e f5 43 00 00 80 3f
       500.09653 490.98608 1.0

network_body._body_endoder.seq_layers.0.weight f4 [128, 11]
000000 b4 ab 8b 3d 48 fb 19 3e 1a 0f 84 3d b1 00 44 3c
       0.06819859 0.15037262 0.06448193 0.0119630555
000010 4a a1 d6 bd a7 df ae be 6a 99 2c be bb 8b 2a 3f
       -0.10479982 -0.34155008 -0.16855398 0.6661946
000020 db 0b 11 be e0 f3 69 be 40 d7 24 3e 2d f6 4c 3d
       -0.14164679 -0.22846937 0.16097736 0.05003946
000030 f3 fd 8e be 50 60 5b bd 1c 46 ce be a7 de d2 bd
       -0.27928123 -0.053558648 -0.40287864 -0.10296374
000040 e9 57 11 bf 9f f0 bd 3d f8 e5 9d be 34 5e 3d 3d
       -0.56774765 0.092744105 -0.30839515 0.046232417
000050 ca 78 6f 3e ba 4b 1f 3e 34 da cb be a3 b2 b7 be
       0.23385921 0.15556231 -0.39814913 -0.35878477
000060 e7 96 b1 3e d0 c5 fb 3e e3 e8 e5 be b8 ba cb 3a
       0.34685442 0.49174356 -0.4490424 0.0015543317
000070 4c b3 11 be cd 65 68 3e 85 fe 68 be 83 c7 74 3e
       -0.14228553 0.22695084 -0.22753341 0.23904233
000080 56 b1 01 bf 62 22 34 bf f4 f7 e0 be 05 6e 40 3e
       -0.5066122 -0.70364964 -0.43939173 0.18791969
000090 d8 3c 7e 3c 96 d8 ae 3e 22 32 d3 be 5d 96 50 3d
       0.015517436 0.34149617 -0.41249186 0.050924648
0000a0 5f 9a 7f 3e a0 aa 1d bd 86 91 92 3e 87 00 88 3e
       0.24961232 -0.0384928 0.2862665 0.26562902
0000b0 8c 38 c9 bb 14 cb 8d 3e 00 5c b7 3e d5 fa 4c 3d
       -0.006140774 0.27694 0.35812378 0.0500439
0000c0 47 a9 f8 3d a0 80 e5 be f6 0c 43 3d 14 c7 f1 be
       0.12141662 -0.44824696 0.047619782 -0.47222197
0000d0 fb 72 55 be 6f 5d 5e 3e 26 e7 08 3f 12 c2 2d be
       -0.20844643 0.2171533 0.53477705 -0.16968563
0000e0 e4 2f 08 3e 1d b3 a8 3e d1 4a bb 3d 07 31 a6 3e
       0.13299519 0.32949153 0.091451295 0.3245928
0000f0 9f 28 27 be 0c b6 f6 bb 6d ea 5d bc 3b 39 28 3d
       -0.1632409 -0.007529026 -0.013544661 0.041070204
000100 87 70 25 bf 83 f6 f9 be 23 b0 c1 bc 10 9b d2 be
       -0.6462483 -0.48820886 -0.023643559 -0.41133928
000110 50 08 b3 3d 68 55 08 3e 96 2f 25 3e 6a ba a6 3e
       0.0874182 0.1331383 0.16131434 0.32564098
000120 38 10 96 3e 42 99 24 bd 7e cd 11 be 96 e4 13 be
       0.2930925 -0.04018522 -0.14238545 -0.14442667
000130 d3 59 ec be 80 6a 1d 3f 6f 04 58 3e 83 82 fe bd
       -0.4616228 0.6149063 0.21095441 -0.12427237
000140 58 2f 4a bf c5 5c 9f bd 87 22 e7 3d 3f a6 13 3e
       -0.7897849 -0.07781366 0.112858824 0.14418887
000150 52 c4 85 3d b4 1a 4f be 57 d8 fe 3d c0 42 13 be
       0.06531586 -0.2022503 0.12443607 -0.14380932
000160 e7 d0 9b bd 0f 29 b2 3e 26 e4 34 bd e9 2d f3 3d
       -0.07608204 0.3479695 -0.04416289 0.11873991
000170 82 87 c5 3e 75 73 02 3e be de c0 3d 3a 6f 2d bd
       0.38579947 0.12739356 0.09417485 -0.042342402
000180 af c0 f8 3c ab 13 74 3e e5 e0 5d be a9 b9 05 bf
       0.030365316 0.23835628 -0.21667822 -0.5223642
000190 73 73 05 bf b9 e7 45 be 59 ca f5 be 04 2c 5b 3b
       -0.52129287 -0.19326676 -0.48005942 0.0033442983
0001a0 a5 32 98 be 36 13 93 bd 22 25 5e be 6b 91 ef bd
       -0.2972614 -0.071813986 -0.21693853 -0.11697658
0001b0 7f 0e ff bd 85 ba a0 be 4e c1 09 be bc aa 21 3d
       -0.12453937 -0.31392303 -0.13452646 0.039469466
0001c0 2e d1 72 bd d3 6f 3c 3e 19 63 31 be 62 16 47 be
       -0.05928152 0.18402033 -0.17322959 -0.19442132
0001d0 2f 25 6b be 37 48 9d bc a9 24 2b bf 07 37 ae bd
       -0.22963403 -0.019199474 -0.66852814 -0.085065894
0001e0 b7 75 ca bd ea 4a 81 3c 57 d0 12 3e c4 cf 81 be
       -0.098857336 0.015782792 0.14337288 -0.25353825
0001f0 2b 74 5e 3d 46 70 0e 3e 7c eb 82 be 88 2d 50 bd
       0.054310005 0.13910016 -0.25570285 -0.050824672
000200 c9 56 24 be 18 b3 56 be 55 de 11 bd 59 d4 26 3e
       -0.16048731 -0.20966756 -0.035612423 0.16291942
000210 f2 aa 4f bd ac 4b 82 bd c4 98 1f bf 55 33 8b 3d
       -0.050700136 -0.063620895 -0.62342477 0.067969
000220 a0 50 04 3f ff 99 0b 3d 82 58 65 3e 0f dd 27 3e
       0.51685524 0.03408241 0.22397044 0.16392921
000230 7a 3c 09 bf 72 57 40 3d 15 d2 78 3e 9e 39 2d 3e
       -0.53607905 0.046958394 0.2429889 0.1691651
000240 1e d6 23 be 6a 92 11 3e 95 f4 90 bd a3 f6 82 be
       -0.15999648 0.14216009 -0.070779 -0.25578794
000250 b3 c5 53 3d 18 82 ba 3e eb 41 8a be ae b7 a1 be
       0.051702213 0.3642738 -0.27003416 -0.3158545
000260 5f b2 aa 3e 46 10 dc 3a 3f 78 0d 3f 47 a1 63 3d
       0.3333921 0.0016789518 0.55261606 0.055573728
000270 0b 0d 78 3e 47 4c 00 be 08 5b ca bd a3 fd 9d be
       0.24223725 -0.12529097 -0.09880644 -0.30857572
000280 8d 3f b8 3e e0 1e 69 3e 5d 76 d4 be 3f 31 70 bf
       0.35985985 0.22765684 -0.41496554 -0.93825144
000290 59 a6 da 3e 1f 93 36 3f 70 02 49 be c1 00 be 3d
       0.42705038 0.7131824 -0.19629836 0.092774875
0002a0 cc 28 14 bf a6 b5 18 be e9 8d 02 3e 8e c2 bd 3e
       -0.5787475 -0.14913043 0.12749447 0.37062496
0002b0 2c f6 1c 3f c5 bd 01 bf 29 6e c4 3a ce f6 3a be
       0.6131313 -0.5068019 0.0014986444 -0.18258211
0002c0 70 06 aa 3c cb ce a6 bd 47 a8 12 3d fb 15 a6 3e
       0.020755023 -0.081449114 0.035805013 0.32438645
0002d0 bc 0c 96 bd 68 61 d5 be 9d 76 94 be d2 3e ad be
       -0.07326648 -0.41675878 -0.28996745 -0.3383699
0002e0 17 f1 b6 3e d2 ef 25 3c d4 8c c7 3d 19 a0 96 bd
       0.35730812 0.010127978 0.09743658 -0.07354755
0002f0 b7 e3 a2 be f7 26 dd bd 80 91 17 bd 9a 23 04 3f
       -0.31814358 -0.107984476 -0.037003994 0.51616824
000300 28 bd c5 3e ae 3d d1 be 9d 98 8c 3d 78 29 c4 bd
       0.38620877 -0.4086737 0.06865046 -0.09578222
000310 78 7e 23 3e 93 63 4f be 69 b8 6f be 14 be 37 3e
       0.15966213 -0.20252828 -0.2341019 0.17943603
000320 e7 4a 7c 3e d5 a5 4e be 77 e3 35 bc bb f3 a2 be
       0.24637948 -0.20180447 -0.011101595 -0.31826577
000330 e6 52 f2 3a a7 a9 26 3d a3 9a 8f 3e 44 07 1b 3f
       0.001848784 0.040689137 0.28047666 0.6055796
000340 0a fe 47 bd 26 41 de be 04 60 1e 3e b2 c4 7e be
       -0.048826255 -0.4340908 0.15466315 -0.24879721
000350 19 25 3e bf 17 26 17 3e 05 1a 87 be 5e 3c 04 3d
       -0.74275357 0.14760624 -0.2638704 0.032284133
000360 2d 4e c6 be 66 17 fe 3e dc 31 a2 3e 52 03 02 bf
       -0.38731518 0.49627227 0.31678665 -0.50786316
000370 d1 51 ff 3d 1a 6e f5 bd 77 d8 60 3f 24 c7 28 be
       0.12466777 -0.11983891 0.878303 -0.16482216
000380 93 08 37 3e 78 7e 6d be 68 d4 d9 bd d2 28 18 bf
       0.17874365 -0.23192775 -0.106362164 -0.59437287
000390 a6 1d 02 bc 70 b8 1e be c5 a8 9b be 9a be a8 3e
       -0.007941639 -0.15500045 -0.30402198 0.32957917
0003a0 a4 fc 05 3f 7f 46 dd 3d 4f ca 63 3d 47 60 37 3e
       0.52338624 0.10804462 0.05561286 0.1790782
0003b0 88 a3 27 be e6 d2 e5 3e e2 3f b2 3e 7d e6 48 3f
       -0.16370976 0.44887465 0.34814364 0.784767
0003c0 58 2e 17 be 94 15 3c bd 45 88 29 3d c5 49 e6 3d
       -0.14763772 -0.045919016 0.041389722 0.11244539
0003d0 a0 0d 9e be 91 8b 94 3d f0 ab 53 3d d1 ff dc bc
       -0.3086977 0.07253183 0.051677644 -0.026977452
0003e0 b8 e6 80 3e fb 3d 5f 3e 6b 8b ff bd 08 3a 0b bf
       0.25176024 0.21800987 -0.12477764 -0.54385424
0003f0 fc 8e 4d be 4b a8 20 be 2b 01 8b be a3 5d 2c 3f
       -0.20074075 -0.15689199 -0.2714933 0.6733038

network_body._body_endoder.seq_layers.0.bias f4 [128]
000000 2a e4 80 ba 28 29 b5 ba 6d 02 31 3c 41 ee 9f bb
       -0.0009833623 -0.001382147 0.010803801 -0.004880697
000010 e9 3a b5 3b 3f 38 27 3c 9e 16 c5 b8 a3 7f ed 3b
       0.0055307043 0.010206281 -9.397905e-05 0.0072478815
000020 74 9d eb 3b 82 1a 12 3c 9f 26 a7 3a a5 1f cb 3b
       0.0071904007 0.008917453 0.0012752599 0.0061988407
000030 16 2c 2c bc 0d a1 26 bc c8 b2 2c bc 47 7c 47 bb
       -0.010508558 -0.010170233 -0.010540672 -0.0030439065
000040 9f 5f 10 3c 38 c4 9f 39 47 aa 31 3b 36 8b 38 3c
       0.00881186 0.00030473038 0.002710955 0.011263659
000050 94 aa 45 3c c9 58 18 3c a5 49 03 3c e3 eb 38 3c
       0.012064595 0.009298512 0.008013164 0.0112867085
000060 7c 80 f7 3b 6f c5 e8 bb a9 28 0c 3c 8c fa f1 3b
       0.0075531583 -0.007103614 0.008554616 0.007384604
000070 98 e2 0f 3c d5 29 9c 3b 70 a4 ef 3b 8e 8a 31 3c
       0.0087820515 0.004765729 0.0073133036 0.010836257
000080 a2 41 de ba 9e d1 3c 3c dd 0f 00 3c db 47 17 3c
       -0.0016956816 0.011524586 0.007816282 0.00923344
000090 04 b8 98 3b 90 23 1e 3c 3a 6f a5 b9 63 c3 d5 3b
       0.0046606082 0.009652033 -0.00031554123 0.006523536
0000a0 fe 82 ef bb 1e ab ec 3a b9 27 0b 3b dd 4c 5a bb
       -0.0073093167 0.0018056368 0.0021233393 -0.0033309974
0000b0 73 31 2b b9 3e 9a a6 39 31 5c 90 3b 40 d0 24 3c
       -0.00016326252 0.00031776907 0.0044055213 0.010059416
0000c0 3e 7b 6a 3b a0 9d 53 3c ea 1e 9f bb c9 a0 26 bc
       0.0035779024 0.012915999 -0.00485598 -0.01017017
0000d0 69 ca 20 3c 19 70 f2 3b 32 db 95 3b 39 9f 05 3c
       0.009813883 0.007398617 0.0045732493 0.008155637
0000e0 0a 0e 12 bb 08 21 13 3c 2e cb b2 bb 73 0f 70 3b
       -0.00222862 0.008980043 -0.00545635 0.0036630302
0000f0 aa 89 1d 3c d9 c5 0f 3c 83 fb 48 3c 1b a9 03 3c
       0.009615341 0.008775198 0.012266996 0.008035923
000100 ce 12 3d 3c 0e 0d e9 3b f6 ef 25 3c 37 71 3f 3c
       0.011540128 0.007112152 0.010128012 0.011684707
000110 b6 82 04 3c 12 8c 33 3a 85 fb c0 3b 5d ff 43 3c
       0.008087805 0.000684918 0.0058893585 0.011962739
000120 a2 0a ae 3b 9e 70 43 bc e8 62 96 39 64 60 9c bb
       0.005311326 -0.0119287055 0.0002868392 -0.004772233
000130 46 1b 14 bc 84 37 12 3c 83 d3 21 bc 2e 6e 6a 3b
       -0.009039706 0.008924369 -0.0098770885 0.0035771239
000140 b8 04 0a bc 0c 19 26 3c 12 6f 19 3c db 60 59 bb
       -0.008423977 0.010137808 0.00936486 -0.0033169303
000150 1e c4 ac bb b2 46 47 3c 25 d9 7b 3b ab 34 39 bc
       -0.0052724024 0.012162851 0.0038428989 -0.011304061
000160 d4 04 71 bb 54 9d 8e 3b b0 98 84 3a bb 49 ac bb
       -0.003677656 0.004352251 0.0010116305 -0.005257813
000170 4e b4 99 3b 86 32 e1 3b ab 82 3a bc 6b 82 3a 3c
       0.0046906834 0.006872478 -0.011383693 0.011383633
000180 4f 3f e8 ba 96 b3 ee 39 ad 7b 19 3c 9f 8c 5d 3b
       -0.0017719063 0.000455287 0.0093678655 0.003380574
000190 12 fa 11 bc f9 56 85 3b cf a2 cd bb ef 39 01 3c
       -0.008909719 0.004069206 -0.006275512 0.007887348
0001a0 2c 47 a2 3b a0 53 99 3b 58 ae f9 3b e8 62 3f 3c
       0.004952332 0.0046791583 0.0076196603 0.011681296
0001b0 6f b0 cc 3a 43 5f 01 3c b1 2c c1 bb b0 fa 61 3c
       0.0015616546 0.007896247 -0.00589522 0.013792679
0001c0 74 d1 0f bc e9 a1 9d bb 74 e3 18 bc 5e ff ce 3a
       -0.008777965 -0.004810561 -0.009331573 0.0015792658
0001d0 09 dd 2c 3c 35 6d 38 3c ce 13 5a 3c bc 9e db bb
       0.010550746 0.011256506 0.013310386 -0.006702272
0001e0 42 d9 c2 bb ae 56 55 bb 5b f0 00 3a d6 d3 7c ba
       -0.0059463093 -0.0032552886 0.0004918628 -0.0009644603
0001f0 75 8e a7 bb 1c f8 23 3c 47 a7 98 3b 1a ec 12 3c
       -0.0051134177 0.010007884 0.004658613 0.008967424

network_body._body_endoder.seq_layers.2.weight f4 [128, 128]
000000 98 93 5b 3b d3 9a 4b bd ec 6f 9c bd d5 53 c1 3d
       0.003350472 -0.0497082 -0.07638535 0.09439818
000010 c4 f2 0d 3d ce 81 a9 3d 0f a6 66 3d 6b 90 ce 3c
       0.034655347 0.082767114 0.05631071 0.025215348
000020 85 89 b6 bc ef 6a 3a bd 05 01 c1 bc 49 4c ec 3d
       -0.022282371 -0.045512136 -0.023560056 0.11537988
000030 37 5e 8f bd 90 ca 26 3d ef fa 1f 3d 6b 69 07 bd
       -0.07000392 0.040720522 0.03905767 -0.03305952
000040 3b 10 20 3e 07 6c 9d 3d 20 37 29 3c c0 dd 80 3d
       0.15631191 0.0768662 0.010328084 0.062922955
000050 8b e8 4f bd 93 d0 fa 3c 2b bf 4c 3d 10 42 9f 3d
       -0.05075888 0.030617034 0.049987 0.07776272
000060 24 ed b9 bc bd 3e a2 3c e5 fe 0a 3e da 2e b0 bd
       -0.022696085 0.019805307 0.13573797 -0.08602686
000070 51 2d fb bd 6f e1 c0 3d 8c 5f a9 3d a8 9a c9 bc
       -0.12264503 0.09417998 0.08270177 -0.024609879
000080 89 96 2a bd fc 58 67 3e b8 36 31 be cc 7f 0b 3e
       -0.041647468 0.22592539 -0.1730603 0.1362297
000090 63 ad a9 3d 76 22 de ba 66 7d 35 bd f3 e2 14 3d
       0.08285024 -0.0016947526 -0.044309042 0.03634925
0000a0 6a d8 53 3d ef e9 33 3d 13 02 fb bd 2e cd 3c bd
       0.05172006 0.04392427 -0.12256255 -0.046094112
0000b0 df 8f 15 3e 3c bc 95 3d 4b 63 eb 3d c3 14 a4 3d
       0.14605664 0.073112935 0.11493548 0.080117725
0000c0 5e 05 a7 bd c2 f3 2b bd 3b f8 6d 3d 5f f3 5b 3c
       -0.081553206 -0.041980512 0.05809806 0.013424723
0000d0 f4 10 ba bd cd 77 af 3c 32 0d de 3d be 2d 8f 3d
       -0.09085265 0.02141943 0.108423606 0.069911465
0000e0 3a 6f ed bd 50 0a 63 3b 66 39 eb 3c cc 8e 75 bd
       -0.115934804 0.0034643598 0.028713893 -0.059950635
0000f0 24 0f 63 bc 57 75 81 3d 8c 6d 6f 3c 7b 4f fe 3b
       -0.01385859 0.06321209 0.01461352 0.0077609397
000100 96 f3 14 3c 4d b1 c0 3d 10 f8 c2 bd 6c 21 f7 3c
       0.009091279 0.094088174 -0.095199704 0.030167304
000110 af 85 15 be b4 ba aa bc 75 5f 0c 3e f3 46 6e bd
       -0.14601777 -0.02084098 0.13708289 -0.05817313
000120 52 85 58 3b ec d1 c8 bd 00 89 c5 bd e9 3f e7 bd
       0.003303845 -0.098056644 -0.09645271 -0.11291487
000130 6a b9 8b 3d 89 74 83 3e 3f d8 fc bc 49 24 0b be
       0.06822474 0.25674847 -0.030864833 -0.1358806
000140 ad 79 d4 bd 7c 72 9c 3d 6a 88 46 bd 5f c4 06 bd
       -0.1037477 0.07639024 -0.04846994 -0.032902118
000150 70 de b9 bd 8d c5 43 3e 2e d2 a3 bc 12 ba 36 3d
       -0.0907563 0.19118328 -0.019997682 0.044611044
000160 92 d5 23 3d 8a 7f 6b 3d 79 8a d7 3d d9 95 7a 3d
       0.0399986 0.057494678 0.105244584 0.061178062
000170 49 d7 f4 bd e0 d4 80 3d 1c a6 ea 3b 6a e2 88 bb
       -0.11955125 0.06290603 0.007160915 -0.0041773813
000180 8d 51 7e 3d a9 02 b8 bd 65 92 f8 3c c2 63 e9 bd
       0.06208949 -0.089848824 0.030343244 -0.113959804
000190 c9 8f ea bc 55 af bd 3c 81 8a 07 be 4b b1 13 3e
       -0.028633015 0.023154894 -0.13236429 0.144231
0001a0 15 ac a7 bd 29 b0 6b 3d ff 53 a6 3a 00 7a 17 3e
       -0.08187119 0.057541046 0.0012689828 0.14792633
0001b0 59 ed 6a 3e 6e 6a 26 3d 00 d4 d2 bd 19 48 11 3b
       0.22942103 0.040628843 -0.10294342 0.0022168218
0001c0 63 52 3b be dc f1 05 be e0 6d b9 bd 97 5a a4 3d
       -0.18293147 -0.13080543 -0.0905416 0.08025091
0001d0 47 5d 14 bd d3 1c 35 3d 06 df 49 3c f2 ed a6 3c
       -0.03622177 0.044216942 0.012321239 0.020377133
0001e0 47 3b 9e 3d 15 5a 1f 3d e0 b8 b6 3d fe 8e 11 3e
       0.0772615 0.03890427 0.08921981 0.14214703
0001f0 d5 d9 68 3d fd 68 b6 bd 97 59 cc 3d 8b 72 86 3d
       0.056848366 -0.08906744 0.099780254 0.06564816
000200 87 f8 19 3d a2 3d 73 bd df 47 d7 3d 0b 46 2f bd
       0.03759053 -0.05938495 0.10511755 -0.042791408
000210 f9 c3 8e bc 1a b6 91 bd 12 4b 2d 3d ad 35 9e 3c
       -0.017427431 -0.07114811 0.04230792 0.019312704
000220 61 d7 91 3d bf 71 1d 3b a1 b3 d1 bd ed fe da 3d
       0.071211584 0.0024024097 -0.102393396 0.106931545
000230 b3 bb 0a 3e c5 75 70 bd 74 c1 1c 3b 02 4a 42 bc
       0.13548164 -0.058706064 0.0023919018 -0.011858465
000240 e5 0b 3c 3c 3d 21 eb bd 2d 37 b1 3d d1 69 3f bd
       0.011477445 -0.11480949 0.08653102 -0.046731774
000250 7f 4a c2 3d 0b 91 d7 bd d6 06 ea bc 3d de 30 bc
       0.09486865 -0.105257116 -0.028567713 -0.010795173
000260 a4 79 0c 3d 34 15 52 bb cf 26 a8 3d 32 f9 f4 bd
       0.034295693 -0.0032056095 0.08210527 -0.11961593
000270 13 60 df 3d 41 15 ed bc 37 00 6e 3c c4 56 06 3e
       0.109069966 -0.028940799 0.014526418 0.13119036
000280 6c 1f d9 bd e9 b1 1f be 25 0d 9c bd 62 8f 5d be
       -0.10601696 -0.15595211 -0.076196946 -0.21636727
000290 c9 c6 44 bd 44 c5 ed 3d 64 eb 89 bc 52 6f 44 bd
       -0.04804114 0.11609891 -0.016835876 -0.047957726
0002a0 f2 3c 1e 3d 70 0c 9d 3d 27 fb 05 bd 46 23 e9 3b
       0.03863234 0.07668388 -0.03271022 0.0071148006
0002b0 46 d3 1f be 6a 65 20 3d e3 91 f9 bb 10 70 76 bd
       -0.15607938 0.039159216 -0.007616268 -0.060165465
0002c0 bd 1c 48 be 04 89 f7 3c af 52 13 bd b2 32 a6 3d
       -0.19542213 0.030216701 -0.035967525 0.08115138
0002d0 b2 45 7f bd 67 89 5b bd 77 2c 08 3d 83 43 1b be
       -0.062322326 -0.053597834 0.03324553 -0.15162472
0002e0 7d cc 89 bc b3 72 1b bc 25 ee de 3d e5 48 ea bd
       -0.01682114 -0.009487796 0.10885266 -0.11439685
0002f0 c5 5d be 3d 6f a5 28 3c 33 a6 2c 3e 42 69 22 be
       0.09295229 0.010293349 0.16860275 -0.15860465
000300 40 00 5c bd 64 6e d0 3d 8e 82 03 3d 2c 7f e4 bd
       -0.053711176 0.10177305 0.03210693 -0.111570686
000310 8c 33 f0 3c 26 8d 0d bd c1 15 6b bb cf 22 11 be
       0.029321454 -0.034558438 -0.003587112 -0.14173435
000320 19 f5 9e bd 72 fd 10 bd 35 66 d3 3c ce 81 1a 3d
       -0.077615924 -0.035397954 0.025805572 0.037721448
000330 e1 56 9c bd 84 05 b6 bd 98 85 11 be 8f 73 c7 3c
       -0.07633758 -0.08887771 -0.14211118 0.024347095
000340 0f 7a 77 3d 03 61 d4 3d da 43 ff 3d f4 a8 98 3d
       0.06041914 0.10370066 0.124641135 0.074541
000350 33 97 56 bd bc a4 07 bc 39 19 d8 bd 72 ab 09 3d
       -0.05239029 -0.008279022 -0.10551686 0.03361077
000360 01 2c b9 bd d2 a1 c3 bd 25 81 19 3d d9 0c 1a bd
       -0.09041596 -0.09552349 0.037476677 -0.03760991
000370 10 90 60 bc f0 27 8d bd c7 6f ae b8 b7 d8 32 be
       -0.013706222 -0.06892383 -8.317787e-05 -0.17465483
000380 da 5a 4c 3d fd 8e be bd 0f e6 b3 bd 8f bb 1e 3e
       0.04989133 -0.093046166 -0.087841146 0.15501235
000390 e0 0c 68 3c 13 f3 e0 bd c9 3d 55 3d 48 68 50 3d
       0.014163226 -0.10983863 0.052060876 0.0508807
0003a0 e1 4d 21 be 67 4b d4 3c 2e a5 f4 bc b2 3d 82 3a
       -0.15752365 0.02591486 -0.02986392 0.00099366
0003b0 74 2b c2 3d 30 7c 85 3d 6e 4a 73 3b 60 37 56 3c
       0.09480944 0.065178275 0.003712322 0.013074726
0003c0 06 b8 f4 bc 91 2a 3e be d8 50 72 3e 5a 98 2c 3e
       -0.029872905 -0.18570925 0.23663652 0.16854993
0003d0 a0 7c 2b bd 0a 96 cf bd 1d 59 7b 3d 5f 45 dd bc
       -0.0418669 -0.101360396 0.061364282 -0.027010618
0003e0 88 80 80 bc bc f7 ea 3d 21 a6 da 3d 7f 9f 86 bd
       -0.015686288 0.11473033 0.10676218 -0.0657339
0003f0 e6 d0 e6 bd 20 d4 3a bd 78 8b 5f 3d 49 45 7a ba
       -0.11270313 -0.045612454 0.054576367 -0.00095470675

network_body._body_endoder.seq_layers.2.bias f4 [128]
000000 80 08 b4 3b 86 3e 17 bc d7 68 be bb fa 5d 18 3c
       0.0054941773 -0.009231215 -0.0058108377 0.0092997495
000010 0b 2f 22 bc 09 88 23 3c a8 7a 0e bc ec 5a d9 3b
       -0.009898911 0.009981164 -0.008696236 0.006633153
000020 d0 4e 25 3c 8d c8 97 bb 39 21 8d ba 13 5e 1d b8
       0.010089591 -0.004632062 -0.0010767347 -3.751933e-05
000030 39 9e 17 3c 31 ea 27 3c a3 3a 4a bc 50 08 38 3c
       0.009254032 0.010248707 -0.012343082 0.011232451
000040 e5 18 e6 3b 33 47 da bb 32 7f 17 3c 05 bb 34 bc
       0.0070220106 -0.0066613196 0.009246634 -0.011030917
000050 9d 03 cf bb 71 dc 34 bc af 46 15 3c 84 f5 ab 3b
       -0.0063175694 -0.011038885 0.009111091 0.0052477736
000060 45 29 e5 ba 8c 46 6c bb f3 97 0a bb 55 ef bb 3a
       -0.0017483613 -0.0036052791 -0.0021147698 0.0014338294
000070 8d c2 1a bb bf 45 4c 3b 40 0b 0e 3b 85 fd 1b 3c
       -0.0023614496 0.0031169502 0.0021674186 0.009520893
000080 f2 79 54 bb 31 7d 87 bb d2 b1 b3 3b 16 a7 85 bb
       -0.0032421318 -0.004134797 0.0054838443 -0.004078756
000090 82 be 31 3b 72 b8 35 3c 2a 22 fc 3b fe 28 bc 3b
       0.0027121608 0.0110913385 0.0076945024 0.0057421913
0000a0 17 20 13 ba fe d7 95 3b 0e 32 2f 3c 00 f9 41 3c
       -0.0005612387 0.0045728674 0.010693086 0.011839151
0000b0 42 7e 79 bb 62 a6 44 bc 88 60 ee 3b e3 4d b2 3b
       -0.003806964 -0.012002559 0.007274691 0.0054414137
0000c0 3b ab 2a 3c bd 0f 31 bc f7 64 45 3c c4 0b 3f bb
       0.010416801 -0.010806975 0.012047998 -0.00291513
0000d0 a0 a6 9c bb b6 ab 07 bc 3e 0f 30 3c 20 0f 3f 3c
       -0.0047806054 -0.008280685 0.0107458215 0.011661321
0000e0 5d e6 94 3b a8 d5 0b 3c 66 7e 03 3c aa 37 88 bb
       0.004544063 0.008534826 0.008025741 -0.0041570263
0000f0 6e 87 bb bb 18 ca a6 bb 25 f2 3e bc c1 f7 02 3c
       -0.0057229316 -0.0050900094 -0.011654411 0.007993639
000100 d8 5d a4 3a d9 15 8b 3b df 78 c2 bb b6 63 51 bc
       0.0012540175 0.004244548 -0.005934819 -0.012780121
000110 ef 49 84 ba 39 ff 53 3c da dc 92 3b 60 de f5 bb
       -0.0010092835 0.012939268 0.004481894 -0.007503316
000120 fa 32 3c 3b 51 07 0d 3c a3 82 1c 3c 39 96 60 3c
       0.0028716908 0.008607701 0.009552631 0.013707691
000130 f5 82 e3 3b 06 dc 1b 3c 2d 1d 10 3b a9 63 d1 3b
       0.0069431015 0.009512907 0.0021990046 0.0063900542
000140 55 86 31 3b 8f 9e 16 bc f3 2e 01 bc 6f 2a f7 bb
       0.0027088125 -0.009193077 -0.007884729 -0.0075429003
000150 62 3f 9b bb 33 6d 43 bc 56 e6 4a 3c 14 57 e5 3b
       -0.0047377804 -0.011927891 0.012384018 0.006998906
000160 9a 5e cc bb 48 9c d8 3b a4 ff 05 bc 1a 4f 5a 3b
       -0.0062368633 0.006610427 -0.008178625 0.0033311308
000170 f0 5d ae 3b c9 53 70 ba e0 ac 10 3c 0e 99 bd 3b
       0.005321257 -0.00091677584 0.008830279 0.005786068
000180 e4 15 bd ba ea 7a 38 3b fa 23 a5 3b 73 8a bc bb
       -0.001442608 0.0028149434 0.005039689 -0.005753809
000190 8c e3 3f 3c f2 2d 80 bb 48 b8 2e 3a d6 e5 ca ba
       0.011711966 -0.003911727 0.0006665033 -0.0015479873
0001a0 72 e5 21 3c ef e6 69 bb 42 e5 ca b8 9f 08 e0 b9
       0.009881364 -0.0035690626 -9.674813e-05 -0.00042731033
0001b0 17 56 4e 3c 86 27 37 3c 15 b1 bb 3b 53 92 e1 3b
       0.012593768 0.011178857 0.005727897 0.0068838983
0001c0 89 ff 11 3c 80 66 3e 3c a4 1b 90 bb 52 87 29 bc
       0.008911022 0.011621118 -0.0043978263 -0.010347204
0001d0 1f 5e fb 3a 8c 45 2c 3c a1 38 2e 3c 79 c4 26 bc
       0.001917783 0.010514628 0.010633619 -0.010178679
0001e0 a9 98 32 3c 91 9a 1a 3c 71 0e 46 3c 7c 04 a6 3b
       0.010900655 0.009436266 0.012088404 0.0050664525
0001f0 8b d8 4e 3c da 17 95 bb 9a b5 03 bc e6 6a 19 3c
       0.01262487 -0.0045499625 -0.008038903 0.0093638655

action_model._discrete_distribution.branches.0.weight f4 [2, 128]
000000 54 4e 42 3c a2 20 d6 39 ef 30 8d bb 52 0c 84 bb
       0.011859495 0.00040841574 -0.004308812 -0.004029789
000010 d5 df e4 ba 4b 52 40 3c ef 72 a2 3c b8 45 09 bc
       -0.0017461727 0.01173837 0.019830195 -0.008378439
000020 57 7c e0 3b a4 6e 9c 3b 04 82 c3 ba aa 59 e8 3b
       0.00685076 0.0047739316 -0.0014916067 0.007090767
000030 e7 0f c9 3c f7 3e 7c ba 3b 17 39 bc 04 9e 53 3b
       0.024543716 -0.00096224196 -0.0112970425 0.003229023
000040 fd 0f 15 3b c7 39 11 3c 30 ce df b9 10 6e 05 bb
       0.0022745125 0.008863873 -0.00042687496 -0.0020359792
000050 71 10 19 3c 38 4f 1f bc b6 cb 80 bb 1a 02 e5 3b
       0.009342299 -0.009723477 -0.0039305342 0.006988776
000060 21 d1 05 bb 38 91 64 3b 7b 36 10 3b 98 29 19 3c
       -0.002041884 0.0034876596 0.002200513 0.009348296
000070 30 ab f2 bb 7f 5a fe bb 42 b8 53 bc 75 02 55 3b
       -0.007405661 -0.007762253 -0.012922348 0.0032502685
000080 2c 31 9e bb d3 32 2d bc d0 93 ba bb 44 a8 02 bc
       -0.004827639 -0.0105711995 -0.00569389 -0.007974688
000090 bd 62 24 ba a9 cc 8f 3b f8 de dd 3b 4c cc 0c ba
       -0.00062708167 0.004388411 0.0067709647 -0.0005371019
0000a0 cc 82 98 3c 65 0a 9c 3c c9 67 75 3b d3 e6 d6 3c
       0.018617056 0.019047925 0.0037445894 0.026233112
0000b0 64 a8 f6 3b fc e3 1e bd 07 5d 9b 3a 42 ae 3e 3b
       0.007527398 -0.03879164 0.0011853286 0.0029095565
0000c0 c7 18 58 3b 2a 9b c3 3b 63 79 7b 3c 34 d0 a9 bb
       0.0032973753 0.0059694247 0.015348765 -0.0051822904
0000d0 56 3b b8 3b c7 da 74 bc ba 7e 21 3c 45 a9 02 bc
       0.005622308 -0.014944739 0.009856874 -0.007974927
0000e0 a0 25 56 3c dc 46 f6 3b e8 b0 00 bc 40 57 bf ba
       0.013070494 0.0075157713 -0.007854678 -0.0014598146
0000f0 2b ae 12 3b 87 e6 07 3c b6 8a ad bc 00 44 c0 bb
       0.0022381644 0.008294708 -0.021184307 -0.005867481
000100 af 47 82 3b 03 ec 10 bc a7 e0 20 bc 56 9b a9 bb
       0.0039758305 -0.008845332 -0.009819186 -0.005175988
000110 86 af 1e 3c d5 5e 04 3c a2 34 99 bc 3c 4f 09 bc
       0.009685403 0.00807925 -0.018701855 -0.008380707
000120 e1 6f 48 bc 0d c8 a5 3b e8 c4 df 3b 02 a8 35 3b
       -0.012233705 0.0050592483 0.006828893 0.0027718549
000130 3c 3a ab 3a 0d bc 90 3c c4 bb e9 3b 8d 35 55 3c
       0.001306362 0.017667795 0.007132979 0.013013256
000140 7b 58 fe bb cc a0 fd ba ef 68 09 bb d3 35 83 3b
       -0.0077620125 -0.0019350289 -0.0020967086 0.004004219
000150 7d 66 ca 3b 68 d5 27 bc c1 76 bb 3b d6 72 cb 3b
       0.0061767683 -0.010243751 0.0057209437 0.006208758
000160 ae a3 5c 3b 15 fd c5 ba be 47 95 bc 84 0f bf 3b
       0.0033666897 -0.0015105332 -0.018222686 0.005830707
000170 80 04 c3 3b 7e 19 05 3c 02 ce 29 3b 7c fb 21 3c
       0.005951464 0.008123754 0.0025910144 0.009886619
000180 6d 61 65 bb 95 f7 97 3c 5a ad c1 3b a7 2d 25 3c
       -0.0035000697 0.018550673 0.0059105577 0.010081685
000190 f4 be ad 38 02 d5 f0 3b 65 00 01 3c 37 d6 c1 3c
       8.2848506e-05 0.0073496113 0.007873629 0.023661716
0001a0 7e c7 06 bc 39 c4 ce bb 87 76 b9 3a 25 0f ab 3b
       -0.008226274 -0.0063100127 0.0014149704 0.005220311
0001b0 80 50 0e bc 73 64 0c 3c ef 4b 0f bb f4 a7 00 bc
       -0.008686185 0.008568871 -0.0021865328 -0.007852543
0001c0 3f e5 bf 3b d0 35 59 3b ad 7c 80 3c 3d 8c 88 bb
       0.0058561857 0.0033143647 0.01568445 -0.0041671083
0001d0 0f bc 4b bc 9f 26 35 ba c2 bb bb 3b 6a be 28 bc
       -0.012434973 -0.0006910357 0.0057291696 -0.0102993045
0001e0 83 39 ac 3b 0d 0a 88 bb 24 9b 6f 3c b6 c1 65 3c
       0.0052558794 -0.004151589 0.014624391 0.014023235
0001f0 1b ae 34 3c 5e 16 2a b9 96 99 04 bb 30 1e 57 3b
       0.011027838 -0.00016220796 -0.0020233146 0.003282439
000200 20 a4 bf bc f3 82 9d ba c8 59 9e 3b ca fe 22 bb
       -0.02339369 -0.0012017175 0.00483248 -0.0024871104
000210 b1 3d 49 bb ba 0d 14 bc f8 81 f5 3b 31 27 17 3c
       -0.0030706937 -0.009036476 0.0074923 0.009225653
000220 f5 13 43 b8 ed 53 85 bb 1a 43 bd ba 0a 8a 1c 3b
       -4.651021e-05 -0.0040688426 -0.0014439553 0.0023885989
000230 a8 02 33 ba 0d 7e b0 bb 6f 20 15 3c f6 6f d8 bb
       -0.0006828704 -0.00538612 0.009101971 -0.0066051437
000240 c5 eb 94 bb f4 d6 9f 3c d7 5d f1 ba 62 a6 f7 bb
       -0.0045447075 0.019511677 -0.0018414807 -0.007557676
000250 f0 fc 1b 3b b9 68 fc 3b d8 3a ab bc 67 bb 08 bc
       0.0023801886 0.0077029136 -0.020902082 -0.008345461
000260 59 98 e7 bb ca dc 48 3c 7b b0 a7 3b f2 0d 1b bc
       -0.007067722 0.012259671 0.0051174737 -0.009463774
000270 01 67 c5 bb fc de b9 bb b6 02 92 38 49 fe 14 bc
       -0.006024242 -0.0056723338 6.9623275e-05 -0.009093829
000280 68 61 81 3b 1f d2 8d 3c 66 c3 51 3c 5e 1e 33 bc
       0.0039483793 0.017312108 0.012802934 -0.010932533
000290 79 f0 3c 3c d2 5b 3d 3c 92 88 a3 bb c7 76 08 bc
       0.0115319425 0.011557536 -0.0049906457 -0.0083291
0002a0 c5 9c dd bb 8e 7a 2d 3b b6 10 35 bb 4d 4b 98 bc
       -0.006763073 0.0026470753 -0.0027628369 -0.018590594
0002b0 23 51 67 bc 85 de 3a 3b 51 2f a7 bb e1 41 82 bb
       -0.014118466 0.002851398 -0.005102076 -0.0039751385
0002c0 ce 9c f4 3a 2e 39 14 bc 5e 31 95 bc 63 e7 9d bb
       0.0018662454 -0.009046836 -0.018212017 -0.004818843
0002d0 d8 3b 0f bc ae 4b 56 3b b3 a4 8e bc 16 72 ee bb
       -0.008742295 0.0032698917 -0.01741252 -0.0072767837
0002e0 a8 cf 40 bc dd 05 c4 39 d0 38 07 3b be 52 7f 3c
       -0.011768259 0.00037388402 0.0020633228 0.015583692
0002f0 5f fc 2c 3c 79 4d 8b bb 20 81 af 3b 3a 1c 61 bc
       0.010558217 -0.004251179 0.005355969 -0.01373964
000300 a5 ed 7e 3b 94 fb 96 ba 48 c8 88 bb db a2 6d 3b
       0.0038898971 -0.0011519068 -0.004174266 0.00362604
000310 96 d5 36 bb b7 20 cf bc ea 90 eb 3b 3c aa bf 3c
       -0.0027898303 -0.025284154 0.007188906 0.023396604
000320 96 3f 8f 3a e0 5e a4 3c 41 54 0e 3b 88 82 78 bc
       0.0010928984 0.020064771 0.00217177 -0.01516784
000330 7b 9b 06 bc 1b 92 f3 bb 82 9c a4 bb db 7d 60 bc
       -0.00821578 -0.0074331886 -0.00502354 -0.013701881
000340 02 2a 73 bb b6 b7 ad 3b 6e dd c1 3c 47 9e b1 bb
       -0.0037103896 0.005301441 0.023665156 -0.0054204795
000350 8f f0 90 ba 28 1b 98 3c 41 40 81 bb 4f 11 c9 bb
       -0.001105802 0.018567637 -0.0039444272 -0.0061360965
000360 24 59 7c bb ca 47 69 3a 4e f0 0f bc e6 c5 82 3c
       -0.003850528 0.0008898942 -0.00878532 0.015963506
000370 72 76 c1 3b 1d 39 20 3c 22 af a5 bb a7 91 5c bc
       0.0059040124 0.009779242 -0.005056278 -0.013462461
000380 e3 0a 98 bb a9 82 53 ba c8 dc f3 3a e5 cd 0b bb
       -0.0046399697 -0.0008068481 0.0018605227 -0.002133244
000390 af 55 80 3b c8 7f ec bb 96 e6 17 bc 4f ca 91 3a
       0.0039164643 -0.007217381 -0.009271285 0.0011122915
0003a0 14 3f 5a 3c 53 36 b0 3b 4c 06 19 bc 2d ce 8b bb
       0.013320703 0.0053775697 -0.00933988 -0.0042665214
0003b0 2a a0 18 bc a1 ea 97 bb a5 e0 4e bc 47 34 b8 3b
       -0.00931553 -0.0046361242 -0.012626802 0.0056214663
0003c0 27 1d 5f bc 09 f1 5c bc b3 ee 43 bb 64 86 fa 3b
       -0.01361779 -0.013485202 -0.0029896914 0.007645415
0003d0 20 c1 b2 bb cc 46 90 bc 7a 78 d0 bb 09 e3 8e 3c
       -0.005455151 -0.017611884 -0.006362018 0.017442243
0003e0 88 74 64 bc e9 ed 1b 3a 67 af c8 bb 00 eb 42 bc
       -0.013943799 0.0005948232 -0.006124425 -0.011896849
0003f0 af 2e 0a bc 3d e7 1b bc ef 39 07 bb 5f ab 5c bc
       -0.008433982 -0.009515581 -0.0020633896 -0.013468592

action_model._discrete_distribution.branches.0.bias f4 [2]
000000 0c 7c 0d 3c 0d 7c 0d bc
       0.008635532 -0.008635533

action_model._discrete_distribution.branches.1.weight f4 [2, 128]
000000 7d b2 41 3c 24 28 43 bc 17 f7 d0 3b e3 42 a2 3a
       0.01182234 -0.011911426 0.0063771117 0.0012379553
000010 39 15 2d bb 91 08 49 bc 67 90 7c bc bd 9c 3a 3b
       -0.0026410355 -0.012270109 -0.015415288 0.002847477
000020 d1 ef 10 3c cb 9f cb 3b 79 1f 03 3c 1e 5f 87 bb
       0.008846239 0.006214117 0.008003109 -0.004131212
000030 3d 46 73 3b 3d b9 7a 3c 76 ab 39 bb 7a 3a 90 bb
       0.0037120723 0.015302953 -0.0028330958 -0.004401502
000040 81 e2 53 bc 67 09 58 bb 48 b6 f5 3b 6a cd 91 bb
       -0.012932421 -0.0032964589 0.0074985363 -0.004449536
000050 ec c3 42 3c 50 5d 20 3c 8a a8 3a 3c e4 72 1f bb
       0.011887532 0.009787872 0.011392722 -0.0024329955
000060 fa f0 81 ba e5 4a 80 3b ab 94 1a bc 68 42 ff 3b
       -0.0009913736 0.003915178 -0.009434859 0.0077898987
000070 08 05 26 bc d2 d7 19 3a 13 c7 08 bb 6f cd 4b 3c
       -0.0101330355 0.00058686465 -0.002087061 0.012439116
000080 cc 4b b1 3b c8 ca c1 ba 9f 7e e0 3b 6c 6e c0 bb
       0.005410647 -0.0014785165 0.006851032 -0.0058725383
000090 31 6b 06 3b b8 32 8f 3c 0b e4 8a 3b 82 c0 23 3c
       0.0020510668 0.01748024 0.0042386106 0.009994628
0000a0 e8 ec af 3b ba 07 d6 ba ba 14 2f bb 01 22 a4 3b
       0.0053688176 -0.0016329207 -0.0026715235 0.0050089364
0000b0 38 c1 f4 3b 93 12 a6 bc cf 04 a8 3b 56 f9 74 3b
       0.0074693225 -0.020272529 0.0051275264 0.003738006
0000c0 82 ce 03 3c 43 59 69 bc 59 b1 71 3c ed 00 76 ba
       0.008044841 -0.014242473 0.014751756 -0.0009384293
0000d0 fb 58 e2 bc c7 35 49 bb 3c d2 da 3b 83 c7 b8 3b
       -0.02763032 -0.003070222 0.006677894 0.005639018
0000e0 8d 75 1a 3c 74 05 b9 3b b4 8a 30 3c 8a 76 40 3b
       0.00942744 0.005646402 0.010775257 0.002936753
0000f0 bd c4 ad bb 96 30 26 bb 36 32 da 3a 0d 75 90 3c
       -0.005302994 -0.002535855 0.0016647044 0.01763394
000100 2f 6d 82 bb d4 83 0c 3c 0b 65 22 bc 72 de a9 bc
       -0.003980301 0.008576352 -0.009911786 -0.020735953
000110 f6 4d 07 3c 92 02 29 3c e7 9c 3f 3c 0b f2 9b bc
       0.008258333 0.010315554 0.011695123 -0.019036314
000120 7d 9f d3 3c 5d 7b dd ba 3b dd cf 3b cc 94 a6 3c
       0.025832886 -0.0016897727 0.0063435114 0.020334624
000130 58 5b 9a 38 85 c2 c1 3c a4 cd e4 bb 4a ee 30 3c
       7.360306e-05 0.023652324 -0.006982522 0.010799
000140 c1 4e 2d bc 1d 32 5d bc ae 25 95 bb 69 f8 af bb
       -0.010577858 -0.0135007175 -0.004551611 -0.005370189
000150 af 32 0b 3c 85 9f 54 bc 7e b3 95 3c 2a 4f 16 3c
       0.008495971 -0.012977486 0.018274065 0.009174148
000160 76 29 dc bb b5 35 19 3c 38 54 82 39 99 12 8e 3b
       -0.0067188097 0.009351184 0.0002485828 0.004335713
000170 d0 7b 63 3c fc b5 1c 3b 7c 88 d2 3c 3c f7 10 bb
       0.0138845 0.0023912182 0.025699846 -0.002212002
000180 4c f0 00 3b b0 b6 34 bc 95 26 a0 3c 6b 34 d2 bb
       0.0019674478 -0.011029884 0.019549647 -0.00641494
000190 57 7c c9 3b 47 f4 28 3b 45 91 ba bb 03 a3 2a bb
       0.0061488557 0.0025780366 -0.005693587 -0.0026037104
0001a0 6e 13 83 3c 84 d3 3e 3c e0 12 9d 3b 43 b1 d4 ba
       0.016000476 0.011647109 0.00479351 -0.0016227145
0001b0 8e bd 7a 3c 25 86 80 3b 22 ab ce 3b da ca 50 3c
       0.015303982 0.0039222413 0.0063070217 0.012743676
0001c0 e2 e9 cc 3b 51 8a 21 3c 02 da 5d bc 11 62 04 bc
       0.006253467 0.009859637 -0.013540747 -0.0080800215
0001d0 6d 94 a7 3c 4d 29 a2 bb 01 d1 64 3c 18 85 2a bc
       0.020456517 -0.004948771 0.013965846 -0.010407709
0001e0 de 9a d2 3b e1 f0 d7 3b f3 3f cb 3c 8d ca 04 3c
       0.006427153 0.0065899943 0.024810767 0.0081049325
0001f0 fc dc 2f 3c b2 0c 87 3b b8 1b 14 3a 41 7a f2 bb
       0.010733839 0.0041213864 0.00056498824 -0.0073998277
000200 f1 55 92 3b 6b f4 1b 3c 1e 96 87 ba f4 1a f1 3a
       0.0044658114 0.009518723 -0.0010344421 0.0018394873
000210 d5 42 25 3c 18 ac 8e b9 07 f2 06 3c ae 4e a0 bc
       0.010086735 -0.0002721257 0.008236415 -0.019568767
000220 85 c8 da bb f8 ef 84 3c cb e2 3c bc f8 0e 21 bc
       -0.006676736 0.016227707 -0.011528681 -0.009830229
000230 a8 e9 64 bc 83 f6 60 3b ba 33 ed 3c 82 e5 2f bc
       -0.013971724 0.003432662 0.02895533 -0.010735871
000240 20 ee 4a bc ee db c1 39 b2 cd 9a bc 81 34 63 3c
       -0.012385875 0.0003697569 -0.018896911 0.013867498
000250 48 9e c6 ba a7 bd 92 3c db 13 1e 3c 0f 01 9c bb
       -0.0015153373 0.017912699 0.009648289 -0.0047608684
000260 d1 64 65 3b 4c 32 98 3b 24 b1 cc 3a 17 8c 29 3b
       0.0035002718 0.0046446677 0.0015616757 0.0025870854
000270 54 4c 56 3b bb c5 cb bb 7f 36 cd ba 70 b6 43 ba
       0.0032699304 -0.0062186397 -0.00156565 -0.0007465845
000280 a6 60 7c 3a 9f 5a 01 3c b4 55 48 3c b3 ea 47 3b
       0.0009627439 0.007895141 0.0122274645 0.0030504882
000290 99 c7 48 bc c0 2d bc bb d0 14 8a bb 73 29 94 bb
       -0.012254619 -0.0057427585 -0.004213907 -0.0045215427
0002a0 19 77 0b bc 78 23 7f bb 1d cb 00 bc cd 05 bc bb
       -0.008512282 -0.0038931053 -0.007860926 -0.005737996
0002b0 4e bd 8b 3b 98 15 91 3c 43 05 47 3c c8 2b a5 b8
       0.0042645102 0.017710492 0.012147251 -7.875968e-05
0002c0 77 2a 18 bc bf 3d 88 3c f2 97 3e bc bb fa 5e 3c
       -0.009287468 0.016631005 -0.011632906 0.0136095835
0002d0 6a 09 bd ba 41 8a b9 ba 54 43 df bb f8 97 e7 bb
       -0.0014422361 -0.0014155583 -0.006813446 -0.0070676766
0002e0 b2 1f c9 3a e5 b8 12 39 2f 4b 18 bc 14 d3 31 bc
       0.0015344529 0.00013992524 -0.009295269 -0.010853548
0002f0 85 9e ff 3b 27 17 df 3b 8d 5c d1 3c 14 af dc 3b
       0.0078008794 0.00680818 0.025556827 0.006734738
000300 f0 90 7a bc 14 36 0a bb d4 f4 fd 3b 05 4d 82 3b
       -0.015293345 -0.0021089362 0.007750133 0.0039764666
000310 7f 34 66 bb a6 7f 12 bc 41 14 da bb ad aa 5c 3c
       -0.0035126505 -0.008941567 -0.0066552465 0.013468427
000320 c1 48 26 3a 8b e4 72 bc 1c 55 39 bb d3 8e a7 bc
       0.00063432386 -0.014824997 -0.002827949 -0.020453846
000330 fd d2 6c bc 61 45 9a bc b7 3d 4a bc d3 de 3f 3c
       -0.0144546 -0.01883191 -0.0123438155 0.01171084
000340 26 91 17 3c d4 35 22 3c a1 c1 2a 3c 2a b9 05 3c
       0.009250915 0.009900529 0.010422141 0.008161822
000350 6d 93 70 bb a3 5c 56 3c b1 e3 17 b9 03 9b 11 3c
       -0.0036708966 0.01308361 -0.00014485304 0.008887055
000360 22 89 0f 3b 94 a1 f8 ba ea a6 ae 38 fa d0 06 bc
       0.0021901806 -0.0018969052 8.328057e-05 -0.008228535
000370 f9 b7 b1 3b db 5f b2 3b fd 54 52 bb cf 50 90 3b
       0.0054235426 0.005443556 -0.0032094114 0.0044041644
000380 12 47 0c 3c 32 f6 8d bc 22 72 6d 3b 72 40 bb 3b
       0.008561866 -0.01732931 0.0036231359 0.0057144696
000390 e3 eb 48 bc 33 b7 2c 3b 4e 0c c4 bc 38 a1 d2 3a
       -0.012263271 0.0026354312 -0.023931649 0.0016069775
0003a0 7c 46 47 bc 89 0a 49 3b 46 f4 ae 3b 88 c4 4f bc
       -0.012162801 0.0030676445 0.0053391783 -0.012681134
0003b0 54 8a 80 bc 26 de 1a bc 72 3b ab 3b f8 3a 2c bc
       -0.01569096 -0.009452378 0.0052255923 -0.010512106
0003c0 58 ae 50 bb c8 ed 0a bc c9 46 4d 3c f3 b0 46 3b
       -0.0031842198 -0.008479543 0.0125290835 0.0030317872
0003d0 4e 66 49 bb 6f 8c 4c bc 30 01 a5 bc e6 cb 0c ba
       -0.0030731144 -0.012484654 -0.020142168 -0.00053709594
0003e0 d2 06 18 bc 05 2c 96 b9 cb 63 fc ba 43 1e 45 3c
       -0.00927897 -0.00028643027 -0.0019255815 0.012031141
0003f0 de 7e 54 bb e6 48 c5 ba 2c e9 6d bc af 2e 35 bc
       -0.0032424252 -0.0015051633 -0.014520925 -0.0110584935

action_model._discrete_distribution.branches.1.bias f4 [2]
000000 05 c8 39 3c 06 c8 39 bc
       0.011339192 -0.011339193

action_model._discrete_distribution.branches.2.weight f4 [2, 128]
000000 17 9b 5e bc 11 d3 7c bc d7 72 15 bc e9 ae b8 3a
       -0.013586781 -0.0154311815 -0.009121618 0.0014090213
000010 8a a5 ab bb 28 4d a7 bb 36 3a 9e bb 20 d2 ec bb
       -0.0052382397 -0.0051056333 -0.0048287166 -0.0072271973
000020 02 ee e7 3a d3 c2 b4 3b 2c 83 8f 3c c7 3f 29 bc
       0.0017694833 0.005516389 0.017518602 -0.010330147
000030 4d 84 aa bb b6 19 56 3c 71 69 a2 bb e8 a2 8d 3c
       -0.0052037598 0.013067653 -0.0049564173 0.017289594
000040 b6 55 d1 39 8c cb 0a 3c ea 61 f8 bb fc 67 27 bb
       0.00039927446 0.008471381 -0.0075800316 -0.0025544157
000050 ba 0a f4 ba b6 8b 01 3c 16 a0 98 3b b0 4b 56 3c
       -0.001861892 0.007906845 0.0046577556 0.013079569
000060 b0 cf 8d bc 6e 86 58 bc 42 97 b1 3b f3 26 17 3c
       -0.017310947 -0.013215644 0.0054196427 0.009225595
000070 8a 52 4d 3c 72 8f 9c ba 4f 9b b3 bb 88 86 b4 3b
       0.012531886 -0.0011944606 -0.0054811607 0.0055092014
000080 59 89 a4 bb b0 06 e9 ba 2a 75 2d 3c 1f 8a 53 bc
       -0.005021256 -0.0017778482 0.010587016 -0.012911349
000090 c1 56 e0 bb 67 61 a1 3c ba de 08 3c b7 71 94 ba
       -0.0068462794 0.019699765 0.008353883 -0.0011325394
0000a0 9a da b1 3b 15 73 3e bc e8 e2 ea 3b 8f cd 93 3b
       0.0054276707 -0.011624117 0.0071681626 0.0045105885
0000b0 eb e6 43 bc af 2e 8d bb ae 76 73 3b 3a 0c 6b 3c
       -0.011956911 -0.0043085436 0.0037149596 0.014346177
0000c0 c9 04 bf 3b 5c db 9e 3b 07 88 05 3c a9 f9 b1 3b
       0.005829428 0.004847927 0.008150107 0.005431373
0000d0 21 75 06 3c 11 87 0a 3a 47 d3 5f 3b a2 a8 90 bb
       0.008206637 0.00052844087 0.003415303 -0.004414634
0000e0 6f 23 aa 3a 66 df 46 bc 53 4c 08 bc 13 96 71 bc
       0.0012980531 -0.012138223 -0.008318978 -0.014745253
0000f0 0e 5f 88 3a 7c 38 30 3b 52 e9 f5 bb 38 b1 fe ba
       0.0010404305 0.0026889136 -0.0075046206 -0.0019431477
000100 d4 98 85 3c aa 2f 17 3c a0 dd b3 ba c9 a0 7d bb
       0.016308226 0.009227673 -0.0013722666 -0.0038700572
000110 83 a0 18 3b e2 bc 2d 3b bb a6 84 3c 0d 03 1f 3c
       0.0023289032 0.0026510288 0.016192785 0.009705317
000120 76 6a 89 bc 4e ba d1 bb 51 df e3 3b 3e 8d 65 3c
       -0.016774397 -0.006400383 0.0069541116 0.014010726
000130 11 5a 36 bc 3c 43 41 3c f3 b8 bf bb 9b 65 05 3b
       -0.011129872 0.011795815 -0.005850905 0.002035475
000140 20 f9 9f 3b ed 6b db 3b 05 ba 61 3a e5 59 01 3c
       0.004881993 0.0066962154 0.0008610788 0.007894968
000150 a6 c1 35 bc 0e 9a 17 bb c2 1d 74 3c e0 5c a1 3b
       -0.011093533 -0.0023132595 0.014899673 0.0049244016
000160 18 3a a4 3b ea bc 35 3b 3a 74 85 3c 1d 86 14 3c
       0.005011808 0.002773101 0.016290773 0.009065178
000170 ab 0f ed ba 29 85 86 bc 5e 2e e9 3b 46 2a 88 bc
       -0.0018086334 -0.016420918 0.007116123 -0.01662172
000180 00 e6 3c 3c 21 24 da bb 64 b7 43 bc bc 74 f8 3b
       0.011529446 -0.006657139 -0.011945579 0.007582275
000190 de b2 ad 3c 55 0c 60 bc 6e fe 98 3c b8 c6 17 3c
       0.021203455 -0.013674815 0.018676009 0.009263687
0001a0 f0 4b 83 3b 4b 0f 02 3a c3 cb 75 bb 55 fb 32 bb
       0.004006855 0.0004961385 -0.0037505485 -0.002731045
0001b0 28 83 d7 3b 5d 0c 07 bc cf 29 de 3b ea 57 e4 3b
       0.0065769143 -0.008242694 0.0067798863 0.006968488
0001c0 53 0c 8f 3c 59 9f ac 3c 33 6b 05 bc 68 be de bb
       0.017461931 0.021072077 -0.008143234 -0.0067976005
0001d0 71 2b 3f 3c 1f 9e 87 3c 9b 1d 8c 3b 19 73 a3 bb
       0.011668072 0.01655489 0.00427599 -0.004988086
0001e0 e1 79 2d 3c 3e 97 8b 3b 1b 2b 40 3c f5 f7 d0 3b
       0.01058814 0.004259973 0.011729027 0.006377215
0001f0 a5 63 c6 3c 2e ec 80 3b 83 d9 c4 bb b8 6b f6 3b
       0.024217436 0.003934405 -0.0060073747 0.0075201653
000200 2a 59 d6 3b d4 71 9c ba 2c 49 60 3c b2 fc 3e bc
       0.006541391 -0.0011935779 0.013689321 -0.011656927
000210 d0 c7 6d 3b ff 20 34 bc c4 9e c6 3b 78 98 fa 39
       0.0036282428 -0.010994195 0.006061407 0.00047797314
000220 8c 54 15 bc 40 b4 cf bb e8 ea 98 3b ca f1 31 3c
       -0.009114396 -0.006338626 0.004666675 0.01086087
000230 00 6f 9b 3b 57 ea 10 bc aa 4d 37 3c 06 36 1e bc
       0.004743457 -0.0088449335 0.01118795 -0.009656435
000240 5a 0e 86 3c 29 2e c7 bb ed 70 53 3c 4d 98 01 bb
       0.016364265 -0.0060785008 0.012905342 -0.0019774616
000250 96 4c 07 3c 9e 56 ac 3b 78 0f 67 3b 02 a0 b3 bc
       0.008258006 0.005259349 0.0035257023 -0.021926884
000260 16 0f 4b 3c b7 ff c8 ba 1c 8a 77 bc 7a 07 99 3b
       0.0123937335 -0.0015334998 -0.015108611 0.0046700807
000270 e4 3e b2 bb 52 46 2e bc 76 55 68 3b 8c 9a fd bb
       -0.005439626 -0.010636883 0.003545133 -0.0077393707
000280 a8 7e d0 3b 5a 99 ae 3c 9e 77 90 bb 81 78 57 3b
       0.006362755 0.021313358 -0.0044087907 0.0032878222
000290 20 66 43 3b d3 09 8b bc 90 ba b4 bb 00 5a 35 3c
       0.002981551 -0.016972458 -0.005515404 0.011068821
0002a0 d3 ce ed 3a fd 5f de 3a 7b 94 42 3b e7 b2 8b bc
       0.0018143303 0.0016965863 0.0029690552 -0.01705308
0002b0 8a c4 0b 3b 14 54 af b9 2f d5 4a ba 62 c7 fe bb
       0.0021326863 -0.00033441244 -0.00077374553 -0.007775233
0002c0 77 0a d7 3b 83 ca 5b 3c 77 4f ab bb 7e 1c 37 bc
       0.006562527 0.013414982 -0.005227979 -0.011176227
0002d0 34 45 8f bb 14 42 a3 39 26 85 14 bb 9a 04 59 3c
       -0.0043722633 0.00031139015 -0.002266237 0.013245726
0002e0 d1 36 33 3b 15 13 45 3b ac 28 57 3c f7 67 16 3b
       0.0027345906 0.0030071188 0.0131322555 0.0022950151
0002f0 e5 7f 3a bc 20 d3 dc bb 64 f3 a1 3c 59 cb b0 bb
       -0.0113830315 -0.0067390352 0.019769378 -0.0053953347
000300 71 5e 31 bc 04 f4 0a bc 42 3a 08 3b cf 47 09 3c
       -0.010825739 -0.008481029 0.0020786677 0.008378937
000310 f5 7d 62 b9 2e 8c ce 3a 89 85 f8 bb 34 3b 68 bc
       -0.00021599962 0.001575833 -0.007584278 -0.014174271
000320 63 94 87 3b ce 7d 69 3c bc e0 2b bc 48 df f0 bb
       0.004137562 0.014251186 -0.010490593 -0.007350836
000330 29 8f 6c ba 63 8d db bb 66 46 4e 3c 8c e2 8f 3b
       -0.0009024018 -0.006700204 0.0125900265 0.00439102
000340 35 da 07 bb de ec 0f 3c ca 49 7d 3a ec 80 27 bc
       -0.0020729427 0.008784501 0.00096621795 -0.010223608
000350 ec 11 c4 b9 00 56 61 3c 89 dc ae bb ee 3b 01 3c
       -0.00037397386 0.013753414 -0.0053363484 0.0078878235
000360 4d 63 91 bc 86 e7 54 ba 2d fd 0c bc cc 6a 33 bc
       -0.017747546 -0.0008121658 -0.008605284 -0.010950755
000370 da 38 bb bb 03 46 8d 3b f3 c0 87 bb 7b eb 91 3b
       -0.0057135643 0.0043113246 -0.0041428744 0.0044531203
000380 0d 83 c6 ba 3d 44 10 bb b9 cf df 3b 99 00 85 bb
       -0.0015145257 -0.002201333 0.0068301824 -0.004058909
000390 36 88 9d 3b 79 f0 48 3c 77 78 b6 ba 8b 91 94 3c
       0.0048074974 0.012264364 -0.0013921399 0.018135807
0003a0 5e 99 70 bb ab 94 7a bb a8 11 a1 bc 95 b0 09 bc
       -0.0036712508 -0.0038235586 -0.01966174 -0.008403917
0003b0 92 a8 f7 ba bd 4d 10 bc 83 9e 02 3c e6 c8 c2 ba
       -0.0018894842 -0.008807597 0.007972362 -0.0014860898
0003c0 a8 95 84 bc ae 4e 97 bc 9e 35 04 3d cb 73 9b bb
       -0.016184643 -0.018470135 0.032277696 -0.004744028
0003d0 d7 69 12 bc 1a 88 73 bc c1 81 1a 3b 09 dc cd ba
       -0.008936367 -0.014863992 0.0023575875 -0.0015705834
0003e0 51 dc ba 3a e4 48 09 bb 11 29 4a bc fc 6f ce bc
       0.0014256333 -0.0020947987 -0.012338893 -0.025199883
0003f0 93 17 5d bc 20 19 e4 3b ba ca a4 3b 9b bc cd 3b
       -0.01349439 0.006961003 0.0050290497 0.006278587

action_model._discrete_distribution.branches.2.bias f4 [2]
000000 cd 20 b1 3b cb 20 b1 bb
       0.0054055215 -0.0054055206
