Assets/results/traffic_1531/TrafficLightBrain/TrafficLightBrain-4719.onnx (onnx, 221984 bytes, 18 tensors)

discrete_act_size_vector f4 [1, 4]
2.0 2.0 2.0 2.0
00000000: 0000 0040 0000 0040 0000 0040 0000 0040

network_body.observation_encoder.processors.0.normalizer.running_mean f4 [10]
3.627754 3.7169492 3.3118649 3.5618644 3.4340243 1.5018754 0.14512712 0.14745763
0.15720336 0.14788134
00000000: 1f2d 6840 7fe2 6d40 98f5 5340 96f5 6340
00000010: 0ec7 5b40 743d c03f 349c 143e 22ff 163e
00000020: ebf9 203e 356e 173e

network_body._body_endoder.seq_layers.0.weight f4 [128, 10]
0.37125918 0.15659519 -0.38590518 0.3715943 0.4708708 0.45701674 -0.52183634 -0.39464468
0.32353947 0.14002681 -0.076492265 0.1495942 0.122213736 -0.66594744 0.31760338 0.0020823043
0.3957474 0.13289535 0.46518755 0.016417587 -0.13787669 -0.8066611 -0.42239794 0.3449176
-0.0838815 0.17938235 -0.020767277 0.09216307 -0.36563793 -0.12694643 -0.18574159 -0.10025541
0.44422522 -0.09603497 -0.2358305 0.22926372 0.3017617 -0.7949338 -0.0974477 0.026030242
0.20918244 -0.24088974 0.24207935 -0.11499807 0.34009463 0.08247877 -0.079753414 0.2795807
0.39118996 0.8052293 -0.0593891 0.37364206 -0.396766 0.28304738 0.32892805 0.3719309
0.00888095 -0.77930087 -0.011934457 -0.19779494 0.0460638 0.12568079 0.2595555 0.10149826
0.5265831 0.22860429 0.5253143 -0.003194569 0.12265066 0.096156195 -0.2006357 0.3147417
-0.10850418 0.35938033 0.18166085 0.047535162 0.23092906 -0.3663907 -0.5816826 -0.37934065
0.6404273 0.22782506 0.21676429 0.35000104 0.1435575 -0.23220688 0.1967196 0.00774764
0.5324681 -0.04156893 0.16366215 0.35980433 0.065962166 -0.09481415 -0.33374715 -0.031825043
-0.5252646 0.24649894 0.061109442 -0.6614453 -0.2934566 0.25694486 0.19178681 -0.11929125
0.66697514 -0.37529525 -0.43540323 0.00054763735 0.14899428 -0.4568738 -0.10710434 -0.11354697
-0.23010464 -0.09151208 0.2143786 0.45822608 -0.08528744 -0.6931817 -0.20631753 0.518062
-0.400523 -0.611605 0.36786827 -0.7423984 0.29785523 -0.40432358 0.005459321 0.11488105
0.04312147 0.120055474 0.40511304 0.68410546 -0.14157504 0.3453117 0.7441802 0.52804315
0.25180808 -0.3560271 0.13074802 -0.38957593 0.06258169 0.07660217 -0.6747791 -0.18236403
-0.20288748 -0.23524341 0.53893936 -0.10314562 -0.24816158 0.18874945 0.43960804 -0.13385572
-0.11840397 -0.1283192 0.75131166 0.35849008 0.101118065 -0.37135944 0.035267036 0.3244185
-0.7974375 0.15255767 0.4113217 0.27175736 -0.5228472 0.31473675 0.46064764 -0.1187901
0.34906328 0.4230242 -0.22685832 0.28375015 0.011354827 -0.074383385 0.29289246 0.5705808
0.3827956 -0.30103973 -0.20982347 0.15363798 -0.13122454 -0.004502442 0.011906198 -0.29574633
-0.057100184 0.12755091 -0.44964892 -0.08532164 -0.32375583 0.504401 -0.12875387 -0.45517457
-0.49857304 0.17428945 0.45682195 0.24687056 0.13073196 0.20819548 0.6870291 -0.42421654
-0.4285325 -0.1415037 0.5595209 -0.41891497 0.26472086 -0.92179686 -0.3501067 0.27086702
0.29870847 -0.27682623 0.26472288 0.54278594 0.13884893 -0.4825347 0.29776478 0.41473508
-0.5680066 0.3267804 -0.020820262 -0.039695617 0.4252301 0.19959418 0.39934415 0.36670178
-0.79382557 0.3293862 0.4410522 -0.24594966 -0.08303275 0.08419919 -0.061181236 0.06461137
0.26946405 -0.45339188 0.111227155 0.20515995 0.09070804 0.32374087 -0.23175348 -0.46375993
-0.554502 -0.011113929 0.24414203 0.058447536 -0.31327638 -0.08646375 -0.38400492 0.37258226
0.3445129 0.78175765 0.2406272 -0.13804315 -0.35080564 -0.044365197 -0.55727786 -0.50001365
00000000: af15 be3e 7d5a 203e 5d95 c5be 9c41 be3e
00000010: fa15 f13e 19fe e93e 1197 05bf de0e cabe
00000020: f7a6 a53e 3063 0f3e faa7 9cbd 392f 193e
00000030: 324b fa3d 887b 2abf e99c a23e 4577 083b
00000040: 679f ca3e b815 083e 102d ee3e 2d7e 863c
00000050: 8c2f 0dbe 5881 4ebf 8b44 d8be 0a99 b03e
00000060: 10ca abbd 02b0 373e 2320 aabc febf bc3d
00000070: e534 bbbe 3ffe 01be 0b33 3ebe b552 cdbd
00000080: 7d71 e33e fbad c4bd 8d7d 71be 1cc4 6a3e
00000090: 8280 9a3e c880 4bbf a992 c7bd 603d d53c
000000a0: ec33 563e cdab 76be a6e3 773e 1c84 ebbd
000000b0: e220 ae3e a1ea a83d c255 a3bd 3425 8f3e
000000c0: 0d4a c83e 8223 4e3f fc41 73bd 034e bf3e
000000d0: ea24 cbbe 96eb 903e 4269 a83e ba6d be3e
000000e0: 6781 113c 4380 47bf be88 43bc c28a 4abe
000000f0: 65ad 3c3d 77b2 003e 75e4 843e 52de cf3d
00000100: 26ce 063f 3e17 6a3e ff7a 063f f95b 51bb
00000110: 4530 fb3d 8aed c43d 7273 4dbe d325 a13e
00000120: 7137 debd b300 b83e 4d05 3a3e 3bb4 423d
00000130: ab78 6c3e 9097 bbbe 27e9 14bf f038 c2be
00000140: 0bf3 233f f94a 693e 75f7 5d3e 5633 b33e
00000150: bd00 133e a4c7 6dbe dd70 493e eadf fd3b
00000160: d44f 083f 2f44 2abd 0d97 273e 4638 b83e
00000170: 2c17 873d ec2d c2bd e8e0 aabe fa5a 02bd
00000180: be77 06bf 386a 7c3e e54d 7a3d 7b54 29bf
00000190: f23f 96be 478e 833e c363 443e f94e f4bd
000001a0: e2be 2a3f b326 c0be 2ced debe 528f 0f3a
000001b0: f591 183e 5deb e9be 8559 dbbd 508b e8bd
000001c0: 8da0 6bbe af6a bbbd 1086 5b3e 9c9c ea3e
000001d0: 2eab aebd 5b74 31bf e744 53be b69f 043f
000001e0: 5a11 cdbe 2592 1cbf 3b59 bc3e d20d 3ebf
000001f0: 7b80 983e 8003 cfbe 1be4 b23b c246 eb3d
00000200: 23a0 303d a5df f53d fa6a cf3e 8921 2f3f
00000210: 0cf9 10be b2cc b03e 9882 3e3f d62d 073f
00000220: fdec 803e 2f49 b6be cfe2 053e 7f76 c7be
00000230: d42a 803d 99e1 9c3d 53be 2cbf a3bd 3abe
00000240: bcc1 4fbe a6e3 70be eef7 093f 033e d3bd
00000250: 121e 7ebe 8947 413e 4e14 e13e 7911 09be
00000260: c87d f2bd 1c66 03be f655 403f 038c b73e
00000270: fd16 cf3d d322 bebe 2b74 103d 2e1a a63e
00000280: dd24 4cbf 1438 1c3e c298 d23e c823 8b3e
00000290: 50d9 05bf 2d25 a13e 02da eb3e 3948 f3bd
000002a0: 6cb8 b23e a196 d83e 8c4d 68be b347 913e
000002b0: 9909 3a3c 5156 98bd 00f6 953e 9511 123f
000002c0: c9fd c33e e121 9abe f7db 56be 4653 1d3e
000002d0: ba5f 06be 3989 93bb 3712 433c 106c 97be
000002e0: e2e1 69bd b59c 023e 6238 e6be 1dbd aebd
000002f0: 53c3 a5be 6d20 013f 0ed8 03be a40c e9be
00000300: f744 ffbe ef78 323e 91e4 e93e a3cb 7c3e
00000310: 99de 053e 3231 553e 24e1 2f3f e932 d9be
00000320: 9d68 dbbe 59e6 10be c33c 0f3f 067c d6be
00000330: 7e89 873e e1fa 6bbf 2f41 b3be 15af 8a3e
00000340: 51f0 983e 2bbc 8dbe c289 873e 05f4 0a3f
00000350: 6a2e 0e3e ca0e f7be a074 983e 2858 d43e
00000360: e168 11bf c34f a73e 418f aabc df97 22bd
00000370: c2b7 d93e 6b62 4c3e d676 cc3e 56c0 bb3e
00000380: 2738 4bbf 4fa5 a83e 98d1 e13e 3ada 7bbe
00000390: 130d aabd a070 ac3d 2d99 7abd f752 843d
000003a0: 31f7 893e fb22 e8be 10cb e33d 7315 523e
000003b0: 23c5 b93d 5dc1 a53e c950 6dbe f171 edbe
000003c0: d8f3 0dbf 3217 36bc 5e00 7a3e af66 6f3d
000003d0: c365 a0be e813 b1bd 4b9c c4be 1ac3 be3e
000003e0: ff63 b03e 4521 483f fa66 763e 2f5b 0dbe
000003f0: cc9c b3be 48b8 35bd c3a9 0ebf e500 00bf

network_body._body_endoder.seq_layers.0.bias f4 [128]
-0.0009833623 -0.001382147 0.010803801 -0.004880697 0.0055307043 0.010206281 -9.397905e-05 0.0072478815
0.0071904007 0.008917453 0.0012752599 0.0061988407 -0.010508558 -0.010170233 -0.010540672 -0.0030439065
0.00881186 0.00030473038 0.002710955 0.011263659 0.012064595 0.009298512 0.008013164 0.0112867085
0.0075531583 -0.007103614 0.008554616 0.007384604 0.0087820515 0.004765729 0.0073133036 0.010836257
-0.0016956816 0.011524586 0.007816282 0.00923344 0.0046606082 0.009652033 -0.00031554123 0.006523536
-0.0073093167 0.0018056368 0.0021233393 -0.0033309974 -0.00016326252 0.00031776907 0.0044055213 0.010059416
0.0035779024 0.012915999 -0.00485598 -0.01017017 0.009813883 0.007398617 0.0045732493 0.008155637
-0.00222862 0.008980043 -0.00545635 0.0036630302 0.009615341 0.008775198 0.012266996 0.008035923
0.011540128 0.007112152 0.010128012 0.011684707 0.008087805 0.000684918 0.0058893585 0.011962739
0.005311326 -0.0119287055 0.0002868392 -0.004772233 -0.009039706 0.008924369 -0.0098770885 0.0035771239
-0.008423977 0.010137808 0.00936486 -0.0033169303 -0.0052724024 0.012162851 0.0038428989 -0.011304061
-0.003677656 0.004352251 0.0010116305 -0.005257813 0.0046906834 0.006872478 -0.011383693 0.011383633
-0.0017719063 0.000455287 0.0093678655 0.003380574 -0.008909719 0.004069206 -0.006275512 0.007887348
0.004952332 0.0046791583 0.0076196603 0.011681296 0.0015616546 0.007896247 -0.00589522 0.013792679
-0.008777965 -0.004810561 -0.009331573 0.0015792658 0.010550746 0.011256506 0.013310386 -0.006702272
-0.0059463093 -0.0032552886 0.0004918628 -0.0009644603 -0.0051134177 0.010007884 0.004658613 0.008967424
00000000: 2ae4 80ba 2829 b5ba 6d02 313c 41ee 9fbb
00000010: e93a b53b 3f38 273c 9e16 c5b8 a37f ed3b
00000020: 749d eb3b 821a 123c 9f26 a73a a51f cb3b
00000030: 162c 2cbc 0da1 26bc c8b2 2cbc 477c 47bb
00000040: 9f5f 103c 38c4 9f39 47aa 313b 368b 383c
00000050: 94aa 453c c958 183c a549 033c e3eb 383c
00000060: 7c80 f73b 6fc5 e8bb a928 0c3c 8cfa f13b
00000070: 98e2 0f3c d529 9c3b 70a4 ef3b 8e8a 313c
00000080: a241 deba 9ed1 3c3c dd0f 003c db47 173c
00000090: 04b8 983b 9023 1e3c 3a6f a5b9 63c3 d53b
000000a0: fe82 efbb 1eab ec3a b927 0b3b dd4c 5abb
000000b0: 7331 2bb9 3e9a a639 315c 903b 40d0 243c
000000c0: 3e7b 6a3b a09d 533c ea1e 9fbb c9a0 26bc
000000d0: 69ca 203c 1970 f23b 32db 953b 399f 053c
000000e0: 0a0e 12bb 0821 133c 2ecb b2bb 730f 703b
000000f0: aa89 1d3c d9c5 0f3c 83fb 483c 1ba9 033c
00000100: ce12 3d3c 0e0d e93b f6ef 253c 3771 3f3c
00000110: b682 043c 128c 333a 85fb c03b 5dff 433c
00000120: a20a ae3b 9e70 43bc e862 9639 6460 9cbb
00000130: 461b 14bc 8437 123c 83d3 21bc 2e6e 6a3b
00000140: b804 0abc 0c19 263c 126f 193c db60 59bb
00000150: 1ec4 acbb b246 473c 25d9 7b3b ab34 39bc
00000160: d404 71bb 549d 8e3b b098 843a bb49 acbb
00000170: 4eb4 993b 8632 e13b ab82 3abc 6b82 3a3c
00000180: 4f3f e8ba 96b3 ee39 ad7b 193c 9f8c 5d3b
00000190: 12fa 11bc f956 853b cfa2 cdbb ef39 013c
000001a0: 2c47 a23b a053 993b 58ae f93b e862 3f3c
000001b0: 6fb0 cc3a 435f 013c b12c c1bb b0fa 613c
000001c0: 74d1 0fbc e9a1 9dbb 74e3 18bc 5eff ce3a
000001d0: 09dd 2c3c 356d 383c ce13 5a3c bc9e dbbb
000001e0: 42d9 c2bb ae56 55bb 5bf0 003a d6d3 7cba
000001f0: 758e a7bb 1cf8 233c 47a7 983b 1aec 123c

network_body._body_endoder.seq_layers.2.weight f4 [128, 128]
0.003350472 -0.0497082 -0.07638535 0.09439818 0.034655347 0.082767114 0.05631071 0.025215348
-0.022282371 -0.045512136 -0.023560056 0.11537988 -0.07000392 0.040720522 0.03905767 -0.03305952
0.15631191 0.0768662 0.010328084 0.062922955 -0.05075888 0.030617034 0.049987 0.07776272
-0.022696085 0.019805307 0.13573797 -0.08602686 -0.12264503 0.09417998 0.08270177 -0.024609879
-0.041647468 0.22592539 -0.1730603 0.1362297 0.08285024 -0.0016947526 -0.044309042 0.03634925
0.05172006 0.04392427 -0.12256255 -0.046094112 0.14605664 0.073112935 0.11493548 0.080117725
-0.081553206 -0.041980512 0.05809806 0.013424723 -0.09085265 0.02141943 0.108423606 0.069911465
-0.115934804 0.0034643598 0.028713893 -0.059950635 -0.01385859 0.06321209 0.01461352 0.0077609397
0.009091279 0.094088174 -0.095199704 0.030167304 -0.14601777 -0.02084098 0.13708289 -0.05817313
0.003303845 -0.098056644 -0.09645271 -0.11291487 0.06822474 0.25674847 -0.030864833 -0.1358806
-0.1037477 0.07639024 -0.04846994 -0.032902118 -0.0907563 0.19118328 -0.019997682 0.044611044
0.0399986 0.057494678 0.105244584 0.061178062 -0.11955125 0.06290603 0.007160915 -0.0041773813
0.06208949 -0.089848824 0.030343244 -0.113959804 -0.028633015 0.023154894 -0.13236429 0.144231
-0.08187119 0.057541046 0.0012689828 0.14792633 0.22942103 0.040628843 -0.10294342 0.0022168218
-0.18293147 -0.13080543 -0.0905416 0.08025091 -0.03622177 0.044216942 0.012321239 0.020377133
0.0772615 0.03890427 0.08921981 0.14214703 0.056848366 -0.08906744 0.099780254 0.06564816
0.03759053 -0.05938495 0.10511755 -0.042791408 -0.017427431 -0.07114811 0.04230792 0.019312704
0.071211584 0.0024024097 -0.102393396 0.106931545 0.13548164 -0.058706064 0.0023919018 -0.011858465
0.011477445 -0.11480949 0.08653102 -0.046731774 0.09486865 -0.105257116 -0.028567713 -0.010795173
0.034295693 -0.0032056095 0.08210527 -0.11961593 0.109069966 -0.028940799 0.014526418 0.13119036
-0.10601696 -0.15595211 -0.076196946 -0.21636727 -0.04804114 0.11609891 -0.016835876 -0.047957726
0.03863234 0.07668388 -0.03271022 0.0071148006 -0.15607938 0.039159216 -0.007616268 -0.060165465
-0.19542213 0.030216701 -0.035967525 0.08115138 -0.062322326 -0.053597834 0.03324553 -0.15162472
-0.01682114 -0.009487796 0.10885266 -0.11439685 0.09295229 0.010293349 0.16860275 -0.15860465
-0.053711176 0.10177305 0.03210693 -0.111570686 0.029321454 -0.034558438 -0.003587112 -0.14173435
-0.077615924 -0.035397954 0.025805572 0.037721448 -0.07633758 -0.08887771 -0.14211118 0.024347095
0.06041914 0.10370066 0.124641135 0.074541 -0.05239029 -0.008279022 -0.10551686 0.03361077
-0.09041596 -0.09552349 0.037476677 -0.03760991 -0.013706222 -0.06892383 -8.317787e-05 -0.17465483
0.04989133 -0.093046166 -0.087841146 0.15501235 0.014163226 -0.10983863 0.052060876 0.0508807
-0.15752365 0.02591486 -0.02986392 0.00099366 0.09480944 0.065178275 0.003712322 0.013074726
-0.029872905 -0.18570925 0.23663652 0.16854993 -0.0418669 -0.101360396 0.061364282 -0.027010618
-0.015686288 0.11473033 0.10676218 -0.0657339 -0.11270313 -0.045612454 0.054576367 -0.00095470675
00000000: 9893 5b3b d39a 4bbd ec6f 9cbd d553 c13d
00000010: c4f2 0d3d ce81 a93d 0fa6 663d 6b90 ce3c
00000020: 8589 b6bc ef6a 3abd 0501 c1bc 494c ec3d
00000030: 375e 8fbd 90ca 263d effa 1f3d 6b69 07bd
00000040: 3b10 203e 076c 9d3d 2037 293c c0dd 803d
00000050: 8be8 4fbd 93d0 fa3c 2bbf 4c3d 1042 9f3d
00000060: 24ed b9bc bd3e a23c e5fe 0a3e da2e b0bd
00000070: 512d fbbd 6fe1 c03d 8c5f a93d a89a c9bc
00000080: 8996 2abd fc58 673e b836 31be cc7f 0b3e
00000090: 63ad a93d 7622 deba 667d 35bd f3e2 143d
000000a0: 6ad8 533d efe9 333d 1302 fbbd 2ecd 3cbd
000000b0: df8f 153e 3cbc 953d 4b63 eb3d c314 a43d
000000c0: 5e05 a7bd c2f3 2bbd 3bf8 6d3d 5ff3 5b3c
000000d0: f410 babd cd77 af3c 320d de3d be2d 8f3d
000000e0: 3a6f edbd 500a 633b 6639 eb3c cc8e 75bd
000000f0: 240f 63bc 5775 813d 8c6d 6f3c 7b4f fe3b
00000100: 96f3 143c 4db1 c03d 10f8 c2bd 6c21 f73c
00000110: af85 15be b4ba aabc 755f 0c3e f346 6ebd
00000120: 5285 583b ecd1 c8bd 0089 c5bd e93f e7bd
00000130: 6ab9 8b3d 8974 833e 3fd8 fcbc 4924 0bbe
00000140: ad79 d4bd 7c72 9c3d 6a88 46bd 5fc4 06bd
00000150: 70de b9bd 8dc5 433e 2ed2 a3bc 12ba 363d
00000160: 92d5 233d 8a7f 6b3d 798a d73d d995 7a3d
00000170: 49d7 f4bd e0d4 803d 1ca6 ea3b 6ae2 88bb
00000180: 8d51 7e3d a902 b8bd 6592 f83c c263 e9bd
00000190: c98f eabc 55af bd3c 818a 07be 4bb1 133e
000001a0: 15ac a7bd 29b0 6b3d ff53 a63a 007a 173e
000001b0: 59ed 6a3e 6e6a 263d 00d4 d2bd 1948 113b
000001c0: 6352 3bbe dcf1 05be e06d b9bd 975a a43d
000001d0: 475d 14bd d31c 353d 06df 493c f2ed a63c
000001e0: 473b 9e3d 155a 1f3d e0b8 b63d fe8e 113e
000001f0: d5d9 683d fd68 b6bd 9759 cc3d 8b72 863d
00000200: 87f8 193d a23d 73bd df47 d73d 0b46 2fbd
00000210: f9c3 8ebc 1ab6 91bd 124b 2d3d ad35 9e3c
00000220: 61d7 913d bf71 1d3b a1b3 d1bd edfe da3d
00000230: b3bb 0a3e c575 70bd 74c1 1c3b 024a 42bc
00000240: e50b 3c3c 3d21 ebbd 2d37 b13d d169 3fbd
00000250: 7f4a c23d 0b91 d7bd d606 eabc 3dde 30bc
00000260: a479 0c3d 3415 52bb cf26 a83d 32f9 f4bd
00000270: 1360 df3d 4115 edbc 3700 6e3c c456 063e
00000280: 6c1f d9bd e9b1 1fbe 250d 9cbd 628f 5dbe
00000290: c9c6 44bd 44c5 ed3d 64eb 89bc 526f 44bd
000002a0: f23c 1e3d 700c 9d3d 27fb 05bd 4623 e93b
000002b0: 46d3 1fbe 6a65 203d e391 f9bb 1070 76bd
000002c0: bd1c 48be 0489 f73c af52 13bd b232 a63d
000002d0: b245 7fbd 6789 5bbd 772c 083d 8343 1bbe
000002e0: 7dcc 89bc b372 1bbc 25ee de3d e548 eabd
000002f0: c55d be3d 6fa5 283c 33a6 2c3e 4269 22be
00000300: 4000 5cbd 646e d03d 8e82 033d 2c7f e4bd
00000310: 8c33 f03c 268d 0dbd c115 6bbb cf22 11be
00000320: 19f5 9ebd 72fd 10bd 3566 d33c ce81 1a3d
00000330: e156 9cbd 8405 b6bd 9885 11be 8f73 c73c
00000340: 0f7a 773d 0361 d43d da43 ff3d f4a8 983d
00000350: 3397 56bd bca4 07bc 3919 d8bd 72ab 093d
00000360: 012c b9bd d2a1 c3bd 2581 193d d90c 1abd
00000370: 1090 60bc f027 8dbd c76f aeb8 b7d8 32be
00000380: da5a 4c3d fd8e bebd 0fe6 b3bd 8fbb 1e3e
00000390: e00c 683c 13f3 e0bd c93d 553d 4868 503d
000003a0: e14d 21be 674b d43c 2ea5 f4bc b23d 823a
000003b0: 742b c23d 307c 853d 6e4a 733b 6037 563c
000003c0: 06b8 f4bc 912a 3ebe d850 723e 5a98 2c3e
000003d0: a07c 2bbd 0a96 cfbd 1d59 7b3d 5f45 ddbc
000003e0: 8880 80bc bcf7 ea3d 21a6 da3d 7f9f 86bd
000003f0: e6d0 e6bd 20d4 3abd 788b 5f3d 4945 7aba

network_body._body_endoder.seq_layers.2.bias f4 [128]
0.0054941773 -0.009231215 -0.0058108377 0.0092997495 -0.009898911 0.009981164 -0.008696236 0.006633153
0.010089591 -0.004632062 -0.0010767347 -3.751933e-05 0.009254032 0.010248707 -0.012343082 0.011232451
0.0070220106 -0.0066613196 0.009246634 -0.011030917 -0.0063175694 -0.011038885 0.009111091 0.0052477736
-0.0017483613 -0.0036052791 -0.0021147698 0.0014338294 -0.0023614496 0.0031169502 0.0021674186 0.009520893
-0.0032421318 -0.004134797 0.0054838443 -0.004078756 0.0027121608 0.0110913385 0.0076945024 0.0057421913
-0.0005612387 0.0045728674 0.010693086 0.011839151 -0.003806964 -0.012002559 0.007274691 0.0054414137
0.010416801 -0.010806975 0.012047998 -0.00291513 -0.0047806054 -0.008280685 0.0107458215 0.011661321
0.004544063 0.008534826 0.008025741 -0.0041570263 -0.0057229316 -0.0050900094 -0.011654411 0.007993639
0.0012540175 0.004244548 -0.005934819 -0.012780121 -0.0010092835 0.012939268 0.004481894 -0.007503316
0.0028716908 0.008607701 0.009552631 0.013707691 0.0069431015 0.009512907 0.0021990046 0.0063900542
0.0027088125 -0.009193077 -0.007884729 -0.0075429003 -0.0047377804 -0.011927891 0.012384018 0.006998906
-0.0062368633 0.006610427 -0.008178625 0.0033311308 0.005321257 -0.00091677584 0.008830279 0.005786068
-0.001442608 0.0028149434 0.005039689 -0.005753809 0.011711966 -0.003911727 0.0006665033 -0.0015479873
0.009881364 -0.0035690626 -9.674813e-05 -0.00042731033 0.012593768 0.011178857 0.005727897 0.0068838983
0.008911022 0.011621118 -0.0043978263 -0.010347204 0.001917783 0.010514628 0.010633619 -0.010178679
0.010900655 0.009436266 0.012088404 0.0050664525 0.01262487 -0.0045499625 -0.008038903 0.0093638655
00000000: 8008 b43b 863e 17bc d768 bebb fa5d 183c
00000010: 0b2f 22bc 0988 233c a87a 0ebc ec5a d93b
00000020: d04e 253c 8dc8 97bb 3921 8dba 135e 1db8
00000030: 399e 173c 31ea 273c a33a 4abc 5008 383c
00000040: e518 e63b 3347 dabb 327f 173c 05bb 34bc
00000050: 9d03 cfbb 71dc 34bc af46 153c 84f5 ab3b
00000060: 4529 e5ba 8c46 6cbb f397 0abb 55ef bb3a
00000070: 8dc2 1abb bf45 4c3b 400b 0e3b 85fd 1b3c
00000080: f279 54bb 317d 87bb d2b1 b33b 16a7 85bb
00000090: 82be 313b 72b8 353c 2a22 fc3b fe28 bc3b
000000a0: 1720 13ba fed7 953b 0e32 2f3c 00f9 413c
000000b0: 427e 79bb 62a6 44bc 8860 ee3b e34d b23b
000000c0: 3bab 2a3c bd0f 31bc f764 453c c40b 3fbb
000000d0: a0a6 9cbb b6ab 07bc 3e0f 303c 200f 3f3c
000000e0: 5de6 943b a8d5 0b3c 667e 033c aa37 88bb
000000f0: 6e87 bbbb 18ca a6bb 25f2 3ebc c1f7 023c
00000100: d85d a43a d915 8b3b df78 c2bb b663 51bc
00000110: ef49 84ba 39ff 533c dadc 923b 60de f5bb
00000120: fa32 3c3b 5107 0d3c a382 1c3c 3996 603c
00000130: f582 e33b 06dc 1b3c 2d1d 103b a963 d13b
00000140: 5586 313b 8f9e 16bc f32e 01bc 6f2a f7bb
00000150: 623f 9bbb 336d 43bc 56e6 4a3c 1457 e53b
00000160: 9a5e ccbb 489c d83b a4ff 05bc 1a4f 5a3b
00000170: f05d ae3b c953 70ba e0ac 103c 0e99 bd3b
00000180: e415 bdba ea7a 383b fa23 a53b 738a bcbb
00000190: 8ce3 3f3c f22d 80bb 48b8 2e3a d6e5 caba
000001a0: 72e5 213c efe6 69bb 42e5 cab8 9f08 e0b9
000001b0: 1756 4e3c 8627 373c 15b1 bb3b 5392 e13b
000001c0: 89ff 113c 8066 3e3c a41b 90bb 5287 29bc
000001d0: 1f5e fb3a 8c45 2c3c a138 2e3c 79c4 26bc
000001e0: a998 323c 919a 1a3c 710e 463c 7c04 a63b
000001f0: 8bd8 4e3c da17 95bb 9ab5 03bc e66a 193c

network_body._body_endoder.seq_layers.4.weight f4 [128, 128]
-0.026142525 0.013531924 -0.21101023 0.1178293 -0.08840068 0.12550466 -0.0775744 0.0030491163
-0.14139415 0.13993044 0.014254357 -0.052189004 -0.09415221 0.050198797 -0.04224155 0.06968269
-0.10624831 -0.013780489 0.040781844 -0.05161164 -0.058230985 0.02068128 0.050973646 -0.026205124
-0.068617284 0.26879856 -0.085652046 -0.08601891 0.10442148 0.08625369 0.05410179 -0.06961824
0.034214802 0.026230792 0.024231834 -0.01872936 0.067118384 -0.05265637 -0.061596517 0.06423333
-0.17402816 0.00788726 -0.06432396 -0.170633 -0.029957216 -0.09454999 0.12911712 0.009105452
-0.07994739 -0.06315089 -0.12418159 0.1389295 -0.08996376 0.0035118014 0.09894043 -0.028295292
-0.092476316 0.009615054 0.13832222 0.056793462 0.10075126 -0.10583932 -0.03665523 -0.09606883
-0.103586264 -0.060641136 0.08011629 0.11749439 -0.097240776 -0.018598696 0.09587428 -0.14007841
0.068074346 -0.050241165 0.1389806 0.025371214 0.02682762 -0.0029130057 -0.08977817 -0.06358047
-0.036363948 -0.07088183 0.019783288 -0.015162141 -0.02395 -0.19634973 0.04217096 0.013592754
-0.14355992 0.1413592 0.16083603 0.03094492 0.048151743 0.08544994 -0.07437284 -0.1400712
0.010507167 -0.019905543 -0.06151761 -0.040136874 -0.06508902 -0.10874305 -0.11367351 0.072431214
-0.012378973 0.040558435 -0.08834916 -0.08551563 0.12180459 -0.004752456 0.15743373 0.039264534
0.0007242255 -0.10167269 0.028590078 -0.045224838 -0.04187985 0.03243083 -0.025918167 -0.07653723
0.15291737 -0.11321864 -0.05009724 0.036218278 -0.23587254 0.173266 -0.016915424 0.116753556
-0.064987265 -0.09538183 -0.14881197 0.20267652 0.039885905 0.13334106 -0.11420344 0.009712047
0.15835233 0.09808883 0.08203502 0.08787625 0.033422552 0.04438639 -0.040514573 0.07083287
0.036787353 0.03273505 0.16477634 -0.10725457 -0.06880515 0.022021815 0.068911694 0.06409956
-0.11259759 0.016457547 -0.14990956 0.019476011 -0.01113634 -0.18585323 0.155661 0.099628076
-0.031688984 -0.112212315 -0.03476461 -0.10398066 0.040325634 0.19161932 0.05546984 0.0115480535
0.08317508 -0.020200163 0.06435273 0.04029688 -0.039990198 -0.018566538 0.014062468 -0.11875585
0.20501004 0.17442535 0.075368 0.10935709 0.057232816 -0.047295712 0.12304274 -0.06726856
-0.1053996 0.05492615 -0.15087672 0.024662592 0.0064738113 -0.08185891 0.042495385 -0.062687166
-0.03653118 -0.0015518804 0.116448 0.10009533 0.06124036 0.03497474 0.096908554 -0.15189277
0.103002176 -0.022297561 -0.02469771 -0.005787902 -0.0056734663 0.078144416 0.21946494 -0.020184001
-0.04743349 -0.04762691 -0.15234886 0.056285147 0.09246983 0.06593536 -0.08390587 -0.0067799725
0.13439763 -0.02746096 0.13647245 -0.007042575 0.115602605 0.05154962 -0.026791578 0.02950725
0.140725 0.012847851 0.13584457 -0.03182676 0.15872143 -0.00741357 0.010161071 -0.13654323
-0.0064684814 -0.022947125 0.043725166 0.1101234 0.08595354 -0.12068923 0.16715105 0.053001404
-0.014575537 -0.027905518 0.18126 -0.18057966 0.0133429635 0.12198603 0.05212052 0.10688025
0.025850305 -0.029351769 0.14654908 -0.12743115 0.08711124 0.13270849 0.013827212 0.011007947
00000000: d928 d6bc 01b5 5d3c 1113 58be 7d50 f13d
00000010: 6a0b b5bd 4b84 003e 54df 9ebd afd3 473b
00000020: a1c9 10be ed49 0f3e 1b8b 693c 23c4 55bd
00000030: e0d2 c0bd 419d 4d3d 7a05 2dbd ccb5 8e3d
00000040: b798 d9bd 8fc7 61bc dd0a 273d ba66 53bd
00000050: 9d83 6ebd ca6b a93c bec9 503d 21ac d6bc
00000060: 3887 8cbd f79f 893e 576a afbd af2a b0bd
00000070: eeda d53d c6a5 b03d d799 5d3d 0294 8ebd
00000080: d224 0c3d f5e1 d63c d781 c63c 516e 99bc
00000090: 5d75 893d 35ae 57bd a14c 7cbd c48c 833d
000000a0: 7034 32be 9139 013c 48bc 83bd 6bba 2ebe
000000b0: d668 f5bc 6da3 c1bd 4737 043e 092f 153c
000000c0: 75bb a3bd 4155 81bd eb52 febd 8943 0e3e
000000d0: eb3e b8bd 4026 663b 48a1 ca3d 87cb e7bc
000000e0: 3964 bdbd 7688 1d3c 57a4 0d3e 43a0 683d
000000f0: ad56 ce3d 49c2 d8bd cb23 16bd bcbf c4bd
00000100: 0925 d4bd d762 78bd 0214 a43d e6a0 f03d
00000110: 2c26 c7bd 4b5c 98bc bc59 c43d b770 0fbe
00000120: 906a 8b3d aec9 4dbd ee50 0e3e 4bd7 cf3c
00000130: 99c5 db3c 20e8 3ebb 9edd b7bd 7a36 82bd
00000140: 5df2 14bd 7e2a 91bd 9010 a23c a16a 78bc
00000150: ca32 c4bc e70f 49be 75bb 2c3d 24b4 5e3c
00000160: 5f01 13be 77c0 103e 33b2 243e 3380 fd3c
00000170: c33a 453d 6100 af3d ca50 98bd d36e 0fbe
00000180: 4126 2c3c f310 a3bc e4f9 7bbd 9066 24bd
00000190: 644d 85bd adb4 debd a8cd e8bd d156 943d
000001a0: 2dd1 4abc 9a20 263d 68f0 b4bd d222 afbd
000001b0: af74 f93d 7eba 9bbb 4f36 213e d9d3 203d
000001c0: f3d9 3d3a c539 d0bd bd35 ea3c ae3d 39bd
000001d0: 358a 2bbd 31d6 043d 5652 d4bc 8dbf 9cbd
000001e0: 5f96 1c3e 2ddf e7bd c332 4dbd 9e59 143d
000001f0: 9288 71be a46c 313e 3792 8abc 7d1c ef3d
00000200: 0b18 85bd 8d57 c3bd 2a62 18be 6f8a 4f3e
00000210: 675f 233d 8f8a 083e 7ee3 e9bd 471f 1f3c
00000220: 1d27 223e cce2 c83d fa01 a83d 77f8 b33d
00000230: 16e6 083d 81ce 353d 9cf2 25bd d310 913d
00000240: 56ae 163d 3015 063d 21bb 283e 49a8 dbbd
00000250: b7e9 8cbd 1867 b43c 9321 8d3d a146 833d
00000260: 9199 e6bd fad1 863c e481 19be 288c 9f3c
00000270: 3275 36bc 4f50 3ebe 9965 1f3e ce09 cc3d
00000280: 4fcc 01bd 92cf e5bd 5665 0ebd d0f3 d4bd
00000290: 7e2c 253d db37 443e 5834 633d 0c34 3d3c
000002a0: b257 aa3d d07a a5bc 5dcb 833d 570e 253d
000002b0: c3cc 23bd da18 98bc 4466 663c 4436 f3bd
000002c0: 27ee 513e 8f9c 323e 8a5a 9a3d 9cf6 df3d
000002d0: f56c 6a3d 26b9 41bd d5fd fb3d 19c4 89bd
000002e0: bfdb d7bd 3efa 603d 6d7f 1abe 3409 ca3c
000002f0: 4422 d43b a5a5 a7bd a40f 2e3d 2162 80bd
00000300: b8a1 15bd 7768 cbba 4a7c ee3d c8fe cc3d
00000310: 2cd7 7a3d ac41 0f3d fe77 c63d c789 1bbe
00000320: cef2 d23d 60a9 b6bc da52 cabc 71a8 bdbb
00000330: 7ce8 b9bb 2e0a a03d 6bbb 603e eb58 a5bc
00000340: 9f49 42bd 6f14 43bd 5701 1cbe 418b 663d
00000350: d260 bd3d 1e09 873d d7d6 abbd 882a debb
00000360: 889f 093e cff5 e0bc 6fbf 0b3e 67c5 e6bb
00000370: 0fc1 ec3d b225 533d 037a dbbc 30b9 f13c
00000380: 371a 103e cb7f 523c d71a 0b3e c75c 02bd
00000390: df87 223e 88ed f2bb 9f7a 263c fdd1 0bbe
000003a0: 8ef5 d3bb 9cfb bbbc 2919 333d 6188 e13d
000003b0: 6908 b03d ea2b f7bd a529 2b3e 0018 593d
000003c0: 3cce 6ebc 1d9a e4bc 399c 393e e0e9 38be
000003d0: 729c 5a3c d0d3 f93d 547c 553d 08e4 da3d
000003e0: 05c4 d33c 1f73 f0bc f610 163e 507d 02be
000003f0: 6167 b23d bce4 073e 888b 623c ad5a 343c

network_body._body_endoder.seq_layers.4.bias f4 [128]
0.0 0.0 0.0 0.0 0.0 0.0 0.0 0.0
0.0 0.0 0.0 0.0 0.0 0.0 0.0 0.0
0.0 0.0 0.0 0.0 0.0 0.0 0.0 0.0
0.0 0.0 0.0 0.0 0.0 0.0 0.0 0.0
0.0 0.0 0.0 0.0 0.0 0.0 0.0 0.0
0.0 0.0 0.0 0.0 0.0 0.0 0.0 0.0
0.0 0.0 0.0 0.0 0.0 0.0 0.0 0.0
0.0 0.0 0.0 0.0 0.0 0.0 0.0 0.0
0.0 0.0 0.0 0.0 0.0 0.0 0.0 0.0
0.0 0.0 0.0 0.0 0.0 0.0 0.0 0.0
0.0 0.0 0.0 0.0 0.0 0.0 0.0 0.0
0.0 0.0 0.0 0.0 0.0 0.0 0.0 0.0
0.0 0.0 0.0 0.0 0.0 0.0 0.0 0.0
0.0 0.0 0.0 0.0 0.0 0.0 0.0 0.0
0.0 0.0 0.0 0.0 0.0 0.0 0.0 0.0
0.0 0.0 0.0 0.0 0.0 0.0 0.0 0.0
00000000: 0000 0000 0000 0000 0000 0000 0000 0000
00000010: 0000 0000 0000 0000 0000 0000 0000 0000
00000020: 0000 0000 0000 0000 0000 0000 0000 0000
00000030: 0000 0000 0000 0000 0000 0000 0000 0000
00000040: 0000 0000 0000 0000 0000 0000 0000 0000
00000050: 0000 0000 0000 0000 0000 0000 0000 0000
00000060: 0000 0000 0000 0000 0000 0000 0000 0000
00000070: 0000 0000 0000 0000 0000 0000 0000 0000
00000080: 0000 0000 0000 0000 0000 0000 0000 0000
00000090: 0000 0000 0000 0000 0000 0000 0000 0000
000000a0: 0000 0000 0000 0000 0000 0000 0000 0000
000000b0: 0000 0000 0000 0000 0000 0000 0000 0000
000000c0: 0000 0000 0000 0000 0000 0000 0000 0000
000000d0: 0000 0000 0000 0000 0000 0000 0000 0000
000000e0: 0000 0000 0000 0000 0000 0000 0000 0000
000000f0: 0000 0000 0000 0000 0000 0000 0000 0000
00000100: 0000 0000 0000 0000 0000 0000 0000 0000
00000110: 0000 0000 0000 0000 0000 0000 0000 0000
00000120: 0000 0000 0000 0000 0000 0000 0000 0000
00000130: 0000 0000 0000 0000 0000 0000 0000 0000
00000140: 0000 0000 0000 0000 0000 0000 0000 0000
00000150: 0000 0000 0000 0000 0000 0000 0000 0000
00000160: 0000 0000 0000 0000 0000 0000 0000 0000
00000170: 0000 0000 0000 0000 0000 0000 0000 0000
00000180: 0000 0000 0000 0000 0000 0000 0000 0000
00000190: 0000 0000 0000 0000 0000 0000 0000 0000
000001a0: 0000 0000 0000 0000 0000 0000 0000 0000
000001b0: 0000 0000 0000 0000 0000 0000 0000 0000
000001c0: 0000 0000 0000 0000 0000 0000 0000 0000
000001d0: 0000 0000 0000 0000 0000 0000 0000 0000
000001e0: 0000 0000 0000 0000 0000 0000 0000 0000
000001f0: 0000 0000 0000 0000 0000 0000 0000 0000

network_body._body_endoder.seq_layers.6.weight f4 [128, 128]
-0.013352076 -0.009233269 -0.08619027 0.06316865 -0.10438206 -0.08706357 0.07115661 0.12322528
-0.08628821 -0.054967944 -0.002810594 -0.006791857 -0.029148813 -0.1477536 0.022650355 -0.048365045
0.04473152 -0.26530278 0.08266777 0.027111325 -0.108494245 0.09763239 -0.025134796 -0.026016677
-0.21353117 -0.07205042 -0.07371262 0.034173656 0.17980222 -0.09203973 -0.030726464 0.111406624
-0.010050953 -0.08217671 0.05751407 -0.12760313 -0.068649694 0.13104261 -0.04117025 0.07656874
0.029353583 -0.02969809 -0.025623236 0.0038224682 -0.047123697 -0.0029291203 0.09928237 0.13492286
0.09166851 0.11503216 0.08873321 -0.10865984 0.027796654 0.059274428 -0.069455326 0.12021964
0.019261831 0.027433882 -0.024966344 -0.07451369 5.8952162e-05 0.045584075 0.021784293 0.019220615
0.20927174 -0.12834546 -0.057283115 -0.051982515 0.02551387 -0.22110088 0.008569992 0.124697074
-0.040949523 -0.16755067 -0.053043198 -0.112416804 0.008452581 0.13206714 -0.08774531 -0.23189308
0.03961443 0.1727449 -0.047402095 -0.18077832 0.012090845 -0.0766075 0.14107291 -0.08931316
-0.06982006 -0.00959676 -0.18644328 -0.023846544 0.045044396 -0.06613332 0.06365278 -0.002995928
0.053936664 -0.03257483 0.09478899 0.046864387 -0.08288576 0.011468573 0.05101623 -0.053905644
-0.032229256 -0.16384345 -0.00021730017 -0.0020478922 0.038880058 0.014453613 -0.05407992 0.0054849368
-0.0279033 0.07379111 0.15173955 0.060914997 0.07256796 -0.099929355 0.18951729 0.078259945
-0.012729414 0.039844435 -0.17072852 0.04487053 -0.123078816 0.07300345 0.088795096 0.031864803
0.26460263 -0.0711169 0.05039025 0.25272608 0.019199705 0.117800094 0.017643988 0.13706034
-0.014291617 -0.04137046 0.018786231 -0.042822078 0.033679225 -0.14546151 -0.039719537 0.083468355
-0.0504462 -0.03258965 -0.05144163 -0.056473166 -0.05362347 0.095116556 0.1478389 0.023194844
-0.0008178972 0.03977092 0.06263657 -0.2699219 -0.12827866 0.015710294 0.056011274 0.017059052
0.079873964 0.08809403 -0.077236995 0.12379918 0.23023173 -0.030138433 0.0059421575 -0.062156208
0.085270315 0.06744501 0.06269331 -0.074133374 0.06628082 -0.09435915 0.03581566 -0.0967037
-0.0067430227 -0.065991 0.091500185 0.08394322 0.18595178 0.03143045 -0.14459765 0.046732083
0.15025716 -0.0031598592 0.089173585 8.11712e-05 -0.07040741 0.043513305 -0.10662109 -0.04066233
-0.1122713 0.03146596 0.077258706 0.16113766 0.067154646 0.010057396 -0.15157321 -0.095432736
-0.11203415 -0.032584485 -0.09285249 0.01968497 0.04816056 0.09120442 0.049118478 -0.09228435
0.03579028 -0.13135624 0.11069719 -0.033226263 -0.02542495 0.0020511993 -0.055467337 -0.045649
0.1073986 0.05631678 0.09824972 -0.030405007 0.052549623 0.008200117 -0.06786727 -0.07415818
-0.025713088 -0.010324504 -0.035738412 -0.02012739 0.008783502 0.0011597465 0.18370211 0.014100652
0.10394999 0.008686116 -0.0006284441 0.11128889 0.09484936 0.05962532 0.016104652 0.12980002
0.2412788 -0.13539027 0.05413537 0.057657257 0.04450212 0.0674521 0.015106232 -0.14987321
-0.012925821 -0.017175056 0.0075844973 0.05347443 0.10675082 -0.018326024 0.10507663 -0.07421883
00000000: aac2 5abc 2347 17bc 8684 b0bd 915e 813d
00000010: 43c6 d5bd 634e b2bd 8fba 913d 895d fc3d
00000020: dfb7 b0bd 1126 61bd f131 38bb 3a8e debb
00000030: 7ec9 eebc b84c 17be 3d8d b93c 6d1a 46bd
00000040: 6638 373d c4d5 87be b84d a93d 9218 de3c
00000050: 3b32 debd 7ef3 c73d 7de7 cdbc ed20 d5bc
00000060: eaa7 5abe 2c8f 93bd a4f6 96bd adf9 0b3d
00000070: 131e 383e 537f bcbd 11b6 fbbc 2829 e43d
00000080: c1ac 24bc 434c a8bd e093 6b3d 65aa 02be
00000090: 3698 8cbd 0930 063e 23a2 28bd 12d0 9c3d
000000a0: ed76 f03c 6949 f3bc d2e7 d1bc 6082 7a3b
000000b0: c704 41bd 7cf6 3fbb 8e54 cb3d 3829 0a3e
000000c0: b3bc bb3d fb95 eb3d c2b9 b53d 0d89 debd
000000d0: cfb5 e33c bec9 723d 983e 8ebd b735 f63d
000000e0: fdca 9d3c 05bd e03c 3886 ccbc a29a 98bd
000000f0: 6743 7738 5eb6 3a3d f974 b23c 8d74 9d3c
00000100: 554b 563e fe6c 03be b3a1 6abd 9eeb 54bd
00000110: 7702 d13c 4568 62be 2769 0c3c 2e61 ff3d
00000120: b0ba 27bd 6792 2bbe d343 59bd c83a e6bd
00000130: b27c 0a3c 9c3c 073e d0b3 b3bd 6175 6dbe
00000140: be42 223d 0ae4 303e b328 42bd f41d 39be
00000150: ae18 463c 65e4 9cbd 6b75 103e d1e9 b6bd
00000160: d2fd 8ebd bb3b 1dbc fdea 3ebe d459 c3bc
00000170: 7980 383d e870 87bd 645c 823d 5557 44bb
00000180: b1ec 5c3d 2f6d 05bd bb20 c23d dff4 3f3d
00000190: 02c0 a9bd aee6 3b3c 65f6 503d 2acc 5cbd
000001a0: d302 04bd 94c6 27be 12db 63b9 ee35 06bb
000001b0: b240 1f3d d9ce 6c3c e882 5dbd fcba b33b
000001c0: 7695 e4bc cb1f 973d 9d61 1b3e 0182 793d
000001d0: 839e 943d c3a7 ccbd d210 423e c046 a03d
000001e0: 088f 50bc eb33 233d 75d3 2ebe 29ca 373d
000001f0: bf10 fcbd d582 953d 34da b53d ab84 023d
00000200: ff79 873e bda5 91bd 0266 4e3d 5065 813e
00000210: b348 9d3c 2d41 f13d 208a 903c 8c59 0c3e
00000220: 6327 6abc 1274 29bd 95e5 993c 3466 2fbd
00000230: 3af3 093d ddf3 14be f4b0 22bd 75f1 aa3d
00000240: ada0 4ebd ba7c 05bd 75b4 52bd 6850 67bd
00000250: 49a4 5bbd 78cc c23d 1563 173e 1d03 be3c
00000260: 2768 56ba d5e6 223d 9a47 803d 3433 8abe
00000270: 7b5b 03be e0b2 803c 146c 653d 6dbf 8b3c
00000280: f694 a33d a56a b43d 6e2e 9ebd 6d8a fd3d
00000290: dec1 6b3e e0e4 f6bc 6eb6 c23b 8297 7ebd
000002a0: 34a2 ae3d 9c20 8a3d 5a65 803d 3dd3 97bd
000002b0: 3dbe 873d 5f3f c1bd 71b3 123d 970c c6bd
000002c0: 93f4 dcbb 4a26 87bd 7364 bb3d 6cea ab3d
000002d0: 256a 3e3e 37bd 003d 6811 14be 246a 3f3d
000002e0: 03dd 193e a415 4fbb a4a0 b63d 753a aa38
000002f0: c331 90bd 023b 323d 285c dabd 8b8d 26bd
00000300: 7fee e5bd 73e2 003d d039 9e3d 4501 253e
00000310: 6088 893d c7c7 243c 0236 1bbe 3d72 c3bd
00000320: 2972 e5bd 4f77 05bd 7229 bebd 6042 a13c
00000330: 0244 453d 62c9 ba3d 7530 493d 94ff bcbd
00000340: d498 123d 4082 06be 35b5 e23d 4318 08bd
00000350: fc47 d0bc 6a6d 063b b831 63bd 72fa 3abd
00000360: ccf3 db3d 6dac 663d 2637 c93d ec13 f9bc
00000370: 463e 573d c959 063c fffd 8abd 3ee0 97bd
00000380: 41a4 d2bc 1c28 29bc 7162 12bd 32e2 a4bc
00000390: ade8 0f3c a302 983a 681c 3c3e 6c06 673c
000003a0: bbe3 d43d 3650 0e3c 2bbe 24ba 6eeb e33d
000003b0: 6240 c23d ae39 743d e7ed 833c 4cea 043e
000003c0: ca11 773e bfa3 0abe 0dbd 5d3d 042a 6c3d
000003d0: db47 363d 5424 8a3d 2180 773c 5d78 19be
000003e0: d3c6 53bc b4b2 8cbc 6087 f83b 0108 5b3d
000003f0: 2da0 da3d 7520 96bc 6b32 d73d 0b00 98bd

action_model._discrete_distribution.branches.0.weight f4 [2, 128]
0.011859495 0.00040841574 -0.004308812 -0.004029789 -0.0017461727 0.01173837 0.019830195 -0.008378439
0.00685076 0.0047739316 -0.0014916067 0.007090767 0.024543716 -0.00096224196 -0.0112970425 0.003229023
0.0022745125 0.008863873 -0.00042687496 -0.0020359792 0.009342299 -0.009723477 -0.0039305342 0.006988776
-0.002041884 0.0034876596 0.002200513 0.009348296 -0.007405661 -0.007762253 -0.012922348 0.0032502685
-0.004827639 -0.0105711995 -0.00569389 -0.007974688 -0.00062708167 0.004388411 0.0067709647 -0.0005371019
0.018617056 0.019047925 0.0037445894 0.026233112 0.007527398 -0.03879164 0.0011853286 0.0029095565
0.0032973753 0.0059694247 0.015348765 -0.0051822904 0.005622308 -0.014944739 0.009856874 -0.007974927
0.013070494 0.0075157713 -0.007854678 -0.0014598146 0.0022381644 0.008294708 -0.021184307 -0.005867481
0.0039758305 -0.008845332 -0.009819186 -0.005175988 0.009685403 0.00807925 -0.018701855 -0.008380707
-0.012233705 0.0050592483 0.006828893 0.0027718549 0.001306362 0.017667795 0.007132979 0.013013256
-0.0077620125 -0.0019350289 -0.0020967086 0.004004219 0.0061767683 -0.010243751 0.0057209437 0.006208758
0.0033666897 -0.0015105332 -0.018222686 0.005830707 0.005951464 0.008123754 0.0025910144 0.009886619
-0.0035000697 0.018550673 0.0059105577 0.010081685 8.2848506e-05 0.0073496113 0.007873629 0.023661716
-0.008226274 -0.0063100127 0.0014149704 0.005220311 -0.008686185 0.008568871 -0.0021865328 -0.007852543
0.0058561857 0.0033143647 0.01568445 -0.0041671083 -0.012434973 -0.0006910357 0.0057291696 -0.0102993045
0.0052558794 -0.004151589 0.014624391 0.014023235 0.011027838 -0.00016220796 -0.0020233146 0.003282439
-0.02339369 -0.0012017175 0.00483248 -0.0024871104 -0.0030706937 -0.009036476 0.0074923 0.009225653
-4.651021e-05 -0.0040688426 -0.0014439553 0.0023885989 -0.0006828704 -0.00538612 0.009101971 -0.0066051437
-0.0045447075 0.019511677 -0.0018414807 -0.007557676 0.0023801886 0.0077029136 -0.020902082 -0.008345461
-0.007067722 0.012259671 0.0051174737 -0.009463774 -0.006024242 -0.0056723338 6.9623275e-05 -0.009093829
0.0039483793 0.017312108 0.012802934 -0.010932533 0.0115319425 0.011557536 -0.0049906457 -0.0083291
-0.006763073 0.0026470753 -0.0027628369 -0.018590594 -0.014118466 0.002851398 -0.005102076 -0.0039751385
0.0018662454 -0.009046836 -0.018212017 -0.004818843 -0.008742295 0.0032698917 -0.01741252 -0.0072767837
-0.011768259 0.00037388402 0.0020633228 0.015583692 0.010558217 -0.004251179 0.005355969 -0.01373964
0.0038898971 -0.0011519068 -0.004174266 0.00362604 -0.0027898303 -0.025284154 0.007188906 0.023396604
0.0010928984 0.020064771 0.00217177 -0.01516784 -0.00821578 -0.0074331886 -0.00502354 -0.013701881
-0.0037103896 0.005301441 0.023665156 -0.0054204795 -0.001105802 0.018567637 -0.0039444272 -0.0061360965
-0.003850528 0.0008898942 -0.00878532 0.015963506 0.0059040124 0.009779242 -0.005056278 -0.013462461
-0.0046399697 -0.0008068481 0.0018605227 -0.002133244 0.0039164643 -0.007217381 -0.009271285 0.0011122915
0.013320703 0.0053775697 -0.00933988 -0.0042665214 -0.00931553 -0.0046361242 -0.012626802 0.0056214663
-0.01361779 -0.013485202 -0.0029896914 0.007645415 -0.005455151 -0.017611884 -0.006362018 0.017442243
-0.013943799 0.0005948232 -0.006124425 -0.011896849 -0.008433982 -0.009515581 -0.0020633896 -0.013468592
00000000: 544e 423c a220 d639 ef30 8dbb 520c 84bb
00000010: d5df e4ba 4b52 403c ef72 a23c b845 09bc
00000020: 577c e03b a46e 9c3b 0482 c3ba aa59 e83b
00000030: e70f c93c f73e 7cba 3b17 39bc 049e 533b
00000040: fd0f 153b c739 113c 30ce dfb9 106e 05bb
00000050: 7110 193c 384f 1fbc b6cb 80bb 1a02 e53b
00000060: 21d1 05bb 3891 643b 7b36 103b 9829 193c
00000070: 30ab f2bb 7f5a febb 42b8 53bc 7502 553b
00000080: 2c31 9ebb d332 2dbc d093 babb 44a8 02bc
00000090: bd62 24ba a9cc 8f3b f8de dd3b 4ccc 0cba
000000a0: cc82 983c 650a 9c3c c967 753b d3e6 d63c
000000b0: 64a8 f63b fce3 1ebd 075d 9b3a 42ae 3e3b
000000c0: c718 583b 2a9b c33b 6379 7b3c 34d0 a9bb
000000d0: 563b b83b c7da 74bc ba7e 213c 45a9 02bc
000000e0: a025 563c dc46 f63b e8b0 00bc 4057 bfba
000000f0: 2bae 123b 87e6 073c b68a adbc 0044 c0bb
00000100: af47 823b 03ec 10bc a7e0 20bc 569b a9bb
00000110: 86af 1e3c d55e 043c a234 99bc 3c4f 09bc
00000120: e16f 48bc 0dc8 a53b e8c4 df3b 02a8 353b
00000130: 3c3a ab3a 0dbc 903c c4bb e93b 8d35 553c
00000140: 7b58 febb cca0 fdba ef68 09bb d335 833b
00000150: 7d66 ca3b 68d5 27bc c176 bb3b d672 cb3b
00000160: aea3 5c3b 15fd c5ba be47 95bc 840f bf3b
00000170: 8004 c33b 7e19 053c 02ce 293b 7cfb 213c
00000180: 6d61 65bb 95f7 973c 5aad c13b a72d 253c
00000190: f4be ad38 02d5 f03b 6500 013c 37d6 c13c
000001a0: 7ec7 06bc 39c4 cebb 8776 b93a 250f ab3b
000001b0: 8050 0ebc 7364 0c3c ef4b 0fbb f4a7 00bc
000001c0: 3fe5 bf3b d035 593b ad7c 803c 3d8c 88bb
000001d0: 0fbc 4bbc 9f26 35ba c2bb bb3b 6abe 28bc
000001e0: 8339 ac3b 0d0a 88bb 249b 6f3c b6c1 653c
000001f0: 1bae 343c 5e16 2ab9 9699 04bb 301e 573b
00000200: 20a4 bfbc f382 9dba c859 9e3b cafe 22bb
00000210: b13d 49bb ba0d 14bc f881 f53b 3127 173c
00000220: f513 43b8 ed53 85bb 1a43 bdba 0a8a 1c3b
00000230: a802 33ba 0d7e b0bb 6f20 153c f66f d8bb
00000240: c5eb 94bb f4d6 9f3c d75d f1ba 62a6 f7bb
00000250: f0fc 1b3b b968 fc3b d83a abbc 67bb 08bc
00000260: 5998 e7bb cadc 483c 7bb0 a73b f20d 1bbc
00000270: 0167 c5bb fcde b9bb b602 9238 49fe 14bc
00000280: 6861 813b 1fd2 8d3c 66c3 513c 5e1e 33bc
00000290: 79f0 3c3c d25b 3d3c 9288 a3bb c776 08bc
000002a0: c59c ddbb 8e7a 2d3b b610 35bb 4d4b 98bc
000002b0: 2351 67bc 85de 3a3b 512f a7bb e141 82bb
000002c0: ce9c f43a 2e39 14bc 5e31 95bc 63e7 9dbb
000002d0: d83b 0fbc ae4b 563b b3a4 8ebc 1672 eebb
000002e0: a8cf 40bc dd05 c439 d038 073b be52 7f3c
000002f0: 5ffc 2c3c 794d 8bbb 2081 af3b 3a1c 61bc
00000300: a5ed 7e3b 94fb 96ba 48c8 88bb dba2 6d3b
00000310: 96d5 36bb b720 cfbc ea90 eb3b 3caa bf3c
00000320: 963f 8f3a e05e a43c 4154 0e3b 8882 78bc
00000330: 7b9b 06bc 1b92 f3bb 829c a4bb db7d 60bc
00000340: 022a 73bb b6b7 ad3b 6edd c13c 479e b1bb
00000350: 8ff0 90ba 281b 983c 4140 81bb 4f11 c9bb
00000360: 2459 7cbb ca47 693a 4ef0 0fbc e6c5 823c
00000370: 7276 c13b 1d39 203c 22af a5bb a791 5cbc
00000380: e30a 98bb a982 53ba c8dc f33a e5cd 0bbb
00000390: af55 803b c87f ecbb 96e6 17bc 4fca 913a
000003a0: 143f 5a3c 5336 b03b 4c06 19bc 2dce 8bbb
000003b0: 2aa0 18bc a1ea 97bb a5e0 4ebc 4734 b83b
000003c0: 271d 5fbc 09f1 5cbc b3ee 43bb 6486 fa3b
000003d0: 20c1 b2bb cc46 90bc 7a78 d0bb 09e3 8e3c
000003e0: 8874 64bc e9ed 1b3a 67af c8bb 00eb 42bc
000003f0: af2e 0abc 3de7 1bbc ef39 07bb 5fab 5cbc

action_model._discrete_distribution.branches.0.bias f4 [2]
0.008635532 -0.008635533
00000000: 0c7c 0d3c 0d7c 0dbc

action_model._discrete_distribution.branches.1.weight f4 [2, 128]
0.01182234 -0.011911426 0.0063771117 0.0012379553 -0.0026410355 -0.012270109 -0.015415288 0.002847477
0.008846239 0.006214117 0.008003109 -0.004131212 0.0037120723 0.015302953 -0.0028330958 -0.004401502
-0.012932421 -0.0032964589 0.0074985363 -0.004449536 0.011887532 0.009787872 0.011392722 -0.0024329955
-0.0009913736 0.003915178 -0.009434859 0.0077898987 -0.0101330355 0.00058686465 -0.002087061 0.012439116
0.005410647 -0.0014785165 0.006851032 -0.0058725383 0.0020510668 0.01748024 0.0042386106 0.009994628
0.0053688176 -0.0016329207 -0.0026715235 0.0050089364 0.0074693225 -0.020272529 0.0051275264 0.003738006
0.008044841 -0.014242473 0.014751756 -0.0009384293 -0.02763032 -0.003070222 0.006677894 0.005639018
0.00942744 0.005646402 0.010775257 0.002936753 -0.005302994 -0.002535855 0.0016647044 0.01763394
-0.003980301 0.008576352 -0.009911786 -0.020735953 0.008258333 0.010315554 0.011695123 -0.019036314
0.025832886 -0.0016897727 0.0063435114 0.020334624 7.360306e-05 0.023652324 -0.006982522 0.010799
-0.010577858 -0.0135007175 -0.004551611 -0.005370189 0.008495971 -0.012977486 0.018274065 0.009174148
-0.0067188097 0.009351184 0.0002485828 0.004335713 0.0138845 0.0023912182 0.025699846 -0.002212002
0.0019674478 -0.011029884 0.019549647 -0.00641494 0.0061488557 0.0025780366 -0.005693587 -0.0026037104
0.016000476 0.011647109 0.00479351 -0.0016227145 0.015303982 0.0039222413 0.0063070217 0.012743676
0.006253467 0.009859637 -0.013540747 -0.0080800215 0.020456517 -0.004948771 0.013965846 -0.010407709
0.006427153 0.0065899943 0.024810767 0.0081049325 0.010733839 0.0041213864 0.00056498824 -0.0073998277
0.0044658114 0.009518723 -0.0010344421 0.0018394873 0.010086735 -0.0002721257 0.008236415 -0.019568767
-0.006676736 0.016227707 -0.011528681 -0.009830229 -0.013971724 0.003432662 0.02895533 -0.010735871
-0.012385875 0.0003697569 -0.018896911 0.013867498 -0.0015153373 0.017912699 0.009648289 -0.0047608684
0.0035002718 0.0046446677 0.0015616757 0.0025870854 0.0032699304 -0.0062186397 -0.00156565 -0.0007465845
0.0009627439 0.007895141 0.0122274645 0.0030504882 -0.012254619 -0.0057427585 -0.004213907 -0.0045215427
-0.008512282 -0.0038931053 -0.007860926 -0.005737996 0.0042645102 0.017710492 0.012147251 -7.875968e-05
-0.009287468 0.016631005 -0.011632906 0.0136095835 -0.0014422361 -0.0014155583 -0.006813446 -0.0070676766
0.0015344529 0.00013992524 -0.009295269 -0.010853548 0.0078008794 0.00680818 0.025556827 0.006734738
-0.015293345 -0.0021089362 0.007750133 0.0039764666 -0.0035126505 -0.008941567 -0.0066552465 0.013468427
0.00063432386 -0.014824997 -0.002827949 -0.020453846 -0.0144546 -0.01883191 -0.0123438155 0.01171084
0.009250915 0.009900529 0.010422141 0.008161822 -0.0036708966 0.01308361 -0.00014485304 0.008887055
0.0021901806 -0.0018969052 8.328057e-05 -0.008228535 0.0054235426 0.005443556 -0.0032094114 0.0044041644
0.008561866 -0.01732931 0.0036231359 0.0057144696 -0.012263271 0.0026354312 -0.023931649 0.0016069775
-0.012162801 0.0030676445 0.0053391783 -0.012681134 -0.01569096 -0.009452378 0.0052255923 -0.010512106
-0.0031842198 -0.008479543 0.0125290835 0.0030317872 -0.0030731144 -0.012484654 -0.020142168 -0.00053709594
-0.00927897 -0.00028643027 -0.0019255815 0.012031141 -0.0032424252 -0.0015051633 -0.014520925 -0.0110584935
00000000: 7db2 413c 2428 43bc 17f7 d03b e342 a23a
00000010: 3915 2dbb 9108 49bc 6790 7cbc bd9c 3a3b
00000020: d1ef 103c cb9f cb3b 791f 033c 1e5f 87bb
00000030: 3d46 733b 3db9 7a3c 76ab 39bb 7a3a 90bb
00000040: 81e2 53bc 6709 58bb 48b6 f53b 6acd 91bb
00000050: ecc3 423c 505d 203c 8aa8 3a3c e472 1fbb
00000060: faf0 81ba e54a 803b ab94 1abc 6842 ff3b
00000070: 0805 26bc d2d7 193a 13c7 08bb 6fcd 4b3c
00000080: cc4b b13b c8ca c1ba 9f7e e03b 6c6e c0bb
00000090: 316b 063b b832 8f3c 0be4 8a3b 82c0 233c
000000a0: e8ec af3b ba07 d6ba ba14 2fbb 0122 a43b
000000b0: 38c1 f43b 9312 a6bc cf04 a83b 56f9 743b
000000c0: 82ce 033c 4359 69bc 59b1 713c ed00 76ba
000000d0: fb58 e2bc c735 49bb 3cd2 da3b 83c7 b83b
000000e0: 8d75 1a3c 7405 b93b b48a 303c 8a76 403b
000000f0: bdc4 adbb 9630 26bb 3632 da3a 0d75 903c
00000100: 2f6d 82bb d483 0c3c 0b65 22bc 72de a9bc
00000110: f64d 073c 9202 293c e79c 3f3c 0bf2 9bbc
00000120: 7d9f d33c 5d7b ddba 3bdd cf3b cc94 a63c
00000130: 585b 9a38 85c2 c13c a4cd e4bb 4aee 303c
00000140: c14e 2dbc 1d32 5dbc ae25 95bb 69f8 afbb
00000150: af32 0b3c 859f 54bc 7eb3 953c 2a4f 163c
00000160: 7629 dcbb b535 193c 3854 8239 9912 8e3b
00000170: d07b 633c fcb5 1c3b 7c88 d23c 3cf7 10bb
00000180: 4cf0 003b b0b6 34bc 9526 a03c 6b34 d2bb
00000190: 577c c93b 47f4 283b 4591 babb 03a3 2abb
000001a0: 6e13 833c 84d3 3e3c e012 9d3b 43b1 d4ba
000001b0: 8ebd 7a3c 2586 803b 22ab ce3b daca 503c
000001c0: e2e9 cc3b 518a 213c 02da 5dbc 1162 04bc
000001d0: 6d94 a73c 4d29 a2bb 01d1 643c 1885 2abc
000001e0: de9a d23b e1f0 d73b f33f cb3c 8dca 043c
000001f0: fcdc 2f3c b20c 873b b81b 143a 417a f2bb
00000200: f155 923b 6bf4 1b3c 1e96 87ba f41a f13a
00000210: d542 253c 18ac 8eb9 07f2 063c ae4e a0bc
00000220: 85c8 dabb f8ef 843c cbe2 3cbc f80e 21bc
00000230: a8e9 64bc 83f6 603b ba33 ed3c 82e5 2fbc
00000240: 20ee 4abc eedb c139 b2cd 9abc 8134 633c
00000250: 489e c6ba a7bd 923c db13 1e3c 0f01 9cbb
00000260: d164 653b 4c32 983b 24b1 cc3a 178c 293b
00000270: 544c 563b bbc5 cbbb 7f36 cdba 70b6 43ba
00000280: a660 7c3a 9f5a 013c b455 483c b3ea 473b
00000290: 99c7 48bc c02d bcbb d014 8abb 7329 94bb
000002a0: 1977 0bbc 7823 7fbb 1dcb 00bc cd05 bcbb
000002b0: 4ebd 8b3b 9815 913c 4305 473c c82b a5b8
000002c0: 772a 18bc bf3d 883c f297 3ebc bbfa 5e3c
000002d0: 6a09 bdba 418a b9ba 5443 dfbb f897 e7bb
000002e0: b21f c93a e5b8 1239 2f4b 18bc 14d3 31bc
000002f0: 859e ff3b 2717 df3b 8d5c d13c 14af dc3b
00000300: f090 7abc 1436 0abb d4f4 fd3b 054d 823b
00000310: 7f34 66bb a67f 12bc 4114 dabb adaa 5c3c
00000320: c148 263a 8be4 72bc 1c55 39bb d38e a7bc
00000330: fdd2 6cbc 6145 9abc b73d 4abc d3de 3f3c
00000340: 2691 173c d435 223c a1c1 2a3c 2ab9 053c
00000350: 6d93 70bb a35c 563c b1e3 17b9 039b 113c
00000360: 2289 0f3b 94a1 f8ba eaa6 ae38 fad0 06bc
00000370: f9b7 b13b db5f b23b fd54 52bb cf50 903b
00000380: 1247 0c3c 32f6 8dbc 2272 6d3b 7240 bb3b
00000390: e3eb 48bc 33b7 2c3b 4e0c c4bc 38a1 d23a
000003a0: 7c46 47bc 890a 493b 46f4 ae3b 88c4 4fbc
000003b0: 548a 80bc 26de 1abc 723b ab3b f83a 2cbc
000003c0: 58ae 50bb c8ed 0abc c946 4d3c f3b0 463b
000003d0: 4e66 49bb 6f8c 4cbc 3001 a5bc e6cb 0cba
000003e0: d206 18bc 052c 96b9 cb63 fcba 431e 453c
000003f0: de7e 54bb e648 c5ba 2ce9 6dbc af2e 35bc

action_model._discrete_distribution.branches.1.bias f4 [2]
0.011339192 -0.011339193
00000000: 05c8 393c 06c8 39bc
