Assets/results/traffic_1439/TrafficLightBrain/TrafficLightBrain-700.pt (torch, 163468 bytes, 26 tensors)

discrete_act_size_vector f4 [1, 4]
000000 00 00 00 40 00 00 00 40 00 00 00 40 00 00 00 40
       2.0 2.0 2.0 2.0

network_body.observation_encoder.processors.0.normalizer.running_mean f4 [11]
000000 c1 6f 26 41 76 c0 15 41 a1 12 01 41 01 41 06 41
       10.402284 9.359488 8.067048 8.39087
000010 00 20 34 41 48 d5 98 40 33 43 e8 3e c1 45 d5 3e
       11.2578125 4.7760353 0.4536377 0.4165478
000020 12 a5 ec 3e 9a b6 fc 3e 00 00 00 00
       0.4621969 0.49358064 0.0

network_body.observation_encoder.processors.0.normalizer.running_variance f4 [11]
000000 8e 73 6c 47 67 32 2b 47 dc 08 2a 47 cd b7 d4 46
       60531.555 43826.402 43528.86 27227.9
000010 6a ce f4 46 8f 57 52 45 44 be 2e 43 3a 5e 2b 43
       31335.207 3365.4724 174.74323 171.36807
000020 8b 3f 2f 43 9d 38 30 43 00 00 80 3f
       175.24821 176.22115 1.0

network_body.processors.0.normalizer.running_mean f4 [11]
000000 c1 6f 26 41 76 c0 15 41 a1 12 01 41 01 41 06 41
       10.402284 9.359488 8.067048 8.39087
000010 00 20 34 41 48 d5 98 40 33 43 e8 3e c1 45 d5 3e
       11.2578125 4.7760353 0.4536377 0.4165478
000020 12 a5 ec 3e 9a b6 fc 3e 00 00 00 00
       0.4621969 0.49358064 0.0

network_body.processors.0.normalizer.running_variance f4 [11]
000000 8e 73 6c 47 67 32 2b 47 dc 08 2a 47 cd b7 d4 46
       60531.555 43826.402 43528.86 27227.9
000010 6a ce f4 46 8f 57 52 45 44 be 2e 43 3a 5e 2b 43
       31335.207 3365.4724 174.74323 171.36807
000020 8b 3f 2f 43 9d 38 30 43 00 00 80 3f
       175.24821 176.22115 1.0

network_body._body_endoder.seq_layers.0.weight f4 [128, 11]
000000 84 60 f8 bb a0 d4 d8 be 3c 00 d3 3d f3 31 05 be
       -0.007579865 -0.4234972 0.10302779 -0.13007335
000010 d4 8b be be 27 a5 8c 3d 73 83 67 bd 1a 56 a4 be
       -0.37216055 0.06867438 -0.056521844 -0.3209694
000020 af f3 4c 3f 9f 0d 89 be fd af db 3e 57 05 92 3e
       0.8005933 -0.26768205 0.42907706 0.285197
000030 13 8c b4 be a5 10 11 3e c9 71 6d be a6 e1 0e 3d
       -0.35263118 0.14166506 -0.23187937 0.034883164
000040 93 bf c8 be 28 52 7e 3d f2 0c 45 3d 57 57 2f 3f
       -0.3920866 0.06209007 0.04810805 0.68492645
000050 fe 98 9e be 9b 9a 97 be fb 28 e4 3d 45 4e ae be
       -0.309761 -0.29610142 0.11140629 -0.3404409
000060 a1 04 d8 3e 4e 1a f5 be 46 6e 86 be d8 b1 6e 3e
       0.42191032 -0.4787163 -0.26256007 0.2331003
000070 c5 25 03 3f cd a3 24 3e fe 0c 58 3d 6e 54 32 bf
       0.51229507 0.1607811 0.052746765 -0.6966008
000080 ef 2d c6 3c f6 b4 d7 3e dd f0 cb 3d 4e a3 f9 be
       0.024191825 0.4213025 0.099580504 -0.48757404
000090 62 41 9f 3d 71 ad fb bd e8 13 55 be e0 65 21 3f
       0.07776143 -0.12288941 -0.20808375 0.63046074
0000a0 cb 17 bf 3d 5f 17 b2 bd 77 f3 20 3e 15 68 09 bd
       0.0933071 -0.08695864 0.15717874 -0.033546526
0000b0 ed c6 b5 3e f8 eb e1 be b6 1c 6f 3f 5b 41 19 3f
       0.3550333 -0.44125342 0.93403184 0.5986535
0000c0 0c b2 7a be a2 06 43 3d e6 01 78 bd 8c e9 5b 3e
       -0.24481982 0.047613747 -0.060548685 0.2147581
0000d0 d0 97 18 be 93 5f 56 3b 01 b6 95 3e 88 87 ab 3d
       -0.14901662 0.0032710775 0.2924042 0.0837546
0000e0 d6 7e 29 be 1d 53 34 3e bf 99 64 3d 8f 17 91 3e
       -0.1655229 0.1760983 0.055810686 0.28338286
0000f0 77 ef 5a 3e b6 6f 75 be b8 85 00 3d 81 66 d2 3e
       0.21380411 -0.23968396 0.031377524 0.4109383
000100 04 bf dd 3e a6 55 ea 3d 33 82 1e bf 01 05 aa 3e
       0.43309796 0.114421174 -0.6191742 0.33206943
000110 6a 18 e7 bb 6a 49 fa bb 0a 30 4b be 41 75 b6 3d
       -0.007052471 -0.007638146 -0.19842544 0.08909083
000120 13 84 ad be c6 41 07 3f 20 2f 83 be 08 d2 b1 3e
       -0.33889827 0.5283474 -0.2562189 0.34730554
000130 ec 4f bb bd 1c 96 a3 bd 4f 18 bc 3e 9b ed a7 3e
       -0.09146103 -0.079876155 0.36737296 0.32798466
000140 28 f0 af 3d 1e 54 01 3e 73 e0 cb 3d 23 61 97 3e
       0.08590728 0.12629744 0.0995492 0.29566297
000150 43 f4 ac 3d 95 4d be be 58 e4 60 3e 50 e3 67 3e
       0.08445027 -0.37168565 0.21962106 0.22645307
000160 30 81 09 3e 67 0b ce be be 45 f7 3e ad c9 b8 3e
       0.13428187 -0.40243074 0.48295397 0.36091366
000170 53 19 bf 3c 90 40 01 3e 0b da fe 3d a8 10 88 3d
       0.023327505 0.12622285 0.12443932 0.06643802
000180 11 94 bc be d9 21 ee be 9e cf 98 bd a3 76 19 be
       -0.36831716 -0.465102 -0.07461475 -0.14986663
000190 4d dd 02 3e 28 52 6c 3e 65 ec cf 3e 14 04 34 3e
       0.12779732 0.23078215 0.40610042 0.1757968
0001a0 db 5e c6 be 03 5d 19 bc 9f 4c de be 51 73 18 bf
       -0.38744244 -0.009360555 -0.43417832 -0.5955096
0001b0 70 9a 23 3e d5 87 00 bf 71 55 ea 3e bd 85 02 be
       0.15976882 -0.50207263 0.45768312 -0.1274633
0001c0 af 3b 70 3c db e6 48 bf d0 b1 a9 3e 7a 32 c4 3e
       0.014662667 -0.7847726 0.33143473 0.3831976
0001d0 79 45 fe bb 2c 05 33 3f aa 74 b9 3d e1 66 23 bf
       -0.0077597466 0.69929767 0.09055455 -0.63828856
0001e0 2f b5 64 3e 1a 40 ab be b6 2f e1 bc 4d de ab 3e
       0.22334741 -0.33447343 -0.02748857 0.3356804
0001f0 e4 ac 9a 3e bd 49 91 3d 5a 40 00 3f 3a 1e 96 be
       0.3021003 0.070941426 0.5009819 -0.29319936
000200 18 bb 7b 3e 93 86 b5 be 69 ec 50 bc 74 0b 8f be
       0.2458309 -0.35454234 -0.012751677 -0.27938426
000210 d9 8c 09 bf 40 7b 9e bc 87 af bc bd 6f 5e 2b bf
       -0.5373054 -0.01934588 -0.09213167 -0.6694097
000220 b9 89 17 3f e7 ce 8e b9 b7 85 74 3d 99 af 20 3f
       0.59194523 -0.00027238505 0.059697833 0.6276794
000230 46 31 f8 bd dc f7 03 3d 0e fe ad 3d 1c b8 b3 be
       -0.12118773 0.0322188 0.08495723 -0.35101402
000240 dc b6 87 be 2c cd 16 bf 58 15 9f bc 02 59 b5 3d
       -0.26506698 -0.5890682 -0.019419357 0.088548675
000250 6e e0 50 be a2 0c 7e 3e e7 16 67 3e 11 f4 4c bf
       -0.20398113 0.24809507 0.2256733 -0.80059916
000260 58 57 64 3e 95 21 a3 3c d9 56 0b be 11 5e bb 3d
       0.22298944 0.019913474 -0.13607349 0.09148801
000270 ea b3 84 be 3c f6 76 3e 4b ef e5 bd 3a 2d 91 3e
       -0.25918514 0.24117368 -0.11227282 0.28354818
000280 70 ba 2b 3e f7 6a 2d 3e c0 22 ef 3e ed bc 7f 3d
       0.16770339 0.16935335 0.467062 0.062436033
000290 79 37 09 3e e1 02 7a 3e 33 12 f0 bd 67 e6 bd 3d
       0.13400067 0.2441516 -0.11722221 0.092724614
0002a0 ee 33 18 3d 42 f3 18 bf 9e 9e c0 3d 94 06 3d bf
       0.0371589 -0.5974618 0.09405254 -0.7383816
0002b0 97 98 90 3d df b8 ff bd 7c 2c 57 3c 16 46 3e be
       0.07060354 -0.12486433 0.0131331645 -0.18581423
0002c0 74 9a 8f be 56 33 5b 3f 82 37 fa 3d c8 dc 1d bd
       -0.28047526 0.8562521 0.122176185 -0.03854063
0002d0 f8 fd b8 be 56 1e 0a 3f 07 cb 15 bf 7b e3 f7 3e
       -0.36131263 0.5395254 -0.5851292 0.4841574
0002e0 8c 47 35 3c b1 57 b2 3c b9 4c 83 3e a2 c1 66 be
       0.011064421 0.02177033 0.25644472 -0.22534803
0002f0 da 8f 17 bc a0 59 46 be 84 cb 4d bd c1 f9 34 be
       -0.0092506055 -0.19370127 -0.050242916 -0.17673399
000300 f2 00 9e 3e 7d 7c 9c 3e fd 03 92 3e 6b 0b 0c 3e
       0.30860096 0.30563727 0.28518668 0.1367623
000310 0e e5 12 3f 81 25 81 3c b0 d1 7b 3e 50 67 08 be
       0.5738076 0.015764954 0.24591708 -0.1332066
000320 5b 19 ef be db 24 13 be 2e c3 7c 3e 58 c5 b4 bb
       -0.46699032 -0.14369528 0.2468383 -0.0055166893
000330 04 2b 23 3e 14 86 c4 bc c2 be 9f bd ba 41 9b 3e
       0.15934378 -0.023989715 -0.07800056 0.30323583
000340 98 33 36 3e 05 e9 48 3e de 25 6e 3b e2 71 d4 3e
       0.17793119 0.1962014 0.0036338489 0.41493136
000350 6a d6 52 be 15 a7 cb 3e 95 89 aa 3e 39 0a 40 3e
       -0.20589605 0.3977591 0.33308092 0.187539
000360 6e 9e b8 3d 18 13 7e 3e d6 db 6d 3e 3e 99 d6 3d
       0.09014593 0.24811971 0.23228392 0.104784474
000370 29 99 be 3e d8 e5 c5 bd b9 42 4d 3d 87 27 a3 3e
       0.37226227 -0.0966298 0.05011246 0.31866094
000380 18 e2 52 be 45 5b e0 bd 31 ec b7 be 22 43 d3 bd
       -0.2059406 -0.10954908 -0.35922387 -0.10315539
000390 72 2a 00 be bd c5 1e 3f 61 37 52 3f a9 70 84 be
       -0.12516192 0.62020475 0.8211575 -0.25867203
0003a0 2d 93 73 bb 2a 4e 0b bd 42 28 72 3e 48 52 6b bf
       -0.003716658 -0.03401009 0.2364817 -0.91922426
0003b0 f9 c4 08 3e 17 2a 24 3e 1a 29 59 3e 47 cf 38 bd
       0.13356389 0.16031681 0.21207085 -0.04511955
0003c0 16 a9 ca 3e 55 41 03 3e 56 3d 10 bf 5b 12 53 bf
       0.39582127 0.12817891 -0.5634359 -0.82449883
0003d0 24 ab ab 3e 4e 44 15 3f 7b 1a db 3e ad 31 53 be
       0.33529007 0.5830735 0.4279364 -0.20624419
0003e0 d4 ac 22 bf e6 e2 08 3e 3e a7 52 3d e5 a1 4b bc
       -0.63544965 0.13367805 0.051429026 -0.012428735
0003f0 44 c3 88 3c bc bb 29 be 80 c6 b3 be 56 53 2e be
       0.016694672 -0.16575521 -0.3511238 -0.17023978

network_body._body_endoder.seq_layers.0.bias f4 [128]
000000 00 00 00 00 00 00 00 00 00 00 00 00 00 00 00 00
       0.0 0.0 0.0 0.0
000010 00 00 00 00 00 00 00 00 00 00 00 00 00 00 00 00
       0.0 0.0 0.0 0.0
000020 00 00 00 00 00 00 00 00 00 00 00 00 00 00 00 00
       0.0 0.0 0.0 0.0
000030 00 00 00 00 00 00 00 00 00 00 00 00 00 00 00 00
       0.0 0.0 0.0 0.0
000040 00 00 00 00 00 00 00 00 00 00 00 00 00 00 00 00
       0.0 0.0 0.0 0.0
000050 00 00 00 00 00 00 00 00 00 00 00 00 00 00 00 00
       0.0 0.0 0.0 0.0
000060 00 00 00 00 00 00 00 00 00 00 00 00 00 00 00 00
       0.0 0.0 0.0 0.0
000070 00 00 00 00 00 00 00 00 00 00 00 00 00 00 00 00
       0.0 0.0 0.0 0.0
000080 00 00 00 00 00 00 00 00 00 00 00 00 00 00 00 00
       0.0 0.0 0.0 0.0
000090 00 00 00 00 00 00 00 00 00 00 00 00 00 00 00 00
       0.0 0.0 0.0 0.0
0000a0 00 00 00 00 00 00 00 00 00 00 00 00 00 00 00 00
       0.0 0.0 0.0 0.0
0000b0 00 00 00 00 00 00 00 00 00 00 00 00 00 00 00 00
       0.0 0.0 0.0 0.0
0000c0 00 00 00 00 00 00 00 00 00 00 00 00 00 00 00 00
       0.0 0.0 0.0 0.0
0000d0 00 00 00 00 00 00 00 00 00 00 00 00 00 00 00 00
       0.0 0.0 0.0 0.0
0000e0 00 00 00 00 00 00 00 00 00 00 00 00 00 00 00 00
       0.0 0.0 0.0 0.0
0000f0 00 00 00 00 00 00 00 00 00 00 00 00 00 00 00 00
       0.0 0.0 0.0 0.0
000100 00 00 00 00 00 00 00 00 00 00 00 00 00 00 00 00
       0.0 0.0 0.0 0.0
000110 00 00 00 00 00 00 00 00 00 00 00 00 00 00 00 00
       0.0 0.0 0.0 0.0
000120 00 00 00 00 00 00 00 00 00 00 00 00 00 00 00 00
       0.0 0.0 0.0 0.0
000130 00 00 00 00 00 00 00 00 00 00 00 00 00 00 00 00
       0.0 0.0 0.0 0.0
000140 00 00 00 00 00 00 00 00 00 00 00 00 00 00 00 00
       0.0 0.0 0.0 0.0
000150 00 00 00 00 00 00 00 00 00 00 00 00 00 00 00 00
       0.0 0.0 0.0 0.0
000160 00 00 00 00 00 00 00 00 00 00 00 00 00 00 00 00
       0.0 0.0 0.0 0.0
000170 00 00 00 00 00 00 00 00 00 00 00 00 00 00 00 00
       0.0 0.0 0.0 0.0
000180 00 00 00 00 00 00 00 00 00 00 00 00 00 00 00 00
       0.0 0.0 0.0 0.0
000190 00 00 00 00 00 00 00 00 00 00 00 00 00 00 00 00
       0.0 0.0 0.0 0.0
0001a0 00 00 00 00 00 00 00 00 00 00 00 00 00 00 00 00
       0.0 0.0 0.0 0.0
0001b0 00 00 00 00 00 00 00 00 00 00 00 00 00 00 00 00
       0.0 0.0 0.0 0.0
0001c0 00 00 00 00 00 00 00 00 00 00 00 00 00 00 00 00
       0.0 0.0 0.0 0.0
0001d0 00 00 00 00 00 00 00 00 00 00 00 00 00 00 00 00
       0.0 0.0 0.0 0.0
0001e0 00 00 00 00 00 00 00 00 00 00 00 00 00 00 00 00
       0.0 0.0 0.0 0.0
0001f0 00 00 00 00 00 00 00 00 00 00 00 00 00 00 00 00
       0.0 0.0 0.0 0.0

network_body._body_endoder.seq_layers.2.weight f4 [128, 128]
000000 33 35 2e bd 94 12 93 3c 79 14 cd bd e7 07 1b be
       -0.042531203 0.017953195 -0.100136705 -0.15139733
000010 6a 5e ff bd 66 b1 b2 3d 01 5f 02 be 2f 61 08 ba
       -0.1246918 0.08725242 -0.12731554 -0.000520247
000020 65 c1 79 3d 66 33 2b be 29 f7 c1 3b a5 1b 36 3b
       0.06097545 -0.16718826 0.0059193564 0.0027787474
000030 8b b8 85 3d 43 b2 17 3e 5d 35 02 3c d1 7d a3 3d
       0.065293394 0.14814095 0.007947293 0.07982982
000040 79 70 b0 3d 4e 4a a1 bd f1 a1 2e bd 3f d7 4c bd
       0.086152025 -0.078755006 -0.042634908 -0.050009962
000050 e8 af 50 3d 9a 4a 38 bd c1 e4 9b 3d ba 47 4a 3d
       0.050949007 -0.04499302 0.07611991 0.04938481
000060 50 a9 c1 3c 97 40 26 3e 92 08 92 bd 83 4d 53 3c
       0.023640305 0.16235577 -0.07130541 0.012896898
000070 b8 d1 93 3d 89 2b f1 3d 1d 43 f0 3d 36 6d 21 bc
       0.07217735 0.11775882 0.11731551 -0.009852698
000080 fa 05 85 bd 83 4c 3d be 47 f6 05 3e ca 7b 74 3c
       -0.064952806 -0.18486218 0.13082229 0.014922092
000090 ba 1c f5 bb 16 8e cd bc 2b 2d 98 bd 3c 5d 9f bc
       -0.007480231 -0.025092166 -0.0743049 -0.019453637
0000a0 c9 a1 f4 3c 7f 5f 8b bd ba 58 8c bc 1a 10 5f bd
       0.029862301 -0.06805324 -0.017132152 -0.054458715
0000b0 90 e2 50 bc 8c 88 fb bb e4 ef cf bd 08 dc 13 3e
       -0.012749329 -0.0076761898 -0.101531774 0.14439404
0000c0 86 07 5b bd b3 26 0b 3e 81 e9 ea bd ef f5 df 3c
       -0.05347397 0.13588981 -0.114703186 0.02733895
0000d0 7d 00 06 3e 06 6a b7 bd 01 45 2e 3d 10 fe f7 3c
       0.13086124 -0.08955769 0.042546276 0.030272514
0000e0 77 ed 41 bd 93 c9 ca 3d c2 9c e1 3d 75 e2 27 3e
       -0.047345605 0.099017285 0.11016227 0.1639498
0000f0 c6 e4 31 bd 2d 1c 9b 3d db 11 ba 3d 88 c2 93 3c
       -0.043431066 0.075737335 0.09085437 0.018037096
000100 e5 e9 d1 bd 15 26 a8 bc f8 6f a2 3d a5 b2 9a 3d
       -0.1024969 -0.020525971 0.079315126 0.07553605
000110 3f fd f9 bc f4 c6 3d bd 80 ed 03 3e 0f 20 b1 bd
       -0.030516265 -0.046332315 0.12883568 -0.08648693
000120 99 e8 b4 bc 77 99 1b 3e 8d f8 95 be 41 55 94 3c
       -0.022083567 0.15195261 -0.29291192 0.018107058
000130 1f 96 b9 bd 88 d8 1f bc 6e 0b c7 3a d7 38 c0 3c
       -0.090618365 -0.009756215 0.0015185901 0.023464603
000140 61 e3 84 bc 33 ea 15 3e 72 a4 55 3d 9f f0 01 be
       -0.016221704 0.14640121 0.05215878 -0.12689446
000150 c9 90 d0 bd 42 aa ba 3c 62 33 cc bd fa b0 91 bd
       -0.101838656 0.022786263 -0.09970738 -0.07113834
000160 cb 56 05 3d 50 77 6c be 9c 2d b9 bd 63 b3 05 bd
       0.032553475 -0.23092389 -0.090419024 -0.03264178
000170 dd fe b2 bb 5c 4f 3e 3e 85 64 c8 3d 64 cc 91 bc
       -0.005462511 0.1858496 0.097847976 -0.017797656
000180 49 c5 09 3e 37 d5 35 3d 5e 4a 8d 3d 6a 08 04 3d
       0.13454165 0.04439279 0.0689895 0.032234587
000190 7f a7 66 3b 39 bb b0 3d 16 46 cc 3d f7 f6 3e bb
       0.003519505 0.0862946 0.09974305 -0.0029138902
0001a0 0d 0b f9 3d e2 6b d7 3d 5b e3 b0 bd 14 92 2f bd
       0.12160311 0.10518624 -0.086371146 -0.04286392
0001b0 ce da ce 3d de 89 a1 bd 60 57 40 3d 35 0c db 3c
       0.101003274 -0.07887624 0.046958327 0.02673922
0001c0 5f ab c2 bd 1f a6 cb bd 97 5b 31 bd 1f fc 4e bd
       -0.09505343 -0.099437945 -0.043300238 -0.05053341
0001d0 f3 e7 41 3e 36 ea 8b 3c c0 cc 97 3c 22 42 76 be
       0.18936138 0.017079454 0.01853025 -0.24048665
0001e0 ff df 9a 3d ed 4a 48 3e a6 00 07 3d ab 03 98 bc
       0.07562255 0.19559832 0.032959603 -0.018556437
0001f0 21 2d e7 3d 66 df 3d 3d 8a e4 3a 3d 45 57 59 3e
       0.112879045 0.046355627 0.045628108 0.21224697
000200 1a cd 74 bd d6 54 88 bd 30 33 c6 bc 70 df da bb
       -0.059765913 -0.06656806 -0.02419433 -0.006679468
000210 76 bf b0 bc 6c 82 18 3e ff d4 21 3d 71 9b e4 3c
       -0.02157567 0.14893502 0.03950977 0.027906151
000220 4b 82 fd bd 9d 91 75 bb a6 5c 84 bc 20 82 0d 3e
       -0.12378367 -0.0037470825 -0.01615746 0.1381917
000230 0f cb 0b bd 78 11 5f 39 6e 81 3d 3e 50 1f 18 3e
       -0.0341292 0.00021273445 0.18506405 0.14855695
000240 8c 7b bc bc 62 d0 86 3e b2 f2 56 3c 1c be 9c bd
       -0.02300813 0.26330858 0.0131193865 -0.07653448
000250 53 4c de 3d f9 c2 37 bd 8d cd 4a 3e e4 49 97 bd
       0.108544014 -0.044863675 0.19804974 -0.073871404
000260 3f d3 6d 3d cd c9 d7 bd 43 cf 61 bd b2 4e 15 bd
       0.058062788 -0.10536537 -0.0551293 -0.036452003
000270 5f 56 57 3d bf ce 9f 3c 26 f2 bb bc 5e 61 28 be
       0.052572604 0.019507764 -0.022942614 -0.16443393
000280 7d 79 ee 3d fa f5 94 3d 50 47 ac bd bb cb de bd
       0.11644266 0.07273479 -0.08412039 -0.10878702
000290 9b 7b 28 b9 f4 26 cc bd 61 98 a3 3d a0 5c c6 3d
       -0.00016067775 -0.09968367 0.07988048 0.096856356
0002a0 9a b0 57 3e 3e 81 e7 bd 18 e5 61 3e d9 7d ae 3d
       0.21063462 -0.11303948 0.22060049 0.08520097
0002b0 13 31 e2 bd f6 92 a5 bd c1 5b 42 3c b4 1f 26 be
       -0.110445164 -0.08084671 0.011862696 -0.16223031
0002c0 42 2b e9 bd 3f 3e a5 3d cb dc aa 3d 6f 44 1a bd
       -0.11385204 0.08068513 0.08342894 -0.03766292
0002d0 cf 3f 8b 3d 39 c0 f4 3c 51 71 3b be ed 08 5a bc
       0.0679928 0.029876815 -0.18304946 -0.013307792
0002e0 8a 36 18 bc 36 2a 8b 3c 5d 52 42 3c bc d4 08 bd
       -0.009290347 0.016987901 0.011860457 -0.033406004
0002f0 0b 1f 4f bd fb d7 cb 3c 32 fe ff 3c bf f3 70 bd
       -0.050566714 0.024883261 0.03124914 -0.058826204
000300 60 3e b9 3b d9 9f 2e be 26 e9 d4 bd ed 33 d0 3c
       0.0056531876 -0.17053165 -0.10396032 0.025415385
000310 3d 87 f5 3d 1a 60 d4 3c ea f1 2a be 5b 0d 54 bd
       0.11988685 0.025924731 -0.16693845 -0.05177055
000320 00 dd 18 bd 34 de 22 3d e8 cb e0 3d 52 c1 7e bd
       -0.037320137 0.03976269 0.10976392 -0.062196083
000330 d9 c1 b4 3d 3d 4a 0c bd 4d d0 3a bc 58 fc bb bb
       0.08826036 -0.034250487 -0.011402202 -0.005736869
000340 14 55 1f be 30 9c 58 ba c1 bd ce bb 75 34 57 3d
       -0.15559798 -0.000826302 -0.0063092415 0.05254026
000350 3c 1f 48 3e 3d 53 20 bd 6f 1d ae bc 4a bb cc bd
       0.19543165 -0.039141882 -0.02125427 -0.0999666
000360 a6 b4 29 3d ce c8 9f bd 23 d0 5b be 34 8a b4 3d
       0.041432045 -0.07801972 -0.21466117 0.08815423
000370 20 d7 62 bc de 47 6a bd c8 3a 55 bd c1 40 5e 3e
       -0.013845235 -0.057197444 -0.05205801 0.21704389
000380 0f 05 9f 3c 8e e0 6d bd 9f 19 89 bd ac 54 27 bc
       0.019411592 -0.05807548 -0.0669434 -0.010213058
000390 a1 c3 d8 bc 29 07 0a be 70 fb 0c 3d c1 7f a7 bd
       -0.02646047 -0.13479294 0.034419477 -0.08178664
0003a0 46 bb 85 3d c1 61 e0 3d 0b 12 b7 bc 97 bc 86 bc
       0.0652986 0.10956145 -0.02234747 -0.016447349
0003b0 50 af 4d be 21 b3 f3 bd 33 1e 7c 3d 75 4f 85 3c
       -0.20086408 -0.118994005 0.061552238 0.01627324
0003c0 fb 43 ee bd 81 4b 9d 3d d9 1e 8e 3c 93 4f e8 bd
       -0.1163406 0.07680417 0.017348694 -0.113433026
0003d0 e1 e2 d7 3c 4a c9 0e be 03 9c 62 bd 60 cc 15 be
       0.026353301 -0.13943973 -0.055324566 -0.14628744
0003e0 88 72 87 3d ba 5b 77 bd ee 11 9e bd 0b c0 56 3d
       0.06613642 -0.06039021 -0.077182636 0.05242924
0003f0 f3 5a d5 bd c3 95 5a bd 93 be a9 3d a4 32 90 3c
       -0.10417738 -0.05336548 0.08288302 0.017602272

network_body._body_endoder.seq_layers.2.bias f4 [128]
000000 00 00 00 00 00 00 00 00 00 00 00 00 00 00 00 00
       0.0 0.0 0.0 0.0
000010 00 00 00 00 00 00 00 00 00 00 00 00 00 00 00 00
       0.0 0.0 0.0 0.0
000020 00 00 00 00 00 00 00 00 00 00 00 00 00 00 00 00
       0.0 0.0 0.0 0.0
000030 00 00 00 00 00 00 00 00 00 00 00 00 00 00 00 00
       0.0 0.0 0.0 0.0
000040 00 00 00 00 00 00 00 00 00 00 00 00 00 00 00 00
       0.0 0.0 0.0 0.0
000050 00 00 00 00 00 00 00 00 00 00 00 00 00 00 00 00
       0.0 0.0 0.0 0.0
000060 00 00 00 00 00 00 00 00 00 00 00 00 00 00 00 00
       0.0 0.0 0.0 0.0
000070 00 00 00 00 00 00 00 00 00 00 00 00 00 00 00 00
       0.0 0.0 0.0 0.0
000080 00 00 00 00 00 00 00 00 00 00 00 00 00 00 00 00
       0.0 0.0 0.0 0.0
000090 00 00 00 00 00 00 00 00 00 00 00 00 00 00 00 00
       0.0 0.0 0.0 0.0
0000a0 00 00 00 00 00 00 00 00 00 00 00 00 00 00 00 00
       0.0 0.0 0.0 0.0
0000b0 00 00 00 00 00 00 00 00 00 00 00 00 00 00 00 00
       0.0 0.0 0.0 0.0
0000c0 00 00 00 00 00 00 00 00 00 00 00 00 00 00 00 00
       0.0 0.0 0.0 0.0
0000d0 00 00 00 00 00 00 00 00 00 00 00 00 00 00 00 00
       0.0 0.0 0.0 0.0
0000e0 00 00 00 00 00 00 00 00 00 00 00 00 00 00 00 00
       0.0 0.0 0.0 0.0
0000f0 00 00 00 00 00 00 00 00 00 00 00 00 00 00 00 00
       0.0 0.0 0.0 0.0
000100 00 00 00 00 00 00 00 00 00 00 00 00 00 00 00 00
       0.0 0.0 0.0 0.0
000110 00 00 00 00 00 00 00 00 00 00 00 00 00 00 00 00
       0.0 0.0 0.0 0.0
000120 00 00 00 00 00 00 00 00 00 00 00 00 00 00 00 00
       0.0 0.0 0.0 0.0
000130 00 00 00 00 00 00 00 00 00 00 00 00 00 00 00 00
       0.0 0.0 0.0 0.0
000140 00 00 00 00 00 00 00 00 00 00 00 00 00 00 00 00
       0.0 0.0 0.0 0.0
000150 00 00 00 00 00 00 00 00 00 00 00 00 00 00 00 00
       0.0 0.0 0.0 0.0
000160 00 00 00 00 00 00 00 00 00 00 00 00 00 00 00 00
       0.0 0.0 0.0 0.0
000170 00 00 00 00 00 00 00 00 00 00 00 00 00 00 00 00
       0.0 0.0 0.0 0.0
000180 00 00 00 00 00 00 00 00 00 00 00 00 00 00 00 00
       0.0 0.0 0.0 0.0
000190 00 00 00 00 00 00 00 00 00 00 00 00 00 00 00 00
       0.0 0.0 0.0 0.0
0001a0 00 00 00 00 00 00 00 00 00 00 00 00 00 00 00 00
       0.0 0.0 0.0 0.0
0001b0 00 00 00 00 00 00 00 00 00 00 00 00 00 00 00 00
       0.0 0.0 0.0 0.0
0001c0 00 00 00 00 00 00 00 00 00 00 00 00 00 00 00 00
       0.0 0.0 0.0 0.0
0001d0 00 00 00 00 00 00 00 00 00 00 00 00 00 00 00 00
       0.0 0.0 0.0 0.0
0001e0 00 00 00 00 00 00 00 00 00 00 00 00 00 00 00 00
       0.0 0.0 0.0 0.0
0001f0 00 00 00 00 00 00 00 00 00 00 00 00 00 00 00 00
       0.0 0.0 0.0 0.0

action_model._discrete_distribution.branches.0.weight f4 [2, 128]
000000 93 6d be bb 15 e4 43 bb af 55 37 3b ab 96 86 3b
       -0.005811402 -0.0029890586 0.0027974655 0.0041073165
000010 02 1d de ba d9 f2 91 bb 32 03 65 3b be 56 8e ba
       -0.0016945901 -0.0044539985 0.0034944532 -0.0010859591
000020 cc 91 80 bc c2 6b c8 3a 04 36 19 bc 01 61 81 bb
       -0.015694521 0.0015290903 -0.009351257 -0.0039483313
000030 0d 52 f7 ba ef d6 5b bb 8c 81 33 bb 5f 16 51 bb
       -0.0018869058 -0.0033544858 -0.0027390448 -0.0031904203
000040 55 23 42 bc ab ab bc 3b 77 22 48 bc f0 85 c7 bb
       -0.011849244 0.005757769 -0.012215248 -0.0060889646
000050 a1 0a 4a bb cf d8 1c 3b 56 57 88 3c 5d 35 21 3b
       -0.003082909 0.002393294 0.016643208 0.0024598457
000060 20 0c 69 bb d7 7a 20 b9 97 19 0b bb b7 ab a5 ba
       -0.0035560206 -0.0001530455 -0.002122497 -0.0012639676
000070 f0 83 03 3c 0f ca c5 3b 48 08 8f bb 59 b4 cb 3b
       0.008027062 0.00603605 -0.004365001 0.0062165675
000080 76 a6 9d bb 42 9d f3 3b 4f 42 d2 bb d7 c9 23 3c
       -0.0048111035 0.007434518 -0.006416596 0.009996853
000090 9f c7 1c bc 7f f2 2f bc eb c0 21 3a 49 6e 43 bb
       -0.009569078 -0.010738968 0.00061704096 -0.0029820374
0000a0 d7 3b 4f bb 80 cd ed ba d3 43 82 bb 1f 19 96 bb
       -0.003162136 -0.0018142909 -0.0039753704 -0.0045806314
0000b0 83 a2 8c ba a3 f2 54 3b 86 7b 2f 3c fc 50 bc bb
       -0.0010729585 0.0032493256 0.010710603 -0.005746959
0000c0 02 53 19 bc a7 f7 12 3c 2c 19 0a 3b bb d0 6a bb
       -0.0093581695 0.008970178 0.0021072133 -0.003582998
0000d0 50 89 ad bb 6f a5 18 3c bd 4e 86 3c 9a e3 a1 bb
       -0.00529591 0.009316786 0.016394967 -0.0049404623
0000e0 90 07 a5 3b 6f 7d 4d 3c 1f a7 bd 3b af a0 f1 bb
       0.005036302 0.012542113 0.0057877447 -0.0073738913
0000f0 2d 6f 56 bb 3a 04 c5 3b 8b 49 c4 3a 2f 71 06 bc
       -0.0032720075 0.0060124667 0.0014975531 -0.008205696
000100 a5 9d ad 3c 4a 2f f6 bb 9a 31 04 bc bd f9 b4 bb
       0.021193335 -0.0075129615 -0.008068467 -0.005522935
000110 ad 34 59 bb 0e e7 89 bb 62 2a 94 3b ef c8 7a 3b
       -0.003314297 -0.004208452 0.004521654 0.0038266738
000120 49 7c 27 bb 10 fc ea 39 c9 6d 08 bc 8a 29 46 bb
       -0.0025556257 0.0004481976 -0.008326956 -0.0030237162
000130 94 e9 b2 3b 4a bd 76 bb 62 8d d7 3b 68 3c d8 3b
       0.0054599736 -0.0037649446 0.0065781334 0.006598998
000140 64 8c 0f bb 90 a5 f4 ba 80 72 8c 3b 4b 7d 09 bc
       -0.0021903748 -0.0018665064 0.0042861104 -0.008391689
000150 0e f2 b1 3b a3 3a 44 3c f7 3b b3 3a a6 5c c7 bb
       0.0054304665 0.011976871 0.0013674487 -0.0060840426
000160 08 c9 c8 bb bb 8f 0d bb af ca fe bb b8 23 ac 3b
       -0.0061274804 -0.0021600563 -0.0077756266 0.0052532814
000170 64 37 2b 3a d5 d5 0e bc e8 e8 d9 39 fe 95 a6 3b
       0.0006531386 -0.008717974 0.00041562994 0.0050837984
000180 d0 0d 0b 3c 1f c9 f6 3b 15 49 a9 3c ff 8f 13 3c
       0.00848718 0.0075312997 0.020664731 0.009006499
000190 10 18 e3 bb 49 3a aa bb 12 4d 20 bc d5 a9 48 bc
       -0.0069303587 -0.0051949364 -0.009784 -0.012247522
0001a0 51 67 b6 ba 5d 79 59 bc d3 c9 20 bc db 54 15 bc
       -0.0013916289 -0.013273564 -0.009813744 -0.009114469
0001b0 77 4b 4e bb a9 49 48 3c 78 54 23 3c 0f 1d 36 3c
       -0.0031478086 0.012224593 0.009968869 0.011115327
0001c0 e1 7d 84 3b e2 02 9e 3b 53 f2 a0 3c ab 97 95 3b
       0.0040433262 0.004822121 0.0196468 0.0045651994
0001d0 7d 27 e6 3a 1f 7e cf bb e5 78 f6 bb 3c 51 29 3c
       0.0017559376 -0.0063321735 -0.007521736 0.010334309
0001e0 cb 6e a0 3c 0a 1f cf ba 88 73 52 bc b2 70 51 3c
       0.01958408 -0.0015802097 -0.012844928 0.012783216
0001f0 ad 6c 93 3a 7f e9 74 3c 4f 73 b2 bb 0c 8b 80 bc
       0.0011247598 0.014948248 -0.0054458748 -0.015691303
000200 f7 c7 82 3b b2 3e 91 3b a3 5c 9a 3c 6a 73 50 3b
       0.003991123 0.0044325227 0.018843 0.0031807073
000210 36 2c 01 3c 4f a8 f4 ba 7b 6d 74 3b 93 bc a9 bb
       0.007884076 -0.0018665883 0.00372967 -0.0051799505
000220 aa fb 59 bb 37 84 cf 3b ed 9e 90 bb 98 09 6e bc
       -0.0033261576 0.0063329 -0.0044134767 -0.0145286545
000230 3d 6b 51 3c 67 e7 1f bc 07 42 46 3b 3e ea 25 bb
       0.012781915 -0.00975976 0.0030251758 -0.0025316621
000240 62 16 66 bb cf 36 a0 bb 95 ac 1f bc 0d c6 f5 3a
       -0.0035108556 -0.004889346 -0.009745737 0.001875104
000250 2d fd 61 3a 4a cb 52 bc 02 8a 70 bc ec f8 35 bb
       0.0008620795 -0.012865851 -0.014681341 -0.0027766777
000260 1c b5 8f bb 3a 57 00 3c 82 b7 e1 3b ca 07 54 3c
       -0.0043856036 0.007833296 0.006888331 0.01294131
000270 1d fc 89 bb 22 74 04 3b 40 4d 59 3c 30 98 90 3c
       -0.0042109624 0.0020210822 0.013263047 0.017650694
000280 43 c2 f7 3a aa f8 dd 3a 8c 1b 10 bb ee a3 97 bc
       0.0018902499 0.001693507 -0.0021989075 -0.018510785
000290 80 ae 69 bc ed ca 2f 3c 5c 73 8c 3c 8b ee 68 bb
       -0.014262795 0.010729534 0.017144851 -0.0035542573
0002a0 6b 68 03 bb 75 c8 20 bb cb f6 f8 3a ba a7 59 3a
       -0.0020051252 -0.0024533544 0.0018994448 0.0008302886
0002b0 3b 41 5d b9 4b f7 75 3c ed fd 16 3b 09 a2 c2 3b
       -0.00021100503 0.0150125725 0.0023039535 0.0059397263
0002c0 11 c0 82 bc 3d be ab 3b eb 0b 01 3c 37 92 6c bb
       -0.015960725 0.005241184 0.007876377 -0.0036097893
0002d0 e2 b1 73 bb d7 d5 d3 bb fd 72 5d 3b 7b c4 79 bb
       -0.0037184884 -0.0064647007 0.0033790462 -0.0038111496
0002e0 83 33 87 ba 3d 54 b7 ba 1f 8d 24 bb 6d 68 4f 3c
       -0.0010315034 -0.0013986897 -0.0025108529 0.012659174
0002f0 75 d6 ae bb 3d ca cf 3b 63 1c 5b 3b 8d 19 2d 3c
       -0.005335624 0.0063412474 0.0033433668 0.010565174
000300 0f 5f 4b bb bf 2e ca b9 ec fc b0 3a 13 2d 8c 3b
       -0.0031032 -0.0003856327 0.0013503111 0.004277834
000310 2d 8b 5d 3c 81 db 3a 3b 6a b3 55 3c 1d ec 43 bb
       0.013521952 0.0028512182 0.013043264 -0.0029895373
000320 70 a3 9b bb ae 55 80 3c 2a a0 e9 bb 1b ed 27 3c
       -0.004749708 0.015665855 -0.0071296887 0.010249401
000330 ab 19 00 bc 35 00 bd ba eb 45 2a 3c ff 25 b3 39
       -0.00781862 -0.0014419617 0.010392646 0.0003416985
000340 45 4e ee bb 23 b5 80 3c 0d 0c 64 3c bd 59 90 3a
       -0.007272514 0.015711373 0.013918889 0.0011013072
000350 bf bb 61 3b 32 eb fa 3c 0f 7d e1 3b 44 8e 0e bc
       0.003444418 0.030629728 0.006881363 -0.008700911
000360 ff 6d 0a 3a 78 ee 67 3a d8 ff a6 3b 6b c9 d3 39
       0.0005280673 0.00088474853 0.005096417 0.00040395124
000370 3d 9b de bb 8f c7 13 bc 39 34 3e 3b 77 af 7b bb
       -0.006793408 -0.009019746 0.0029022826 -0.0038404146
000380 bf 69 32 bc 57 54 82 3b c0 34 f3 bb 9a fb a5 ba
       -0.01088947 0.0039773392 -0.00742206 -0.0012663484
000390 9b 34 cc 3b ff cf f4 ba 43 47 5d 3a d5 fd a2 bc
       0.006231857 -0.001867771 0.00084411 -0.019896427
0003a0 1b d0 8b 37 d3 53 ac 3b 54 1a 89 39 6e 12 0b bc
       1.6666998e-05 0.005259016 0.00026150292 -0.008488281
0003b0 2f 7c 76 bc f8 b4 4e 3c 30 6c db bb 2f 07 fa bb
       -0.015044256 0.0126163885 -0.0066962466 -0.007630251
0003c0 2b c1 37 ba 31 4e 3d 3b 28 a4 33 3c f0 5f 53 bc
       -0.000700968 0.0028885717 0.010964431 -0.012901291
0003d0 cd fe d9 3a 9e e9 1f bc bc db 17 bc 2d 36 d9 3a
       0.0016631723 -0.0097602885 -0.009268697 0.0016571932
0003e0 73 cd 25 bc 2a 29 57 bc 6d 84 47 bc ca cd 41 bc
       -0.010119784 -0.013132373 -0.012177569 -0.011828849
0003f0 0c d1 a5 3b 22 ae 26 3c 70 c8 ac 3c 77 cd b5 3b
       0.0050603207 0.010173352 0.02109167 0.005548175

action_model._discrete_distribution.branches.0.bias f4 [2]
000000 00 00 00 00 00 00 00 00
       0.0 0.0

action_model._discrete_distribution.branches.1.weight f4 [2, 128]
000000 9c 8e 81 bb f0 19 85 3b c4 13 2c 3c 54 d9 42 bc
       -0.003953768 0.00406193 0.010502759 -0.011892635
000010 a3 63 ac bc 1d da c2 bb f8 53 76 3b d9 f9 30 bc
       -0.021043604 -0.0059464113 0.003758667 -0.010801756
000020 23 1a 80 bb 8f 5b b6 ba b7 ad 22 bb cf d9 4c 3a
       -0.0039093657 -0.0013912785 -0.002482278 0.00078144384
000030 3b 93 45 bc da af e3 3b 1f c4 85 bc 53 ee b1 3c
       -0.012059028 0.0069484534 -0.01632887 0.021720087
000040 f5 86 de 3b 1f 07 64 b9 75 e7 a2 3c 83 0f 72 3b
       0.0067909905 -0.00021746427 0.019885758 0.0036935515
000050 bb 41 1c 3c f7 a8 d0 bb 02 de 48 3b e0 46 5c ba
       0.009537156 -0.0063677984 0.0030649905 -0.0008402895
000060 55 4b 63 b8 f3 65 80 3b 90 38 ca 3b 02 10 cd ba
       -5.4191176e-05 0.0039184033 0.0061712936 -0.001564503
000070 8b ef 25 bc fb a9 92 bb 29 b9 9a bb f8 b3 93 3b
       -0.010127912 -0.0044758297 -0.00472178 0.004507538
000080 57 1c 64 3b af f3 e9 3a 91 22 3e ba 4b b1 0e 3c
       0.003480693 0.0017849113 -0.00072530756 0.008709262
000090 b3 d5 28 3b 75 30 1c 3c 6b 48 75 3b e3 e5 b9 bb
       0.002576214 0.009533037 0.0037427198 -0.0056731566
0000a0 00 c1 3e ba f6 a8 23 bc 5d 2b e3 3b 76 cf 25 3c
       -0.0007276684 -0.009989014 0.0069326595 0.010120263
0000b0 ee be 02 3b 23 dc 97 bb 43 cf 66 39 07 c6 14 3a
       0.0019950229 -0.0046343966 0.0002201172 0.00056752603
0000c0 12 79 bf ba 9d 93 ce 3b 5d 2c 1f bc 80 5e 14 3b
       -0.0014608225 0.006304218 -0.009715167 0.0022639334
0000d0 5f 63 1d bb 6f 44 b5 bb 02 d0 d5 3b 25 67 a5 3b
       -0.0024015529 -0.0055318396 0.0065250406 0.005047696
0000e0 99 b8 a6 3a 73 a8 fc bb ab 0b 44 3c 43 ff 08 3a
       0.0012719809 -0.0077105104 0.0119656725 0.0005226025
0000f0 40 c9 97 3c 5f 95 db 3a 4d 83 c1 3a 26 d1 1d 3c
       0.01852858 0.001675289 0.0014763862 0.009632384
000100 77 c4 84 3b fe 79 0b bc 53 08 8b bb 4b 60 b2 bb
       0.0040517407 -0.008512972 -0.0042429357 -0.005443608
000110 68 dc 77 3c c0 52 0a ba 27 c1 c0 bb 13 96 96 3c
       0.015128233 -0.0005276613 -0.0058824006 0.018382108
000120 90 8b 91 bc 12 4d 8e ba 63 83 59 3b 7f 62 37 3b
       -0.017766744 -0.0010856709 0.0033189885 0.0027982292
000130 60 4c ca bb f7 49 a1 bc 80 85 66 3c 3f 5a 36 3c
       -0.0061736554 -0.01968859 0.014069915 0.011129915
000140 fe 2c 35 bc a8 e9 76 3b fc 76 35 bb ef e4 fb ba
       -0.01105809 0.003767589 -0.0027689328 -0.0019218008
000150 91 06 c5 b8 6b b8 5d 39 72 c6 fe 3a 97 d0 fb 3b
       -9.394915e-05 0.00021144903 0.0019437803 0.007684778
000160 0f 29 27 bc fe 97 92 bc 3b 57 bf 3a e5 00 44 3a
       -0.01020266 -0.017894741 0.001459814 0.000747694
000170 28 ec 09 bc c5 df 2a 3b 4b 63 02 3b f0 96 65 3a
       -0.00841812 0.0026073318 0.001989561 0.0008758148
000180 f9 05 98 b9 28 6d e0 bb 7c 76 3a ba 73 d4 a9 3a
       -0.0002899615 -0.00684895 -0.00071129925 0.0012956992
000190 4d 30 9e ba 0c e7 16 bc f7 c2 e7 3b 6b 29 9a bb
       -0.0012068838 -0.009210359 0.007072802 -0.0047046444
0001a0 b8 a7 c7 3b fe dc 30 bc 08 7f 7c bb f0 a0 ea 3b
       0.0060929917 -0.010794876 -0.0038527865 0.0071602985
0001b0 68 c7 6e 3b c8 7f 64 3b 43 f9 b1 bb 66 6b 19 bc
       0.0036434773 0.0034866203 -0.0054313256 -0.009363985
0001c0 f5 91 c5 3b 7a a8 69 bb 22 31 65 bb b8 27 af 3b
       0.0060293623 -0.0035653398 -0.0034971912 0.005345311
0001d0 b7 bd ab 3b c8 de 74 3c 46 20 27 bc 04 aa 14 3c
       0.0052411216 0.014945693 -0.010200566 0.009073738
0001e0 17 f7 cf bb 77 45 b6 3b eb 04 e2 3b 07 c8 1e bc
       -0.006346594 0.00556248 0.006897559 -0.009691245
0001f0 a7 fe 55 bc d1 21 08 3c 1a 26 af bb 6b 88 3f 3c
       -0.013061202 0.008308844 -0.005345118 0.011690239
000200 2f e3 9d 3c 33 5f fc bb 37 a8 13 3c 42 f1 1d bc
       0.019273369 -0.0077017783 0.0090122735 -0.00964004
000210 f7 f0 bc bb d3 dd 18 bb 2c 5c 80 3b 43 cb e2 bb
       -0.00576603 -0.0023325577 0.0039172377 -0.0069212033
000220 bd 33 84 bc 33 59 46 bc 6b 53 47 bb 44 e4 97 3b
       -0.016137952 -0.012106228 -0.0030414711 0.0046353657
000230 62 7c 1d 3c 7b c9 81 3c ac 80 30 bc 14 75 0e bc
       0.009612175 0.015843144 -0.010772865 -0.008694906
000240 f0 56 cc bb 09 56 3e bc d0 db bc bc ff d8 30 39
       -0.0062359497 -0.011617192 -0.023054034 0.00016865505
000250 d7 72 84 3b db 67 0d bc 05 3a 2f 3c 67 23 34 bb
       0.0040420103 -0.008630718 0.010694985 -0.0027486922
000260 dc de 12 3c af 31 9f 3b 03 69 a1 3a 6d 68 69 bb
       0.008964267 0.0048582177 0.0012314621 -0.003561522
000270 52 d1 11 3c 8f a2 09 bc 62 01 5a ba ad 2c f4 ba
       0.0089000035 -0.008400573 -0.0008316246 -0.0018629037
000280 3f 02 11 3c d5 be 3a bb 03 89 98 bb 75 4e 54 bc
       0.008850633 -0.0028495092 -0.004655005 -0.012958159
000290 7b 68 55 3b b4 f6 b8 3b f7 8c 94 bc fe ca 0d bc
       0.0032563496 0.0056446437 -0.018133624 -0.008654354
0002a0 87 b3 22 3c a2 3f 2a 3c 09 15 4c 3b eb 05 b5 3b
       0.009930498 0.010391148 0.0031140468 0.005524387
0002b0 21 ba 0c bc 91 fe cb ba b8 be db bb b3 54 0e bc
       -0.008589298 -0.0015563538 -0.006706085 -0.008687186
0002c0 89 4c 12 3c 57 83 c9 3c 32 f0 fc bb 5d 44 b7 bb
       0.00892938 0.02459876 -0.007719063 -0.0055928663
0002d0 bb 43 e1 bb 0f 29 c3 bb c0 4e dc 3b 2b b6 7b bb
       -0.006874529 -0.0059558223 0.006723255 -0.003840814
0002e0 db 28 9b bb 98 00 53 3b 06 30 05 3c 23 1a 1d bb
       -0.004735095 0.0032196399 0.008129125 -0.0023971878
0002f0 9b af 76 bc 6e d2 0f 3c ea 17 d6 3b c9 6d c2 3b
       -0.015056516 0.008778198 0.0065336125 0.0059334976
000300 ef e6 41 3c 0d 2b 28 3c f4 c2 01 3b 7f db 2b bb
       0.011834844 0.01026417 0.001980004 -0.002622336
000310 dd 65 58 bb 90 80 b8 3a e5 28 35 3b 6b b4 97 3a
       -0.00330197 0.00140764 0.0027642783 0.0011574154
000320 2f 19 1e 3c e5 dd dc ba a8 ee 82 3c 57 67 83 3b
       0.009649559 -0.0016850798 0.01598294 0.004010122
000330 5b e3 f5 3b 3f 6f a6 39 6d f3 cd 3b 2d 4b 2d 3c
       0.0075039095 0.00031744872 0.006285122 0.010577005
000340 05 60 c3 3b 75 5c 4e bb 06 6b 02 bc 9c d3 3b 3c
       0.005962374 -0.0031488214 -0.007960087 0.011464026
000350 ea 7a 20 3c 9c c4 8b bb 24 60 40 bc e1 36 01 3c
       0.00979493 -0.004265381 -0.011741672 0.007886619
000360 e8 9f f3 ba b7 ee 52 bc 14 cd 87 bc 3f 16 24 bc
       -0.0018587084 -0.012874297 -0.016577281 -0.0100150695
000370 da ea 82 ba 8a 0c e7 ba f3 df a0 ba 52 11 6a 3b
       -0.0009988204 -0.0017627638 -0.0012273773 0.003571589
000380 9a a9 05 bb b6 78 42 3b c5 1b f8 bb d0 19 12 3b
       -0.002039528 0.0029674 -0.0075716698 0.0022293217
000390 4d bb 5c bc 10 f5 a1 bc 33 88 9b 3b 0e b0 0f bc
       -0.01347239 -0.019770175 0.004746461 -0.008770002
0003a0 f1 96 48 3c f8 af 25 3b 28 20 13 3c 37 48 b2 3a
       0.0122430185 0.0025281888 0.008979835 0.0013601844
0003b0 7c 73 20 bc 91 3e a8 3b df 81 e6 3b 3b 1a 4c bb
       -0.009793159 0.0051344116 0.007034525 -0.0031143564
0003c0 fa aa 54 b9 4b 6a 25 3c 43 4c 1a 3c 48 05 c8 bb
       -0.00020281589 0.010096143 0.009417596 -0.006104145
0003d0 15 8d 56 3b 97 83 2a bb 67 29 fe 3b 0d d6 8a 3c
       0.00327379 -0.0026018375 0.0077564004 0.01694777
0003e0 a6 54 c2 3b ce c9 a5 3b b2 d8 e6 3b 22 09 f6 3b
       0.005930501 0.0050594574 0.007044875 0.007508413
0003f0 64 44 89 3c 03 07 7b bc 71 22 3d bc e3 35 e4 bc
       0.016756244 -0.015321496 -0.011543856 -0.027857726

action_model._discrete_distribution.branches.1.bias f4 [2]
000000 00 00 00 00 00 00 00 00
       0.0 0.0

action_model._discrete_distribution.branches.2.weight f4 [2, 128]
000000 f3 1a 33 bc 43 f7 c2 bc 9c 1a 8b 39 cf 96 51 3b
       -0.010931718 -0.023799544 0.00026531972 0.0031980758
000010 47 9e 42 3c fd 94 55 38 10 20 e1 bb 7b af b3 bb
       0.011878557 5.0921913e-05 -0.006870277 -0.0054835654
000020 7f 4d 08 3a c8 b7 f9 3b e1 2b 43 3b df 0d 93 bb
       0.0005199536 0.0076207854 0.0029780793 -0.0044877375
000030 5b 65 12 3c 08 22 0f 3c c7 d0 7f bc 83 f4 84 3b
       0.008935298 0.008736141 -0.015613741 0.0040574684
000040 15 e6 7d bc 1f 88 0d bc 4d 68 70 3b 3f fe 69 3c
       -0.01549675 -0.008638411 0.0036683262 0.014281808
000050 69 e9 27 3c 4a 46 1c bc 37 1a 95 3c 05 f8 b2 3b
       0.01024852 -0.009538243 0.018200977 0.005461695
000060 6d 78 9d bb af 39 f3 3a 77 52 0d bc 68 b0 54 3c
       -0.0048056156 0.001855662 -0.008625618 0.012981512
000070 4a 09 68 bb 6f 92 fc bb 7c 56 89 3c 12 d8 1c 3c
       -0.0035405927 -0.007707886 0.016764872 0.009573
000080 18 db 77 bc b2 7c d6 3c da e1 9a bc 05 98 84 3c
       -0.01512792 0.026182506 -0.018906523 0.01618577
000090 67 e6 38 3c ea 81 85 3b 2f 39 58 bc e1 a2 99 ba
       0.011285401 0.004074325 -0.013197227 -0.0011721515
0000a0 c2 75 d3 3b 9d 06 39 3b f3 9f d7 bb 3a fc bb 3c
       0.006453247 0.0028232702 -0.0065803467 0.02294742
0000b0 af 4e 89 bb 50 02 f8 ba 25 c2 58 3b a0 5d 7c 3c
       -0.004190288 -0.0018921588 0.0033074704 0.015403181
0000c0 bf 16 a1 3a 86 ba 95 3b 21 33 45 bc 7f f8 5d bb
       0.0012290104 0.0045693545 -0.012036116 -0.003387004
0000d0 35 58 4e 3c 40 fd 4c 3c 8f ba 49 bc 3a d0 cb bb
       0.012594272 0.012511551 -0.012312545 -0.006219891
0000e0 bb 8c be bc 48 df ce 3b 55 26 16 bc 1b 77 b3 bb
       -0.023260465 0.0063132383 -0.0091644125 -0.005476845
0000f0 c3 52 13 3c a9 74 95 bb d0 04 ca 39 42 1c fe bb
       0.0089919 -0.004561026 0.00038532028 -0.0077548334
000100 75 19 9e 3b fb 32 9f 3a 3e 47 ae 3a 0b da 14 bc
       0.004824812 0.0012145931 0.0013296378 -0.009085189
000110 c8 22 f9 bb a8 e3 87 bc 23 03 e3 3b 6a ce 00 bc
       -0.007603023 -0.016588047 0.006927864 -0.007861713
000120 ef c3 9e bb a7 2b e2 bb a4 6f 44 3c 38 f6 5f bc
       -0.0048451344 -0.0069021764 0.011989508 -0.013669543
000130 5f 99 54 bc c0 5a 7b 3b 80 17 81 3a 97 8a 89 b8
       -0.01297602 0.0038353652 0.0009848922 -6.5584834e-05
000140 ee 64 26 3b 98 68 c4 3c 2d 9d a6 38 b6 a7 38 3b
       0.0025389749 0.023975655 7.944773e-05 0.0028176135
000150 e0 2a de 3c c7 53 dc b9 2a 64 e4 3b b7 1c 98 3c
       0.027120054 -0.0004202409 0.0069699483 0.01856838
000160 75 7a 55 3b 42 aa 35 ba ec 35 49 ba c5 b8 5e bb
       0.003257421 -0.00069299724 -0.00076755765 -0.0033984643
000170 5a 41 7c 3b 27 9e 3e 3b f1 0c 93 bb 5e af a6 bb
       0.00384911 0.0029085965 -0.0044876267 -0.0050868234
000180 3e 38 8c ba 76 d7 04 3c 56 bc 1f 3c 48 a4 e8 bb
       -0.0010697914 0.0081080105 0.009749493 -0.007099662
000190 5b 62 7f bc 3f f2 88 bb 45 e2 02 3b ba cb 8d bb
       -0.015587415 -0.0041792686 0.0019971293 -0.0043272646
0001a0 ea f5 02 bb 17 81 63 bc ff 55 60 b9 9c 23 b1 b9
       -0.0019983002 -0.013885758 -0.00021394341 -0.00033786602
0001b0 e3 ee 40 bb ce 68 15 3c de 46 25 bc 67 dc 91 bb
       -0.0029439263 0.009119226 -0.010087697 -0.004451323
0001c0 c1 f8 80 3b 23 15 a5 3a 0d 4c 49 ba 83 53 04 3c
       0.003935904 0.00125948 -0.0007678874 0.008076551
0001d0 8c cd 1a 3c 56 bd 03 3c 97 8d db 3b 23 d3 cc b9
       0.00944842 0.008040747 0.0067002284 -0.0003906722
0001e0 07 40 85 3c 0e 73 bc 3b 13 4e 92 3b 1c 88 33 ba
       0.016265882 0.0057510203 0.0044648736 -0.000684859
0001f0 9d 5d e4 3b bf 01 ee bb ca d7 d1 3b d1 80 1c bc
       0.0069691674 -0.0072633917 0.006403898 -0.009552197
000200 fa 49 bd ba 1f 69 87 3b 91 d5 0e bc 6d bb 96 3a
       -0.0014441602 0.0041324045 -0.00871791 0.0011499949
000210 71 36 0c b9 43 b2 3b 3c db 10 b0 bb 3f 0d 9c 38
       -0.00013371721 0.011456075 -0.005373103 7.441127e-05
000220 c7 a3 4d bc 27 86 ed ba be dd 4a ba 98 71 f8 3b
       -0.012551255 -0.0018121646 -0.00077387306 0.007581901
000230 e4 66 b1 bb e7 48 7c 3b 2b 02 6f 3c 27 a1 57 bc
       -0.005413877 0.0038495602 0.014587919 -0.01316098
000240 2a 11 f0 bb 55 32 38 3c cf c1 d6 3a 2b 21 bd 3b
       -0.007326265 0.011242469 0.0016384664 0.005771776
000250 e2 f8 59 bc 85 c2 5d 3c 83 c9 20 bc 04 b2 8f 3c
       -0.013303967 0.013535147 -0.009813669 0.01754094
000260 f3 42 0d bc f0 06 0a ba 62 c4 64 bb 54 51 3c b9
       -0.008621919 -0.0005265316 -0.0034907092 -0.00017959374
000270 5b a9 90 3c 6f 43 9b bc 93 d2 d5 bb 56 c0 92 3b
       0.01765888 -0.018953053 -0.0065253465 0.0044784946
000280 e7 16 1d 3b 27 31 df 3a 8c 87 0d bc 1e 15 15 3c
       0.002396995 0.0017028198 -0.008638274 0.009099273
000290 42 d9 42 bc 78 08 8f 3c 2c 10 8f 3c 43 fe df 3b
       -0.011892619 0.017460093 0.017463766 0.0068357303
0002a0 e8 90 5b bc b3 43 0d 3c eb 81 5c 3c ce 47 b8 3b
       -0.013401248 0.008622098 0.013458709 0.005623794
0002b0 1d b8 07 3a a2 63 95 ba d8 b9 ed bb 68 ea d6 3b
       0.00051772763 -0.0011397491 -0.0072548203 0.006558705
0002c0 c7 79 a4 3b ca e9 99 3b 00 f3 c0 3a 69 82 07 bc
       0.0050194 0.0046970593 0.0014720857 -0.008270838
0002d0 38 dd 35 3c 82 78 5f bc 86 09 08 bb 1b da bd 3b
       0.011100106 -0.013639571 -0.002075763 0.0057938225
0002e0 f5 ee 37 3c 47 05 ef ba 9a 49 af 3b 1f e4 09 3a
       0.011226405 -0.0018235826 0.00534935 0.0005260128
0002f0 d2 de 9f 3c 82 aa 14 bc 47 9c 20 3c 3e a7 92 3c
       0.019515429 -0.009073855 0.009802884 0.017902013
000300 6b 85 96 3b bb 31 75 bb 1d 0d d3 b9 27 49 90 bb
       0.0045935414 -0.0037413675 -0.00040254826 -0.0044032517
000310 af f8 78 bc 7d 9b f7 3b 4a a4 eb 39 7c e9 ab 3b
       -0.01519601 0.0075563774 0.00044945098 0.0052463394
000320 c2 3c 8b 3b b7 a3 22 bb bf a5 c3 bb c4 8c 1a bc
       0.0042491863 -0.002481682 -0.005970686 -0.009432975
000330 57 f0 8b 3b d3 fd d5 bc 4b a7 08 3c ba cf 40 bc
       0.004270594 -0.02612201 0.008340667 -0.011768276
000340 c5 e4 5b 3c 17 9b b8 3b 9e a2 44 bc 1b 41 0d bc
       0.013421242 0.0056337225 -0.012001662 -0.008621479
000350 57 e9 8f bc 93 b2 b3 3b 35 a2 62 bc 6f de 8d bc
       -0.01756732 0.005483934 -0.0138326185 -0.017317979
000360 3d e0 d1 3b 28 22 12 3b de df 48 bb ae 77 bf ba
       0.006404905 0.002229819 -0.0030651013 -0.0014607811
000370 f0 5a 08 3a ad 2b f0 3a ff 68 3e 3c 88 c2 a6 bb
       0.0005201539 0.0018323563 0.011621713 -0.005089108
000380 22 6a ab 3a 6f 90 85 3b 0e ec 36 3b 88 2b c0 bb
       0.0013077895 0.0040760557 0.0027911696 -0.0058645643
000390 77 96 4f bc 7d e3 38 3c e3 b9 6b bb 7f fa 1c bc
       -0.012670151 0.011284706 -0.0035968951 -0.009581207
0003a0 c6 d2 af ba ab dc 29 3c ef 74 e5 3b b8 4b 8e 3b
       -0.0013414256 0.010367553 0.007002465 0.0043425225
0003b0 5d 8a 9c 3b a3 ef 7e bc d0 85 5a ba 33 ba b8 3a
       0.0047772364 -0.0155600635 -0.00083359797 0.0014093578
0003c0 73 72 77 3b 17 a0 27 bb 7b c4 8f ba 1f 0d 68 3c
       0.0037757426 -0.0025577599 -0.001096859 0.014163285
0003d0 e4 b2 8d b9 c1 77 96 bc fa 71 8e 3c 67 16 c2 bb
       -0.000270269 -0.01836765 0.017388333 -0.0059230807
0003e0 17 11 9e bb c3 48 d3 ba ff 4c 81 bc 33 5c 28 bb
       -0.0048238146 -0.0016119707 -0.015783785 -0.002568972
0003f0 83 90 b8 bb 71 68 4c 3b aa 2e 74 3c e3 c3 d6 3b
       -0.0056324615 0.0031190182 0.014903704 0.0065541132

action_model._discrete_distribution.branches.2.bias f4 [2]
000000 00 00 00 00 00 00 00 00
       0.0 0.0

action_model._discrete_distribution.branches.3.weight f4 [2, 128]
000000 81 86 c6 b8 eb 61 af 3b 3b 70 22 bc 26 41 26 ba
       -9.466429e-05 0.005352249 -0.009914453 -0.00063421053
000010 98 30 64 bc 3c 1c 22 3c 98 f1 d0 3b a5 b2 67 3c
       -0.013927601 0.009894427 0.0063764565 0.014141713
000020 54 12 34 3c aa 57 9b 3b e0 94 a7 ba a7 c4 5d 3c
       0.010990698 0.004740675 -0.0012785457 0.013535655
000030 ff 2d df 3a a0 ec 80 bb 32 a9 37 bb f5 3f ad bc
       0.0017027258 -0.003934458 -0.0028024432 -0.021148661
000040 d2 49 df 3b 8b b5 53 bb 1b 11 45 3b 20 45 dc bb
       0.00681422 -0.0032304253 0.003007001 -0.0067221075
000050 03 e6 19 3c fc 26 2d bb 9a e9 74 39 30 51 4e 39
       0.009393218 -0.0026420942 0.00023356677 0.00019675936
000060 5b 98 47 3c 8f ba 36 3b 57 de 39 bc 9e bc 83 3b
       0.0121823205 0.0027882194 -0.011344514 0.0040202877
000070 b7 b0 60 3b 1f cf 8e bb 5f 94 46 3b 48 12 bd bb
       0.0034285018 -0.004358187 0.0030300838 -0.0057700016
000080 68 75 8f 3c 68 df 56 3c b2 ff 87 3b e3 e4 08 bc
       0.017512038 0.013114788 0.0041503543 -0.008355352
000090 02 20 8a bb a5 85 14 3c 65 01 33 3c 49 b2 28 3c
       -0.0042152414 0.009065066 0.010925625 0.010296413
0000a0 63 fd 29 3c 07 8a f3 bb b3 28 11 bb e8 90 55 bb
       0.0103753535 -0.0074322256 -0.0022149503 -0.0032587592
0000b0 3e 68 31 3b eb 8e 6d 3c 75 44 3a bb 87 d0 ab 3b
       0.002707019 0.014499406 -0.0028422151 0.0052433643
0000c0 43 21 a1 ba 2f 97 83 3b df 21 19 bb b1 61 80 bc
       -0.0012293238 0.004015825 -0.0023366136 -0.015671583
0000d0 1f fe 6d 3b 93 22 0a bc 40 d0 6b bb 60 35 ea 3b
       0.0036314798 -0.008431095 -0.003598228 0.007147476
0000e0 1a 18 af ba a3 b9 0b 3c d3 3f d4 3b e7 dc 15 3a
       -0.0013358623 0.008528146 0.006477335 0.0005716816
0000f0 ab d7 a0 3b 32 81 0a bb 0b 43 58 bc 5b 66 07 3c
       0.004908522 -0.0021134135 -0.013199578 0.00826415
000100 2d 1a 7b bc df b2 01 3c f7 8b fe 3b 07 18 b3 3b
       -0.015326065 0.007916181 0.00776815 0.0054655108
000110 0a 4e 58 3c 15 95 fa ba 34 d0 a8 bb 8f b5 93 bb
       0.0132022 -0.0019117916 -0.005151773 -0.0045077275
000120 67 54 72 bb 78 79 d1 3b 40 62 7f 39 a5 3d e7 3b
       -0.0036976577 0.006392654 0.00024355296 0.007056909
000130 65 d5 93 bb 35 b0 61 3b d3 71 4f 3c 77 b7 17 bc
       -0.0045115226 0.0034437303 0.012661415 -0.00926005
000140 bb 0b c0 bb 37 7e 1c bc 18 5e 21 3b 12 e8 52 bc
       -0.0058607734 -0.009551576 0.0024622735 -0.012872713
000150 1f 8b 09 ba 3a 0c 6a bb 2b 1a bf ba 45 b6 79 3b
       -0.0005246866 -0.0035712854 -0.0014579942 0.0038103026
000160 e8 27 72 bc 77 8d 00 bb 6a 92 49 bb b2 57 99 3a
       -0.014780022 -0.001961557 -0.0030757436 0.0011699109
000170 9f 37 3a 3b 2c f9 43 bb df b6 71 3c ad b0 e1 bb
       0.00284145 -0.0029903157 0.0147530725 -0.0068875165
000180 78 5c b1 bb 07 70 4d bc 40 90 59 3b 07 ab 28 bc
       -0.0054126345 -0.012538916 0.0033197552 -0.010294682
000190 db ac b6 bb 9f c2 94 3c 2b 25 4f 3c 3b f8 dc 3b
       -0.005574805 0.018159209 0.012643139 0.0067434586
0001a0 ef 98 74 3b 58 a4 2b bc 5f 16 26 3c 04 bd ad 3b
       0.00373226 -0.010476194 0.01013717 0.0053020734
0001b0 7e 83 bb 3b 9c 1a 91 3b b5 c7 f4 3b 6b b6 d5 ba
       0.005722462 0.004428221 0.007470096 -0.0016304975
0001c0 77 6a 63 bb db 4e 06 3c ff c2 c0 3b fa 14 83 3b
       -0.003470091 0.008197512 0.0058826203 0.0040003033
0001d0 77 24 21 bb 6d c6 d4 bb 87 71 40 bc 94 89 07 bc
       -0.0024588385 -0.0064933808 -0.011745817 -0.008272547
0001e0 58 dc 15 3c 2f 74 f7 bb 03 89 02 ba 93 14 8b bc
       0.009146772 -0.007551692 -0.0004979523 -0.016977584
0001f0 33 86 07 bc 95 74 47 3c 53 17 22 3c 44 05 0c bc
       -0.008271742 0.012173791 0.009893256 -0.008546177
000200 b3 41 e0 3b 30 7a 62 bb 68 55 3a bc 9f be 16 bc
       0.0068437695 -0.0034557693 -0.0113729015 -0.009200721
000210 0c 89 3a 3b a8 0e 17 3c a4 19 19 bb 17 e3 10 3c
       0.0028463034 0.009219803 -0.002336123 0.008843205
000220 34 3f 13 bc 65 b0 ee 3a 98 fe 9b bb 03 0a 00 3b
       -0.008987237 0.0018210529 -0.0047605745 0.0019537217
000230 df f5 db ba bb 99 58 3b 7a a5 a2 3c 5e c3 a2 3a
       -0.0016781649 0.0033050615 0.019854296 0.0012417843
000240 f6 0f 32 bc cd 52 df bb 7f 2c 6a 3c 65 86 40 3a
       -0.010868063 -0.0068152905 0.014292835 0.0007344245
000250 d3 23 6e 39 12 be 3f 3b 25 f7 78 3c 3b df 11 3c
       0.00022710794 0.0029257578 0.015195643 0.00890332
000260 30 76 a1 bb 97 14 bc 3b a8 1b de bb 2a 7e ee 3b
       -0.004927419 0.005739759 -0.006778199 0.0072782235
000270 d2 86 23 bc 6d 22 6a 3c 87 94 8b 3c b1 0d 94 3b
       -0.009980874 0.014290434 0.017038597 0.0045182337
000280 79 3d 36 3c 75 22 4b bc bf ae e9 bb 67 9b 36 bc
       0.011123055 -0.012398352 -0.007131427 -0.011145449
000290 6a 47 85 3b ce f1 16 bc 97 c0 a8 bb 77 a4 b7 bc
       0.004067351 -0.009212924 -0.0051499116 -0.02241729
0002a0 aa d2 38 3b 7e 87 13 b9 cb e7 e9 3b a3 b2 92 3c
       0.0028201737 -0.00014069487 0.0071382276 0.017907446
0002b0 03 3b c6 bb 1a ce 62 3c 88 37 04 3c 81 9e a4 3b
       -0.006049515 0.013843084 0.00806988 0.005023778
0002c0 54 f4 33 bb 5f 85 c9 bb 7d 7e 81 bc 83 e2 b2 3b
       -0.0027458863 -0.0061499323 -0.015807385 0.005459131
0002d0 98 09 f4 bb bb 2e 89 3c 91 d8 c8 39 88 ce 90 36
       -0.0074474327 0.016745916 0.00038308327 4.315578e-06
0002e0 f1 31 34 bb 05 fe 70 bc ed cc 5f bc 68 34 2e 3c
       -0.0027495588 -0.0147090005 -0.013659698 0.010632612
0002f0 62 a4 42 bc 13 50 dd bb fa 21 95 3b 7e fe 46 3c
       -0.011880012 -0.0067539304 0.0045511695 0.012145637
000300 02 c7 fd 3b 53 a6 51 3c 3b 69 be ba 87 ba 5c bc
       0.007744671 0.012796002 -0.0014527211 -0.013472206
000310 9c 5f 2a 3b c7 15 3e 3a e5 a0 35 3b a9 f7 10 b9
       0.002599693 0.000725117 0.0027714309 -0.00013825171
000320 41 b3 a8 3b 40 be d4 bb 16 c7 30 3c 18 dd b0 3b
       0.005148322 -0.006492406 0.010789653 0.00539745
000330 e5 be b8 3a 0d 55 02 3c 9b b9 00 3a 5f ee 47 3b
       0.0014094977 0.007954848 0.000491047 0.003050707
000340 10 c2 72 3c 79 32 9d 3b c7 50 7c 3a 57 a4 03 3a
       0.014816776 0.0047972766 0.0009625074 0.0005021742
000350 a3 53 2b 3c b2 7d fd bb 78 f3 37 bc 8f 69 39 bb
       0.010456952 -0.0077359313 -0.011227481 -0.0028291678
000360 2d b3 a8 ba 6a e3 00 3c 46 61 3a bb 5f ff 69 3c
       -0.0012870781 0.00786672 -0.0028439327 0.014282077
000370 e8 42 64 bc 22 35 d0 3a d8 fe a2 38 30 7e f5 3b
       -0.013931967 0.0015884975 7.77223e-05 0.0074918494
000380 bb be 69 3c bc 45 05 3b 72 b8 eb 3b 98 f5 da bb
       0.014266665 0.0020335754 0.0071936185 -0.006682109
000390 7c 10 30 bb 55 07 2f 3b 97 02 10 ba 73 36 cc 3b
       -0.0026865294 0.002670725 -0.000549355 0.006232077
0003a0 43 9f e4 3b c1 c9 20 bc cd 92 09 bb 3d 60 ae ba
       0.0069769933 -0.009813727 -0.002099204 -0.0013303828
0003b0 7b a2 45 3c e5 6e 9c 3b 74 a7 14 bb 29 ba b5 bb
       0.012062664 0.004773962 -0.0022682818 -0.0055458737
0003c0 0e da c6 ba cf e7 a1 3b 5f 6a 50 bc 89 92 3e bb
       -0.0015171187 0.004940964 -0.012720673 -0.002907904
0003d0 a8 e6 a6 3b 5c 6c b1 3b 1b ce e2 bb 90 d1 8d 3c
       0.0050934143 0.005414529 -0.0069215423 0.017311841
0003e0 ab 8f 88 38 c3 06 6b bb a8 da f6 3b 73 d3 b0 bb
       6.5117456e-05 -0.0035862185 0.00753339 -0.0053963005
0003f0 60 0e 92 3a 8a ef 94 bb 68 2d 39 ba 52 1f 68 3c
       0.00111432 -0.004545157 -0.0007063956 0.014167624

action_model._discrete_distribution.branches.3.bias f4 [2]
000000 00 00 00 00 00 00 00 00
       0.0 0.0

network_body.observation_encoder.processors.0.normalizer.running_mean f4 [11]
000000 c1 6f 26 41 76 c0 15 41 a1 12 01 41 01 41 06 41
       10.402284 9.359488 8.067048 8.39087
000010 00 20 34 41 48 d5 98 40 33 43 e8 3e c1 45 d5 3e
       11.2578125 4.7760353 0.4536377 0.4165478
000020 12 a5 ec 3e 9a b6 fc 3e 00 00 00 00
       0.4621969 0.49358064 0.0

network_body.observation_encoder.processors.0.normalizer.running_variance f4 [11]
000000 8e 73 6c 47 67 32 2b 47 dc 08 2a 47 cd b7 d4 46
       60531.555 43826.402 43528.86 27227.9
000010 6a ce f4 46 8f 57 52 45 44 be 2e 43 3a 5e 2b 43
       31335.207 3365.4724 174.74323 171.36807
000020 8b 3f 2f 43 9d 38 30 43 00 00 80 3f
       175.24821 176.22115 1.0
