Assets/results/traffic_1439/TrafficLightBrain/TrafficLightBrain-2087.onnx (onnx, 88978 bytes, 15 tensors)

discrete_act_size_vector f4 [1, 4]
000000 00 00 00 40 00 00 00 40 00 00 00 40 00 00 00 40
       2.0 2.0 2.0 2.0

network_body.observation_encoder.processors.0.normalizer.running_mean f4 [11]
000000 f4 ce 13 41 a0 46 1a 41 d7 3b 37 41 00 66 2a 41
       9.238026 9.642242 11.452109 10.649902
000010 f4 83 f1 40 d3 dc 6f 40 1a 2e dd 3e 1c 2d ea 3e
       7.5473576 3.747853 0.43199235 0.4573754
000020 f8 67 de 3e 48 58 ee 3e 00 00 00 00
       0.43438697 0.46551728 0.0

network_body._body_endoder.seq_layers.0.weight f4 [128, 11]
000000 7b 79 7c be 73 10 cb 3d 56 3e 6a be 54 f3 e2 3e
       -0.24655716 0.09915247 -0.22875342 0.4432627
000010 df 45 e9 be 5a 68 f5 be 3b dc a3 bc 86 10 b1 3e
       -0.4556112 -0.47931176 -0.020002475 0.3458292
000020 b6 90 4d bd 10 4f 67 3e c9 66 58 3d 43 e9 48 be
       -0.050186835 0.22588754 0.0528324 -0.19620232
000030 0c a8 b5 be fe 84 29 3d b0 58 8e 3c cf b8 6a bd
       -0.35479772 0.041386597 0.017376274 -0.057305153
000040 b8 c6 ec bd cb 44 c3 be 40 5e 53 bd 3b c5 17 3f
       -0.1156134 -0.38138422 -0.051603556 0.59285325
000050 85 df b0 3e 81 b0 36 3e 90 37 bb bd 6c 27 85 3e
       0.34545532 0.17840768 -0.09141457 0.2600664
000060 0f c9 29 3d f0 d8 c8 be 5f 8b 13 3f d0 a8 88 3e
       0.04145151 -0.3922801 0.5763454 0.26691294
000070 2a 34 a3 be 32 d9 9a 3e c1 6d 62 3e 87 ae b7 bd
       -0.31875736 0.30243832 0.2211218 -0.08968835
000080 27 ae ae 3d a5 5a 00 3e 43 81 dc 3d 2d 04 a9 bd
       0.08529311 0.12534578 0.10766842 -0.082527496
000090 ae 3f d9 3e 18 f4 96 3d a3 93 49 bf 1a 12 ea be
       0.42431396 0.07370776 -0.787409 -0.45716935
0000a0 c7 1c 88 be 39 b4 b7 3d 1d 38 14 3d f4 db 0a 3f
       -0.26584455 0.089699216 0.036186326 0.5424187
0000b0 63 8f 06 3f ee 45 fb be 44 8d ed be ae d1 25 be
       0.5256254 -0.4907679 -0.4639684 -0.16193268
0000c0 af 30 2d bf a0 6f 62 3e b6 06 77 be df dd f7 bd
       -0.6765241 0.22112894 -0.24123654 -0.121028654
0000d0 ba d0 9c 3e f2 34 0e 3f e5 09 ef be 1a 20 80 ba
       0.30627996 0.5554954 -0.46687236 -0.0009775192
0000e0 b1 01 5a be 83 84 74 bc 38 7e 02 be 38 34 9d be
       -0.21289708 -0.014924171 -0.12743461 -0.30703902
0000f0 c6 ae 38 3d 16 81 db 3d 2d 1a e8 3c 61 19 80 bc
       0.045088552 0.107179806 0.028332794 -0.015637102
000100 22 f2 b6 bc 84 04 e2 3e d9 3f 9c 3e 6d 58 83 3d
       -0.022332255 0.4414407 0.30517462 0.0641335
000110 63 d1 91 be 62 96 0a be 41 f9 39 3d ae 3b 82 be
       -0.28480062 -0.13533929 0.045403723 -0.25436157
000120 f8 7d c4 bd 4b e7 3b be 75 1c c0 3d e0 f1 1a be
       -0.09594339 -0.1834995 0.09380428 -0.1513133
000130 ff 5d 7c 3d 32 ee a0 3e 5a f8 23 3d 3c b3 be be
       0.06161308 0.3143173 0.04003177 -0.3724612
000140 12 97 0c 3e b8 d8 9e 3c 07 f9 b1 bd 71 63 0b be
       0.13729504 0.019390449 -0.08690076 -0.13612153
000150 a4 de 19 3b f4 3d 8e be 52 17 8e 3e e3 45 41 be
       0.0023478651 -0.2778164 0.27752167 -0.18874316
000160 7b 67 b1 3e 3c f4 bf 3e 5b 5b 79 3f 5b 7c 7b be
       0.34649262 0.37491024 0.9740502 -0.24559157
000170 97 bc 2d 3d 6e e2 0a be 85 5f 1d 3e 54 67 6e 3e
       0.04241618 -0.13562939 0.15368469 0.23281604
000180 c5 af 84 be ee 33 5b 3e b0 11 9c be 2b 1e fd 3e
       -0.25915352 0.21406528 -0.30482244 0.4943708
000190 58 fc fa be 8b 2d 92 be 56 cb cc 3e fe 11 e8 bd
       -0.49020648 -0.28550372 0.39998883 -0.11331557
0001a0 df 81 78 3d 71 0c fb bd 0e 26 c8 bd a4 4d b6 3e
       0.06067073 -0.122582324 -0.09772883 0.3560611
0001b0 48 57 fe be f3 09 3e be 11 78 c2 3d fb 9f 9e 3d
       -0.49675965 -0.18558483 0.09495557 0.077453576
0001c0 1e 73 8e 3e 77 eb ae 3e 6b 1d d3 3e da a8 b5 bd
       0.27822202 0.3416402 0.41233382 -0.088700965
0001d0 20 31 27 be 88 81 d2 bd c2 90 db be ce c0 ca be
       -0.16327333 -0.102786124 -0.4288388 -0.39600223
0001e0 f8 ce a7 bd 8d 20 eb be a9 f8 50 be 5e 60 cd 3e
       -0.08193773 -0.45923272 -0.20407356 0.40112585
0001f0 4d 01 ba be 1e 85 2e 3d bf e6 b0 3d 9d 34 07 3f
       -0.36329117 0.04260742 0.08637761 0.52814656
000200 84 6e f0 bd 35 79 c0 bd f7 88 73 3b 8f cb b7 bc
       -0.11739829 -0.093981184 0.0037160495 -0.022435931
000210 11 24 02 3d 57 bd 22 bd aa 4e d0 3d 57 4e 41 bd
       0.031772677 -0.03973135 0.10171254 -0.04719385
000220 31 e7 8b 3b b3 15 33 be 92 c1 34 3d f7 3f 5a be
       0.0042695035 -0.17488746 0.044129916 -0.21313463
000230 18 31 f5 bc 3d 7a 3f be 99 cf 24 be 48 d0 96 bd
       -0.029930636 -0.18698974 -0.16094817 -0.07363945
000240 6e 51 6d be fb 6a a0 b9 4d c0 fc bd 54 ae a0 bd
       -0.23175594 -0.00030597285 -0.12341366 -0.078457505
000250 c1 c7 d8 bd 79 dd 1c 3d 6f 39 dc 3c e5 46 17 3f
       -0.10584975 0.03829715 0.026882855 0.5909255
000260 04 7b ca be 9c 3c a2 be 25 e5 ad 3c ac 0c ed be
       -0.39546978 -0.31686866 0.021227429 -0.4629873
000270 c0 be 56 3e c4 2b 67 be 6d 01 fd bd 06 31 17 be
       0.20971203 -0.22575289 -0.123537876 -0.14764795
000280 17 cf b3 bd 94 cb 49 3e 89 dd 47 bd ac 88 b8 bc
       -0.08779734 0.19706565 -0.048795257 -0.022526108
000290 b3 d0 9a bd 13 ea 28 3e 86 ae 01 be 35 b9 3d be
       -0.075593375 0.16495542 -0.12664232 -0.18527682
0002a0 e5 f9 9f be eb 04 66 3e 4c e4 5e bd d8 4e 8d 3e
       -0.31245342 0.22462814 -0.05441694 0.27599216
0002b0 d4 4d a9 be 6f 4c b0 3e 9b e4 0a 3f d0 34 11 3f
       -0.3306719 0.34433314 0.54255074 0.5672121
0002c0 a6 0c 79 3f 3e 63 b7 3e 07 f4 8c bc b6 89 1e 3e
       0.97284925 0.35817903 -0.017206205 0.1548222
0002d0 ed 84 c6 bc 0e 0e f3 be eb 61 46 3e a6 74 b4 3e
       -0.024233306 -0.4747166 0.1937329 0.35245246
0002e0 ad 00 e4 3e c1 ac 53 3b 8e e7 d1 3e 86 8d 2b 3d
       0.44531766 0.0032299014 0.40996975 0.041883014
0002f0 75 42 26 3f 53 b3 b5 3e ad 42 01 3f 83 d4 6e be
       0.64945155 0.35488376 0.50492364 -0.23323254
000300 85 94 b4 be 26 d1 45 3e bb 69 39 3e df bb 07 3e
       -0.3526956 0.19318065 0.18106739 0.13255261
000310 62 04 17 be 77 94 9b 3e 3f e8 27 bf 9a 93 fa be
       -0.14747766 0.30386707 -0.65588754 -0.48940736
000320 04 14 15 3e 3d 74 29 3b 10 93 8a 3e bd 29 f3 3e
       0.14558417 0.0025856637 0.27065325 0.4749278
000330 95 80 57 3e 41 34 0a be 7c f2 ad bc 31 d9 16 bf
       0.21045144 -0.13496496 -0.02123379 -0.5892516
000340 d6 d2 a4 3e bd 81 21 3d be 53 ee bd bf 0e d3 be
       0.32192105 0.03943037 -0.11637066 -0.41222188
000350 a4 88 7a bd 2c d9 aa be 4d fd 2e be 8a f8 eb 3d
       -0.061165467 -0.33368814 -0.17088814 0.115220144
000360 b4 eb cf bd 4b 3b 69 bd 53 8b a1 be 38 ff e5 3e
       -0.10152379 -0.05694131 -0.31551608 0.4492128
000370 dd e9 e7 3d a0 c5 c8 3e 37 f1 f1 be c6 60 d4 bc
       0.11323903 0.39213276 -0.47254345 -0.025925051
000380 a3 f6 b3 be be 22 b6 3e d6 1d 3c bd 09 fd 29 3f
       -0.35149106 0.3557338 -0.04592689 0.66401726
000390 c5 eb dc bd b4 7a eb 3e 17 72 7c be f6 ce c2 3d
       -0.10787157 0.45992053 -0.24652897 0.09512131
0003a0 52 82 3a be fa 3c 71 be 44 0b b9 be bd 97 05 bf
       -0.18213776 -0.23558417 -0.36141407 -0.5218466
0003b0 f8 ae 14 be 3e 91 28 3e c8 c4 db bc 33 e7 af 3e
       -0.1451987 0.16461655 -0.026827231 0.34356079
0003c0 ce 77 30 bf 03 10 85 3e f9 01 63 be cd 1f 44 3e
       -0.6893281 0.25988778 -0.22168721 0.19152756
0003d0 14 97 22 be 19 7e 7b 3d d3 4c c8 be ad 39 c0 be
       -0.15877944 0.061399553 -0.39121112 -0.37544003
0003e0 b6 91 22 3d 2e af 89 3e 2e cb 33 be af 6b 9f be
       0.039689742 0.26891464 -0.17557976 -0.31136844
0003f0 e3 49 1a 3d ed b7 51 3e b5 da 2e 3e 02 12 3b 3e
       0.03766812 0.20480318 0.17075618 0.18268588

network_body._body_endoder.seq_layers.0.bias f4 [128]
000000 10 94 86 3b ff 92 0c bb da a5 d7 ba b8 06 ab 3a
       0.004107006 -0.0021449921 -0.0016452626 0.0013048267
000010 60 85 89 b9 0a 7c a9 3a 93 94 bb 3a 22 e4 3b bb
       -0.00026230048 0.0012930643 0.0014311246 -0.0028669913
000020 e3 b1 a0 bb ce 4b 19 3b 0d 0d ed 3a a7 40 9e 3b
       -0.0049040182 0.002339113 0.0018085554 0.0048294845
000030 1a 26 fc 3a 7b bd 96 bb 48 78 33 bb ee 8c 85 3b
       0.0019237429 -0.0046002246 -0.0027384926 0.004075638
000040 5d e9 93 3b e0 05 83 3b e8 2c bf 3a 09 45 0a bb
       0.004513903 0.003998503 0.0014585527 -0.0021098277
000050 1c d6 1c ba 70 cb 2e 3a da 38 64 bb 19 44 1c 39
       -0.00059828325 0.0006667888 -0.0034823925 0.00014902688
000060 fe 20 b9 3b 72 89 00 3b bc d6 94 3a d2 3a a1 3b
       0.005649685 0.0019613174 0.00113555 0.004920342
000070 08 69 24 39 ef 0c d0 bb 08 88 51 ba 5e 0d 98 b9
       0.00015679386 -0.006349198 -0.00079929875 -0.0002900166
000080 ef 4f 5b ba 36 36 96 3b 10 16 43 ba ae d6 3c 3a
       -0.0008366098 0.004584099 -0.0007441947 0.00072036206
000090 2d ab 70 3b cb d3 d1 3b 43 4d bd ba 45 16 95 3b
       0.0036723122 0.0064034215 -0.0014442581 0.004549774
0000a0 5b 3e a3 3b e4 38 85 3b 9a 2c b7 ba d1 fa 76 3b
       0.0049817986 0.00406562 -0.0013975084 0.003768612
0000b0 38 d9 85 3a 08 b7 be ba 6e 7b c7 ba 45 5c 88 3b
       0.0010211831 -0.0014550397 -0.001521928 0.00416139
0000c0 00 27 99 3b e3 0c ba 3b d3 39 92 bb 81 2e 55 3b
       0.0046738386 0.0056778057 -0.0044624596 0.003252894
0000d0 38 79 8a 3a 66 39 8a 39 a7 16 61 3b ae 8e de 3a
       0.001056469 0.00026364176 0.0034345777 0.0016979778
0000e0 f8 38 35 3b 5f 53 cd 3a 3d 65 22 3b 87 22 42 3b
       0.0027652364 0.0015665105 0.002477958 0.002962263
0000f0 65 f7 a3 3b 7e ef d2 3a 04 da bf 3a 05 10 a0 3a
       0.005003857 0.0016093103 0.0014637117 0.0012211805
000100 67 f7 0a 3c 04 fb 15 3b 03 7c 83 3a 2d 0e b0 3b
       0.008481837 0.0022885213 0.0010031465 0.0053727836
000110 e1 39 48 3b cb 1d 55 bb 0b 74 8b 3b a1 56 12 3b
       0.0030552077 -0.0032518979 0.0042557768 0.0022329467
000120 70 05 b3 3a a5 12 a3 3b 3b ee 10 3b 3b e8 21 ba
       0.0013658237 0.004976588 0.0022114653 -0.00061762676
000130 c4 6c 8c 3b a0 8e 91 bb fc d6 ee bb ec f4 a8 3b
       0.004285427 -0.004442051 -0.0072888117 0.00515615
000140 f1 10 c5 bb 56 4a c9 ba 1e cf 7a 3b 2c 80 9f 3b
       -0.0060139825 -0.0015357237 0.0038270424 0.004867574
000150 2a cc 26 b9 82 09 ac bb e7 c3 95 3b 66 e2 a2 3b
       -0.0001590705 -0.005250157 0.0045704725 0.0049708365
000160 19 57 09 bb 21 41 3e 3a 70 eb 16 bb f0 ab c5 ba
       -0.0020956455 0.000725763 -0.0023028515 -0.0015081149
000170 1c f2 2e 3b 98 89 85 ba 18 81 ab b9 80 e7 05 3c
       0.0026694601 -0.0010188101 -0.00032711844 0.00817287
000180 d7 b8 40 ba cd d2 7c 3b 9a e5 cd 3b 58 32 bc 3b
       -0.0007351762 0.0038577795 0.006283474 0.005743306
000190 68 fb 1f b9 18 40 0d ba 40 8f af bb 71 84 44 bb
       -0.00015257078 -0.0005388274 -0.005357653 -0.0029986168
0001a0 04 fe 17 b8 d7 2d 24 3b fa be 90 b9 c9 71 03 bb
       -3.6237776e-05 0.0025051737 -0.0002760811 -0.0020056835
0001b0 2b a7 95 3b f5 29 2e bb 6e e8 c3 3a 5c fb 89 3b
       0.004567047 -0.0026575301 0.0014946589 0.0042108726
0001c0 2e 3e 9e 3b 46 9c 87 3b 0d 08 8a ba e3 17 8f 3b
       0.0048291897 0.0041385023 -0.0010530964 0.004366861
0001d0 fc 6c da bb aa 80 7c bb 63 d2 b5 3a 4d 01 56 ba
       -0.006665824 -0.0038528838 0.0013871904 -0.0008163646
0001e0 7b 33 32 3b 93 76 02 3b 88 ac 29 3b a8 ee 8d 3b
       0.002719133 0.0019907102 0.002589019 0.0043314286
0001f0 34 66 0b bb 3e fc 32 3b 3e 96 0f 3b 4b f5 a6 bb
       -0.0021270635 0.0027310993 0.002190962 -0.005095159

network_body._body_endoder.seq_layers.2.weight f4 [128, 128]
000000 85 e1 4c bd 4e 1f 1e 3c e1 4a 0c bd 34 06 40 bd
       -0.05001976 0.009651018 -0.034251098 -0.046880916
000010 e2 d2 e6 3a b2 fc 5b 3e c2 b2 d4 bc 3f e1 18 3d
       0.0017610455 0.21483114 -0.025964145 0.037324186
000020 5f 39 17 3e 8b 06 95 bd 20 c6 c8 bc 71 5d 49 3c
       0.14767979 -0.072766386 -0.024508536 0.012290345
000030 01 85 73 bd 36 43 da 3c de 47 3c 3e 94 ae a8 bd
       -0.059453014 0.026643377 0.1838679 -0.08236423
000040 aa da b1 3c a6 8c ae bd 72 a9 6c 3d 06 a3 26 be
       0.021710712 -0.0852292 0.057778783 -0.16273126
000050 a5 a5 23 3d bb 14 bd 3b bb 17 c6 3d 51 94 f5 ba
       0.039952893 0.0057702935 0.09672495 -0.0018736218
000060 07 5f 2c 3d 4e 22 01 3e 36 67 78 3e 5a 4d f7 3b
       0.042082813 0.12610742 0.24258122 0.007547063
000070 bb 72 89 3c e0 0d 47 bd 2c 71 88 3c 3a e6 f6 3c
       0.01677834 -0.048597217 0.016655527 0.030139077
000080 48 b1 b1 bc fb 5c 29 3d 4a 4c 23 bd 6d 24 9d 3d
       -0.02169098 0.04134844 -0.039867677 0.07672963
000090 ab d1 c4 bc 51 56 0a be 31 b4 65 3d 5a 19 ff bb
       -0.024025759 -0.1350949 0.056080047 -0.0077850046
0000a0 26 fe 5c 3b e9 d5 94 bd cf cd 20 bd 7e 53 ed bc
       0.003372082 -0.072673626 -0.039258774 -0.028970476
0000b0 55 0f 01 be fb fe 4e bd 0f 52 4c bd ed 5d 3d be
       -0.12603505 -0.050536137 -0.049882945 -0.18492861
0000c0 e8 8d e6 3c 53 c8 cf 3d 2b 03 29 3d c2 47 bd 3b
       0.028143838 0.10145631 0.041262787 0.0057763765
0000d0 44 98 9c 3c 60 3d da bc 36 68 04 be 63 e0 20 bd
       0.019115575 -0.026640594 -0.12930378 -0.03927649
0000e0 2b b6 12 bd 0e 8a ca 3d dc f3 0f be 13 d1 22 3e
       -0.03581826 0.09889613 -0.14057869 0.15900068
0000f0 14 30 0a be ea ee b9 bc 4b 23 79 bd 66 b0 c5 bd
       -0.13494903 -0.02269693 -0.060824674 -0.09652786
000100 42 79 2e 3c 53 25 34 bd f0 c3 91 bc b8 fe a4 3c
       0.010649027 -0.043980908 -0.017793626 0.02014099
000110 1b c3 45 3e 11 4a d6 bd 41 f7 61 be 92 86 96 3d
       0.19312708 -0.10463346 -0.22066976 0.07349886
000120 0f b6 84 3d fa df a2 3c 3b eb 18 be f2 f3 b0 bd
       0.064800374 0.019882191 -0.14933483 -0.08640279
000130 ca dd 56 bd 41 71 b1 3d ea 44 a4 3d 96 b0 91 bc
       -0.05245761 0.086641796 0.08020957 -0.017784398
000140 6c 60 15 bd a7 4e b7 bc 78 6b 96 bc 80 d8 2d be
       -0.03646891 -0.022376372 -0.018361792 -0.1697712
000150 3f 80 0d 3e cf ba c7 bc 06 9e e0 bc e9 ff 7d be
       0.13818453 -0.02438107 -0.027419101 -0.24804653
000160 cd 60 41 3d 90 ec ca bc 50 cf cd bd 3a 75 1f bd
       0.047211457 -0.024771005 -0.10049307 -0.038930155
000170 f4 21 e7 3c c1 d2 0b be fe ce a6 3d e0 df 84 3a
       0.028214432 -0.13654615 0.081449494 0.0010137521
000180 9b 34 af bd 60 bd 81 3c 7e 21 55 3d 46 84 08 bb
       -0.085549556 0.015837371 0.052033894 -0.0020830794
000190 95 0d eb bd 39 62 76 bd cb 81 67 bc ae ab 5f bd
       -0.114772 -0.060152266 -0.014130066 -0.054607086
0001a0 e6 12 2c 3d 70 c6 d4 bd d2 b1 08 bc f1 0e 49 bd
       0.04201021 -0.103894114 -0.008343177 -0.049086515
0001b0 15 92 a7 bc 14 7b 50 bd 92 12 84 3c 3f 81 27 3d
       -0.0204554 -0.050898626 0.016122136 0.040894743
0001c0 2e ce 2a 3c 07 e7 54 3d 2e a6 54 bc 4d 5c cb 3c
       0.010425134 0.051978137 -0.012979073 0.024824286
0001d0 2b b1 14 3e 80 38 32 3d 49 e0 01 3c 9b b3 65 bd
       0.14520709 0.043510914 0.007927009 -0.05607949
0001e0 4b 7f 6e 3c 86 a7 0b be c3 ec 6a 3d 1c 66 3f 3d
       0.014556716 -0.13638124 0.0573547 0.04672824
0001f0 21 61 38 be 66 f0 4d 3d 34 5a 4c 3e 68 84 07 3d
       -0.18005802 0.05027809 0.19956285 0.033085257
000200 7a 25 d6 bb 2b 13 f0 bc 01 b8 9b 3d 79 65 c3 bb
       -0.0065352293 -0.029306015 0.07603455 -0.005963024
000210 7d de c7 bb af 18 91 bd 92 68 01 3e 5f 75 69 bd
       -0.0060995207 -0.07084786 0.12637547 -0.0569967
000220 b5 1c f5 bd db 15 16 bd 19 a7 10 bd 8f ba fa bd
       -0.11968366 -0.036641937 -0.035315607 -0.122426145
000230 ee d2 58 ba a2 52 5a 3d 9f a8 92 bd 49 20 0f 3d
       -0.0008271177 0.05330146 -0.07161068 0.0349429
000240 e5 cc 1c be 05 fc 5e bc 8b 17 3e 3c 98 58 a1 bd
       -0.15312536 -0.013609891 0.011602293 -0.07878226
000250 1b 85 57 3c 38 f0 f5 bd 59 d1 e6 bc 31 fd 15 be
       0.013154293 -0.12008709 -0.028175997 -0.14647366
000260 9c b8 5c 3d e0 e9 b9 bd 02 28 27 3e 99 7b 00 3d
       0.053886995 -0.09077811 0.16323856 0.031367872
000270 09 4f ca 3d 6d 1d d4 3d ec ed 9e bd 74 0a c0 3d
       0.09878356 0.10357175 -0.07760224 0.09376994
000280 b1 19 6d bd a9 e0 2c 3d f0 1c 5f be 85 01 1c 3d
       -0.05788583 0.04220644 -0.21788383 0.038087387
000290 1c e3 e5 3d 7f 9d 10 bd 0f 49 9a bd c1 27 19 bd
       0.11224958 -0.03530645 -0.07533466 -0.037391428
0002a0 3c 2d 65 3d 6b 44 31 3d a2 93 18 3b 74 19 bd 3d
       0.055951342 0.04327814 0.0023281355 0.092333704
0002b0 42 bd 81 3d 1d d0 3a 3d 79 6e f3 3c c3 19 0c bc
       0.06334926 0.04560863 0.029715763 -0.008551064
0002c0 11 b3 67 3c 3d a6 98 bd 63 a8 21 3e 13 24 3d bd
       0.014141814 -0.074535824 0.1578689 -0.04617698
0002d0 96 6d 49 3d 44 62 7f bc 97 a9 27 3d 64 67 96 bd
       0.049176775 -0.015587393 0.040933218 -0.07343939
0002e0 df 2d 81 bd ff 7c 82 3d 35 f7 c9 3d 7f 81 af bd
       -0.06307577 0.06371497 0.09861604 -0.08569621
0002f0 43 80 43 3c d8 db 46 be 66 33 97 bd c8 17 aa 3c
       0.011932435 -0.19419801 -0.0738285 0.020763293
000300 a0 e7 25 3e 92 17 10 be 2c ba 08 be e9 37 2a be
       0.16201639 -0.14071491 -0.13352269 -0.1662289
000310 86 fd b2 bd a2 ec 8d bd 80 e4 a2 bd db fb ca bc
       -0.08739762 -0.069299 -0.07953739 -0.024778297
000320 17 a2 37 3e 0f 6f f7 bd aa 0a bf bb b5 fe 9f 3c
       0.17932926 -0.120817296 -0.0058301287 0.019530633
000330 31 1c c0 3d ea 2c fa 3a a0 1a db bc 95 a5 a5 ba
       0.09380377 0.0019086872 -0.026746094 -0.0012637848
000340 0e ed f0 bc be c2 08 3c da d7 a6 bd 9c 80 07 bd
       -0.029409911 0.008347211 -0.08146639 -0.033081636
000350 d0 cc 41 be b0 a9 be 3d 6a 16 78 3c 06 68 7c bc
       -0.18925786 0.09309709 0.015142063 -0.0154056605
000360 3c 3e 08 3c f0 63 fc bc ad e7 5c bc 3d 48 57 3e
       0.008315619 -0.030809373 -0.01348297 0.2102365
000370 95 22 9f bd 0f e0 9d bb 26 d2 46 be 0b c4 c5 3d
       -0.07770268 -0.0048179696 -0.19416103 0.09656533
000380 4f 7c 5d bd f5 e4 d1 bd 93 aa 10 3e 63 da 20 bd
       -0.054073628 -0.10248748 0.14127569 -0.03927077
000390 f6 55 59 3d 3f fd ab 3d 55 f5 28 3e ba 1a 16 3e
       0.053060494 0.08397912 0.16499837 0.14658633
0003a0 bb dd ff bc 0d 8a 98 bd 64 a2 d4 3b 7d fa 47 3d
       -0.031233659 -0.07448206 0.006489085 0.04882287
0003b0 84 05 cf bd 1d 23 47 3d b8 91 ca bd 27 98 0e 3e
       -0.10108474 0.04861747 -0.09891075 0.13925229
0003c0 f7 5f b5 bd 36 de cc 3d b5 2a 32 3d 45 4f 22 bd
       -0.088561945 0.10003321 0.04349776 -0.03962638
0003d0 e0 62 91 3c a8 7e 9f bd 0c 3d 88 bc 69 1a 3e 3d
       0.017747343 -0.0778783 -0.016630672 0.046411905
0003e0 d9 cb fa 3c b1 91 9a bc 6b 08 2f 3d e6 cd 72 3d
       0.03061478 -0.0188683 0.042732637 0.05927839
0003f0 a8 a0 86 bd 35 89 80 3c f6 33 49 bd b7 81 07 be
       -0.065736115 0.015690425 -0.04912182 -0.13233076

network_body._body_endoder.seq_layers.2.bias f4 [128]
000000 32 98 9c b7 65 aa a8 ba 68 5b 76 3b 6d 4c b2 ba
       -1.866752e-05 -0.0012868164 0.0037591103 -0.0013603099
000010 b7 13 bb ba 1a 12 00 3b f7 d6 1e 3b 40 ff 86 ba
       -0.0014272843 0.001954204 0.0024237016 -0.0010299459
000020 b0 a6 83 ba 2d 73 35 3b df e0 bf ba 8e 28 dd ba
       -0.0010044184 0.0027687058 -0.001463916 -0.0016873048
000030 03 f5 25 bb 85 3d 60 b9 66 90 c5 3b c4 b0 9f bb
       -0.002532304 -0.00021385222 0.0060291765 -0.004873367
000040 8a 7c 9e 3a 2b 8e 8c 3a 52 1f 4c bb 76 2b b5 ba
       0.0012091559 0.0010723522 -0.0031146598 -0.0013822156
000050 43 d2 9f 3a cb 07 11 bb 89 88 4f 3b bb 3d 38 ba
       0.00121934 -0.002212989 0.0031667075 -0.00070282415
000060 2b 71 77 3a 26 03 ce ba 0e 5d 97 bb 33 30 34 3b
       0.00094391656 -0.0015717491 -0.0046192473 0.002749455
000070 11 bf ab b7 6f 16 45 ba c7 a9 1f 3a 11 3d 89 ba
       -2.047376e-05 -0.00075182965 0.00060906674 -0.001047047
000080 cf 32 85 3b b3 f4 d9 ba 03 cc 81 ba 5e 4d 36 3b
       0.0040648947 -0.0016628712 -0.0009902719 0.002781711
000090 4c 5f 58 3b 4c 48 35 38 cf 49 27 3b e7 30 72 3b
       0.0033015786 4.3221095e-05 0.002552617 0.0036955418
0000a0 bc 69 a5 bb 0d f9 6d 3b 26 73 e5 3b c1 46 1e 3a
       -0.005048005 0.0036311776 0.007002252 0.0006037765
0000b0 ff f1 e4 3a 8c 86 d5 3a 11 9c 72 3b 9d 23 6d bb
       0.001746714 0.0016290708 0.0037019292 -0.0036184557
0000c0 ed d2 89 bb bc 90 88 39 33 84 21 bb 33 7a 56 3b
       -0.0042060525 0.00026047777 -0.0024645447 0.0032726645
0000d0 2e 9d ce ba 91 61 a5 3b ce f6 e7 ba 6c 03 71 3b
       -0.0015763396 0.005047031 -0.0017697455 0.0036775721
0000e0 cf a8 b9 ba f3 2c 43 bb 6a 28 1d 3b 07 a7 da 3b
       -0.0014164689 -0.002978143 0.0023980387 0.0066727432
0000f0 b1 4c 77 bb 12 80 9a b9 c2 ce 85 3b 44 43 71 b7
       -0.003773492 -0.0002946859 0.0040834853 -1.4380381e-05
000100 a8 79 91 b9 7f de ce 3a 6d 56 a4 3a 02 4a f0 3a
       -0.00027747196 0.0015782862 0.0012537964 0.0018332603
000110 f3 e7 e1 ba 4d 37 b2 3a 6b ee 3f 3b 66 62 94 bb
       -0.0017235264 0.0013596803 0.0029286395 -0.0045283316
000120 26 62 cf ba 33 3f 19 ba 13 4e e0 39 9b 20 49 3b
       -0.0015822097 -0.0005845904 0.0004278278 0.00306896
000130 61 55 17 bb d6 94 e3 3b ec 5d 8a ba 80 09 31 bb
       -0.0023091661 0.006945233 -0.0010556555 -0.002701372
000140 ed cf 11 3b 37 d3 b6 3b 2d c5 b5 3b 7f 70 0f ba
       0.0022249178 0.005579378 0.005547187 -0.00054717803
000150 6b df 1c 3b 82 b0 2c 3b ee 6a 5f 38 bb 8e 62 3b
       0.0023936878 0.0026350324 5.326693e-05 0.0034569937
000160 04 b6 a9 3a 72 a4 3d bb 50 d8 34 b9 99 a2 6d 3b
       0.0012947922 -0.0028937128 -0.0001724672 0.0036260246
000170 3e dc 92 3b 0c ef 86 bb 02 ba 8a bb 4c 6a 9f 3b
       0.0044818213 -0.004117852 -0.0042335996 0.0048649665
000180 ee 05 6f 3b 53 f3 3b 3b 29 20 93 bb 94 28 16 3c
       0.003647204 0.0028678968 -0.004489918 0.009164948
000190 5d 47 8f 3b f9 9c 84 3b eb b5 9d 3b eb f4 60 3a
       0.004372521 0.004047033 0.004812946 0.00085814175
0001a0 19 92 31 3a f4 81 91 3a 32 65 02 3b b8 41 e3 3b
       0.00067737844 0.0011101351 0.0019896743 0.0069353245
0001b0 49 40 22 3b 1e 0a 83 3b c2 e0 a1 3a 3d 19 00 3b
       0.0024757555 0.003999009 0.0012350308 0.0019546293
0001c0 7f df 19 3b 14 63 8b 39 57 36 61 bb c8 bd ce 3b
       0.0023479161 0.00026585965 -0.0034364664 0.006309245
0001d0 77 19 01 bb de 3b d3 ba 64 09 23 3b c5 de 60 3b
       -0.0019699016 -0.0016115864 0.0024877423 0.0034312468
0001e0 42 2d da 3b d9 c8 9d 3b 4d e5 95 39 51 e2 f5 3a
       0.006658227 0.0048152027 0.00028590337 0.0018759464
0001f0 db f0 14 3b de 43 26 bb 13 96 3a 3b b9 ed 19 3a
       0.002272657 -0.0025370042 0.00284708 0.000587191

action_model._discrete_distribution.branches.0.weight f4 [2, 128]
000000 10 ae 0a bc b0 8c c5 bb 21 92 24 3c 13 14 ed bb
       -0.008464351 -0.006028734 0.0100446055 -0.007235059
000010 ff d3 12 3c 6d 58 0d 3c f8 a5 84 3a ba c7 4d 3b
       0.008961677 0.008627039 0.0010120263 0.0031399564
000020 db e0 5a 3c 9f 47 6e 3b 8d 17 87 3b 5c ce b9 3b
       0.013359274 0.0036358607 0.0041226805 0.005670352
000030 e7 01 3f 3b f6 a7 c6 3a da 3f 4f 3c 4c d5 f2 ba
       0.002914542 0.0015156257 0.012649501 -0.0018526702
000040 cf bc 07 3c f0 35 ad bb 5f e8 31 ba 1d 33 0f 3c
       0.008284762 -0.005285971 -0.000678664 0.008740214
000050 2b a8 15 bb 23 16 84 bc 44 d9 c0 3b e2 7b 3f 3b
       -0.0022835832 -0.016123837 0.005885275 0.0029218127
000060 be 7d 07 3c 2d 3b e4 3c 69 b8 07 3c 88 f1 af b9
       0.008269725 0.027860248 0.008283713 -0.00033558556
000070 d0 55 7c bc 33 96 61 bc 03 90 62 bb 59 fb 8f bb
       -0.015401319 -0.01376872 -0.00345707 -0.0043939766
000080 24 b4 c0 bb ce 02 ce bb fa bd 42 bb 72 fd 95 3c
       -0.0058808494 -0.0062869554 -0.0029715286 0.018309329
000090 93 ed 8a 3c 80 9d 10 bc 53 5a 17 3c 17 41 dc 3a
       0.016958987 -0.008826613 0.009237844 0.0016804066
0000a0 08 93 41 3b b9 47 be ba 6c b0 5c bb b6 96 c3 bb
       0.00295371 -0.0014517225 -0.0033674492 -0.005968894
0000b0 6f 40 d8 3a 3f b1 24 3c f2 87 82 3b a7 9d d2 3b
       0.0016498695 0.010052024 0.003983491 0.006427485
0000c0 11 47 36 bb e6 12 7a 3c 55 22 6f 3c 6f a7 be 3b
       -0.0027813355 0.015263295 0.014595588 0.0058182995
0000d0 1a 81 4a 3c 8c 0d 81 3b ff 97 58 3c af 63 e7 3b
       0.012359882 0.0039383825 0.013219832 0.0070614438
0000e0 2d b3 40 3b f9 96 e6 3a d4 ce 88 bc bf 03 c2 3a
       0.0029403672 0.0017592601 -0.016700186 0.0014802142
0000f0 30 66 6c 3c 1d 05 2a bb 7a 52 80 3c a9 29 15 3c
       0.01442866 -0.002594299 0.015664328 0.009104171
000100 f6 9a f1 bb 84 b8 83 3b da 53 01 bc e9 9d 75 3c
       -0.007373209 0.0040197987 -0.007893527 0.014991262
000110 6c d5 82 3b 9f 48 15 3c 53 4f 52 b8 65 3a 96 3b
       0.003992727 0.0091115525 -5.0141778e-05 0.004584598
000120 0a f5 67 3c e4 b3 a8 ba ea 21 45 bb 3a 10 d1 bb
       0.014157543 -0.0012870994 -0.0030080029 -0.006380108
000130 a3 a1 83 3c bd d5 02 3b ac d2 00 bc 59 f1 03 3c
       0.016068285 0.0019963824 -0.007862728 0.008053147
000140 bd 2c 5c 3c 61 91 15 bb a9 16 89 3b 8e bd a2 3b
       0.013438401 -0.0022822248 0.0041836095 0.0049664443
000150 59 66 ab ba 57 bd 31 bc 1b 61 14 3c c0 c1 50 3b
       -0.0013076767 -0.010848365 0.009056355 0.0031853765
000160 c5 9b 8c bc f5 f5 dd 3b 12 a5 29 bc 54 23 f8 bb
       -0.01716412 0.006773705 -0.010354297 -0.007572571
000170 1d 08 39 bb ca 64 88 3b 8e 18 3d 3b ea b7 c2 3b
       -0.0028233596 0.0041624056 0.0028853747 0.0059423344
000180 1d 3d 03 3c 9a 97 89 3b d4 b3 4d bb cc 6c 1d 3c
       0.008010176 0.0041989805 -0.0031387703 0.009608459
000190 79 4a 2f bb 42 0e 73 3c 9d 0f 10 3b 3b 12 e7 3a
       -0.002674727 0.014834942 0.0021981962 0.0017629334
0001a0 42 cc 24 3b 13 e8 07 3c 7a bc 34 bc bc 7a 8e b9
       0.0025146161 0.008295077 -0.011031264 -0.00027175795
0001b0 cf f4 48 bc 3e 76 45 bc c7 a5 0e 3c 3f ea 9d 3c
       -0.012265398 -0.012052117 0.008706517 0.019276736
0001c0 dc 6b ff 3b 4c 5a 99 bc 32 35 f1 bb d7 67 7b bc
       0.0077948403 -0.018719815 -0.0073610777 -0.015344582
0001d0 98 64 07 ba e3 94 a9 bc 65 cd 44 3b f0 a1 89 bb
       -0.0005164831 -0.020700878 0.0030029651 -0.0042002127
0001e0 48 60 f0 ba 91 f2 e1 3b 7a 65 78 3c e8 9b d2 3b
       -0.0018339241 0.0068953712 0.015160913 0.006427277
0001f0 29 ab 8c 3c ef 5c 05 3b 2c a7 e0 ba 8a 5c 47 bc
       0.01717146 0.0020349582 -0.0017139665 -0.012168059
000200 69 f4 df 3a c4 66 4d bb f3 c9 8e bc 16 f4 b4 bb
       0.001708639 -0.003134177 -0.017430281 -0.0055222614
000210 23 81 38 3b 77 ad 57 3a e5 0c a2 bb 82 56 8f bc
       0.0028153143 0.00082274474 -0.004945385 -0.017497305
000220 57 b3 0c bc c8 31 92 bb 4a ff 84 3b fe a4 22 3c
       -0.00858768 -0.004461501 0.004058753 0.0099270325
000230 1d d6 de 3b 2d f6 00 bb 03 17 2f 3a 25 4c 9e bb
       0.0068004266 -0.0019677982 0.0006679149 -0.0048308545
000240 25 60 4b bc 06 1a e9 bb 65 15 cc bb d0 55 da bc
       -0.012413059 -0.007113698 -0.0062281364 -0.026652247
000250 b9 7e 41 3c 89 d2 85 bb 8b 4a 2f 3b 99 3b d8 3c
       0.011809998 -0.0040839356 0.0026747312 0.026395606
000260 c0 93 1d bc 23 ba a3 ba d1 8e 88 3b 1d f9 e7 3b
       -0.009617746 -0.0012491386 0.0041674157 0.007079257
000270 76 3d 3e 3c a5 b6 34 bb 28 ee 2c bc 94 06 0b 3b
       0.011611333 -0.0027574685 -0.010554828 0.0021213638
000280 b8 4f 7c bc c7 30 20 3c 70 b8 62 3b 9e 24 64 bc
       -0.015399866 0.009777254 0.0034594797 -0.013924746
000290 89 15 92 ba 2d 6f 1c bc df d1 05 3c 05 c1 4c 3c
       -0.0011145334 -0.009547991 0.008167713 0.012497191
0002a0 6b 92 0f 3c a0 82 1a bb e3 05 6a bc d1 63 64 3b
       0.008762936 -0.0023576394 -0.01428363 0.0034849534
0002b0 79 38 89 bc 55 a1 51 bc 8c af 6e bc 9b 1a 8f 3c
       -0.016750561 -0.012794812 -0.014568221 0.017468741
0002c0 21 ec a9 3b f7 8a 33 bc dd 17 17 bc f1 17 78 3b
       0.0051856195 -0.010958425 -0.009221998 0.0037856067
0002d0 db 7f 30 3b dd fd 85 bc 21 c0 2f bc 4a 11 b3 bb
       0.0026931677 -0.016356403 -0.010726959 -0.0054647075
0002e0 8a 1e d1 bb 83 bb 05 3c 4e 62 86 3a 9d 1d 1c bc
       -0.0063818144 0.008162382 0.0010252686 -0.009528545
0002f0 5b 13 8a 3c aa cf f7 3b 9d 74 20 bb e2 f8 7c 3b
       0.016854933 0.0075625973 -0.002448357 0.0038600494
000300 25 cc fc bb 55 b0 25 bc 66 e8 4b bb 2a 3b 90 bc
       -0.0077147656 -0.010112842 -0.0031113862 -0.017606337
000310 1f 45 42 ba ca 87 43 ba 0b 7b 9a 3b 5e bc 47 bc
       -0.00074108125 -0.0007458894 0.004714375 -0.012190906
000320 8f 9d 70 39 e0 a3 9f bb ff 28 a0 3b ae 43 7c bc
       0.00022946879 -0.0048718303 0.0048876996 -0.0153969955
000330 26 f8 94 bb a2 ea 5d 3c cb 20 3b 3b b6 83 10 bc
       -0.004546183 0.01354471 0.0028553482 -0.008820465
000340 af 1e e6 bb 9c 4e 1d bc ab a4 32 3c 31 ed 89 3c
       -0.0070227007 -0.0096012615 0.010903518 0.016836734
000350 f7 23 f9 bb a3 fc 61 bc 1e 2f 84 3b 23 03 0c 3c
       -0.0076031643 -0.013793143 0.004033937 0.00854567
000360 94 d3 5d 3c 1b 0e 9d 3b c5 33 67 bb 93 93 00 bc
       0.013539214 0.0047929413 -0.003527866 -0.007847684
000370 21 14 4b bc d3 26 78 bc b4 ee dd 3b 44 e1 98 ba
       -0.012394936 -0.015145975 0.0067728404 -0.0011663814
000380 8e 7a ef bb 38 2a 86 bc 68 c3 3d 39 0d 22 0a ba
       -0.007308311 -0.016377553 0.00018097239 -0.0005269356
000390 54 1a 84 3c e4 68 20 3c 8b 19 26 3b c5 67 3a bc
       0.016125835 0.009790633 0.0025344815 -0.01137728
0003a0 07 74 d3 3b a9 8b cb 3b e8 0d a1 3c fb 8e 88 bb
       0.0064530405 0.006211717 0.019659951 -0.004167435
0003b0 21 b9 7c 3a 7b 88 be bc fa 2c 30 bb ac 05 6b ba
       0.00096406235 -0.023258438 -0.0026882277 -0.0008965384
0003c0 c4 a2 88 bb 93 a8 4b bc 50 dd cc ba 2d 41 d1 bb
       -0.004169794 -0.012430328 -0.0015629921 -0.0063859434
0003d0 82 5e b6 bb 46 31 51 3c 44 a1 23 bc 78 d1 70 3c
       -0.0055654654 0.012768095 -0.009987179 0.014698379
0003e0 2a fd db bb 42 c6 0a bc 84 f1 90 bb 35 01 38 bb
       -0.006713529 -0.00847012 -0.004423322 -0.0028076891
0003f0 24 6f 47 3c 3a a5 6d bc 79 a2 88 3b a5 c7 1c 3c
       0.012172494 -0.014504725 0.004169759 0.009569083

action_model._discrete_distribution.branches.0.bias f4 [2]
000000 80 6d b6 39 82 6d b6 b9
       0.0003479533 -0.00034795335

action_model._discrete_distribution.branches.1.weight f4 [2, 128]
000000 94 58 d7 bb 8d 91 ef 39 54 b6 2f bb 2b 3a 58 3c
       -0.0065718386 0.00045694076 -0.0026811557 0.013197462
000010 21 0a 4f 3c 11 5f 59 3c 06 d2 9a ba 57 ef 25 bc
       0.012636692 0.0132672945 -0.001181186 -0.010127864
000020 3c 22 50 3c 77 6d 5b bc 71 0a c7 bb d8 fe 2d bb
       0.012703475 -0.013392798 -0.0060742428 -0.0026549604
000030 c8 82 90 bc a7 16 5e 3c 25 67 eb bb d5 19 d5 3b
       -0.017640486 0.013555205 -0.0071839266 0.0065033236
000040 d0 ef ac ba a3 e4 34 bb 80 a8 a9 bb 26 d2 53 bc
       -0.0013194028 -0.0027602098 -0.0051775575 -0.012928521
000050 1f f6 07 bc 8b ae bb 3b f8 48 b4 bb ef 60 cc ba
       -0.008298426 0.0057275943 -0.0055018626 -0.0015592853
000060 81 2d 86 bb 75 e5 e5 3a 12 25 3d 3c e9 4d d6 bb
       -0.00409478 0.0017539697 0.011544483 -0.0065400493
000070 96 56 be 3b 16 9c 47 bc 7b fd 75 bb 90 77 ef 3b
       0.0058086617 -0.01218321 -0.003753512 0.007307954
000080 01 64 d8 3b d6 b1 43 bb c3 16 b7 3c 83 10 86 bb
       0.0066037183 -0.0029860637 0.02234972 -0.004091324
000090 cc fe 77 b8 29 4b e8 bb a2 89 56 bc 0e 77 9e bc
       -5.9126687e-05 -0.007089038 -0.013094338 -0.01934388
0000a0 11 42 bc 3b f1 57 de bb 01 9e 52 3c a5 55 cf 3b
       0.0057451804 -0.006785386 0.012855054 0.0063273483
0000b0 52 e4 88 bb e7 a8 6c 3c 39 46 2b 3c 9e 81 1b bb
       -0.0041776085 0.014444566 0.010453754 -0.002372838
0000c0 b1 0a 6b bb fe 7e 0f 3c f5 43 ac 3a 07 a4 25 bc
       -0.0035864527 0.008758305 0.0013142811 -0.010109908
0000d0 4c f9 a4 3b 87 b7 0b 3c 03 7d 52 bb f3 6a b4 3b
       0.0050346013 0.008527643 -0.003211797 0.0055059134
0000e0 ed 78 98 3a 24 11 f6 3a cb ae 40 bc 5a 8e 34 bc
       0.0011632718 0.0018773419 -0.011760424 -0.011020267
0000f0 1b 99 5c bb 8c 10 2f 3c c6 d3 1b bc 5d fd 03 3c
       -0.0033660594 0.010685097 -0.00951094 0.008056012
000100 75 c9 d7 3c 99 6e 22 bc aa db 80 bb a5 e9 77 3c
       0.02634118 -0.009914064 -0.003932436 0.015131389
000110 a6 c6 60 bc 71 bb af 3b 5b 34 1f bc 22 e7 68 3c
       -0.0137192365 0.005362921 -0.009717072 0.014215263
000120 0b ab 34 bc bc c5 26 bc f3 e8 2e 3c f5 e5 05 3c
       -0.011027108 -0.0101789795 0.010675657 0.008172502
000130 06 e2 87 3b 9d 4e 1e bc 5c 88 dc bb 4f df c3 bb
       0.004146817 -0.009662298 -0.0067301225 -0.005977548
000140 10 8f 29 bc 67 63 3f bc ea e7 5d bc 88 f7 ad 3a
       -0.01034905 -0.011681414 -0.013544062 0.0013272623
000150 35 7e 33 3c dc 53 8e bc 7a 5e 63 ba 71 43 0b bc
       0.010955383 -0.017373972 -0.0008673441 -0.008499966
000160 05 49 05 bb e2 3b 9b 3b f5 37 00 bb 39 4f 18 bc
       -0.0020337712 0.004737363 -0.0019564603 -0.009296232
000170 42 4e 22 b9 56 8b 20 3c c1 62 06 bc 1f c0 15 bc
       -0.00015478677 0.009798845 -0.008202256 -0.0091400435
000180 dd fc 9f bb c8 7b 64 3b b2 76 00 3b d5 42 0d ba
       -0.0048824386 0.0034863818 0.0019601998 -0.0005388682
000190 de b6 46 bb 6a e9 f7 bc 27 6b ad bb 7a 77 43 bc
       -0.00303214 -0.030262668 -0.0052923146 -0.011930341
0001a0 45 9a 71 3b f0 51 55 3c 21 12 15 bc 96 1a 0d bc
       0.0036865633 0.013020024 -0.009098561 -0.008612296
0001b0 14 05 2d 3c 61 18 7b bc d0 8f 71 3c 5c c7 a7 bc
       0.010560293 -0.015325637 0.01474376 -0.020480804
0001c0 d8 8c df 3b 29 2d 29 3c 3d 4f 58 bc 3b 4c 93 39
       0.00682221 0.010325708 -0.013202486 0.0002809482
0001d0 c1 4b e3 3c ae 6a 10 bb aa ae 47 bc 1c fe dc 3b
       0.027746083 -0.0022036242 -0.012187639 0.0067441594
0001e0 3d 56 08 bc 3f 8f 0a bc 22 d3 a5 ba da 77 85 bb
       -0.008321342 -0.008457004 -0.0012651423 -0.0040731253
0001f0 85 ea 19 bb 21 b3 0d 3c 53 9b 5d 3c a2 a8 17 3c
       -0.0023485732 0.008648665 0.013525802 0.009256514
000200 ed ba 0b bb 5e d3 8c 3b 95 7e a1 3a 52 ed 96 bc
       -0.0021321133 0.004297658 0.001232105 -0.01842371
000210 0a 64 06 bc fa b0 62 bc d3 34 dc 3b 63 cd 11 3c
       -0.008202562 -0.01383614 0.0067201643 0.008899066
000220 35 76 9d 3b c9 73 b7 3b ad 4b 65 3b 00 1b bb 3b
       0.004805351 0.0055985195 0.0034987733 0.0057100058
000230 da aa 79 bb bf 9b e0 3b 94 e0 44 3a 18 e3 f0 3b
       -0.003809622 0.006854504 0.00075102714 0.0073512904
000240 15 53 cf bb 32 81 0d 3b 00 6c 3e bb 8b 0c 6e bc
       -0.006327043 0.00215919 -0.0029056072 -0.014529358
000250 0f 08 fc 3a c4 91 22 3c 5d 3a 4e 3c 72 98 68 3b
       0.0019228476 0.009922449 0.012587157 0.0035491255
000260 7c 9e dc 3b ff d8 a7 bb 5a cd 90 bc d2 af 26 ba
       0.00673276 -0.0051223035 -0.017676044 -0.0006358597
000270 a6 0c 8f 39 70 01 33 bc 44 3e d3 3b bd c4 2d bc
       0.0002728451 -0.010925636 0.0064466316 -0.010605988
000280 1b 8e d5 bb ca e0 04 bb 4a d8 a1 3a 25 ac 19 bc
       -0.0065171844 -0.0020275586 0.0012347784 -0.009379421
000290 c8 2b 83 3b bc fd e5 3b 90 76 0f bc e3 15 fa ba
       0.004003022 0.007018773 -0.008756295 -0.0019080009
0002a0 c3 b9 fd 3b 98 03 af 3c b4 d6 90 3c 91 31 ac 3c
       0.007743092 0.021364018 0.017680503 0.021019729
0002b0 21 83 aa 3b 8d df 9a bb 37 49 85 b9 b1 5d c4 bb
       0.00520362 -0.0047263564 -0.00025422286 -0.005992614
0002c0 6b 69 48 3b 5c c3 8f ba c5 71 58 bb 11 f9 64 3c
       0.0030580412 -0.0010968256 -0.0033026796 0.013975398
0002d0 4e 7d f2 3c 13 94 c6 3c 49 ee 03 3c df cd 0b bb
       0.029600766 0.02424053 0.008052417 -0.0021332426
0002e0 76 5d 95 bc 62 e2 35 3b 10 81 3b 3c 71 39 86 bb
       -0.018233042 0.0027753343 0.011444345 -0.004096203
0002f0 b3 d2 8d bb 97 06 b0 bc e1 ad e5 3b 8c d8 88 bb
       -0.004328096 -0.021487517 0.0070092534 -0.004176205
000300 02 ba 11 3c b8 a8 8d 3b 5a 4a 67 bc cb 3e 9a 3b
       0.008894445 0.0043230914 -0.014116848 0.0047071925
000310 b7 91 12 3c 39 d4 7d 3c bb a3 ea 3c b7 07 b9 3b
       0.008945874 0.015492492 0.028642526 0.0056466716
000320 0b be 9d ba b8 78 7c bb 36 70 56 3c 49 1e ec 3b
       -0.0012034787 -0.0038524102 0.013088277 0.0072057587
000330 cf bf 90 bc c5 53 88 3c 1f c7 8a 3b ce 73 01 bb
       -0.017669586 0.016641507 0.004235163 -0.0019752863
000340 56 0b 25 3b df 0c 5e bb 03 2b a8 3c f1 92 da bb
       0.0025183759 -0.0033882183 0.020528322 -0.006670349
000350 d6 41 ea 3b 2a 96 00 3c f5 82 44 bb 0d 3d 80 3b
       0.0071489615 0.007848302 -0.0029985283 0.003913528
000360 0a 4f 33 ba b1 d7 37 3b df 78 13 3c c8 c9 8b 3c
       -0.0006840086 0.0028052146 0.009000986 0.01706399
000370 c6 fa 59 39 17 ae cf 3b 33 02 2c bc fa f6 9f 3c
       0.00020788153 0.006337892 -0.010498571 0.019526947
000380 9a e3 6d bc 16 0d a2 bc d0 cb 75 3a 1b 98 2d bc
       -0.0145195965 -0.01978163 0.0009376379 -0.010595347
000390 2e a2 97 3c db 1b 54 bc c6 80 48 3b cc 4f 2d 3a
       0.01850995 -0.012946094 0.0030594333 0.0006611317
0003a0 09 ef 77 3c 3c 8c 6b bb 2b c0 d9 3b c3 51 09 3c
       0.015132674 -0.003594174 0.0066452227 0.00838131
0003b0 7e 64 f4 3b 60 e3 4d 3b 2a 6a 93 bc 4d 82 4f 3c
       0.0074582687 0.0031416044 -0.017994959 0.0126653435
0003c0 68 28 bf 3c a4 9f 3c bb aa 90 13 bc af 80 d8 ba
       0.023334697 -0.0028781677 -0.009006659 -0.0016517843
0003d0 1d fd 5f bb 3e 11 30 ba f4 28 0e bb a4 cf ef 3b
       -0.0034177967 -0.00067164365 -0.002169189 0.007318454
0003e0 da cb 1e 3b b5 17 42 3b b7 a3 a8 bb cf 5f c8 bb
       0.0024230392 0.0029616181 -0.0051464695 -0.006114937
0003f0 f9 00 3e 3c 70 fd c1 bb fe 4d 4f 3a 16 d8 a3 3a
       0.011596912 -0.0059201047 0.0007908045 0.0012500312

action_model._discrete_distribution.branches.1.bias f4 [2]
000000 da 74 3a bb d6 74 3a 3b
       -0.0028450997 0.0028450987

action_model._discrete_distribution.branches.2.weight f4 [2, 128]
000000 a3 d1 a8 3b 5a 35 3b 3c 13 d6 6c bc 43 cd 25 bc
       0.005151944 0.011426294 -0.014455336 -0.010119739
000010 f7 b5 19 ba 18 4c 34 bc 91 bf df 38 5b 62 10 3c
       -0.00058636017 -0.01100447 0.00010669151 0.008812512
000020 bd 4e db 3a 75 97 0b 3b c7 70 44 3b 79 62 e6 bb
       0.001673184 0.0021299992 0.0029974447 -0.007030782
000030 50 43 ba 3c 04 21 08 bb e9 92 7e bc 63 fa 0b 3c
       0.022737175 -0.0020771632 -0.015537956 0.008543584
000040 20 8c 69 bb 71 42 9b 3c cb 30 cc 3b b8 4c 09 b9
       -0.00356365 0.01895258 0.0062314025 -0.00013093918
000050 f0 a7 d9 3b 78 12 84 3c 26 b7 e2 bb d8 6a f3 3b
       0.006642334 0.016122088 -0.0069188057 0.0074285083
000060 7e 10 f9 ba b3 0f 9d 3c 26 71 a1 3c d3 81 1d 3c
       -0.0019002107 0.019172525 0.019707274 0.009613472
000070 3f 10 23 bc eb 34 be bb 93 1a 4e bb b0 dd 2b 3b
       -0.009952604 -0.005804648 -0.0031448945 0.0026224665
000080 14 fd 2a bb e0 3e 2e 3c 38 4b 0a bb 24 0f 4c bb
       -0.0026090788 0.010635108 -0.0021101963 -0.0031136954
000090 2e e0 7d bc 6b 9b 49 3b 47 52 1a bc 11 f7 47 3b
       -0.015495343 0.0030762802 -0.0094190305 0.0030512253
0000a0 ce c8 33 3c a4 0c 02 3c 8c a1 c4 bc fa 7e 71 bc
       0.010973169 0.007937584 -0.024002813 -0.014739746
0000b0 fc ee 54 3c f4 f1 d4 bb 74 23 09 bc 6f ca 4f bb
       0.012996431 -0.0064985696 -0.008370269 -0.0031706353
0000c0 30 4e e1 3b 1c 8e 30 3c be c2 80 3c d3 49 13 bc
       0.0068757758 0.010776069 0.01571786 -0.008989769
0000d0 96 dd 05 3b 25 1e 98 bc 9f 4c 69 3c 49 9c f0 b9
       0.0020426265 -0.018569062 0.014239459 -0.0004589281
0000e0 d8 7a 20 bb 51 22 20 3c 8b d1 72 bc 47 3a 88 bc
       -0.0024487283 0.009773807 -0.014820467 -0.016629351
0000f0 3c 4d fb ba f4 c8 48 bb 5e d9 3d bc ff dc 67 3b
       -0.0019172798 -0.0030637356 -0.011587469 0.0035379527
000100 05 58 fb bb 37 e3 02 bc 08 17 9d 37 ef f9 42 bc
       -0.007670405 -0.007988743 1.8726583e-05 -0.011900409
000110 1e 13 25 3c 06 62 fb 3a f1 b9 eb 3b 0a 65 bd 3b
       0.010075359 0.0019178994 0.007193797 0.005779867
000120 89 ad 86 3c 0c 49 2d 3b d9 d6 08 bb 53 06 23 bb
       0.01644017 0.0026441244 -0.0020880012 -0.0024875596
000130 96 e1 85 bc 7a 27 33 bc 61 2e 77 bb e1 8d 8e bb
       -0.01634292 -0.010934705 -0.0037716853 -0.0043504094
000140 b4 61 13 bc 17 4c f1 bb 23 6d 2c bc e0 2a 62 bb
       -0.008995462 -0.007363807 -0.010524067 -0.0034510419
000150 5c bd d2 3a 6c c8 5d bb ba 0b 21 3c 7b 2a 5c 3b
       0.0016078162 -0.0033841385 0.009829456 0.0033594656
000160 8b 6c 40 bc b6 d7 be 3c ed ce a3 3b 29 bb 83 ba
       -0.011744629 0.023296218 0.0049990327 -0.0010050285
000170 73 2e 43 bc 28 43 c2 3c 77 83 c9 bb 85 c6 d3 bc
       -0.01191293 0.023713663 -0.006149705 -0.025851497
000180 19 ac 49 bc 72 ac f7 3b 45 6f 12 3c 69 32 52 bc
       -0.012309098 0.007558399 0.008937662 -0.0128294015
000190 e2 27 a8 bb 0e f8 f3 bb 47 08 16 bc 98 a2 2d 3c
       -0.0051317075 -0.007445342 -0.009157247 0.010597847
0001a0 fc 7e 8e 3c 9e 77 34 bb fb 1f be 3a a2 b0 26 bc
       0.017394535 -0.0027537118 0.001450538 -0.0101739485
0001b0 fa 07 94 bb ef 15 9c bc 04 a0 c1 bb e7 80 bd bb
       -0.0045175524 -0.019053428 -0.005908968 -0.0057831886
0001c0 83 7f f6 3b 26 e0 20 ba 2b 2a 79 3b ea 95 75 bc
       0.007522525 -0.00061369163 0.0038019519 -0.014989356
0001d0 59 c3 70 3b ed 0c 01 3b be bb 7b bb 34 ed 32 3a
       0.003673753 0.0019691542 -0.0038411464 0.0006825507
0001e0 ad e7 f3 bb f5 f2 38 bc fc f2 2c bc e3 9a 0d bc
       -0.0074433894 -0.011288394 -0.010555979 -0.008642885
0001f0 e9 eb c1 3b c6 0a 2a bb 35 3e b4 bc b1 71 8a 3b
       0.0059180153 -0.0025946363 -0.022002319 0.004224979
000200 75 70 80 bc ff 29 90 bc 0a 6a ee 3b e7 70 14 3b
       -0.015678624 -0.01759815 0.0072758244 0.0022650303
000210 cc a5 3c 3c b8 b1 10 3c 1e ed 01 3b 21 8a 72 bc
       0.011514138 0.008831434 0.001982517 -0.01480344
000220 cf 83 bc bb 90 f7 23 bc ca b1 9c ba 2b 2d c9 bb
       -0.0057530175 -0.010007754 -0.0011954841 -0.0061394176
000230 d8 50 65 bb 44 8f 65 3a 85 4c 27 3c 9b 0f 89 bc
       -0.0034990814 0.0008757005 0.010211115 -0.016731074
000240 ba 05 97 3b cd ca fe 3b e2 03 e1 3a 5a 4f 5e bb
       0.004608837 0.0077756406 0.0017167295 -0.003392181
000250 cb 68 cd bb 96 a5 40 bc 37 a4 00 bb df 18 81 3a
       -0.006268596 -0.011758229 -0.001962913 0.0009849331
000260 3c 0b 2b 3c 44 3f 92 3b 74 5a 41 3c b7 f1 23 bb
       0.01043969 0.0044631083 0.011801351 -0.00250159
000270 a7 7d 3a bc 89 a9 ce 39 86 44 da 3b a0 b0 49 bc
       -0.011382497 0.00039417695 0.0066610007 -0.012310177
000280 61 78 89 3c 28 e3 7c bc 3d f6 5f 3b 3d c1 09 3c
       0.016781034 -0.015435018 0.003417387 0.008407888
000290 de 66 97 bb 2e 3d 2e bc a6 c0 1f 3a 48 5e 12 bc
       -0.004620417 -0.010634704 0.00060940755 -0.008933611
0002a0 e4 8a 2d bc 44 0b 48 ba 15 c0 90 3b b1 95 57 bc
       -0.010592196 -0.0007631073 0.004417429 -0.013158248
0002b0 6a 90 30 3c 55 1f 5c 3b d6 27 ea 3b b5 74 4e bb
       0.0107766185 0.0033588011 0.007145862 -0.0031502668
0002c0 bc 48 53 bc 4d 4d d8 bb a6 06 b3 3b b6 de cd b8
       -0.012895759 -0.006601012 0.005463439 -9.816645e-05
0002d0 f1 7c dc 3a ce a1 5d ba 4e 82 cf bb 0f 29 5b 3c
       0.0016821903 -0.0008454592 -0.006332672 0.013376488
0002e0 fa c4 63 3b e6 7d 79 38 99 91 e2 3b b3 9d 5c 3c
       0.0034754858 5.948348e-05 0.0069143292 0.013465333
0002f0 d0 1e e2 bb 43 15 5f 3b 25 98 93 3c 1c 70 ad 3b
       -0.006900646 0.0034039773 0.018016884 0.0052929055
000300 72 fa 98 3a f5 04 9f bb a6 a8 01 bd 20 77 23 3c
       0.0011671318 -0.004852886 -0.031654976 0.009977132
000310 cc e6 27 ba e3 9c 8b 3b 47 9d 16 3b d8 12 08 bc
       -0.0006404936 0.0042606457 0.0022981928 -0.008305274
000320 be 6b 37 bb 39 9a 1d 3a 90 1f cb 3b 1c 3f 0c 3c
       -0.0027987803 0.00060120557 0.006198831 0.008559968
000330 10 1e eb bb 90 f5 cc bb 60 1d 41 3b 32 9d d0 bb
       -0.0071752146 -0.0062548593 0.0029466972 -0.0063663954
000340 9f a1 37 bc 86 92 92 bb 72 ae c4 bb bd f4 9c 3b
       -0.011207967 -0.0044730334 -0.006002241 0.0047899173
000350 c0 a5 fb 3b 91 56 02 bb a4 d3 80 3c 43 c8 a4 3a
       0.007679671 -0.0019888023 0.015725918 0.001257189
000360 d2 26 72 bc d3 dc 6a bc a0 9f 1b bc 85 3f 1e bb
       -0.014779763 -0.014334875 -0.009498507 -0.0024146747
000370 84 b7 9b ba 9b 7d 67 3b f0 1b f3 bb f4 06 77 3c
       -0.0011880253 0.003532267 -0.007419102 0.015077341
000380 81 be 85 3b 12 36 af 3b 0f d7 c8 bb 35 ab df 3c
       0.0040815477 0.005347022 -0.0061291526 0.027303318
000390 e0 32 f9 ba cc 4f 23 3c df 62 2d 3c 82 c8 86 bc
       -0.0019012354 0.0099677555 0.010582655 -0.016453031
0003a0 d8 81 ef bc cc 69 2f bb d2 d1 2c bc 52 0b 90 3b
       -0.029236719 -0.002676594 -0.010548072 0.0043958807
0003b0 a2 e2 27 3c 73 3a 20 3b fa 8e 67 bb 51 78 3e 39
       0.010246905 0.00244489 -0.0035333023 0.00018164633
0003c0 06 9a 4e 3c 3e 99 41 3b 14 31 a1 bc 00 2d b1 3c
       0.012609964 0.0029540802 -0.019676723 0.021627903
0003d0 de 78 a9 3a fe 05 0c bb 68 a2 18 3c b2 8c 10 bc
       0.0012929698 -0.0021365876 0.009316064 -0.008822607
0003e0 46 8d 83 3c 16 69 35 3c dd 0d aa bb bf 08 f1 3a
       0.016058575 0.011072418 -0.005189641 0.0018389447
0003f0 ad d6 ed 3b 19 58 d7 bb 7f cb f1 39 26 4d a4 3c
       0.0072582574 -0.0065717814 0.00046118718 0.020056318

action_model._discrete_distribution.branches.2.bias f4 [2]
000000 05 e3 c6 bb 05 e3 c6 3b
       -0.0060695433 0.0060695433
