Assets/results/day3_2323/TrafficLightBrain/TrafficLightBrain-359980.onnx (onnx, 403823 bytes, 21 tensors)

discrete_act_size_vector f4 [1, 8]
0	0x40000000	2.0
1	0x40000000	2.0
2	0x40000000	2.0
3	0x40000000	2.0
4	0x40000000	2.0
5	0x40000000	2.0
6	0x40000000	2.0
7	0x40000000	2.0

network_body._body_endoder.seq_layers.0.weight f4 [256, 100]
0	0xbdf26717	-0.11836069
1	0x3e1b00e1	0.15137054
2	0xbda50d25	-0.08059148
3	0xbd98c008	-0.07458502
4	0x3d9ea3a2	0.07746054
5	0x3d00be1f	0.031431314
6	0xbe186ac4	-0.14884478
7	0xbe2b168f	-0.16707824
8	0x3e10ecc6	0.14152822
9	0xbd808194	-0.06274715
10	0x3d88f862	0.06688
11	0x3d0c2885	0.03421833
12	0xbe15b0b8	-0.14618194
13	0xbd9140d1	-0.07092441
14	0xbe912abd	-0.2835292
15	0x3e23e138	0.16003883
16	0xbda94a5f	-0.08266138
17	0x3cc18e53	0.023627436
18	0x3e147540	0.14497852
19	0x3d855bab	0.06511625
20	0x38062fca	3.1992597e-05
21	0x3cabdfa3	0.020980662
22	0x3d03191e	0.032006375
23	0xbd75faf9	-0.0600538
24	0x3be84086	0.00708777
25	0x3dac7913	0.084215306
26	0x3d2d328e	0.04228454
27	0x3e5ecfd4	0.21758968
28	0xbe0b8b63	-0.1362739
29	0xbd898dc3	-0.06716492
30	0x3e01f903	0.12692647
31	0xbe03fcfd	-0.12889476
32	0x3de0a66b	0.10969242
33	0x3c8e86cb	0.017398259
34	0xbe3c88f9	-0.18411626
35	0x3d1313b7	0.035907473
36	0xbd1ff0e8	-0.039048105
37	0xbdb4f3bb	-0.088355504
38	0x3c23f0af	0.010006114
39	0x3d7ea7e0	0.062171817
40	0x3ddf93fa	0.10916896
41	0xbdd74c68	-0.1051262
42	0x3d7d06c0	0.061774015
43	0xbe3418cc	-0.17587584
44	0x3e38211b	0.17981379
45	0xbcddc232	-0.027070139
46	0x3e096073	0.13415699
47	0x3e89a563	0.26883993
48	0xbc725543	-0.014790836
49	0x3d9aeb04	0.07564357
50	0xbd9ac33e	-0.07556771
51	0x3d0e1906	0.034691833
52	0x3d4fd7cf	0.05074292
53	0xbcfb15bb	-0.03065001
54	0xbdad89ee	-0.084735736
55	0xbcc06c89	-0.023489254
56	0x3d3ad578	0.045613736
57	0x3c965243	0.018349772
58	0x3dbbee9f	0.09176373
59	0xbe510d4f	-0.20415233
60	0x3e3791f0	0.17926764
61	0x3d36d3b5	0.044635493
62	0x3ce2cfda	0.027687002
63	0x3d8724e7	0.065988354
64	0x3e02da55	0.127786
65	0x3db851f3	0.090000056
66	0x3cb64e81	0.02225423
67	0xbcaf973a	-0.021434415
68	0x3e5537ab	0.20822017
69	0xbcddc68a	-0.02707221
70	0x3d141101	0.03614903
71	0x3d54e0a7	0.051972058
72	0xbc9c6564	-0.019091316
73	0x3ca2171b	0.019786408
74	0xbda0b638	-0.078472555
75	0x3e83aa5e	0.25715917
76	0x3c49cbf3	0.012316692
77	0xbd703713	-0.058646273
78	0x3e30633d	0.17225356
79	0xbe1db94d	-0.15402718
80	0x3d3fe039	0.046844695
81	0xbcf3dd1b	-0.029768517
82	0x3cb4de8f	0.02207878
83	0x3af032b2	0.0018325655
84	0xbd0678fa	-0.032830216
85	0x3d8bfd67	0.06835442
86	0xbcffa7fd	-0.031208033
87	0x3c167f89	0.00918568
88	0xbd03e87b	-0.032204133
89	0x3d175402	0.03694535
90	0xbc9638af	-0.018337576
91	0x3d35b7ff	0.044364925
92	0xbbbd7a71	-0.0057824184
93	0x3c02aec6	0.00797624
94	0xbdd88e80	-0.10574055
95	0xbd20af32	-0.03922958
96	0xbe00d8df	-0.1258273
97	0x3bf5f8e7	0.007506478
98	0xbd46f652	-0.048574753
99	0xbcab34f7	-0.020899279
100	0x3e347c4e	0.17625543
101	0x3d4070aa	0.046982445
102	0xbda35bc6	-0.07976489
103	0xbd7a61f6	-0.06112858
104	0x3d97e1af	0.074160926
105	0x3d45ce6b	0.04829256
106	0x3e702307	0.23450862
107	0xbe1208c1	-0.14261152
108	0xbc128774	-0.008943427
109	0x3dfae547	0.122507624
110	0xbdb7e47f	-0.08979129
111	0x3c9177ac	0.01775726
112	0x3b61920b	0.0034419324
113	0xbbd02c46	-0.006352934
114	0xbe243087	-0.16034137
115	0x3e2a5a1f	0.16635941
116	0xbce83d5f	-0.028349577
117	0x3e06ca2f	0.13163064
118	0x3dd60748	0.104506075
119	0x3e4f4c27	0.20243894
120	0xbde93a7f	-0.1138811
121	0xbcef2596	-0.029192727
122	0x3c1b973e	0.009496508
123	0x3bc8709e	0.0061169406
124	0xbd9eca50	-0.07753432
125	0xbd6276bb	-0.05528901
126	0xbe107f6a	-0.14111105
127	0x3dcdb4f6	0.10044281
128	0xbd031736	-0.032004558
129	0x3b77cafa	0.0037810192
130	0x3d924404	0.07141879
131	0xbd5bc6b5	-0.0536563
132	0xbd3f2cbd	-0.046673525
133	0x3dd376ff	0.10325431
134	0xbe5ae2c3	-0.21375565
135	0x3e20f11b	0.15716974
136	0xbd2080b7	-0.039185252
137	0x3dca41b7	0.09875815
138	0x38d4307b	0.00010117978
139	0xbd9b4087	-0.07580667
140	0x3ca7124c	0.020394467
141	0x3e0cbea3	0.13744597
142	0xbd1ab2b1	-0.03776807
143	0x3d06cd91	0.032910887
144	0xbd735823	-0.059410226
145	0x3e19031a	0.1494259
146	0x3e0d9450	0.13826108
147	0x3dd501bd	0.10400722
148	0x3d3bae8f	0.04582077
149	0x3def78b0	0.11692941
150	0x3db47ccd	0.08812866
151	0xbd44c65d	-0.048040736
152	0x3d6fae4a	0.058515824
153	0xbe03d6ad	-0.12874861
154	0x3d856cb6	0.065148756
155	0xbdf178f2	-0.117906466
156	0xbda7019b	-0.08154603
157	0x3d9adc27	0.07561522
158	0x3cb061c5	0.021530995
159	0x3d0ecefb	0.03486536
160	0x3ce37352	0.02776495
161	0xbdafe882	-0.08589269
162	0xbdb50fe7	-0.08840924
163	0xbd45da97	-0.048304167
164	0xbe1255f3	-0.142906
165	0xbd03ff25	-0.032225747
166	0x3d3e43a6	0.046451233
167	0xbd7df15a	-0.06199775
168	0xbdfd112f	-0.12356793
169	0x3d13d879	0.036095116
170	0xbd6aa2c5	-0.057284135
171	0x3d3710b1	0.044693653
172	0xbd5c6138	-0.053803653
173	0x3caac1e3	0.020844406
174	0xbc800190	-0.015625745
175	0xbcb9fa85	-0.022702465
176	0x3db6c77c	0.089247674
177	0xbe52a9ed	-0.20572634
178	0xbe5a21e2	-0.21301988
179	0x3ccebd9f	0.025236903
180	0xbdacd80a	-0.08439644
181	0x3e1d9f0c	0.15392703
182	0xbde07902	-0.109605804
183	0x3e27dc4e	0.16392633
184	0x3d16b24d	0.036791135
185	0xbdcfc0f0	-0.10144222
186	0x3dbfea43	0.09370854
187	0x3dc7e483	0.09760382
188	0xbdcc0ee8	-0.09963781
189	0x3db66edd	0.08907864
190	0x3dfe96fa	0.1243114
191	0x3c6b1da7	0.014350331
192	0x3e263407	0.16230784
193	0xbd505063	-0.050857913
194	0xbd837faf	-0.06420838
195	0xbe32968b	-0.1744024
196	0xbae1d532	-0.0017229675
197	0xbdba0b3f	-0.09084176
198	0xbdf27b1b	-0.11839887
199	0x3c46cfd3	0.01213451
200	0x3c4f6634	0.0126586445
201	0x3dd05c8d	0.10173903
202	0xbcc64f5d	-0.024207765
203	0x3b14bf28	0.0022696946
204	0x3e3e9c31	0.1861427
205	0x3e0e10f3	0.13873653
206	0x3d1d0c42	0.038341768
207	0x3c420307	0.011841542
208	0xbd445376	-0.047931157
209	0xbdcc137f	-0.09964656
210	0x3e252dd0	0.16130757
211	0xbd98bdb2	-0.074580565
212	0xbca91584	-0.020640142
213	0xbdad2cac	-0.08455786
214	0xbd73ac01	-0.059490208
215	0x3d787c59	0.060665462
216	0x3cdcb49d	0.026941592
217	0xbb37049b	-0.002792633
218	0x3e450aef	0.19242452
219	0x3e32aeda	0.17449513
220	0xbda157f9	-0.078781076
221	0x3ddb8fbf	0.10720777
222	0xbe02b0c5	-0.12762745
223	0x3e3b15a7	0.18269978
224	0x3ad040a2	0.0015888403
225	0xbdf9acff	-0.121911995
226	0x3cf264f1	0.029589148
227	0xbde1eef0	-0.11031902
228	0x3d68efbf	0.056869265
229	0xbcdf161e	-0.027232226
230	0xbd6e11c0	-0.058122396
231	0xbc537b15	-0.012907763
232	0x3e388175	0.18018134
233	0xbc75aa98	-0.014994286
234	0xbdb95a73	-0.09050455
235	0xbdfba91b	-0.12288114
236	0x3dec344d	0.11533413
237	0xbe0c7120	-0.13715029
238	0x3e0593bc	0.13044637
239	0xbc8694af	-0.01642832
240	0xbc4358db	-0.01192304
241	0xbd8e7ff8	-0.06958002
242	0x3de20b52	0.110373154
243	0x3d8553dc	0.065101355
244	0x3e7b72c0	0.24555492
245	0xbce5892b	-0.028019508
246	0xbe03b423	-0.12861685
247	0xbce43888	-0.027858987
248	0x3d15a589	0.03653482
249	0xbe29d293	-0.16584234
250	0x3af2ffd8	0.0018539382
251	0xbe5a6655	-0.21328099
252	0xbda9d8be	-0.082932934
253	0xbe15c1c6	-0.146247
254	0x3e7ad1c5	0.24494083
255	0xbdbdd86c	-0.09269795

network_body._body_endoder.seq_layers.0.bias f4 [256]
0	0x3b7dd470	0.003873136
1	0x3d010c46	0.031505845
2	0x3caf36cf	0.02138844
3	0x3cd2603e	0.025680657
4	0x3ba56ab4	0.0050481204
5	0xbd8f607d	-0.070008256
6	0xbc7921b3	-0.015205788
7	0x3d10c253	0.035341572
8	0xbb9766ce	-0.0046204096
9	0x3c8dd531	0.017313572
10	0xbd2726fb	-0.04080866
11	0xbc11b662	-0.008893581
12	0x3d1c728d	0.03819518
13	0x3c9b0011	0.01892093
14	0x3d01ece4	0.031720057
15	0x3d560bb5	0.05225726
16	0x3cbecb74	0.023290373
17	0xbc5f3289	-0.013622888
18	0x3bbeffc1	0.005828828
19	0x3c695ebc	0.014243778
20	0xbd2df11a	-0.04246626
21	0x3c5b8ec5	0.013400738
22	0xbd086fac	-0.033309624
23	0xbcb399bd	-0.021923894
24	0xbcffa6f2	-0.031207535
25	0x3d3737ce	0.044730954
26	0xbc3d2db4	-0.011546541
27	0x3ca0e0c1	0.019638421
28	0xbd5a50ed	-0.053299833
29	0xbcc1560c	-0.0236006
30	0xbbbeab3d	-0.005818753
31	0xbd6f9298	-0.058489412
32	0xbab873dc	-0.0014072615
33	0xbbf0ad2e	-0.0073448634
34	0x3c02bd6b	0.007979731
35	0xbab81c91	-0.0014046599
36	0x3c88abe2	0.016683523
37	0x3ce6433e	0.028108235
38	0xbbdca02f	-0.0067329626
39	0x3d55e38c	0.05221896
40	0x3d2a4e57	0.041578617
41	0x3c9a2632	0.018817041
42	0x3c376915	0.011194487
43	0x3b8efbb0	0.0043634996
44	0xbd399b05	-0.045313854
45	0x3c0496d0	0.008092597
46	0x3d5878d3	0.052849602
47	0x3cb56141	0.0221411
48	0xbce12b66	-0.027486514
49	0xbbf6c2b3	-0.007530534
50	0xbcbf65f7	-0.02336405
51	0xbc88cb69	-0.016698556
52	0xbd10a563	-0.035313975
53	0x3d12f600	0.035879135
54	0x3d24d024	0.04023756
55	0x3b740783	0.0037235923
56	0xbc938b60	-0.018010795
57	0x3d060c76	0.032726727
58	0x3d0b0320	0.033938527
59	0x3bc2a124	0.0059396196
60	0xbc899104	-0.016792782
61	0xbcc1a2bd	-0.02363717
62	0x3b464a06	0.0030256524
63	0x3d537234	0.051622584
64	0x3ccce1f6	0.02501009
65	0xbd1b5967	-0.037927058
66	0xbcc17f63	-0.023620313
67	0x3cbc28c7	0.022968663
68	0x3d2e7176	0.042588674
69	0xbb59c138	-0.003322674
70	0xbd6d24e8	-0.057896525
71	0xbd2fd002	-0.04292298
72	0x3d0d025d	0.034426082
73	0x3c868777	0.016422017
74	0x3d778eac	0.060438797
75	0x3c8c27b3	0.017108774
76	0x3befda4d	0.0073197247
77	0xbc42669e	-0.011865286
78	0x3c6d29f5	0.014475335
79	0x3d6cdde0	0.057828784
80	0x3ca6f1d0	0.020378977
81	0xbd480f74	-0.048842862
82	0x3d166496	0.03671702
83	0x3b27bfab	0.002559642
84	0xbc301f9e	-0.010749726
85	0x3ce3a67d	0.027789349
86	0xbd8e965d	-0.06962273
87	0x3ce815a2	0.028330628
88	0x3c0d55d0	0.008626416
89	0x3d4c467a	0.0498719
90	0xbc8187f3	-0.015811896
91	0xbd80a36d	-0.06281171
92	0xbb0682bb	-0.0020524699
93	0xbabebc5c	-0.0014551985
94	0x3c8b6c5e	0.017019447
95	0x3d39a544	0.045323625
96	0x3caa0c49	0.020757811
97	0xbc87972e	-0.01655158
98	0x3ccb220d	0.02479651
99	0x3d1d30bf	0.038376566
100	0xbd890be2	-0.066917196
101	0xbcd5bac1	-0.026090028
102	0xbd82813e	-0.06372307
103	0xbd059973	-0.032617044
104	0x3cf0244e	0.029314186
105	0x3cc25f34	0.023727037
106	0xbd8455a5	-0.06461648
107	0xbc658df4	-0.014010895
108	0xbd24c691	-0.04022843
109	0x3bd05a4c	0.0063584205
110	0x3d127df3	0.035764646
111	0x3d1df80b	0.03856663
112	0xbd691169	-0.05690137
113	0x3bad6339	0.0052913693
114	0xbc6439b4	-0.013929773
115	0xbcc0018c	-0.023438238
116	0x3d94a4b3	0.072579764
117	0xbcca2e56	-0.024680298
118	0xbc08204c	-0.008308481
119	0xbc9709df	-0.018437324
120	0xbd63102e	-0.055435352
121	0x3b32ec15	0.002730136
122	0x3c873293	0.016503608
123	0xbc88db55	-0.016706148
124	0xbcf06659	-0.029345678
125	0xbc98be9c	-0.018645577
126	0xbd3402e0	-0.043948054
127	0x3d0411db	0.03224359
128	0x3d8a7201	0.06760026
129	0x3bff9bca	0.007800554
130	0xbd33d235	-0.04390164
131	0x3d736803	0.059425365
132	0x3cb6b752	0.02230421
133	0xbc982ec0	-0.01857698
134	0xbc0d2289	-0.008614191
135	0xbcfe2ff2	-0.031028721
136	0x3c352ba2	0.011057766
137	0xbc27fe6f	-0.010253533
138	0x3ce5e96b	0.028065404
139	0x3cd8278d	0.026386047
140	0x3d1dfe87	0.038572814
141	0xbc5482cc	-0.0129706375
142	0x3c07d09d	0.008289483
143	0x3c884c85	0.01663805
144	0xbbc59f85	-0.006030979
145	0xbcd3cb50	-0.025853783
146	0x3c3edc06	0.011649137
147	0xb9c92966	-0.00038368552
148	0xbd0d18ab	-0.034447353
149	0xbd6a544e	-0.057209305
150	0xbd310ef0	-0.043227136
151	0x3cf83fb4	0.030303814
152	0xbcdd281e	-0.026996668
153	0xbd4476e1	-0.047964934
154	0xbd223296	-0.039599024
155	0x3b7f26b6	0.0038932986
156	0x3cc64a11	0.02420524
157	0xbc296709	-0.010339507
158	0x3cdf2ab7	0.027242048
159	0x3d7f2981	0.06229544
160	0x3c89e941	0.016834857
161	0xbd0c7d4a	-0.034299172
162	0xbcfa0b3b	-0.030522933
163	0x3d0228c7	0.03177717
164	0x3d982484	0.0742884
165	0xbd59e4e4	-0.053196803
166	0x3cefac90	0.029257089
167	0x3ca62c7c	0.020284884
168	0x3c5bcc11	0.013415352
169	0x3cf3cd70	0.029761046
170	0x3d5e9a45	0.05434634
171	0xbd116b82	-0.035502918
172	0xbd195d2a	-0.037442364
173	0xbd8b0cb6	-0.06789534
174	0x3d7dfbf1	0.06200785
175	0x3ce70bba	0.028203834
176	0xbcb12e25	-0.021628449
177	0x3c494cbc	0.012286361
178	0xbc031c7e	-0.008002399
179	0x3c6ada6d	0.014334303
180	0x3b7d4787	0.003864737
181	0xbc53aeb0	-0.012920067
182	0x3daa22ce	0.0830742
183	0xbc78bcc9	-0.015181729
184	0xbce72ce3	-0.028219646
185	0x3b9aac62	0.0047202567
186	0xbcdc6a5d	-0.026906187
187	0xbd34174c	-0.04396753
188	0xbd47a824	-0.048744336
189	0x3d290711	0.041266505
190	0xbc5cc300	-0.013474226
191	0x3d02b8cf	0.03191453
192	0x3d693747	0.056937482
193	0xbc220597	-0.009889028
194	0xba34d0cc	-0.0006897568
195	0x3c75904f	0.014988019
196	0x3ceecf8d	0.029151702
197	0x3d794e5c	0.060865745
198	0x3d076960	0.033059478
199	0x3d02aac4	0.031901136
200	0x3d6cbf32	0.057799526
201	0x3d3db596	0.046315752
202	0xbcd00af6	-0.025395852
203	0xbd81c64e	-0.06336652
204	0x3db98fa3	0.090606
205	0x3c95093d	0.018192882
206	0xbd4b2602	-0.049596794
207	0xbd0a135f	-0.03370988
208	0xbc73c328	-0.014878072
209	0xbb2473ac	-0.002509336
210	0xbcb00604	-0.021487243
211	0xbd1c5def	-0.03817552
212	0x3d9b199e	0.075732455
213	0xbd069e45	-0.03286578
214	0xbcd50d10	-0.026007205
215	0x3c81b9c5	0.015835652
216	0x3c317181	0.010830284
217	0x3d04a270	0.032381475
218	0x3cb7fd7a	0.022459734
219	0x3d9e7a44	0.07738164
220	0xbd28a670	-0.041174352
221	0xbd0e0052	-0.034668274
222	0x3b77a45b	0.0037787172
223	0x3d35c826	0.04438033
224	0xbd0bb41f	-0.034107324
225	0x3cbe278a	0.023212213
226	0xbcea4606	-0.028597843
227	0xbcf15ef3	-0.02946422
228	0x3c7564ea	0.014977673
229	0x3b18fa94	0.0023342716
230	0xbd206680	-0.03916025
231	0x3c8cb8d3	0.017177975
232	0xbd201ab2	-0.03908796
233	0xbcc287ac	-0.023746334
234	0x3c317854	0.010831911
235	0x3d7c6664	0.061621085
236	0xbb053047	-0.0020322965
237	0xbabdc4fd	-0.0014478263
238	0x3d52d053	0.051468205
239	0xbc88b323	-0.016686982
240	0x3ce2c395	0.027681151
241	0x39028d96	0.00012450511
242	0xbd2920c3	-0.04129101
243	0x3d28c124	0.04119982
244	0x3ca8feb7	0.02062927
245	0x3cf9a216	0.030472796
246	0x3d7c4b1b	0.061595064
247	0x3ab49ca9	0.0013779599
248	0x3c824b4f	0.01590505
249	0xbd5b03b0	-0.053470314
250	0x3dbf2335	0.09332887
251	0xbd82a7ad	-0.06379638
252	0xbc8cce52	-0.017188225
253	0xbcd3a6d8	-0.025836393
254	0x3d5f75d9	0.054555748
255	0x3d5aa8b5	0.053383548

network_body._body_endoder.seq_layers.2.weight f4 [256, 256]
0	0xbd95ad1c	-0.073084086
1	0xbd8dc69d	-0.06922648
2	0xbd4f2d9b	-0.050580602
3	0xbdc6bc57	-0.09703892
4	0xbca601c0	-0.020264506
5	0x3c8e0e6d	0.017340863
6	0xbd79a750	-0.060950577
7	0xbc767af9	-0.015043967
8	0xbd38da1e	-0.045129888
9	0x3d796a71	0.060892526
10	0x3dd71c75	0.105034746
11	0xbd450b5d	-0.04810654
12	0xbb387c48	-0.002815025
13	0xbd9f2c6b	-0.07772144
14	0x3bebf1d6	0.00720046
15	0x3dcaa71e	0.09895156
16	0xba3c6399	-0.0007186472
17	0xbd9df47d	-0.07712648
18	0x3ca252fc	0.01981496
19	0xbc6eb585	-0.014569645
20	0xbd942fae	-0.07235657
21	0x3cb61d00	0.022230625
22	0x3ca2dde0	0.019881189
23	0x3c333f37	0.010940365
24	0x3d4a0543	0.049321424
25	0xbd38b408	-0.045093566
26	0x3ccbea3c	0.024891965
27	0x3dbec166	0.093142316
28	0xbc8328fc	-0.016010754
29	0x3c2d0b95	0.010561843
30	0xbc670121	-0.01409939
31	0xbd2cf624	-0.042226925
32	0xbcc636a3	-0.024195975
33	0xbdb0a06f	-0.0862435
34	0x3d1a4269	0.03766099
35	0x3d3dbabe	0.04632067
36	0x3d1b5af3	0.037928533
37	0x3d7f70c2	0.062363394
38	0x3da82754	0.08210626
39	0xbd8663ed	-0.06562028
40	0xbcdd8130	-0.02703914
41	0x3afceeeb	0.0019297277
42	0xbe254511	-0.16139628
43	0xbde4f941	-0.11180354
44	0x3d46f254	0.048570946
45	0x3d2bdcf4	0.041958764
46	0xbd61190a	-0.05495552
47	0xbd2223cf	-0.03958493
48	0xbd611cf1	-0.05495924
49	0xbda40c4d	-0.08010159
50	0xbc5847da	-0.0132007245
51	0xbc8897e2	-0.016673986
52	0xbc2b6098	-0.010460041
53	0xbdddc991	-0.10829461
54	0xbc8cecc0	-0.017202735
55	0x3c8d52d5	0.017251411
56	0xbe151947	-0.14560424
57	0x3d0f62a9	0.0350062
58	0x3daae66c	0.08344731
59	0xbe342ad4	-0.17594463
60	0xbd45ce37	-0.048292365
61	0x3cf7b8fc	0.030239575
62	0x3baf80d7	0.005355935
63	0x3d057393	0.032580923
64	0xbd8461ae	-0.064639434
65	0xbdeda6ed	-0.11604104
66	0x3d0bc23e	0.03412079
67	0x3c22ff0b	0.009948502
68	0xbc83ff01	-0.016112806
69	0xbe065a6f	-0.13120435
70	0x3d502867	0.05081978
71	0xbdb02a9b	-0.08601876
72	0x3b9dd9ec	0.004817238
73	0xbc7054d8	-0.014668666
74	0xbd9cf5aa	-0.07664044
75	0x3d0843c2	0.033267744
76	0x3d3c9467	0.046039965
77	0x3df9285d	0.12165902
78	0xbbc15ace	-0.0059007173
79	0x3adeb57b	0.0016991341
80	0x3cfbc4ec	0.030733548
81	0xbc64b43d	-0.013958988
82	0x3cd2447d	0.025667423
83	0xbd0b32ed	-0.033984113
84	0xbded51fb	-0.11587902
85	0xbc776974	-0.015100826
86	0x3ddbc734	0.10731354
87	0xbdf5813c	-0.1198754
88	0x3d05d22b	0.032671135
89	0xbe05d1e1	-0.13068344
90	0x3d623d75	0.05523439
91	0xbbba195d	-0.005679293
92	0xbc6539a8	-0.013990797
93	0xbd05b034	-0.032638744
94	0xbd99cb16	-0.07509439
95	0xbd93652a	-0.0719703
96	0xbc35dbbc	-0.011099752
97	0x3c9da2d8	0.019242689
98	0xbde2fb5d	-0.110831
99	0x3b638964	0.0034719342
100	0x3d5e3dc8	0.054258138
101	0xbc4cb982	-0.0124954
102	0x3d075596	0.033040605
103	0xbda84fbe	-0.082183346
104	0x3d9beea9	0.0761388
105	0x3da9aa08	0.08284384
106	0xbcdc9217	-0.02692513
107	0x3d6b33b0	0.05742234
108	0xbcdcf6d2	-0.026973162
109	0x3ccf80be	0.025329944
110	0xbd51a614	-0.051183775
111	0xbdd27943	-0.10277035
112	0xbd55bf34	-0.0521843
113	0x3db107b2	0.08644046
114	0x3d66eaf1	0.0563764
115	0xbd2335df	-0.039846297
116	0xbd42276a	-0.04740087
117	0x3d01f81f	0.031730767
118	0x3cccc445	0.024995932
119	0xbca8a023	-0.020584172
120	0xbcf26f44	-0.029594071
121	0xbd49278c	-0.04910998
122	0x3d9a37af	0.07530152
123	0xbca9b40a	-0.020715732
124	0x3b073927	0.002063343
125	0x3bbfc216	0.0058519943
126	0xbbd05ec1	-0.006358952
127	0x3d187b96	0.037227236
128	0xbd2cbade	-0.042170398
129	0xbd2dbdeb	-0.042417448
130	0x3c9ac3cf	0.018892197
131	0x3c68e096	0.014213702
132	0xbb9ce1ad	-0.004787645
133	0xbc8248ef	-0.015903918
134	0xbc926a3d	-0.017872924
135	0x3c8e9500	0.017405033
136	0x3ce3a724	0.02778966
137	0xbd9068fd	-0.07051275
138	0xbe405751	-0.18783309
139	0xbc45397b	-0.01203763
140	0xbd88f291	-0.06686891
141	0xbdc1421d	-0.09436438
142	0xbdd13345	-0.10214857
143	0xbdb533e8	-0.08847791
144	0xbcb32cd2	-0.021871958
145	0xbd47a3b6	-0.04874011
146	0x3dc82bd7	0.09773987
147	0xbd9726f6	-0.07380478
148	0x3d99a537	0.07502215
149	0x3d111db0	0.035428703
150	0x3c1c6345	0.009545152
151	0x3cd6380c	0.026149772
152	0xbc41ccec	-0.011828642
153	0x3aa9cef8	0.0012955358
154	0xbd8cf9ae	-0.0688356
155	0xbd81317f	-0.06308269
156	0xbdd31aee	-0.10307871
157	0x3d8694a0	0.06571317
158	0x3d0d86bf	0.034552332
159	0xbcb39449	-0.021921294
160	0xbd42c8ea	-0.047554888
161	0xbd5ea7ff	-0.054359432
162	0xbc632847	-0.013864583
163	0xbd16df76	-0.036834203
164	0xbd1ad452	-0.03780014
165	0x3d1de082	0.038544185
166	0x3d8c6842	0.06855823
167	0xbd529173	-0.051408242
168	0x3ccc4851	0.024936827
169	0x3d08d8f2	0.03341002
170	0xbcc09a6d	-0.023511136
171	0x3c62899a	0.013826752
172	0xbdc74fac	-0.09731993
173	0xbd828505	-0.06373028
174	0xbd5038c2	-0.05083538
175	0x3dfc46b1	0.12318171
176	0x3d27f6e7	0.04100695
177	0x3d908af3	0.070577525
178	0x3d0be838	0.034157008
179	0xb8c26e14	-9.2711445e-05
180	0xbde1a5bd	-0.1101794
181	0xbd0a7d99	-0.033811186
182	0x3aedda17	0.0018146661
183	0xbd462f78	-0.048385113
184	0xbd2d578c	-0.04231982
185	0xbc2e0cc7	-0.010623164
186	0x3c741613	0.014897841
187	0x3d7fb0b7	0.062424388
188	0xbdb6f6ab	-0.08933767
189	0x3c7ef099	0.015560293
190	0x3dba3840	0.0909276
191	0xbca29376	-0.019845705
192	0xbc732b5a	-0.014841879
193	0xbdd52fce	-0.10409509
194	0x3c6f85a4	0.014619265
195	0xbce37a73	-0.02776835
196	0xbdadac81	-0.08480168
197	0xbdd9adb8	-0.10628837
198	0xbc933127	-0.017967774
199	0x3d1ea6b5	0.038733203
200	0x3d9071e2	0.070529714
201	0x3daa3531	0.08310927
202	0x3dcf8eda	0.10134669
203	0xbce58955	-0.028019587
204	0xbc9894f3	-0.018625712
205	0xbd97f05b	-0.07418891
206	0xbc21736b	-0.009854178
207	0xbd562bbd	-0.052287806
208	0x3d661dcb	0.056180757
209	0x3d6a89ab	0.057260197
210	0xbb8de263	-0.004329966
211	0xbd5ab978	-0.053399533
212	0x3c8a80c4	0.016907103
213	0x3b82a92a	0.003987451
214	0x3d915ff0	0.07098377
215	0xbd11e01e	-0.035614125
216	0x3d930e83	0.07180502
217	0x3da8acb1	0.08236063
218	0x3cfa941c	0.030588202
219	0x3bdd187f	0.006747305
220	0x3d47fa3a	0.04882262
221	0xbe21935c	-0.1577887
222	0x3d8a36c9	0.06748731
223	0xbd627ee9	-0.055296812
224	0xbbbb6078	-0.005718287
225	0xbd5eff09	-0.05444244
226	0xbd97b1ac	-0.07406935
227	0x3d72d315	0.059283335
228	0xbd28d035	-0.041214187
229	0xbd71e7ba	-0.059058882
230	0x3d2d5452	0.042316742
231	0x3cb72275	0.022355298
232	0xbd1fc65b	-0.039007526
233	0x3d3fcfac	0.04682891
234	0xbc65d50f	-0.014027848
235	0xbe14cd67	-0.1453148
236	0xbd881d86	-0.06646256
237	0xbe15ee5c	-0.14641708
238	0xbc7c012b	-0.015381138
239	0x3dc983c1	0.09839583
240	0xbdb858ca	-0.0900131
241	0x3d375dd1	0.044767205
242	0x3c2f4bdb	0.010699238
243	0x3dad22b1	0.084538825
244	0xbd1e0ec5	-0.038588304
245	0x3d494cab	0.049145382
246	0x3d7ede1b	0.062223535
247	0xbc84f91c	-0.016232066
248	0x3c9f377e	0.01943564
249	0x3ccbbe6c	0.024871074
250	0x3d177632	0.036977954
251	0xbdbfa392	-0.093573704
252	0xbd733837	-0.059379783
253	0xbd034083	-0.032043945
254	0xbe0ea21e	-0.1392903
255	0x3bf38019	0.007431042

network_body._body_endoder.seq_layers.2.bias f4 [256]
0	0xbc8a6b88	-0.016896978
1	0xbca3c57a	-0.019991625
2	0xbce20ab0	-0.027592987
3	0xbccf50ef	-0.025307147
4	0x3c94848f	0.018129615
5	0xbc16a06c	-0.009193521
6	0x3b1ab4a0	0.0023606196
7	0xbb3d118c	-0.002884957
8	0x3bdfbdeb	0.00682806
9	0xbc474adf	-0.012163847
10	0xbcd864f0	-0.026415318
11	0x3a7b9d11	0.0009598295
12	0x3bee558f	0.007273383
13	0x3ae0e120	0.0017156936
14	0xbbe2ce24	-0.0069215465
15	0xbd5a94fe	-0.053364746
16	0xbce78458	-0.028261349
17	0xbabf6bf3	-0.0014604315
18	0xbcf5662e	-0.02995595
19	0xbb9c9400	-0.004778385
20	0x3c376cd0	0.0111953765
21	0x3d2e757c	0.04259251
22	0xbd1352f3	-0.03596778
23	0xbc229d20	-0.009925157
24	0xbab16432	-0.0013533889
25	0x3ba0ff83	0.004913272
26	0x3d0e3e1c	0.0347272
27	0x3acc2357	0.0015574497
28	0x3ca2206e	0.019790854
29	0xbcd48d63	-0.025946325
30	0xbc3073a5	-0.010769759
31	0xbd1f4bce	-0.038890652
32	0xbbeb3daf	-0.007178984
33	0x3c8b3d91	0.01699713
34	0xbcd54cca	-0.026037592
35	0xbc0f2915	-0.008737822
36	0xbc80343c	-0.015649907
37	0xbd267126	-0.04063525
38	0xbbb8b02e	-0.0056362366
39	0xbc97bf3b	-0.018523803
40	0xbc5aa2bc	-0.013344463
41	0x3ca68195	0.020325461
42	0xbc05fbbe	-0.008177696
43	0x3ceda038	0.029007062
44	0xbc643a57	-0.013929925
45	0x3c5f16a5	0.013616239
46	0xbc16ca23	-0.009203467
47	0x3c2382da	0.009979928
48	0xbc8a60b3	-0.016891813
49	0x3c3ba42e	0.011452718
50	0xbc85a9d6	-0.016316336
51	0xbcd8e9c9	-0.026478665
52	0xbc530ee3	-0.012881967
53	0x3cc576bf	0.024104474
54	0xbce31a72	-0.027722571
55	0xbc8122c6	-0.015763652
56	0xbcdb9d5f	-0.026808439
57	0xbc074f7f	-0.008258699
58	0xbc6bce61	-0.014392466
59	0x3c8e2454	0.017351307
60	0xbcbc0e03	-0.0229559
61	0xbc87f5b9	-0.016596662
62	0x3cdb1cb4	0.026747085
63	0x3a88ac69	0.0010427359
64	0x389ed879	7.574348e-05
65	0xbce9f4d7	-0.028559132
66	0xbd0901d7	-0.03344902
67	0x3c98145c	0.018564396
68	0x3c557dcb	0.01303048
69	0x3971cf59	0.00023060794
70	0x3a7a7408	0.0009554033
71	0xbcdae097	-0.02671842
72	0x3b9a5e42	0.0047109434
73	0xbc2c1278	-0.01050245
74	0xbcc73712	-0.024318252
75	0x3c259833	0.010107088
76	0x3bb078de	0.0053855022
77	0xbb90482f	-0.004403136
78	0x3c95fe1e	0.01830965
79	0xbd0cf62b	-0.03441445
80	0x3bddf04f	0.006773032
81	0xbc3127ad	-0.010812682
82	0x3c48e17f	0.012260794
83	0xbd41e51e	-0.047337644
84	0x3c1494fc	0.009068724
85	0xbd3dd926	-0.046349667
86	0xbc812e5a	-0.015769172
87	0xbc18f482	-0.009335639
88	0x3c50ea7f	0.012751221
89	0xbcc5d9ce	-0.024151709
90	0x3b9e96b6	0.0048397435
91	0xbc39fe2a	-0.011352101
92	0x3c15ef9e	0.0091513675
93	0xbd02085d	-0.031746257
94	0x3c01e278	0.0079275295
95	0x3d28b2c2	0.0411861
96	0x3bc03cb5	0.005866612
97	0xbcdc8f8f	-0.026923923
98	0xbb2a8ad9	-0.00260227
99	0xbd0fedc6	-0.035138868
100	0xbd061ef3	-0.03274436
101	0x3be03e65	0.0068433755
102	0xbcb5e7e1	-0.022205295
103	0xbc9032fe	-0.01760244
104	0xbd0cb4b1	-0.03435201
105	0xbd118e9b	-0.03553639
106	0xbcd76375	-0.026292542
107	0xbc4fc144	-0.012680355
108	0xbcf9b4bb	-0.030481687
109	0xbbaa86b6	-0.005204047
110	0xbc89e5ef	-0.016833274
111	0x3a8d29c1	0.001076989
112	0xbc4e8a08	-0.012606151
113	0xbd260f8e	-0.040542178
114	0x3cc14b4f	0.02359548
115	0xbc145976	-0.009054532
116	0xbcab6852	-0.020923767
117	0x3b2c57f4	0.0026297541
118	0x3ca9dfd0	0.020736605
119	0xbc05c238	-0.008163981
120	0xbd41c413	-0.04730613
121	0xbc070e7c	-0.008243199
122	0x3c5d9f6a	0.013526777
123	0xbc3db817	-0.011579535
124	0x3c84c8ab	0.016208967
125	0xbcda136b	-0.026620587
126	0x3b8c7963	0.0042869314
127	0x3c6c10e4	0.014408324
128	0xbce258c1	-0.027630212
129	0x3c97566c	0.018473826
130	0xbb925981	-0.004466236
131	0x3cd53ba1	0.02602941
132	0x3cac299c	0.021015935
133	0xbd24e831	-0.040260497
134	0xbcb92873	-0.022602296
135	0x3c48d002	0.012256624
136	0xbb6a010d	-0.0035706193
137	0x3a2f4ae7	0.00066868815
138	0xbb60fff4	-0.0034332247
139	0xbd5cc1d6	-0.053895794
140	0xbc769dd1	-0.015052275
141	0xbcd31fc5	-0.025771985
142	0x39a524e9	0.00031498753
143	0x3d035db9	0.032071803
144	0x3c2b027b	0.010437603
145	0xbc891e90	-0.016738206
146	0xbbec6983	-0.0072147264
147	0x3ca436cc	0.02004566
148	0xbd0ec27d	-0.034853447
149	0xbc125a82	-0.008932712
150	0xbc257bb3	-0.010100293
151	0x3d0bca97	0.03412875
152	0xbb5a3bc6	-0.0033299788
153	0xbcf6af53	-0.030112898
154	0xbc25c84b	-0.010118554
155	0x3c1e8d73	0.009677279
156	0xbd105dfd	-0.035245884
157	0xbcc585a9	-0.024111586
158	0x3cd2afee	0.025718655
159	0xbd31f969	-0.043450747
160	0x3d1c4f0b	0.03816132
161	0xbd0d5488	-0.034504443
162	0x3d41219a	0.047151186
163	0xbc13ec46	-0.0090285
164	0x3c17d4e6	0.009267068
165	0x3b1ba7a9	0.0023751056
166	0xbd0cba1f	-0.034357186
167	0x3c181385	0.009281998
168	0xbd117519	-0.035512064
169	0xbc9619e6	-0.018322896
170	0xbc7af6aa	-0.015317598
171	0x3cfdae96	0.030967038
172	0xbccaaf24	-0.024741717
173	0xbb320bdf	-0.002716772
174	0xbc6fe6ea	-0.014642457
175	0xbc560269	-0.013062098
176	0xbbf28574	-0.0074011628
177	0xbcac83f9	-0.021059023
178	0xbc42e1e5	-0.011894678
179	0xbc2c5b08	-0.01051975
180	0x3c165702	0.009176018
181	0x3bc264ed	0.0059324414
182	0xbc14eb55	-0.009089311
183	0xbc9499c3	-0.018139726
184	0x3c91990e	0.017773177
185	0xbcd5892b	-0.026066383
186	0xbccbefff	-0.024894712
187	0xbbe3d4f7	-0.0069528776
188	0x3c2c87a6	0.010530388
189	0xbd2be80c	-0.041969344
190	0x3c54ae80	0.012981057
191	0xba43ae58	-0.0007464639
192	0xbcb80544	-0.022463448
193	0xbd0dba82	-0.034601696
194	0xbc4a3118	-0.012340806
195	0xbbad328c	-0.0052855667
196	0x3b2715fe	0.0025495286
197	0x3b89e663	0.0042083724
198	0x3bf30092	0.0074158395
199	0x3d02a59c	0.03189622
200	0xbb031fab	-0.002000789
201	0x3d2ec216	0.042665564
202	0xbccf2ac1	-0.025288941
203	0xbc2f78c7	-0.010709948
204	0x3b41d331	0.0029575343
205	0xbc56eccf	-0.013117983
206	0xbd5bb062	-0.05363501
207	0xbc88c59c	-0.01669579
208	0x3bf41e9a	0.007449937
209	0xbcad3082	-0.021141294
210	0x3b8b0836	0.004242922
211	0x3d0af4f8	0.033925027
212	0xbcaeaf70	-0.02132389
213	0x3caacd09	0.020849722
214	0xbb904e10	-0.004403837
215	0x3d11dc17	0.035610285
216	0x3ce80c64	0.02832622
217	0xbcc4b7c2	-0.024013404
218	0x3cd25108	0.025673404
219	0xbce4bedb	-0.027923038
220	0xbb5c880e	-0.003365043
221	0xbcdb0ca4	-0.026739426
222	0x3c4ac81d	0.012376812
223	0x3b290dcf	0.0025795584
224	0xbbd4aa0e	-0.0064899987
225	0xbc5e0c09	-0.013552674
226	0xbb5f3b45	-0.0034062427
227	0xbbfc4534	-0.0076986793
228	0xbc9b6c72	-0.01897261
229	0xbb95c59d	-0.0045706765
230	0xbca4dd0e	-0.020124938
231	0xbc69f387	-0.014279253
232	0xbcb19d69	-0.021681504
233	0xbca47e9e	-0.020079907
234	0xbd10f6a7	-0.035391476
235	0xbc0b9cc6	-0.008521264
236	0x3b8b4630	0.0042503104
237	0x3c7c37f0	0.015394196
238	0xbb2e75b7	-0.0026620456
239	0xbca7256c	-0.020403586
240	0xbce3ce5c	-0.02780836
241	0x3b215789	0.0024618825
242	0xbca81e57	-0.02052228
243	0x3b09d477	0.002103118
244	0xbc7487c3	-0.014924946
245	0xbcdb6e9f	-0.026786147
246	0xbcade8ea	-0.021229226
247	0xbcac4ad6	-0.021031778
248	0xbc99e523	-0.018786019
249	0x3c28005e	0.010253994
250	0xbd3cafbc	-0.04606603
251	0xbd29a5fe	-0.041418068
252	0x3c9426fc	0.018084995
253	0xbcbed66c	-0.023295604
254	0x3ca117c0	0.019664645
255	0x3c0209c4	0.007936899

action_model._discrete_distribution.branches.0.weight f4 [2, 256]
0	0x3d13a493	0.036045622
1	0x3bf3d624	0.007441299
2	0xbce5f826	-0.028072428
3	0x3d0180ad	0.031616855
4	0xbab32ea5	-0.0013670517
5	0x3d481ec3	0.04885746
6	0x3adedef5	0.0017003702
7	0xbd09cae8	-0.033640772
8	0x3d985e34	0.07439843
9	0xbaaae311	-0.0013037642
10	0xbc800fd9	-0.015632557
11	0x3cbdcda8	0.023169354
12	0xbb9b09d0	-0.0047313944
13	0x3d43ae20	0.04777348
14	0x3acd1b33	0.0015648365
15	0xbabb88b1	-0.0014307705
16	0xbc3a6c83	-0.01137841
17	0x3d05ce4d	0.032667447
18	0x3c91e302	0.017808441
19	0x3d56e6a4	0.05246605
20	0xbc1d093c	-0.009584721
21	0xbd487423	-0.04893888
22	0x3b8aff94	0.004241893
23	0x3d80f9ce	0.062976465
24	0x3d53655c	0.051610336
25	0x3d598681	0.05310679
26	0xbba771b2	-0.005109989
27	0x3bc1fe83	0.0059202327
28	0xbbfda402	-0.0077404985
29	0xbc02bc64	-0.007979486
30	0xbb79472f	-0.0038036813
31	0xbb940908	-0.004517678
32	0x3d65637a	0.05600307
33	0x3da87596	0.08225553
34	0xbc03a7b7	-0.008035592
35	0x3c7d5c3b	0.015463884
36	0x3c784539	0.015153223
37	0xbc25f9bf	-0.010130345
38	0x3da01e23	0.07818248
39	0x3d945edc	0.072446555
40	0x3d31d36c	0.04341452
41	0x3c96ef6f	0.018424718
42	0x3cc3f52c	0.023920618
43	0xbd411e03	-0.047147762
44	0x3bb8a8aa	0.0056353407
45	0x3c26c80d	0.010179532
46	0x3c5a730f	0.013333096
47	0xbbd5c241	-0.006523401
48	0x3c74812d	0.014923376
49	0x3d040a3c	0.032236323
50	0x3d776e20	0.060407758
51	0x3d283d71	0.04107422
52	0xbbc04d60	-0.005868599
53	0x3d04ee21	0.03245366
54	0x3d11bd10	0.035580695
55	0x3ce521fd	0.027970308
56	0xbc941553	-0.018076574
57	0x3a114868	0.00055421004
58	0x3cac7149	0.021050112
59	0x3b6a54d6	0.0035756133
60	0xbb05bc88	-0.0020406563
61	0x3c6dc1b7	0.014511517
62	0xbce8b1ed	-0.028405154
63	0x3d70ae2d	0.058759857
64	0xbb7d412c	-0.0038643582
65	0x3cbf7c6c	0.023374759
66	0x3abc01da	0.0014343814
67	0xbbd72a8c	-0.0065663513
68	0x3cdabe4a	0.026702065
69	0x3af9e267	0.0019064666
70	0x3d266927	0.040627625
71	0x397480fd	0.00023317705
72	0xbc6a8751	-0.0143144885
73	0xbbe304f7	-0.006928082
74	0x3c820e72	0.015876029
75	0xbb7893c9	-0.0037929884
76	0x3b331103	0.0027323372
77	0x3c0405b0	0.008057997
78	0xbd47304a	-0.048630036
79	0x3b822c42	0.003972561
80	0x3d04bf40	0.032408953
81	0x3b2d284a	0.002642172
82	0xbcb4c300	-0.02206564
83	0x3caeb8aa	0.021328289
84	0x3d025876	0.031822644
85	0x3b0ce3ca	0.0021498078
86	0x3cc8e91b	0.024525216
87	0x3c7553cc	0.014973592
88	0x3dab9410	0.0837785
89	0x3ca03664	0.019557185
90	0x3c6aa3e3	0.0143213
91	0x39e40bef	0.0004349644
92	0x3ccbca65	0.024876783
93	0xbcc5488b	-0.024082443
94	0xbd2507f1	-0.040290777
95	0x3be367f7	0.006939884
96	0xbcba9e7b	-0.022780648
97	0x3cbb6f12	0.02288011
98	0xba5e62da	-0.0008483358
99	0x3cce2808	0.025165573
100	0xbc1f39c7	-0.009718365
101	0x3cc164e3	0.023607677
102	0x3d082e1b	0.033247095
103	0xbb9564ea	-0.004559149
104	0x3d08bb91	0.033382002
105	0x3c8a904c	0.01691451
106	0x3c801d13	0.015638864
107	0x3cae69e2	0.021290723
108	0x3bdab25e	0.006674095
109	0xbb9371d2	-0.0044996524
110	0x3d1bda7d	0.038050164
111	0xba51e26d	-0.00080064574
112	0xbb61067f	-0.0034336147
113	0xbae93cba	-0.0017794587
114	0x3bf66837	0.0075197476
115	0xbbe1658c	-0.0068785604
116	0x3c2be20d	0.010490906
117	0x3d8223a9	0.06354458
118	0x3c125a6e	0.008932693
119	0x3c9692d2	0.018380556
120	0xbc5265e9	-0.01284168
121	0xbcf07c9d	-0.029356295
122	0x3d3bff80	0.04589796
123	0x3ac9293f	0.0015347375
124	0xbcc08e26	-0.023505282
125	0x3d00df01	0.031462673
126	0x3c3fb48f	0.011700763
127	0x3bae9c2b	0.0053286753
128	0x3d263e3c	0.040586695
129	0x3d262de6	0.040571116
130	0x3b984e9b	0.0046480424
131	0x3d2fbf7e	0.04290723
132	0xbcae98fa	-0.02131318
133	0xbc6cd260	-0.014454454
134	0x3d8bec01	0.068321235
135	0xbbe4718d	-0.006971544
136	0x3c97ddd5	0.018538395
137	0xbc9a3df1	-0.018828364
138	0x3d1ffc8b	0.039059203
139	0x3b5f4975	0.0034070883
140	0x3d180847	0.03711727
141	0x3ca55bc1	0.020185353
142	0x3c89b2df	0.016808925
143	0xbc24ba6c	-0.010054212
144	0x3c212cdd	0.009837356
145	0x3b173c40	0.0023076683
146	0xb8ad9d4a	-8.27858e-05
147	0x3c66f322	0.014096053
148	0xb9033c55	-0.00012515609
149	0x3c99c340	0.01876986
150	0x3d24227d	0.040071953
151	0xbce39ca9	-0.027784662
152	0x3ca56f57	0.020194693
153	0xbc94c2de	-0.018159326
154	0x3d8de8c0	0.06929159
155	0x3c3b0839	0.011415535
156	0x3c50e716	0.012750408
157	0x3c5271af	0.012844487
158	0xbd84d420	-0.06485772
159	0xb9dbf946	-0.00041956658
160	0xbc9cc1f7	-0.019135458
161	0x3bfd9de7	0.0077397707
162	0xbd2f94f6	-0.04286667
163	0xbc287bf5	-0.01028346
164	0x3c728b77	0.014803759
165	0xbc38ff54	-0.011291344
166	0x3c861d9d	0.016371543
167	0x3ca69ead	0.020339334
168	0x3bfaf7bf	0.007658928
169	0x3caf313c	0.021385781
170	0x3c04e945	0.008112256
171	0x3ae4ef05	0.0017466253
172	0x3c300784	0.010743979
173	0x3d77372d	0.060355354
174	0x3cd67d7d	0.026182884
175	0x3cb91654	0.022593655
176	0xbce3281d	-0.027729088
177	0xb99c2aec	-0.00029786618
178	0xbc696d42	-0.0142472405
179	0x3cf6767a	0.03008579
180	0x3d7b1b46	0.061305307
181	0xbc8577e8	-0.016292527
182	0x3b5fdea7	0.003415981
183	0x3d526349	0.051364217
184	0x3b87fcd5	0.004150013
185	0x3cbcfdb6	0.023070198
186	0xbc79926c	-0.015232664
187	0x3c84f839	0.016231643
188	0xbc44ab85	-0.012003784
189	0xbcc40bf6	-0.023931485
190	0xbcbc7dc8	-0.023009196
191	0x3af5d95f	0.0018756798
192	0xbb8c2ac6	-0.00427756
193	0x3c2e0b1b	0.010622765
194	0x3d60e94c	0.05490999
195	0x3d08baf5	0.03338142
196	0x3c98602f	0.018600551
197	0x3d27279c	0.04080926
198	0xbaa43a94	-0.0012529665
199	0x3c15aa37	0.009134821
200	0x3ca209df	0.019780098
201	0xbd2a89b0	-0.041635215
202	0x3bb2822c	0.0054476466
203	0x3d037b2b	0.032099884
204	0xbd503dc1	-0.050840143
205	0x39942680	0.00028257445
206	0xbb4529ed	-0.0030084804
207	0x3d32d284	0.043657795
208	0x3ca069ff	0.019581793
209	0x3c8d0cb1	0.017217966
210	0x3c8de6da	0.017321993
211	0xbcbd7bf8	-0.023130402
212	0x3c9d9783	0.019237285
213	0x3d576fcc	0.052596852
214	0x3b5cf3a5	0.003371456
215	0xbd7a4619	-0.061102007
216	0x3bf74b89	0.0075468463
217	0x3d61ec2c	0.05515687
218	0x3b38c18d	0.0028191537
219	0x3cb84136	0.022492032
220	0x3d61b832	0.055107303
221	0xbd420e13	-0.047376703
222	0xbd28fe00	-0.04125786
223	0x3d80ddba	0.06292291
224	0x3d25f3b6	0.040515624
225	0x3d7f4b3f	0.06232762
226	0x3d40659c	0.046971902
227	0x3bca9b9d	0.0061831013
228	0x3ce21cc6	0.02760161
229	0xbbbe7382	-0.0058121094
230	0x3d158c5d	0.036510814
231	0xbc4b237b	-0.012398596
232	0x3c83e77e	0.016101595
233	0xbb7e3c9c	-0.003879345
234	0xbcae2075	-0.021255711
235	0x3b9ba0bf	0.004749387
236	0x3d88fbeb	0.066886745
237	0xbd033a24	-0.03203787
238	0x3d5c4157	0.05377325
239	0x3c21e5a6	0.009881413
240	0xbb49bc4f	-0.0030782407
241	0x3c3bef5a	0.01147064
242	0x3c8ea3e0	0.017412126
243	0xbd24ec33	-0.04026432
244	0xbb3d43f2	-0.002887961
245	0xbc0d8748	-0.008638211
246	0x3c3dae18	0.011577152
247	0x3c17a735	0.009256174
248	0x3d1f34d4	0.03886874
249	0x3ce91b24	0.028455324
250	0xbc1b3c0c	-0.0094747655
251	0x3cc5aa28	0.024128988
252	0xbaee8ef8	-0.0018200567
253	0x3d527bb4	0.051387504
254	0x3d92fe05	0.07177357
255	0x3c4bc0be	0.01243609

action_model._discrete_distribution.branches.0.bias f4 [2]
0	0xbd1a3ac7	-0.03765371
1	0x3d1a3ac6	0.037653707

action_model._discrete_distribution.branches.1.weight f4 [2, 256]
0	0x3cdbe3a5	0.026841948
1	0xbbf1e505	-0.0073820376
2	0xbb6cb27a	-0.0036117123
3	0x3d23be1d	0.039976228
4	0xbc1d79e8	-0.009611584
5	0x3d63be0b	0.05560116
6	0xbbd6526e	-0.006540588
7	0xbc2baf6f	-0.010478838
8	0x3d840111	0.06445516
9	0xbca48bd0	-0.020086199
10	0x3d031618	0.032003492
11	0x3c89b5d8	0.016810343
12	0xbcd915ab	-0.02649959
13	0x3cc06fdd	0.02349084
14	0xbc165409	-0.009175309
15	0x39911468	0.0002767176
16	0x3c808de7	0.015692664
17	0x3d238e1b	0.039930444
18	0xbbd43143	-0.006475599
19	0x3d030658	0.03198847
20	0x3d11962b	0.035543602
21	0x3be3cc0a	0.0069518136
22	0x3c377116	0.011196395
23	0x3d4f31e0	0.050584674
24	0xbcde6e68	-0.027152255
25	0x3c813628	0.015772894
26	0x3be4fdf8	0.0069882832
27	0x3d93661c	0.0719721
28	0xbc29e02d	-0.010368389
29	0x3973cdb7	0.0002325092
30	0x3c36dfa3	0.011161718
31	0xbac981d1	-0.0015373771
32	0x3cb6bd95	0.022307197
33	0x3ca90252	0.02063099
34	0xbbe3fba9	-0.0069574905
35	0xb96f8e68	-0.00022845867
36	0xbb312ee7	-0.0027036013
37	0x3bf0d3f6	0.0073494865
38	0x3d890986	0.066912696
39	0x3d204a9c	0.039133653
40	0x3d144397	0.03619727
41	0x3c31f4f8	0.010861628
42	0x3c919b1b	0.017774155
43	0x3c0f0fe9	0.008731821
44	0x3d36b677	0.044607606
45	0x3cae7b97	0.021299167
46	0x3c0632f4	0.008190859
47	0x3bf53afa	0.007483837
48	0x3ca01c84	0.019544847
49	0x3bf915c5	0.007601472
50	0x3da87763	0.08225896
51	0xbc830f37	-0.015998466
52	0xbb1ecdd6	-0.0024231574
53	0x3d05ac03	0.032634746
54	0x3c3c2173	0.011482584
55	0x3d58aa8f	0.052897032
56	0xbb928fdf	-0.004472717
57	0x3c43d3bc	0.011952337
58	0x3c7121ce	0.014717532
59	0x3c89df16	0.016830008
60	0xbbde9b05	-0.006793382
61	0xbc732b24	-0.0148418285
62	0xbc3e4072	-0.011612045
63	0x3d19d1c3	0.03755356
64	0x3c0aa7f0	0.008462891
65	0xba7e932e	-0.00097112625
66	0xbc5045f8	-0.012711994
67	0x3c210e45	0.009830062
68	0x3c81cf4f	0.015845923
69	0x3c27670c	0.010217439
70	0x3d0bb559	0.034108493
71	0xbc84b4e0	-0.01619953
72	0x3a4ca2d6	0.0007806247
73	0xbc55703d	-0.013027248
74	0x3c9edfb9	0.019393789
75	0xbc47ca51	-0.012194232
76	0x3c838b1d	0.016057545
77	0x3bf92ffd	0.0076045976
78	0xbd1f5fb9	-0.038909648
79	0x3c8bb7eb	0.017055472
80	0x3cbe5e2d	0.023238266
81	0xbc8ed7a0	-0.017436802
82	0xbb351086	-0.0027628257
83	0x3a928c2c	0.001118069
84	0x3d364b52	0.044505425
85	0x38e37cec	0.00010847472
86	0xbcbd029e	-0.023072537
87	0x3c95befa	0.018279541
88	0x3b62a3c1	0.0034582468
89	0xbc112816	-0.008859655
90	0x3c29958b	0.010350595
91	0xbd181a71	-0.03713459
92	0x3b7013b8	0.0036632847
93	0xb89a3152	-7.352479e-05
94	0x3cb2323c	0.02175247
95	0xbc41cc90	-0.011828557
96	0x3c50f275	0.012753119
97	0x3d7058cf	0.058678444
98	0x3c61a0d5	0.0137712555
99	0xb99fa329	-0.00030448407
100	0xbc100181	-0.008789421
101	0x3d011512	0.031514235
102	0x3d3e8b25	0.046519417
103	0xbb9154b8	-0.004435148
104	0x3caec694	0.021334924
105	0x3d5c9724	0.053855076
106	0x3c201dc5	0.009772723
107	0xbc8907e5	-0.016727397
108	0xbbacd8f8	-0.005274888
109	0xbca32962	-0.019917194
110	0x3d3fb20a	0.04680065
111	0x3a2a7c26	0.0006503485
112	0x3b9b1752	0.0047330046
113	0x3bc417a9	0.005984266
114	0xbd344133	-0.04400749
115	0xbcc7f25a	-0.024407554
116	0xbc0cfd0d	-0.008605254
117	0x3c88174d	0.016612673
118	0xbc80e33d	-0.015733356
119	0x3ba21ebd	0.004947512
120	0xbc70e187	-0.014702207
121	0x3c121217	0.008915446
122	0x3c490161	0.012268395
123	0xbc9d602c	-0.019210897
124	0xbcbbb0f7	-0.022911532
125	0x3cf1170f	0.02942994
126	0xbb249828	-0.0025115106
127	0xbd20704d	-0.0391696
128	0x3cda3ae0	0.026639402
129	0xbd883c5e	-0.06652139
130	0xbd38bdec	-0.045103
131	0xbbe120fd	-0.0068703876
132	0xbc8b007c	-0.016968004
133	0x3d0f95eb	0.035055082
134	0x3d4870cc	0.048935696
135	0xbc0fc4ad	-0.0087749185
136	0x3d199201	0.037492756
137	0x3ceb3631	0.028712364
138	0xbcbbaf0c	-0.022910617
139	0x3c18d38f	0.009327783
140	0x3d379059	0.044815395
141	0x3d422e56	0.04740747
142	0xbc81b58f	-0.015833644
143	0xbcbe19b7	-0.023205621
144	0xbd58f049	-0.05296353
145	0xbb977d5f	-0.0046230997
146	0xbc259a10	-0.010107532
147	0xbcb7c248	-0.022431508
148	0xbbc7ece0	-0.0061012357
149	0x3d13c01d	0.036071885
150	0x3d812502	0.06305887
151	0xbd484c6e	-0.048901014
152	0xbc49bfa8	-0.012313761
153	0x3b8d24ea	0.004307379
154	0x3cd9a645	0.026568541
155	0xbd6f0c80	-0.05836153
156	0x3c6ffeb7	0.014648131
157	0x3c9fb078	0.019493327
158	0x3cecc730	0.028903574
159	0xbbc35c07	-0.0059618982
160	0xbd69180e	-0.056907706
161	0x3ce86030	0.028366178
162	0xbc33d74f	-0.010976627
163	0xbc8ec975	-0.017430047
164	0x3c9ed703	0.019389635
165	0xbb8cda11	-0.0042984565
166	0xbb161df5	-0.002290604
167	0xbd67c7c9	-0.056587014
168	0xbc53db6b	-0.012930731
169	0x3b8f5c20	0.004374996
170	0xbb0f3c05	-0.0021855843
171	0xbc68a45b	-0.014199342
172	0xbc66a1de	-0.014076678
173	0x3cb44a59	0.022008108
174	0x3d0f6412	0.035007544
175	0x3d202d56	0.039105736
176	0xbcf095b8	-0.029368266
177	0xbc1c55f7	-0.00954198
178	0xbd0d671b	-0.034522157
179	0x3c08f58b	0.008359323
180	0xbb0eb5f2	-0.0021775928
181	0x3c7060bb	0.0146715
182	0x3ce81248	0.02832903
183	0x3d4d52cb	0.050127786
184	0x3c828819	0.015934037
185	0xbb3da07e	-0.0028934772
186	0x3c03d287	0.008045799
187	0x3cb564b7	0.022142751
188	0xbcac37b1	-0.02102265
189	0x3bb9723d	0.00565937
190	0xbcaf531d	-0.021401936
191	0x3c46b67e	0.01212847
192	0xbb999e7d	-0.0046880827
193	0x3c269402	0.010167124
194	0x3cc6e17d	0.024277443
195	0x3bf07b51	0.007338919
196	0xbb29d939	-0.0025916828
197	0x3d3f7f13	0.046752047
198	0xbc8a0a9b	-0.01685076
199	0xbd833969	-0.064074345
200	0x3c2a6c4a	0.010401795
201	0x3c84ed64	0.016226478
202	0xbc92dd27	-0.01792772
203	0x3d1b57fa	0.037925698
204	0x3bb36357	0.0054744887
205	0xbb87c7eb	-0.004143705
206	0xbbb270e9	-0.005445589
207	0x3c8f5880	0.017498255
208	0x3c574e3b	0.01314121
209	0x3d590ca1	0.05299056
210	0xbbb22492	-0.0054364884
211	0xbd40a6c2	-0.047034033
212	0x3d2e4746	0.04254844
213	0x3c5e2d30	0.013560578
214	0x3cf1f191	0.029534133
215	0x3ba56549	0.0050474745
216	0x3cc74da6	0.024329018
217	0x3d02f40d	0.031971026
218	0x3d58d7f0	0.05294031
219	0xba5e208c	-0.0008473478
220	0x3cf3c8b2	0.029758785
221	0x3c4366ed	0.011926395
222	0xbbc8db76	-0.0061296774
223	0x3d5db6f6	0.054129563
224	0x3d81474e	0.063124284
225	0x3ca989c1	0.020695569
226	0x3ca1fd09	0.019773977
227	0x3d22e8e2	0.039772876
228	0x3c9b2d9d	0.018942649
229	0xbc278ff9	-0.010227197
230	0x3d1c5ebc	0.038176283
231	0xbd062180	-0.03274679
232	0x3cafbd1f	0.021452485
233	0xbca51cac	-0.020155273
234	0x3a986d23	0.0011629205
235	0x3c817cd2	0.01580659
236	0x3d40679e	0.046973817
237	0x3b441ffc	0.002992629
238	0x3c41e6d8	0.011834823
239	0x3a758d2e	0.0009367046
240	0x3d1381fb	0.03601263
241	0xbc2a83e7	-0.0104074245
242	0x3cabcafb	0.020970812
243	0x3c16c5be	0.009202419
244	0xbc8827de	-0.016620573
245	0xbcba3478	-0.022730097
246	0xbb28cc27	-0.002575645
247	0x3bd3a3a8	0.0064587183
248	0x3d3d908a	0.04628042
249	0xbd4e0319	-0.050295923
250	0x3ad5aea2	0.0016302655
251	0x3c72f185	0.014828091
252	0xbd834fb3	-0.06411686
253	0x3d4a7f85	0.04943802
254	0x3d2186e8	0.039435297
255	0x3bd2eb96	0.0064367754

action_model._discrete_distribution.branches.1.bias f4 [2]
0	0xbce3154e	-0.02772012
1	0x3ce31549	0.02772011

action_model._discrete_distribution.branches.2.weight f4 [2, 256]
0	0x3c0bf3e3	0.008542034
1	0x3bd494a1	0.0064874445
2	0xba90f17e	-0.0011058298
3	0x3ceafafd	0.028684134
4	0xbc44770a	-0.011991272
5	0x3d2fd8e9	0.04293147
6	0x3ce9e7a9	0.028552847
7	0xbc3a61f1	-0.01137589
8	0xbaab769a	-0.0013081611
9	0x3c1f8c9b	0.009738113
10	0xbb4d5cde	-0.003133587
11	0x3d1a93ac	0.037738487
12	0xbc8c1f59	-0.017104791
13	0xba3dce37	-0.0007240506
14	0x3d044eac	0.03230159
15	0x3bddb3e8	0.0067658313
16	0x3c9eadc9	0.019369977
17	0xbc5d7c78	-0.013518445
18	0x3c5fd311	0.013661162
19	0x3d719675	0.058981378
20	0x3d00d92d	0.031457115
21	0xbce7940d	-0.028268838
22	0xbc887aa2	-0.016660038
23	0x3cad4c73	0.021154618
24	0x3c8032ab	0.01564916
25	0x3d40a7df	0.047035094
26	0xbc6bd834	-0.014394809
27	0x3cbde6ac	0.023181282
28	0x3ca80aff	0.020513056
29	0x3c4af1ed	0.012386781
30	0x3c09626a	0.00838528
31	0x3ac0f1dd	0.0014720518
32	0x3d0ceffa	0.034408547
33	0x3cacddd0	0.021101862
34	0x3c1de077	0.009636036
35	0x3bf60e09	0.0075089973
36	0xbc296384	-0.010338668
37	0xbb2669e1	-0.0025392699
38	0x3d11e426	0.03561797
39	0x3d37d7cf	0.044883545
40	0x3d674011	0.056457583
41	0x3d3a7d95	0.04552992
42	0x3cd63383	0.02614761
43	0xbb74840b	-0.003731015
44	0x3cb64b05	0.022252569
45	0xbbbd965d	-0.005785747
46	0x3ca5e40b	0.02025034
47	0x3d0c6053	0.03427155
48	0x3d0ca440	0.03433633
49	0x3c71e760	0.014764637
50	0x3d8ef7ec	0.06980881
51	0x3b9abc65	0.0047221654
52	0x3bf3ba7b	0.0074380017
53	0x3d590a85	0.052988548
54	0x3c1bb68d	0.009503973
55	0x3d4a0719	0.049323175
56	0xbc77c3ee	-0.015122397
57	0xb95e4396	-0.00021196748
58	0x3c2e0e64	0.010623548
59	0xbb6bd98c	-0.0035987822
60	0x35e72e26	1.7224272e-06
61	0x3ca70966	0.020390224
62	0x3c9722d2	0.01844922
63	0x3c2b752f	0.01046495
64	0x3c09de03	0.008414748
65	0x3b4b7f87	0.0031051354
66	0xbb7126fe	-0.0036796923
67	0xbcc5cd6a	-0.0241458
68	0x3d26789e	0.040642373
69	0x3cd58f41	0.026069285
70	0x3cef7139	0.029228793
71	0xbc2e9f66	-0.010658121
72	0xbab1e824	-0.0013573212
73	0x3cd44765	0.02591295
74	0x3d192a96	0.03739413
75	0xbc388599	-0.011262321
76	0xbc93a99b	-0.01802521
77	0xbadbf07a	-0.0016780042
78	0xbcc7b5e0	-0.024378717
79	0x3b7c43b2	0.0038492498
80	0x3c8f835d	0.017518694
81	0x3b949d07	0.0045353207
82	0x3ccdad43	0.025107032
83	0x3d423cd0	0.047421277
84	0x3d4d4b45	0.05012061
85	0x3c972ddd	0.018454487
86	0x3cb015a5	0.021494696
87	0x3c55570f	0.013021245
88	0xbbaaddc0	-0.005214423
89	0x3cbb5327	0.022866799
90	0x3ce184c8	0.027529135
91	0x3cdbd517	0.026835008
92	0x3b8e026e	0.0043337857
93	0x3acfca52	0.0015853143
94	0x3c3e48e2	0.011614056
95	0xbc3c05b1	-0.011475966
96	0x39a7d4d7	0.000320113
97	0x3c5f2dda	0.013621772
98	0x3d4caae5	0.049967665
99	0xbb505f48	-0.0031795073
100	0x3cea0d59	0.028570818
101	0x3cee59a1	0.029095473
102	0x3d1c36c2	0.03813816
103	0x3d008359	0.031375263
104	0x3c85fed7	0.016356869
105	0x3cd28c16	0.025701564
106	0x3d1f0481	0.038822655
107	0x3c8ebc65	0.017423818
108	0xbbab292e	-0.005223415
109	0xbb896200	-0.0041925907
110	0x3d40b8a7	0.0470511
111	0x3ce381a1	0.027771773
112	0x3c2ba6aa	0.0104767475
113	0x3caa5bf9	0.02079581
114	0xbc7d812b	-0.015472691
115	0x3bc1a326	0.0059093414
116	0xbc807b02	-0.015683655
117	0xbb203135	-0.0024443392
118	0xbc8196ac	-0.015818916
119	0xbc33cf2b	-0.010974686
120	0xb9bfbb2a	-0.00036569807
121	0x3ca0319c	0.019554906
122	0xbb8d4002	-0.004310609
123	0x3c9c8aa3	0.019109076
124	0x3c81f066	0.015861701
125	0x3cc005b6	0.023440223
126	0x3cd75f8a	0.026290674
127	0xbc8c0c2e	-0.017095651
128	0x3cfed4ac	0.03110727
129	0xbbe6a395	-0.0070385435
130	0x3d2d4d43	0.04231001
131	0xbc190bbf	-0.009341179
132	0xbcae7dc9	-0.021300213
133	0x3d0427cf	0.032264527
134	0x3d05f025	0.032699723
135	0xbb27eb6b	-0.0025622498
136	0x3cb17a79	0.021664845
137	0xbb85fdca	-0.004089092
138	0x3b5e5140	0.003392294
139	0x3b634768	0.0034680013
140	0xbb23ee82	-0.0025013988
141	0x3d088fda	0.033340313
142	0x3cb89df2	0.022536252
143	0x3d0a14f6	0.033711396
144	0x3c38892a	0.011263171
145	0x3c907677	0.017634613
146	0x3c9fb866	0.019497108
147	0x3b71ed67	0.0036915184
148	0xbc7da356	-0.015480837
149	0x3cea4232	0.028596018
150	0x3d6e0c8d	0.058117438
151	0x3b99da90	0.004695244
152	0x3cb741a0	0.02237016
153	0x3b43e0bd	0.0029888593
154	0x3d219af8	0.03945443
155	0x3b295db5	0.0025843207
156	0x3b8e2feb	0.0043392084
157	0xbae229f5	-0.0017254936
158	0x3c3f410d	0.011673224
159	0x3b21c756	0.0024685464
160	0xbcd69065	-0.0261919
161	0x3cd12f8f	0.025535373
162	0xbd30403a	-0.04303
163	0x3cc8da14	0.02451805
164	0x3cfa7a0c	0.030575775
165	0x3b8cc510	0.0042959526
166	0x3c63f4be	0.013913332
167	0x3b9ace53	0.004724303
168	0x3cca4f2f	0.02469596
169	0xb74e201f	-1.2286036e-05
170	0x3cbf20cc	0.023331068
171	0x3aba1aff	0.0014198719
172	0x3be81141	0.007082135
173	0x3a9a935e	0.0011793186
174	0x3d40f00f	0.047103938
175	0x3d6036bb	0.054739695
176	0x3b46e9ad	0.0030351684
177	0x3c068b13	0.008211869
178	0x3cb66f8d	0.022269988
179	0x3cfd44c9	0.030916588
180	0x3d97cc96	0.074120685
181	0x3d3fcdd4	0.046827152
182	0x3ccf54d4	0.025309004
183	0x3d00221f	0.03128254
184	0xbd1bb6f4	-0.038016275
185	0x3cd8d148	0.02646698
186	0x3c0e6e19	0.0086932415
187	0x3d047e46	0.032346986
188	0x3c4e3aff	0.012587308
189	0x3c237cc6	0.009978479
190	0xba9729b3	-0.0011532813
191	0xbb7f277a	-0.0038933442
192	0xbba6ebfc	-0.0050940495
193	0x3bec1339	0.00720444
194	0x3d602ec3	0.054732095
195	0x3cb41e91	0.021987231
196	0x3cf507c5	0.029910931
197	0x3c8c0733	0.017093277
198	0x3d1d61a6	0.038423203
199	0xbc99d9b3	-0.018780565
200	0x3c1a2094	0.009407181
201	0x3b26873d	0.0025410198
202	0xbb6b2fb6	-0.0035886592
203	0x3d216500	0.03940296
204	0x3d33b292	0.04387147
205	0xbc7b21b8	-0.015327863
206	0xbc27502d	-0.0102119865
207	0x3d072ee5	0.033003706
208	0x3d121eba	0.035673834
209	0x3ccbcf58	0.024879143
210	0xbc2db19e	-0.010601429
211	0x3b59a1c5	0.0033207994
212	0x3cbabb3b	0.022794357
213	0xbcf45cc1	-0.029829385
214	0x3d2ada4b	0.041712087
215	0x3b9d1d75	0.0047947713
216	0x3caa9c35	0.020826438
217	0x3d2d587e	0.04232072
218	0x3b9a7c0c	0.0047144946
219	0x3c8acbc5	0.016942868
220	0xbc878169	-0.0165412
221	0x3cb08bfd	0.021551127
222	0xbcd87fca	-0.026428122
223	0x3d373a8b	0.044733565
224	0x3d2eb204	0.042650238
225	0x3c1d3188	0.009594329
226	0x3c5cf84b	0.013486932
227	0x3c81cdd6	0.01584522
228	0x3c8238f0	0.01589629
229	0xbc76aaf9	-0.0150554115
230	0x3d64b804	0.055839553
231	0x3bbea735	0.0058182725
232	0x3ccd3599	0.025049971
233	0x3ce6eb97	0.02818851
234	0xbaf745d9	-0.0018865421
235	0xbb401349	-0.002930837
236	0x3d54b224	0.0519277
237	0xbca54dae	-0.020178642
238	0x3c970fe1	0.018440189
239	0x3c8bbed6	0.017058771
240	0x3b94a346	0.0045360653
241	0xbca5e52f	-0.020250885
242	0x3d06334a	0.032763757
243	0x3da22fd4	0.07919279
244	0xbb93063d	-0.0044868276
245	0x3c72270b	0.014779816
246	0xbc13f860	-0.009031385
247	0x3cb6520a	0.022255916
248	0x3caa60ab	0.020798048
249	0xbcbf6fc2	-0.02336872
250	0xbbffadd3	-0.007802704
251	0x3cb411a1	0.021981062
252	0x3c04bb34	0.008101273
253	0x3ceb986e	0.028759208
254	0x3d6b73d3	0.057483505
255	0x3b55662b	0.0032562118

action_model._discrete_distribution.branches.2.bias f4 [2]
0	0xbc994132	-0.018707845
1	0x3c99413c	0.018707864
