Assets/results/day3_2323/TrafficLightBrain/TrafficLightBrain-362566.onnx (onnx, 403823 bytes, 21 tensors)

discrete_act_size_vector f4 [1, 8]
2.0 2.0 2.0 2.0 2.0 2.0 2.0 2.0
00000000: 0000 0040 0000 0040 0000 0040 0000 0040
00000010: 0000 0040 0000 0040 0000 0040 0000 0040

network_body._body_endoder.seq_layers.0.weight f4 [256, 100]
-0.118729174 0.15193018 -0.081861526 -0.07393638 0.07746054 0.031431314 -0.14884478 -0.16707824
0.14175658 -0.062072635 0.06729878 0.034564093 -0.14618194 -0.07214143 -0.2834677 0.16003883
-0.08266138 0.023627436 0.14497852 0.06511625 -0.00040250726 0.020839246 0.033030197 -0.0590327
0.00817969 0.08488424 0.042775612 0.21744667 -0.135972 -0.06685832 0.12692647 -0.12889476
0.10969242 0.017398259 -0.18411626 0.035907473 -0.039048105 -0.088355504 0.010006114 0.062171817
0.10916896 -0.1051262 0.061774015 -0.17587584 0.17981379 -0.027070139 0.13415699 0.26883993
-0.014790836 0.07564357 -0.07556771 0.034691833 0.05074292 -0.03065001 -0.084735736 -0.023489254
0.045613736 0.018349772 0.09176373 -0.20415233 0.17926764 0.044635493 0.027687002 0.065988354
0.127786 0.090000056 0.02225423 -0.021434415 0.20822017 -0.02707221 0.03614903 0.051972058
-0.019091316 0.019786408 -0.078472555 0.25715917 0.012316692 -0.058646273 0.17225356 -0.15402718
0.046844695 -0.029768517 0.02207878 0.0018325655 -0.032830216 0.06835442 -0.031208033 0.00918568
-0.032204133 0.03694535 -0.018337576 0.044364925 -0.0057824184 0.00797624 -0.10574055 -0.03922958
-0.1258273 0.007506478 -0.048574753 -0.020899279 0.17558707 0.046719916 -0.07972456 -0.061423246
0.074160926 0.04829256 0.23450862 -0.14261152 -0.0093212435 0.12196574 -0.090147346 0.01773344
0.0034419324 -0.0076837726 -0.1604317 0.16635941 -0.028349577 0.13163064 0.104506075 0.20243894
-0.11428581 -0.030205823 0.008161906 0.0057497886 -0.07780696 -0.055638757 -0.14130187 0.10023755
-0.032594405 0.0033734057 0.07141879 -0.0536563 -0.046673525 0.10325431 -0.21375565 0.15716974
-0.039185252 0.09875815 0.00010117978 -0.07580667 0.020394467 0.13744597 -0.03776807 0.032910887
-0.059410226 0.1494259 0.13826108 0.10400722 0.04582077 0.11692941 0.08812866 -0.048040736
0.058515824 -0.12874861 0.065148756 -0.117906466 -0.08154603 0.07561522 0.021530995 0.03486536
0.02776495 -0.08589269 -0.08840924 -0.048304167 -0.142906 -0.032225747 0.046451233 -0.06199775
-0.12356793 0.036095116 -0.057284135 0.044693653 -0.053803653 0.020844406 -0.015625745 -0.022702465
0.089247674 -0.20572634 -0.21301988 0.025236903 -0.08439644 0.15392703 -0.109605804 0.16392633
0.036791135 -0.10144222 0.09370854 0.09760382 -0.09963781 0.08907864 0.1243114 0.014350331
0.16230784 -0.050857913 -0.06420838 -0.1744024 -0.0017229675 -0.09084176 -0.11839887 0.01213451
0.011641003 0.10123325 -0.025189482 0.0028196066 0.1861427 0.13873653 0.038341768 0.011841542
-0.04809986 -0.099502705 0.16058046 -0.07456885 -0.020640142 -0.084236376 -0.059470583 0.060665462
0.026941592 -0.002792633 0.19242452 0.17449513 -0.07985789 0.10575349 -0.12799595 0.18287085
0.0010357006 -0.122485965 0.028603746 -0.114319384 0.05756278 -0.026805084 -0.058122396 -0.012907763
0.18018134 -0.014994286 -0.09050455 -0.12288114 0.11533413 -0.13715029 0.13044637 -0.01642832
-0.01192304 -0.06958002 0.110373154 0.065101355 0.24555492 -0.028019508 -0.12861685 -0.027858987
0.03653482 -0.16584234 0.0018539382 -0.21328099 -0.082932934 -0.146247 0.24494083 -0.09269795
00000000: 4828 f3bd 9693 1b3e 04a7 a7bd f56b 97bd
00000010: a2a3 9e3d 1fbe 003d c46a 18be 8f16 2bbe
00000020: a328 113e e03f 7ebd f1d3 893d 1493 0d3d
00000030: b8b0 15be e3be 93bd ae22 91be 38e1 233e
00000040: 5f4a a9bd 538e c13c 4075 143e ab5b 853d
00000050: 9c07 d3b9 11b7 aa3c ac4a 073d 46cc 71bd
00000060: 1b04 063c cad7 ad3d 7b35 2f3d 57aa 5e3e
00000070: 3e3c 0bbe 04ed 88bd 03f9 013e fdfc 03be
00000080: 6ba6 e03d cb86 8e3c f988 3cbe b713 133d
00000090: e8f0 1fbd bbf3 b4bd aff0 233c e0a7 7e3d
000000a0: fa93 df3d 684c d7bd c006 7d3d cc18 34be
000000b0: 1b21 383e 32c2 ddbc 7360 093e 63a5 893e
000000c0: 4355 72bc 04eb 9a3d 3ec3 9abd 0619 0e3d
000000d0: cfd7 4f3d bb15 fbbc ee89 adbd 896c c0bc
000000e0: 78d5 3a3d 4352 963c 9fee bb3d 4f0d 51be
000000f0: f091 373e b5d3 363d dacf e23c e724 873d
00000100: 55da 023e f351 b83d 814e b63c 3a97 afbc
00000110: ab37 553e 8ac6 ddbc 0111 143d a7e0 543d
00000120: 6465 9cbc 1b17 a23c 38b6 a0bd 5eaa 833e
00000130: f3cb 493c 1337 70bd 3d63 303e 4db9 1dbe
00000140: 39e0 3f3d 1bdd f3bc 8fde b43c b232 f03a
00000150: fa78 06bd 67fd 8b3d fda7 ffbc 897f 163c
00000160: 7be8 03bd 0254 173d af38 96bc ffb7 353d
00000170: 717a bdbb c6ae 023c 808e d8bd 32af 20bd
00000180: dfd8 00be e7f8 f53b 52f6 46bd f734 abbc
00000190: 19cd 333e 625d 3f3d a146 a3bd f196 7bbd
000001a0: afe1 973d 6bce 453d 0723 703e c108 12be
000001b0: 21b8 18bc 2dc9 f93d 2c9f b8bd b845 913c
000001c0: 0b92 613b 28c8 fbbb 3548 24be 1f5a 2a3e
000001d0: 5f3d e8bc 2fca 063e 4807 d63d 274c 4f3e
000001e0: ae0e eabd 3472 f7bc 84b9 053c b968 bc3b
000001f0: 4159 9fbd 77e5 63bd 70b1 10be 5849 cd3d
00000200: b681 05bd 5b14 5d3b 0444 923d b5c6 5bbd
00000210: bd2c 3fbd ff76 d33d c3e2 5abe 1bf1 203e
00000220: b780 20bd b741 ca3d 7b30 d438 8740 9bbd
00000230: 4c12 a73c a3be 0c3e b1b2 1abd 91cd 063d
00000240: 2358 73bd 1a03 193e 5094 0d3e bd01 d53d
00000250: 8fae 3b3d b078 ef3d cd7c b43d 5dc6 44bd
00000260: 4aae 6f3d add6 03be b66c 853d f278 f1bd
00000270: 9b01 a7bd 27dc 9a3d c561 b03c fbce 0e3d
00000280: 5273 e33c 82e8 afbd e70f b5bd 97da 45bd
00000290: f355 12be 25ff 03bd a643 3e3d 5af1 7dbd
000002a0: 2f11 fdbd 79d8 133d c5a2 6abd b110 373d
000002b0: 3861 5cbd e3c1 aa3c 9001 80bc 85fa b9bc
000002c0: 7cc7 b63d eda9 52be e221 5abe 9fbd ce3c
000002d0: 0ad8 acbd 0c9f 1d3e 0279 e0bd 4edc 273e
000002e0: 4db2 163d f0c0 cfbd 43ea bf3d 83e4 c73d
000002f0: e80e ccbd dd6e b63d fa96 fe3d a71d 6b3c
00000300: 0734 263e 6350 50bd af7f 83bd 8b96 32be
00000310: 32d5 e1ba 3f0b babd 1b7b f2bd d3cf 463c
00000320: e8b9 3e3c 6153 cf3d 2c5a cebc 26c9 383b
00000330: 319c 3e3e f310 0e3e 420c 1d3d 0703 423c
00000340: 5c04 45bd 13c8 cbbd 346f 243e 8eb7 98bd
00000350: 8415 a9bc 1f84 acbd 6d97 73bd 597c 783d
00000360: 9db4 dc3c 9b04 37bb ef0a 453e daae 323e
00000370: 898c a3bd 4995 d83d 5f11 03be 7f42 3b3e
00000380: 58c0 873a ecd9 fabd 6752 ea3c 4820 eabd
00000390: f3c6 6b3d 5696 dbbc c011 6ebd 157b 53bc
000003a0: 7581 383e 98aa 75bc 735a b9bd 1ba9 fbbd
000003b0: 4d34 ec3d 2071 0cbe bc93 053e af94 86bc
000003c0: db58 43bc f87f 8ebd 520b e23d dc53 853d
000003d0: c072 7b3e 2b89 e5bc 23b4 03be 8838 e4bc
000003e0: 89a5 153d 93d2 29be d8ff f23a 5566 5abe
000003f0: bed8 a9bd c6c1 15be c5d1 7a3e 6cd8 bdbd

network_body._body_endoder.seq_layers.0.bias f4 [256]
0.0044127414 0.03114068 0.020790642 0.02687017 0.0021651867 -0.07048172 -0.015568132 0.037528697
-0.0061175413 0.018887093 -0.042842243 -0.007873512 0.03999604 0.019502254 0.032433175 0.05285995
0.025637876 -0.012983458 0.005195169 0.015446779 -0.04289411 0.012998907 -0.033642385 -0.020688113
-0.032043904 0.044123523 -0.013060845 0.018904852 -0.05365549 -0.023989238 -0.007717864 -0.05805954
-0.0030458865 -0.006302004 0.00941033 -0.0003395195 0.017306257 0.028634926 -0.0031540433 0.05094077
0.045622725 0.01934521 0.0111127915 0.0068910983 -0.046427425 0.008025526 0.051697664 0.023646502
-0.026865488 -0.007277454 -0.024101954 -0.01588773 -0.033815537 0.03358537 0.039712552 0.0026975905
-0.016340723 0.031792954 0.033455823 0.0051078717 -0.016672269 -0.024083285 0.0009038288 0.050956342
0.026281143 -0.03848109 -0.024164215 0.024307447 0.044538848 -0.0039545833 -0.056773126 -0.043246992
0.035846934 0.015025344 0.061882455 0.016957734 0.008059162 -0.013575485 0.016163109 0.058896553
0.02228431 -0.048331354 0.03670079 0.0037160562 -0.0099118585 0.02850668 -0.07056583 0.027871842
0.009817591 0.049271856 -0.015598549 -0.06288688 -0.00019601625 -0.002517568 0.016494201 0.04545726
0.021510083 -0.015717024 0.026005335 0.03850111 -0.067599416 -0.027157992 -0.06421835 -0.031589676
0.031614725 0.021885734 -0.063086435 -0.015933674 -0.04027156 0.0060300394 0.03724592 0.037544545
-0.056715485 0.006749905 -0.012588953 -0.022629002 0.07185341 -0.024802286 -0.0075335074 -0.020180548
-0.05451343 0.0045541096 0.016721608 -0.016068071 -0.027575342 -0.018049704 -0.04290284 0.03237713
0.06756373 0.0072766184 -0.044321705 0.059403226 0.022994218 -0.018503679 -0.008248934 -0.030826684
0.0123496605 -0.008728694 0.026689516 0.025440637 0.036904607 -0.011740015 0.009282631 0.017216291
-0.0053445892 -0.025563996 0.012479991 -0.003172658 -0.03480999 -0.05775094 -0.04170329 0.030274363
-0.02485331 -0.0449546 -0.03924823 0.0022032321 0.023264846 -0.012595551 0.025874997 0.06311419
0.016519561 -0.03341152 -0.029085094 0.031675246 0.07370031 -0.05442512 0.028069384 0.021288577
0.012956816 0.030795276 0.053095408 -0.033550262 -0.03759861 -0.06770336 0.06147102 0.027725687
-0.021112386 0.012223968 -0.009382827 0.012824031 0.0041319174 -0.014012842 0.08325281 -0.016214807
-0.029432902 0.006680984 -0.027279165 -0.04453135 -0.04772557 0.040482517 -0.014033228 0.035102453
0.06003356 -0.00832298 -0.0012278329 0.015033537 0.029743362 0.062298246 0.030991552 0.031722244
0.060358193 0.047184642 -0.023789983 -0.062239166 0.089251205 0.020299274 -0.048289083 -0.03435043
-0.013990655 -0.002866059 -0.019088583 -0.038486626 0.07439182 -0.032058477 -0.025513183 0.017559357
0.010597751 0.032576278 0.022656726 0.07440284 -0.041442156 -0.034835804 0.0046362947 0.045870386
-0.035144694 0.024570884 -0.02913637 -0.030431509 0.013208366 0.002712126 -0.038051087 0.017533509
-0.038659386 -0.021241548 0.010974152 0.05841429 -0.0006258549 0.00010091906 0.051346272 -0.017698752
0.027732313 0.0004009943 -0.041536607 0.039423198 0.021356555 0.030960046 0.06031125 0.0017737759
0.014989547 -0.053379256 0.09286101 -0.06410408 -0.017408911 -0.02575793 0.054822057 0.05206271
00000000: c298 903b bd1a ff3c 2351 aa3c d51e dc3c
00000010: cee5 0d3b b858 90bd 7a11 7fbc b1b7 193d
00000020: a875 c8bb 1bb9 9a3c 597b 2fbd e7ff 00bc
00000030: e3d2 233d 31c3 9f3c a6d8 043d ad83 583d
00000040: 8606 d23c 92b8 54bc 3c3c aa3b 7d14 7d3c
00000050: bcb1 2fbd 5ef9 543c 99cc 09bd 1e7a a9bc
00000060: 7840 03bd deba 343d 28fd 55bc 59de 9a3c
00000070: dcc5 5bbd 1485 c4bc 23e6 fcbb d7cf 6dbd
00000080: 7f9d 47bb 0b81 cebb c92d 1a3c 8901 b2b9
00000090: dac5 8d3c cb93 ea3c 11b4 4ebb 45a7 503d
000000a0: e5de 3a3d d979 9e3c 6d12 363c b9ce e13b
000000b0: af2a 3ebd 7f7d 033c eec0 533d 4fb6 c13c
000000c0: 0315 dcbc b577 eebb 7671 c5bc fc26 82bc
000000d0: 2982 0abd d090 093d a1a9 223d 0fca 303b
000000e0: fbdc 85bc 5439 023d f908 093d ef5f a73b
000000f0: 4894 88bc 4f4a c5bc edee 6c3a 99b7 503d
00000100: 8d4b d73c 599e 1dbd 08f4 c5bc 6920 c73c
00000110: 5e6e 363d 7395 81bb f08a 68bd c223 31bd
00000120: 3cd4 123d dc2c 763c 7578 7d3d f2ea 8a3c
00000130: 930a 043c b66b 5ebc 7f68 843c 833d 713d
00000140: 968d b63c 19f7 45bd 9153 163d 1489 733b
00000150: 5965 22bc d786 e93c d184 90bd 7d53 e43c
00000160: f6d9 203c 49d1 493d 0e91 7fbc d6ca 80bd
00000170: b689 4db9 c8fd 24bb d91e 873c 6431 3a3d
00000180: ea35 b03c fdc0 80bc 2409 d53c 57b3 1d3d
00000190: 9071 8abd 707a debc e984 83bd 2d64 01bd
000001a0: 717e 013d b649 b33c 7633 81bd 5687 82bc
000001b0: cbf3 24bd a397 c53b 2e8f 183d 4fc8 193d
000001c0: 7f4e 68bd 4f2e dd3b e541 4ebc 7560 b9bc
000001d0: e127 933d 2a2e cbbc a4db f6bb ad51 a5bc
000001e0: 7949 5fbd a43a 953b c1fb 883c 30a1 83bc
000001f0: afe5 e1bc f9dc 93bc e3ba 2fbd e29d 043d
00000200: da5e 8a3d b370 ee3b ad8a 35bd cc50 733d
00000210: 5f5e bc3c 0795 97bc 8926 07bc 3e88 fcbc
00000220: 3b56 4a3c cc02 0fbc f9a3 da3c e268 d03c
00000230: 4929 173d 3159 40bc 2d16 183c 2e09 8d3c
00000240: aa21 afbb 966b d1bc e078 4c3c 5eec 4fbb
00000250: ec94 0ebd 408c 6cbd 12d1 2abd f101 f83c
00000260: 2b99 cbbc 5122 38bd c1c2 20bd 1a64 103b
00000270: eb95 be3c 925d 4ebc cdf7 d33c 0342 813d
00000280: 0854 873c 85da 08bd dd43 eebc e7bd 013d
00000290: 30f0 963d e0ec 5ebd c4f1 e53c 6265 ae3c
000002a0: d348 543c 6046 fc3c 927a 593d 006c 09bd
000002b0: 0001 1abd 0fa8 8abd 09c9 7b3d fb20 e33c
000002c0: e2f3 acbc 0a47 483c 6eba 19bc e21b 523c
000002d0: 0965 873b 1f96 65bc 7380 aa3d ead4 84bc
000002e0: 451d f1bc 28ec da3b 8e78 dfbc 8166 36bd
000002f0: e37b 43bd ffd0 253d a0eb 65bc 97c7 0f3d
00000300: c0e5 753d 1c5d 08bc 3cef a0ba 394f 763c
00000310: 5aa8 f33c 722c 7f3d ffe1 fd3c 2fef 013d
00000320: 273a 773d af44 413d 36e3 c2bc 7fee 7ebd
00000330: 56c9 b63d aa4a a63c c6ca 45bd 09b3 0cbd
00000340: 0f39 65bc 7ed4 3bbb a95f 9cbc 27a4 1dbd
00000350: bd5a 983d c04f 03bd 0601 d1bc a4d8 8f3c
00000360: 30a2 2d3c b46e 053d 999a b93c 8460 983d
00000370: 40bf 29bd fdaf 0ebd 0fec 973b 96e2 3b3d
00000380: e2f3 0fbd e148 c93c 66af eebc 804b f9bc
00000390: e767 583c ecbd 313b 75db 1bbd 6fa2 8f3c
000003a0: 4e59 1ebd c102 aebc eecc 333c d343 6f3d
000003b0: 6910 24ba 82a4 d338 7850 523d f9fc 90bc
000003c0: e02e e33c 8b3c d239 4a22 2abd 387a 213d
000003d0: f1f3 ae3c ec9f fd3c ee08 773d 0b7e e83a
000003e0: b896 753c 35a4 5abd ea2d be3d 0049 83bd
000003f0: 229d 8ebc 4b02 d3bc 188d 603d b53f 553d

network_body._body_endoder.seq_layers.2.weight f4 [256, 256]
-0.07445634 -0.068789355 -0.050906613 -0.09761254 -0.019737788 0.016739154 -0.062224127 -0.014338978
-0.044754684 0.061037503 0.1043447 -0.04786161 -0.002730431 -0.07795707 0.007906776 0.09950041
-0.00055163255 -0.07675896 0.020592561 -0.01387653 -0.07424999 0.022959895 0.01956552 0.010597867
0.049164943 -0.04450546 0.025178649 0.09356996 -0.0168256 0.01105213 -0.014769182 -0.042409435
-0.022022666 -0.085411765 0.03731054 0.04676462 0.038137782 0.06301376 0.08191902 -0.06486843
-0.02697149 0.0019915327 -0.16172329 -0.11194427 0.048012197 0.04076084 -0.054320864 -0.039784744
-0.055970132 -0.08045879 -0.012037669 -0.016645387 -0.011682814 -0.108382665 -0.018018665 0.017357426
-0.14697054 0.035353567 0.08395518 -0.1765081 -0.048279796 0.030563222 0.004929402 0.03235462
-0.0651658 -0.11568525 0.034514412 0.009744414 -0.015907567 -0.13177036 0.05092627 -0.086055666
0.0033681192 -0.012667869 -0.07660914 0.034321096 0.04591614 0.122257106 -0.0062934603 0.0010207443
0.030122206 -0.014526564 0.026090682 -0.03211282 -0.116789356 -0.01487022 0.1075326 -0.1216604
0.03066928 -0.13109937 0.054755352 -0.0059275436 -0.014325054 -0.032493595 -0.0756322 -0.07034177
-0.013315557 0.017515697 -0.11157949 0.0037697072 0.05371855 -0.013104843 0.032670803 -0.08255015
0.076556444 0.082330175 -0.026953157 0.056690432 -0.027035259 0.02576964 -0.05083484 -0.10247113
-0.052793425 0.08598126 0.05645056 -0.039948672 -0.04723777 0.032475304 0.023457414 -0.021058392
-0.030081073 -0.05014718 0.07671792 -0.021224124 0.0019429306 0.0051293294 -0.007044746 0.037530977
-0.040243328 -0.043528978 0.017764376 0.011527959 -0.0040929127 -0.016294684 -0.018017078 0.017807232
0.028552348 -0.070724905 -0.18859711 -0.010892733 -0.067298256 -0.095697954 -0.10098086 -0.08973322
-0.020985097 -0.048692394 0.097112395 -0.07420031 0.07491402 0.035022672 0.009430817 0.024132982
-0.011681155 0.0007592116 -0.06908282 -0.059978865 -0.101371236 0.06662714 0.032267727 -0.02155207
-0.048944976 -0.054481067 -0.014219643 -0.03905675 -0.0373807 0.03811908 0.06899737 -0.05068061
0.026009332 0.03366637 -0.02246939 0.01382412 -0.09714608 -0.064073734 -0.051795952 0.12243722
0.04041032 0.06811455 0.034264956 0.00013261609 -0.110190235 -0.0327265 0.0021266907 -0.049149334
-0.042894647 -0.01024035 0.01435401 0.06217545 -0.08998931 0.016118374 0.090349086 -0.0205677
-0.014260054 -0.10391784 0.014994305 -0.02695202 -0.086052276 -0.10778529 -0.015628714 0.041242376
0.06964766 0.082933046 0.100772224 -0.02729237 -0.01839613 -0.074251965 -0.01036783 -0.051577922
0.056097284 0.056249507 -0.0048407544 -0.054285314 0.017074522 0.0031955515 0.07115863 -0.03509411
0.072272256 0.08140805 0.030388111 0.008462204 0.049617838 -0.15858449 0.06724144 -0.05647555
-0.0065711867 -0.05523933 -0.074830666 0.0600997 -0.042235162 -0.05868044 0.04148971 0.02236322
-0.040295217 0.046219613 -0.014598846 -0.14370683 -0.06722139 -0.14565323 -0.014207873 0.100017
-0.08903846 0.04441744 0.009910024 0.08452464 -0.03909864 0.049380872 0.063285135 -0.017453006
0.01939239 0.024078816 0.03856388 -0.09408679 -0.05989004 -0.03367421 -0.14051801 0.008503479
00000000: 917c 98bd 6fe1 8cbd 7483 50bd 15e9 c7bd
00000010: 24b1 a1bc 8d20 893c bade 7ebd 08ee 6abc
00000020: b050 37bd 7602 7a3d adb2 d53d 890a 44bd
00000030: 08f1 32bb f5a7 9fbd 6c8b 013c dfc6 cb3d
00000040: 6f9b 10ba cd33 9dbd bbb1 a83c 635a 63bc
00000050: 6110 98bd 6416 bc3c df47 a03c ada2 2d3c
00000060: 2e61 493d 5b4b 36bd 7443 ce3c 9ba1 bf3d
00000070: d7d5 89bc fe13 353c 70fa 71bc 84b5 2dbd
00000080: e168 b4bc 5dec aebd f0d2 183d 428c 3f3d
00000090: 5d36 1c3d 5c0d 813d 29c5 a73d bdd9 84bd
000000a0: 50f3 dcbc 6084 023b ca9a 25be 0a43 e5bd
000000b0: 70a8 443d d7f4 263d 8e7f 5ebd 54f5 22bd
000000c0: f040 65bd 94c7 a4bd a539 45bc e85b 88bc
000000d0: 4669 3fbc bbf7 ddbd e19b 93bc 2931 8e3c
000000e0: 727f 16be e7ce 103d b2f0 ab3d 8abe 34be
000000f0: 09c1 45bd b95f fa3c d286 a13b 4786 043d
00000100: a675 85bd 63ec ecbd fc5e 0d3d 09a7 1f3c
00000110: 9650 82bc cfee 06be 1198 503d f43d b0bd
00000120: aabb 5c3b e58c 4fbc 41e5 9cbd 4794 0c3d
00000130: 9012 3c3d ef61 fa3d 5f39 cebb 7fca 853a
00000140: d8c2 f63c d300 6ebc 20bc d53c bb88 03bd
00000150: 422f efbd 39a2 73bc 0d3a dc3d 1629 f9bd
00000160: 243e fb3c ea3e 06be 2647 603d d73b c2bb
00000170: a2b3 6abc 0118 05bd 0ee5 9abd 590f 90bd
00000180: 7e29 5abc 147d 8f3c ca83 e4bd 310d 773b
00000190: fb07 5c3d b2b5 56bc d2d1 053d 0e10 a9bd
000001a0: a0c9 9c3d b99c a83d decc dcbc 3a34 683d
000001b0: 0c79 ddbc da1a d33c 3138 50bd 62dc d1bd
000001c0: eb3d 58bd f116 b03d b438 673d 38a1 23bd
000001d0: 647c 41bd d304 053d c329 c03c a682 acbc
000001e0: 956c f6bc 2167 4dbd 491e 9d3d 37de adbc
000001f0: efa9 fe3a ef13 a83b 9dd7 e6bb 15ba 193d
00000200: 30d6 24bd 714b 32bd 9986 913c c4df 3c3c
00000210: d71d 86bb 6e7c 85bc 8d98 93bc 79e0 913c
00000220: 9de6 e93c 38d8 90bd 9a1f 41be 6f77 32bc
00000230: abd3 89bd 4afd c3bd 0ecf cebd 0dc6 b7bd
00000240: f0e8 abbc ad71 47bd dde2 c63d 55f6 97bd
00000250: 866c 993d ef73 0f3d b783 1a3c 88b2 c53c
00000260: 5162 3fbc d405 473a 4b7b 8dbd 66ac 75bd
00000270: b99b cfbd cf73 883d 2a2b 043d f78d b0bc
00000280: 877a 48bd 8a27 5fbd 81f9 68bc f8f9 1fbd
00000290: 811c 19bd c122 1c3d 7e4e 8d3d 7996 4fbd
000002a0: 8611 d53c bfe5 093d ba11 b8bc 907e 623c
000002b0: 86f4 c6bd 1739 83bd fe27 54bd 5dc0 fa3d
000002c0: 4b85 253d a47f 8b3d 6959 0c3d dc0e 0b39
000002d0: 6bab e1bd 390c 06bd f35f 0b3b d050 49bd
000002e0: 4cb2 2fbd 24c7 27bc 152d 6b3c afab 7e3d
000002f0: 514c b8bd ae0a 843c f108 b93d 987d a8bc
00000300: 00a3 69bc e0d2 d4bd acaa 753c 7cca dcbc
00000310: 2d3c b0bd 89be dcbd ca07 80bc c4ed 283d
00000320: 6fa3 8e3d cdd8 a93d ab61 ce3d 4094 dfbc
00000330: 7bb3 96bc 6a11 98bd d5dd 29bc 5f43 53bd
00000340: 44c6 653d e265 663d 319f 9ebb 475a 5ebd
00000350: dedf 8b3c 756c 513b 9ebb 913d d7be 0fbd
00000360: 7a03 943d 44b9 a63d 7df0 f83c 0ea5 0a3c
00000370: 133c 4b3d f963 22be e1b5 893d e852 67bd
00000380: 1c53 d7bb a342 62bd d240 99bd 1a2b 763d
00000390: c7fe 2cbd e75a 70bd 1df1 293d 1233 b73c
000003a0: 990c 25bd c750 3d3d 0030 6fbc e227 13be
000003b0: 5eab 89bd 1f26 15be 23c8 68bc b7d5 cc3d
000003c0: cc59 b6bd 10ef 353d a75d 223c 411b ad3d
000003d0: e525 20bd 9943 4a3d a39b 813d 9bf9 8ebc
000003e0: cadc 9e3c f040 c53c 29f5 1d3d 93b0 c0bd
000003f0: 424f 75bd f8ed 09bd f4e3 0fbe 2d52 0b3c

network_body._body_endoder.seq_layers.2.bias f4 [256]
-0.017403001 -0.020936524 -0.02886894 -0.026125792 0.018065 -0.009262979 0.005313674 -0.002630694
0.0069391825 -0.012973858 -0.02479225 0.0010789551 0.007043408 0.0014816693 -0.008710221 -0.053732093
-0.027950179 -0.0012988013 -0.03149369 -0.0046607843 0.010341769 0.043358706 -0.034090225 -0.010238087
-0.0023587495 0.005474316 0.036024753 0.0036001427 0.017610883 -0.02620852 -0.010337163 -0.040117472
-0.0064707673 0.014952632 -0.02945794 -0.0068984316 -0.016358733 -0.04118598 -0.0057755904 -0.017579617
-0.012822167 0.017625958 -0.008839801 0.028023545 -0.014580762 0.016327266 -0.0091914935 0.0129326545
-0.016988287 0.009591694 -0.016152978 -0.028788567 -0.013662433 0.026062673 -0.026826808 -0.017004276
-0.028026536 -0.008061849 -0.013490438 0.016839242 -0.022712747 -0.016374009 0.027956316 -0.00023392045
0.0022291283 -0.027923577 -0.03414171 0.01925972 0.011782615 0.0025708517 -0.00054354395 -0.027708296
0.0049027195 -0.008893534 -0.024613865 0.009478026 0.0067752823 -0.0016174956 0.017129887 -0.033259798
0.00656437 -0.011531497 0.013163478 -0.046396267 0.008228618 -0.04606803 -0.01726449 -0.0114063155
0.011527107 -0.02399787 0.0024566625 -0.012237678 0.0088508455 -0.032861512 0.0067445873 0.04059713
0.0054882932 -0.028076481 -0.0032445195 -0.035072774 -0.030992372 0.0063371393 -0.02174245 -0.016155817
-0.035634287 -0.03455469 -0.025874918 -0.012980607 -0.03139943 -0.0060181357 -0.016578557 -0.0006007485
-0.013005665 -0.039831076 0.021243697 -0.009880662 -0.022575518 0.0039787195 0.021346994 -0.008250782
-0.04938832 -0.008344984 0.012512052 -0.01248126 0.018500978 -0.027953226 0.00246635 0.011269153
-0.028633203 0.017861769 -0.006532407 0.024757465 0.020476202 -0.039668288 -0.022749113 0.012613339
-0.0034015768 -0.00039243576 -0.0049528526 -0.052257627 -0.01508745 -0.025161125 0.0016524983 0.027986962
0.009465569 -0.014929213 -0.006792961 0.018876282 -0.035103057 -0.008184637 -0.008715836 0.031426355
-0.002803737 -0.03166955 -0.0103488965 0.00821816 -0.03378246 -0.021612968 0.025321994 -0.04497137
0.035713848 -0.032908928 0.04561068 -0.009813028 0.008553035 0.0025545643 -0.03404884 0.007195211
-0.036584113 -0.02085872 -0.015428399 0.031258486 -0.02461292 -0.0033761861 -0.014480595 -0.011095861
-0.008712343 -0.024083188 -0.015461198 -0.0081560565 0.008876126 0.005776504 -0.007307979 -0.017785754
0.019683026 -0.026244147 -0.024998277 -0.0053199218 0.009097488 -0.042553544 0.012547452 0.00035005802
-0.02109954 -0.034723364 -0.013400191 -0.0070552984 0.0007634551 0.0048729954 0.004042707 0.029924734
-0.003104997 0.042255405 -0.025355347 -0.010859555 0.0037596805 -0.01544491 -0.053525638 -0.0152198225
0.0071452777 -0.021247188 0.0038205353 0.03349652 -0.022202455 0.021347167 -0.0054813353 0.034224477
0.028909791 -0.023080667 0.02881043 -0.027181182 -0.0052210437 -0.025649296 0.012582283 0.003984079
-0.005142706 -0.014571328 -0.0035549293 -0.0075814473 -0.018834239 -0.004514259 -0.019695474 -0.014101841
-0.020733206 -0.022062235 -0.034605104 -0.0062070694 0.0061914437 0.015543868 -0.0036852253 -0.018697549
-0.027547639 0.00014409277 -0.018975722 0.00177377 -0.014928218 -0.028073922 -0.022903057 -0.019744247
-0.01841385 0.009956863 -0.04628503 -0.03951501 0.016659968 -0.023815108 0.02038886 0.009193749
00000000: bd90 8ebc 1383 abbc 8e7e ecbc c205 d6bc
00000010: 0dfd 933c c0c3 17bc 541e ae3b b967 2cbb
00000020: 1562 e33b 4e90 54bc 1e19 cbbc ba6b 8d3a
00000030: 64cc e63b 9234 c23a 51b5 0ebc 2f16 5cbd
00000040: c6f7 e4bc 8a3c aaba 87ff 00bd 7eb9 98bb
00000050: 8670 293c e698 313d 31a2 0bbd a6bd 27bc
00000060: 4095 1abb e461 b33b b18e 133d 5ff0 6b3b
00000070: b344 903c 40b3 d6bc 345d 29bc 3852 24bd
00000080: bb08 d4bb e2fb 743c c751 f1bc 3d0c e2bb
00000090: c002 86bc a1b2 28bd 2a41 bdbb 2103 90bc
000000a0: 1114 52bc 5064 903c d0d4 10bc a291 e53c
000000b0: 26e4 6ebc c2c0 853c eb97 16bc 7ce3 533c
000000c0: 052b 8bbc 7b26 1d3c 4053 84bc 00d6 ebbc
000000d0: 66d8 5fbc 6381 d53c e5c3 dbbc 8d4c 8bbc
000000e0: e897 e5bc d815 04bc 0007 5dbc 73f2 893c
000000f0: 1510 babc c922 86bc a504 e53c 8b48 75b9
00000100: 9116 123b fcbf e4bc 2dd8 0bbd 8fc6 9d3c
00000110: df0b 413c bc7b 283b 9e7c 0eba 82fc e2bc
00000120: fea6 a03b 2fb6 11bc 04a3 c9bc b949 1b3c
00000130: 3003 de3b 2502 d4ba fa53 8c3c 6d3b 08bd
00000140: ed19 d73b 9bee 3cbc a1ab 573c 030a 3ebd
00000150: 53d1 063c d5b1 3cbd 426e 8dbc 8ee1 3abc
00000160: 31dc 3c3c 2e97 c4bc f5ff 203b 8b80 48bc
00000170: 2303 113c cb99 06bd b301 dd3b 2d49 263d
00000180: 24d7 b33b a600 e6bc 01a2 54bb 78a8 0fbd
00000190: b7e3 fdbc c7a7 cf3b 391d b2bc 3459 84bc
000001a0: 42f5 11bd 3889 0dbd a3f7 d3bc 9dac 54bc
000001b0: b09c 00bd c833 c5bb c1cf 87bc 8d7b 1dba
000001c0: b615 55bc e925 23bd 4307 ae3c 80e2 21bc
000001d0: 4bf0 b8bc eb5f 823b e4df ae3c 4a2e 07bc
000001e0: 684b 4abd 66b9 08bc 5aff 4c3c 337e 4cbc
000001f0: 5d8f 973c 2afe e4bc 7da2 213b 41a2 383c
00000200: 2e90 eabc d852 923c cd0d d6bb 2bd0 ca3c
00000210: b5bd a73c 377b 22bd 595c babc 2ea8 4e3c
00000220: fdec 5ebb d6bf cdb9 8a4b a2bb 180c 56bd
00000230: 5a31 77bc b41e cebc a498 d83a ea44 e53c
00000240: 7915 1b3c a899 74bc 7d97 debb 6fa2 9a3c
00000250: 39c8 0fbd db18 06bc decc 0ebc ecb8 003d
00000260: e7be 37bb eeb7 01bd 6b8e 29bc 76a5 063c
00000270: 7a5f 0abd ae0d b1bc 1270 cf3c e633 38bd
00000280: af48 123d 83cb 06bd 44d2 3a3d d3c6 20bc
00000290: 0722 0c3c 7a6a 273b cc76 0bbd cec5 eb3b
000002a0: 39d9 15bd e8df aabc 65c7 7cbc e608 003d
000002b0: 09a1 c9bc 0143 5dbb 0440 6dbc 6acb 35bc
000002c0: 37be 0ebc 1b4a c5bc f750 7dbc fba0 05bc
000002d0: 2c6d 113c d448 bd3b c577 efbb 6eb3 91bc
000002e0: 4c3e a13c f7fd d6bc 30c9 ccbc bd52 aebb
000002f0: a10d 153c a04c 2ebd d493 4d3c fe87 b739
00000300: f1d8 acbc 163a 0ebd 7a8c 5bbc 2230 e7bb
00000310: 9b22 483a a6ad 9f3b af78 843b b724 f53c
00000320: 357d 4bbb 0114 2d3d 04b6 cfbc 46ec 31bc
00000330: f964 763b a60c 7dbc b33d 5bbd 905c 79bc
00000340: ef22 ea3b 950e aebc f261 7a3b a633 093d
00000350: ece1 b5bc 41e0 ae3c c69c b3bb f72e 0c3d
00000360: 3ad4 ec3c ab13 bdbc da03 ec3c 12ab debc
00000370: 4a15 abbb 791e d2bc eb25 4e3c e18c 823b
00000380: 2584 a8bb 94bc 6ebc d1f9 68bb ca6d f8bb
00000390: 434a 9abc 59ec 93bb 6758 a1bc 680b 67bc
000003a0: afd8 a9bc dcbb b4bc 15be 0dbd ac64 cbbb
000003b0: 98e1 ca3b b5ab 7e3c d283 71bb 9a2b 99bc
000003c0: 96ab e1bc 9c17 1739 f972 9bbc d87d e83a
000003d0: 7c95 74bc 48fb e5bc 319f bbbc b0be a1bc
000003e0: a4d8 96bc 1c22 233c 5f95 3dbd 7eda 21bd
000003f0: 7c7a 883c e717 c3bc 8a06 a73c 61a1 163c

action_model._discrete_distribution.branches.0.weight f4 [2, 256]
0.037949126 0.009301375 -0.027031638 0.03329664 -0.0014668443 0.048077676 -0.001344558 -0.032753114
0.071414314 0.00085505174 -0.014889618 0.024798695 -0.0033846463 0.048249982 0.0036673665 -0.00035129377
-0.009265461 0.03453616 0.01919779 0.04960505 -0.009238423 -0.04770828 0.0036011457 0.06291815
0.051233612 0.05457201 -0.0068247756 0.0066231918 -0.010871981 -0.00766003 -0.0017730733 -0.0039139665
0.057784602 0.08404335 -0.0070233876 0.0142409485 0.015217691 -0.01093902 0.076848164 0.07440062
0.041693933 0.019855166 0.02500459 -0.045507688 0.0056005074 0.0059160106 0.015006305 -0.0075322
0.01492165 0.033893444 0.061223194 0.0457648 -0.0032642721 0.026997732 0.037354633 0.02885457
-0.017183384 -0.0021420799 0.01978259 0.0034134763 -0.0017707683 0.01565808 -0.029347219 0.060436055
-0.0068864925 0.025228845 0.0012658979 -0.006642626 0.026983436 -0.002471848 0.038940568 -0.0004191563
-0.013950205 -0.009333384 0.017384397 -0.0034939386 0.0020613058 0.0050093657 -0.048009682 0.005734785
0.03314397 0.0030125703 -0.021221459 0.020494938 0.03279717 0.0035841633 0.024538925 0.01586341
0.08584388 0.02125783 0.016351296 0.0021500327 0.024523515 -0.023157096 -0.039069198 0.005153974
-0.021757433 0.024637168 0.0014017628 0.026621357 -0.0074197277 0.024744721 0.035046674 -0.0026711663
0.03517991 0.018643282 0.017655084 0.021897525 0.006719856 -0.00423403 0.03896733 -0.0015712674
-0.0032603713 -0.0012978292 0.009423164 -0.0070305904 0.011588448 0.060745265 0.008252112 0.018589558
-0.012330143 -0.029080259 0.044375814 0.0033358198 -0.023007369 0.032728784 0.012732179 0.0066533014
0.042289004 0.042020194 0.005452732 0.042478222 -0.021259913 -0.014106426 0.068295486 -0.0064551323
0.020297974 -0.017540002 0.040628694 0.0051010894 0.03804656 0.021046164 0.016984241 -0.008818978
0.009834706 0.0027310879 0.0018017408 0.014516855 3.1366635e-05 0.020741299 0.04116656 -0.026905349
0.020775147 -0.01671247 0.07115196 0.011953511 0.013970079 0.0106958775 -0.06283501 0.00010769199
-0.019312961 0.00958418 -0.042699523 -0.009534966 0.016245339 -0.010068934 0.017996721 0.02132534
0.008157246 0.021462038 0.009583592 -0.0005580615 0.011139464 0.0629362 0.0261369 0.024107438
-0.02710524 0.0010017263 -0.014103394 0.030436888 0.062439438 -0.014303563 0.0036250965 0.05293898
0.004499365 0.02339133 -0.014814579 0.013643269 -0.012996839 -0.02340557 -0.022598598 0.0020648963
-0.0055968706 0.011204372 0.056715187 0.032855287 0.020154655 0.043401297 0.0009154094 0.008940904
0.021510258 -0.039819825 0.0076945988 0.03346992 -0.050626304 0.0011836373 -0.0026769307 0.040964287
0.021278258 0.018003229 0.01611345 -0.020883411 0.021039816 0.0507741 0.005341632 -0.05977033
0.005215537 0.056782674 -0.0015833417 0.024328383 0.05464487 -0.04692009 -0.04057444 0.064915895
0.04232686 0.06384302 0.048954338 0.007938502 0.02943352 -0.004490545 0.037443426 -0.01230379
0.017620284 -0.0015605212 -0.020582832 0.0020963333 0.06888309 -0.030915184 0.053898215 0.011857716
-0.0025574274 0.012683005 0.018801102 -0.038158506 -0.0021812129 -0.008188106 0.012674412 0.010499336
0.03944893 0.028488806 -0.010151026 0.02563157 -0.0009927986 0.05310278 0.07362443 0.010132893
00000000: 8b70 1b3d cb64 183c 7471 ddbc 0f62 083d
00000010: 2143 c0ba 19ed 443d e13b b0ba 2128 06bd
00000020: ab41 923d 8d25 603a 96f3 73bc a226 cb3c
00000030: f1d0 5dbb c6a1 453d 3358 703b da2d b8b9
00000040: 29ce 17bc ca75 0d3d af44 9d3c aa2e 4b3d
00000050: c15c 17bc c269 43bd 3301 6c3b 3bdb 803d
00000060: 56da 513d e686 5f3d 5ea2 dfbb 5c07 d93b
00000070: 6520 32bc fd00 fbbb 7866 e8ba bb40 80bb
00000080: 8caf 6c3d eb1e ac3d 7224 e6bb de52 693c
00000090: 9f53 793c 9339 33bc 9262 9d3d 5a5f 983d
000000a0: 42c7 2a3d 4da7 a23c 6dd6 cc3c 4566 3abd
000000b0: 7684 b73b 18db c13b 01dd 753c acd0 f6bb
000000c0: f079 743c dad3 0a3d 2cc5 7a3d df73 3b3d
000000d0: 66ed 55bb 592a dd3c 2c01 193d 6b60 ec3c
000000e0: 2bc4 8cbc 2362 0cbb 190f a23c a1b4 5f3b
000000f0: 2019 e8ba 6045 803c 9469 f0bc cc8b 773d
00000100: 16a8 e1bb b9ac ce3c 7cec a53a 63aa d9bb
00000110: 5e0c dd3c bafe 21bb 2580 1f3d 35c2 dbb9
00000120: 678f 64bc 0deb 18bc b969 8e3c 90fa 64bb
00000130: f916 073b 9b25 a43b cda5 44bd ddea bb3b
00000140: f9c1 073d 8b6e 453b a0d8 adbc 00e5 a73c
00000150: 5356 063d 48e4 6a3b db05 c93c fbf3 813c
00000160: ebce af3d e724 ae3c 27f3 853c 90e7 0c3b
00000170: 8ae5 c83c f3b3 bdbc 0607 20bd abe2 a83b
00000180: a53c b2bc e3d3 c93c 5bbb b73a 0815 da3c
00000190: 3021 f3bb 71b5 ca3c 1a8d 0f3d bc0e 2fbb
000001a0: cf18 103d ccb9 983c 65a1 903c 7062 b33c
000001b0: 3d32 dc3b 9ebd 8abb 359c 1f3d fcf2 cdba
000001c0: f4ab 55bb ec1b aaba 9d63 1a3c de60 e6bb
000001d0: 79dd 3d3c 07d0 783d de33 073c 2149 983c
000001e0: 5e04 4abc b939 eebc 6ac3 353d c59d 5a3b
000001f0: f379 bcbc 9e0e 063d a19a 503c f003 da3b
00000200: 3c37 2d3d 5e1d 2c3d d5ac b23b a5fd 2d3d
00000210: 4529 aebc a41e 67bc 81de 8b3d 9385 d3bb
00000220: f047 a63c 0db0 8fbc 466a 263d 0a27 a73b
00000230: b6d6 1b3d 0169 ac3c 8922 8b3c 7a7d 10bc
00000240: bf21 213c 0dfc 323b 6428 ec3a 1ad8 6d3c
00000250: ab8f 0338 a8e9 a93c 449e 283d 9b68 dcbc
00000260: a430 aa3c 97e8 88bc 1eb8 913d a9d8 433c
00000270: c2e2 643c c33d 2f3c a4af 80bd b2d8 e138
00000280: 3736 9ebc f706 1d3c b2e5 2ebd 8c38 1cbc
00000290: f214 853c 2cf8 24bc dc6d 933c 7bb2 ae3c
000002a0: f8a5 053c 28d1 af3c 8004 1d3c e04a 12ba
000002b0: 4c82 363c b2e4 803d 0d1d d63c f67c c53c
000002c0: cf0b debc 5b4c 833a ec11 67bc c856 f93c
000002d0: 7fc0 7f3d 7e59 6abc 0793 6d3b 8bd6 583d
000002e0: 696f 933b 2d9f bf3c d9b8 72bc 0588 5f3c
000002f0: b2f0 54bc 0abd bfbc b220 b9bc 3653 073b
00000300: f465 b7bb 8b92 373c 2f4e 683d 4493 063d
00000310: 601b a53c 8fc5 313d 16f8 6f3a df7c 123c
00000320: 4836 b03c 1d1a 23bd f922 fc3b c117 093d
00000330: 875d 4fbd 4724 9b3a 726f 2fbb 2bca 273d
00000340: be4f ae3c 827b 933c 5b00 843c b013 abbc
00000350: b15b ac3c 81f8 4f3d db08 af3b bcd1 74bd
00000360: 18e7 aa3b f394 683d 2288 cfba 514c c73c
00000370: 4dd3 5f3d 482f 40bd 6231 26bd a0f2 843d
00000380: ee5e 2d3d 21c0 823d 5884 483d 7e10 023c
00000390: 911e f13c 6c25 93bb 475e 193d d695 49bc
000003a0: 6a58 903c 678a ccba 549d a8bc a362 093b
000003b0: 9412 8d3d d741 fdbc 60c4 5c3d de46 423c
000003c0: 839a 27bb 61cc 4f3c c504 9a3c 184c 1cbd
000003d0: aef2 0ebb 6827 06bc 56a8 4f3c 6805 2c3c
000003e0: 3495 213d 5b61 e93c 7d50 26bc 4cf9 d13c
000003f0: cb20 82ba 4d82 593d 68c8 963d 6f04 263c

action_model._discrete_distribution.branches.0.bias f4 [2]
-0.03857822 0.038578216
00000000: 3204 1ebd 3104 1e3d

action_model._discrete_distribution.branches.1.weight f4 [2, 256]
0.025561294 -0.007958606 -0.0032718356 0.0374436 -0.009871669 0.05438781 -0.0037377337 -0.010385783
0.06661566 -0.021764737 0.030607618 0.014072402 -0.024417352 0.022976894 -0.009593666 -0.00067007355
0.0136347925 0.042027734 -0.008593298 0.03280559 0.035735518 0.008823152 0.011395341 0.049144775
-0.027646188 0.013270057 0.008193669 0.07095997 -0.008330045 -0.0005111416 0.010334649 -0.00083130464
0.019596666 0.020761356 -0.005609965 0.00017823301 -0.003051026 0.009395385 0.06806426 0.0384531
0.03435241 0.008281997 0.014637052 0.010718041 0.043352753 0.023602124 0.007757199 0.009045561
0.018854579 0.0050413036 0.079664774 -0.018027479 -0.003281846 0.03561727 0.009061851 0.0500242
-0.0038450481 0.013041142 0.014244485 0.017808843 -0.005968998 -0.015806831 -0.010921227 0.037946247
0.009693564 -0.0028608905 -0.012580338 0.010031715 0.013611746 0.012085076 0.034615647 -0.016169494
-0.00022336504 -0.0115404995 0.017024726 -0.012778442 0.01567103 0.00872412 -0.038675264 0.014672431
0.021291807 -0.017369846 0.0014959606 0.001312615 0.04295592 -0.001669093 -0.023555884 0.017237736
0.0035086265 -0.009927516 0.0076747774 -0.039238587 0.0024734167 0.0014062871 0.021242725 -0.010585286
0.012706579 0.05628342 0.011607974 -0.002769842 -0.01148612 0.030360833 0.043845147 -0.007227223
0.019350138 0.051203437 0.007796256 -0.017388834 -0.004609009 -0.019883107 0.04635884 0.00062549347
0.003350207 0.0057449816 -0.043487098 -0.023381164 -0.0072285417 0.017092241 -0.015679425 0.0040973234
-0.014159501 0.008738766 0.012539742 -0.0204064 -0.021613019 0.026268834 -0.0026368508 -0.039398313
0.024103489 -0.066621825 -0.043997206 -0.006352929 -0.017378315 0.03434786 0.046810996 -0.0076951864
0.035162017 0.028217856 -0.024231166 0.0069047436 0.043889355 0.046405993 -0.0143663585 -0.020015834
-0.053537752 -0.005707279 -0.011787248 -0.022850107 -0.0063806702 0.033313002 0.06032371 -0.047259357
-0.012630038 0.0050701327 0.024053076 -0.057756342 0.013268838 0.019343121 0.029363625 -0.0042835725
-0.05628089 0.026265843 -0.008149026 -0.015985006 0.016701194 -0.0046614306 -0.0043793693 -0.057218622
-0.013349284 0.0039533037 -0.0023326145 -0.012484071 -0.014497874 0.022309411 0.03313517 0.036519434
-0.029145593 -0.010381536 -0.03160618 0.0060884063 -0.003230232 0.013432794 0.025839116 0.047977295
0.017456342 -0.004488167 0.009738793 0.021537766 -0.021021111 0.00566785 -0.021212265 0.012436291
-0.0024439145 0.009195901 0.021681117 0.006984898 -0.0037910512 0.045736816 -0.014859892 -0.06371029
0.01183523 0.017814333 -0.018206052 0.035571706 0.008378374 -0.003661149 -0.005522092 0.019700326
0.010460789 0.051830344 -0.0045268624 -0.04844312 0.040138405 0.0153488 0.026660869 0.0068140817
0.025139855 0.0296279 0.055326957 -0.0032061278 0.02976736 0.012037213 -0.004199297 0.04998805
0.06100804 0.018890908 0.017424092 0.039016325 0.016636368 -0.00955367 0.03591473 -0.034073915
0.019129042 -0.02080496 0.0024912474 0.017581863 0.04400459 0.0035386442 0.010762863 -0.001984472
0.035285078 -0.010668543 0.018433314 0.010660046 -0.015818145 -0.022684671 -0.0035425357 0.003794633
0.04403847 -0.05116766 0.0026775484 0.013290603 -0.06437379 0.047149953 0.036776025 0.008038977
00000000: eb65 d13c d064 02bc 4b6c 56bb 765e 193d
00000010: c8bc 21bc c1c5 5e3d c4f4 74bb 2229 2abc
00000020: cb6d 883d f64b b2bc d4bc fa3c ef8f 663c
00000030: e606 c8bc 0a3a bc3c c02e 1dbc e0a7 2fba
00000040: 7764 5f3c 4625 2c3d e7ca 0cbc 285f 063d
00000050: 685f 123d fb8e 103c 86b3 3a3c 084c 493d
00000060: 427a e2bc a76a 593c bd3e 063c 7653 913d
00000070: be7a 08bc 22fe 05ba a952 293c e9eb 59ba
00000080: 3089 a03c b813 aa3c ccd3 b7bb 0fe4 3a39
00000090: b9f3 47bb 1aef 193c 4665 8b3d ff80 1d3d
000000a0: 1db5 0c3d 37b1 073c 3fd0 6f3c b99a 2f3c
000000b0: a892 313d 3e59 c13c 1a30 fe3b d533 143c
000000c0: eb74 9a3c 8531 a53b 4927 a33d 5dae 93bc
000000d0: 3d14 57bb 6ae3 113d 2878 143c 2de6 4c3d
000000e0: 34fd 7bbb 84aa 553c b361 693c dae3 913c
000000f0: 9697 c3bb 547d 81bc f2ee 32bc 866d 1b3d
00000100: c1d1 1e3c c77d 3bbb c31d 4ebc 105c 243c
00000110: cd03 5f3c 7c00 463c 23c9 0d3d e375 84bc
00000120: 1937 6ab9 5d14 3dbc 7077 8b3c ac5c 51bc
00000130: 8860 803c 9def 0e3c f469 1ebd a364 703c
00000140: 286c ae3c 354b 8ebc 1c14 c43a 0d0c ac3a
00000150: 8cf2 2f3d 78c5 daba 45f8 c0bc 2736 8d3c
00000160: fcf0 653b 05a7 22bc b37c fb3b a4b8 20bd
00000170: 0c19 223b 2a53 b83a 3905 ae3c e86d 2dbc
00000180: 412f 503c 7289 663d 5f2f 3e3c 3d86 35bb
00000190: 4730 3cbc 48b7 f83c f896 333d 57d2 ecbb
000001a0: 2e84 9e3c b2ba 513d bc77 ff3b 0773 8ebc
000001b0: 2b07 97bb e6e1 a2bc c4e2 3d3d 28f8 233a
000001c0: 258f 5b3b 6640 bc3b 871f 32bd db89 bfbc
000001d0: 67dd ecbb 0705 8c3c 2372 80bc d742 863b
000001e0: 40fd 67bc 0b2d 0f3c 7d73 4d3c 532b a7bc
000001f0: c90d b1bc bd31 d73c 04cf 2cbb 2060 21bd
00000200: ae74 c53c 0671 88bd 6a36 34bd 3b2c d0bb
00000210: f85c 8ebc 57b0 0c3d e3bc 3f3d e727 fcbb
00000220: 0c06 103d 2229 e73c 7080 c6bc 3041 e23b
00000230: 53c5 333d 3614 3e3d e060 6bbc 3ff8 a3bc
00000240: 674a 5bbd 2004 bbbb 4d1f 41bc 2630 bbbc
00000250: f114 d1bb 3773 083d ff15 773d 0793 41bd
00000260: 38ee 4ebc 5b23 a63b f50a c53c ea91 6cbd
00000270: 8a65 593c 7775 9e3c fc8b f03c 365d 8cbb
00000280: ca86 66bd 772b d73c 7e83 05bc fdf2 82bc
00000290: f1d0 883c eabe 98bb d080 8fbb 135e 6abd
000002a0: f5b6 5abc b78a 813b c7de 18bb fd89 4cbc
000002b0: 7e88 6dbc 3ac2 b63c beb8 073d 6795 153d
000002c0: bdc2 eebc 5117 2abc 7b75 01bd 4181 c73b
000002d0: 4db2 53bb 3915 5c3c 8eac d33c d783 443d
000002e0: 9a00 8f3c 7911 93bb 758f 1f3c f86f b03c
000002f0: 7734 acbc 5fb9 b93b 58c5 adbc 96c1 4b3c
00000300: 152a 20bb 68aa 163c 999c b13c 92e1 e43b
00000310: 4973 78bb 8756 3b3d e876 73bc 8a7a 82bd
00000320: 8de8 413c 5def 913c dc24 95bc a3b3 113d
00000330: 7345 093c e3ef 6fbb aaf2 b4bb 9462 a13c
00000340: bb63 2b3c 0e4c 543d 1356 94bb 4b6c 46bd
00000350: 2b68 243d 8979 7b3c e567 da3c a948 df3b
00000360: 19f2 cd3c 36b6 f23c 859e 623d e61d 52bb
00000370: aeda f33c bb37 453c 429a 89bb 45c0 4c3d
00000380: 91e3 793d 1bc1 9a3c f8bc 8e3c 95cf 1f3d
00000390: fe48 883c ff86 1cbc 531b 133d 1791 0bbd
000003a0: 82b4 9c3c 2a6f aabc 3244 233b d707 903c
000003b0: 283e 343d 99e8 673b b856 303c ea0d 02bb
000003c0: 1687 103d 1dcb 2ebc 7601 973c 79a7 2e3c
000003d0: 0e95 81bc 34d5 b9bc e329 68bb 61af 783b
000003e0: af61 343d 2e95 51bd cf79 2f3b d4c0 593c
000003f0: 68d6 83bd 4f20 413d 75a2 163d eab5 033c

action_model._discrete_distribution.branches.1.bias f4 [2]
-0.025839275 0.025839265
00000000: e3ac d3bc deac d33c

action_model._discrete_distribution.branches.2.weight f4 [2, 256]
0.0113955205 0.008011555 -0.00029687668 0.030237915 -0.010540975 0.041950934 0.029932918 -0.010303976
-0.0009757985 0.01114606 -0.002745649 0.039877433 -0.018172292 0.00072639517 0.033512153 0.008181515
0.020290617 -0.011721834 0.015358357 0.058746338 0.03126698 -0.030288652 -0.016397009 0.022016188
0.016201299 0.04927565 -0.013669821 0.025461234 0.022622757 0.012993836 0.009261048 0.0032479477
0.03710802 0.021030879 0.011028408 0.006220231 -0.00946073 -0.0007155003 0.037033625 0.048087087
0.055773754 0.04633584 0.02514174 -0.0041540107 0.022861017 -0.005009087 0.022314895 0.03359059
0.0356007 0.016698621 0.070407584 0.005391969 0.0073982836 0.052654624 0.011125492 0.050883196
-0.01463804 0.00070382736 0.012495463 -0.0021256702 -7.1896335e-05 0.023510547 0.018974284 0.012723149
0.008532159 0.0048383134 -0.00321094 -0.0248868 0.042866174 0.026551982 0.028032651 -0.010524709
-0.0007083965 0.027304107 0.038862232 -0.010552019 -0.019365724 -0.00078757596 -0.024777504 0.0050859465
0.018111609 0.0048387465 0.023746938 0.05067207 0.05004961 0.019671226 0.02179551 0.012872914
-0.0033951309 0.026315292 0.028801337 0.029846443 0.003484746 0.0021283173 0.012757327 -0.011547308
0.0010172761 0.015737982 0.05095703 -0.0011695361 0.029779194 0.030084418 0.040294304 0.032546446
0.017377254 0.025933666 0.040359404 0.019168952 -0.0045059426 -0.00398167 0.04755005 0.029863441
0.011127924 0.021511894 -0.015428293 0.007289356 -0.015094826 -0.004308913 -0.014749757 -0.011845698
0.00048939575 0.019487265 -0.003391326 0.021465806 0.013734595 0.025393456 0.027495371 -0.0147547955
0.03335956 -0.0073295035 0.045832027 -0.008827457 -0.020485818 0.03277424 0.03407266 -0.002777831
0.022928467 -0.0033943902 0.003799187 0.004246258 -0.0018172481 0.034536723 0.02110554 0.034497824
0.0123204645 0.019112451 0.019988531 0.0034096176 -0.015219099 0.030660585 0.06020317 0.004399802
0.02277928 0.0039069443 0.042041395 0.0024410307 0.0055417195 -3.4426026e-05 0.010623136 0.004735557
-0.025834862 0.02674592 -0.041455187 0.025946967 0.032974944 0.00423068 0.015399744 0.0050754626
0.025009522 0.0020247926 0.025937522 0.00026719115 0.0072912965 0.0042500095 0.047780555 0.057320442
0.002823566 0.009420445 0.023964465 0.0326107 0.07769534 0.047665283 0.026137594 0.032925762
-0.038768843 0.02699954 0.009277574 0.03210082 0.01104519 0.010614375 -0.0012636621 -0.003399273
-0.0050085355 0.008667686 0.055913467 0.023324732 0.032482352 0.019386353 0.04068268 -0.018170185
0.010952129 0.0023291241 -0.0020486205 0.04197395 0.044737007 -0.0148915015 -0.009650068 0.03042557
0.036420286 0.025839923 -0.010547491 0.0053971047 0.024749396 -0.030663995 0.04316516 0.004344724
0.022056699 0.044361457 0.0035337813 0.017735926 -0.013584624 0.02263007 -0.027299823 0.047535803
0.045317627 0.010825229 0.015357223 0.01725397 0.017324459 -0.015102503 0.05782252 0.008230407
0.027727816 0.029612457 -0.0016081666 -0.0034377503 0.054135058 -0.021916052 0.018734833 0.018029707
0.0050921896 -0.018059846 0.034644064 0.07884156 -0.004541191 0.015045182 -0.0071482607 0.02479968
0.022597475 -0.021957032 -0.006779373 0.023034954 0.007539591 0.029742176 0.06031135 0.002262437
00000000: 47b4 3a3c e642 033c 1da6 9bb9 81b5 f73c
00000010: 0eb4 2cbc bed4 2b3d e135 f53c 02d2 28bc
00000020: bbcc 7fba f79d 363c 59f0 33bb 8556 233d
00000030: 0fde 94bc 8e6b 3e3a 0a44 093d c30b 063c
00000040: 8238 a63c ef0c 40bc 9ea1 7b3c 00a0 703d
00000050: ce11 003d e81f f8bc 0553 86bc 4b5b b43c
00000060: 96b8 843c 44d5 493d 63f7 5fbc 1494 d03c
00000070: 5c53 b93c 19e4 543c a7bb 173c 85db 543b
00000080: 94fe 173d f348 ac3c 7fb0 343c 14d3 cb3b
00000090: 2d01 1bbc 6a90 3bba 92b0 173d f7f6 443d
000000a0: 0573 643d a6ca 3d3d 0df6 cd3c 5e1e 88bb
000000b0: 0747 bb3c 4423 a4bb bacd b63c 4996 093d
000000c0: 0ad2 113d 8ccb 883c da31 903d 1daf b03b
000000d0: 4d6d f23b 60ac 573d b247 363c e66a 503d
000000e0: 64d4 6fbc 0e81 383a c5b9 4c3c d44e 0bbb
000000f0: 0dc7 96b8 3199 c03c f56f 9b3c c174 503c
00000100: 78ca 0b3c b78a 9e3b a26e 52bb 67df cbbc
00000110: 7194 2f3d 8b83 d93c bba4 e53c d46f 2cbc
00000120: afb3 39ba ddac df3c 012e 1f3d 60e2 2cbc
00000130: dea4 9ebc 5475 4eba 31fa cabc 03a8 a63b
00000140: cc5e 943c 598e 9e3b f088 c23c 848d 4f3d
00000150: d200 4d3d 8d25 a13c 7f8c b23c eae8 523c
00000160: d880 5ebb 2b93 d73c c8f0 eb3c 8780 f43c
00000170: 5660 643b 3d7b 0b3b 1c04 513c ec30 3dbc
00000180: 1f56 853a f1ec 803c 52b8 503d 1f4b 99ba
00000190: 7ff3 f33c 9973 f63c a40b 253d 6c4f 053d
000001a0: be5a 8e3c d772 d43c e74f 253d 3508 9d3c
000001b0: 96a6 93bb ab78 82bb d7c3 423d 2da4 f43c
000001c0: e551 363c b639 b03c f3c6 7cbc 8ddb ee3b
000001d0: 4a50 77bc c831 8dbb f7a8 71bc 7514 42bc
000001e0: cb4a 003a c2a3 9f3c 0241 5ebb 0fd9 af3c
000001f0: 1107 613c f005 d03c f93d e13c 19be 71bc
00000200: 09a4 083d 552c f0bb 5dba 3b3d 0aa1 10bc
00000210: e0d1 a7bc 483e 063d c68f 0b3d 450c 36bb
00000220: 7bd4 bb3c 6b74 5ebb c8fb 783b 3224 8b3b
00000230: ba30 eeba 6176 0d3d 87e5 ac3c 974d 0d3d
00000240: c6db 493c b791 9c3c fdbe a33c e473 5f3b
00000250: 8759 79bc e82b fb3c 9997 763d 372c 903b
00000260: 9d9b ba3c d305 803b 9933 2c3d b3f9 1f3b
00000270: 5097 b53b aa64 10b8 a90c 2e3c bb2c 9b3b
00000280: a2a3 d3bc 421a db3c eacc 29bd bc8e d43c
00000290: bc10 073d 84a1 8a3b 354f 7c3c 1150 a63b
000002a0: c5e0 cc3c 62b2 043b ed7a d43c ca15 8c39
000002b0: d4eb ee3b aa43 8b3b 8bb5 433d d7c8 6a3d
000002c0: 940b 393b 3658 1a3c 2051 c43c cc92 053d
000002d0: bc1e 9f3d ac3c 433d 821e d63c 2add 063d
000002e0: 14cc 1ebd 242e dd3c f700 183c 267c 033d
000002f0: e2f6 343c eae7 2d3c 77a1 a5ba 56c6 5ebb
00000300: a41e a4bb e902 0e3c 8505 653d 8213 bf3c
00000310: 370c 053d 21d0 9e3c e2a2 263d a4d9 94bc
00000320: 8f70 333c 38a4 183b 2642 06bb e0ec 2b3d
00000330: 273e 373d 7cfb 73bc 521b 1ebc 0c3f f93c
00000340: 702d 153d 3fae d33c 62cf 2cbc 32da b03b
00000350: 3fbf ca3c 0f33 fbbc f3cd 303d 305e 8e3b
00000360: 40b0 b43c 5cb4 353d 0397 673b ef4a 913c
00000370: 0b92 5ebc b262 b93c e1a3 dfbc e7b4 423d
00000380: fa9e 393d 4d5c 313c dd9c 7b3c 3358 8d3c
00000390: 06ec 8d3c 7d70 77bc 4fd7 6c3d d4d8 063c
000003a0: 7225 e33c d395 f23c 1ec9 d2ba e14b 61bb
000003b0: b9bc 5d3d 4b89 b3bc cb79 993c 09b3 933c
000003c0: 62dc a63b 3ef2 93bc efe6 0d3d af77 a13d
000003d0: 45ce 94bb 1180 763c f53b eabb b328 cb3c
000003e0: 571e b93c 3cdf b3bc 8125 debb cdb3 bc3c
000003f0: ac0e f73b dda5 f33c 0909 773d 6545 143b

action_model._discrete_distribution.branches.2.bias f4 [2]
-0.019607836 0.019607855
00000000: 9da0 a0bc a7a0 a03c
