Assets/results/day3_2323/TrafficLightBrain/TrafficLightBrain-349962.onnx (onnx, 403823 bytes, 21 tensors)

discrete_act_size_vector f4 [1, 8]
2.0 2.0 2.0 2.0 2.0 2.0 2.0 2.0
00000000: 0000 0040 0000 0040 0000 0040 0000 0040
00000010: 0000 0040 0000 0040 0000 0040 0000 0040

network_body._body_endoder.seq_layers.0.weight f4 [256, 100]
-0.12030701 0.15084894 -0.08274868 -0.075042516 0.07746054 0.031431314 -0.14884478 -0.16707824
0.1418479 -0.063891985 0.06628043 0.029962994 -0.14618194 -0.067826256 -0.28382224 0.16004694
-0.08266138 0.023627436 0.14497852 0.06511625 0.00121578 0.0268388 0.03457658 -0.059699398
0.0076079047 0.091376714 0.043346733 0.21343844 -0.1353271 -0.06791247 0.12692647 -0.12889476
0.10969242 0.017398259 -0.18411626 0.035907473 -0.039048105 -0.088355504 0.010006114 0.062171817
0.10916896 -0.1051262 0.061774015 -0.17587584 0.17981379 -0.027070139 0.13415699 0.26883993
-0.014790836 0.07564357 -0.07556771 0.034691833 0.05074292 -0.03065001 -0.084735736 -0.023489254
0.045613736 0.018349772 0.09176373 -0.20415233 0.17926764 0.044635493 0.027687002 0.065988354
0.127786 0.090000056 0.02225423 -0.021434415 0.20822017 -0.02707221 0.03614903 0.051972058
-0.019091316 0.019786408 -0.078472555 0.25715917 0.012316692 -0.058646273 0.17225356 -0.15402718
0.046844695 -0.029768517 0.02207878 0.0018325655 -0.032830216 0.06835442 -0.031208033 0.00918568
-0.032204133 0.03694535 -0.018337576 0.044364925 -0.0057824184 0.00797624 -0.10574055 -0.03922958
-0.1258273 0.007506478 -0.048574753 -0.020899279 0.1781817 0.048898067 -0.07772497 -0.06026405
0.074160926 0.04829256 0.23450862 -0.14261152 -0.0068493267 0.12278921 -0.09047053 0.017608684
0.0034419324 -0.0020661897 -0.16003524 0.1663229 -0.028349577 0.13163064 0.104506075 0.20243894
-0.11535004 -0.031579386 0.008219354 0.0020129266 -0.080400795 -0.057313245 -0.13847394 0.10122015
-0.037753996 0.0049753217 0.07141879 -0.0536563 -0.046673525 0.10325431 -0.21375565 0.15716974
-0.039185252 0.09875815 0.00010117978 -0.07580667 0.020394467 0.13744597 -0.03776807 0.032910887
-0.059410226 0.1494259 0.13826108 0.10400722 0.04582077 0.11692941 0.08812866 -0.048040736
0.058515824 -0.12874861 0.065148756 -0.117906466 -0.08154603 0.07561522 0.021530995 0.03486536
0.02776495 -0.08589269 -0.08840924 -0.048304167 -0.142906 -0.032225747 0.046451233 -0.06199775
-0.12356793 0.036095116 -0.057284135 0.044693653 -0.053803653 0.020844406 -0.015625745 -0.022702465
0.089247674 -0.20572634 -0.21301988 0.025236903 -0.08439644 0.15392703 -0.109605804 0.16392633
0.036791135 -0.10144222 0.09370854 0.09760382 -0.09963781 0.08907864 0.1243114 0.014350331
0.16230784 -0.050857913 -0.06420838 -0.1744024 -0.0017229675 -0.09084176 -0.11839887 0.01213451
0.01275656 0.102155924 -0.02558327 0.0032228937 0.1861427 0.13873653 0.038341768 0.011841542
-0.046202745 -0.1007598 0.16092566 -0.0743776 -0.020640142 -0.0850984 -0.059547737 0.0606656
0.026941592 -0.002792633 0.19242452 0.17449513 -0.07993375 0.10350905 -0.12687702 0.18106237
-0.0014960349 -0.123962104 0.030611921 -0.11360539 0.052238446 -0.026669411 -0.058122396 -0.012907763
0.18018134 -0.014994286 -0.09050455 -0.12288114 0.11533413 -0.13715029 0.13044637 -0.01642832
-0.01192304 -0.06958002 0.110373154 0.065101355 0.24555492 -0.028019508 -0.12861685 -0.027858987
0.03653482 -0.16584234 0.0018539382 -0.21328099 -0.082932934 -0.146247 0.24494083 -0.09269795
00000000: 8663 f6bd 2578 1a3e 2478 a9bd e4af 99bd
00000010: a2a3 9e3d 1fbe 003d c46a 18be 8f16 2bbe
00000020: 9340 113e cdd9 82bd 09be 873d f474 f53c
00000030: b8b0 15be 7ee8 8abd 2651 91be 58e3 233e
00000040: 5f4a a9bd 538e c13c 4075 143e ab5b 853d
00000050: cf5a 9f3a 0bdd db3c 2ca0 0d3d 5b87 74bd
00000060: bb4b f93b b723 bb3d 588c 313d 9b8f 5a3e
00000070: 3093 0abe b115 8bbd 03f9 013e fdfc 03be
00000080: 6ba6 e03d cb86 8e3c f988 3cbe b713 133d
00000090: e8f0 1fbd bbf3 b4bd aff0 233c e0a7 7e3d
000000a0: fa93 df3d 684c d7bd c006 7d3d cc18 34be
000000b0: 1b21 383e 32c2 ddbc 7360 093e 63a5 893e
000000c0: 4355 72bc 04eb 9a3d 3ec3 9abd 0619 0e3d
000000d0: cfd7 4f3d bb15 fbbc ee89 adbd 896c c0bc
000000e0: 78d5 3a3d 4352 963c 9fee bb3d 4f0d 51be
000000f0: f091 373e b5d3 363d dacf e23c e724 873d
00000100: 55da 023e f351 b83d 814e b63c 3a97 afbc
00000110: ab37 553e 8ac6 ddbc 0111 143d a7e0 543d
00000120: 6465 9cbc 1b17 a23c 38b6 a0bd 5eaa 833e
00000130: f3cb 493c 1337 70bd 3d63 303e 4db9 1dbe
00000140: 39e0 3f3d 1bdd f3bc 8fde b43c b232 f03a
00000150: fa78 06bd 67fd 8b3d fda7 ffbc 897f 163c
00000160: 7be8 03bd 0254 173d af38 96bc ffb7 353d
00000170: 717a bdbb c6ae 023c 808e d8bd 32af 20bd
00000180: dfd8 00be e7f8 f53b 52f6 46bd f734 abbc
00000190: 4375 363e 5749 483d 452e 9fbd 70d7 76bd
000001a0: afe1 973d 6bce 453d 0723 703e c108 12be
000001b0: 5170 e0bb e978 fb3d 9d48 b9bd 1640 903c
000001c0: 0b92 613b e968 07bb 47e0 23be 8d50 2a3e
000001d0: 5f3d e8bc 2fca 063e 4807 d63d 274c 4f3e
000001e0: a43c ecbd 6359 01bd 78aa 063c 4eeb 033b
000001f0: 2ca9 a4bd 4bc1 6abd 1dcc 0dbe 834c cf3d
00000200: efa3 1abd 0608 a33b 0444 923d b5c6 5bbd
00000210: bd2c 3fbd ff76 d33d c3e2 5abe 1bf1 203e
00000220: b780 20bd b741 ca3d 7b30 d438 8740 9bbd
00000230: 4c12 a73c a3be 0c3e b1b2 1abd 91cd 063d
00000240: 2358 73bd 1a03 193e 5094 0d3e bd01 d53d
00000250: 8fae 3b3d b078 ef3d cd7c b43d 5dc6 44bd
00000260: 4aae 6f3d add6 03be b66c 853d f278 f1bd
00000270: 9b01 a7bd 27dc 9a3d c561 b03c fbce 0e3d
00000280: 5273 e33c 82e8 afbd e70f b5bd 97da 45bd
00000290: f355 12be 25ff 03bd a643 3e3d 5af1 7dbd
000002a0: 2f11 fdbd 79d8 133d c5a2 6abd b110 373d
000002b0: 3861 5cbd e3c1 aa3c 9001 80bc 85fa b9bc
000002c0: 7cc7 b63d eda9 52be e221 5abe 9fbd ce3c
000002d0: 0ad8 acbd 0c9f 1d3e 0279 e0bd 4edc 273e
000002e0: 4db2 163d f0c0 cfbd 43ea bf3d 83e4 c73d
000002f0: e80e ccbd dd6e b63d fa96 fe3d a71d 6b3c
00000300: 0734 263e 6350 50bd af7f 83bd 8b96 32be
00000310: 32d5 e1ba 3f0b babd 1b7b f2bd d3cf 463c
00000320: e400 513c 2037 d13d 0194 d1bc 2f37 533b
00000330: 319c 3e3e f310 0e3e 420c 1d3d 0703 423c
00000340: 173f 3dbd 275b cebd b2c9 243e 4853 98bd
00000350: 8415 a9bc 1248 aebd 54e8 73bd 7e7c 783d
00000360: 9db4 dc3c 9b04 37bb ef0a 453e daae 323e
00000370: 4eb4 a3bd 8efc d33d 0dec 01be 6a68 393e
00000380: 9a16 c4ba d8df fdbd dac5 fa3c f1a9 e8bd
00000390: fbf7 553d cf79 dabc c011 6ebd 157b 53bc
000003a0: 7581 383e 98aa 75bc 735a b9bd 1ba9 fbbd
000003b0: 4d34 ec3d 2071 0cbe bc93 053e af94 86bc
000003c0: db58 43bc f87f 8ebd 520b e23d dc53 853d
000003d0: c072 7b3e 2b89 e5bc 23b4 03be 8838 e4bc
000003e0: 89a5 153d 93d2 29be d8ff f23a 5566 5abe
000003f0: bed8 a9bd c6c1 15be c5d1 7a3e 6cd8 bdbd

network_body._body_endoder.seq_layers.0.bias f4 [256]
0.0037799869 0.030516388 0.018400455 0.022769421 0.0010140708 -0.06975868 -0.015403558 0.03077936
-0.0047529284 0.012034264 -0.03816359 -0.0080850655 0.03660847 0.008711988 0.03319627 0.05172687
0.026117424 -0.012739235 0.0077114813 0.013242827 -0.04454016 0.012905434 -0.033091478 -0.021281334
-0.032322466 0.045713592 -0.011897706 0.01593905 -0.05159362 -0.024749031 -0.0049009235 -0.05880193
-0.0008022433 -0.007136806 0.004642198 0.0007815859 0.017852074 0.027057875 0.0011276047 0.040227097
0.043867342 0.018565612 0.008277555 0.012328719 -0.043019637 0.011272035 0.050494216 0.027397893
-0.028712014 -0.012528884 -0.023821956 -0.014889793 -0.03556355 0.03333719 0.043384176 0.0046420326
-0.016948333 0.032116495 0.030795744 0.0042345235 -0.018354133 -0.023695543 0.0007035098 0.051593114
0.021882271 -0.038693856 -0.024740884 0.018716872 0.039325546 -0.0049847225 -0.05511042 -0.04194815
0.03492143 0.017395921 0.059370853 0.015541241 0.0077335066 -0.013270879 0.011665237 0.056639776
0.019963922 -0.048692603 0.032495633 0.00018235341 -0.008238197 0.024054464 -0.07024327 0.025743004
0.010479539 0.046639256 -0.017967548 -0.06260808 -0.003641806 -0.0003340692 0.01742661 0.040356312
0.021035014 -0.019564956 0.021327471 0.038964305 -0.06688504 -0.02690952 -0.062936075 -0.031595513
0.026010936 0.020533502 -0.06439354 -0.012552547 -0.03896267 0.0053278855 0.03594447 0.035946775
-0.056291815 0.0036882171 -0.0061807414 -0.025374955 0.064840265 -0.023445716 -0.008471669 -0.021344433
-0.05423646 0.0007290835 0.014776307 -0.015067601 -0.030669415 -0.016282715 -0.041990876 0.03281602
0.06306932 0.0069922507 -0.04070323 0.060364783 0.01381192 -0.020540196 -0.007592268 -0.028221829
0.01034159 -0.009478451 0.023761222 0.024449255 0.037458718 -0.013723812 0.006193503 0.015594249
-0.011215596 -0.029183492 0.010257397 -0.00090738613 -0.03326207 -0.055447437 -0.035252962 0.029807208
-0.019719495 -0.050130416 -0.038423643 0.0016140321 0.022896582 -0.010786812 0.025397092 0.057807326
0.013221534 -0.03211596 -0.021214018 0.030945515 0.07338957 -0.051626965 0.028632196 0.02340056
0.011930173 0.030638732 0.05080943 -0.032250565 -0.037369918 -0.06654386 0.062545575 0.029242696
-0.026227223 0.011702326 -0.009940322 0.012023355 0.0053657717 -0.013405293 0.084372886 -0.015303144
-0.029190967 0.006101041 -0.023573957 -0.042992845 -0.04710131 0.0379866 -0.008678625 0.028690528
0.05723047 -0.012303336 0.00033234377 0.0145925945 0.027409114 0.06238034 0.03208257 0.030392585
0.05536195 0.04920108 -0.024474885 -0.0630466 0.08641852 0.016158942 -0.050094657 -0.033221632
-0.010219078 -0.0038320497 -0.022588613 -0.03559217 0.07328238 -0.032946903 -0.024484707 0.01275171
0.010992238 0.03150657 0.01850401 0.0742104 -0.041222524 -0.033137776 0.011121769 0.046698775
-0.03430061 0.02812583 -0.026229529 -0.026983231 0.013206365 -0.0018841446 -0.038358424 0.014408381
-0.040185194 -0.023478359 0.011154202 0.0604858 -0.00097421865 -0.0024574557 0.048397083 -0.014985006
0.022998922 -0.0030331002 -0.04211212 0.03869594 0.023225993 0.02724035 0.058771595 -9.055445e-05
0.014846664 -0.0528538 0.0924626 -0.062271778 -0.01819976 -0.026821202 0.052476272 0.047394246
00000000: a8b9 773b 81fd f93c 8dbc 963c f086 ba3c
00000010: 92ea 843a a4dd 8ebd 345f 7cbc ff24 fc3c
00000020: 74be 9bbb 5d2b 453c 6d51 1cbd 3977 04bc
00000030: c3f2 153d babc 0e3c d0f8 073d 8edf 533d
00000040: 35f4 d53c 39b8 50bc 98b0 fc3b 71f8 583c
00000050: be6f 36bd 5071 533c ee8a 07bd 3156 aebc
00000060: 9064 04bd 2d3e 3b3d 99ee 42bc 9c92 823c
00000070: d553 53bd 7bbe cabc ed97 a0bb 4bda 70bd
00000080: a34d 52ba dedb e9bb 941d 983b 58e3 4c3a
00000090: 833e 923c 7aa8 dd3c 23cc 933a 2bc5 243d
000000a0: 3eae 333d e916 983c 959e 073c 65fe 493c
000000b0: 5c35 30bd 57ae 383c 06d3 4e3d 8c71 e03c
000000c0: 7535 ebbc f345 4dbc 4326 c3bc 51f4 73bc
000000d0: 16ab 11bd 948c 083d 9bb3 313d 311c 983b
000000e0: 3bd7 8abc 968c 033d 5b47 fc3c c2c1 8a3b
000000f0: 685b 96bc 281d c2bc be6b 383a 4d53 533d
00000100: 7342 b33c 737d 1ebd 65ad cabc 2054 993c
00000110: d313 213d e256 a3bb 77bb 61bd d3d1 2bbd
00000120: c609 0f3d e481 8e3c da2e 733d b0a0 7e3c
00000130: 5b69 fd3b 1a6e 59bc 8d1f 3f3c 1cff 673d
00000140: 618b a33c e571 47bd 241a 053d 1f36 3f39
00000150: 81f9 06bc de0d c53c b4db 8fbd fee2 d23c
00000160: 5fb2 2b3c ce08 3f3d ae30 93bc aa38 80bd
00000170: 5eab 6ebb 0226 afb9 40c2 8e3c a94c 253d
00000180: 9f51 ac3c b046 a0bc f3b6 ae3c 0999 1f3d
00000190: 06fb 88bd 5b71 dcbc a1e4 80bd 4c6a 01bd
000001a0: e314 d53c e035 a83c c3e0 83bd 33a9 4dbc
000001b0: 5297 1fbd 8b95 ae3b 823a 133d ed3c 133d
000001c0: 3f92 66bd 04b6 713b d187 cabb 23df cfbc
000001d0: f9ca 843d 3b11 c0bc c1cc 0abc 85da aebc
000001e0: 0d27 5ebd f71f 3f3a 5318 723c 19de 76bc
000001f0: 6d3e fbbc 5463 85bc a0fe 2bbd 176a 063d
00000200: 7d2a 813d 401f e53b 6eb8 26bd 1041 773d
00000210: 644b 623c ea43 a8bc 8fc8 f8bb 7731 e7bc
00000220: c66f 293c 814b 1bbc e5a6 c23c ce49 c83c
00000230: 506e 193d d7d9 60bc def2 ca3b 057f 7f3c
00000240: 9fc1 37bc 3812 efbc a40e 283c a7dd 6dba
00000250: cf3d 08bd da1c 63bd 6965 10bd 3f2e f43c
00000260: c78a a1bc 8d55 4dbd 1c62 1dbd ee8d d33a
00000270: 9d91 bb3c 2bbb 30bc 900d d03c 60c7 6c3d
00000280: 229f 583c 068c 03bd 05c9 adbc 7381 fd3c
00000290: 454d 963d cc76 53bd 118e ea3c 88b2 bf3c
000002a0: c676 433c 14fe fa3c 8d1d 503d 2b19 04bd
000002b0: 3311 19bd 2648 88bd e517 803d 618e ef3c
000002c0: 79da d6bc 1dbb 3f3c bbdc 22bc 9bfd 443c
000002d0: 5bd3 af3b e0a1 5bbc b1cb ac3d 0aba 7abc
000002e0: e521 efbc 3eeb c73b 2c1e c1bc 4419 30bd
000002f0: 4eed 40bd d697 1b3d cb30 0ebc 6608 eb3c
00000300: 7f6a 6a3d ee93 49bc 6d3e ae39 c715 6f3c
00000310: 1489 e03c 8782 7f3d 0369 033d dff9 f83c
00000320: 36c3 623d 1287 493d 8e7f c8bc 931e 81bd
00000330: 31fc b03d c25f 843c 0e30 4dbd 6813 08bd
00000340: eb6d 27bc 2023 7bbb c10b b9bc 18c9 11bd
00000350: 1315 963d 55f3 06bd 2794 c8bc 8cec 503c
00000360: ca18 343c 080d 013d b995 973c 9ffb 973d
00000370: f3d8 28bd 7abb 07bd 1538 363c 3747 3f3d
00000380: cc7e 0cbd 2468 e63c 4fdf d6bc f00b ddbc
00000390: 825f 583c 67f5 f6ba b91d 1dbd 2111 6c3c
000003a0: 3b99 24bd b055 c0bc 1dc0 363c f5bf 773d
000003b0: b562 7fba 440d 21bb 053c 463d ac83 75bc
000003c0: 3c68 bc3c fac6 46bb c27d 2cbd a27f 1e3d
000003d0: 7044 be3c 2827 df3c 7cba 703d 0de8 bdb8
000003e0: 6c3f 733c 3a7d 58bd 085d bd3d b110 7fbd
000003f0: aa17 95bc 23b8 dbbc 5cf1 563d 7820 423d

network_body._body_endoder.seq_layers.2.weight f4 [256, 256]
-0.07256546 -0.066903785 -0.046787612 -0.09594506 -0.0133984815 0.018331585 -0.060976315 -0.011095057
-0.042652644 0.065662555 0.104984805 -0.048732318 -0.0017604483 -0.07387191 0.008803091 0.10102035
-0.00066313246 -0.075296946 0.019580264 -0.015990919 -0.07182132 0.023665398 0.018482737 0.010420963
0.048983894 -0.04499745 0.028272757 0.09501704 -0.015879802 0.011558072 -0.014243325 -0.040707406
-0.020439073 -0.08591712 0.03920005 0.044560507 0.038587347 0.063863166 0.08024634 -0.057946596
-0.025007287 0.0020963787 -0.16133703 -0.11105972 0.048282597 0.04149232 -0.051578928 -0.043588415
-0.055158038 -0.076638795 -0.013903861 -0.017698355 -0.009714637 -0.10292735 -0.016710518 0.017870594
-0.14537172 0.036762755 0.084669374 -0.17602411 -0.04322406 0.027953539 0.0059348894 0.03498524
-0.058984824 -0.11699906 0.03512547 0.011384828 -0.009978916 -0.12766585 0.05052871 -0.083270244
0.0057056723 -0.010881864 -0.07694377 0.033957243 0.04683351 0.120364495 -0.0023710767 0.0039376426
0.033488203 -0.014708934 0.028702805 -0.02706037 -0.115392655 -0.014742825 0.10476639 -0.11769632
0.033807218 -0.12686062 0.055262536 -0.006782124 -0.013677678 -0.032834858 -0.072715394 -0.069853865
-0.010581591 0.018932082 -0.11222577 0.0031353084 0.055598963 -0.011783707 0.031606697 -0.08240351
0.08303569 0.08700372 -0.026157925 0.057778038 -0.026186774 0.025300419 -0.051861506 -0.097772986
-0.052783795 0.08649879 0.054210182 -0.039499734 -0.044133965 0.031143816 0.02437817 -0.019976513
-0.029082505 -0.049209256 0.073998615 -0.019486314 0.0014720518 0.0063215424 -0.0056487857 0.037901346
-0.039309938 -0.04009398 0.018277386 0.015068293 -0.0028407944 -0.016169379 -0.017647041 0.017080614
0.027339194 -0.06884571 -0.18608727 -0.008016842 -0.060110144 -0.09365766 -0.102069534 -0.0861373
-0.018698338 -0.049385015 0.10235543 -0.071142584 0.07386993 0.034732223 0.008149481 0.027441679
-0.012154622 0.00079723133 -0.069392264 -0.060897563 -0.10110593 0.066143245 0.036468208 -0.021216687
-0.046280507 -0.055397194 -0.018653363 -0.036246695 -0.038295597 0.03670778 0.0722379 -0.04725414
0.026294528 0.0331546 -0.02099954 0.013476071 -0.09670762 -0.06464703 -0.050288245 0.124528535
0.041417856 0.06996801 0.034354296 0.0028531365 -0.11046048 -0.034051567 0.0026883269 -0.048529003
-0.04287251 -0.010799956 0.014665691 0.06283691 -0.08900036 0.019473288 0.08714719 -0.015882555
-0.011296391 -0.10219344 0.015506657 -0.028232096 -0.08147063 -0.10353659 -0.013935658 0.04109645
0.074343875 0.07743839 0.102595 -0.028252121 -0.01703292 -0.069667265 -0.010189457 -0.05226663
0.052895673 0.057122868 -0.0038820049 -0.053031057 0.019885277 0.004231766 0.07272612 -0.031267464
0.07243497 0.0828049 0.032802075 0.011780352 0.04847865 -0.1585405 0.06493571 -0.053472836
-0.006529456 -0.052440375 -0.07241691 0.06444622 -0.03982579 -0.056310337 0.04264284 0.023770668
-0.03783526 0.0459292 -0.011845444 -0.13982703 -0.06469455 -0.14731562 -0.012822934 0.10224178
-0.083814375 0.049148235 0.010392787 0.088273734 -0.037700064 0.04841141 0.065408096 -0.016050793
0.021143958 0.025090631 0.03887458 -0.09274934 -0.055709414 -0.032706153 -0.13690746 0.011794687
00000000: 339d 94bd da04 89bd 5ea4 3fbd d87e c4bd
00000010: 4e85 5bbc 1f2c 963c 4dc2 79bd 0bc8 35bc
00000020: 8ab4 2ebd 177a 863d 4602 d73d 8a9b 47bd
00000030: d8be e6ba 284a 97bd d73a 103c c2e3 ce3d
00000040: 11d6 2dba 4935 9abd ca66 a03c 63ff 82bc
00000050: 0e17 93bd f0dd c13c 1c69 973c b0bc 2a3c
00000060: 56a3 483d 3f4f 38bd 459c e73c 4b98 c23d
00000070: 5c16 82bc 115e 3d3c d65c 69bc cfbc 26bd
00000080: d86f a7bc 51f5 afbd 3b90 203d 1485 363d
00000090: c40d 1e3d b1ca 823d 3158 a43d 6959 6dbd
000000a0: 15dc ccbc 6663 093b 8935 25be 4773 e3bd
000000b0: f9c3 453d daf3 293d 6d44 53bd c489 32bd
000000c0: 65ed 61bd cdf4 9cbd 05cd 63bc 24fc 90bc
000000d0: 242a 1fbc 93cb d2bd 7fe4 88bc 5a65 923c
000000e0: 53dc 14be 8b94 163d 2367 ad3d aa3f 34be
000000f0: b60b 31bd d2fe e43c 7679 c23b af4c 0f3d
00000100: 129a 71bd 349d efbd badf 0f3d 6e87 3a3c
00000110: 9b7e 23bc d6ba 02be 31f7 4e3d 9789 aabd
00000120: a6f6 ba3b d849 32bc b294 9dbd c016 0b3d
00000130: 7fd4 3f3d a981 f63d 1164 1bbb 5707 813b
00000140: ed2a 093d befd 70bc 2522 eb3c b6ad ddbc
00000150: fc52 ecbd e48b 71bc c38f d63d c50a f1bd
00000160: 7079 0a3d c0e7 01be f85a 623d 943c debb
00000170: 5718 60bc d87d 06bd cfeb 94bd 8b0f 8fbd
00000180: 695e 2dbc 7417 9b3c a0d6 e5bd bf79 4d3b
00000190: bdbb 633d 7310 41bc 0676 013d 2cc3 a8bd
000001a0: 9e0e aa3d 022f b23d 2549 d6bc aaa8 6c3d
000001b0: a585 d6bc d342 cf3c bb6c 54bd 343d c8bd
000001c0: d233 58bd 4726 b13d 7f0b 5e3d 79ca 21bd
000001d0: d1c5 34bd 5121 ff3c bab4 c73c c9a5 a3bc
000001e0: 6f3e eebc a58f 49bd 968c 973d c3a1 9fbc
000001f0: ddf1 c03a f124 cf3b 7319 b9bb 713e 1b3d
00000200: 7503 21bd 9639 24bd 75ba 953c 00e1 763c
00000210: 9f2c 3abb a575 84bc 8790 90bc a5ec 8b3c
00000220: 72f6 df3c fbfe 8cbd a98d 3ebe 1359 03bc
00000230: 0e36 76bd 96cf bfbd d509 d1bd c168 b0bd
00000240: 422d 99bc f147 4abd b99f d13d 34b3 91bd
00000250: 1e49 973d 6043 0e3d 6785 053c 5fcd e03c
00000260: 2e24 47bc 4afd 503a 881d 8ebd b96f 79bd
00000270: a010 cfbd 1c76 873d b05f 153d 9ece adbc
00000280: a190 3dbd 2be8 62bd f0ce 98bc 6a77 14bd
00000290: d8db 1cbd e65a 163d 77f1 933d 8f8d 41bd
000002a0: 9f67 d73c 1ecd 073d 3a07 acbc bdca 5c3c
000002b0: a50e c6bd a965 84bd 0cfb 4dbd d108 ff3d
000002c0: c5a5 293d 634b 8f3d 17b7 0c3d b0fb 3a3b
000002d0: 1b39 e2bd a879 0bbd a42e 303b 59c6 46bd
000002e0: 169b 2fbd 4cf2 30bc 5e48 703c a3b0 803d
000002f0: d245 b6bd 7286 9f3c 3a7a b23d 221c 82bc
00000300: 7f14 39bc cb4a d1bd a20f 7e3c ff46 e7bc
00000310: 13da a6bd fe0a d4bd 6352 64bc c054 283d
00000320: 9a41 983d 0598 9e3d 541d d23d fe70 e7bc
00000330: 9f88 8bbc b6ad 8ebd aef1 26bc 8915 56bd
00000340: 22a9 583d abf9 693d 3c69 7ebb 1837 59bd
00000350: 73e6 a23c a0aa 8a3b 6ff1 943d 5012 00bd
00000360: c958 943d 9e95 a93d 785b 063d 6102 413c
00000370: 8d91 463d 7158 22be 03fd 843d 5506 5bbd
00000380: 0cf5 d5bb b8cb 56bd 514f 94bd 61fc 833d
00000390: 5e20 23bd aba5 66bd 42aa 2e3d b4ba c23c
000003a0: 25f9 1abd 4220 3c3d 6513 42bc d12e 0fbe
000003b0: 947e 84bd e8d9 16be 4917 52bc 2364 d13d
000003c0: dfa6 abbd a94f 493d 8246 2a3c dcc8 b43d
000003d0: 626b 1abd 0b4b 463d aef4 853d f47c 83bc
000003e0: 1836 ad3c de8a cd3c f43a 1f3d 5ef3 bdbd
000003f0: 8e2f 64bd e3f6 05bd 7831 0cbe 813e 413c

network_body._body_endoder.seq_layers.2.bias f4 [256]
-0.014849738 -0.020308217 -0.030157385 -0.023085656 0.020556897 -0.008568824 0.0015553462 -0.004452051
0.0095309755 -0.011002532 -0.023399828 0.002988375 0.0019791522 0.0041061062 -0.0054364274 -0.05055192
-0.02852836 0.0033382433 -0.02999307 -0.0031974434 0.008234591 0.040611044 -0.035573743 -0.0066882544
-0.0006093291 0.006647799 0.035783984 0.0069107846 0.015996153 -0.027934454 -0.009173879 -0.04156227
-0.005104102 0.01700242 -0.029772729 -0.0077961604 -0.014605989 -0.04145129 -0.0023942294 -0.01572524
-0.012066179 0.017259397 -0.008020819 0.029264113 -0.013333672 0.011486783 -0.008356976 0.009121467
-0.017537158 0.010773447 -0.009946022 -0.02572626 -0.012895064 0.022306135 -0.023187563 -0.017841227
-0.0290944 -0.008388973 -0.011083916 0.018722698 -0.02472433 -0.014174557 0.025029575 0.004498175
-0.004408249 -0.023703637 -0.032732405 0.019572848 0.009222629 -0.0016501122 0.0029514362 -0.025890393
0.0019796544 -0.016235592 -0.023715282 0.01040043 0.0048357714 -0.0021479924 0.019146167 -0.033183042
0.0075977743 -0.010440226 0.011964879 -0.046413213 0.009111051 -0.04479557 -0.016550334 -0.010759371
0.0145418495 -0.020870604 0.007563978 -0.01289601 0.011698864 -0.032536905 0.007953284 0.043048233
0.006664725 -0.024026547 -0.00091121753 -0.03003663 -0.02862225 0.008244743 -0.019086877 -0.013893593
-0.033484925 -0.031214628 -0.023458187 -0.011901123 -0.030438025 -0.0059993337 -0.0153409615 0.0012944536
-0.012702865 -0.04019334 0.025175601 -0.010333979 -0.020280879 0.0037220756 0.021592783 -0.008051019
-0.048715375 -0.0091177225 0.015573707 -0.0082704015 0.015592625 -0.028092017 0.0050534345 0.01489937
-0.02541825 0.021422848 -0.005050906 0.024348019 0.023075936 -0.038462617 -0.020242818 0.01472831
-0.0030910051 0.0013697136 0.00017349953 -0.04785313 -0.012499664 -0.024315735 -0.0002116879 0.027778592
0.008214682 -0.016731942 -0.0077472012 0.016828327 -0.03434382 -0.0039991457 -0.009963079 0.03369313
-0.0026573113 -0.033282235 -0.008285005 0.0100420555 -0.03204022 -0.020917179 0.025394281 -0.04506947
0.0353622 -0.030558843 0.04452141 -0.008737111 0.010170903 0.0004299409 -0.030655578 0.008994132
-0.035158407 -0.017274834 -0.016417297 0.027423564 -0.025071198 -0.0012049051 -0.013671694 -0.007719228
-0.008847887 -0.02191708 -0.016496584 -0.009347281 0.008551322 0.0076662507 -0.008982084 -0.014803355
0.020144626 -0.024538001 -0.026846157 -0.009018291 0.00657425 -0.042362817 0.012064064 -0.00066171424
-0.022282451 -0.032730907 -0.011804226 -0.008047543 0.0024293414 0.0072579845 0.0033563268 0.02988192
-0.0035442256 0.042537905 -0.022300504 -0.0119365705 0.0006677318 -0.013736598 -0.050141633 -0.0199484
0.008516881 -0.017987428 0.0086673945 0.031441495 -0.018032078 0.023677183 -0.0019491956 0.034488015
0.029851945 -0.020169439 0.024655301 -0.022877019 -0.0017782993 -0.027597236 0.014688555 0.0032168245
-0.0025266819 -0.010417406 -0.003259872 -0.0056782924 -0.016035832 -0.011762378 -0.016636254 -0.013494083
-0.018924296 -0.022396961 -0.03392136 -0.00866566 0.0062280158 0.014079793 -0.0008454592 -0.013414555
-0.023961265 0.006680954 -0.016806947 0.0040179472 -0.019104283 -0.027587086 -0.01724983 -0.019378198
-0.015610322 0.010957562 -0.047347773 -0.034547094 0.016086876 -0.020606358 0.023907136 0.005700666
00000000: 514c 73bc 6b5d a6bc 9f0c f7bc 211e bdbc
00000010: f066 a83c 4164 0cbc c2dc cb3a 83e2 91bb
00000020: cf27 1c3c f743 34bc ffb0 bfbc 9dd8 433b
00000030: aab4 013b 848c 863b 0f24 b2bb 880f 4fbd
00000040: 4fb4 e9bc 6ec6 5a3b 07b4 f5bc 338c 51bb
00000050: 61ea 063c c457 263d c6b5 11bd 2529 dbbb
00000060: 62bb 1fba c8d5 d93b 3a92 123d dd73 e23b
00000070: 5d0a 833c ccd6 e4bc 0a4e 16bc 333d 2abd
00000080: 5040 a7bb a948 8b3c f0e5 f3bc ef76 ffbb
00000090: f54d 6fbc d4c8 29bd 81e8 1cbb 38d2 80bc
000000a0: 39b1 45bc 9463 8d3c c169 03bc 4bbb ef3c
000000b0: 7975 5abc 0f33 3c3c b3eb 08bc 3572 153c
000000c0: 16aa 8fbc 1d83 303c a4f4 22bc e1bf d2bc
000000d0: d245 53bc 5bbb b63c d8f3 bdbc c427 92bc
000000e0: 6157 eebc e771 09bc 5099 35bc 5860 993c
000000f0: ae8a cabc 673c 68bc d30a cd3c 6d65 933b
00000100: 1373 90bb 212e c2bc 6a12 06bd 3d57 a03c
00000110: 821a 173c 9448 d8ba e26c 413b 1718 d4bc
00000120: 17bd 013b 8100 85bc 8d46 c2bc 9166 2a3c
00000130: 6475 9e3b 55c5 0cbb 6cd8 9c3c f1ea 07bd
00000140: c0f6 f83b 7b0d 2bbc 5708 443c c81b 3ebd
00000150: 8546 153c 8f7b 37bd 9194 87bc 1348 30bc
00000160: f040 6e3c d4f8 aabc 3fdb f73b c949 53bc
00000170: 98ac 3f3c 6b45 05bd 7e4e 023c 5853 303d
00000180: c463 da3b 52d3 c4bc c6de 6eba 610f f6bc
00000190: 3579 eabc f514 073c 155c 9cbc f4a1 63bc
000001a0: 7d27 09bd d2b5 ffbc 622b c0bc eefc 42bc
000001b0: 2a59 f9bc 0f96 c4bb a858 7bbc a8aa a93a
000001c0: ad1f 50bc c6a1 24bd 103d ce3c d94f 29bc
000001d0: 1624 a6bc 11ee 733b 59e3 b03c 6ce8 03bc
000001e0: c689 47bd 8062 15bc dd28 7f3c 9480 07bc
000001f0: 3678 7f3c 3b21 e6bc 4897 a53b 7d1c 743c
00000200: ef39 d0bc f87e af3c 1282 a5bb 7f75 c73c
00000210: bf09 bd3c fa8a 1dbd 44d4 a5bc 024f 713c
00000220: 7692 4abb f687 b33a 6ded 3539 a501 44bd
00000230: 64cb 4cbc cb31 c7bc 8af8 5db9 ee8f e33c
00000240: e096 063c 6d11 89bc 3cdc fdbb 8fdb 893c
00000250: 1bac 0cbd 440b 83bb 2f3c 23bc cf01 0a3d
00000260: 4926 2ebb f452 08bd d4bd 07bc 6f87 243c
00000270: 9b3c 03bd 815a abbc ab07 d03c c49a 38bd
00000280: f4d7 103d 8a56 fabc 155c 363d 1a26 0fbc
00000290: dca3 263c b169 e139 6821 fbbc 205c 133c
000002a0: 4302 10bd f483 8dbc 917d 86bc 62a7 e03c
000002b0: 1d62 cdbc e8ed 9dba 3eff 5fbc 94f1 fcbb
000002c0: baf6 10bc 738b b3bc d823 87bc 5725 19bc
000002d0: d81a 0c3c 2c35 fb3b 9729 13bc c589 72bc
000002e0: 5806 a53c eb03 c9bc 79ec dbbc 74c1 13bc
000002f0: ce6c d73b a284 2dbd 5aa8 453c e476 2dba
00000300: b089 b6bc d810 06bd 8366 41bc d7d9 03bc
00000310: 9635 1f3b 63d4 ed3b d2f5 5b3b eeca f43c
00000320: 3d46 68bb 3a3c 2e3d 8caf b6bc 9b91 43bc
00000330: b90a 2f3a 780f 61bc 5061 4dbd d46a a3bc
00000340: 638a 0b3c 5f5a 93bc b001 0e3c ccc8 003d
00000350: 02b8 93bc a7f6 c13c 277c ffba 4e43 0d3d
00000360: 118c f43c 613a a5bc eaf9 c93c 9668 bbbc
00000370: d315 e9ba 9913 e2bc 44a8 703c 5cd1 523b
00000380: b096 25bb c5ad 2abc 94a3 55bb f810 babb
00000390: 945d 83bc fdb6 40bc c148 88bc 4916 5dbc
000003a0: 2007 9bbc d579 b7bc 20f1 0abd 6afa 0dbc
000003b0: 6214 cc3b efae 663c cea1 5dba b9c8 5bbc
000003c0: 6a4a c4bc e7eb da3b b9ae 89bc fca8 833b
000003d0: 9680 9cbc 50fe e1bc 844f 8dbc 07bf 9ebc
000003e0: 70c2 7fbc 5987 333c bdef 41bd 4181 0dbd
000003f0: a0c8 833c aace a8bc e6d8 c33c a7cc ba3b

action_model._discrete_distribution.branches.0.weight f4 [2, 256]
0.03565522 0.005919617 -0.027573438 0.02901279 0.00061942014 0.046653695 0.0022031053 -0.0347834
0.07391205 -0.0030749019 -0.017052615 0.020638455 -0.0045445315 0.049018383 -0.00051141746 -0.0017641595
-0.01528116 0.036706463 0.017161421 0.0506768 -0.009860901 -0.047362354 0.003195301 0.058903184
0.047756646 0.05030961 -0.0055875913 0.009005509 -0.006145383 -0.0077945385 -0.0048052436 -0.004120586
0.05463385 0.08187278 -0.008348838 0.012884884 0.014457369 -0.009862002 0.07822397 0.071819976
0.040943217 0.016392572 0.022129541 -0.04501673 0.0034451303 0.010244561 0.014892921 -0.0073980363
0.012831057 0.029874379 0.057294622 0.03418345 -0.006711946 0.034668513 0.033365767 0.025882265
-0.017770985 0.00018862968 0.020402534 0.0017500165 0.002091525 0.0135986395 -0.029237447 0.060027227
-0.005564415 0.020947965 0.00087770715 -0.0064203255 0.025366964 -0.0025428457 0.03593099 0.00044351106
-0.0149488915 -0.009094194 0.013349796 -0.0045202957 0.0031905402 0.007045171 -0.05002934 0.0025374219
0.030420516 0.002710912 -0.018485457 0.01813781 0.03282217 0.00012740059 0.024805006 0.014568913
0.08592043 0.01918835 0.010306698 0.0026976548 0.020509804 -0.024195919 -0.041881293 0.007831767
-0.023551831 0.020442357 -0.0035097534 0.023548884 -0.00988659 0.022057513 0.03131132 -0.0044950456
0.030315967 0.0152831795 0.014599759 0.022276862 0.0060740877 -0.0032992093 0.035699386 -0.00020455882
-0.0030494723 -0.0017941532 0.006220451 -0.0049850675 0.013581458 0.06518196 0.0111381365 0.01737337
-0.013353085 -0.029742382 0.042699546 -0.0011900137 -0.024041729 0.02885365 0.0123035135 0.0077057504
0.038482096 0.036600444 0.004743756 0.042934004 -0.019408595 -0.0148863895 0.06605138 -0.008499411
0.017441258 -0.020187762 0.036696427 0.0012814163 0.035697468 0.020491129 0.016101625 -0.007952318
0.013504467 0.0008710144 -0.0045274254 0.012529466 -0.00020218406 0.016811041 0.036061283 -0.026053905
0.019195382 -0.018186923 0.06811202 0.012291333 0.010914621 0.011305543 -0.06256971 -0.002495016
-0.020609383 0.0049055214 -0.037042763 -0.006833796 0.014033046 -0.013712201 0.01371383 0.01733154
0.008166341 0.020729948 0.007936762 0.00038630236 0.01073862 0.06184496 0.023181006 0.022656873
-0.027936826 0.00035516103 -0.013103726 0.02637391 0.06245277 -0.017751662 0.0014271791 0.049061473
0.0004671803 0.020991722 -0.0155197065 0.014904677 -0.011542172 -0.024667425 -0.022472773 0.0009556888
-0.0052227923 0.009725116 0.053623 0.031285 0.017352646 0.041877355 -0.0015044413 0.009236253
0.022567116 -0.039358605 -0.0010906796 0.029826377 -0.049139578 -0.00053059985 -0.0036395092 0.041999597
0.017441122 0.016626656 0.014234593 -0.021486556 0.01578494 0.05072241 0.0002486015 -0.058644596
0.0048073055 0.053455777 0.0025648368 0.020938272 0.05092826 -0.050361753 -0.03963239 0.059310243
0.03956381 0.060915407 0.044148378 0.0056646997 0.025742698 -0.008631962 0.035276357 -0.008583316
0.014547841 -0.0076087904 -0.022566346 0.00410307 0.06355323 -0.030063413 0.047492445 0.008902072
-0.0034594457 0.01053076 0.015397858 -0.040624723 -0.004482197 -0.008364176 0.0104368115 0.0066487845
0.037882116 0.03025508 -0.010153606 0.02237582 -0.0040662657 0.049770992 0.070794284 0.009972114
00000000: 350b 123d 59f9 c13b b1e1 e1bc 3bac ed3c
00000010: 9560 223a f217 3f3d f961 103b 0a79 0ebd
00000020: 335f 973d 4b84 49bb edb1 8bbc fa11 a93c
00000030: 4bea 94bb 80c7 483d a510 06ba 5f3b e7ba
00000040: d55d 7abc 8459 163d 1c96 8c3c 7a92 4f3d
00000050: 9e8f 21bc 07ff 41bd 4168 513b 7744 713d
00000060: 799c 433d 7311 4e3d 1d18 b7bb d88b 133c
00000070: 365f c9bb 5469 ffbb 4e75 9dbb fb05 87bb
00000080: bec7 5f3d ebac a73d 91c9 08bc 1f1b 533c
00000090: 9ade 6c3c 3c94 21bc e433 a03d 5a16 933d
000000a0: 13b4 273d b749 863c 0349 b53c 7663 38bd
000000b0: b2c7 613b ced8 273c 7001 743c 3a6b f2bb
000000c0: 5b39 523c 1dbb f43c c4ad 6a3d f203 0c3d
000000d0: e2ef dbbb 9200 0e3d 8baa 083d 0b07 d43c
000000e0: 7594 91bc e5ca 4539 3723 a73c cf60 e53a
000000f0: f711 093b d4cc 5e3c 5f83 efbc 1cdf 753d
00000100: b255 b6bb 119b ab3c ee15 663a 9861 d2bb
00000110: 61ce cf3c dfa5 26bb 602c 133d 0c87 e839
00000120: 32ec 74bc d0ff 14bc 1ab9 5a3c fd1e 94bb
00000130: 6218 513b 2edb e63b 91eb 4cbd e04a 263b
00000140: 7234 f93c 8ea9 313b d06e 97bc bf95 943c
00000150: 8a70 063d d696 0539 de33 cb3c 73b2 6e3c
00000160: 0df7 af3d e330 9d3c 6ddd 283c 23cb 303b
00000170: 2d04 a83c 8536 c6bc b88b 2bbd d050 003c
00000180: c5ef c0bc bb76 a73c e403 66bb 97e9 c03c
00000190: 5dfb 21bc f5b1 b43c 4c40 003d 2d4b 93bb
000001a0: 3159 f83c 4d66 7a3c d433 6f3c f77d b63c
000001b0: 2409 c73b 8c37 58bb 8539 123d d77e 56b9
000001c0: a8d9 47bb cb29 ebba edd4 cb3b c759 a3bb
000001d0: c384 5e3c 1f7e 853d bb7c 363c 9952 8e3c
000001e0: e6c6 5abc 4ca6 f3bc b8e5 2e3d 3cfa 9bba
000001f0: 29f3 c4bc 7d5e ec3c ad94 493c 8580 fc3b
00000200: 679f 1d3d 59ea 153d 8271 9b3b 91db 2f3d
00000210: c6fe 9ebc 0be6 73bc f245 873d 1d41 0bbc
00000220: f8e0 8e3c ce60 a5bc fe4e 163d 32f5 a73a
00000230: 8237 123d 03dd a73c 8ee7 833c 704a 02bc
00000240: d741 5d3c c954 643a cc5a 94bb 6448 4d3c
00000250: 5f01 54b9 4fb7 893c ffb4 133d 006f d5bc
00000260: a23f 9d3c befc 94bc 517e 8b3d 9661 493c
00000270: 3dd3 323c e23a 393c 8c24 80bd 6c83 23bb
00000280: 02d5 a8bc 7fbe a03b 27ba 17bd 09ee dfbb
00000290: dcea 653c 24a9 60bc f9af 603c e0fa 8d3c
000002a0: 1ecc 053c dad1 a93c 3109 023c a088 ca39
000002b0: 09f1 2f3c 2451 7d3d 18e6 bd3c e89a b93c
000002c0: c5db e4bc e834 ba39 03b1 56bc 190e d83c
000002d0: 7ace 7f3d ef6b 91bc 2f10 bb3a aff4 483d
000002e0: e1ef f439 d5f6 ab3c 5e46 7ebc bf32 743c
000002f0: 611b 3dbc 5713 cabc d218 b8bc 3187 7a3a
00000300: f523 abbb 1856 1f3c caa3 5b3d b324 003d
00000310: 2327 8e3c 9787 2b3d ac30 c5ba a753 173c
00000320: acde b83c 7d36 21bd 22f5 8eba 7256 f43c
00000330: 9546 49bd f417 0bba d584 6ebb c507 2c3d
00000340: afe0 8e3c a034 883c 3638 693c 9304 b0bc
00000350: 6b4f 813c 4dc2 4f3d ba56 8239 5135 70bd
00000360: 9a86 9d3b 72f4 5a3d d216 283b bd86 ab3c
00000370: 279a 503d 2048 4ebd 9355 22bd 4cef 723d
00000380: a90d 223d 6f82 793d eed4 343d f29e b93b
00000390: 5ae2 d23c 136d 0dbc f17d 103d 09a1 0cbc
000003a0: 115a 6e3c 2953 f9bb 0fdd b8bc 0c73 863b
000003b0: 3228 823d 8c47 f6bc 7087 423d ffd9 113c
000003c0: deb7 62bb 3589 2c3c 4c47 7c3c 1c66 26bd
000003d0: 65df 92bb e609 09bc 29ff 2a3c 0cde d93b
000003e0: 472a 1b3d 80d9 f73c 4f5b 26bc 7f4d b73c
000003f0: 4f3e 85bb abdc 4b3d 98fc 903d 1462 233c

action_model._discrete_distribution.branches.0.bias f4 [2]
-0.03543401 0.035434008
00000000: 4123 11bd 4023 113d

action_model._discrete_distribution.branches.1.weight f4 [2, 256]
0.028069882 -0.00675487 -0.0029592335 0.038511988 -0.010001951 0.05608956 -0.00683021 -0.0115555
0.06502301 -0.021106295 0.03260485 0.015254679 -0.02058178 0.022955503 -0.00844723 -0.00030489053
0.014508278 0.041408014 -0.0074553587 0.035402335 0.037413355 0.010359543 0.01144705 0.05776378
-0.021194404 0.013742056 0.0068805525 0.07195873 -0.007304076 0.0006314948 0.012708095 0.00019620116
0.020497203 0.02030942 -0.004833812 0.0018742243 -0.0033323637 0.008545215 0.06830222 0.040897142
0.03630724 0.007098488 0.01648249 0.011976975 0.04551003 0.02293124 0.0088356 0.009799343
0.016298639 0.0061797546 0.08147319 -0.012521759 -0.0003920604 0.035468474 0.008248372 0.05087045
-0.0034862005 0.012920888 0.014079404 0.018361293 -0.005701942 -0.016148191 -0.011412132 0.03601854
0.0102338465 -0.0033661763 -0.012930978 0.009716584 0.015690094 0.015231536 0.031946503 -0.014708512
-0.00012956014 -0.011594597 0.017810263 -0.011318761 0.012371311 0.008872399 -0.036040522 0.01602769
0.022929842 -0.017426498 0.0012467117 0.0042946376 0.042927887 -0.0011809631 -0.021574756 0.021932414
0.0052006794 -0.010452506 0.010642679 -0.037996646 0.0037928936 0.00142016 0.025584627 -0.011562808
0.012972533 0.05631247 0.014300147 -0.0024097178 -0.01054315 0.033559393 0.044227947 -0.0060965186
0.019750316 0.05213255 0.008580423 -0.012717457 -0.0048213094 -0.019071937 0.046770435 0.002444394
0.0032400594 0.005650457 -0.04199106 -0.022215981 -0.007330785 0.016818691 -0.015840476 0.0060189143
-0.013891274 0.010630698 0.012266352 -0.021721916 -0.019846592 0.02784166 -0.0028628542 -0.03914823
0.024868404 -0.061013095 -0.04707505 -0.007283745 -0.017658606 0.033669814 0.048225097 -0.007525038
0.036614407 0.031180464 -0.021416252 0.0058221407 0.04358515 0.048492983 -0.012690767 -0.020181969
-0.05233936 -0.0046851374 -0.00788836 -0.02015061 -0.00618942 0.035164293 0.061713792 -0.04525147
-0.013047198 0.005420496 0.025646655 -0.05708628 0.012893249 0.02065181 0.032113284 -0.0043157977
-0.056217983 0.026127357 -0.0069198194 -0.018168392 0.021636916 -0.0030023223 -0.0025043075 -0.056018304
-0.012552763 0.0051264125 -0.004337956 -0.012057577 -0.0138490405 0.02355288 0.034207582 0.040646043
-0.028104074 -0.009792233 -0.033700027 0.0062765484 -0.0028712233 0.016633388 0.026187826 0.046552535
0.016875306 -0.001403966 0.009309614 0.022554178 -0.016293505 0.006440431 -0.020925837 0.01300518
-0.0048005003 0.010753352 0.023688368 0.005569193 -0.0030737054 0.048072796 -0.014269316 -0.065090224
0.011721824 0.019495511 -0.010500771 0.035637747 0.0072157467 -0.0014968602 -0.005750413 0.023663709
0.012432118 0.05389521 -0.0014874891 -0.04735808 0.041385736 0.015221453 0.028429538 0.0071389447
0.02429971 0.029803982 0.054576546 -0.0031949705 0.031092672 0.011574671 -0.0029614687 0.055263862
0.06381198 0.019073611 0.01868304 0.039167378 0.01681282 -0.0052354233 0.036189903 -0.03108926
0.02141358 -0.015945764 0.0020979235 0.015598504 0.044436906 0.005286967 0.007860212 -0.0002109981
0.034473132 -0.009604873 0.018531792 0.010826696 -0.01683268 -0.022218563 -0.00312993 0.0043144072
0.04445201 -0.050258484 0.0020541642 0.012334132 -0.05605127 0.047751363 0.037433356 0.009532798
00000000: cff2 e53c f557 ddbb b3ef 41bb bfbe 1d3d
00000010: 39df 23bc 2bbe 653d f4cf dfbb 4853 3dbc
00000020: c92a 853d 1ce7 acbc aa8c 053d c3ee 793c
00000030: 1f9b a8bc 2e0d bc3c 4066 0abc b7d9 9fb9
00000040: 21b4 6d3c 739b 293d 154c f4bb 0a02 113d
00000050: bf3e 193d 13bb 293c 688c 3b3c b799 6c3d
00000060: e39f adbc 5c26 613c 4276 e13b 195f 933d
00000070: 0857 efbb e68a 253a 9d35 503c 59bb 4d39
00000080: c0e9 a73c f15f a63c f464 9ebb 88a8 f53a
00000090: c963 5abb 3b01 0c3c 09e2 8b3d c383 273d
000000a0: e7b6 143d 6f9a e83b 4906 873c 133b 443c
000000b0: ba68 3a3d 4cda bb3c 31c3 103c 6c8d 203c
000000c0: b984 853c 8a7f ca3b 6adb a63d 1028 4dbc
000000d0: 758d cdb9 6447 113d 2e24 073c 885d 503d
000000e0: bd78 64bb 22b2 533c 4dad 663c 6c6a 963c
000000f0: 5bd7 babb 3649 84bc f3f9 3abc 2d88 133d
00000100: ddab 273c 119b 5cbb 74dc 53bc 4f32 1f3c
00000110: 8388 803c b18d 793c 56da 023d f9fb 70bc
00000120: 89da 07b9 44f7 3dbc d4e6 913c 5372 39bc
00000130: 0ab1 4a3c 8a5d 113c 3a9f 13bd 814c 833c
00000140: 5dd7 bb3c 04c2 8ebc b468 a33a 08ba 8c3b
00000150: 27d5 2f3d 8cca 9aba 8bbd b0bc 9bab b33c
00000160: 766a aa3b fd40 2bbc a25e 2e3c 5fa2 1bbd
00000170: 3292 783b aa24 ba3a da96 d13c ef71 3dbc
00000180: bf8a 543c e8a7 663d 2a4b 6a3c 5bec 1dbb
00000190: 2dbd 2cbc 9375 093d 5d28 353d 4ec5 c7bb
000001a0: 6acb a13c f188 553d e794 0c3c e15c 50bc
000001b0: 13fc 9dbb c03c 9cbc 5b92 3f3d 2032 203b
000001c0: 2d57 543b 7827 b93b d1fe 2bbd 4afe b5bc
000001d0: 1537 f0bb 5ac7 893c e3c3 81bc 503a c53b
000001e0: 3a98 63bc 612c 2e3c cff8 483c 29f2 b1bc
000001f0: 5295 a2bc 3114 e43c b99e 3bbb e559 20bd
00000200: d3b8 cb3c dee8 79bd c5d1 40bd 7bac eebb
00000210: c8a8 90bc 5ce9 093d ae87 453d 9894 f6bb
00000220: fdf8 153d 2c6e ff3c 2371 afbc a8c7 be3b
00000230: 5886 323d 94a0 463d efec 4fbc a854 a5bc
00000240: cc61 56bd c885 99bb 2e3e 01bc e412 a5bc
00000250: 9ed0 cabb 6f08 103d 9ac7 7c3d 9b59 39bd
00000260: eac3 55bc 6b9e b13b ef18 d23c 4ed3 69bd
00000270: 353e 533c fc2d a93c 3889 033d 896b 8dbb
00000280: d444 66bd 0a09 d63c a7bf e2bb e1d5 94bc
00000290: e73f b13c 9cc2 44bb 4f1f 24bb 7373 65bd
000002a0: 1baa 4dbc 77fb a73b 6a25 8ebb 258d 45bc
000002b0: 16e7 62bc f8f1 c03c 401d 0c3d 777c 263d
000002c0: 843a e6bc 9a6f 20bc 0a09 0abd 81ab cd3b
000002d0: 222b 3cbb be42 883c da87 d63c dfad 3e3d
000002e0: 153e 8a3c 4805 b8ba 5a87 183c 8ac3 b83c
000002f0: f579 85bc 400a d33b a96c abbc ae13 553c
00000300: 844d 9dbb d42e 303c 1c0e c23c c77d b63b
00000310: 3870 49bb fbe7 443d d9c9 69bc 064e 85bd
00000320: e50c 403c 0db5 9f3c 6d0b 2cbc e3f8 113d
00000330: 1272 ec3b 4b32 c4ba f66d bcbb 65da c13c
00000340: 15b0 4b3c 39c1 5c3d daf7 c2ba 8cfa 41bd
00000350: 1784 293d 6763 793c 10e5 e83c cfed e93b
00000360: 2f10 c73c 7b27 f43c a88b 5f3d b662 51bb
00000370: 0fb6 fe3c b0a3 3d3c 3315 42bb 5c5c 623d
00000380: dbaf 823d 4340 9c3c 2d0d 993c f96d 203d
00000390: 0abb 893c ea8d abbb dd3b 143d e7ae febc
000003a0: 886b af3c b1a0 82bc 517d 093b de90 7f3c
000003b0: 7903 363d 4b3e ad3b 1ec8 003c 5f3f 5db9
000003c0: b333 0d3d c25d 1dbc fccf 973c 7462 313c
000003d0: b0e4 89bc b403 b6bc 831f 4dbb df5f 8d3b
000003e0: 5013 363d d7db 4dbd 289f 063b 1915 4a3c
000003f0: 0496 65bd ef96 433d b853 193d 742f 1c3c

action_model._discrete_distribution.branches.1.bias f4 [2]
-0.025464663 0.025464656
00000000: 459b d0bc 419b d03c

action_model._discrete_distribution.branches.2.weight f4 [2, 256]
0.010502815 0.009509364 -0.0032560022 0.03103799 -0.012936388 0.041699547 0.02357774 -0.010792274
-0.006509221 0.009490223 -0.0027239537 0.041429173 -0.018256452 -0.0006102518 0.034678716 0.0076365164
0.019857427 -0.019037114 0.015262422 0.05440531 0.029993327 -0.02738521 -0.017039778 0.026950475
-9.1093425e-05 0.04948309 -0.015392647 0.021721154 0.020854648 0.012924451 0.009083535 0.00087386067
0.037413806 0.018151859 0.010150686 0.007288267 -0.011806687 -0.004209504 0.03546529 0.04476036
0.05732206 0.049806822 0.030617151 -0.0015938932 0.024716487 -0.011432871 0.019041382 0.037438404
0.037263155 0.016961696 0.07249637 0.008376977 0.010410258 0.047244385 0.012133437 0.050032806
-0.017403338 -0.003070311 0.009000886 -0.003725376 0.0017182255 0.02102157 0.01895086 0.008503431
0.0048110085 0.006892501 -0.0035653436 -0.022996468 0.042057697 0.022213249 0.023988737 -0.012520723
-0.00012727661 0.023758234 0.04006099 -0.012483444 -0.015749535 -0.004955553 -0.025905985 0.0072741783
0.020249264 0.0056019537 0.027925408 0.039475694 0.053817637 0.021613106 0.018027835 0.013857108
-0.007730542 0.025215998 0.028006509 0.029775912 0.00012566373 0.0005449784 0.010275309 -0.012891178
0.00040502555 0.016233798 0.052981522 -0.0015340246 0.032343127 0.033774916 0.041133597 0.03644644
0.01898863 0.029487187 0.0406054 0.011519269 -0.006205197 -0.0038641293 0.049929917 0.02500636
0.014062165 0.02109453 -0.019739281 0.005153278 -0.020116068 -0.0068985317 -0.017976047 -0.0068207663
-0.0015264999 0.02140521 -0.0060069314 0.02124293 0.01686712 0.026068633 0.028517494 -0.017187925
0.033295214 -0.01873336 0.04014492 -0.010918672 -0.021502519 0.03477729 0.0336027 -0.0028886676
0.025016377 -0.0043888646 -0.0028525523 0.006565743 -0.00089945574 0.033194616 0.022651657 0.035544004
0.008535954 0.019078186 0.01617456 0.00016512333 -0.014701038 0.030564042 0.060061418 0.00011052072
0.022550747 0.001371106 0.041914895 0.00030599796 0.0069257854 -0.004179572 0.013425628 0.002136762
-0.029880725 0.029836012 -0.04017995 0.027617028 0.03262254 0.005483619 0.0141318245 -0.004350311
0.024149185 -0.0021268295 0.023204586 -0.0024796394 0.007721204 0.0003346231 0.04795235 0.054577816
0.005529555 0.008222083 0.022299597 0.03396166 0.07138295 0.050640922 0.027541783 0.034714133
-0.035685085 0.02275281 0.0068625375 0.029082563 0.013371774 0.013287775 0.0005992316 -0.0015462689
-0.005875928 0.005293383 0.058376756 0.022862906 0.03061181 0.01656481 0.039241627 -0.02812382
0.005640713 0.004927598 -0.005317645 0.040584147 0.044583026 -0.0171468 -0.009965546 0.03019224
0.038716525 0.024272239 -0.025932457 0.005176127 0.024704393 -0.04009554 0.04380655 0.0059183436
0.021273168 0.045564555 0.002402298 0.01901756 -0.013043528 0.024818728 -0.026645187 0.046593487
0.043419503 0.010603586 0.015420321 0.017535085 0.01819535 -0.018825414 0.057858318 0.00959382
0.025297074 0.023826655 -0.0012697405 -0.0050467537 0.055780202 -0.018164976 0.015135392 0.020240534
0.007434719 -0.020735163 0.03659025 0.0799351 -0.0047119246 0.014010014 -0.008097087 0.025127053
0.02294019 -0.024617886 -0.008690097 0.02375245 0.00034000556 0.03251437 0.062173158 0.002143518
00000000: 0014 2c3c 2acd 1b3c a762 55bb 6243 fe3c
00000010: 25f3 53bc 25cd 2a3d 1b26 c13c 14d2 30bc
00000020: 4e4b d5bb e17c 1b3c 5c84 32bb a3b1 293d
00000030: 8e8e 95bc 4ef9 1fba 450b 0e3d be3b fa3b
00000040: 0bac a23c b9f3 9bbc 3d0f 7a3c 1ad8 5e3d
00000050: 91b4 f53c f356 e0bc 0197 8bbc 3ec7 dc3c
00000060: 6909 bfb8 c8ae 4a3d 7131 7cbc 90f0 b13c
00000070: 5ed7 aa3c 14c1 533c 1bd3 143c cc13 653a
00000080: 383f 193d 35b3 943c 104f 263c 6ad2 ee3b
00000090: d670 41bc e1ef 89bb 0d44 113d a456 373d
000000a0: 89ca 6a3d 3d02 4c3d d2d0 fa3c 2eea d0ba
000000b0: 3b7a ca3c f050 3bbc acfc 9b3c 0359 193d
000000c0: 40a1 183d 41f3 8a3c fa78 943d 973f 093c
000000d0: c98f 2a3c 5483 413d 53cb 463c 33ef 4c3d
000000e0: 7291 8ebc 4537 49bb 7478 133c 7025 74bb
000000f0: 1536 e13a 6d35 ac3c d53e 9b3c fa51 0b3c
00000100: aaa5 9d3b 7dda e13b 8aa8 69bb 1763 bcbc
00000110: b144 2c3d 8ff8 b53c 0784 c43c b823 4dbc
00000120: 8e75 05b9 a1a0 c23c fe16 243d 5c87 4cbc
00000130: 2b05 81bc 3162 a2bb ca38 d4bc 3b5c ee3b
00000140: c9e1 a53c 9890 b73b d3c3 e43c 44b1 213d
00000150: e26f 5c3d f80d b13c 1caf 933c ec08 633c
00000160: 7d50 fdbb c891 ce3c e86d e53c 9dec f33c
00000170: 9ac4 0339 e2dc 0e3a c559 283c 8535 53bc
00000180: 9c59 d439 befc 843c 2703 593d 5311 c9ba
00000190: 3a7a 043d 9157 0a3d b47b 283d dd48 153d
000001a0: 0b8e 9b3c 1d8f f13c d951 263d 51bb 3c3c
000001b0: f754 cbbb 553d 7dbb 5083 4c3d 23da cc3c
000001c0: ff64 663c 70ce ac3c 46b4 a1bc d4dc a83b
000001d0: 74ca a4bc 140d e2bb 8142 93bc bc80 dfbb
000001e0: d614 c8ba fb59 af3c cbd5 c4bb a705 ae3c
000001f0: ea2c 8a3c e38d d53c 859d e93c b1cd 8cbc
00000200: 9060 083d b476 99bc 006f 243d 3be4 32bc
00000210: 0d26 b0bc a272 0e3d fca2 093d cd4f 3dbb
00000220: 25ef cc3c 77d0 8fbb e3f1 3abb 7225 d73b
00000230: 74c9 6bba 14f7 073d f88f b93c 9796 113d
00000240: 63da 0b3c db49 9c3c 8380 843c f524 2d39
00000250: 9fdc 70bc 7161 fa3c f602 763d 5cc7 e738
00000260: 58bc b83c afb6 b33a f4ae 2b3d 5a6e a039
00000270: b3f1 e23b cbf4 88bb 2af7 5b3c eb08 0c3b
00000280: 6cc8 f4bc a76a f43c bb93 24bd 1b3d e23c
00000290: 369f 053d eeaf b33b 2b89 673c 0e8d 8ebb
000002a0: 83d4 c53c 4762 0bbb 8b17 be3c 7281 22bb
000002b0: 2702 fd3b 5a70 af39 af69 443d fd8c 5f3d
000002c0: 4531 b53b eab5 063c a5ad b63c 621b 0b3d
000002d0: 3931 923d db6c 4f3d 4e9f e13c 6830 0e3d
000002e0: 862a 12bd 1a64 ba3c 23df e03b 8e3e ee3c
000002f0: 4915 5b3c f8b4 593c c015 1d3a 2dac caba
00000300: db8a c0bb 1d74 ad3b 771c 6f3d fd4a bb3c
00000310: 9ec5 fa3c edb2 873c d4bb 203d ed63 e6bc
00000320: bbd5 b83b b077 a13b a43f aebb 903b 263d
00000330: b19c 363d 7277 8cbc 8846 23bc b755 f73c
00000340: 3895 1e3d 93d6 c63c 4e70 d4bc 809c a93b
00000350: de60 ca3c 393b 24bd 7f6e 333d aaee c13b
00000360: 1145 ae3c e6a1 3a3d df6f 1d3b b7ca 9b3c
00000370: 86b4 55bc a550 cb3c 0247 dabc d0d8 3e3d
00000380: a6d8 313d aaba 2d3c 84a5 7c3c bda5 8f3c
00000390: 6a0e 953c c137 9abc d8fc 6c3d 662f 1d3c
000003a0: cf3b cf3c 1e30 c33c 6c6d a6ba 3d5f a5bb
000003b0: c879 643d b7ce 94bc 6ffa 773c 7acf a53c
000003c0: f19e f33b cadc a9bc a8df 153d 04b5 a33d
000003d0: 7d66 9abb 428a 653c a5a9 04bc 40d7 cd3c
000003e0: 11ed bb3c 73ab c9bc e960 0ebc 7f94 c23c
000003f0: c642 b239 ca2d 053d 48a9 7e3d 447a 0c3b

action_model._discrete_distribution.branches.2.bias f4 [2]
-0.01942467 0.019424686
00000000: 7c20 9fbc 8520 9f3c
