Assets/results/0000/TrafficLightBrain/TrafficLightBrain-779995.onnx (onnx, 386520 bytes, 13 tensors)

discrete_act_size_vector f4 [1, 4]
0	0x40000000	2.0
1	0x40000000	2.0
2	0x40000000	2.0
3	0x40000000	2.0

network_body._body_endoder.seq_layers.0.weight f4 [256, 100]
0	0x3cabd6c1	0.020976426
1	0xbdf484b2	-0.11939372
2	0xbdb4b251	-0.08823074
3	0xbe3ecb31	-0.18632199
4	0xbd8306e1	-0.063977964
5	0x3d1e1588	0.038594753
6	0x3b309519	0.0026944338
7	0xbd7acf80	-0.061233044
8	0xb9e6cbae	-0.00044020772
9	0xbdb62542	-0.08893825
10	0xbe321525	-0.17390878
11	0xbe03e5c8	-0.12880623
12	0xbd25a1f4	-0.040437654
13	0xbd20fb11	-0.039301936
14	0xbda17b57	-0.07884853
15	0x3e37b321	0.17939426
16	0x3e2342c5	0.1594344
17	0xbe36df27	-0.17858563
18	0x3d4cd760	0.050010085
19	0xbddaa60e	-0.10676204
20	0x3d6ad91f	0.05733597
21	0xbe13087f	-0.1435871
22	0x3d56d865	0.052452464
23	0x3ce1b0e7	0.027550174
24	0xbe8e6350	-0.27810144
25	0x3bc70660	0.006073758
26	0xbcabf0b0	-0.020988792
27	0x3d7a346f	0.06108516
28	0xbe07445d	-0.13209672
29	0xbc728e12	-0.01480438
30	0x3e0c11ef	0.13678716
31	0x3d2dce4a	0.04243306
32	0x3e31b678	0.17354763
33	0xbe25c3a0	-0.16187906
34	0x3dd8716d	0.10568509
35	0x3d8290d3	0.06375279
36	0xbe18431d	-0.14869352
37	0xbcb5e9a3	-0.022206133
38	0x3d009632	0.031393237
39	0x3d899e40	0.06719637
40	0x3d8e234c	0.06940326
41	0xbe131423	-0.1436315
42	0x3c96ebe8	0.018423036
43	0x3d1b9065	0.037979502
44	0x3d8b736e	0.06809126
45	0xbd6c8097	-0.05773982
46	0x3d8d5c98	0.069024265
47	0x3bc20509	0.0059210104
48	0xbc2c6201	-0.010521413
49	0xbd63f2b0	-0.055651367
50	0xbd6dda33	-0.05806942
51	0x3db8e36f	0.090277545
52	0xbd826d27	-0.063684754
53	0xbc4de2c0	-0.012566268
54	0xbb7cb7f8	-0.0038561802
55	0x3d53d3cf	0.05171567
56	0x3e1ca27b	0.15296356
57	0xbd936002	-0.071960464
58	0xbd2c762b	-0.04210488
59	0x3d73db65	0.059535403
60	0x3db636aa	0.08897145
61	0x3cdd9cd7	0.027052326
62	0xbdf017ed	-0.117233135
63	0x3db14efb	0.086576425
64	0x3d078469	0.03308526
65	0x3cd59e4a	0.026076455
66	0x3cb25ff7	0.021774275
67	0xbe396246	-0.18103895
68	0x3c8f4979	0.01749109
69	0xbceee672	-0.02916262
70	0x3d30e753	0.043189358
71	0xbe23728d	-0.15961666
72	0xbd68b8cf	-0.056816872
73	0x3c37e956	0.011225065
74	0x3e1e884c	0.1548168
75	0x3c5dfeb3	0.013549495
76	0x3d761a58	0.060083717
77	0xbc915694	-0.017741479
78	0x3de70822	0.11280848
79	0x3ac89e87	0.0015306034
80	0x3d941dc1	0.072322376
81	0x3e077b03	0.13230519
82	0xbd7eb8cd	-0.06218796
83	0xbe4514d6	-0.1924623
84	0x3d750f2d	0.059828926
85	0xbbbe6e78	-0.0058115087
86	0xbdb1be3c	-0.086788625
87	0x3c3d2a14	0.011545677
88	0x3d6916c5	0.05690648
89	0xbb188a10	-0.002327565
90	0xbdeeff6a	-0.1166981
91	0x3d6a7ab0	0.05724591
92	0x3e669e8b	0.22521417
93	0xbb4625f6	-0.0030235029
94	0xbe2b80f4	-0.1674841
95	0x3d1a97b8	0.037742347
96	0xbdf70758	-0.120619476
97	0xbe7b16a5	-0.24520357
98	0xbd419519	-0.04726133
99	0xbe00f1a0	-0.12592173
100	0xbd8e51a4	-0.069491655
101	0x3abff32d	0.0014644616
102	0x3ce3fdaf	0.027830927
103	0xbe0fd960	-0.14047766
104	0x3c9ebce6	0.019377183
105	0xbc9c97ef	-0.019115416
106	0x3da8594d	0.08220158
107	0x3cebe975	0.028797844
108	0xbcac27c9	-0.021015065
109	0x3df3b339	0.118994184
110	0x3e0d1e79	0.13781156
111	0x3e226e79	0.15862454
112	0x3dfe9cdd	0.12432263
113	0x3ce050b4	0.027382232
114	0xbdc9c86d	-0.09852681
115	0x3dc92b57	0.098227195
116	0x3dca3fd8	0.098754585
117	0x3d663319	0.056201074
118	0x3b1209cb	0.002228367
119	0x3e013403	0.12617497
120	0x3db77695	0.089581646
121	0xbd48782e	-0.048942737
122	0x3dbf7e2b	0.093502365
123	0x3d5e78d7	0.05431446
124	0x3c93c91d	0.018040234
125	0x3df9be3d	0.12194488
126	0xbddc9398	-0.10770339
127	0x3e09441e	0.13404891
128	0xbe679b33	-0.22617798
129	0x3d5f4d2a	0.05451695
130	0xbd4d57bb	-0.050132494
131	0xbd19446e	-0.037418775
132	0xbc7360c7	-0.0148546165
133	0x3c4e9b8d	0.012610328
134	0x3e4a1387	0.19734012
135	0xbe3d4258	-0.1848234
136	0x3c88661f	0.016650258
137	0x3db3a52b	0.08771738
138	0xbdaa6c08	-0.083213866
139	0xbcc1c89f	-0.023655234
140	0x3c2d4563	0.010575625
141	0x3d5404db	0.051762443
142	0x3d7089e0	0.058725238
143	0xbdcb91c7	-0.09939914
144	0x3e0a87f7	0.13528429
145	0xbe21d1f7	-0.15802751
146	0x3d7e2b7b	0.062053185
147	0x3d7755f7	0.060384717
148	0xbe2b016d	-0.16699763
149	0xbe094066	-0.13403472
150	0x3e161de3	0.14659838
151	0xbdcdf4eb	-0.1005648
152	0xbd57ff03	-0.052733433
153	0xbdb62419	-0.08893604
154	0xbbbe541a	-0.0058083655
155	0xbd0dad08	-0.034588844
156	0xbe0e345b	-0.1388716
157	0x3cd71b4a	0.02625813
158	0xbdc0e9df	-0.09419607
159	0x3e400e2e	0.18755409
160	0x3dbd7d78	0.09252447
161	0xbde4aa90	-0.11165345
162	0x3cbffdff	0.023436544
163	0x3d74220b	0.05960278
164	0xbdd7782d	-0.105209686
165	0xbd7edf42	-0.062224634
166	0x3dabc14b	0.08386477
167	0xbe06ad51	-0.13152052
168	0x3c61bc67	0.013777829
169	0xbcc21832	-0.023693178
170	0x3cf5db3d	0.030011768
171	0xbe7fa6a5	-0.24965914
172	0x3e83d8ed	0.2575144
173	0xbdaea383	-0.08527281
174	0x3d84e6b7	0.06489318
175	0x3dcd501d	0.10025046
176	0xbc87aa2b	-0.016560635
177	0xbd90cf24	-0.07070759
178	0x3c647908	0.013944872
179	0xbc4e6025	-0.012596165
180	0xbd8e8836	-0.06959574
181	0x3d494565	0.049138445
182	0xba9e309d	-0.0012068931
183	0x3e4ae2b3	0.19813041
184	0x3dae774f	0.0851885
185	0xbd58dc23	-0.052944314
186	0xbd80c12c	-0.062868446
187	0x3e3d29e5	0.18473013
188	0x3d8a430b	0.06751069
189	0xbcdf97c5	-0.027294049
190	0xbda135b6	-0.07871573
191	0x3d8a3b09	0.06749541
192	0xbd66a497	-0.05630931
193	0x3e032e16	0.12810549
194	0x3c33eab1	0.010981248
195	0x3e030c3b	0.12797634
196	0x3ca50648	0.020144597
197	0xbd1db010	-0.038497984
198	0x3d6eec5b	0.058330875
199	0xbcfa0d9b	-0.030524066
200	0xbdb7db5b	-0.089773856
201	0xbd897cfb	-0.06713291
202	0x3d0447ee	0.03229516
203	0xbd25e4e2	-0.040501483
204	0x3d4716ca	0.048605718
205	0x3eb17d7d	0.34666052
206	0xbdf10c43	-0.11769917
207	0x3d2424ec	0.040074274
208	0xbcf18962	-0.029484455
209	0xbcfd1830	-0.030895323
210	0x3b00777b	0.0019602466
211	0xbe17e82f	-0.14834665
212	0xbc92bd5d	-0.017912561
213	0x3e15ebad	0.14640684
214	0xbda900df	-0.08252119
215	0x3e1d8ee0	0.15386534
216	0xbd0d1d6a	-0.03445188
217	0xbe42e9e4	-0.19034535
218	0x3d92c022	0.07165553
219	0xbbd63502	-0.0065370807
220	0xbca806dd	-0.020511085
221	0xbe372f79	-0.17889203
222	0x3dc8a9b5	0.09797994
223	0x3daa43a3	0.08313682
224	0xbd83d924	-0.06437901
225	0xbd717d4d	-0.058957387
226	0xbe10a0df	-0.14123867
227	0xbd917913	-0.07103171
228	0x3d141e96	0.03616198
229	0x3e1141fe	0.1418533
230	0xbb6ca96d	-0.0036111728
231	0xbd264c1b	-0.040599924
232	0xbdcabad1	-0.09898914
233	0x3dcb3e5d	0.09924004
234	0x3db0141f	0.08597588
235	0xbda33cbb	-0.07970568
236	0x3cfd441b	0.030916264
237	0xbe30d390	-0.17268205
238	0xbdaec4f2	-0.08533658
239	0xbd8fa1b7	-0.070132665
240	0x3ca611ee	0.020272221
241	0x3df0c3da	0.11756106
242	0xbb4ec33a	-0.003154947
243	0x3e7aeada	0.24503651
244	0xbbd1b9f2	-0.0064003402
245	0x3e047665	0.12935789
246	0xbb35cf4c	-0.0027741967
247	0x3d527865	0.05138435
248	0xbda4a0cf	-0.08038484
249	0x3e4f8c73	0.20268421
250	0xbd9fd3b3	-0.0780405
251	0x3d3ed72c	0.046591923
252	0xbdbce511	-0.092233784
253	0xbd9e7f98	-0.0773918
254	0x3e3d5514	0.18489486
255	0xbe3d5644	-0.18489939

network_body._body_endoder.seq_layers.0.bias f4 [256]
0	0xbd427b20	-0.047480702
1	0x3bfa6ea8	0.007642586
2	0xbceaef41	-0.028678538
3	0x3cbf9525	0.023386547
4	0x3c8e2c82	0.017355207
5	0xbd2f7349	-0.042834554
6	0xbcf1aa07	-0.02950002
7	0x3cc21c26	0.023695063
8	0x3ab7a0ef	0.0014009754
9	0xbc804599	-0.015658187
10	0xbc88f1c0	-0.016716838
11	0xbd16bc39	-0.036800597
12	0xbafdcc29	-0.0019363213
13	0xbca1c751	-0.019748362
14	0xbd0fd79c	-0.03511773
15	0xbd11559b	-0.03548203
16	0x3c796965	0.015222882
17	0xbd167b8d	-0.03673892
18	0xbceda4d5	-0.029009262
19	0xbc4a0534	-0.012330342
20	0x3ccdba89	0.025113361
21	0xbd64daf9	-0.05587289
22	0x3da0b5b1	0.07847155
23	0x3cda4ed8	0.026648924
24	0xbc025a2e	-0.007956071
25	0xbd17247e	-0.036900036
26	0xbcbd9876	-0.023143988
27	0xbd2644dc	-0.040593013
28	0xbbf00039	-0.0073242453
29	0x3df1a5a9	0.11799175
30	0xbcd4d447	-0.025980128
31	0x3c92a1ff	0.017899511
32	0x3bc8c2cd	0.0061267377
33	0xbb384e3b	-0.00281228
34	0x3cb2ec6b	0.021841248
35	0x3a813000	0.0009856224
36	0x3d8230b7	0.06356948
37	0xbd22bd1c	-0.03973113
38	0xbd4a43b9	-0.04938099
39	0xbcef3722	-0.029201094
40	0xbd1e6111	-0.03866679
41	0xbcbebe9d	-0.02328425
42	0xbdabce05	-0.083889045
43	0xbba8748e	-0.0051408475
44	0xbce55d1d	-0.027998501
45	0xbc465e6b	-0.012107472
46	0xbad61e91	-0.0016336014
47	0xbcf45827	-0.02982719
48	0xbca5b3b1	-0.020227285
49	0xbdae7230	-0.08517873
50	0x3b19184b	0.0023360427
51	0xbcc6628d	-0.024216915
52	0xbbef1378	-0.007296022
53	0x3d0e5ec7	0.034758355
54	0x3d033f64	0.032042876
55	0x3d2e53cc	0.042560384
56	0xbd3cea6b	-0.046121996
57	0xbd634911	-0.055489603
58	0x3c689d35	0.014197637
59	0xbb9ad851	-0.004725494
60	0xbc238a22	-0.009981664
61	0xbcbdff29	-0.023192959
62	0x3d1b6d34	0.03794594
63	0xbc9fda1f	-0.019513188
64	0xbcf3c6ea	-0.029757936
65	0xbd07c108	-0.033143073
66	0x3c4b9a24	0.012426887
67	0xbcce1e77	-0.025161011
68	0x3ca21776	0.019786578
69	0xbd618602	-0.05505944
70	0xbcf752c1	-0.030190827
71	0x3cb83768	0.022487357
72	0x3d51b6a4	0.05119957
73	0xbca30dca	-0.019904036
74	0x3cd2e8d1	0.025745781
75	0x3c65a980	0.014017463
76	0x3d38ceb1	0.04511899
77	0xbd52694b	-0.051369946
78	0x3b6d6339	0.0036222471
79	0xbbf40163	-0.0074464544
80	0xba4f3590	-0.0007904405
81	0x3b91f1df	0.004453882
82	0xbd1a87bb	-0.0377271
83	0x3d7b47d5	0.0613478
84	0x3c1530f9	0.009105914
85	0x3d00b3c1	0.031421427
86	0x3cc9a4d4	0.024614729
87	0xbd4fb586	-0.050710224
88	0xbd30aa66	-0.043131255
89	0xbc5f3a57	-0.013624749
90	0xbd1d7a06	-0.03844645
91	0xbc83b3a1	-0.016076865
92	0xbcb72c8f	-0.022360114
93	0xb948dbe7	-0.00019155406
94	0xbcb62bc3	-0.022237664
95	0x3d23dfaa	0.040008225
96	0xbc0c2105	-0.008552794
97	0x3d5ebaa3	0.05437721
98	0x3ce369da	0.027760435
99	0x3cc20c1c	0.023687415
100	0x3d3acaa8	0.045603424
101	0x3d3191f9	0.0433521
102	0x3cd29399	0.025705146
103	0x3c2c894a	0.010530779
104	0x3d47791d	0.048699487
105	0x3c79dce0	0.015250415
106	0x3d22bc16	0.039730154
107	0xbb8175e8	-0.003950823
108	0xbb741a0b	-0.0037246968
109	0x3d3b0121	0.045655373
110	0x3ca5bb25	0.020230839
111	0x3ccb07db	0.02478402
112	0x3ca3df1c	0.020003848
113	0xbcf12f88	-0.02944161
114	0xbd336aa5	-0.043802876
115	0x3cc1c8f9	0.023655402
116	0x3cbcdb3e	0.023053762
117	0xbcc3ce2b	-0.02390202
118	0xbc229f5b	-0.009925689
119	0xbd0ddb35	-0.03463288
120	0xbc81cc99	-0.01584463
121	0x3c3f23e1	0.011666269
122	0xbb8e5022	-0.0043430487
123	0x3b0275b7	0.001990659
124	0x3c60e209	0.013725766
125	0xbd0441c6	-0.03228929
126	0xbd772172	-0.06033463
127	0x3d658834	0.056038097
128	0xbcbf5cb4	-0.023359634
129	0xbd0622cf	-0.03274804
130	0xbd7ba49d	-0.061436284
131	0xbc739c1d	-0.014868763
132	0x3d031932	0.03200645
133	0xbbcc349a	-0.0062318565
134	0x3d2af72c	0.041739628
135	0xbd387cb9	-0.04504082
136	0x3df4fec4	0.11962655
137	0xbcf8e4ed	-0.030382598
138	0xbd4763e7	-0.04867926
139	0x3dc9aa6a	0.09846957
140	0x3c88904c	0.016670369
141	0xbc7bf653	-0.0153785525
142	0x3d7bb1c5	0.06144883
143	0x3c74a62f	0.014932199
144	0xbd0665b5	-0.03281184
145	0x3d637bd6	0.05553802
146	0x3aedf64c	0.0018155067
147	0x3ce9288d	0.028461719
148	0xba918a00	-0.0011103749
149	0xbd224320	-0.039614797
150	0x3c8939e4	0.016751237
151	0x3d1c4f8e	0.038161807
152	0x3c74249a	0.014901305
153	0x3d429149	0.047501836
154	0x3b86e2eb	0.004116406
155	0xbc2debcc	-0.0106153
156	0xbcdbaa51	-0.026814612
157	0x3c9fe08c	0.019516252
158	0xbc65d31b	-0.014027382
159	0xbcb97e6d	-0.022643292
160	0xbd3b470e	-0.04572206
161	0xbc85db72	-0.016339991
162	0xba82f876	-0.000999226
163	0x3d03de82	0.03219462
164	0x3c9ba5ae	0.0189999
165	0xbd86c239	-0.06580014
166	0xbc95f74d	-0.018306399
167	0x3d19b2ff	0.03752422
168	0xbd029172	-0.03187699
169	0x3d2fb38f	0.04289585
170	0x3b8a08e9	0.004212488
171	0xbb89d96e	-0.004206828
172	0xbcbfeb24	-0.023427553
173	0x3d35cbec	0.04438393
174	0x38f13524	0.00011501674
175	0xbd4f3e5f	-0.05059659
176	0x3d655cf6	0.055996858
177	0x3c7a00a9	0.015258946
178	0x3b899dca	0.004199718
179	0xbc98b002	-0.018638615
180	0xbd4bcc48	-0.049755365
181	0xbd4a24eb	-0.049351614
182	0x3b46ff52	0.0030364585
183	0xbd2aabda	-0.041667797
184	0xbc87e946	-0.016590726
185	0xbca891c8	-0.020577326
186	0xbd2f7c2b	-0.042843025
187	0xbc0fff84	-0.008788947
188	0x3bab4f47	0.0052279565
189	0xbcd4092d	-0.025883282
190	0xbd063ec5	-0.032774705
191	0x3c835e17	0.016036076
192	0xbd016830	-0.0315935
193	0x3c104a30	0.00880675
194	0x3cade789	0.021228569
195	0x3d55fb08	0.052241355
196	0xbd92aecb	-0.07162245
197	0x3d6b8a54	0.057504967
198	0xbcdccadb	-0.026952198
199	0xbca2f9ca	-0.0198945
200	0x3d131570	0.035909116
201	0x3d9d35ef	0.07676303
202	0x3bb67c68	0.0055690296
203	0xbcc9a500	-0.024614811
204	0xbcdb629b	-0.026780417
205	0xbd893b12	-0.0670072
206	0xbd0bc87e	-0.03412675
207	0xbd55bbea	-0.052181162
208	0xbca345d7	-0.019930763
209	0xbb11473c	-0.0022167703
210	0xbd55209d	-0.052033056
211	0xbc1065da	-0.008813346
212	0x3d66a3e1	0.05630863
213	0xbc3bd87e	-0.01146519
214	0x3d08d2cc	0.033404157
215	0x3bedba48	0.0072548725
216	0xbcb3a011	-0.021926912
217	0xbcf80b53	-0.030278837
218	0xbc9151ee	-0.017739262
219	0xbc3c49f2	-0.011492239
220	0x3be9eb9b	0.007138682
221	0xbd199c5c	-0.03750263
222	0xbc6d3d31	-0.014479921
223	0x3d34d1ed	0.044145513
224	0xbd4b1a0e	-0.049585395
225	0xbcfa71c9	-0.030571835
226	0xbd3e49cd	-0.0464571
227	0xbd55c4bd	-0.052189577
228	0xbd68a457	-0.05679735
229	0x3bc9af1d	0.0061549083
230	0xba2d6538	-0.0006614509
231	0x3cc14b99	0.023595618
232	0xbcb20ffe	-0.021736141
233	0x3ba872b4	0.005140627
234	0x3d75ee02	0.060041435
235	0x3c3e3495	0.011609216
236	0x3bce7790	0.006300874
237	0xbd3caa2f	-0.046060737
238	0x3cfc6c8a	0.030813474
239	0x3d97616e	0.0739163
240	0x3d828231	0.06372488
241	0xbc114e78	-0.008868806
242	0xbca3b8a6	-0.019985508
243	0x3d502cc5	0.050823946
244	0xbc34d76a	-0.011037687
245	0xbd766701	-0.060156826
246	0x3d7a89b0	0.061166465
247	0xbc24776a	-0.010038236
248	0x3d174c82	0.036938198
249	0x3c62c352	0.013840513
250	0xbc82bc0e	-0.015958812
251	0xbbc809f9	-0.0061047045
252	0xbc3f63e7	-0.011681533
253	0x3b753f41	0.0037421735
254	0xbb422cdb	-0.0029628787
255	0xbc51d815	-0.012807866

network_body._body_endoder.seq_layers.2.weight f4 [256, 256]
0	0xbd32fae6	-0.043696307
1	0xbe155359	-0.14582576
2	0xbca7d5f9	-0.020487772
3	0xbd3e5891	-0.046471182
4	0xbdbda1d9	-0.092593856
5	0xbe3ee9f6	-0.18643937
6	0x3e283c94	0.16429359
7	0xbda338da	-0.07969828
8	0xbca77508	-0.020441547
9	0xbd40d149	-0.04707459
10	0x3caf4fb7	0.021400316
11	0x3c38cf39	0.0112798745
12	0x3d931fe6	0.071838185
13	0x3d2a73d7	0.04161438
14	0xbccf9f0f	-0.0253444
15	0xbe00985c	-0.1255812
16	0x3d8974de	0.06711744
17	0xbd555719	-0.052085016
18	0x3c4b7a92	0.01241936
19	0x3d9c7bbe	0.076407894
20	0xbd651b17	-0.055934038
21	0xbce15d24	-0.027510233
22	0x3d75e4a2	0.060032494
23	0xbd3e3c04	-0.046443954
24	0x3d2412e4	0.040057078
25	0x3cf46d89	0.029837387
26	0xbb1f5219	-0.0024310409
27	0x3d088085	0.03332569
28	0xbdc87f06	-0.09789853
29	0x3c90d9be	0.017681953
30	0x3d2acd3a	0.041699626
31	0xbd4c1199	-0.04982147
32	0xbe464c6a	-0.19365087
33	0xbdb3f5c9	-0.08787114
34	0x3d2b7874	0.04186292
35	0xbbb21863	-0.005435036
36	0xbd5cf2af	-0.05394238
37	0xbdb5c1ea	-0.08874877
38	0x3a7c622e	0.0009627667
39	0x3ca71894	0.020397462
40	0x3db739e2	0.08946587
41	0xbd455d44	-0.04818465
42	0x3c86c34d	0.016450549
43	0x3c5066b2	0.012719797
44	0xbd02bd5b	-0.031918865
45	0x3b7f7ab9	0.003898306
46	0xbbefb184	-0.0073148627
47	0xbd340aaf	-0.0439555
48	0x3cf53d03	0.02993632
49	0xbcc31b59	-0.023816751
50	0xbd607523	-0.05479921
51	0x3e02a95c	0.12759918
52	0xbd7cbc62	-0.061703093
53	0xbde1fee6	-0.11034946
54	0xbdb36f94	-0.08761516
55	0xbe04186b	-0.1289994
56	0x3dbdc4b3	0.09266033
57	0xbd446d89	-0.047956023
58	0xbd324c02	-0.043529518
59	0x3bdd23d0	0.006748654
60	0xbd9e6cba	-0.07735582
61	0xbbdf88f2	-0.006821745
62	0x3d0592d8	0.032610744
63	0x3d491d1a	0.04910002
64	0xbd68f189	-0.05687097
65	0x3d30531d	0.043048013
66	0x3a373186	0.00069882756
67	0xbd560b38	-0.052256793
68	0xbdc0ea5b	-0.094197
69	0x3d8a7a1c	0.06761572
70	0xbbdede12	-0.006801375
71	0x3dc8b333	0.097998045
72	0xbc6e2c8f	-0.014536991
73	0xbdd93368	-0.10605508
74	0x3daffdb0	0.08593309
75	0x3db9521a	0.09048863
76	0x3d106058	0.03524813
77	0x3c38d2cf	0.011280729
78	0xbd19979b	-0.037498098
79	0xbdc75d46	-0.09734587
80	0x3d51c3a7	0.05121198
81	0xbc990b84	-0.018682249
82	0xbcfd8ad6	-0.030949991
83	0xbd38ced5	-0.045119125
84	0x3dd80d03	0.10549357
85	0xbd1d4226	-0.038393162
86	0xbd3f55dc	-0.04671274
87	0x3d4b1f75	0.049590547
88	0xbe09ceb7	-0.13457762
89	0x3c6ec1e6	0.014572596
90	0x3b92b804	0.004477503
91	0x3aeac6c5	0.0017912021
92	0x3da5f5c2	0.08103515
93	0x3d6a8df8	0.0572643
94	0xbcf840fe	-0.030304428
95	0xbd017ab4	-0.03161116
96	0xbd656d66	-0.056012534
97	0xbd646bc4	-0.055766836
98	0xbdaf6145	-0.085634746
99	0x3d8fd707	0.07023435
100	0xbcd744a5	-0.02627785
101	0x3dc0e9db	0.094196044
102	0x3c5b5dd6	0.013389071
103	0x3ca0854f	0.019594816
104	0x3d9259f9	0.07146067
105	0xbc2835c6	-0.010266727
106	0x3db591c4	0.08865693
107	0xbce7a242	-0.028275613
108	0x3dae6c6f	0.08516776
109	0x3da8b29d	0.08237193
110	0xbcd61af8	-0.026135907
111	0xbd0800c3	-0.03320385
112	0x3bed1f39	0.007236388
113	0xbc7d543a	-0.015461976
114	0xbd95f6a9	-0.07322437
115	0x3e0047d0	0.12527394
116	0x3cbfb8f0	0.023403615
117	0x3d147960	0.036248565
118	0xbe02704b	-0.12738149
119	0xbb49264b	-0.003069299
120	0x3d50447f	0.050846573
121	0x3e0a9b71	0.13535859
122	0xbc8d0e85	-0.017218838
123	0x3cbdc7e6	0.023166608
124	0xbd8b9c4f	-0.06816923
125	0x3dcc2e86	0.09969811
126	0xbddc0dd9	-0.10744829
127	0xbd92eadb	-0.071737014
128	0xbd3d158c	-0.046163127
129	0xbd4af922	-0.049553998
130	0x3b05de47	0.0020426677
131	0x3e6628fa	0.22476569
132	0x3df24d91	0.11831201
133	0xbd77dcf2	-0.060513444
134	0x3d8981c8	0.06714207
135	0xbc3e3973	-0.011610377
136	0x3b367385	0.002783985
137	0x3d652af6	0.055949174
138	0xbd346cf5	-0.044049222
139	0xbcee4bd4	-0.029088892
140	0x3d14bd5d	0.036313403
141	0xbccda7dd	-0.025104458
142	0xbdd70a34	-0.10499993
143	0x3d905c40	0.07048845
144	0x3dbfbde9	0.09362394
145	0xbc5ebc41	-0.013594688
146	0xbd3186e4	-0.043341532
147	0x3d1fd4c6	0.039021276
148	0x3d7698c9	0.0602043
149	0x3d5d8608	0.0540829
150	0x3dcd6b91	0.10030282
151	0x3d94ff9c	0.07275316
152	0xbe1be501	-0.15224077
153	0x3d4447e1	0.04792011
154	0x3d8c1e6e	0.068417415
155	0xbd04af43	-0.032393705
156	0x3de09a50	0.10966933
157	0x3d87bb21	0.06627489
158	0xbd5cc32a	-0.05389706
159	0xbd59d7d9	-0.053184364
160	0xbc8e5aa3	-0.017377203
161	0xbcde1d00	-0.027113438
162	0xbd6a4069	-0.057190333
163	0xbd6d0632	-0.057867236
164	0x3ca2330d	0.019799734
165	0xbcadca85	-0.021214733
166	0xbc178123	-0.009247097
167	0xbdd0e25d	-0.10199425
168	0x3d67029d	0.056398977
169	0x3dac22b5	0.08405057
170	0x3d8fbd78	0.0701856
171	0x3dec6cdf	0.11544203
172	0xbbce55a1	-0.006296829
173	0xbd23e81f	-0.04001629
174	0x3d298aa1	0.041391972
175	0xbceb3586	-0.028712045
176	0x3d3ba691	0.045813147
177	0xbc79fc03	-0.015257838
178	0xbb903fc2	-0.004402132
179	0xbd904e86	-0.07046227
180	0x3c8ff76f	0.01757404
181	0xbc700776	-0.014650216
182	0xbba44b8e	-0.0050138896
183	0xbcd216be	-0.02564561
184	0x3d4f3a08	0.050592452
185	0x3c53c49c	0.012925293
186	0x3d40a197	0.047029104
187	0xbd3e1853	-0.046409916
188	0x3d311b9e	0.04323923
189	0xbdb1e94b	-0.08687075
190	0x3dc7fcb9	0.09765
191	0x3d0b1ff2	0.033966012
192	0x3d80b28a	0.062840536
193	0x3e05cf3a	0.13067332
194	0xbdd833c1	-0.10556746
195	0xbdf2ba3d	-0.118519284
196	0xbceaa82a	-0.02864464
197	0x3db0efe5	0.08639506
198	0x3d5c4291	0.05377442
199	0xbd3ff031	-0.046859924
200	0xbccb1368	-0.024789527
201	0x3d4e3446	0.05034282
202	0x3d6a033a	0.057131983
203	0xbc9179fd	-0.017758364
204	0x3d014452	0.031559296
205	0xbd99b883	-0.07505896
206	0x3d4b8ca8	0.049694687
207	0x3c132728	0.008981504
208	0x3de39d6a	0.11114009
209	0x3dca0e71	0.09866036
210	0x3c01a340	0.007912457
211	0x3e227a9d	0.15867086
212	0xbd177653	-0.036978077
213	0x3d20e5d5	0.039281685
214	0xba2a689a	-0.0006500572
215	0x3e0ec23a	0.13941279
216	0x3e09be6b	0.13451545
217	0x3e012250	0.12610745
218	0x3e2a184d	0.16610833
219	0xbcd2d135	-0.025734523
220	0xbd1d711d	-0.03843795
221	0x3d7397bf	0.05947089
222	0x3d8ee89e	0.06977962
223	0x3c44381e	0.01197627
224	0x3d146414	0.036228254
225	0x3e16f4fe	0.14741895
226	0x3d94f0c4	0.07272485
227	0x3bb1a9f3	0.005421871
228	0x3c863438	0.016382322
229	0xbdabb840	-0.08384752
230	0xbd0ef9cd	-0.034906197
231	0x3d45f6af	0.04833096
232	0xbd5f4c3d	-0.054516066
233	0x3d90240b	0.07038125
234	0x3d861d97	0.065486126
235	0x3d7b5353	0.06135876
236	0x3e4485ae	0.1919162
237	0x3c7a4938	0.015276246
238	0xbdee7fec	-0.11645493
239	0xbd64c3c7	-0.05585077
240	0xbb0ef986	-0.0021816208
241	0x3df1cb61	0.118063696
242	0xbd75797e	-0.059930317
243	0x3c19ee8c	0.009395253
244	0x3b6499d4	0.0034881728
245	0xbd568ec1	-0.052382234
246	0x3df34960	0.118792295
247	0x3c9fdd7f	0.019514797
248	0xbd1fe4f2	-0.0390367
249	0xbcec80a7	-0.02886994
250	0x3d96acc1	0.07357169
251	0x3d91cdd2	0.07119335
252	0xbccaefa7	-0.024772478
253	0x3b7992cb	0.003808188
254	0x3d525818	0.051353544
255	0xbd0d0067	-0.03442421

network_body._body_endoder.seq_layers.2.bias f4 [256]
0	0x3c2b3cc9	0.010451504
1	0x3ce004de	0.02734607
2	0xbcbaf0a0	-0.022819817
3	0x3b7fd982	0.0039039557
4	0x3c8333ba	0.016015876
5	0xbcecfc91	-0.028929027
6	0xbd15c9bf	-0.036569353
7	0xbcc35d10	-0.023848087
8	0xbc6edb0a	-0.01457859
9	0xbbecafd4	-0.007223109
10	0x3cc63d67	0.0241992
11	0xbd3b3cfa	-0.04571245
12	0xbc9cbcf4	-0.019133069
13	0x3d08c21c	0.033388242
14	0xbc9527e0	-0.01820749
15	0xbcdf46b8	-0.027255401
16	0x3ce657e2	0.028118078
17	0x3c107fcc	0.008819532
18	0xbc536d66	-0.012904501
19	0xbc998457	-0.018739862
20	0xbbe4eace	-0.0069859987
21	0xbca46382	-0.02006698
22	0x3c66e1fc	0.014091965
23	0xbb4d692c	-0.0031343205
24	0x3cb1ec2f	0.021719066
25	0xbc4ccaa0	-0.012499481
26	0xbd37fd87	-0.044919517
27	0x3d0ca16e	0.03433364
28	0x3c94e478	0.018175349
29	0x3c472489	0.012154707
30	0xbd2e2afd	-0.042521466
31	0x3c57a87a	0.013162727
32	0x3d00ad34	0.03141518
33	0x3c5ff43c	0.01366907
34	0x3c2cbe9f	0.0105434945
35	0xbb7b9aa5	-0.0038391736
36	0x3cbfd8c8	0.023418799
37	0xbca799f0	-0.020459145
38	0xbcbfec9e	-0.023428258
39	0xbcc88668	-0.024478152
40	0xbcfa9300	-0.030587673
41	0xbce747c3	-0.02823246
42	0xbca78a65	-0.020451734
43	0x3b830c90	0.0039993003
44	0xbd285adc	-0.041102275
45	0xbd845ae6	-0.0646265
46	0xbd3f8893	-0.046761107
47	0xbc8fe367	-0.017564489
48	0xbc6d2c20	-0.014475852
49	0xba63a33d	-0.0008683687
50	0x3cef6d0e	0.029226806
51	0xbc89ef90	-0.016837865
52	0x3c428449	0.01187236
53	0xbc57b2d7	-0.013165197
54	0xbc4a6ff6	-0.012355795
55	0x3c912354	0.017717041
56	0xbcec95f9	-0.028880106
57	0x3d27e158	0.04098639
58	0xbc3a1650	-0.011357859
59	0xbccdaebd	-0.025107736
60	0xbc7c8b30	-0.015414044
61	0x3cd567cc	0.02605047
62	0xbd431a0e	-0.04763227
63	0xbb439cd0	-0.0029848106
64	0xbd250117	-0.040284242
65	0xbd0645ed	-0.03278153
66	0x3d1c9c5d	0.038235057
67	0x3b86a696	0.004109214
68	0xbc1accf1	-0.009448276
69	0x3cd02894	0.025409974
70	0xbcdfbc4f	-0.027311472
71	0xbcd416f8	-0.025889859
72	0x3d2d6611	0.042333666
73	0xbc685c46	-0.014182156
74	0xbd041ed7	-0.032255974
75	0x3bdaf312	0.0066818083
76	0xbc33ffcf	-0.0109862825
77	0x3d521a2b	0.051294487
78	0xbc1473f9	-0.009060853
79	0xbcf361a6	-0.029709648
80	0xbcd4f03c	-0.025993459
81	0x3c7446f1	0.014909492
82	0xbce0e61e	-0.027453478
83	0xbd8083d1	-0.06275142
84	0x3cc1903b	0.023628345
85	0xbcb26902	-0.021778587
86	0x3cadaba8	0.021200016
87	0xbd4c5df3	-0.049894284
88	0x3d11b119	0.035569284
89	0xbcb75627	-0.022379948
90	0xbaeda3fa	-0.0018130534
91	0xbd1fdfcb	-0.039031785
92	0xbc206292	-0.009789126
93	0x3b9bdb4c	0.004756367
94	0xbc1854dd	-0.009297577
95	0xbc7419ca	-0.014898727
96	0xbc15f025	-0.009151493
97	0xbc696cde	-0.014247147
98	0x3cd90012	0.026489291
99	0x3c9c6342	0.019090299
100	0x3cd4aeee	0.02596232
101	0xbcabb74f	-0.020961432
102	0x3c8b3665	0.01699371
103	0xbd060000	-0.032714844
104	0x3acb2daa	0.001550128
105	0xbd1461c9	-0.036226068
106	0xbd329af9	-0.043604825
107	0xbd4c06b7	-0.04981109
108	0xbb5da0fb	-0.0033817876
109	0xbcaa808d	-0.02081325
110	0x3b580a63	0.0032965175
111	0xbba02344	-0.0048870165
112	0xbbb068cb	-0.005383586
113	0xbd2484e8	-0.04016581
114	0x3c0ffe85	0.0087887095
115	0xbd0acee2	-0.033888705
116	0xbd1ea0ec	-0.038727686
117	0x3d202408	0.039096862
118	0xbccd9541	-0.025095584
119	0xbd17ae86	-0.037031673
120	0x3c8e9ce5	0.017408798
121	0xbd2168bc	-0.039406523
122	0x3d62fe72	0.05541844
123	0x3cd213b9	0.02564417
124	0xbc942123	-0.018082207
125	0xbc9d254d	-0.019182825
126	0x3d28d507	0.041218784
127	0xbc567c66	-0.013091182
128	0x3d35cbb4	0.04438372
129	0xbcbab767	-0.022792531
130	0x3a9f5024	0.0012154621
131	0x3c12008d	0.008911264
132	0xbd2bb423	-0.04191984
133	0xbc66704c	-0.01406486
134	0xbccda861	-0.025104703
135	0xbcacb411	-0.021081956
136	0xbc6dc01b	-0.014511134
137	0xbca34e8d	-0.019934917
138	0xbcf864e4	-0.030321546
139	0x3d2b08d2	0.04175646
140	0xbc61d19c	-0.013782885
141	0xbc9a199f	-0.018811045
142	0x3d0ad157	0.03389105
143	0xbd6c74d5	-0.057728607
144	0xbce7b849	-0.028286116
145	0xbd28ba90	-0.041193545
146	0x3d1f9544	0.03896071
147	0x3d1acd11	0.037793223
148	0xbce054cc	-0.027384184
149	0xbc218791	-0.009858982
150	0xbc1b4d1b	-0.009478833
151	0xbcd65626	-0.026164126
152	0xbc7f4f36	-0.01558285
153	0x3983cd00	0.00025139004
154	0xbd17e5b3	-0.037084293
155	0x3c194ff7	0.009357444
156	0xbd28336a	-0.041064657
157	0xbc5f2729	-0.013620176
158	0xbcaaffdd	-0.020873958
159	0x3b90c031	0.0044174423
160	0xbb0e4447	-0.0021708177
161	0xbcb3b097	-0.02193479
162	0xbbee7d2c	-0.0072781052
163	0xbbf2c02d	-0.007408163
164	0xbc718b5f	-0.014742701
165	0x3c7a1136	0.0152628925
166	0xbc0eeff7	-0.008724204
167	0xbd042b5d	-0.032267917
168	0x3c68ef45	0.014217203
169	0x3be4aabd	0.0069783614
170	0x3c384c8c	0.011248719
171	0x3c41106b	0.0117836995
172	0xbc32fa09	-0.010923871
173	0xbc9b0f57	-0.018928213
174	0xbb033e35	-0.0020026092
175	0x3d2c911b	0.04213057
176	0xbc6d8205	-0.014496331
177	0xbcd1bb51	-0.025602015
178	0xbcc4b727	-0.024013115
179	0xbbcd6edd	-0.0062693194
180	0xbba22560	-0.004948303
181	0xbd65474e	-0.055976205
182	0x3b8880ad	0.00416573
183	0xbced5352	-0.028970394
184	0x3c0c0e66	0.008548355
185	0x3d12e10b	0.03585915
186	0xbc0a9afd	-0.008459804
187	0x3cc2a002	0.023757938
188	0x3d9a17c9	0.07524068
189	0x3d02c38d	0.031924773
190	0xbd020553	-0.03174336
191	0xbd3ae1d1	-0.04562551
192	0xba5c4096	-0.0008401958
193	0xbd624b88	-0.055247813
194	0x3c7950c7	0.015217013
195	0xbc022428	-0.007943191
196	0xbc4c09ad	-0.012453479
197	0x3c158de6	0.0091280695
198	0x3d0ca1f7	0.03433415
199	0xbc85c73d	-0.016330356
200	0x3c8a27f5	0.016864756
201	0xbd766b59	-0.06016097
202	0xbb5499ad	-0.003244023
203	0xbbffd75f	-0.0078076567
204	0x3cc49fcd	0.02400198
205	0x3bcbec8d	0.0062232674
206	0x3d32cdfd	0.043653477
207	0xbc6b45af	-0.014359876
208	0xbbda758f	-0.006666846
209	0xbcad50de	-0.021156725
210	0xbc40b178	-0.011761062
211	0x3d19ffb9	0.03759739
212	0x3c1635b4	0.009168077
213	0xbc7f7bf9	-0.015593522
214	0x3c90487a	0.017612685
215	0xbd12ebca	-0.035869397
216	0x3cd7c3aa	0.026338417
217	0xbc279453	-0.010228234
218	0x3a5250ef	0.00080229243
219	0xbd056982	-0.032571323
220	0xbb670d69	-0.0035255796
221	0x3cfb2e15	0.030661622
222	0xbc6a2e12	-0.014293211
223	0xbcb2d7a4	-0.021831341
224	0x3d538ea7	0.051649716
225	0x3cdda420	0.0270558
226	0xbcabf078	-0.020988688
227	0xbc5b8423	-0.013398203
228	0xbaf1e783	-0.0018455837
229	0x3d0352d2	0.032061405
230	0x3b86afb8	0.004110303
231	0xbb9b5852	-0.004740753
232	0xbcb36b8d	-0.02190187
233	0xbd2a2a3f	-0.041544195
234	0xbc9d3edc	-0.019195013
235	0xbca63062	-0.020286743
236	0x3ba3b574	0.004995996
237	0x3c41a8fd	0.011820075
238	0xbcbe1dcb	-0.023207566
239	0xbca4b538	-0.020105943
240	0xbc985d54	-0.01859919
241	0xbc1957ad	-0.009359282
242	0xbcaab607	-0.02083875
243	0xbd2fda25	-0.04293265
244	0xbcfa4d6a	-0.030554492
245	0xbc36bd61	-0.01115355
246	0x3c7dd675	0.015493025
247	0x3d20ea28	0.03928581
248	0x3c28f279	0.010311716
249	0x3c39e2b9	0.011345559
250	0x3c2df7eb	0.01061819
251	0xbd1d6f8b	-0.038436454
252	0xbc01b721	-0.0079171965
253	0x3c845da8	0.01615794
254	0x3cfca9a4	0.03084261
255	0x3c05eb93	0.008173841

action_model._discrete_distribution.branches.0.weight f4 [2, 256]
0	0xbbf2ed8c	-0.0074135717
1	0xbce94463	-0.028474992
2	0xbd0b93be	-0.034076445
3	0x3b1701c3	0.0023041822
4	0xbcb2b9f2	-0.021817181
5	0x3cda45d7	0.02664463
6	0x3cf64208	0.030060783
7	0xbbf178c2	-0.007369132
8	0xbcabc41d	-0.020967538
9	0x3d29be21	0.041441087
10	0xbd45026e	-0.04809802
11	0x3c5f1890	0.013616696
12	0x3d4c3259	0.049852703
13	0xbc88018c	-0.0166023
14	0x3d0b3e96	0.033995233
15	0x3cd0f8e4	0.025509305
16	0xbd541385	-0.051776428
17	0xbc26370f	-0.010144963
18	0xbcb2ca44	-0.021824963
19	0xbb1952a5	-0.0023395207
20	0x3b9f8a8d	0.0048688115
21	0x3c921715	0.017833272
22	0xbb00b4f7	-0.0019639113
23	0x3c07f01a	0.008296991
24	0xbc389f05	-0.011268382
25	0x3cef6fd4	0.029228128
26	0x3b2b51f2	0.0026141373
27	0x3ced7e71	0.028990956
28	0x3bcc3a4d	0.006232536
29	0xbbbd88f7	-0.0057841497
30	0x3cd482d3	0.025941288
31	0xbd39a60b	-0.045324367
32	0xbd2dd697	-0.042440977
33	0x3ccf6d2c	0.025320612
34	0x3b28835f	0.002571307
35	0x3b8bf3df	0.004271015
36	0xbd0437c3	-0.03227974
37	0x3c7d3c81	0.01545632
38	0xbca22fe5	-0.019798229
39	0xbcbd6cb0	-0.023123115
40	0xbcc63375	-0.024194458
41	0x3d008a33	0.031381797
42	0x3cd7acbf	0.026327489
43	0xbc7a0bf9	-0.015261644
44	0x3d01c071	0.031677667
45	0x3c8391c1	0.016060712
46	0x3ca897d9	0.02058022
47	0x3d47f0fe	0.048813812
48	0x3caf68b0	0.021412224
49	0x3ccafb30	0.024777979
50	0xbd12916c	-0.035783216
51	0x3c8cf35f	0.017205892
52	0xbc45d475	-0.0120745795
53	0x3c0d365a	0.008618915
54	0x3d022209	0.03177074
55	0x3c8bea65	0.017079541
56	0x3a2b64d5	0.00065381575
57	0xbd5cea8b	-0.053934615
58	0x3cf9b0ff	0.030479906
59	0x3ca4a824	0.020099707
60	0xbce0b414	-0.027429618
61	0x3d215ec6	0.039397024
62	0x3d0cf996	0.03441771
63	0xbd078bd7	-0.033092346
64	0x3cc1e459	0.023668455
65	0x3ceb9108	0.02875568
66	0x3cb7869d	0.022403056
67	0x3c669dbe	0.014075695
68	0x3c8c12a3	0.01709873
69	0xbc72d674	-0.014821637
70	0xbc1f5a41	-0.009726108
71	0x3bb89d43	0.0056339814
72	0xbd00e362	-0.03146685
73	0xbd209173	-0.03920121
74	0x3cc042ac	0.023469292
75	0xbc73e5f1	-0.014886365
76	0x3c850862	0.016239349
77	0xbce1bf30	-0.027556986
78	0x3d18dfc1	0.037322763
79	0x3d2d7188	0.0423446
80	0x3cdac016	0.026702922
81	0xbd5d188b	-0.053978484
82	0x3d22dbd5	0.03976043
83	0x3c5f3284	0.013622884
84	0xbcbfba5c	-0.023404293
85	0x3cdf32aa	0.027245838
86	0xbd0df57f	-0.03465795
87	0x3cae738b	0.02129533
88	0xbcc96412	-0.02458385
89	0x3c8f4372	0.017488215
90	0xbd03c61b	-0.03217135
91	0x3b788eed	0.0037926987
92	0x3cc3b580	0.023890257
93	0x3d06546d	0.03279536
94	0x3aee7105	0.0018191641
95	0x3ca3b1b4	0.019982196
96	0x3cdb32ce	0.026757624
97	0x3ca48463	0.020082658
98	0xbd63d722	-0.05562509
99	0xbcd38ad4	-0.025823034
100	0xbcdad9db	-0.02671521
101	0x3c6d935c	0.014500465
102	0xbca3733e	-0.019952413
103	0x3d360a53	0.04444344
104	0x3cae61c8	0.02128686
105	0x3c140851	0.009035186
106	0x3b53823f	0.0032273678
107	0x3c2a3011	0.0103874365
108	0xbcd9391c	-0.02651649
109	0x3cf1b7bc	0.029506557
110	0xbb2cae00	-0.002634883
111	0x3c048264	0.008087728
112	0x3d1ed64a	0.03877858
113	0xbbc71350	-0.0060753003
114	0x3ca04c28	0.019567564
115	0x3c6cb8d2	0.0144483615
116	0xbbac83d9	-0.005264741
117	0x3bd42480	0.0064740777
118	0x3d0de496	0.034641825
119	0xbcac7c39	-0.021055328
120	0xbcc321ec	-0.023819886
121	0x3d1a6a7d	0.03769921
122	0xbc8b38a7	-0.016994787
123	0xbc54f98d	-0.012998951
124	0xbd1ad265	-0.037798304
125	0x3cd3f03d	0.02587139
126	0xbc260d3d	-0.010134992
127	0x3d1007f5	0.03516384
128	0xbd4e025a	-0.05029521
129	0x3d081f36	0.03323289
130	0x3cd680d7	0.026184482
131	0xbcb05d5e	-0.021528896
132	0x3cc68b52	0.024236355
133	0x3c9c1754	0.019054092
134	0x3ca6da7e	0.020367857
135	0xbbcbfc7c	-0.006225167
136	0x3ca742dd	0.020417625
137	0x3cf16da2	0.029471222
138	0xbcfb6605	-0.030688295
139	0xbd018dce	-0.031629376
140	0x3d322f28	0.043502003
141	0x3d0158f1	0.03157896
142	0xbd293804	-0.041313186
143	0x3cbc5073	0.02298758
144	0x3d04cd38	0.032422274
145	0x3cdfe4d4	0.027330793
146	0xbcf3de9c	-0.029769234
147	0xbd03f928	-0.032220036
148	0x3c4f4dc9	0.012652823
149	0x3c8c8b46	0.017156255
150	0x3d590170	0.052979887
151	0x3abca279	0.0014391682
152	0x3c9499bc	0.018139713
153	0xbd12b730	-0.035819232
154	0x3d2c3f6d	0.042052675
155	0x3d0a3efc	0.033751473
156	0x3d1b860e	0.03796964
157	0x3c72c36c	0.0148171
158	0x3b399962	0.0028320183
159	0xbca4acae	-0.020101871
160	0xbc107d83	-0.008818987
161	0x3c1602a0	0.009155899
162	0x3d11c512	0.03558833
163	0x3c943edb	0.018096378
164	0x3ca54462	0.020174209
165	0xbc306f2d	-0.010768694
166	0x3d38c5d8	0.045110554
167	0x3ce915ad	0.028452719
168	0xbbb3fb78	-0.005492624
169	0xb9d9a458	-0.0004151191
170	0xbd26708c	-0.040634677
171	0xba2696e4	-0.0006354882
172	0x3c4fd897	0.012685916
173	0x3c6490dd	0.013950554
174	0xbd40a910	-0.04703623
175	0xbd0af5c8	-0.0339258
176	0x3b311d7b	0.0027025628
177	0x3d30256c	0.04300444
178	0x3d08a6f9	0.033362363
179	0x3bb8c2bc	0.0056384485
180	0xbd1742b1	-0.036928836
181	0x3cc27276	0.02373622
182	0xbb63f20a	-0.0034781718
183	0x3d54244e	0.051792435
184	0xbc9eecf7	-0.019400103
185	0xbc4edb25	-0.01262549
186	0x3c304349	0.0107582295
187	0xbd04728f	-0.032335814
188	0xbd89d9de	-0.06731008
189	0xbc3ccd40	-0.011523545
190	0x3d0c20b5	0.03421088
191	0x3cc6ea92	0.024281774
192	0x3d06f0fb	0.03294466
193	0x3c89e14c	0.016831063
194	0x3b18614c	0.0023251353
195	0x3d351fa4	0.044219628
196	0x3d23f6d7	0.040030327
197	0xbcce476f	-0.025180547
198	0xbd012e75	-0.031538446
199	0x3c168e07	0.009189135
200	0x39739e99	0.00023233368
201	0x3c7a8e43	0.015292707
202	0x3c41ce89	0.011829027
203	0x3c6c409c	0.014419701
204	0xbc8c2d2d	-0.017111385
205	0x3a59b19f	0.00083043607
206	0xbd051ac5	-0.032496233
207	0xbc35dfaa	-0.011100689
208	0x3d0d793c	0.034539446
209	0xbcdba8ff	-0.026813982
210	0xbd035544	-0.032063738
211	0xbd21dbca	-0.039516248
212	0x3ae0d9c8	0.0017154748
213	0x3c91d287	0.017800583
214	0x3b88b793	0.0041722744
215	0x3d03c800	0.032173157
216	0xbd15c2e8	-0.03656283
217	0xbd0fee00	-0.035139084
218	0x3b325010	0.0027208365
219	0x3c67c964	0.014147136
220	0xbd02dfe1	-0.03195179
221	0xbd6f104a	-0.058365144
222	0x3bc867a3	0.00611587
223	0xbd16aff2	-0.03678889
224	0xbc807ddb	-0.015685013
225	0xbaff5530	-0.0019480344
226	0x3ce1ca93	0.027562415
227	0x3b9b3cea	0.004737486
228	0xbc4b2384	-0.012398604
229	0xbc4cb5c9	-0.012494513
230	0xbc455cf6	-0.012046089
231	0xbbfe3209	-0.0077574295
232	0x3cecfebf	0.028930066
233	0x3cba6895	0.022754947
234	0x3ced7748	0.028987542
235	0x3d653639	0.055959914
236	0x3b83ca58	0.004021924
237	0x3cf691ad	0.03009876
238	0x3cddf903	0.027096277
239	0x3c873acf	0.016507534
240	0x3c32106a	0.010868171
241	0xbc3593c4	-0.011082593
242	0xbabe9368	-0.001453978
243	0x3c3e8c6d	0.01163016
244	0x3cb71eea	0.022353608
245	0xbd123978	-0.035699338
246	0xbd27bc4c	-0.04095106
247	0xbd02cb1c	-0.03193198
248	0xbca78efb	-0.02045392
249	0xbce7ddfe	-0.028304096
250	0xbd2d29ea	-0.0422763
251	0x3cf41fb3	0.029800272
252	0x3ca7b7b8	0.020473346
253	0xbcd09863	-0.025463289
254	0xbce537f7	-0.027980788
255	0xbcf23be7	-0.02956958

action_model._discrete_distribution.branches.0.bias f4 [2]
0	0xbcc3ed1c	-0.023916773
1	0x3cc3ed29	0.023916798

action_model._discrete_distribution.branches.1.weight f4 [2, 256]
0	0x3b1e0da0	0.0024117008
1	0xbc2c838a	-0.010529408
2	0xbce59a6c	-0.028027736
3	0xbb74700e	-0.0037298235
4	0xbc9fcaa7	-0.019505812
5	0x3ca54b03	0.02017737
6	0x3d04d444	0.032428995
7	0x3c882fbc	0.016624324
8	0xbc2abb1f	-0.01042059
9	0x3c89704a	0.016777176
10	0xbce26180	-0.027634382
11	0x3d27b95a	0.04094825
12	0x3cc9f434	0.024652578
13	0xbbf1f015	-0.0073833563
14	0x3cfab7a3	0.030605143
15	0xbb84d50a	-0.0040537165
16	0xbd04bbde	-0.032405727
17	0xbc951199	-0.018196868
18	0xbcb4cb42	-0.022069577
19	0x3b4b6e0c	0.0031040935
20	0xbae055df	-0.0017115435
21	0x3cbc899a	0.023014832
22	0xbb2a7d0b	-0.0026014473
23	0xbbbee163	-0.005825208
24	0xbcc0f582	-0.023554567
25	0x3d210e6d	0.039320398
26	0x3cde4302	0.027131561
27	0x3c6181b4	0.013763834
28	0x3b690c4e	0.0035560313
29	0x3ccbaf92	0.024863992
30	0x3bf473c1	0.007460088
31	0xbd0e851a	-0.034794904
32	0xbc45afb0	-0.012065813
33	0x3c8367cb	0.016040703
34	0x3c3473cd	0.011013937
35	0x3c0915aa	0.0083669815
36	0xbd37e6ac	-0.04489772
37	0x3cc78d57	0.024359388
38	0xbd066da8	-0.03281942
39	0xbbee92a3	-0.007280664
40	0xbd1328b4	-0.03592749
41	0x3ccb31bc	0.024803989
42	0x3bb8963b	0.0056331432
43	0xbbd96968	-0.00663488
44	0x3c55fd42	0.01306087
45	0x3d084cd4	0.033276394
46	0x3c2efe2b	0.010680716
47	0x3d0d605e	0.03451573
48	0x3d1505eb	0.036382597
49	0x3d2329aa	0.039834656
50	0xbd1b4cd5	-0.03791507
51	0x3c6dffd9	0.014526331
52	0xbbb0118d	-0.005373186
53	0x3c7a99fb	0.015295501
54	0x3cf6d19b	0.030129245
55	0xbc031e5a	-0.008002842
56	0xb622d4a7	-2.426366e-06
57	0xbd4c78e1	-0.049919967
58	0xbb91315f	-0.0044309343
59	0x3ccd08b4	0.025028564
60	0xbca283db	-0.019838264
61	0x3d47c41f	0.04877102
62	0x3d1562af	0.036471065
63	0xbcb365f9	-0.02189921
64	0x3cfc86ba	0.030825961
65	0x3cdd6872	0.027027342
66	0x3cae62f0	0.021287411
67	0xbb11d7fe	-0.0022253986
68	0x3bef09ae	0.007294855
69	0xbd4264d9	-0.047459457
70	0xbca61bb2	-0.020276878
71	0x3a9efe16	0.0012130167
72	0xbcefb3f7	-0.029260619
73	0xbd01b095	-0.031662542
74	0x3a997991	0.0011709203
75	0xbc399778	-0.011327617
76	0xbc337e9b	-0.010955478
77	0xbd2ec377	-0.04266688
78	0x3d4ca421	0.049961213
79	0x3c98f87f	0.01867318
80	0x3d14f2b4	0.036364272
81	0xbcf3721d	-0.0297175
82	0x3d006bd7	0.031352844
83	0x3c9fadaa	0.01949199
84	0xbc496cbf	-0.0122939935
85	0x3cb79fdf	0.0224151
86	0xbd2660e0	-0.04061973
87	0x3ce41886	0.027843725
88	0xbd13115d	-0.03590523
89	0x3cf629d1	0.030049236
90	0xbd286228	-0.041109234
91	0x3ca0a0a3	0.019607848
92	0x3b8bee2f	0.004270337
93	0x3d071e38	0.032987803
94	0xbc93e20f	-0.01805213
95	0x3cfa4230	0.030549139
96	0x3c684c20	0.014178306
97	0x3b193b40	0.0023381263
98	0xbcd334cf	-0.025782017
99	0xbd286c25	-0.04111876
100	0xbc5b3795	-0.013379951
101	0x3c719808	0.01474572
102	0xbc9460a2	-0.018112484
103	0x3cea9cc0	0.028639197
104	0xbcc3f359	-0.023919748
105	0x3c9acb01	0.018895628
106	0x3cd28b52	0.025701199
107	0x3c983dfe	0.018584248
108	0xbbc273d3	-0.0059342175
109	0x3cc18f68	0.023627952
110	0x3c81f41d	0.015863473
111	0xbc21e97e	-0.009882329
112	0x3d144d99	0.036206815
113	0xbcc5fe5b	-0.024169138
114	0x3a2645a8	0.0006342777
115	0x3c17c6c6	0.0092637
116	0xbcf316b6	-0.029673915
117	0x3b2977fa	0.0025858865
118	0x3cc80bb7	0.024419649
119	0xbb460120	-0.0030213073
120	0xbcd6220e	-0.026139285
121	0x3bc8fddc	0.006133778
122	0xbd7d0037	-0.061767783
123	0xbc9c12eb	-0.01905199
124	0xbc606038	-0.013694815
125	0x3ca42b00	0.020040035
126	0xbcbe463f	-0.023226855
127	0xbc5061c5	-0.012718623
128	0xbceae1b9	-0.028672086
129	0x3bcc6336	0.006237413
130	0x3c5c8885	0.013460283
131	0xbc637ed7	-0.013885221
132	0x3d0bfcfc	0.03417681
133	0x3c67a108	0.014137514
134	0x3cc19cc9	0.023634331
135	0x3c064396	0.008194825
136	0x3c887e92	0.016661916
137	0x3cd9c2b3	0.026582098
138	0xbd11cf4d	-0.035598088
139	0xbc959290	-0.018258363
140	0x3d248fc4	0.040176168
141	0x3c44fd54	0.012023289
142	0xbcc78086	-0.024353277
143	0x3c857d9c	0.016295247
144	0x3c737cc7	0.014861292
145	0x3c8b253a	0.016985524
146	0xbcc2483a	-0.023716081
147	0xbccfe8e8	-0.025379613
148	0x3b9439fb	0.0045235134
149	0x39a34a7b	0.00031145275
150	0x3cd28abf	0.025700925
151	0x3c1f3a8f	0.009718551
152	0x3b83775b	0.004012031
153	0xbcca22b2	-0.024674747
154	0x3d1a40ee	0.037659578
155	0x3ce651cf	0.028115181
156	0x3d25b64f	0.040457066
157	0x3cff77fe	0.031185146
158	0x3c766827	0.01503948
159	0xbc7e4d05	-0.015521293
160	0xbcca3d0b	-0.02468731
161	0x3c2df1c7	0.010616726
162	0x3cae1bbd	0.021253461
163	0xbaa01e81	-0.0012216122
164	0x3c3940b5	0.011306931
165	0xbc941c8d	-0.01808002
166	0x3d2dfea6	0.04247918
167	0x3cad92c0	0.02118814
168	0xbc746d98	-0.014918707
169	0xbc9cfee1	-0.019164504
170	0xbd27ab9d	-0.040935148
171	0xbc1789f0	-0.009249195
172	0xbc09eef5	-0.008418788
173	0x3b9017f1	0.0043973853
174	0xbd49d02e	-0.0492708
175	0xbd1a406e	-0.0376591
176	0xbc43f8ae	-0.011961145
177	0x3cac1d44	0.021010049
178	0x3cd90924	0.026493616
179	0xbbafb133	-0.0053617
180	0xbca4a244	-0.020096906
181	0x3cc3aa61	0.023884954
182	0xba1aead2	-0.0005909625
183	0x3d10e66b	0.035375994
184	0xba90a75f	-0.0011036209
185	0xbd5258c0	-0.05135417
186	0xbba978cb	-0.0051718703
187	0xbcef5e2e	-0.029219713
188	0xbd5ce799	-0.053931806
189	0x3bc1eead	0.005918345
190	0x3d129b99	0.03579292
191	0x3d02d8f1	0.031945173
192	0x3d0e1c98	0.034695238
193	0x3c9d108d	0.019172931
194	0x3c489fd2	0.012245135
195	0x3d3de099	0.04635677
196	0x3d0d25a2	0.034459718
197	0xbce274c1	-0.027643563
198	0xbcdd1330	-0.026986688
199	0xba91117a	-0.001106783
200	0xbc85ab40	-0.01631701
201	0x3ccb95db	0.02485173
202	0x3b028a43	0.0019918836
203	0xbc016e97	-0.007899902
204	0xbd02b4d8	-0.031910747
205	0xba876c1d	-0.0010331903
206	0xbd5a07d8	-0.053230137
207	0xbc2964f1	-0.010339008
208	0x3d2c81e3	0.042116057
209	0xbcf23707	-0.029567255
210	0xbc16b072	-0.009197341
211	0xbd4ae183	-0.04953147
212	0xbc53fd9a	-0.012938881
213	0x3d1d2422	0.038364537
214	0xbb347cfc	-0.0027540317
215	0x3cd519a6	0.026013207
216	0xbbfd607d	-0.0077324496
217	0xbd1d3701	-0.038382534
218	0x3be461dd	0.006969674
219	0x3cc2cc06	0.023778927
220	0xbd2fede8	-0.042951494
221	0xbc92f076	-0.017936926
222	0x3c8a1dd6	0.01685993
223	0xbc421af9	-0.011847251
224	0xbd517d7e	-0.05114507
225	0xbb1fc2d0	-0.0024377592
226	0x3c8748f9	0.016514288
227	0x3c931354	0.017953552
228	0xbb8d6170	-0.004314594
229	0xbd448fd1	-0.047988717
230	0x3c8eedfd	0.017447466
231	0x3c93e716	0.018054526
232	0x3cb1d629	0.021708565
233	0x3cf571ef	0.029961554
234	0x3c1e7b7d	0.009672997
235	0x3d0e537b	0.034747582
236	0xbc0941e0	-0.008377522
237	0x3c9b3b5a	0.0189492
238	0xbb0d88b4	-0.0021596374
239	0x3c8c7311	0.017144712
240	0x3c5a2ed9	0.013316833
241	0x3b10bb0c	0.0022084145
242	0x3ccf16b4	0.02527938
243	0x3cd87993	0.026425159
244	0x3c63d64b	0.013906072
245	0xbcfba583	-0.03071857
246	0xbbc742d2	-0.0060809636
247	0xbcd2e961	-0.02574605
248	0xbbe789a5	-0.007065969
249	0xbb9c0b62	-0.004762099
250	0xbc9a51dd	-0.018837864
251	0x3cbd07ab	0.023074945
252	0x3cec46e0	0.02884239
253	0x3b83cc82	0.004022182
254	0xbc7d113c	-0.0154460035
255	0xbce886be	-0.028384563

action_model._discrete_distribution.branches.1.bias f4 [2]
0	0xbd125da9	-0.035733853
1	0x3d125dab	0.03573386

action_model._discrete_distribution.branches.2.weight f4 [2, 256]
0	0x3cd158ba	0.025555003
1	0x3cf85c86	0.030317556
2	0xbcdfdf03	-0.02732802
3	0x3d00a929	0.031411324
4	0x3c4466f1	0.011987434
5	0x3c4f2265	0.012642478
6	0x3cc6a8e9	0.024250465
7	0x3b57f684	0.0032953331
8	0xbcfa85a4	-0.030581303
9	0x3c90bbe2	0.017667715
10	0x3bb4b5af	0.0055148224
11	0xbbf2bec2	-0.007407994
12	0x3c23277f	0.009958147
13	0x3cfc6d76	0.030813914
14	0x3cf7a8f0	0.030231923
15	0xbc1762d3	-0.00923987
16	0x3cf511f6	0.029915791
17	0x3cf7f962	0.030270282
18	0xbd1f5eae	-0.038908653
19	0xbc8c70ae	-0.017143574
20	0xbcb561e6	-0.022141408
21	0xbbed89b5	-0.007249082
22	0x3d10439b	0.035220724
23	0x3b31cb94	0.0027129399
24	0x3cc80178	0.024414763
25	0x3cdda42a	0.027055819
26	0xba8d3518	-0.001077327
27	0x3d35b5c3	0.044362795
28	0xbb0274a4	-0.001990595
29	0x3cd47f7e	0.0259397
30	0xbc9017a0	-0.01758939
31	0xbb746ae4	-0.0037295157
32	0x3cfe73e2	0.031061117
33	0x3d5a6d85	0.053327102
34	0x3c1d0f4f	0.009586169
35	0x3c8d3eba	0.017241824
36	0xba72799e	-0.000924969
37	0x3c36618d	0.011131656
38	0xbd504c87	-0.050854232
39	0xbc4c8ff8	-0.012485497
40	0xbd522e56	-0.05131372
41	0xba2e06fe	-0.0006638615
42	0xbc9c8ceb	-0.019110164
43	0x3d2658d7	0.040612068
44	0xbc0e6628	-0.008691348
45	0xbc093c27	-0.008376158
46	0xbc6895e9	-0.014195898
47	0x3c0459b4	0.0080780275
48	0x3c099021	0.008396179
49	0x3c33acc0	0.01096648
50	0x3ce700dd	0.028198654
51	0xbcde4b46	-0.027135503
52	0xbc13d720	-0.009023458
53	0xbc812b4d	-0.015767718
54	0x3d60c570	0.05487579
55	0x3cf0b4d2	0.029383097
56	0xbc3f11ea	-0.011661986
57	0x3cb08210	0.021546394
58	0xbc51dfeb	-0.012809734
59	0xbc4cb3b7	-0.012494019
60	0xbd0da995	-0.034585554
61	0x3cc71324	0.02430112
62	0x3c2b1320	0.0104415715
63	0xbc206164	-0.009788845
64	0x3c51852a	0.012788096
65	0x3b43ce0f	0.002987746
66	0xbd551e9e	-0.052031152
67	0xbc465611	-0.012105481
68	0xbd0a9c9e	-0.033840768
69	0x3cd5e252	0.026108894
70	0xbcb33ec8	-0.021880522
71	0xbc2161ce	-0.009849979
72	0x3c605ceb	0.013694028
73	0xbca28874	-0.019840457
74	0xbc4d715f	-0.012539237
75	0x3cea22c6	0.028581034
76	0x3ab22cff	0.0013593732
77	0x3cfc09fc	0.03076648
78	0x3cf2b9b6	0.02962957
79	0x3bb3279b	0.005467368
80	0x3d1499d4	0.036279514
81	0xbc3499c6	-0.011022991
82	0x3c4439d2	0.011976676
83	0xbca33eb3	-0.019927358
84	0xbd87dba2	-0.066336885
85	0xbbd852ad	-0.0066016526
86	0xbc3547fb	-0.011064525
87	0xbc69e089	-0.014274725
88	0xbab8f462	-0.0014110918
89	0x3a906108	0.0011015246
90	0xbcce8185	-0.025208244
91	0xbb7fdbbf	-0.003904089
92	0xbc997b3a	-0.018735517
93	0x3d1d2839	0.038368437
94	0xbc48e08a	-0.0122605655
95	0x3c7aa419	0.015297913
96	0x3ca15619	0.019694375
97	0xbc9d5b01	-0.019208433
98	0xbba789be	-0.0051128557
99	0x3cbb73ef	0.02288243
100	0x3cb6eb02	0.022328857
101	0xbcae0bf7	-0.02124594
102	0x3c8cbe51	0.017180594
103	0x3c4444dd	0.011979309
104	0xbcf7ab3e	-0.030233022
105	0xbc431083	-0.011905792
106	0xbc257f14	-0.010101099
107	0x3c7cbf02	0.015426399
108	0xbc80446a	-0.015657622
109	0x3c845b8f	0.01615694
110	0xbcfba600	-0.030718803
111	0xbc3aa821	-0.011392624
112	0x3c78cd88	0.015185721
113	0xbd6f7cde	-0.058468692
114	0xbc8c4a99	-0.017125415
115	0xbbe0991c	-0.0068541896
116	0xbd62d5f9	-0.05537984
117	0x3d71d06b	0.059036653
118	0xbd0ea295	-0.03482302
119	0xbc9b56f9	-0.01896237
120	0xbcc055c4	-0.023478396
121	0xbc3d7a1a	-0.011564756
122	0x3baea2fb	0.0053294874
123	0x3cb5b855	0.022182623
124	0xbce37b0e	-0.027768638
125	0xba6cc0f4	-0.0009031438
126	0x3d2e25b7	0.042516436
127	0xbcacefc2	-0.02111042
128	0xbd6fd529	-0.058552895
129	0xbc257399	-0.010098361
130	0x3c077792	0.008268254
131	0xbcbe16ba	-0.023204196
132	0xbc573748	-0.013135739
133	0xbc22ea3b	-0.00994354
134	0xbb8cc90f	-0.004296429
135	0xbcb2cf62	-0.021827403
136	0x3c74d459	0.014943206
137	0xbc126812	-0.008935945
138	0xbd5f2c23	-0.05448545
139	0xbc8ecbe1	-0.017431201
140	0x3cd062c5	0.025437722
141	0xbcdbffef	-0.026855437
142	0xba941058	-0.0011296375
143	0xbcc44052	-0.023956452
144	0xbc5e5b80	-0.01357162
145	0x3ba3f916	0.0050040586
146	0x3a595cc5	0.0008291717
147	0x3d050c8d	0.032482672
148	0xbbe852f5	-0.0070899674
149	0x3c8a0a73	0.016850686
150	0x3ccd748e	0.025079992
151	0xbbf48035	-0.0074615725
152	0xbc036aa6	-0.008021032
153	0xbc93c195	-0.018036643
154	0x3ce919f0	0.02845475
155	0x3d25320e	0.04033094
156	0xbc405908	-0.011739977
157	0x39abb5cc	0.0003275111
158	0x3c46a266	0.01212368
159	0x3c120f50	0.008914784
160	0xbcd54af8	-0.026036724
161	0x39e6b501	0.00044003877
162	0x3bedd541	0.007258088
163	0x3ab86091	0.0014066865
164	0x3b98cccf	0.004663087
165	0xbd298509	-0.041386638
166	0x3d003da1	0.031308774
167	0xbc4d4647	-0.012528962
168	0x3cb553cc	0.022134684
169	0x3c78bec9	0.0151822055
170	0xbc657ddf	-0.014007061
171	0x3d03f366	0.032214545
172	0xbc331cb8	-0.01093214
173	0xbca10dca	-0.019659895
174	0xbd0c3d55	-0.03423818
175	0x3c2f0744	0.010682885
176	0x3a1a9f47	0.0005898368
177	0x3bed2fce	0.007238365
178	0x3c884972	0.016636584
179	0xbc39a682	-0.011331202
180	0xbcf56e9f	-0.029959975
181	0xbbb94a56	-0.0056546135
182	0x3cadc5a3	0.021212405
183	0x3b337b29	0.0027386642
184	0x3c557f6a	0.013030866
185	0xbca9de5f	-0.020735918
186	0xbcb5ddf0	-0.022200555
187	0x3c6ee0ea	0.014579991
188	0xbcb0dd83	-0.02159
189	0x3c9a0222	0.018799845
190	0x3d2377ed	0.039909292
191	0xbbfb3550	-0.0076662675
192	0x3d00e764	0.03147067
193	0xbcb3cd43	-0.021948462
194	0x3d3289cc	0.043588445
195	0x3cc6c421	0.024263443
196	0x3ba73ce8	0.005103696
197	0x3c8edb95	0.01743869
198	0xbae2eed8	-0.0017313613
199	0xbb5d80a8	-0.003379861
200	0xbc5325e4	-0.012887452
201	0x3bd8f214	0.006620655
202	0x3c982c2d	0.018575752
203	0xbcaf1044	-0.02137006
204	0x3cd95230	0.026528448
205	0x3cb40654	0.021975674
206	0xbbd698bd	-0.0065489695
207	0x3ca59dfd	0.020216936
208	0x3c4bd58d	0.012441051
209	0xbd0e8ede	-0.034804218
210	0xbbde342f	-0.006781123
211	0xbb36a54a	-0.0027869516
212	0xbca07c95	-0.019590655
213	0x3cdefe91	0.027220996
214	0x3d27d837	0.040977683
215	0x3c662a81	0.01404822
216	0x3cc5b802	0.024135593
217	0xbd0fc8dd	-0.035103668
218	0x3bd4ee57	0.006498139
219	0xbd12a6f2	-0.035803743
220	0xbcf517f9	-0.029918658
221	0xbc341a12	-0.010992544
222	0x3bafd952	0.005366483
223	0xbd1101dc	-0.035402164
224	0x3c9dc92c	0.019260965
225	0x3d04538c	0.03230624
226	0xbbad5daa	-0.0052907066
227	0x3c473ec4	0.012160961
228	0xbbd4e3d6	-0.0064968867
229	0x3cc9bfbb	0.024627557
230	0x3d07523a	0.0330374
231	0xbcd3fffe	-0.025878903
232	0xbb680e27	-0.0035408826
233	0xbc8af3b3	-0.016961908
234	0xbc3d129c	-0.011540081
235	0x3933d598	0.0001715034
236	0x3d33575b	0.04378448
237	0x3d23bde8	0.03997603
238	0x3c77ed83	0.015132311
239	0xbc1ff9b0	-0.00976412
240	0xbcd6b05f	-0.026207147
241	0xba006998	-0.0004898547
242	0x3b0ac151	0.0021172354
243	0xbc579ba4	-0.013159666
244	0xbbfdcee0	-0.0077456087
245	0xbd38bce4	-0.045102015
246	0x3cad0ee7	0.02112527
247	0x3c9b7e03	0.018980986
248	0x3c519bb5	0.012793471
249	0xbb30e233	-0.0026990294
250	0x3c0a1c66	0.008429622
251	0x3bb9f894	0.005675385
252	0xbcdba631	-0.026812645
253	0xbb1759df	-0.0023094339
254	0x3b0b4139	0.0021248593
255	0xbb25bbc3	-0.0025288917

action_model._discrete_distribution.branches.2.bias f4 [2]
0	0xbb032c61	-0.0020015466
1	0x3b032c84	0.0020015547
