Assets/results/0000/TrafficLightBrain/TrafficLightBrain-769942.onnx (onnx, 386520 bytes, 13 tensors)

discrete_act_size_vector f4 [1, 4]
0	0x40000000	2.0
1	0x40000000	2.0
2	0x40000000	2.0
3	0x40000000	2.0

network_body._body_endoder.seq_layers.0.weight f4 [256, 100]
0	0x3cac15d1	0.021006497
1	0xbdf3e72e	-0.119093284
2	0xbdb46448	-0.0880819
3	0xbe3e6132	-0.18591765
4	0xbd82cbab	-0.06386503
5	0x3d1f5d26	0.038907193
6	0x3b34b61f	0.0027574373
7	0xbd79f6a6	-0.061026238
8	0xb993bdec	-0.00028179528
9	0xbdb5808a	-0.088624075
10	0xbe3239b1	-0.1740482
11	0xbe03a9fb	-0.12857811
12	0xbd24a1d3	-0.04019339
13	0xbd213156	-0.03935369
14	0xbda12a64	-0.078694135
15	0x3e37d9c6	0.17954168
16	0x3e2333ac	0.1593768
17	0xbe36a16e	-0.17835018
18	0x3d4cd760	0.050010085
19	0xbdd9efd6	-0.10641448
20	0x3d6ad91f	0.05733597
21	0xbe13087f	-0.1435871
22	0x3d56d865	0.052452464
23	0x3ce1b0e7	0.027550174
24	0xbe8e6350	-0.27810144
25	0x3bc70660	0.006073758
26	0xbcabf0b0	-0.020988792
27	0x3d7a346f	0.06108516
28	0xbe07445d	-0.13209672
29	0xbc728e12	-0.01480438
30	0x3e0c11ef	0.13678716
31	0x3d2dce4a	0.04243306
32	0x3e31b678	0.17354763
33	0xbe25c3a0	-0.16187906
34	0x3dd8716d	0.10568509
35	0x3d8290d3	0.06375279
36	0xbe18431d	-0.14869352
37	0xbcb5e9a3	-0.022206133
38	0x3d009632	0.031393237
39	0x3d899e40	0.06719637
40	0x3d8e234c	0.06940326
41	0xbe131423	-0.1436315
42	0x3c96ebe8	0.018423036
43	0x3d1b9065	0.037979502
44	0x3d8b736e	0.06809126
45	0xbd6c8097	-0.05773982
46	0x3d8d5c98	0.069024265
47	0x3bc20509	0.0059210104
48	0xbc2c6201	-0.010521413
49	0xbd63f2b0	-0.055651367
50	0xbd6dda33	-0.05806942
51	0x3db8e36f	0.090277545
52	0xbd826d27	-0.063684754
53	0xbc4de2c0	-0.012566268
54	0xbb7cb7f8	-0.0038561802
55	0x3d53d3cf	0.05171567
56	0x3e1ca27b	0.15296356
57	0xbd936002	-0.071960464
58	0xbd2c762b	-0.04210488
59	0x3d73db65	0.059535403
60	0x3db636aa	0.08897145
61	0x3cdd9cd7	0.027052326
62	0xbdf017ed	-0.117233135
63	0x3db14efb	0.086576425
64	0x3d078469	0.03308526
65	0x3cd59e4a	0.026076455
66	0x3cb25ff7	0.021774275
67	0xbe396246	-0.18103895
68	0x3c8f4979	0.01749109
69	0xbceee672	-0.02916262
70	0x3d30e753	0.043189358
71	0xbe23728d	-0.15961666
72	0xbd68b8cf	-0.056816872
73	0x3c37e956	0.011225065
74	0x3e1e884c	0.1548168
75	0x3c5dfeb3	0.013549495
76	0x3d761a58	0.060083717
77	0xbc915694	-0.017741479
78	0x3de70822	0.11280848
79	0x3ac89e87	0.0015306034
80	0x3d941dc1	0.072322376
81	0x3e077b03	0.13230519
82	0xbd7eb8cd	-0.06218796
83	0xbe4514d6	-0.1924623
84	0x3d750f2d	0.059828926
85	0xbbbe6e78	-0.0058115087
86	0xbdb1be3c	-0.086788625
87	0x3c3d2a14	0.011545677
88	0x3d6916c5	0.05690648
89	0xbb188a10	-0.002327565
90	0xbdeeff6a	-0.1166981
91	0x3d6a7ab0	0.05724591
92	0x3e669e8b	0.22521417
93	0xbb4625f6	-0.0030235029
94	0xbe2b80f4	-0.1674841
95	0x3d1a97b8	0.037742347
96	0xbdf70758	-0.120619476
97	0xbe7b16a5	-0.24520357
98	0xbd419519	-0.04726133
99	0xbe00f1a0	-0.12592173
100	0xbd8eeb85	-0.069785155
101	0x3ab788ad	0.0014002525
102	0x3ce26e22	0.027640406
103	0xbe0fbd40	-0.14037037
104	0x3c9e1ea8	0.019301727
105	0xbc9e64ce	-0.019335177
106	0x3da7b06b	0.08187946
107	0x3cea36da	0.028590608
108	0xbcaf2bf8	-0.02138327
109	0x3df3571e	0.11881851
110	0x3e0cf007	0.13763438
111	0x3e22895b	0.1587271
112	0x3dfdd306	0.12393765
113	0x3ce0200f	0.027359037
114	0xbdca468c	-0.09876737
115	0x3dc9248e	0.098214254
116	0x3dc9a705	0.098463096
117	0x3d659f5c	0.05606018
118	0x3b1209cb	0.002228367
119	0x3e00e271	0.1258638
120	0x3db77695	0.089581646
121	0xbd48782e	-0.048942737
122	0x3dbf7e2b	0.093502365
123	0x3d5e78d7	0.05431446
124	0x3c93c91d	0.018040234
125	0x3df9be3d	0.12194488
126	0xbddc9398	-0.10770339
127	0x3e09441e	0.13404891
128	0xbe679b33	-0.22617798
129	0x3d5f4d2a	0.05451695
130	0xbd4d57bb	-0.050132494
131	0xbd19446e	-0.037418775
132	0xbc7360c7	-0.0148546165
133	0x3c4e9b8d	0.012610328
134	0x3e4a1387	0.19734012
135	0xbe3d4258	-0.1848234
136	0x3c88661f	0.016650258
137	0x3db3a52b	0.08771738
138	0xbdaa6c08	-0.083213866
139	0xbcc1c89f	-0.023655234
140	0x3c2d4563	0.010575625
141	0x3d5404db	0.051762443
142	0x3d7089e0	0.058725238
143	0xbdcb91c7	-0.09939914
144	0x3e0a87f7	0.13528429
145	0xbe21d1f7	-0.15802751
146	0x3d7e2b7b	0.062053185
147	0x3d7755f7	0.060384717
148	0xbe2b016d	-0.16699763
149	0xbe094066	-0.13403472
150	0x3e161de3	0.14659838
151	0xbdcdf4eb	-0.1005648
152	0xbd57ff03	-0.052733433
153	0xbdb62419	-0.08893604
154	0xbbbe541a	-0.0058083655
155	0xbd0dad08	-0.034588844
156	0xbe0e345b	-0.1388716
157	0x3cd71b4a	0.02625813
158	0xbdc0e9df	-0.09419607
159	0x3e400e2e	0.18755409
160	0x3dbd7d78	0.09252447
161	0xbde4aa90	-0.11165345
162	0x3cbffdff	0.023436544
163	0x3d74220b	0.05960278
164	0xbdd7782d	-0.105209686
165	0xbd7edf42	-0.062224634
166	0x3dabc14b	0.08386477
167	0xbe06ad51	-0.13152052
168	0x3c61bc67	0.013777829
169	0xbcc21832	-0.023693178
170	0x3cf5db3d	0.030011768
171	0xbe7fa6a5	-0.24965914
172	0x3e83d8ed	0.2575144
173	0xbdaea383	-0.08527281
174	0x3d84e6b7	0.06489318
175	0x3dcd501d	0.10025046
176	0xbc87aa2b	-0.016560635
177	0xbd90cf24	-0.07070759
178	0x3c647908	0.013944872
179	0xbc4e6025	-0.012596165
180	0xbd8e8836	-0.06959574
181	0x3d494565	0.049138445
182	0xba9e309d	-0.0012068931
183	0x3e4ae2b3	0.19813041
184	0x3dae774f	0.0851885
185	0xbd58dc23	-0.052944314
186	0xbd80c12c	-0.062868446
187	0x3e3d29e5	0.18473013
188	0x3d8a430b	0.06751069
189	0xbcdf97c5	-0.027294049
190	0xbda135b6	-0.07871573
191	0x3d8a3b09	0.06749541
192	0xbd66a497	-0.05630931
193	0x3e032e16	0.12810549
194	0x3c33eab1	0.010981248
195	0x3e030c3b	0.12797634
196	0x3ca50648	0.020144597
197	0xbd1db010	-0.038497984
198	0x3d6eec5b	0.058330875
199	0xbcfa0d9b	-0.030524066
200	0xbdb81095	-0.08987538
201	0xbd895f48	-0.067076266
202	0x3d046c31	0.032329742
203	0xbd24ffd4	-0.04028304
204	0x3d477041	0.048691038
205	0x3eb1816f	0.34669062
206	0xbdf15e21	-0.11785532
207	0x3d23dae9	0.04000369
208	0xbcf21e18	-0.029555365
209	0xbcfd717c	-0.030937903
210	0x3af4d574	0.0018679337
211	0xbe17c248	-0.14820206
212	0xbc943803	-0.018093115
213	0x3e15f642	0.14644721
214	0xbda94565	-0.08265189
215	0x3e1db5b3	0.15401344
216	0xbd0dc2f5	-0.034609754
217	0xbe42ecc3	-0.1903563
218	0x3d92c022	0.07165553
219	0xbbd7b177	-0.0065824348
220	0xbca806dd	-0.020511085
221	0xbe372f79	-0.17889203
222	0x3dc8a9b5	0.09797994
223	0x3daa43a3	0.08313682
224	0xbd83d924	-0.06437901
225	0xbd717d4d	-0.058957387
226	0xbe10a0df	-0.14123867
227	0xbd917913	-0.07103171
228	0x3d141e96	0.03616198
229	0x3e1141fe	0.1418533
230	0xbb6ca96d	-0.0036111728
231	0xbd264c1b	-0.040599924
232	0xbdcabad1	-0.09898914
233	0x3dcb3e5d	0.09924004
234	0x3db0141f	0.08597588
235	0xbda33cbb	-0.07970568
236	0x3cfd441b	0.030916264
237	0xbe30d390	-0.17268205
238	0xbdaec4f2	-0.08533658
239	0xbd8fa1b7	-0.070132665
240	0x3ca611ee	0.020272221
241	0x3df0c3da	0.11756106
242	0xbb4ec33a	-0.003154947
243	0x3e7aeada	0.24503651
244	0xbbd1b9f2	-0.0064003402
245	0x3e047665	0.12935789
246	0xbb35cf4c	-0.0027741967
247	0x3d527865	0.05138435
248	0xbda4a0cf	-0.08038484
249	0x3e4f8c73	0.20268421
250	0xbd9fd3b3	-0.0780405
251	0x3d3ed72c	0.046591923
252	0xbdbce511	-0.092233784
253	0xbd9e7f98	-0.0773918
254	0x3e3d5514	0.18489486
255	0xbe3d5644	-0.18489939

network_body._body_endoder.seq_layers.0.bias f4 [256]
0	0xbd4265d8	-0.047460407
1	0x3bf38703	0.007431866
2	0xbceba8fb	-0.0287671
3	0x3cc1fcf5	0.02368019
4	0x3c8de349	0.017320292
5	0xbd2eee26	-0.042707585
6	0xbcf0bef7	-0.029387934
7	0x3cc33bd2	0.023832235
8	0x3a8775d1	0.0010334795
9	0xbc7e9eda	-0.015540803
10	0xbc889e97	-0.016677184
11	0xbd163d65	-0.036679644
12	0xbb0a5d42	-0.0021112715
13	0xbc9fcdfc	-0.0195074
14	0xbd107029	-0.035263214
15	0xbd1275e5	-0.035756964
16	0x3c77f5dc	0.015134301
17	0xbd15378a	-0.03642992
18	0xbceedb20	-0.029157221
19	0xbc4bb72a	-0.012433806
20	0x3ccef170	0.02526161
21	0xbd63cbaf	-0.05561417
22	0x3da0e505	0.07856182
23	0x3cdbd193	0.026833331
24	0xbbfd18ab	-0.007723888
25	0xbd17623f	-0.03695893
26	0xbcbace5e	-0.022803482
27	0xbd25e64c	-0.04050283
28	0xbbf253b1	-0.0073952307
29	0x3df18b38	0.11794132
30	0xbcd690f3	-0.026192164
31	0x3c9316f6	0.017955285
32	0x3bce505d	0.006296201
33	0xbb44e8a1	-0.0030045884
34	0x3cb2a21f	0.021805821
35	0x3a9ae820	0.0011818446
36	0x3d8221cf	0.06354105
37	0xbd234ee1	-0.039870147
38	0xbd4b1d6c	-0.049588606
39	0xbcef6dbb	-0.029227128
40	0xbd1db23d	-0.03850006
41	0xbcbd5de9	-0.023116069
42	0xbdabc87e	-0.0838785
43	0xbba8d65c	-0.0051525068
44	0xbce33279	-0.027734028
45	0xbc498dcf	-0.012301876
46	0xbaf1ae7b	-0.001843884
47	0xbcf5c00b	-0.0299988
48	0xbca633ca	-0.020288367
49	0xbdaf2758	-0.08552426
50	0x3b22bda1	0.0024832266
51	0xbcc976b5	-0.024592737
52	0xbbebe3d3	-0.0071987896
53	0x3d0d5e78	0.03451392
54	0x3d032fee	0.03202813
55	0x3d2f2fe9	0.0427703
56	0xbd3c89b1	-0.04602975
57	0xbd64f33b	-0.055896025
58	0x3c659505	0.01401258
59	0xbba6f3ce	-0.0050949818
60	0xbc2a7bc6	-0.010405486
61	0xbcbfdec7	-0.023421658
62	0x3d1b5812	0.037925787
63	0xbc9fd731	-0.019511791
64	0xbcf4e0c0	-0.029892325
65	0xbd08d5d1	-0.033407036
66	0x3c51bacf	0.012800886
67	0xbccf0033	-0.02526865
68	0x3c9fba55	0.01949803
69	0xbd61dad7	-0.055140343
70	0xbcf6f0d6	-0.030144136
71	0x3cb57169	0.022148805
72	0x3d52f9e9	0.051507864
73	0xbca1b07b	-0.019737473
74	0x3cd4e51b	0.025988152
75	0x3c676bda	0.014124835
76	0x3d39aebc	0.045332655
77	0xbd51fe04	-0.05126764
78	0x3b5a99ac	0.0033355756
79	0xbbfb73e6	-0.0076737283
80	0xba641bcc	-0.0008701652
81	0x3b8508f7	0.0040599066
82	0xbd1ad6fd	-0.037802685
83	0x3d7b19c9	0.061303888
84	0x3c1a34ad	0.009411973
85	0x3d01d68e	0.031698756
86	0x3ccb8f63	0.024848646
87	0xbd501557	-0.0508016
88	0xbd3071a8	-0.04307714
89	0xbc5cc4a1	-0.013474614
90	0xbd1cd544	-0.038289323
91	0xbc822093	-0.015884673
92	0xbcb58ee8	-0.02216287
93	0x3901cd6b	0.00012378923
94	0xbcb42185	-0.02198864
95	0x3d2344de	0.0398606
96	0xbc06d685	-0.008229856
97	0x3d5e8c82	0.054333217
98	0x3ce4b302	0.027917389
99	0x3cc3ed40	0.02391684
100	0x3d3a3452	0.045460053
101	0x3d31205a	0.043243743
102	0x3cd4b535	0.025965312
103	0x3c2fbe1e	0.01072648
104	0x3d499537	0.049214568
105	0x3c797b27	0.015227116
106	0x3d216039	0.039398406
107	0xbb8ce919	-0.0043002483
108	0xbb64c159	-0.0034905283
109	0x3d3aa6df	0.045569297
110	0x3ca731a2	0.020409409
111	0x3cc8a97e	0.024494883
112	0x3ca69b40	0.0203377
113	0xbcf2e185	-0.029648552
114	0xbd342069	-0.04397622
115	0x3cc099ff	0.023510931
116	0x3cbe3493	0.023218429
117	0xbcc336bb	-0.023829808
118	0xbc250a65	-0.010073279
119	0xbd0cb19a	-0.03434906
120	0xbc804be8	-0.015661195
121	0x3c41fecf	0.011840536
122	0xbb875038	-0.004129436
123	0x3ae52777	0.0017483075
124	0x3c61683a	0.01375776
125	0xbd02eded	-0.031965185
126	0xbd771ba2	-0.060329087
127	0x3d66525a	0.05623088
128	0xbcc16068	-0.02360554
129	0xbd072261	-0.03299177
130	0xbd7b0b76	-0.061290227
131	0xbc751764	-0.01495919
132	0x3d0232ed	0.031786848
133	0xbbd468c9	-0.006482218
134	0x3d2a3838	0.04155752
135	0xbd387828	-0.045036465
136	0x3df5a16e	0.11993681
137	0xbcf7a802	-0.03023148
138	0xbd48563b	-0.04891036
139	0x3dc94c42	0.09828998
140	0x3c8bb943	0.017056113
141	0xbc7c3ca3	-0.015395316
142	0x3d7b2b05	0.061320323
143	0x3c79f61e	0.015256433
144	0xbd06ce92	-0.032911845
145	0x3d62d8f8	0.0553827
146	0x3af39af1	0.0018585605
147	0x3ce8a62a	0.028399546
148	0xba796d70	-0.00095149036
149	0xbd22de18	-0.039762586
150	0x3c8b1c38	0.01698123
151	0x3d1d28c7	0.038368966
152	0x3c71c6e4	0.014756892
153	0x3d42c0c4	0.047547117
154	0x3b8b60f2	0.0042535
155	0xbc2785ec	-0.010224801
156	0xbcdd3723	-0.02700383
157	0x3ca12abd	0.0196737
158	0xbc612649	-0.013742038
159	0xbcbc7442	-0.023004655
160	0xbd3b4b88	-0.04572633
161	0xbc8875ab	-0.016657671
162	0xba88e47f	-0.0010444074
163	0x3d0407dd	0.03223406
164	0x3c9cee87	0.019156707
165	0xbd87327b	-0.06601425
166	0xbc936e1e	-0.017996844
167	0x3d19cbc0	0.037547827
168	0xbd03ae73	-0.03214879
169	0x3d2f5f9d	0.042815793
170	0x3b85de79	0.0040853587
171	0xbb86bff0	-0.004112236
172	0xbcc1cb3c	-0.02365648
173	0x3d355d7c	0.044278607
174	0xb6b3c3c5	-5.3574063e-06
175	0xbd50c4c3	-0.050968897
176	0x3d66380c	0.056205794
177	0x3c7585c8	0.014985509
178	0x3b7e55eb	0.0038808535
179	0xbc96ef4f	-0.018424658
180	0xbd4cf3ab	-0.050037067
181	0xbd4a8e65	-0.049452204
182	0x3b4ce553	0.0031264618
183	0xbd29a2df	-0.04141509
184	0xbc87c3f2	-0.016572926
185	0xbca6ff45	-0.020385394
186	0xbd2fed39	-0.042950843
187	0xbc0b7f81	-0.008514286
188	0x3ba38188	0.0049898066
189	0xbcd78db4	-0.026312687
190	0xbd05a7de	-0.032630794
191	0x3c83e236	0.016099077
192	0xbd00cb78	-0.031444043
193	0x3c0bb5a8	0.008527197
194	0x3cac6616	0.021044772
195	0x3d576a9a	0.052591898
196	0xbd92685c	-0.07148811
197	0x3d6b0edc	0.057387218
198	0xbcdbfebc	-0.026854865
199	0xbca177b1	-0.019710394
200	0x3d13a7a6	0.036048554
201	0x3d9d44b0	0.07679117
202	0x3bac0a44	0.005250247
203	0xbcc8df21	-0.024520459
204	0xbcda2c66	-0.026632499
205	0xbd88f82b	-0.06687959
206	0xbd0d21ac	-0.03445594
207	0xbd573b2e	-0.052546673
208	0xbca2c0ff	-0.019867418
209	0xbb0dd2d1	-0.002164055
210	0xbd542085	-0.051788826
211	0xbc10208e	-0.008796824
212	0x3d664968	0.05622235
213	0xbc385f4d	-0.01125319
214	0x3d090fec	0.03346245
215	0x3bf7ad47	0.007558498
216	0xbcb1bffe	-0.021697994
217	0xbcf685f1	-0.030093165
218	0xbc92c5e2	-0.017916624
219	0xbc41d273	-0.01182996
220	0x3bef0077	0.0072937566
221	0xbd19c180	-0.03753805
222	0xbc69d3c8	-0.014271684
223	0x3d3433f6	0.043994866
224	0xbd4b90fa	-0.049698807
225	0xbcf8bf2a	-0.030364592
226	0xbd3d3e84	-0.046202198
227	0xbd552bd1	-0.05204374
228	0xbd67f28a	-0.056627788
229	0x3bbf9b9c	0.0058474075
230	0xba85d85b	-0.0010211574
231	0x3cc196a2	0.023631398
232	0xbcafecf4	-0.021475293
233	0x3ba6d1d1	0.00509093
234	0x3d757487	0.059925582
235	0x3c3ff831	0.011716888
236	0x3bcbe3d9	0.00622223
237	0xbd3cbeb8	-0.04608032
238	0x3cf9c8d6	0.030491274
239	0x3d97c18d	0.07409964
240	0x3d8205b3	0.06348743
241	0xbc122174	-0.008919109
242	0xbca245ef	-0.019808738
243	0x3d4fcb7e	0.050731175
244	0xbc32e6b3	-0.010919261
245	0xbd778c57	-0.060436573
246	0x3d7a6d9a	0.06113968
247	0xbc228520	-0.009919435
248	0x3d17fa4f	0.037103947
249	0x3c620610	0.013795391
250	0xbc8459aa	-0.016156036
251	0xbbc42a90	-0.005986519
252	0xbc3eda42	-0.011648716
253	0x3b7e74c8	0.0038826931
254	0xbb3283ab	-0.0027239125
255	0xbc4e0371	-0.012574063

network_body._body_endoder.seq_layers.2.weight f4 [256, 256]
0	0xbd336c9f	-0.04380476
1	0xbe14f6a6	-0.14547214
2	0xbca4b682	-0.020106558
3	0xbd3ecc21	-0.04658139
4	0xbdbe269b	-0.09284707
5	0xbe3f0e1f	-0.1865773
6	0x3e287fdc	0.16455024
7	0xbda3aa3f	-0.07991456
8	0xbca5fcba	-0.020262111
9	0xbd417961	-0.047234897
10	0x3cb02ddb	0.02150624
11	0x3c3ba084	0.011451844
12	0x3d939421	0.07205988
13	0x3d293e44	0.041319147
14	0xbcd0414f	-0.025421767
15	0xbe007b6b	-0.1254708
16	0x3d88e573	0.06684389
17	0xbd54b01a	-0.051925756
18	0x3c471d08	0.012152918
19	0x3d9c7796	0.07639997
20	0xbd659385	-0.05604889
21	0xbce062bc	-0.02739083
22	0x3d779430	0.060444057
23	0xbd3e6e06	-0.046491645
24	0x3d233b27	0.039851334
25	0x3cf5434c	0.029939316
26	0xbb069274	-0.002053407
27	0x3d08c2d2	0.03338892
28	0xbdc8bbf4	-0.09801474
29	0x3c90039a	0.017579842
30	0x3d2bf446	0.041981004
31	0xbd4d6ac9	-0.050150666
32	0xbe466d7e	-0.19377705
33	0xbdb37216	-0.087619945
34	0x3d2a20dd	0.041535247
35	0xbbbba69d	-0.005726649
36	0xbd5d820c	-0.0540791
37	0xbdb62f86	-0.08895783
38	0x3a3e1594	0.000725114
39	0x3ca8ca4e	0.020604279
40	0x3db751e1	0.08951164
41	0xbd44d93f	-0.048058745
42	0x3c88c2cd	0.01669445
43	0x3c4c7fc6	0.012481635
44	0xbd01e759	-0.03171477
45	0x3b8d5084	0.0043125767
46	0xbbe5c5ad	-0.00701209
47	0xbd33eb5d	-0.04392563
48	0x3cf0c50e	0.029390838
49	0xbcc25773	-0.02372334
50	0xbd6169d6	-0.055032574
51	0x3e030d25	0.12797983
52	0xbd7d186d	-0.061790872
53	0xbde1ad4e	-0.11019383
54	0xbdb3e663	-0.08784177
55	0xbe04035a	-0.12891904
56	0x3dbccc72	0.09218682
57	0xbd4425a6	-0.047887467
58	0xbd31aefb	-0.043379765
59	0x3bebeef1	0.007200115
60	0xbd9e73ca	-0.07736929
61	0xbbeb63ba	-0.007183519
62	0x3d02f9e8	0.03197661
63	0x3d4bb376	0.049731694
64	0xbd6a6058	-0.057220787
65	0x3d2e539c	0.042560205
66	0x3a0e8dca	0.00054379983
67	0xbd563d0b	-0.05230431
68	0xbdc092e5	-0.09403018
69	0x3d8ab9e7	0.06773739
70	0xbbd5ec58	-0.0065284185
71	0x3dc95473	0.098305605
72	0xbc706dd4	-0.014674623
73	0xbdd8c2d9	-0.10584039
74	0x3daec880	0.08534336
75	0x3db9dcb6	0.090753004
76	0x3d10d68b	0.035360854
77	0x3c372673	0.011178601
78	0xbd19eb65	-0.037578005
79	0xbdc709b1	-0.09718645
80	0x3d51092f	0.05103415
81	0xbc97c2b8	-0.018525466
82	0xbcfc70f1	-0.030815573
83	0xbd39b9de	-0.045343272
84	0x3dd8fabc	0.10594699
85	0xbd1ddfc3	-0.038543474
86	0xbd4071fe	-0.04698371
87	0x3d49ecb0	0.04929799
88	0xbe09a07a	-0.13440123
89	0x3c6c75a4	0.014432345
90	0x3b90a98a	0.004414742
91	0x3aef52a3	0.0018258881
92	0x3da5ef7c	0.08102319
93	0x3d6857a3	0.056724202
94	0xbcf9ad04	-0.030478008
95	0xbd008302	-0.03137494
96	0xbd65a164	-0.056062117
97	0xbd64fb4f	-0.05590373
98	0xbdaf3faf	-0.085570686
99	0x3d8f69c8	0.07002598
100	0xbcd9877c	-0.026553862
101	0x3dc16951	0.09443916
102	0x3c603d42	0.01368648
103	0x3ca11fab	0.01966842
104	0x3d937b8b	0.07201298
105	0xbc2b6725	-0.010461603
106	0x3db6316a	0.08896144
107	0xbce5457f	-0.02798724
108	0x3daf4633	0.08558311
109	0x3da854bb	0.08219286
110	0xbcd81b62	-0.026380245
111	0xbd07c509	-0.03314689
112	0x3bfc8706	0.0077065257
113	0xbc80b760	-0.01571244
114	0xbd953d55	-0.07287089
115	0x3e005145	0.12531002
116	0x3cbf3e73	0.023345208
117	0x3d12de9d	0.03585683
118	0xbe01c60f	-0.1267321
119	0xbb45401f	-0.0030098034
120	0x3d4fccfe	0.050732605
121	0x3e0ae1c7	0.1356269
122	0xbc8ddab2	-0.017316196
123	0x3cbd950b	0.023142358
124	0xbd8b0ec1	-0.067899235
125	0x3dccb1bf	0.0999484
126	0xbddc7635	-0.10764734
127	0xbd934eba	-0.0719275
128	0xbd3b914a	-0.045792855
129	0xbd4c09ad	-0.049813915
130	0x3afd8c84	0.0019344245
131	0x3e65e6ca	0.2245132
132	0x3df203cf	0.11817133
133	0xbd7627e1	-0.060096625
134	0x3d88f1fe	0.06686781
135	0xbc39b533	-0.011334705
136	0x3b3ec7d6	0.002911081
137	0x3d64f0a2	0.055893548
138	0xbd3551e0	-0.044267535
139	0xbcef5960	-0.029217422
140	0x3d1568e2	0.036476977
141	0xbccf15e1	-0.025278987
142	0xbdd777c5	-0.10520891
143	0x3d91c9ff	0.07118606
144	0x3dc04f21	0.09390093
145	0xbc609c68	-0.013709165
146	0xbd30e3cb	-0.04318599
147	0x3d1f52da	0.038897373
148	0x3d7593c3	0.05995537
149	0x3d5de405	0.054172534
150	0x3dcd8afb	0.10036274
151	0x3d9403da	0.07227297
152	0xbe1c0ff4	-0.1524046
153	0x3d455bcb	0.048183244
154	0x3d8c2a32	0.068439856
155	0xbd03c8dc	-0.032173976
156	0x3de14a8f	0.11000549
157	0x3d872d78	0.06600469
158	0xbd5c1d8f	-0.053739127
159	0xbd5853ec	-0.05281441
160	0xbc8d666b	-0.01726075
161	0xbcdce405	-0.026964197
162	0xbd6af59f	-0.05736315
163	0xbd6c48bf	-0.057686564
164	0x3ca0d6e9	0.019633727
165	0xbcab45dc	-0.020907335
166	0xbc18c9c2	-0.009325447
167	0xbdd13392	-0.102149144
168	0x3d660fb6	0.056167327
169	0x3dabbf10	0.08386052
170	0x3d8f7c7c	0.070061654
171	0x3dec073c	0.11524817
172	0xbbc4c32d	-0.006004712
173	0xbd2352bc	-0.039873824
174	0x3d2b7a20	0.041864514
175	0xbce95e8f	-0.028487472
176	0x3d39e382	0.045382984
177	0xbc7bbcb3	-0.015364814
178	0xbb8a8073	-0.004226738
179	0xbd90ae4f	-0.07064497
180	0x3c90702e	0.017631616
181	0xbc6cb083	-0.014446381
182	0xbbaa0f09	-0.0051897806
183	0xbcd04d06	-0.025427353
184	0x3d4e2ed5	0.05033763
185	0x3c5515fb	0.013005729
186	0x3d3fea26	0.04685416
187	0xbd3c9cce	-0.046047978
188	0x3d32a106	0.043610595
189	0xbdb1e915	-0.08687035
190	0x3dc7de52	0.09759201
191	0x3d0c0bd1	0.034190957
192	0x3d80b551	0.06284583
193	0x3e054af6	0.13016877
194	0xbdd8a9ff	-0.10579299
195	0xbdf242d1	-0.118291505
196	0xbceb6158	-0.02873294
197	0x3db0ab96	0.086264774
198	0x3d5c61d3	0.05380423
199	0xbd4111f0	-0.047136247
200	0xbcca51ec	-0.024697267
201	0x3d4d2391	0.050082747
202	0x3d69434b	0.05694894
203	0xbc8e9f1b	-0.017409852
204	0x3d0074f7	0.031361546
205	0xbd9a1961	-0.07524372
206	0x3d4c02f6	0.04980751
207	0x3c1995b0	0.009374067
208	0x3de34953	0.1109797
209	0x3dcb49da	0.099261954
210	0x3c02ef08	0.00799156
211	0x3e22a6b9	0.15883912
212	0xbd1801c4	-0.03711106
213	0x3d215acf	0.039393242
214	0xba709f83	-0.00091790425
215	0x3e0effef	0.13964818
216	0x3e09f301	0.13471605
217	0x3e01a425	0.12660272
218	0x3e29ece6	0.16594276
219	0xbcd07cb9	-0.025450097
220	0xbd1e0921	-0.038582925
221	0x3d73afee	0.05949395
222	0x3d8f72c5	0.070043124
223	0x3c3ffbc9	0.011717745
224	0x3d15691e	0.0364772
225	0x3e172b76	0.14762673
226	0x3d95325a	0.072849944
227	0x3bb0177a	0.0053738924
228	0x3c8703a2	0.016481224
229	0xbdaab927	-0.08336096
230	0xbd0e00d2	-0.03466875
231	0x3d451c5f	0.04812276
232	0xbd5f21c1	-0.05447555
233	0x3d902cfd	0.07039831
234	0x3d857ff3	0.06518545
235	0x3d7b35d8	0.061330646
236	0x3e4462e9	0.19178356
237	0x3c7e68f3	0.0155279515
238	0xbdee0482	-0.116219535
239	0xbd64d49d	-0.055866826
240	0xbafd591e	-0.0019328927
241	0x3df2a48f	0.11847793
242	0xbd75ea43	-0.060037863
243	0x3c170fa2	0.009220036
244	0x3b577c43	0.0032880462
245	0xbd5596f1	-0.052145902
246	0x3df2d447	0.11856895
247	0x3c9e51fb	0.0193262
248	0xbd1dfdd0	-0.038572133
249	0xbceea57e	-0.029131647
250	0x3d9783de	0.073981985
251	0x3d9256a6	0.07145433
252	0xbcccae20	-0.024985373
253	0x3b57aaaf	0.0032908132
254	0x3d516621	0.05112279
255	0xbd0d3d43	-0.03448225

network_body._body_endoder.seq_layers.2.bias f4 [256]
0	0x3c2ee4d1	0.010674671
1	0x3cdf80ee	0.027283158
2	0xbcba5acd	-0.022748375
3	0x3b82c088	0.0039902367
4	0x3c83e532	0.0161005
5	0xbcf01e48	-0.029311314
6	0xbd15eaa8	-0.03660074
7	0xbcc3ae8f	-0.023886947
8	0xbc6d6db5	-0.014491488
9	0xbbea7352	-0.0071548605
10	0x3cc8880c	0.024478935
11	0xbd39d89a	-0.045372583
12	0xbc9ec5ee	-0.01938149
13	0x3d0994b1	0.03358907
14	0xbc959faa	-0.01826461
15	0xbce11da4	-0.027479954
16	0x3ce7fc00	0.028318405
17	0x3c131250	0.008976534
18	0xbc51af1f	-0.0127981
19	0xbc991c96	-0.018690389
20	0xbbe9d684	-0.007136168
21	0xbca71dda	-0.020399977
22	0x3c6890ea	0.014194706
23	0xbb47c503	-0.0030482418
24	0x3cb57f34	0.022155382
25	0xbc4ddcd9	-0.012564861
26	0xbd36bc1b	-0.044612985
27	0x3d0d09af	0.034433063
28	0x3c94f78f	0.018184451
29	0x3c459cc9	0.012061306
30	0xbd2f5f23	-0.04281534
31	0x3c5972ed	0.013272029
32	0x3d013011	0.03153998
33	0x3c618f97	0.013767145
34	0x3c296db3	0.010341096
35	0xbb6d10f1	-0.0036173428
36	0x3cc29957	0.023754759
37	0xbcaa7f1d	-0.020812565
38	0xbcbf8010	-0.023376495
39	0xbcc7ed90	-0.02440527
40	0xbcf97393	-0.030450618
41	0xbce8f6fd	-0.028438086
42	0xbca9e297	-0.02073793
43	0x3b86cb31	0.004113578
44	0xbd28cbbb	-0.041209918
45	0xbd83e3b2	-0.06439914
46	0xbd4000fd	-0.046875942
47	0xbc903d35	-0.01760731
48	0xbc6c63cf	-0.014428093
49	0xba3d64d5	-0.0007224803
50	0x3cf225e3	0.029559081
51	0xbc8b9734	-0.017039873
52	0x3c479e50	0.012183741
53	0xbc55afbd	-0.013042388
54	0xbc4c585c	-0.012472238
55	0x3c927ad0	0.017880827
56	0xbcecbba8	-0.028898075
57	0x3d293030	0.04130572
58	0xbc3e9a6b	-0.011633496
59	0xbcd1439f	-0.02554494
60	0xbc7be96e	-0.015375478
61	0x3cd47ae4	0.025937505
62	0xbd42689c	-0.047463045
63	0xbb44fd8a	-0.0030058348
64	0xbd25628e	-0.040377192
65	0xbd075f27	-0.03304973
66	0x3d1afbf0	0.037837923
67	0x3b84a0f0	0.0040475056
68	0xbc1ef5a2	-0.009702118
69	0x3cd34d32	0.025793646
70	0xbcdf38b2	-0.027248714
71	0xbcd4e8e6	-0.02598996
72	0x3d2e5593	0.04256208
73	0xbc6789cb	-0.0141319735
74	0xbd043f0b	-0.032286685
75	0x3bdb74ba	0.0066972645
76	0xbc36dc02	-0.011160852
77	0x3d53389c	0.05156766
78	0xbc15d7d1	-0.009145693
79	0xbcf46f13	-0.02983812
80	0xbcd73738	-0.026271448
81	0x3c762835	0.015024235
82	0xbce1e81e	-0.027576502
83	0xbd8029f9	-0.06258006
84	0x3cc14afb	0.023595324
85	0xbcb4b371	-0.02205822
86	0x3cae7bfb	0.021299353
87	0xbd4d362f	-0.0501005
88	0x3d13c8b1	0.036080066
89	0xbcb85098	-0.022499368
90	0xbad27bfa	-0.0016058676
91	0xbd1ef77a	-0.03881023
92	0xbc28ef8a	-0.010311017
93	0x3b9a3204	0.0047056694
94	0xbc1660ab	-0.009178321
95	0xbc78a478	-0.015175931
96	0xbc173617	-0.009229205
97	0xbc6ce348	-0.014458485
98	0x3cdb31c1	0.026757123
99	0x3c9f343f	0.019434093
100	0x3cd5e15b	0.026108434
101	0xbcadf954	-0.021237053
102	0x3c8cfb3b	0.01720964
103	0xbd06df2f	-0.03292769
104	0x3abc423d	0.0014363002
105	0xbd137efc	-0.036009774
106	0xbd33209b	-0.043732267
107	0xbd4ac882	-0.049507625
108	0xbb527f2e	-0.0032119262
109	0xbcab1f29	-0.020888882
110	0x3b4cc87c	0.0031247428
111	0xbba5c1ad	-0.0050584883
112	0xbbb1cc8c	-0.005425995
113	0xbd242910	-0.040078223
114	0x3c0a7abb	0.008452113
115	0xbd09ed71	-0.033673707
116	0xbd1e418f	-0.03863674
117	0x3d213068	0.039352804
118	0xbcd1aa57	-0.02559392
119	0xbd17f05e	-0.037094466
120	0x3c8eed49	0.01744713
121	0xbd22171a	-0.039572813
122	0x3d644583	0.055730354
123	0x3cd16ced	0.025564635
124	0xbc93cfac	-0.018043362
125	0xbc9d06b2	-0.019168232
126	0x3d29732a	0.041369595
127	0xbc5945c3	-0.013261261
128	0x3d363321	0.044482354
129	0xbcbd65c5	-0.023119817
130	0x3aae16c4	0.0013281931
131	0x3c13ca9f	0.009020477
132	0xbd2ae0c5	-0.041718263
133	0xbc63522f	-0.013874575
134	0xbccf89ce	-0.025334265
135	0xbcadd314	-0.021218814
136	0xbc6da974	-0.014505733
137	0xbca66283	-0.020310646
138	0xbcf83084	-0.030296572
139	0x3d2c63e5	0.042087454
140	0xbc637dd4	-0.01388498
141	0xbc9d31f6	-0.019188862
142	0x3d0c169f	0.03420126
143	0xbd6c5417	-0.05769738
144	0xbcea66fe	-0.028613564
145	0xbd29710e	-0.041367583
146	0x3d206f6e	0.039168768
147	0x3d1b2165	0.037873644
148	0xbcdfede0	-0.027335107
149	0xbc1f07b5	-0.009706427
150	0xbc1c2029	-0.009529152
151	0xbcd76027	-0.026290966
152	0xbc7d9f6e	-0.0154799055
153	0x39ec556f	0.0004507708
154	0xbd181cfd	-0.03713702
155	0x3c18ec04	0.009333614
156	0xbd283df0	-0.041074693
157	0xbc5e4073	-0.013565171
158	0xbcaa2a01	-0.020771982
159	0x3b976012	0.004619607
160	0xbb06dc28	-0.0020578
161	0xbcb153ac	-0.021646343
162	0xbbed39e8	-0.007239569
163	0xbbf3afd5	-0.0074367323
164	0xbc759253	-0.0149885
165	0x3c7b0728	0.01532153
166	0xbc0e6a36	-0.008692315
167	0xbd055c3f	-0.032558676
168	0x3c6c1253	0.014408666
169	0x3bee7c5a	0.0072780075
170	0x3c3de3b1	0.01158993
171	0x3c411594	0.01178493
172	0xbc341148	-0.010990448
173	0xbc9ed75a	-0.019389797
174	0xbafdffa9	-0.0019378561
175	0x3d2cda6a	0.042200483
176	0xbc6d7992	-0.014494317
177	0xbcd41cd0	-0.025892645
178	0xbcc5549d	-0.024088198
179	0xbbd3d157	-0.0064641642
180	0xbb9e57c2	-0.004832239
181	0xbd660e76	-0.056166135
182	0x3b8b33a1	0.004248098
183	0xbceed7d5	-0.029155651
184	0x3c0d15d7	0.008611164
185	0x3d12d893	0.035851073
186	0xbc0d6787	-0.00863064
187	0x3cc56a31	0.024098488
188	0x3d9aa2d7	0.075505905
189	0x3d0333bb	0.032031756
190	0xbd0237f4	-0.031791642
191	0xbd3a0004	-0.04541017
192	0xba5ee6f3	-0.0008503042
193	0xbd615b2e	-0.055018596
194	0x3c7a1958	0.0152648315
195	0xbc06fcd2	-0.008238988
196	0xbc51320c	-0.01276828
197	0x3c18bb57	0.009322009
198	0x3d0e0a3b	0.034677725
199	0xbc855763	-0.01627702
200	0x3c8ca9f6	0.017170887
201	0xbd75d7ce	-0.06002026
202	0xbb515eb1	-0.003194731
203	0xbc03710d	-0.008022559
204	0x3cc6812b	0.024231514
205	0x3bcb6dd0	0.006208159
206	0x3d34608b	0.044037383
207	0xbc6ef560	-0.014584869
208	0xbbd78b63	-0.0065778955
209	0xbcac4f2b	-0.021033844
210	0xbc3f3593	-0.011670488
211	0x3d1b2ab8	0.037882537
212	0x3c15ad3c	0.009135541
213	0xbc7cfae3	-0.015440675
214	0x3c91ed0f	0.017813234
215	0xbd141df9	-0.036161397
216	0x3cd80091	0.026367458
217	0xbc25caab	-0.010119121
218	0x3a27cb4b	0.00064008374
219	0xbd05055f	-0.032475825
220	0xbb5a9ece	-0.0033358815
221	0x3cfd680a	0.030933399
222	0xbc6f3910	-0.014601007
223	0xbcb438c9	-0.021999734
224	0x3d545bcf	0.051845368
225	0x3cdd59eb	0.027020415
226	0xbcaee031	-0.021347137
227	0xbc6172e7	-0.013760305
228	0xbb00a2d1	-0.0019628296
229	0x3d04a3ed	0.032382894
230	0x3b84ac42	0.004048855
231	0xbb9ef34b	-0.00485078
232	0xbcb3bb3b	-0.021939864
233	0xbd28c597	-0.04120406
234	0xbca04a7e	-0.01956677
235	0xbca69cde	-0.020338472
236	0x3ba4a605	0.005024674
237	0x3c424e77	0.011859528
238	0xbcbc6cd5	-0.023001114
239	0xbca33b60	-0.019925773
240	0xbc9b3c07	-0.018949522
241	0xbc1e18dd	-0.009649483
242	0xbca87b03	-0.020566469
243	0xbd314cce	-0.043286137
244	0xbcfa8df9	-0.030585276
245	0xbc356272	-0.0110708345
246	0x3c818943	0.015812522
247	0x3d217ac2	0.03942371
248	0x3c29d540	0.010365784
249	0x3c3d1b72	0.011542188
250	0x3c326b7e	0.010889886
251	0xbd1dd4f6	-0.038533174
252	0xbc08f691	-0.008359567
253	0x3c84c105	0.01620532
254	0x3cffdd41	0.031233432
255	0x3c0ccab6	0.008593252

action_model._discrete_distribution.branches.0.weight f4 [2, 256]
0	0xbbef9d1b	-0.0073124296
1	0xbce8e37e	-0.02842879
2	0xbd09d749	-0.033652578
3	0x3b0fab8c	0.0021922318
4	0xbcb28f07	-0.021796716
5	0x3cd9741d	0.026544625
6	0x3cfa40cd	0.030548478
7	0xbbe4edea	-0.0069863694
8	0xbca9437f	-0.020662067
9	0x3d2b869b	0.041876417
10	0xbd44492f	-0.047921356
11	0x3c62e42f	0.0138483485
12	0x3d4cbcff	0.04998493
13	0xbc8a26f9	-0.016864287
14	0x3d0d389e	0.034477822
15	0x3cd33d0e	0.02578595
16	0xbd547219	-0.051866625
17	0xbc2597ab	-0.010106961
18	0xbcaf1aba	-0.021375049
19	0xbb10d6b6	-0.0022100634
20	0x3ba77ada	0.0051110806
21	0x3c8f01ad	0.017456854
22	0xbb0c31be	-0.0021391953
23	0x3c0a8c21	0.008456261
24	0xbc39599e	-0.01131287
25	0x3cf1cde5	0.029517123
26	0x3b3bccf6	0.0028656102
27	0x3ceae113	0.028671777
28	0x3bdbfb1c	0.006713284
29	0xbbb66f63	-0.0055674776
30	0x3cd62bda	0.026143957
31	0xbd379779	-0.04482219
32	0xbd2e43f8	-0.04254529
33	0x3cd25e8b	0.025679847
34	0x3b1b1b40	0.0023667365
35	0x3b936ca0	0.004499033
36	0xbd02d3dc	-0.031940326
37	0x3c7d92b0	0.015476868
38	0xbc9e83f9	-0.019350039
39	0xbcba6f7d	-0.02275824
40	0xbcc1f47b	-0.023676148
41	0x3d0295f1	0.031881277
42	0x3cd80eb7	0.026374204
43	0xbc7ab2f3	-0.015301454
44	0x3d03c1af	0.032167133
45	0x3c863ba5	0.016385863
46	0x3cabe74a	0.02098431
47	0x3d49ba9b	0.049250226
48	0x3cb1dc41	0.02171147
49	0x3ccda5d1	0.025103481
50	0xbd12601d	-0.035736192
51	0x3c8e05c9	0.017336743
52	0xbc499d37	-0.012305549
53	0x3c10e501	0.008843661
54	0x3d01a39a	0.031650163
55	0x3c8eb965	0.017422387
56	0x3a758467	0.0009365738
57	0xbd5d9afc	-0.054102883
58	0x3cf88898	0.03033857
59	0x3ca45e46	0.020064484
60	0xbcdcd319	-0.026956128
61	0x3d22e99f	0.03977358
62	0x3d0e3c18	0.03472528
63	0xbd0565c5	-0.032567758
64	0x3cc67115	0.024223844
65	0x3cecf883	0.028927093
66	0x3cb3772e	0.021907415
67	0x3c6bebf6	0.014399519
68	0x3c8d0910	0.017216235
69	0xbc726073	-0.014793503
70	0xbc1886df	-0.0093094995
71	0x3bc8de09	0.0061299843
72	0xbd0155cb	-0.03157596
73	0xbd1ebea9	-0.038756046
74	0x3cc2eab5	0.023793558
75	0xbc7423ca	-0.014901111
76	0x3c86d4ef	0.016458957
77	0xbce292c7	-0.02765788
78	0x3d1a84b6	0.03772422
79	0x3d2f119c	0.042741403
80	0x3cd7921f	0.026314793
81	0xbd5b3350	-0.053515732
82	0x3d248a3c	0.040170893
83	0x3c64191b	0.013922001
84	0xbcc34d23	-0.023840493
85	0x3cde47a3	0.027133768
86	0xbd0c7bc0	-0.034297705
87	0x3cb108f7	0.02161072
88	0xbcca0929	-0.024662571
89	0x3c91fad8	0.017819807
90	0xbd01e3a3	-0.031711232
91	0x3b84aa76	0.004048641
92	0x3cc135f0	0.02358529
93	0x3d07709a	0.03306637
94	0x3afe6c43	0.0019410927
95	0x3ca42a41	0.02003968
96	0x3cde4eee	0.027137246
97	0x3ca6b41e	0.020349558
98	0xbd62d8ac	-0.055382416
99	0xbcd2f478	-0.025751337
100	0xbcdc8890	-0.026920587
101	0x3c7049a2	0.014665993
102	0xbca37854	-0.019954838
103	0x3d377062	0.04478491
104	0x3caef641	0.021357657
105	0x3c1859a5	0.009298717
106	0x3b633b24	0.0034672702
107	0x3c2dedeb	0.010615806
108	0xbcd5fd98	-0.0261219
109	0x3cf569f5	0.02995775
110	0xbb547464	-0.0032418007
111	0x3c089b1b	0.008337761
112	0x3d207554	0.039174393
113	0xbbb6743f	-0.005568057
114	0x3c9fdedf	0.019515453
115	0x3c71faa9	0.014769235
116	0xbb9e7ac1	-0.0048364107
117	0x3bce2a83	0.006291689
118	0x3d0d99c4	0.03457047
119	0xbca6d5c1	-0.020365598
120	0xbcc06681	-0.023486378
121	0x3d1c3a16	0.038141333
122	0xbc8b2d7d	-0.016989464
123	0xbc5627f4	-0.013071049
124	0xbd18c50c	-0.037297294
125	0x3cd4aa54	0.025960125
126	0xbc283e5a	-0.010268772
127	0x3d10f588	0.035390407
128	0xbd4f7b5e	-0.05065476
129	0x3d095383	0.03352691
130	0x3cd93916	0.026516479
131	0xbcae7f5c	-0.021300964
132	0x3cc923b0	0.02455315
133	0x3c9ec983	0.019383198
134	0x3ca92ee2	0.020652238
135	0xbbbf5702	-0.0058392296
136	0x3caa30c4	0.020775206
137	0x3cf07ccc	0.029356383
138	0xbcf73d2a	-0.030180532
139	0xbd018f54	-0.03163083
140	0x3d33b46d	0.04387324
141	0x3d01e4b9	0.031712268
142	0xbd28f413	-0.041248392
143	0x3cbec1c4	0.023285754
144	0x3d046095	0.03231867
145	0x3ce3383c	0.027736776
146	0xbcf507ea	-0.029911
147	0xbd04246a	-0.03226129
148	0x3c5469de	0.012964694
149	0x3c8f42c0	0.017487884
150	0x3d5a8d13	0.053357195
151	0x3ae3c9b7	0.0017378841
152	0x3c9709dc	0.018437319
153	0xbd11a8a1	-0.035561208
154	0x3d2e0656	0.04248651
155	0x3d0c09a3	0.034188878
156	0x3d1cca45	0.038278837
157	0x3c78d5db	0.015187706
158	0x3b54cfb2	0.003247243
159	0xbca360f9	-0.019943701
160	0xbc09914d	-0.008396459
161	0x3c1ab3c1	0.009442271
162	0x3d13a478	0.03604552
163	0x3c9580a9	0.018249827
164	0x3ca802ff	0.020509241
165	0xbc33f22e	-0.010983033
166	0x3d3a6d41	0.04551435
167	0x3ced1b60	0.028943717
168	0xbbb9f10f	-0.0056744884
169	0xb96a02d5	-0.00022317034
170	0xbd24a716	-0.040198408
171	0xb9db7005	-0.00041854396
172	0x3c53b2ad	0.012921018
173	0x3c67c769	0.014146664
174	0xbd3e7776	-0.046500646
175	0xbd0b0c46	-0.03394725
176	0x3b449920	0.0029998496
177	0x3d31586d	0.04329722
178	0x3d0a0450	0.03369552
179	0x3bbd1590	0.0057703927
180	0xbd15d1ff	-0.03657722
181	0x3cc66e0a	0.024222393
182	0xbb5da4e0	-0.0033820197
183	0x3d55a662	0.05216063
184	0xbc9e5450	-0.019327313
185	0xbc50d475	-0.012745966
186	0x3c31da1a	0.010855222
187	0xbd042f15	-0.032271463
188	0xbd8a58bc	-0.06755206
189	0xbc442d61	-0.01197371
190	0x3d0e31a2	0.034715302
191	0x3cc98a66	0.024602126
192	0x3d079b90	0.03310734
193	0x3c8bf399	0.01708393
194	0x3afd9867	0.0019347788
195	0x3d35bbba	0.044368483
196	0x3d25a41d	0.040439714
197	0xbcce30e6	-0.025169801
198	0xbd0225ca	-0.03177432
199	0x3c1a854a	0.009431193
200	0x39aed41b	0.00033345897
201	0x3c7e40ca	0.015518377
202	0x3c476843	0.012170854
203	0x3c6af07c	0.0143395625
204	0xbc8c9810	-0.017162353
205	0x3a8a1c7f	0.0010537057
206	0xbd05758e	-0.032582812
207	0xbc340b5b	-0.0109890355
208	0x3d0f745c	0.03502308
209	0xbcd7d365	-0.026345918
210	0xbd01ff3a	-0.031737544
211	0xbd229d8d	-0.039701033
212	0x3ae8effa	0.0017771714
213	0x3c955276	0.018227797
214	0x3b93b63d	0.0045078085
215	0x3d0452c2	0.032305487
216	0xbd162fe6	-0.036666773
217	0xbd0dd97d	-0.03463124
218	0x3b188c2d	0.002327691
219	0x3c6d6028	0.0144882575
220	0xbd00a601	-0.031408314
221	0xbd6fdf64	-0.05856265
222	0x3bcbe7a0	0.00622268
223	0xbd144154	-0.036195114
224	0xbc812940	-0.01576674
225	0xbb0154c7	-0.001973437
226	0x3ce227b2	0.027606819
227	0x3b971a36	0.004611279
228	0xbc4588a8	-0.012056507
229	0xbc4bd011	-0.012439744
230	0xbc437664	-0.011930082
231	0xbc0992e8	-0.008396842
232	0x3cef3219	0.029198693
233	0x3cbccac2	0.023045901
234	0x3cef5902	0.029217247
235	0x3d66c338	0.05633852
236	0x3b835788	0.0040082373
237	0x3cf6b0aa	0.030113537
238	0x3ce0493f	0.027378676
239	0x3c8a1831	0.016857238
240	0x3c31592d	0.010824484
241	0xbc334cbe	-0.01094359
242	0xba9a4ba6	-0.0011771813
243	0x3c41576a	0.011800626
244	0x3cb934dd	0.022608215
245	0xbd1074c8	-0.03526762
246	0xbd292d55	-0.041302998
247	0xbd02e83d	-0.03195976
248	0xbca7c26a	-0.020478446
249	0xbcea4fd3	-0.028602516
250	0xbd2c5b52	-0.042079277
251	0x3cf7d48a	0.030252714
252	0x3ca87550	0.020563751
253	0xbcd11527	-0.025522782
254	0xbce5b9aa	-0.028042633
255	0xbcf12d6e	-0.029440608

action_model._discrete_distribution.branches.0.bias f4 [2]
0	0xbcc64cb6	-0.0242065
1	0x3cc64cc3	0.024206525

action_model._discrete_distribution.branches.1.weight f4 [2, 256]
0	0x3b006a4f	0.0019594615
1	0xbc29397e	-0.010328649
2	0xbce8fc78	-0.028440699
3	0xbb6f3766	-0.0036501526
4	0xbc9e000e	-0.019287135
5	0x3ca3c397	0.019990725
6	0x3d031089	0.03199819
7	0x3c8a3254	0.016869701
8	0xbc30c07e	-0.010788081
9	0x3c869362	0.0164277
10	0xbce6b683	-0.0281632
11	0x3d28cf1d	0.041213144
12	0x3cc775f5	0.024348238
13	0xbbf1d734	-0.0073803905
14	0x3cf6fe98	0.030150697
15	0xbb7a2754	-0.0038170414
16	0xbd049f0d	-0.032378245
17	0xbc944ddf	-0.018103538
18	0xbcb7bcac	-0.022428833
19	0x3b622ffe	0.003451347
20	0xbab2d9f3	-0.0013645276
21	0x3cc0d869	0.023540692
22	0xbb264bc7	-0.0025374757
23	0xbbb73e8d	-0.0055921734
24	0xbcc432a3	-0.023949927
25	0x3d223fb0	0.03961152
26	0x3ce084c9	0.027407067
27	0x3c5ec6d0	0.013597205
28	0x3b60da5c	0.003430984
29	0x3ccdc2fc	0.02511739
30	0x3bfda492	0.0077405656
31	0xbd102494	-0.035191134
32	0xbc44ac5f	-0.012003987
33	0x3c836047	0.01603712
34	0x3c3c8a5d	0.011507598
35	0x3c0d8901	0.008638621
36	0xbd396076	-0.045258008
37	0x3cc6392f	0.02419719
38	0xbd0759d5	-0.033044655
39	0xbbf8e1b4	-0.0075952653
40	0xbd14477c	-0.036200985
41	0x3cc9817d	0.024597878
42	0x3bb1118b	0.0054037026
43	0xbbdc4169	-0.0067216647
44	0x3c543f59	0.012954556
45	0x3d093d2c	0.033505604
46	0x3c2e721e	0.010647325
47	0x3d0b7a95	0.03405245
48	0x3d161d2a	0.036648907
49	0x3d23ff10	0.04003817
50	0xbd1c9204	-0.03822519
51	0x3c74f87f	0.014951824
52	0xbbb1c334	-0.0054248814
53	0x3c8035bc	0.015650623
54	0x3cf46dd7	0.029837532
55	0xbc03f03a	-0.00805288
56	0x39978c95	0.00028905706
57	0xbd4c801c	-0.049926862
58	0xbb867ba2	-0.0041040936
59	0x3ccda2a4	0.025101967
60	0xbca57d95	-0.020201484
61	0x3d470225	0.04858603
62	0x3d165420	0.03670132
63	0xbcb4d0dd	-0.02207225
64	0x3cfb0e96	0.030646604
65	0x3cdabb4a	0.026700635
66	0x3caf5806	0.021404278
67	0xbb0149cc	-0.0019727824
68	0x3bf94e58	0.0076082163
69	0xbd431937	-0.04763147
70	0xbca6dd2d	-0.020369137
71	0x3a5e0b69	0.0008470328
72	0xbcf1b5fd	-0.029505724
73	0xbd03464d	-0.032049466
74	0x3ab9f0bb	0.0014186123
75	0xbc355a1d	-0.011068848
76	0xbc2f7b03	-0.010710481
77	0xbd2f91be	-0.0428636
78	0x3d4d6bd4	0.05015166
79	0x3c9578d5	0.018246094
80	0x3d15d8cd	0.03658371
81	0xbcf77a15	-0.03020958
82	0x3cfcf6c7	0.030879391
83	0x3ca23545	0.019800792
84	0xbc465c10	-0.01210691
85	0x3cbacd03	0.022802835
86	0xbd279aef	-0.04091924
87	0x3ce62f04	0.02809859
88	0xbd154237	-0.0364401
89	0x3cf824b0	0.030290931
90	0xbd29c1d5	-0.04144462
91	0x3ca2af8f	0.019859103
92	0x3b9e13cf	0.0048241387
93	0x3d078a12	0.03309066
94	0xbc90e177	-0.017685635
95	0x3cf6e183	0.03013683
96	0x3c62d695	0.013845106
97	0x3b1f50fc	0.0024309745
98	0xbcd6dd69	-0.026228623
99	0xbd29c915	-0.041451532
100	0xbc5a04fe	-0.013306854
101	0x3c78185b	0.015142526
102	0xbc940f5f	-0.018073736
103	0x3ce755cd	0.028239155
104	0xbcc1b3ed	-0.023645366
105	0x3c9d162c	0.019175611
106	0x3cd51824	0.026012488
107	0x3c9ab0c9	0.018883126
108	0xbbcf4d3c	-0.0063263457
109	0x3cc00f40	0.023444772
110	0x3c83c35d	0.016084367
111	0xbc1d1e52	-0.009589748
112	0x3d126502	0.03574086
113	0xbcc7f038	-0.024406537
114	0x3a8622ae	0.0010233724
115	0x3c1c67b1	0.009546206
116	0xbcf4c203	-0.029877668
117	0x3b1238b2	0.0022311625
118	0x3cc61d27	0.024183823
119	0xbb452fe8	-0.0030088369
120	0xbcd8feef	-0.02648875
121	0x3bc529f2	0.006016963
122	0xbd7ced23	-0.06174959
123	0xbc9b579b	-0.018962672
124	0xbc66c769	-0.014085629
125	0x3ca462ec	0.0200667
126	0xbcbf6383	-0.02336288
127	0xbc4c9904	-0.012487654
128	0xbceab8a5	-0.028652498
129	0x3bd547d6	0.0065088077
130	0x3c55b75a	0.013044203
131	0xbc68d55a	-0.014211023
132	0x3d0cf0b3	0.034409236
133	0x3c6c70ff	0.014431237
134	0x3cc3db2f	0.023908226
135	0x3c035f78	0.008018367
136	0x3c89b048	0.01680769
137	0x3cde04df	0.027101932
138	0xbd12acb9	-0.035809252
139	0xbc96877f	-0.018375156
140	0x3d231750	0.039817154
141	0x3c4a78d3	0.012357908
142	0xbccb8085	-0.024841556
143	0x3c87bd4a	0.016569752
144	0x3c75beeb	0.014999132
145	0x3c879d20	0.016554415
146	0xbcc105d6	-0.023562353
147	0xbcceba6b	-0.025235375
148	0x3b9ad741	0.0047253673
149	0x3a1f041e	0.0006065982
150	0x3ccf2f73	0.02529118
151	0x3c21f1bc	0.009884294
152	0x3b8ca93e	0.004292636
153	0xbccdcf7d	-0.025123352
154	0x3d18ca0d	0.037302066
155	0x3ce7914d	0.028267527
156	0x3d269bc6	0.0406759
157	0x3d008702	0.031378753
158	0x3c79f657	0.015256486
159	0xbc7b6b10	-0.01534535
160	0xbccca0cf	-0.024979023
161	0x3c327243	0.0108915
162	0x3caa2b62	0.02077264
163	0xba7da83f	-0.00096762547
164	0x3c3c9f11	0.011512534
165	0xbc92f83e	-0.017940637
166	0x3d2ca9f0	0.042154253
167	0x3cace457	0.021104975
168	0xbc7573fd	-0.014981267
169	0xbc9bdd44	-0.019026406
170	0xbd298118	-0.04138288
171	0xbc13d372	-0.00902258
172	0xbc041299	-0.008061075
173	0x3b986e8e	0.004651851
174	0xbd4ac479	-0.049503777
175	0xbd19d24b	-0.037554067
176	0xbc3b2079	-0.011421316
177	0x3cad6ccb	0.02117004
178	0x3cd5c391	0.02609423
179	0xbba49ff0	-0.005023949
180	0xbca7f763	-0.020503705
181	0x3cc3203d	0.023819083
182	0xb9a238dd	-0.00030941414
183	0x3d0f734d	0.03502207
184	0xba69a221	-0.0008912404
185	0xbd520efe	-0.05128383
186	0xbb9e22f6	-0.004825945
187	0xbcf11c58	-0.02943246
188	0xbd5d2030	-0.053985775
189	0x3bb5b271	0.0055449535
190	0x3d111d15	0.035428125
191	0x3d03b80f	0.032157954
192	0x3d0e7321	0.034777764
193	0x3c9f3c5b	0.01943796
194	0x3c483265	0.012219046
195	0x3d3c5c87	0.04598668
196	0x3d0d6086	0.03451588
197	0xbce0ba95	-0.02743272
198	0xbcdc9a1f	-0.02692896
199	0xba5aab28	-0.00083415443
200	0xbc834cc7	-0.016027821
201	0x3ccd7e85	0.025084743
202	0x3b0fd2e0	0.002194576
203	0xbbfcda46	-0.00771645
204	0xbd031940	-0.032006502
205	0xba5de18e	-0.0008464091
206	0xbd5b195c	-0.05349098
207	0xbc21e169	-0.009880402
208	0x3d2bd9b3	0.04195566
209	0xbcf50665	-0.029910276
210	0xbc1e29e7	-0.009653545
211	0xbd4aaec9	-0.049483094
212	0xbc4e637e	-0.012596963
213	0x3d1de45d	0.038547862
214	0xbb42ff83	-0.0029754348
215	0x3cd3f0c7	0.025871648
216	0xbbf8c017	-0.0075912583
217	0xbd1e7df8	-0.038694352
218	0x3be469ec	0.0069706347
219	0x3cc41fa5	0.02394087
220	0xbd3135aa	-0.04326407
221	0xbc92695e	-0.017872509
222	0x3c8e2588	0.01735188
223	0xbc40bff4	-0.011764515
224	0xbd511fc5	-0.05105569
225	0xbb1439a6	-0.002261737
226	0x3c8b2d87	0.016989483
227	0x3c917b82	0.017759088
228	0xbb847531	-0.0040422906
229	0xbd453647	-0.048147466
230	0x3c91695d	0.017750436
231	0x3c968e54	0.018378414
232	0x3caee51b	0.02134948
233	0x3cf6cd23	0.030127114
234	0x3c2463b9	0.010033541
235	0x3d0ca21f	0.0343343
236	0xbc06f5e6	-0.008237338
237	0x3c9bf2ea	0.019036729
238	0xbb023978	-0.001987068
239	0x3c8ece31	0.017432304
240	0x3c61724d	0.013760162
241	0x3b2cbef8	0.0026358943
242	0x3cd0aae2	0.025472108
243	0x3cdb297f	0.026753185
244	0x3c68c58b	0.014207254
245	0xbcfe627b	-0.031052819
246	0xbbd049b2	-0.0063564414
247	0xbcd1de62	-0.025618736
248	0xbbe8c609	-0.0071036858
249	0xbb971471	-0.004610591
250	0xbc9d5eed	-0.019210303
251	0x3cb97da1	0.022642912
252	0x3ceaa375	0.028642396
253	0x3b8da9bb	0.004323212
254	0xbc81c07f	-0.01583886
255	0xbced4577	-0.028963787

action_model._discrete_distribution.branches.1.bias f4 [2]
0	0xbd13a258	-0.036043495
1	0x3d13a25a	0.036043502

action_model._discrete_distribution.branches.2.weight f4 [2, 256]
0	0x3cd1e5bb	0.02562224
1	0x3cf6d1f8	0.030129418
2	0xbce017ce	-0.027355101
3	0x3d003aa8	0.03130594
4	0x3c415ea4	0.011802349
5	0x3c536803	0.012903216
6	0x3cc699be	0.024243232
7	0x3b515c8d	0.0031946034
8	0xbcf9f0a3	-0.030510252
9	0x3c91f62a	0.017817575
10	0x3bb3609b	0.0054741628
11	0xbbf39014	-0.007432947
12	0x3c29dbc5	0.010367339
13	0x3cfb69a2	0.030690018
14	0x3cf7dc6b	0.03025647
15	0xbc1864b6	-0.009301355
16	0x3cf3b6b1	0.0297502
17	0x3cf5edcf	0.030020623
18	0xbd1f5d63	-0.03890742
19	0xbc8cf6b8	-0.017207488
20	0xbcb59525	-0.022165844
21	0xbbe44783	-0.0069665327
22	0x3d1005d5	0.03516181
23	0x3b2dcb01	0.0026518705
24	0x3cc9ecc4	0.024649031
25	0x3cdc311f	0.026878892
26	0xba92c450	-0.0011197422
27	0x3d378077	0.044800248
28	0xbafab19f	-0.0019126422
29	0x3cd2d98c	0.0257385
30	0xbc8fcbeb	-0.01755329
31	0xbb80ba15	-0.0039284327
32	0x3cfd46e0	0.030917585
33	0x3d5a23f9	0.053256962
34	0x3c1ab2dd	0.009442058
35	0x3c8c32cd	0.017114067
36	0xba81ef80	-0.0009913296
37	0x3c3a26ac	0.011361759
38	0xbd503efc	-0.050841317
39	0xbc4b6512	-0.012414234
40	0xbd522a8a	-0.0513101
41	0xba33739e	-0.00068455364
42	0xbc9ae624	-0.018908568
43	0x3d2643a4	0.04059185
44	0xbc0eb332	-0.008709716
45	0xbc09c690	-0.008409157
46	0xbc66beec	-0.014083605
47	0x3c069195	0.00821342
48	0x3c06b6d2	0.008222299
49	0x3c31b939	0.010847383
50	0x3ce5bef4	0.028045155
51	0xbcde1e66	-0.027114104
52	0xbc16333a	-0.009167487
53	0xbc820c99	-0.015875148
54	0x3d61e865	0.05515327
55	0x3cef908b	0.029243728
56	0xbc41dc2b	-0.011832277
57	0x3caf4955	0.021397272
58	0xbc51d341	-0.0128067145
59	0xbc4bfa7e	-0.012449859
60	0xbd0decfd	-0.034649838
61	0x3cc73f11	0.024322065
62	0x3c292576	0.010323873
63	0xbc243d52	-0.0100243855
64	0x3c504452	0.012711601
65	0x3b554ea3	0.0032548092
66	0xbd53d601	-0.051717762
67	0xbc47540d	-0.012166035
68	0xbd0ab90a	-0.033867873
69	0x3cd4f03d	0.02599346
70	0xbcb2c80d	-0.021823907
71	0xbc2322cb	-0.009957026
72	0x3c5ce6c9	0.013482758
73	0xbca32cab	-0.01991876
74	0xbc4e51fb	-0.012592788
75	0x3ce8a180	0.028397322
76	0x3a9cf72f	0.0011975522
77	0x3cfbde3c	0.030745618
78	0x3cf0f0a0	0.029411614
79	0x3bb7f992	0.005614468
80	0x3d15cff6	0.03657528
81	0xbc383d85	-0.011245136
82	0x3c44581c	0.011983898
83	0xbca3ecde	-0.020010408
84	0xbd879d14	-0.06621757
85	0xbbd4814b	-0.0064851395
86	0xbc3750f3	-0.011188733
87	0xbc6b3d79	-0.014357918
88	0xbab89a48	-0.0014084065
89	0x3a7d50e9	0.00096632406
90	0xbccf22c7	-0.025285138
91	0xbb80744f	-0.003920115
92	0xbc99c246	-0.018769395
93	0x3d1ca660	0.038244605
94	0xbc4a7002	-0.012355806
95	0x3c7e072d	0.0155046405
96	0x3ca2601a	0.019821215
97	0xbc9cf3a4	-0.019159146
98	0xbbad004b	-0.005279576
99	0x3cb9f1e5	0.022698352
100	0x3cb54b15	0.022130528
101	0xbcae4b5e	-0.021276172
102	0x3c8c2195	0.017105857
103	0x3c45658b	0.0120481355
104	0xbcf8a2b4	-0.03035102
105	0xbc454a3c	-0.012041625
106	0xbc272ae8	-0.010203101
107	0x3c7c4af5	0.0153987305
108	0xbc7fedd1	-0.015620665
109	0x3c84addc	0.016196184
110	0xbcf9ea22	-0.030507151
111	0xbc3b7e83	-0.011443737
112	0x3c7b3cac	0.0153342895
113	0xbd6f6906	-0.058449768
114	0xbc8c62fb	-0.017137041
115	0xbbe4c827	-0.006981868
116	0xbd62a21f	-0.055330392
117	0x3d736d49	0.059430394
118	0xbd0da41f	-0.034580346
119	0xbc9c7119	-0.019096898
120	0xbcc0a747	-0.023517264
121	0xbc3ed688	-0.011647828
122	0x3baa123d	0.0051901625
123	0x3cb42f91	0.021995338
124	0xbce4318c	-0.027855657
125	0xba2f27e9	-0.00066816673
126	0x3d2d165e	0.04225766
127	0xbcadf74d	-0.021236086
128	0xbd6f769f	-0.058462735
129	0xbc2676ac	-0.0101601295
130	0x3c0e53b9	0.008686953
131	0xbcbd8b18	-0.023137614
132	0xbc59605d	-0.013267604
133	0xbc23f2ed	-0.0100066485
134	0xbb8ea654	-0.004353324
135	0xbcb3757a	-0.021906603
136	0x3c739741	0.014867605
137	0xbc0fce77	-0.008777252
138	0xbd5f5841	-0.054527525
139	0xbc8f5edf	-0.017501293
140	0x3cd184be	0.025575992
141	0xbcdbe523	-0.02684266
142	0xba983d1a	-0.0011614889
143	0xbcc54a74	-0.024083354
144	0xbc59da9d	-0.01329675
145	0x3ba6963a	0.0050838264
146	0x3a52adb0	0.0008036746
147	0x3d043ee4	0.03228654
148	0xbbec3ec5	-0.007209631
149	0x3c88e2d2	0.016709719
150	0x3cce3058	0.025169536
151	0xbbf59135	-0.0074941167
152	0xbc043df4	-0.008071411
153	0xbc937842	-0.01800168
154	0x3ce91b74	0.028455473
155	0x3d24622f	0.040132698
156	0xbc42094b	-0.011843036
157	0x3967c4c1	0.00022103173
158	0x3c458454	0.012055475
159	0x3c0ee39d	0.008721259
160	0xbcd5f060	-0.026115596
161	0x39e781d1	0.00044156474
162	0x3bf2264a	0.0073898183
163	0x3ab98fbd	0.0014157217
164	0x3b9554aa	0.004557212
165	0xbd298986	-0.04139092
166	0x3d00d668	0.031454474
167	0xbc4f1eed	-0.012641651
168	0x3cb50185	0.022095451
169	0x3c75e0b7	0.0150071895
170	0xbc67e904	-0.014154676
171	0x3d03002a	0.03198258
172	0xbc338a6c	-0.010958295
173	0xbca0252a	-0.019548971
174	0xbd0cc2b6	-0.03436538
175	0x3c2bb8d3	0.010481077
176	0x39d89bb9	0.00041314753
177	0x3be9184b	0.0071134917
178	0x3c89cf71	0.016822549
179	0xbc39050a	-0.011292705
180	0xbcf5495b	-0.029942205
181	0xbbbb5687	-0.005717102
182	0x3cabf71a	0.02099185
183	0x3b38a52b	0.002817462
184	0x3c520797	0.012819192
185	0xbcaad181	-0.020851852
186	0xbcb5e0f8	-0.022202
187	0x3c6c4b68	0.014422275
188	0xbcb1087f	-0.021610497
189	0x3c9c0585	0.0190456
190	0x3d233911	0.039849345
191	0xbbfd1802	-0.007723809
192	0x3d012831	0.03153247
193	0xbcb4c95d	-0.022068674
194	0x3d32989a	0.043602563
195	0x3cc80da0	0.02442056
196	0x3ba2f266	0.004972744
197	0x3c8da189	0.01728894
198	0xbaf09d4c	-0.0018357425
199	0xbb618fe9	-0.0034418053
200	0xbc57ae49	-0.013164111
201	0x3bd82e3a	0.0065973075
202	0x3c96f251	0.018426092
203	0xbcaf3a2c	-0.021390043
204	0x3cd78093	0.026306426
205	0x3cb265c8	0.021777049
206	0xbbd7665a	-0.0065734806
207	0x3ca42258	0.020035908
208	0x3c4c3883	0.012464645
209	0xbd0e9158	-0.03480658
210	0xbbdfeaf3	-0.006833428
211	0xbb3b8685	-0.0028614115
212	0xbca16354	-0.019700684
213	0x3cddc278	0.027070269
214	0x3d280fb1	0.04103059
215	0x3c686013	0.014183062
216	0x3cc47062	0.02397937
217	0xbd1029d0	-0.035196126
218	0x3bdd326b	0.006750395
219	0xbd1332c8	-0.0359371
220	0xbcf63a5c	-0.030057125
221	0xbc35f1e1	-0.011105032
222	0x3baacffb	0.0052127815
223	0xbd1186d3	-0.03552897
224	0x3c9c7c2b	0.019102177
225	0x3d03ba4f	0.0321601
226	0xbbad2876	-0.0052843643
227	0x3c4b12d0	0.012394622
228	0xbbdbd2bb	-0.0067084706
229	0x3cc8f85d	0.024532491
230	0x3d062fa1	0.032760266
231	0xbcd357bc	-0.025798671
232	0xbb52d445	-0.003216998
233	0xbc8bc819	-0.017063187
234	0xbc3c91f6	-0.011509409
235	0x39d488cf	0.0004053772
236	0x3d327aa5	0.043573994
237	0x3d23f38f	0.040027197
238	0x3c76607b	0.015037651
239	0xbc206a6e	-0.009791
240	0xbcd6cd6c	-0.026221
241	0xba34deb0	-0.0006899638
242	0x3b08c757	0.002087077
243	0xbc5890c7	-0.013218111
244	0xbc006f94	-0.007839102
245	0xbd392d1d	-0.04520904
246	0x3cac28b8	0.02101551
247	0x3c9a0271	0.018799992
248	0x3c5249cc	0.012834977
249	0xbb324a89	-0.002720507
250	0x3c08dede	0.008353917
251	0x3bba2e30	0.0056817755
252	0xbcdade22	-0.02671725
253	0xbb1f87bc	-0.0024342379
254	0x3b11655e	0.0022185664
255	0xbb229ada	-0.0024811537

action_model._discrete_distribution.branches.2.bias f4 [2]
0	0xbaf9047c	-0.0018998529
1	0x3af904c0	0.0018998608
